…
I0204 16:30:48.801280  3470 net.cpp:322] The NetState phase (0) differed from the phase (1) specified by a rule in layer accuracy
I0204 16:30:48.801519  3470 net.cpp:49] Initializing net from parameters: 
name: "CaffeNet"
state {
  phase: TRAIN
}
layer {
  name: "data"
  type: "Data"
  top: "data"
  top: "label"
  include {
    phase: TRAIN
  }
  transform_param {
    mirror: true
    crop_size: 227
    mean_file: "/home/pearlstl/proj_cv/master/lmdb/synth1_train_lum_db/mean_file.binaryproto"
  }
  data_param {
    source: "/home/pearlstl/proj_cv/master/lmdb/synth1_train_lum_db"
    batch_size: 100
    backend: LMDB
  }
}
layer {
  name: "conv1"
  type: "Convolution"
  bottom: "data"
  top: "conv1"
  param {
    lr_mult: 1
    decay_mult: 1
  }
  param {
    lr_mult: 2
    decay_mult: 0
  }
  convolution_param {
    num_output: 8
    kernel_size: 11
    stride: 4
    weight_filler {
      type: "xavier"
    }
    bias_filler {
      type: "constant"
      value: 0
    }
  }
}
layer {
  name: "relu1"
  type: "ReLU"
  bottom: "conv1"
  top: "conv1"
}
layer {
  name: "pool1"
  type: "Pooling"
  bottom: "conv1"
  top: "pool1"
  pooling_param {
    pool: MAX
    kernel_size: 3
    stride: 2
  }
}
layer {
  name: "norm1"
  type: "LRN"
  bottom: "pool1"
  top: "norm1"
  lrn_param {
    local_size: 5
    alpha: 0.0001
    beta: 0.75
  }
}
layer {
  name: "conv2"
  type: "Convolution"
  bottom: "norm1"
  top: "conv2"
  param {
    lr_mult: 1
    decay_mult: 1
  }
  param {
    lr_mult: 2
    decay_mult: 0
  }
  convolution_param {
    num_output: 8
    pad: 2
    kernel_size: 5
    group: 2
    weight_filler {
      type: "xavier"
    }
    bias_filler {
      type: "constant"
      value: 1
    }
  }
}
layer {
  name: "relu2"
  type: "ReLU"
  bottom: "conv2"
  top: "conv2"
}
layer {
  name: "pool2"
  type: "Pooling"
  bottom: "conv2"
  top: "pool2"
  pooling_param {
    pool: MAX
    kernel_size: 3
    stride: 2
  }
}
layer {
  name: "norm2"
  type: "LRN"
  bottom: "pool2"
  top: "norm2"
  lrn_param {
    local_size: 5
    alpha: 0.0001
    beta: 0.75
  }
}
layer {
  name: "conv3"
  type: "Convolution"
  bottom: "norm2"
  top: "conv3"
  param {
    lr_mult: 1
    decay_mult: 1
  }
  param {
    lr_mult: 2
    decay_mult: 0
  }
  convolution_param {
    num_output: 8
    pad: 1
    kernel_size: 3
    weight_filler {
      type: "xavier"
    }
    bias_filler {
      type: "constant"
      value: 0
    }
  }
}
layer {
  name: "relu3"
  type: "ReLU"
  bottom: "conv3"
  top: "conv3"
}
layer {
  name: "conv4"
  type: "Convolution"
  bottom: "conv3"
  top: "conv4"
  param {
    lr_mult: 1
    decay_mult: 1
  }
  param {
    lr_mult: 2
    decay_mult: 0
  }
  convolution_param {
    num_output: 8
    pad: 1
    kernel_size: 3
    group: 2
    weight_filler {
      type: "xavier"
    }
    bias_filler {
      type: "constant"
      value: 1
    }
  }
}
layer {
  name: "relu4"
  type: "ReLU"
  bottom: "conv4"
  top: "conv4"
}
layer {
  name: "conv5"
  type: "Convolution"
  bottom: "conv4"
  top: "conv5"
  param {
    lr_mult: 1
    decay_mult: 1
  }
  param {
    lr_mult: 2
    decay_mult: 0
  }
  convolution_param {
    num_output: 8
    pad: 1
    kernel_size: 3
    group: 2
    weight_filler {
      type: "xavier"
    }
    bias_filler {
      type: "constant"
      value: 1
    }
  }
}
layer {
  name: "relu5"
  type: "ReLU"
  bottom: "conv5"
  top: "conv5"
}
layer {
  name: "pool5"
  type: "Pooling"
  bottom: "conv5"
  top: "pool5"
  pooling_param {
    pool: MAX
    kernel_size: 3
    stride: 2
  }
}
layer {
  name: "fc6"
  type: "InnerProduct"
  bottom: "pool5"
  top: "fc6"
  param {
    lr_mult: 1
    decay_mult: 1
  }
  param {
    lr_mult: 2
    decay_mult: 0
  }
  inner_product_param {
    num_output: 256
    weight_filler {
      type: "xavier"
    }
    bias_filler {
      type: "constant"
      value: 1
    }
  }
}
layer {
  name: "relu6"
  type: "ReLU"
  bottom: "fc6"
  top: "fc6"
}
layer {
  name: "drop6"
  type: "Dropout"
  bottom: "fc6"
  top: "fc6"
  dropout_param {
    dropout_ratio: 0.5
  }
}
layer {
  name: "fc7"
  type: "InnerProduct"
  bottom: "fc6"
  top: "fc7"
  param {
    lr_mult: 1
    decay_mult: 1
  }
  param {
    lr_mult: 2
    decay_mult: 0
  }
  inner_product_param {
    num_output: 256
    weight_filler {
      type: "xavier"
    }
    bias_filler {
      type: "constant"
      value: 1
    }
  }
}
layer {
  name: "relu7"
  type: "ReLU"
  bottom: "fc7"
  top: "fc7"
}
layer {
  name: "drop7"
  type: "Dropout"
  bottom: "fc7"
  top: "fc7"
  dropout_param {
    dropout_ratio: 0.5
  }
}
layer {
  name: "fc8"
  type: "InnerProduct"
  bottom: "fc7"
  top: "fc8"
  param {
    lr_mult: 1
    decay_mult: 1
  }
  param {
    lr_mult: 2
    decay_mult: 0
  }
  inner_product_param {
    num_output: 2
    weight_filler {
      type: "xavier"
    }
    bias_filler {
      type: "constant"
      value: 0
    }
  }
}
layer {
  name: "loss"
  type: "SoftmaxWithLoss"
  bottom: "fc8"
  bottom: "label"
  top: "loss"
}
I0204 16:30:48.801640  3470 layer_factory.hpp:77] Creating layer data
I0204 16:30:48.801800  3470 net.cpp:106] Creating Layer data
I0204 16:30:48.801815  3470 net.cpp:411] data -> data
I0204 16:30:48.801919  3470 net.cpp:411] data -> label
I0204 16:30:48.801950  3470 data_transformer.cpp:25] Loading mean file from: /home/pearlstl/proj_cv/master/lmdb/synth1_train_lum_db/mean_file.binaryproto
I0204 16:30:48.802064  3474 db_lmdb.cpp:38] Opened lmdb /home/pearlstl/proj_cv/master/lmdb/synth1_train_lum_db
I0204 16:30:48.802839  3470 data_layer.cpp:41] output data size: 100,1,227,227
I0204 16:30:48.838831  3470 net.cpp:150] Setting up data
I0204 16:30:48.838866  3470 net.cpp:157] Top shape: 100 1 227 227 (5152900)
I0204 16:30:48.838876  3470 net.cpp:157] Top shape: 100 (100)
I0204 16:30:48.838881  3470 net.cpp:165] Memory required for data: 20612000
I0204 16:30:48.838898  3470 layer_factory.hpp:77] Creating layer conv1
I0204 16:30:48.838922  3470 net.cpp:106] Creating Layer conv1
I0204 16:30:48.838929  3470 net.cpp:454] conv1 <- data
I0204 16:30:48.838948  3470 net.cpp:411] conv1 -> conv1
I0204 16:30:48.839036  3470 net.cpp:150] Setting up conv1
I0204 16:30:48.839048  3470 net.cpp:157] Top shape: 100 8 55 55 (2420000)
I0204 16:30:48.839054  3470 net.cpp:165] Memory required for data: 30292000
I0204 16:30:48.839071  3470 layer_factory.hpp:77] Creating layer relu1
I0204 16:30:48.839082  3470 net.cpp:106] Creating Layer relu1
I0204 16:30:48.839087  3470 net.cpp:454] relu1 <- conv1
I0204 16:30:48.839097  3470 net.cpp:397] relu1 -> conv1 (in-place)
I0204 16:30:48.839107  3470 net.cpp:150] Setting up relu1
I0204 16:30:48.839115  3470 net.cpp:157] Top shape: 100 8 55 55 (2420000)
I0204 16:30:48.839120  3470 net.cpp:165] Memory required for data: 39972000
I0204 16:30:48.839126  3470 layer_factory.hpp:77] Creating layer pool1
I0204 16:30:48.839136  3470 net.cpp:106] Creating Layer pool1
I0204 16:30:48.839143  3470 net.cpp:454] pool1 <- conv1
I0204 16:30:48.839150  3470 net.cpp:411] pool1 -> pool1
I0204 16:30:48.839171  3470 net.cpp:150] Setting up pool1
I0204 16:30:48.839179  3470 net.cpp:157] Top shape: 100 8 27 27 (583200)
I0204 16:30:48.839185  3470 net.cpp:165] Memory required for data: 42304800
I0204 16:30:48.839191  3470 layer_factory.hpp:77] Creating layer norm1
I0204 16:30:48.839210  3470 net.cpp:106] Creating Layer norm1
I0204 16:30:48.839223  3470 net.cpp:454] norm1 <- pool1
I0204 16:30:48.839232  3470 net.cpp:411] norm1 -> norm1
I0204 16:30:48.839247  3470 net.cpp:150] Setting up norm1
I0204 16:30:48.839256  3470 net.cpp:157] Top shape: 100 8 27 27 (583200)
I0204 16:30:48.839262  3470 net.cpp:165] Memory required for data: 44637600
I0204 16:30:48.839267  3470 layer_factory.hpp:77] Creating layer conv2
I0204 16:30:48.839277  3470 net.cpp:106] Creating Layer conv2
I0204 16:30:48.839282  3470 net.cpp:454] conv2 <- norm1
I0204 16:30:48.839292  3470 net.cpp:411] conv2 -> conv2
I0204 16:30:48.839320  3470 net.cpp:150] Setting up conv2
I0204 16:30:48.839329  3470 net.cpp:157] Top shape: 100 8 27 27 (583200)
I0204 16:30:48.839334  3470 net.cpp:165] Memory required for data: 46970400
I0204 16:30:48.839344  3470 layer_factory.hpp:77] Creating layer relu2
I0204 16:30:48.839351  3470 net.cpp:106] Creating Layer relu2
I0204 16:30:48.839357  3470 net.cpp:454] relu2 <- conv2
I0204 16:30:48.839365  3470 net.cpp:397] relu2 -> conv2 (in-place)
I0204 16:30:48.839375  3470 net.cpp:150] Setting up relu2
I0204 16:30:48.839381  3470 net.cpp:157] Top shape: 100 8 27 27 (583200)
I0204 16:30:48.839386  3470 net.cpp:165] Memory required for data: 49303200
I0204 16:30:48.839391  3470 layer_factory.hpp:77] Creating layer pool2
I0204 16:30:48.839401  3470 net.cpp:106] Creating Layer pool2
I0204 16:30:48.839406  3470 net.cpp:454] pool2 <- conv2
I0204 16:30:48.839413  3470 net.cpp:411] pool2 -> pool2
I0204 16:30:48.839423  3470 net.cpp:150] Setting up pool2
I0204 16:30:48.839431  3470 net.cpp:157] Top shape: 100 8 13 13 (135200)
I0204 16:30:48.839437  3470 net.cpp:165] Memory required for data: 49844000
I0204 16:30:48.839442  3470 layer_factory.hpp:77] Creating layer norm2
I0204 16:30:48.839452  3470 net.cpp:106] Creating Layer norm2
I0204 16:30:48.839457  3470 net.cpp:454] norm2 <- pool2
I0204 16:30:48.839464  3470 net.cpp:411] norm2 -> norm2
I0204 16:30:48.839473  3470 net.cpp:150] Setting up norm2
I0204 16:30:48.839480  3470 net.cpp:157] Top shape: 100 8 13 13 (135200)
I0204 16:30:48.839485  3470 net.cpp:165] Memory required for data: 50384800
I0204 16:30:48.839490  3470 layer_factory.hpp:77] Creating layer conv3
I0204 16:30:48.839500  3470 net.cpp:106] Creating Layer conv3
I0204 16:30:48.839505  3470 net.cpp:454] conv3 <- norm2
I0204 16:30:48.839514  3470 net.cpp:411] conv3 -> conv3
I0204 16:30:48.839539  3470 net.cpp:150] Setting up conv3
I0204 16:30:48.839547  3470 net.cpp:157] Top shape: 100 8 13 13 (135200)
I0204 16:30:48.839552  3470 net.cpp:165] Memory required for data: 50925600
I0204 16:30:48.839565  3470 layer_factory.hpp:77] Creating layer relu3
I0204 16:30:48.839572  3470 net.cpp:106] Creating Layer relu3
I0204 16:30:48.839578  3470 net.cpp:454] relu3 <- conv3
I0204 16:30:48.839586  3470 net.cpp:397] relu3 -> conv3 (in-place)
I0204 16:30:48.839593  3470 net.cpp:150] Setting up relu3
I0204 16:30:48.839601  3470 net.cpp:157] Top shape: 100 8 13 13 (135200)
I0204 16:30:48.839606  3470 net.cpp:165] Memory required for data: 51466400
I0204 16:30:48.839612  3470 layer_factory.hpp:77] Creating layer conv4
I0204 16:30:48.839620  3470 net.cpp:106] Creating Layer conv4
I0204 16:30:48.839627  3470 net.cpp:454] conv4 <- conv3
I0204 16:30:48.839634  3470 net.cpp:411] conv4 -> conv4
I0204 16:30:48.839656  3470 net.cpp:150] Setting up conv4
I0204 16:30:48.839663  3470 net.cpp:157] Top shape: 100 8 13 13 (135200)
I0204 16:30:48.839668  3470 net.cpp:165] Memory required for data: 52007200
I0204 16:30:48.839676  3470 layer_factory.hpp:77] Creating layer relu4
I0204 16:30:48.839684  3470 net.cpp:106] Creating Layer relu4
I0204 16:30:48.839689  3470 net.cpp:454] relu4 <- conv4
I0204 16:30:48.839696  3470 net.cpp:397] relu4 -> conv4 (in-place)
I0204 16:30:48.839705  3470 net.cpp:150] Setting up relu4
I0204 16:30:48.839712  3470 net.cpp:157] Top shape: 100 8 13 13 (135200)
I0204 16:30:48.839717  3470 net.cpp:165] Memory required for data: 52548000
I0204 16:30:48.839723  3470 layer_factory.hpp:77] Creating layer conv5
I0204 16:30:48.839736  3470 net.cpp:106] Creating Layer conv5
I0204 16:30:48.839747  3470 net.cpp:454] conv5 <- conv4
I0204 16:30:48.839756  3470 net.cpp:411] conv5 -> conv5
I0204 16:30:48.839776  3470 net.cpp:150] Setting up conv5
I0204 16:30:48.839783  3470 net.cpp:157] Top shape: 100 8 13 13 (135200)
I0204 16:30:48.839788  3470 net.cpp:165] Memory required for data: 53088800
I0204 16:30:48.839799  3470 layer_factory.hpp:77] Creating layer relu5
I0204 16:30:48.839807  3470 net.cpp:106] Creating Layer relu5
I0204 16:30:48.839813  3470 net.cpp:454] relu5 <- conv5
I0204 16:30:48.839821  3470 net.cpp:397] relu5 -> conv5 (in-place)
I0204 16:30:48.839829  3470 net.cpp:150] Setting up relu5
I0204 16:30:48.839836  3470 net.cpp:157] Top shape: 100 8 13 13 (135200)
I0204 16:30:48.839841  3470 net.cpp:165] Memory required for data: 53629600
I0204 16:30:48.839848  3470 layer_factory.hpp:77] Creating layer pool5
I0204 16:30:48.839855  3470 net.cpp:106] Creating Layer pool5
I0204 16:30:48.839861  3470 net.cpp:454] pool5 <- conv5
I0204 16:30:48.839869  3470 net.cpp:411] pool5 -> pool5
I0204 16:30:48.839879  3470 net.cpp:150] Setting up pool5
I0204 16:30:48.839886  3470 net.cpp:157] Top shape: 100 8 6 6 (28800)
I0204 16:30:48.839891  3470 net.cpp:165] Memory required for data: 53744800
I0204 16:30:48.839897  3470 layer_factory.hpp:77] Creating layer fc6
I0204 16:30:48.839910  3470 net.cpp:106] Creating Layer fc6
I0204 16:30:48.839916  3470 net.cpp:454] fc6 <- pool5
I0204 16:30:48.839926  3470 net.cpp:411] fc6 -> fc6
I0204 16:30:48.840665  3470 net.cpp:150] Setting up fc6
I0204 16:30:48.840677  3470 net.cpp:157] Top shape: 100 256 (25600)
I0204 16:30:48.840683  3470 net.cpp:165] Memory required for data: 53847200
I0204 16:30:48.840692  3470 layer_factory.hpp:77] Creating layer relu6
I0204 16:30:48.840700  3470 net.cpp:106] Creating Layer relu6
I0204 16:30:48.840706  3470 net.cpp:454] relu6 <- fc6
I0204 16:30:48.840714  3470 net.cpp:397] relu6 -> fc6 (in-place)
I0204 16:30:48.840723  3470 net.cpp:150] Setting up relu6
I0204 16:30:48.840730  3470 net.cpp:157] Top shape: 100 256 (25600)
I0204 16:30:48.840735  3470 net.cpp:165] Memory required for data: 53949600
I0204 16:30:48.840741  3470 layer_factory.hpp:77] Creating layer drop6
I0204 16:30:48.840750  3470 net.cpp:106] Creating Layer drop6
I0204 16:30:48.840757  3470 net.cpp:454] drop6 <- fc6
I0204 16:30:48.840764  3470 net.cpp:397] drop6 -> fc6 (in-place)
I0204 16:30:48.840780  3470 net.cpp:150] Setting up drop6
I0204 16:30:48.840786  3470 net.cpp:157] Top shape: 100 256 (25600)
I0204 16:30:48.840792  3470 net.cpp:165] Memory required for data: 54052000
I0204 16:30:48.840797  3470 layer_factory.hpp:77] Creating layer fc7
I0204 16:30:48.840806  3470 net.cpp:106] Creating Layer fc7
I0204 16:30:48.840812  3470 net.cpp:454] fc7 <- fc6
I0204 16:30:48.840821  3470 net.cpp:411] fc7 -> fc7
I0204 16:30:48.841459  3470 net.cpp:150] Setting up fc7
I0204 16:30:48.841470  3470 net.cpp:157] Top shape: 100 256 (25600)
I0204 16:30:48.841475  3470 net.cpp:165] Memory required for data: 54154400
I0204 16:30:48.841483  3470 layer_factory.hpp:77] Creating layer relu7
I0204 16:30:48.841491  3470 net.cpp:106] Creating Layer relu7
I0204 16:30:48.841497  3470 net.cpp:454] relu7 <- fc7
I0204 16:30:48.841506  3470 net.cpp:397] relu7 -> fc7 (in-place)
I0204 16:30:48.841516  3470 net.cpp:150] Setting up relu7
I0204 16:30:48.841522  3470 net.cpp:157] Top shape: 100 256 (25600)
I0204 16:30:48.841527  3470 net.cpp:165] Memory required for data: 54256800
I0204 16:30:48.841532  3470 layer_factory.hpp:77] Creating layer drop7
I0204 16:30:48.841541  3470 net.cpp:106] Creating Layer drop7
I0204 16:30:48.841547  3470 net.cpp:454] drop7 <- fc7
I0204 16:30:48.841553  3470 net.cpp:397] drop7 -> fc7 (in-place)
I0204 16:30:48.841562  3470 net.cpp:150] Setting up drop7
I0204 16:30:48.841568  3470 net.cpp:157] Top shape: 100 256 (25600)
I0204 16:30:48.841574  3470 net.cpp:165] Memory required for data: 54359200
I0204 16:30:48.841579  3470 layer_factory.hpp:77] Creating layer fc8
I0204 16:30:48.841590  3470 net.cpp:106] Creating Layer fc8
I0204 16:30:48.841600  3470 net.cpp:454] fc8 <- fc7
I0204 16:30:48.841615  3470 net.cpp:411] fc8 -> fc8
I0204 16:30:48.841636  3470 net.cpp:150] Setting up fc8
I0204 16:30:48.841645  3470 net.cpp:157] Top shape: 100 2 (200)
I0204 16:30:48.841650  3470 net.cpp:165] Memory required for data: 54360000
I0204 16:30:48.841658  3470 layer_factory.hpp:77] Creating layer loss
I0204 16:30:48.841666  3470 net.cpp:106] Creating Layer loss
I0204 16:30:48.841672  3470 net.cpp:454] loss <- fc8
I0204 16:30:48.841680  3470 net.cpp:454] loss <- label
I0204 16:30:48.841687  3470 net.cpp:411] loss -> loss
I0204 16:30:48.841701  3470 layer_factory.hpp:77] Creating layer loss
…
I0204 16:30:48.842692  3470 net.cpp:322] The NetState phase (1) differed from the phase (0) specified by a rule in layer data
I0204 16:30:48.842975  3470 net.cpp:49] Initializing net from parameters: 
name: "CaffeNet"
state {
  phase: TEST
}
layer {
  name: "data"
  type: "Data"
  top: "data"
  top: "label"
  include {
    phase: TEST
  }
  transform_param {
    mirror: false
    crop_size: 227
    mean_file: "/home/pearlstl/proj_cv/master/lmdb/synth1_test_lum_db/mean_file.binaryproto"
  }
  data_param {
    source: "/home/pearlstl/proj_cv/master/lmdb/synth1_test_lum_db"
    batch_size: 100
    backend: LMDB
  }
}
layer {
  name: "conv1"
  type: "Convolution"
  bottom: "data"
  top: "conv1"
  param {
    lr_mult: 1
    decay_mult: 1
  }
  param {
    lr_mult: 2
    decay_mult: 0
  }
  convolution_param {
    num_output: 8
    kernel_size: 11
    stride: 4
    weight_filler {
      type: "xavier"
    }
    bias_filler {
      type: "constant"
      value: 0
    }
  }
}
layer {
  name: "relu1"
  type: "ReLU"
  bottom: "conv1"
  top: "conv1"
}
layer {
  name: "pool1"
  type: "Pooling"
  bottom: "conv1"
  top: "pool1"
  pooling_param {
    pool: MAX
    kernel_size: 3
    stride: 2
  }
}
layer {
  name: "norm1"
  type: "LRN"
  bottom: "pool1"
  top: "norm1"
  lrn_param {
    local_size: 5
    alpha: 0.0001
    beta: 0.75
  }
}
layer {
  name: "conv2"
  type: "Convolution"
  bottom: "norm1"
  top: "conv2"
  param {
    lr_mult: 1
    decay_mult: 1
  }
  param {
    lr_mult: 2
    decay_mult: 0
  }
  convolution_param {
    num_output: 8
    pad: 2
    kernel_size: 5
    group: 2
    weight_filler {
      type: "xavier"
    }
    bias_filler {
      type: "constant"
      value: 1
    }
  }
}
layer {
  name: "relu2"
  type: "ReLU"
  bottom: "conv2"
  top: "conv2"
}
layer {
  name: "pool2"
  type: "Pooling"
  bottom: "conv2"
  top: "pool2"
  pooling_param {
    pool: MAX
    kernel_size: 3
    stride: 2
  }
}
layer {
  name: "norm2"
  type: "LRN"
  bottom: "pool2"
  top: "norm2"
  lrn_param {
    local_size: 5
    alpha: 0.0001
    beta: 0.75
  }
}
layer {
  name: "conv3"
  type: "Convolution"
  bottom: "norm2"
  top: "conv3"
  param {
    lr_mult: 1
    decay_mult: 1
  }
  param {
    lr_mult: 2
    decay_mult: 0
  }
  convolution_param {
    num_output: 8
    pad: 1
    kernel_size: 3
    weight_filler {
      type: "xavier"
    }
    bias_filler {
      type: "constant"
      value: 0
    }
  }
}
layer {
  name: "relu3"
  type: "ReLU"
  bottom: "conv3"
  top: "conv3"
}
layer {
  name: "conv4"
  type: "Convolution"
  bottom: "conv3"
  top: "conv4"
  param {
    lr_mult: 1
    decay_mult: 1
  }
  param {
    lr_mult: 2
    decay_mult: 0
  }
  convolution_param {
    num_output: 8
    pad: 1
    kernel_size: 3
    group: 2
    weight_filler {
      type: "xavier"
    }
    bias_filler {
      type: "constant"
      value: 1
    }
  }
}
layer {
  name: "relu4"
  type: "ReLU"
  bottom: "conv4"
  top: "conv4"
}
layer {
  name: "conv5"
  type: "Convolution"
  bottom: "conv4"
  top: "conv5"
  param {
    lr_mult: 1
    decay_mult: 1
  }
  param {
    lr_mult: 2
    decay_mult: 0
  }
  convolution_param {
    num_output: 8
    pad: 1
    kernel_size: 3
    group: 2
    weight_filler {
      type: "xavier"
    }
    bias_filler {
      type: "constant"
      value: 1
    }
  }
}
layer {
  name: "relu5"
  type: "ReLU"
  bottom: "conv5"
  top: "conv5"
}
layer {
  name: "pool5"
  type: "Pooling"
  bottom: "conv5"
  top: "pool5"
  pooling_param {
    pool: MAX
    kernel_size: 3
    stride: 2
  }
}
layer {
  name: "fc6"
  type: "InnerProduct"
  bottom: "pool5"
  top: "fc6"
  param {
    lr_mult: 1
    decay_mult: 1
  }
  param {
    lr_mult: 2
    decay_mult: 0
  }
  inner_product_param {
    num_output: 256
    weight_filler {
      type: "xavier"
    }
    bias_filler {
      type: "constant"
      value: 1
    }
  }
}
layer {
  name: "relu6"
  type: "ReLU"
  bottom: "fc6"
  top: "fc6"
}
layer {
  name: "drop6"
  type: "Dropout"
  bottom: "fc6"
  top: "fc6"
  dropout_param {
    dropout_ratio: 0.5
  }
}
layer {
  name: "fc7"
  type: "InnerProduct"
  bottom: "fc6"
  top: "fc7"
  param {
    lr_mult: 1
    decay_mult: 1
  }
  param {
    lr_mult: 2
    decay_mult: 0
  }
  inner_product_param {
    num_output: 256
    weight_filler {
      type: "xavier"
    }
    bias_filler {
      type: "constant"
      value: 1
    }
  }
}
layer {
  name: "relu7"
  type: "ReLU"
  bottom: "fc7"
  top: "fc7"
}
layer {
  name: "drop7"
  type: "Dropout"
  bottom: "fc7"
  top: "fc7"
  dropout_param {
    dropout_ratio: 0.5
  }
}
layer {
  name: "fc8"
  type: "InnerProduct"
  bottom: "fc7"
  top: "fc8"
  param {
    lr_mult: 1
    decay_mult: 1
  }
  param {
    lr_mult: 2
    decay_mult: 0
  }
  inner_product_param {
    num_output: 2
    weight_filler {
      type: "xavier"
    }
    bias_filler {
      type: "constant"
      value: 0
    }
  }
}
layer {
  name: "accuracy"
  type: "Accuracy"
  bottom: "fc8"
  bottom: "label"
  top: "accuracy"
  include {
    phase: TEST
  }
}
layer {
  name: "loss"
  type: "SoftmaxWithLoss"
  bottom: "fc8"
  bottom: "label"
  top: "loss"
}
I0204 16:30:48.843138  3470 layer_factory.hpp:77] Creating layer data
I0204 16:30:48.843278  3470 net.cpp:106] Creating Layer data
I0204 16:30:48.843294  3470 net.cpp:411] data -> data
I0204 16:30:48.843307  3470 net.cpp:411] data -> label
I0204 16:30:48.843319  3470 data_transformer.cpp:25] Loading mean file from: /home/pearlstl/proj_cv/master/lmdb/synth1_test_lum_db/mean_file.binaryproto
I0204 16:30:48.856252  3488 db_lmdb.cpp:38] Opened lmdb /home/pearlstl/proj_cv/master/lmdb/synth1_test_lum_db
I0204 16:30:48.856727  3470 data_layer.cpp:41] output data size: 100,1,227,227
I0204 16:30:48.910380  3470 net.cpp:150] Setting up data
I0204 16:30:48.910415  3470 net.cpp:157] Top shape: 100 1 227 227 (5152900)
I0204 16:30:48.910424  3470 net.cpp:157] Top shape: 100 (100)
I0204 16:30:48.910430  3470 net.cpp:165] Memory required for data: 20612000
I0204 16:30:48.910439  3470 layer_factory.hpp:77] Creating layer label_data_1_split
I0204 16:30:48.910457  3470 net.cpp:106] Creating Layer label_data_1_split
I0204 16:30:48.910465  3470 net.cpp:454] label_data_1_split <- label
I0204 16:30:48.910476  3470 net.cpp:411] label_data_1_split -> label_data_1_split_0
I0204 16:30:48.910540  3470 net.cpp:411] label_data_1_split -> label_data_1_split_1
I0204 16:30:48.910557  3470 net.cpp:150] Setting up label_data_1_split
I0204 16:30:48.910564  3470 net.cpp:157] Top shape: 100 (100)
I0204 16:30:48.910572  3470 net.cpp:157] Top shape: 100 (100)
I0204 16:30:48.910576  3470 net.cpp:165] Memory required for data: 20612800
I0204 16:30:48.910583  3470 layer_factory.hpp:77] Creating layer conv1
I0204 16:30:48.910598  3470 net.cpp:106] Creating Layer conv1
I0204 16:30:48.910609  3470 net.cpp:454] conv1 <- data
I0204 16:30:48.910619  3470 net.cpp:411] conv1 -> conv1
I0204 16:30:48.910665  3470 net.cpp:150] Setting up conv1
I0204 16:30:48.910675  3470 net.cpp:157] Top shape: 100 8 55 55 (2420000)
I0204 16:30:48.910681  3470 net.cpp:165] Memory required for data: 30292800
I0204 16:30:48.910693  3470 layer_factory.hpp:77] Creating layer relu1
I0204 16:30:48.910703  3470 net.cpp:106] Creating Layer relu1
I0204 16:30:48.910709  3470 net.cpp:454] relu1 <- conv1
I0204 16:30:48.910718  3470 net.cpp:397] relu1 -> conv1 (in-place)
I0204 16:30:48.910727  3470 net.cpp:150] Setting up relu1
I0204 16:30:48.910734  3470 net.cpp:157] Top shape: 100 8 55 55 (2420000)
I0204 16:30:48.910789  3470 net.cpp:165] Memory required for data: 39972800
I0204 16:30:48.910796  3470 layer_factory.hpp:77] Creating layer pool1
I0204 16:30:48.910807  3470 net.cpp:106] Creating Layer pool1
I0204 16:30:48.910814  3470 net.cpp:454] pool1 <- conv1
I0204 16:30:48.910822  3470 net.cpp:411] pool1 -> pool1
I0204 16:30:48.910836  3470 net.cpp:150] Setting up pool1
I0204 16:30:48.910845  3470 net.cpp:157] Top shape: 100 8 27 27 (583200)
I0204 16:30:48.910851  3470 net.cpp:165] Memory required for data: 42305600
I0204 16:30:48.910856  3470 layer_factory.hpp:77] Creating layer norm1
I0204 16:30:48.910866  3470 net.cpp:106] Creating Layer norm1
I0204 16:30:48.910872  3470 net.cpp:454] norm1 <- pool1
I0204 16:30:48.910881  3470 net.cpp:411] norm1 -> norm1
I0204 16:30:48.910892  3470 net.cpp:150] Setting up norm1
I0204 16:30:48.910898  3470 net.cpp:157] Top shape: 100 8 27 27 (583200)
I0204 16:30:48.910903  3470 net.cpp:165] Memory required for data: 44638400
I0204 16:30:48.910909  3470 layer_factory.hpp:77] Creating layer conv2
I0204 16:30:48.910919  3470 net.cpp:106] Creating Layer conv2
I0204 16:30:48.910931  3470 net.cpp:454] conv2 <- norm1
I0204 16:30:48.910940  3470 net.cpp:411] conv2 -> conv2
I0204 16:30:48.910969  3470 net.cpp:150] Setting up conv2
I0204 16:30:48.910977  3470 net.cpp:157] Top shape: 100 8 27 27 (583200)
I0204 16:30:48.911039  3470 net.cpp:165] Memory required for data: 46971200
I0204 16:30:48.911056  3470 layer_factory.hpp:77] Creating layer relu2
I0204 16:30:48.911064  3470 net.cpp:106] Creating Layer relu2
I0204 16:30:48.911070  3470 net.cpp:454] relu2 <- conv2
I0204 16:30:48.911078  3470 net.cpp:397] relu2 -> conv2 (in-place)
I0204 16:30:48.911097  3470 net.cpp:150] Setting up relu2
I0204 16:30:48.911113  3470 net.cpp:157] Top shape: 100 8 27 27 (583200)
I0204 16:30:48.911118  3470 net.cpp:165] Memory required for data: 49304000
I0204 16:30:48.911123  3470 layer_factory.hpp:77] Creating layer pool2
I0204 16:30:48.911134  3470 net.cpp:106] Creating Layer pool2
I0204 16:30:48.911139  3470 net.cpp:454] pool2 <- conv2
I0204 16:30:48.911147  3470 net.cpp:411] pool2 -> pool2
I0204 16:30:48.911159  3470 net.cpp:150] Setting up pool2
I0204 16:30:48.911166  3470 net.cpp:157] Top shape: 100 8 13 13 (135200)
I0204 16:30:48.911172  3470 net.cpp:165] Memory required for data: 49844800
I0204 16:30:48.911177  3470 layer_factory.hpp:77] Creating layer norm2
I0204 16:30:48.911186  3470 net.cpp:106] Creating Layer norm2
I0204 16:30:48.911192  3470 net.cpp:454] norm2 <- pool2
I0204 16:30:48.911201  3470 net.cpp:411] norm2 -> norm2
I0204 16:30:48.911209  3470 net.cpp:150] Setting up norm2
I0204 16:30:48.911216  3470 net.cpp:157] Top shape: 100 8 13 13 (135200)
I0204 16:30:48.911221  3470 net.cpp:165] Memory required for data: 50385600
I0204 16:30:48.911227  3470 layer_factory.hpp:77] Creating layer conv3
I0204 16:30:48.911237  3470 net.cpp:106] Creating Layer conv3
I0204 16:30:48.911291  3470 net.cpp:454] conv3 <- norm2
I0204 16:30:48.911303  3470 net.cpp:411] conv3 -> conv3
I0204 16:30:48.911331  3470 net.cpp:150] Setting up conv3
I0204 16:30:48.911339  3470 net.cpp:157] Top shape: 100 8 13 13 (135200)
I0204 16:30:48.911345  3470 net.cpp:165] Memory required for data: 50926400
I0204 16:30:48.911355  3470 layer_factory.hpp:77] Creating layer relu3
I0204 16:30:48.911363  3470 net.cpp:106] Creating Layer relu3
I0204 16:30:48.911370  3470 net.cpp:454] relu3 <- conv3
I0204 16:30:48.911376  3470 net.cpp:397] relu3 -> conv3 (in-place)
I0204 16:30:48.911386  3470 net.cpp:150] Setting up relu3
I0204 16:30:48.911391  3470 net.cpp:157] Top shape: 100 8 13 13 (135200)
I0204 16:30:48.911397  3470 net.cpp:165] Memory required for data: 51467200
I0204 16:30:48.911402  3470 layer_factory.hpp:77] Creating layer conv4
I0204 16:30:48.911412  3470 net.cpp:106] Creating Layer conv4
I0204 16:30:48.911418  3470 net.cpp:454] conv4 <- conv3
I0204 16:30:48.911427  3470 net.cpp:411] conv4 -> conv4
I0204 16:30:48.911448  3470 net.cpp:150] Setting up conv4
I0204 16:30:48.911455  3470 net.cpp:157] Top shape: 100 8 13 13 (135200)
I0204 16:30:48.911460  3470 net.cpp:165] Memory required for data: 52008000
I0204 16:30:48.911468  3470 layer_factory.hpp:77] Creating layer relu4
I0204 16:30:48.911476  3470 net.cpp:106] Creating Layer relu4
I0204 16:30:48.911483  3470 net.cpp:454] relu4 <- conv4
I0204 16:30:48.911564  3470 net.cpp:397] relu4 -> conv4 (in-place)
I0204 16:30:48.911576  3470 net.cpp:150] Setting up relu4
I0204 16:30:48.911583  3470 net.cpp:157] Top shape: 100 8 13 13 (135200)
I0204 16:30:48.911589  3470 net.cpp:165] Memory required for data: 52548800
I0204 16:30:48.911595  3470 layer_factory.hpp:77] Creating layer conv5
I0204 16:30:48.911605  3470 net.cpp:106] Creating Layer conv5
I0204 16:30:48.911612  3470 net.cpp:454] conv5 <- conv4
I0204 16:30:48.911620  3470 net.cpp:411] conv5 -> conv5
I0204 16:30:48.911644  3470 net.cpp:150] Setting up conv5
I0204 16:30:48.911653  3470 net.cpp:157] Top shape: 100 8 13 13 (135200)
I0204 16:30:48.911658  3470 net.cpp:165] Memory required for data: 53089600
I0204 16:30:48.911669  3470 layer_factory.hpp:77] Creating layer relu5
I0204 16:30:48.911677  3470 net.cpp:106] Creating Layer relu5
I0204 16:30:48.911684  3470 net.cpp:454] relu5 <- conv5
I0204 16:30:48.911690  3470 net.cpp:397] relu5 -> conv5 (in-place)
I0204 16:30:48.911698  3470 net.cpp:150] Setting up relu5
I0204 16:30:48.911705  3470 net.cpp:157] Top shape: 100 8 13 13 (135200)
I0204 16:30:48.911711  3470 net.cpp:165] Memory required for data: 53630400
I0204 16:30:48.911716  3470 layer_factory.hpp:77] Creating layer pool5
I0204 16:30:48.911726  3470 net.cpp:106] Creating Layer pool5
I0204 16:30:48.911783  3470 net.cpp:454] pool5 <- conv5
I0204 16:30:48.911793  3470 net.cpp:411] pool5 -> pool5
I0204 16:30:48.911809  3470 net.cpp:150] Setting up pool5
I0204 16:30:48.911823  3470 net.cpp:157] Top shape: 100 8 6 6 (28800)
I0204 16:30:48.911828  3470 net.cpp:165] Memory required for data: 53745600
I0204 16:30:48.911834  3470 layer_factory.hpp:77] Creating layer fc6
I0204 16:30:48.911845  3470 net.cpp:106] Creating Layer fc6
I0204 16:30:48.911851  3470 net.cpp:454] fc6 <- pool5
I0204 16:30:48.911859  3470 net.cpp:411] fc6 -> fc6
I0204 16:30:48.912700  3470 net.cpp:150] Setting up fc6
I0204 16:30:48.912762  3470 net.cpp:157] Top shape: 100 256 (25600)
I0204 16:30:48.912770  3470 net.cpp:165] Memory required for data: 53848000
I0204 16:30:48.912786  3470 layer_factory.hpp:77] Creating layer relu6
I0204 16:30:48.912794  3470 net.cpp:106] Creating Layer relu6
I0204 16:30:48.912801  3470 net.cpp:454] relu6 <- fc6
I0204 16:30:48.912811  3470 net.cpp:397] relu6 -> fc6 (in-place)
I0204 16:30:48.912820  3470 net.cpp:150] Setting up relu6
I0204 16:30:48.912827  3470 net.cpp:157] Top shape: 100 256 (25600)
I0204 16:30:48.912833  3470 net.cpp:165] Memory required for data: 53950400
I0204 16:30:48.912838  3470 layer_factory.hpp:77] Creating layer drop6
I0204 16:30:48.912848  3470 net.cpp:106] Creating Layer drop6
I0204 16:30:48.912854  3470 net.cpp:454] drop6 <- fc6
I0204 16:30:48.912864  3470 net.cpp:397] drop6 -> fc6 (in-place)
I0204 16:30:48.912875  3470 net.cpp:150] Setting up drop6
I0204 16:30:48.912883  3470 net.cpp:157] Top shape: 100 256 (25600)
I0204 16:30:48.912888  3470 net.cpp:165] Memory required for data: 54052800
I0204 16:30:48.912894  3470 layer_factory.hpp:77] Creating layer fc7
I0204 16:30:48.912902  3470 net.cpp:106] Creating Layer fc7
I0204 16:30:48.912909  3470 net.cpp:454] fc7 <- fc6
I0204 16:30:48.912919  3470 net.cpp:411] fc7 -> fc7
I0204 16:30:48.913780  3470 net.cpp:150] Setting up fc7
I0204 16:30:48.913794  3470 net.cpp:157] Top shape: 100 256 (25600)
I0204 16:30:48.913800  3470 net.cpp:165] Memory required for data: 54155200
I0204 16:30:48.913808  3470 layer_factory.hpp:77] Creating layer relu7
I0204 16:30:48.913816  3470 net.cpp:106] Creating Layer relu7
I0204 16:30:48.913822  3470 net.cpp:454] relu7 <- fc7
I0204 16:30:48.913830  3470 net.cpp:397] relu7 -> fc7 (in-place)
I0204 16:30:48.913839  3470 net.cpp:150] Setting up relu7
I0204 16:30:48.913846  3470 net.cpp:157] Top shape: 100 256 (25600)
I0204 16:30:48.913851  3470 net.cpp:165] Memory required for data: 54257600
I0204 16:30:48.913857  3470 layer_factory.hpp:77] Creating layer drop7
I0204 16:30:48.913867  3470 net.cpp:106] Creating Layer drop7
I0204 16:30:48.913874  3470 net.cpp:454] drop7 <- fc7
I0204 16:30:48.913882  3470 net.cpp:397] drop7 -> fc7 (in-place)
I0204 16:30:48.913890  3470 net.cpp:150] Setting up drop7
I0204 16:30:48.913897  3470 net.cpp:157] Top shape: 100 256 (25600)
I0204 16:30:48.913902  3470 net.cpp:165] Memory required for data: 54360000
I0204 16:30:48.913908  3470 layer_factory.hpp:77] Creating layer fc8
I0204 16:30:48.913919  3470 net.cpp:106] Creating Layer fc8
I0204 16:30:48.913931  3470 net.cpp:454] fc8 <- fc7
I0204 16:30:48.913939  3470 net.cpp:411] fc8 -> fc8
I0204 16:30:48.914016  3470 net.cpp:150] Setting up fc8
I0204 16:30:48.914027  3470 net.cpp:157] Top shape: 100 2 (200)
I0204 16:30:48.914032  3470 net.cpp:165] Memory required for data: 54360800
I0204 16:30:48.914041  3470 layer_factory.hpp:77] Creating layer fc8_fc8_0_split
I0204 16:30:48.914052  3470 net.cpp:106] Creating Layer fc8_fc8_0_split
I0204 16:30:48.914058  3470 net.cpp:454] fc8_fc8_0_split <- fc8
I0204 16:30:48.914065  3470 net.cpp:411] fc8_fc8_0_split -> fc8_fc8_0_split_0
I0204 16:30:48.914074  3470 net.cpp:411] fc8_fc8_0_split -> fc8_fc8_0_split_1
I0204 16:30:48.914084  3470 net.cpp:150] Setting up fc8_fc8_0_split
I0204 16:30:48.914093  3470 net.cpp:157] Top shape: 100 2 (200)
I0204 16:30:48.914100  3470 net.cpp:157] Top shape: 100 2 (200)
I0204 16:30:48.914105  3470 net.cpp:165] Memory required for data: 54362400
I0204 16:30:48.914111  3470 layer_factory.hpp:77] Creating layer accuracy
I0204 16:30:48.914124  3470 net.cpp:106] Creating Layer accuracy
I0204 16:30:48.914134  3470 net.cpp:454] accuracy <- fc8_fc8_0_split_0
I0204 16:30:48.914149  3470 net.cpp:454] accuracy <- label_data_1_split_0
I0204 16:30:48.914157  3470 net.cpp:411] accuracy -> accuracy
…
