…
I0204 08:47:10.309798 31909 net.cpp:322] The NetState phase (0) differed from the phase (1) specified by a rule in layer accuracy
I0204 08:47:10.310073 31909 net.cpp:49] Initializing net from parameters: 
name: "CaffeNet"
state {
  phase: TRAIN
}
layer {
  name: "data"
  type: "Data"
  top: "data"
  top: "label"
  include {
    phase: TRAIN
  }
  transform_param {
    mirror: true
    crop_size: 227
    mean_file: "/home/pearlstl/proj_cv/master/lmdb/synth1_train_lum_db/mean_file.binaryproto"
  }
  data_param {
    source: "/home/pearlstl/proj_cv/master/lmdb/synth1_train_lum_db"
    batch_size: 100
    backend: LMDB
  }
}
layer {
  name: "conv1"
  type: "Convolution"
  bottom: "data"
  top: "conv1"
  param {
    lr_mult: 1
    decay_mult: 1
  }
  param {
    lr_mult: 2
    decay_mult: 0
  }
  convolution_param {
    num_output: 16
    kernel_size: 11
    stride: 4
    weight_filler {
      type: "xavier"
    }
    bias_filler {
      type: "constant"
      value: 0
    }
  }
}
layer {
  name: "relu1"
  type: "ReLU"
  bottom: "conv1"
  top: "conv1"
}
layer {
  name: "pool1"
  type: "Pooling"
  bottom: "conv1"
  top: "pool1"
  pooling_param {
    pool: MAX
    kernel_size: 3
    stride: 2
  }
}
layer {
  name: "norm1"
  type: "LRN"
  bottom: "pool1"
  top: "norm1"
  lrn_param {
    local_size: 5
    alpha: 0.0001
    beta: 0.75
  }
}
layer {
  name: "conv2"
  type: "Convolution"
  bottom: "norm1"
  top: "conv2"
  param {
    lr_mult: 1
    decay_mult: 1
  }
  param {
    lr_mult: 2
    decay_mult: 0
  }
  convolution_param {
    num_output: 16
    pad: 2
    kernel_size: 5
    group: 2
    weight_filler {
      type: "xavier"
    }
    bias_filler {
      type: "constant"
      value: 1
    }
  }
}
layer {
  name: "relu2"
  type: "ReLU"
  bottom: "conv2"
  top: "conv2"
}
layer {
  name: "pool2"
  type: "Pooling"
  bottom: "conv2"
  top: "pool2"
  pooling_param {
    pool: MAX
    kernel_size: 3
    stride: 2
  }
}
layer {
  name: "norm2"
  type: "LRN"
  bottom: "pool2"
  top: "norm2"
  lrn_param {
    local_size: 5
    alpha: 0.0001
    beta: 0.75
  }
}
layer {
  name: "conv3"
  type: "Convolution"
  bottom: "norm2"
  top: "conv3"
  param {
    lr_mult: 1
    decay_mult: 1
  }
  param {
    lr_mult: 2
    decay_mult: 0
  }
  convolution_param {
    num_output: 16
    pad: 1
    kernel_size: 3
    weight_filler {
      type: "xavier"
    }
    bias_filler {
      type: "constant"
      value: 0
    }
  }
}
layer {
  name: "relu3"
  type: "ReLU"
  bottom: "conv3"
  top: "conv3"
}
layer {
  name: "conv4"
  type: "Convolution"
  bottom: "conv3"
  top: "conv4"
  param {
    lr_mult: 1
    decay_mult: 1
  }
  param {
    lr_mult: 2
    decay_mult: 0
  }
  convolution_param {
    num_output: 16
    pad: 1
    kernel_size: 3
    group: 2
    weight_filler {
      type: "xavier"
    }
    bias_filler {
      type: "constant"
      value: 1
    }
  }
}
layer {
  name: "relu4"
  type: "ReLU"
  bottom: "conv4"
  top: "conv4"
}
layer {
  name: "conv5"
  type: "Convolution"
  bottom: "conv4"
  top: "conv5"
  param {
    lr_mult: 1
    decay_mult: 1
  }
  param {
    lr_mult: 2
    decay_mult: 0
  }
  convolution_param {
    num_output: 16
    pad: 1
    kernel_size: 3
    group: 2
    weight_filler {
      type: "xavier"
    }
    bias_filler {
      type: "constant"
      value: 1
    }
  }
}
layer {
  name: "relu5"
  type: "ReLU"
  bottom: "conv5"
  top: "conv5"
}
layer {
  name: "pool5"
  type: "Pooling"
  bottom: "conv5"
  top: "pool5"
  pooling_param {
    pool: MAX
    kernel_size: 3
    stride: 2
  }
}
layer {
  name: "fc6"
  type: "InnerProduct"
  bottom: "pool5"
  top: "fc6"
  param {
    lr_mult: 1
    decay_mult: 1
  }
  param {
    lr_mult: 2
    decay_mult: 0
  }
  inner_product_param {
    num_output: 256
    weight_filler {
      type: "xavier"
    }
    bias_filler {
      type: "constant"
      value: 1
    }
  }
}
layer {
  name: "relu6"
  type: "ReLU"
  bottom: "fc6"
  top: "fc6"
}
layer {
  name: "drop6"
  type: "Dropout"
  bottom: "fc6"
  top: "fc6"
  dropout_param {
    dropout_ratio: 0.5
  }
}
layer {
  name: "fc7"
  type: "InnerProduct"
  bottom: "fc6"
  top: "fc7"
  param {
    lr_mult: 1
    decay_mult: 1
  }
  param {
    lr_mult: 2
    decay_mult: 0
  }
  inner_product_param {
    num_output: 256
    weight_filler {
      type: "xavier"
    }
    bias_filler {
      type: "constant"
      value: 1
    }
  }
}
layer {
  name: "relu7"
  type: "ReLU"
  bottom: "fc7"
  top: "fc7"
}
layer {
  name: "drop7"
  type: "Dropout"
  bottom: "fc7"
  top: "fc7"
  dropout_param {
    dropout_ratio: 0.5
  }
}
layer {
  name: "fc8"
  type: "InnerProduct"
  bottom: "fc7"
  top: "fc8"
  param {
    lr_mult: 1
    decay_mult: 1
  }
  param {
    lr_mult: 2
    decay_mult: 0
  }
  inner_product_param {
    num_output: 2
    weight_filler {
      type: "xavier"
    }
    bias_filler {
      type: "constant"
      value: 0
    }
  }
}
layer {
  name: "loss"
  type: "SoftmaxWithLoss"
  bottom: "fc8"
  bottom: "label"
  top: "loss"
}
I0204 08:47:10.310221 31909 layer_factory.hpp:77] Creating layer data
I0204 08:47:10.310426 31909 net.cpp:106] Creating Layer data
I0204 08:47:10.310444 31909 net.cpp:411] data -> data
I0204 08:47:10.310497 31909 net.cpp:411] data -> label
I0204 08:47:10.310519 31909 data_transformer.cpp:25] Loading mean file from: /home/pearlstl/proj_cv/master/lmdb/synth1_train_lum_db/mean_file.binaryproto
I0204 08:47:10.311600 31916 db_lmdb.cpp:38] Opened lmdb /home/pearlstl/proj_cv/master/lmdb/synth1_train_lum_db
I0204 08:47:10.311771 31909 data_layer.cpp:41] output data size: 100,1,227,227
I0204 08:47:10.360532 31909 net.cpp:150] Setting up data
I0204 08:47:10.360648 31909 net.cpp:157] Top shape: 100 1 227 227 (5152900)
I0204 08:47:10.360661 31909 net.cpp:157] Top shape: 100 (100)
I0204 08:47:10.360666 31909 net.cpp:165] Memory required for data: 20612000
I0204 08:47:10.360692 31909 layer_factory.hpp:77] Creating layer conv1
I0204 08:47:10.360733 31909 net.cpp:106] Creating Layer conv1
I0204 08:47:10.360746 31909 net.cpp:454] conv1 <- data
I0204 08:47:10.360781 31909 net.cpp:411] conv1 -> conv1
I0204 08:47:10.360936 31909 net.cpp:150] Setting up conv1
I0204 08:47:10.360952 31909 net.cpp:157] Top shape: 100 16 55 55 (4840000)
I0204 08:47:10.360960 31909 net.cpp:165] Memory required for data: 39972000
I0204 08:47:10.360980 31909 layer_factory.hpp:77] Creating layer relu1
I0204 08:47:10.360994 31909 net.cpp:106] Creating Layer relu1
I0204 08:47:10.361001 31909 net.cpp:454] relu1 <- conv1
I0204 08:47:10.361011 31909 net.cpp:397] relu1 -> conv1 (in-place)
I0204 08:47:10.361024 31909 net.cpp:150] Setting up relu1
I0204 08:47:10.361032 31909 net.cpp:157] Top shape: 100 16 55 55 (4840000)
I0204 08:47:10.361037 31909 net.cpp:165] Memory required for data: 59332000
I0204 08:47:10.361042 31909 layer_factory.hpp:77] Creating layer pool1
I0204 08:47:10.361057 31909 net.cpp:106] Creating Layer pool1
I0204 08:47:10.361063 31909 net.cpp:454] pool1 <- conv1
I0204 08:47:10.361071 31909 net.cpp:411] pool1 -> pool1
I0204 08:47:10.361109 31909 net.cpp:150] Setting up pool1
I0204 08:47:10.361117 31909 net.cpp:157] Top shape: 100 16 27 27 (1166400)
I0204 08:47:10.361124 31909 net.cpp:165] Memory required for data: 63997600
I0204 08:47:10.361129 31909 layer_factory.hpp:77] Creating layer norm1
I0204 08:47:10.361152 31909 net.cpp:106] Creating Layer norm1
I0204 08:47:10.361172 31909 net.cpp:454] norm1 <- pool1
I0204 08:47:10.361182 31909 net.cpp:411] norm1 -> norm1
I0204 08:47:10.361202 31909 net.cpp:150] Setting up norm1
I0204 08:47:10.361209 31909 net.cpp:157] Top shape: 100 16 27 27 (1166400)
I0204 08:47:10.361214 31909 net.cpp:165] Memory required for data: 68663200
I0204 08:47:10.361220 31909 layer_factory.hpp:77] Creating layer conv2
I0204 08:47:10.361232 31909 net.cpp:106] Creating Layer conv2
I0204 08:47:10.361238 31909 net.cpp:454] conv2 <- norm1
I0204 08:47:10.361245 31909 net.cpp:411] conv2 -> conv2
I0204 08:47:10.361301 31909 net.cpp:150] Setting up conv2
I0204 08:47:10.361310 31909 net.cpp:157] Top shape: 100 16 27 27 (1166400)
I0204 08:47:10.361315 31909 net.cpp:165] Memory required for data: 73328800
I0204 08:47:10.361326 31909 layer_factory.hpp:77] Creating layer relu2
I0204 08:47:10.361336 31909 net.cpp:106] Creating Layer relu2
I0204 08:47:10.361342 31909 net.cpp:454] relu2 <- conv2
I0204 08:47:10.361351 31909 net.cpp:397] relu2 -> conv2 (in-place)
I0204 08:47:10.361359 31909 net.cpp:150] Setting up relu2
I0204 08:47:10.361366 31909 net.cpp:157] Top shape: 100 16 27 27 (1166400)
I0204 08:47:10.361371 31909 net.cpp:165] Memory required for data: 77994400
I0204 08:47:10.361377 31909 layer_factory.hpp:77] Creating layer pool2
I0204 08:47:10.361384 31909 net.cpp:106] Creating Layer pool2
I0204 08:47:10.361390 31909 net.cpp:454] pool2 <- conv2
I0204 08:47:10.361398 31909 net.cpp:411] pool2 -> pool2
I0204 08:47:10.361412 31909 net.cpp:150] Setting up pool2
I0204 08:47:10.361418 31909 net.cpp:157] Top shape: 100 16 13 13 (270400)
I0204 08:47:10.361423 31909 net.cpp:165] Memory required for data: 79076000
I0204 08:47:10.361428 31909 layer_factory.hpp:77] Creating layer norm2
I0204 08:47:10.361438 31909 net.cpp:106] Creating Layer norm2
I0204 08:47:10.361444 31909 net.cpp:454] norm2 <- pool2
I0204 08:47:10.361452 31909 net.cpp:411] norm2 -> norm2
I0204 08:47:10.361461 31909 net.cpp:150] Setting up norm2
I0204 08:47:10.361469 31909 net.cpp:157] Top shape: 100 16 13 13 (270400)
I0204 08:47:10.361474 31909 net.cpp:165] Memory required for data: 80157600
I0204 08:47:10.361479 31909 layer_factory.hpp:77] Creating layer conv3
I0204 08:47:10.361490 31909 net.cpp:106] Creating Layer conv3
I0204 08:47:10.361495 31909 net.cpp:454] conv3 <- norm2
I0204 08:47:10.361507 31909 net.cpp:411] conv3 -> conv3
I0204 08:47:10.361574 31909 net.cpp:150] Setting up conv3
I0204 08:47:10.361585 31909 net.cpp:157] Top shape: 100 16 13 13 (270400)
I0204 08:47:10.361591 31909 net.cpp:165] Memory required for data: 81239200
I0204 08:47:10.361603 31909 layer_factory.hpp:77] Creating layer relu3
I0204 08:47:10.361613 31909 net.cpp:106] Creating Layer relu3
I0204 08:47:10.361620 31909 net.cpp:454] relu3 <- conv3
I0204 08:47:10.361629 31909 net.cpp:397] relu3 -> conv3 (in-place)
I0204 08:47:10.361637 31909 net.cpp:150] Setting up relu3
I0204 08:47:10.361646 31909 net.cpp:157] Top shape: 100 16 13 13 (270400)
I0204 08:47:10.361652 31909 net.cpp:165] Memory required for data: 82320800
I0204 08:47:10.361659 31909 layer_factory.hpp:77] Creating layer conv4
I0204 08:47:10.361670 31909 net.cpp:106] Creating Layer conv4
I0204 08:47:10.361676 31909 net.cpp:454] conv4 <- conv3
I0204 08:47:10.361686 31909 net.cpp:411] conv4 -> conv4
I0204 08:47:10.361719 31909 net.cpp:150] Setting up conv4
I0204 08:47:10.361728 31909 net.cpp:157] Top shape: 100 16 13 13 (270400)
I0204 08:47:10.361733 31909 net.cpp:165] Memory required for data: 83402400
I0204 08:47:10.361742 31909 layer_factory.hpp:77] Creating layer relu4
I0204 08:47:10.361752 31909 net.cpp:106] Creating Layer relu4
I0204 08:47:10.361758 31909 net.cpp:454] relu4 <- conv4
I0204 08:47:10.361768 31909 net.cpp:397] relu4 -> conv4 (in-place)
I0204 08:47:10.361776 31909 net.cpp:150] Setting up relu4
I0204 08:47:10.361783 31909 net.cpp:157] Top shape: 100 16 13 13 (270400)
I0204 08:47:10.361788 31909 net.cpp:165] Memory required for data: 84484000
I0204 08:47:10.361793 31909 layer_factory.hpp:77] Creating layer conv5
I0204 08:47:10.361810 31909 net.cpp:106] Creating Layer conv5
I0204 08:47:10.361822 31909 net.cpp:454] conv5 <- conv4
I0204 08:47:10.361832 31909 net.cpp:411] conv5 -> conv5
I0204 08:47:10.361860 31909 net.cpp:150] Setting up conv5
I0204 08:47:10.361868 31909 net.cpp:157] Top shape: 100 16 13 13 (270400)
I0204 08:47:10.361873 31909 net.cpp:165] Memory required for data: 85565600
I0204 08:47:10.361886 31909 layer_factory.hpp:77] Creating layer relu5
I0204 08:47:10.361896 31909 net.cpp:106] Creating Layer relu5
I0204 08:47:10.361901 31909 net.cpp:454] relu5 <- conv5
I0204 08:47:10.361920 31909 net.cpp:397] relu5 -> conv5 (in-place)
I0204 08:47:10.361930 31909 net.cpp:150] Setting up relu5
I0204 08:47:10.361937 31909 net.cpp:157] Top shape: 100 16 13 13 (270400)
I0204 08:47:10.361943 31909 net.cpp:165] Memory required for data: 86647200
I0204 08:47:10.361948 31909 layer_factory.hpp:77] Creating layer pool5
I0204 08:47:10.361958 31909 net.cpp:106] Creating Layer pool5
I0204 08:47:10.361964 31909 net.cpp:454] pool5 <- conv5
I0204 08:47:10.361973 31909 net.cpp:411] pool5 -> pool5
I0204 08:47:10.361984 31909 net.cpp:150] Setting up pool5
I0204 08:47:10.361990 31909 net.cpp:157] Top shape: 100 16 6 6 (57600)
I0204 08:47:10.361995 31909 net.cpp:165] Memory required for data: 86877600
I0204 08:47:10.362001 31909 layer_factory.hpp:77] Creating layer fc6
I0204 08:47:10.362258 31909 net.cpp:106] Creating Layer fc6
I0204 08:47:10.362272 31909 net.cpp:454] fc6 <- pool5
I0204 08:47:10.362289 31909 net.cpp:411] fc6 -> fc6
I0204 08:47:10.363988 31909 net.cpp:150] Setting up fc6
I0204 08:47:10.364006 31909 net.cpp:157] Top shape: 100 256 (25600)
I0204 08:47:10.364012 31909 net.cpp:165] Memory required for data: 86980000
I0204 08:47:10.364022 31909 layer_factory.hpp:77] Creating layer relu6
I0204 08:47:10.364038 31909 net.cpp:106] Creating Layer relu6
I0204 08:47:10.364048 31909 net.cpp:454] relu6 <- fc6
I0204 08:47:10.364056 31909 net.cpp:397] relu6 -> fc6 (in-place)
I0204 08:47:10.364065 31909 net.cpp:150] Setting up relu6
I0204 08:47:10.364073 31909 net.cpp:157] Top shape: 100 256 (25600)
I0204 08:47:10.364078 31909 net.cpp:165] Memory required for data: 87082400
I0204 08:47:10.364084 31909 layer_factory.hpp:77] Creating layer drop6
I0204 08:47:10.364100 31909 net.cpp:106] Creating Layer drop6
I0204 08:47:10.364106 31909 net.cpp:454] drop6 <- fc6
I0204 08:47:10.364114 31909 net.cpp:397] drop6 -> fc6 (in-place)
I0204 08:47:10.364135 31909 net.cpp:150] Setting up drop6
I0204 08:47:10.364141 31909 net.cpp:157] Top shape: 100 256 (25600)
I0204 08:47:10.364147 31909 net.cpp:165] Memory required for data: 87184800
I0204 08:47:10.364153 31909 layer_factory.hpp:77] Creating layer fc7
I0204 08:47:10.364166 31909 net.cpp:106] Creating Layer fc7
I0204 08:47:10.364172 31909 net.cpp:454] fc7 <- fc6
I0204 08:47:10.364183 31909 net.cpp:411] fc7 -> fc7
I0204 08:47:10.364904 31909 net.cpp:150] Setting up fc7
I0204 08:47:10.364917 31909 net.cpp:157] Top shape: 100 256 (25600)
I0204 08:47:10.364924 31909 net.cpp:165] Memory required for data: 87287200
I0204 08:47:10.364933 31909 layer_factory.hpp:77] Creating layer relu7
I0204 08:47:10.364943 31909 net.cpp:106] Creating Layer relu7
I0204 08:47:10.364948 31909 net.cpp:454] relu7 <- fc7
I0204 08:47:10.364959 31909 net.cpp:397] relu7 -> fc7 (in-place)
I0204 08:47:10.364969 31909 net.cpp:150] Setting up relu7
I0204 08:47:10.364975 31909 net.cpp:157] Top shape: 100 256 (25600)
I0204 08:47:10.364981 31909 net.cpp:165] Memory required for data: 87389600
I0204 08:47:10.364987 31909 layer_factory.hpp:77] Creating layer drop7
I0204 08:47:10.364995 31909 net.cpp:106] Creating Layer drop7
I0204 08:47:10.365001 31909 net.cpp:454] drop7 <- fc7
I0204 08:47:10.365011 31909 net.cpp:397] drop7 -> fc7 (in-place)
I0204 08:47:10.365021 31909 net.cpp:150] Setting up drop7
I0204 08:47:10.365028 31909 net.cpp:157] Top shape: 100 256 (25600)
I0204 08:47:10.365033 31909 net.cpp:165] Memory required for data: 87492000
I0204 08:47:10.365039 31909 layer_factory.hpp:77] Creating layer fc8
I0204 08:47:10.365066 31909 net.cpp:106] Creating Layer fc8
I0204 08:47:10.365082 31909 net.cpp:454] fc8 <- fc7
I0204 08:47:10.365118 31909 net.cpp:411] fc8 -> fc8
I0204 08:47:10.365144 31909 net.cpp:150] Setting up fc8
I0204 08:47:10.365151 31909 net.cpp:157] Top shape: 100 2 (200)
I0204 08:47:10.365157 31909 net.cpp:165] Memory required for data: 87492800
I0204 08:47:10.365165 31909 layer_factory.hpp:77] Creating layer loss
I0204 08:47:10.365180 31909 net.cpp:106] Creating Layer loss
I0204 08:47:10.365187 31909 net.cpp:454] loss <- fc8
I0204 08:47:10.365198 31909 net.cpp:454] loss <- label
I0204 08:47:10.365211 31909 net.cpp:411] loss -> loss
I0204 08:47:10.365233 31909 layer_factory.hpp:77] Creating layer loss
…
I0204 08:47:10.366411 31909 net.cpp:322] The NetState phase (1) differed from the phase (0) specified by a rule in layer data
I0204 08:47:10.366714 31909 net.cpp:49] Initializing net from parameters: 
name: "CaffeNet"
state {
  phase: TEST
}
layer {
  name: "data"
  type: "Data"
  top: "data"
  top: "label"
  include {
    phase: TEST
  }
  transform_param {
    mirror: false
    crop_size: 227
    mean_file: "/home/pearlstl/proj_cv/master/lmdb/synth1_test_lum_db/mean_file.binaryproto"
  }
  data_param {
    source: "/home/pearlstl/proj_cv/master/lmdb/synth1_test_lum_db"
    batch_size: 100
    backend: LMDB
  }
}
layer {
  name: "conv1"
  type: "Convolution"
  bottom: "data"
  top: "conv1"
  param {
    lr_mult: 1
    decay_mult: 1
  }
  param {
    lr_mult: 2
    decay_mult: 0
  }
  convolution_param {
    num_output: 16
    kernel_size: 11
    stride: 4
    weight_filler {
      type: "xavier"
    }
    bias_filler {
      type: "constant"
      value: 0
    }
  }
}
layer {
  name: "relu1"
  type: "ReLU"
  bottom: "conv1"
  top: "conv1"
}
layer {
  name: "pool1"
  type: "Pooling"
  bottom: "conv1"
  top: "pool1"
  pooling_param {
    pool: MAX
    kernel_size: 3
    stride: 2
  }
}
layer {
  name: "norm1"
  type: "LRN"
  bottom: "pool1"
  top: "norm1"
  lrn_param {
    local_size: 5
    alpha: 0.0001
    beta: 0.75
  }
}
layer {
  name: "conv2"
  type: "Convolution"
  bottom: "norm1"
  top: "conv2"
  param {
    lr_mult: 1
    decay_mult: 1
  }
  param {
    lr_mult: 2
    decay_mult: 0
  }
  convolution_param {
    num_output: 16
    pad: 2
    kernel_size: 5
    group: 2
    weight_filler {
      type: "xavier"
    }
    bias_filler {
      type: "constant"
      value: 1
    }
  }
}
layer {
  name: "relu2"
  type: "ReLU"
  bottom: "conv2"
  top: "conv2"
}
layer {
  name: "pool2"
  type: "Pooling"
  bottom: "conv2"
  top: "pool2"
  pooling_param {
    pool: MAX
    kernel_size: 3
    stride: 2
  }
}
layer {
  name: "norm2"
  type: "LRN"
  bottom: "pool2"
  top: "norm2"
  lrn_param {
    local_size: 5
    alpha: 0.0001
    beta: 0.75
  }
}
layer {
  name: "conv3"
  type: "Convolution"
  bottom: "norm2"
  top: "conv3"
  param {
    lr_mult: 1
    decay_mult: 1
  }
  param {
    lr_mult: 2
    decay_mult: 0
  }
  convolution_param {
    num_output: 16
    pad: 1
    kernel_size: 3
    weight_filler {
      type: "xavier"
    }
    bias_filler {
      type: "constant"
      value: 0
    }
  }
}
layer {
  name: "relu3"
  type: "ReLU"
  bottom: "conv3"
  top: "conv3"
}
layer {
  name: "conv4"
  type: "Convolution"
  bottom: "conv3"
  top: "conv4"
  param {
    lr_mult: 1
    decay_mult: 1
  }
  param {
    lr_mult: 2
    decay_mult: 0
  }
  convolution_param {
    num_output: 16
    pad: 1
    kernel_size: 3
    group: 2
    weight_filler {
      type: "xavier"
    }
    bias_filler {
      type: "constant"
      value: 1
    }
  }
}
layer {
  name: "relu4"
  type: "ReLU"
  bottom: "conv4"
  top: "conv4"
}
layer {
  name: "conv5"
  type: "Convolution"
  bottom: "conv4"
  top: "conv5"
  param {
    lr_mult: 1
    decay_mult: 1
  }
  param {
    lr_mult: 2
    decay_mult: 0
  }
  convolution_param {
    num_output: 16
    pad: 1
    kernel_size: 3
    group: 2
    weight_filler {
      type: "xavier"
    }
    bias_filler {
      type: "constant"
      value: 1
    }
  }
}
layer {
  name: "relu5"
  type: "ReLU"
  bottom: "conv5"
  top: "conv5"
}
layer {
  name: "pool5"
  type: "Pooling"
  bottom: "conv5"
  top: "pool5"
  pooling_param {
    pool: MAX
    kernel_size: 3
    stride: 2
  }
}
layer {
  name: "fc6"
  type: "InnerProduct"
  bottom: "pool5"
  top: "fc6"
  param {
    lr_mult: 1
    decay_mult: 1
  }
  param {
    lr_mult: 2
    decay_mult: 0
  }
  inner_product_param {
    num_output: 256
    weight_filler {
      type: "xavier"
    }
    bias_filler {
      type: "constant"
      value: 1
    }
  }
}
layer {
  name: "relu6"
  type: "ReLU"
  bottom: "fc6"
  top: "fc6"
}
layer {
  name: "drop6"
  type: "Dropout"
  bottom: "fc6"
  top: "fc6"
  dropout_param {
    dropout_ratio: 0.5
  }
}
layer {
  name: "fc7"
  type: "InnerProduct"
  bottom: "fc6"
  top: "fc7"
  param {
    lr_mult: 1
    decay_mult: 1
  }
  param {
    lr_mult: 2
    decay_mult: 0
  }
  inner_product_param {
    num_output: 256
    weight_filler {
      type: "xavier"
    }
    bias_filler {
      type: "constant"
      value: 1
    }
  }
}
layer {
  name: "relu7"
  type: "ReLU"
  bottom: "fc7"
  top: "fc7"
}
layer {
  name: "drop7"
  type: "Dropout"
  bottom: "fc7"
  top: "fc7"
  dropout_param {
    dropout_ratio: 0.5
  }
}
layer {
  name: "fc8"
  type: "InnerProduct"
  bottom: "fc7"
  top: "fc8"
  param {
    lr_mult: 1
    decay_mult: 1
  }
  param {
    lr_mult: 2
    decay_mult: 0
  }
  inner_product_param {
    num_output: 2
    weight_filler {
      type: "xavier"
    }
    bias_filler {
      type: "constant"
      value: 0
    }
  }
}
layer {
  name: "accuracy"
  type: "Accuracy"
  bottom: "fc8"
  bottom: "label"
  top: "accuracy"
  include {
    phase: TEST
  }
}
layer {
  name: "loss"
  type: "SoftmaxWithLoss"
  bottom: "fc8"
  bottom: "label"
  top: "loss"
}
I0204 08:47:10.366914 31909 layer_factory.hpp:77] Creating layer data
I0204 08:47:10.367126 31909 net.cpp:106] Creating Layer data
I0204 08:47:10.367142 31909 net.cpp:411] data -> data
I0204 08:47:10.367159 31909 net.cpp:411] data -> label
I0204 08:47:10.367172 31909 data_transformer.cpp:25] Loading mean file from: /home/pearlstl/proj_cv/master/lmdb/synth1_test_lum_db/mean_file.binaryproto
I0204 08:47:10.371788 31935 db_lmdb.cpp:38] Opened lmdb /home/pearlstl/proj_cv/master/lmdb/synth1_test_lum_db
I0204 08:47:10.373461 31909 data_layer.cpp:41] output data size: 100,1,227,227
I0204 08:47:10.410364 31909 net.cpp:150] Setting up data
I0204 08:47:10.410411 31909 net.cpp:157] Top shape: 100 1 227 227 (5152900)
I0204 08:47:10.410420 31909 net.cpp:157] Top shape: 100 (100)
I0204 08:47:10.410426 31909 net.cpp:165] Memory required for data: 20612000
I0204 08:47:10.410436 31909 layer_factory.hpp:77] Creating layer label_data_1_split
I0204 08:47:10.410460 31909 net.cpp:106] Creating Layer label_data_1_split
I0204 08:47:10.410468 31909 net.cpp:454] label_data_1_split <- label
I0204 08:47:10.410480 31909 net.cpp:411] label_data_1_split -> label_data_1_split_0
I0204 08:47:10.410498 31909 net.cpp:411] label_data_1_split -> label_data_1_split_1
I0204 08:47:10.410511 31909 net.cpp:150] Setting up label_data_1_split
I0204 08:47:10.410519 31909 net.cpp:157] Top shape: 100 (100)
I0204 08:47:10.410526 31909 net.cpp:157] Top shape: 100 (100)
I0204 08:47:10.410531 31909 net.cpp:165] Memory required for data: 20612800
I0204 08:47:10.410537 31909 layer_factory.hpp:77] Creating layer conv1
I0204 08:47:10.410553 31909 net.cpp:106] Creating Layer conv1
I0204 08:47:10.410560 31909 net.cpp:454] conv1 <- data
I0204 08:47:10.410573 31909 net.cpp:411] conv1 -> conv1
I0204 08:47:10.410629 31909 net.cpp:150] Setting up conv1
I0204 08:47:10.410639 31909 net.cpp:157] Top shape: 100 16 55 55 (4840000)
I0204 08:47:10.410645 31909 net.cpp:165] Memory required for data: 39972800
I0204 08:47:10.410657 31909 layer_factory.hpp:77] Creating layer relu1
I0204 08:47:10.410668 31909 net.cpp:106] Creating Layer relu1
I0204 08:47:10.410675 31909 net.cpp:454] relu1 <- conv1
I0204 08:47:10.410682 31909 net.cpp:397] relu1 -> conv1 (in-place)
I0204 08:47:10.410696 31909 net.cpp:150] Setting up relu1
I0204 08:47:10.410702 31909 net.cpp:157] Top shape: 100 16 55 55 (4840000)
I0204 08:47:10.410707 31909 net.cpp:165] Memory required for data: 59332800
I0204 08:47:10.410713 31909 layer_factory.hpp:77] Creating layer pool1
I0204 08:47:10.410724 31909 net.cpp:106] Creating Layer pool1
I0204 08:47:10.410730 31909 net.cpp:454] pool1 <- conv1
I0204 08:47:10.410738 31909 net.cpp:411] pool1 -> pool1
I0204 08:47:10.410753 31909 net.cpp:150] Setting up pool1
I0204 08:47:10.410760 31909 net.cpp:157] Top shape: 100 16 27 27 (1166400)
I0204 08:47:10.410765 31909 net.cpp:165] Memory required for data: 63998400
I0204 08:47:10.410771 31909 layer_factory.hpp:77] Creating layer norm1
I0204 08:47:10.410783 31909 net.cpp:106] Creating Layer norm1
I0204 08:47:10.410789 31909 net.cpp:454] norm1 <- pool1
I0204 08:47:10.410796 31909 net.cpp:411] norm1 -> norm1
I0204 08:47:10.410806 31909 net.cpp:150] Setting up norm1
I0204 08:47:10.410815 31909 net.cpp:157] Top shape: 100 16 27 27 (1166400)
I0204 08:47:10.410821 31909 net.cpp:165] Memory required for data: 68664000
I0204 08:47:10.410827 31909 layer_factory.hpp:77] Creating layer conv2
I0204 08:47:10.410838 31909 net.cpp:106] Creating Layer conv2
I0204 08:47:10.410845 31909 net.cpp:454] conv2 <- norm1
I0204 08:47:10.410853 31909 net.cpp:411] conv2 -> conv2
I0204 08:47:10.410903 31909 net.cpp:150] Setting up conv2
I0204 08:47:10.410912 31909 net.cpp:157] Top shape: 100 16 27 27 (1166400)
I0204 08:47:10.410917 31909 net.cpp:165] Memory required for data: 73329600
I0204 08:47:10.410928 31909 layer_factory.hpp:77] Creating layer relu2
I0204 08:47:10.410941 31909 net.cpp:106] Creating Layer relu2
I0204 08:47:10.410948 31909 net.cpp:454] relu2 <- conv2
I0204 08:47:10.410958 31909 net.cpp:397] relu2 -> conv2 (in-place)
I0204 08:47:10.410975 31909 net.cpp:150] Setting up relu2
I0204 08:47:10.410994 31909 net.cpp:157] Top shape: 100 16 27 27 (1166400)
I0204 08:47:10.411000 31909 net.cpp:165] Memory required for data: 77995200
I0204 08:47:10.411005 31909 layer_factory.hpp:77] Creating layer pool2
I0204 08:47:10.411015 31909 net.cpp:106] Creating Layer pool2
I0204 08:47:10.411020 31909 net.cpp:454] pool2 <- conv2
I0204 08:47:10.411029 31909 net.cpp:411] pool2 -> pool2
I0204 08:47:10.411041 31909 net.cpp:150] Setting up pool2
I0204 08:47:10.411049 31909 net.cpp:157] Top shape: 100 16 13 13 (270400)
I0204 08:47:10.411054 31909 net.cpp:165] Memory required for data: 79076800
I0204 08:47:10.411061 31909 layer_factory.hpp:77] Creating layer norm2
I0204 08:47:10.411072 31909 net.cpp:106] Creating Layer norm2
I0204 08:47:10.411077 31909 net.cpp:454] norm2 <- pool2
I0204 08:47:10.411085 31909 net.cpp:411] norm2 -> norm2
I0204 08:47:10.411094 31909 net.cpp:150] Setting up norm2
I0204 08:47:10.411101 31909 net.cpp:157] Top shape: 100 16 13 13 (270400)
I0204 08:47:10.411108 31909 net.cpp:165] Memory required for data: 80158400
I0204 08:47:10.411113 31909 layer_factory.hpp:77] Creating layer conv3
I0204 08:47:10.411123 31909 net.cpp:106] Creating Layer conv3
I0204 08:47:10.411128 31909 net.cpp:454] conv3 <- norm2
I0204 08:47:10.411144 31909 net.cpp:411] conv3 -> conv3
I0204 08:47:10.411183 31909 net.cpp:150] Setting up conv3
I0204 08:47:10.411193 31909 net.cpp:157] Top shape: 100 16 13 13 (270400)
I0204 08:47:10.411198 31909 net.cpp:165] Memory required for data: 81240000
I0204 08:47:10.411211 31909 layer_factory.hpp:77] Creating layer relu3
I0204 08:47:10.411218 31909 net.cpp:106] Creating Layer relu3
I0204 08:47:10.411224 31909 net.cpp:454] relu3 <- conv3
I0204 08:47:10.411232 31909 net.cpp:397] relu3 -> conv3 (in-place)
I0204 08:47:10.411240 31909 net.cpp:150] Setting up relu3
I0204 08:47:10.411247 31909 net.cpp:157] Top shape: 100 16 13 13 (270400)
I0204 08:47:10.411252 31909 net.cpp:165] Memory required for data: 82321600
I0204 08:47:10.411258 31909 layer_factory.hpp:77] Creating layer conv4
I0204 08:47:10.411268 31909 net.cpp:106] Creating Layer conv4
I0204 08:47:10.411274 31909 net.cpp:454] conv4 <- conv3
I0204 08:47:10.411283 31909 net.cpp:411] conv4 -> conv4
I0204 08:47:10.411312 31909 net.cpp:150] Setting up conv4
I0204 08:47:10.411322 31909 net.cpp:157] Top shape: 100 16 13 13 (270400)
I0204 08:47:10.411351 31909 net.cpp:165] Memory required for data: 83403200
I0204 08:47:10.411360 31909 layer_factory.hpp:77] Creating layer relu4
I0204 08:47:10.411368 31909 net.cpp:106] Creating Layer relu4
I0204 08:47:10.411373 31909 net.cpp:454] relu4 <- conv4
I0204 08:47:10.411381 31909 net.cpp:397] relu4 -> conv4 (in-place)
I0204 08:47:10.411389 31909 net.cpp:150] Setting up relu4
I0204 08:47:10.411396 31909 net.cpp:157] Top shape: 100 16 13 13 (270400)
I0204 08:47:10.411402 31909 net.cpp:165] Memory required for data: 84484800
I0204 08:47:10.411407 31909 layer_factory.hpp:77] Creating layer conv5
I0204 08:47:10.411418 31909 net.cpp:106] Creating Layer conv5
I0204 08:47:10.411424 31909 net.cpp:454] conv5 <- conv4
I0204 08:47:10.411432 31909 net.cpp:411] conv5 -> conv5
I0204 08:47:10.411463 31909 net.cpp:150] Setting up conv5
I0204 08:47:10.411471 31909 net.cpp:157] Top shape: 100 16 13 13 (270400)
I0204 08:47:10.411476 31909 net.cpp:165] Memory required for data: 85566400
I0204 08:47:10.411486 31909 layer_factory.hpp:77] Creating layer relu5
I0204 08:47:10.411494 31909 net.cpp:106] Creating Layer relu5
I0204 08:47:10.411500 31909 net.cpp:454] relu5 <- conv5
I0204 08:47:10.411509 31909 net.cpp:397] relu5 -> conv5 (in-place)
I0204 08:47:10.411516 31909 net.cpp:150] Setting up relu5
I0204 08:47:10.411522 31909 net.cpp:157] Top shape: 100 16 13 13 (270400)
I0204 08:47:10.411527 31909 net.cpp:165] Memory required for data: 86648000
I0204 08:47:10.411533 31909 layer_factory.hpp:77] Creating layer pool5
I0204 08:47:10.411545 31909 net.cpp:106] Creating Layer pool5
I0204 08:47:10.411550 31909 net.cpp:454] pool5 <- conv5
I0204 08:47:10.411558 31909 net.cpp:411] pool5 -> pool5
I0204 08:47:10.411582 31909 net.cpp:150] Setting up pool5
I0204 08:47:10.411591 31909 net.cpp:157] Top shape: 100 16 6 6 (57600)
I0204 08:47:10.411595 31909 net.cpp:165] Memory required for data: 86878400
I0204 08:47:10.411602 31909 layer_factory.hpp:77] Creating layer fc6
I0204 08:47:10.411612 31909 net.cpp:106] Creating Layer fc6
I0204 08:47:10.411617 31909 net.cpp:454] fc6 <- pool5
I0204 08:47:10.411625 31909 net.cpp:411] fc6 -> fc6
I0204 08:47:10.413187 31909 net.cpp:150] Setting up fc6
I0204 08:47:10.413204 31909 net.cpp:157] Top shape: 100 256 (25600)
I0204 08:47:10.413210 31909 net.cpp:165] Memory required for data: 86980800
I0204 08:47:10.413219 31909 layer_factory.hpp:77] Creating layer relu6
I0204 08:47:10.413229 31909 net.cpp:106] Creating Layer relu6
I0204 08:47:10.413235 31909 net.cpp:454] relu6 <- fc6
I0204 08:47:10.413244 31909 net.cpp:397] relu6 -> fc6 (in-place)
I0204 08:47:10.413254 31909 net.cpp:150] Setting up relu6
I0204 08:47:10.413262 31909 net.cpp:157] Top shape: 100 256 (25600)
I0204 08:47:10.413267 31909 net.cpp:165] Memory required for data: 87083200
I0204 08:47:10.413274 31909 layer_factory.hpp:77] Creating layer drop6
I0204 08:47:10.413283 31909 net.cpp:106] Creating Layer drop6
I0204 08:47:10.413290 31909 net.cpp:454] drop6 <- fc6
I0204 08:47:10.413297 31909 net.cpp:397] drop6 -> fc6 (in-place)
I0204 08:47:10.413310 31909 net.cpp:150] Setting up drop6
I0204 08:47:10.413316 31909 net.cpp:157] Top shape: 100 256 (25600)
I0204 08:47:10.413321 31909 net.cpp:165] Memory required for data: 87185600
I0204 08:47:10.413327 31909 layer_factory.hpp:77] Creating layer fc7
I0204 08:47:10.413337 31909 net.cpp:106] Creating Layer fc7
I0204 08:47:10.413342 31909 net.cpp:454] fc7 <- fc6
I0204 08:47:10.413352 31909 net.cpp:411] fc7 -> fc7
I0204 08:47:10.413974 31909 net.cpp:150] Setting up fc7
I0204 08:47:10.413985 31909 net.cpp:157] Top shape: 100 256 (25600)
I0204 08:47:10.413990 31909 net.cpp:165] Memory required for data: 87288000
I0204 08:47:10.413998 31909 layer_factory.hpp:77] Creating layer relu7
I0204 08:47:10.414011 31909 net.cpp:106] Creating Layer relu7
I0204 08:47:10.414017 31909 net.cpp:454] relu7 <- fc7
I0204 08:47:10.414024 31909 net.cpp:397] relu7 -> fc7 (in-place)
I0204 08:47:10.414033 31909 net.cpp:150] Setting up relu7
I0204 08:47:10.414039 31909 net.cpp:157] Top shape: 100 256 (25600)
I0204 08:47:10.414046 31909 net.cpp:165] Memory required for data: 87390400
I0204 08:47:10.414052 31909 layer_factory.hpp:77] Creating layer drop7
I0204 08:47:10.414059 31909 net.cpp:106] Creating Layer drop7
I0204 08:47:10.414065 31909 net.cpp:454] drop7 <- fc7
I0204 08:47:10.414075 31909 net.cpp:397] drop7 -> fc7 (in-place)
I0204 08:47:10.414084 31909 net.cpp:150] Setting up drop7
I0204 08:47:10.414091 31909 net.cpp:157] Top shape: 100 256 (25600)
I0204 08:47:10.414096 31909 net.cpp:165] Memory required for data: 87492800
I0204 08:47:10.414103 31909 layer_factory.hpp:77] Creating layer fc8
I0204 08:47:10.414111 31909 net.cpp:106] Creating Layer fc8
I0204 08:47:10.414118 31909 net.cpp:454] fc8 <- fc7
I0204 08:47:10.414127 31909 net.cpp:411] fc8 -> fc8
I0204 08:47:10.414161 31909 net.cpp:150] Setting up fc8
I0204 08:47:10.414170 31909 net.cpp:157] Top shape: 100 2 (200)
I0204 08:47:10.414175 31909 net.cpp:165] Memory required for data: 87493600
I0204 08:47:10.414185 31909 layer_factory.hpp:77] Creating layer fc8_fc8_0_split
I0204 08:47:10.414193 31909 net.cpp:106] Creating Layer fc8_fc8_0_split
I0204 08:47:10.414199 31909 net.cpp:454] fc8_fc8_0_split <- fc8
I0204 08:47:10.414209 31909 net.cpp:411] fc8_fc8_0_split -> fc8_fc8_0_split_0
I0204 08:47:10.414218 31909 net.cpp:411] fc8_fc8_0_split -> fc8_fc8_0_split_1
I0204 08:47:10.414227 31909 net.cpp:150] Setting up fc8_fc8_0_split
I0204 08:47:10.414234 31909 net.cpp:157] Top shape: 100 2 (200)
I0204 08:47:10.414242 31909 net.cpp:157] Top shape: 100 2 (200)
I0204 08:47:10.414247 31909 net.cpp:165] Memory required for data: 87495200
I0204 08:47:10.414252 31909 layer_factory.hpp:77] Creating layer accuracy
I0204 08:47:10.414266 31909 net.cpp:106] Creating Layer accuracy
I0204 08:47:10.414288 31909 net.cpp:454] accuracy <- fc8_fc8_0_split_0
I0204 08:47:10.414294 31909 net.cpp:454] accuracy <- label_data_1_split_0
I0204 08:47:10.414307 31909 net.cpp:411] accuracy -> accuracy
…
