…
I0205 06:46:43.980180 12783 net.cpp:322] The NetState phase (0) differed from the phase (1) specified by a rule in layer accuracy
I0205 06:46:43.980427 12783 net.cpp:49] Initializing net from parameters: 
name: "CaffeNet"
state {
  phase: TRAIN
}
layer {
  name: "data"
  type: "Data"
  top: "data"
  top: "label"
  include {
    phase: TRAIN
  }
  transform_param {
    mirror: true
    crop_size: 227
    mean_file: "/home/pearlstl/proj_cv/master/lmdb/synth1_train_lum_db/mean_file.binaryproto"
  }
  data_param {
    source: "/home/pearlstl/proj_cv/master/lmdb/synth1_train_lum_db"
    batch_size: 100
    backend: LMDB
  }
}
layer {
  name: "conv1"
  type: "Convolution"
  bottom: "data"
  top: "conv1"
  param {
    lr_mult: 1
    decay_mult: 1
  }
  param {
    lr_mult: 2
    decay_mult: 0
  }
  convolution_param {
    num_output: 8
    kernel_size: 11
    stride: 4
    weight_filler {
      type: "xavier"
    }
    bias_filler {
      type: "constant"
      value: 0
    }
  }
}
layer {
  name: "relu1"
  type: "ReLU"
  bottom: "conv1"
  top: "conv1"
}
layer {
  name: "pool1"
  type: "Pooling"
  bottom: "conv1"
  top: "pool1"
  pooling_param {
    pool: MAX
    kernel_size: 3
    stride: 2
  }
}
layer {
  name: "norm1"
  type: "LRN"
  bottom: "pool1"
  top: "norm1"
  lrn_param {
    local_size: 5
    alpha: 0.0001
    beta: 0.75
  }
}
layer {
  name: "conv2"
  type: "Convolution"
  bottom: "norm1"
  top: "conv2"
  param {
    lr_mult: 1
    decay_mult: 1
  }
  param {
    lr_mult: 2
    decay_mult: 0
  }
  convolution_param {
    num_output: 8
    pad: 2
    kernel_size: 5
    group: 2
    weight_filler {
      type: "xavier"
    }
    bias_filler {
      type: "constant"
      value: 1
    }
  }
}
layer {
  name: "relu2"
  type: "ReLU"
  bottom: "conv2"
  top: "conv2"
}
layer {
  name: "pool2"
  type: "Pooling"
  bottom: "conv2"
  top: "pool2"
  pooling_param {
    pool: MAX
    kernel_size: 3
    stride: 2
  }
}
layer {
  name: "norm2"
  type: "LRN"
  bottom: "pool2"
  top: "norm2"
  lrn_param {
    local_size: 5
    alpha: 0.0001
    beta: 0.75
  }
}
layer {
  name: "conv3"
  type: "Convolution"
  bottom: "norm2"
  top: "conv3"
  param {
    lr_mult: 1
    decay_mult: 1
  }
  param {
    lr_mult: 2
    decay_mult: 0
  }
  convolution_param {
    num_output: 8
    pad: 1
    kernel_size: 3
    weight_filler {
      type: "xavier"
    }
    bias_filler {
      type: "constant"
      value: 0
    }
  }
}
layer {
  name: "relu3"
  type: "ReLU"
  bottom: "conv3"
  top: "conv3"
}
layer {
  name: "conv4"
  type: "Convolution"
  bottom: "conv3"
  top: "conv4"
  param {
    lr_mult: 1
    decay_mult: 1
  }
  param {
    lr_mult: 2
    decay_mult: 0
  }
  convolution_param {
    num_output: 8
    pad: 1
    kernel_size: 3
    group: 2
    weight_filler {
      type: "xavier"
    }
    bias_filler {
      type: "constant"
      value: 1
    }
  }
}
layer {
  name: "relu4"
  type: "ReLU"
  bottom: "conv4"
  top: "conv4"
}
layer {
  name: "conv5"
  type: "Convolution"
  bottom: "conv4"
  top: "conv5"
  param {
    lr_mult: 1
    decay_mult: 1
  }
  param {
    lr_mult: 2
    decay_mult: 0
  }
  convolution_param {
    num_output: 8
    pad: 1
    kernel_size: 3
    group: 2
    weight_filler {
      type: "xavier"
    }
    bias_filler {
      type: "constant"
      value: 1
    }
  }
}
layer {
  name: "relu5"
  type: "ReLU"
  bottom: "conv5"
  top: "conv5"
}
layer {
  name: "pool5"
  type: "Pooling"
  bottom: "conv5"
  top: "pool5"
  pooling_param {
    pool: MAX
    kernel_size: 3
    stride: 2
  }
}
layer {
  name: "fc6"
  type: "InnerProduct"
  bottom: "pool5"
  top: "fc6"
  param {
    lr_mult: 1
    decay_mult: 1
  }
  param {
    lr_mult: 2
    decay_mult: 0
  }
  inner_product_param {
    num_output: 256
    weight_filler {
      type: "xavier"
    }
    bias_filler {
      type: "constant"
      value: 1
    }
  }
}
layer {
  name: "relu6"
  type: "ReLU"
  bottom: "fc6"
  top: "fc6"
}
layer {
  name: "drop6"
  type: "Dropout"
  bottom: "fc6"
  top: "fc6"
  dropout_param {
    dropout_ratio: 0.5
  }
}
layer {
  name: "fc7"
  type: "InnerProduct"
  bottom: "fc6"
  top: "fc7"
  param {
    lr_mult: 1
    decay_mult: 1
  }
  param {
    lr_mult: 2
    decay_mult: 0
  }
  inner_product_param {
    num_output: 256
    weight_filler {
      type: "xavier"
    }
    bias_filler {
      type: "constant"
      value: 1
    }
  }
}
layer {
  name: "relu7"
  type: "ReLU"
  bottom: "fc7"
  top: "fc7"
}
layer {
  name: "drop7"
  type: "Dropout"
  bottom: "fc7"
  top: "fc7"
  dropout_param {
    dropout_ratio: 0.5
  }
}
layer {
  name: "fc8"
  type: "InnerProduct"
  bottom: "fc7"
  top: "fc8"
  param {
    lr_mult: 1
    decay_mult: 1
  }
  param {
    lr_mult: 2
    decay_mult: 0
  }
  inner_product_param {
    num_output: 2
    weight_filler {
      type: "xavier"
    }
    bias_filler {
      type: "constant"
      value: 0
    }
  }
}
layer {
  name: "loss"
  type: "SoftmaxWithLoss"
  bottom: "fc8"
  bottom: "label"
  top: "loss"
}
I0205 06:46:43.980562 12783 layer_factory.hpp:77] Creating layer data
I0205 06:46:43.980734 12783 net.cpp:106] Creating Layer data
I0205 06:46:43.980752 12783 net.cpp:411] data -> data
I0205 06:46:43.980813 12783 net.cpp:411] data -> label
I0205 06:46:43.980836 12783 data_transformer.cpp:25] Loading mean file from: /home/pearlstl/proj_cv/master/lmdb/synth1_train_lum_db/mean_file.binaryproto
I0205 06:46:43.980978 12784 db_lmdb.cpp:38] Opened lmdb /home/pearlstl/proj_cv/master/lmdb/synth1_train_lum_db
I0205 06:46:43.981748 12783 data_layer.cpp:41] output data size: 100,1,227,227
I0205 06:46:44.009367 12783 net.cpp:150] Setting up data
I0205 06:46:44.009394 12783 net.cpp:157] Top shape: 100 1 227 227 (5152900)
I0205 06:46:44.009403 12783 net.cpp:157] Top shape: 100 (100)
I0205 06:46:44.009409 12783 net.cpp:165] Memory required for data: 20612000
I0205 06:46:44.009425 12783 layer_factory.hpp:77] Creating layer conv1
I0205 06:46:44.009469 12783 net.cpp:106] Creating Layer conv1
I0205 06:46:44.009480 12783 net.cpp:454] conv1 <- data
I0205 06:46:44.009500 12783 net.cpp:411] conv1 -> conv1
I0205 06:46:44.009614 12783 net.cpp:150] Setting up conv1
I0205 06:46:44.009626 12783 net.cpp:157] Top shape: 100 8 55 55 (2420000)
I0205 06:46:44.009632 12783 net.cpp:165] Memory required for data: 30292000
I0205 06:46:44.009649 12783 layer_factory.hpp:77] Creating layer relu1
I0205 06:46:44.009662 12783 net.cpp:106] Creating Layer relu1
I0205 06:46:44.009670 12783 net.cpp:454] relu1 <- conv1
I0205 06:46:44.009678 12783 net.cpp:397] relu1 -> conv1 (in-place)
I0205 06:46:44.009691 12783 net.cpp:150] Setting up relu1
I0205 06:46:44.009698 12783 net.cpp:157] Top shape: 100 8 55 55 (2420000)
I0205 06:46:44.009704 12783 net.cpp:165] Memory required for data: 39972000
I0205 06:46:44.009709 12783 layer_factory.hpp:77] Creating layer pool1
I0205 06:46:44.009719 12783 net.cpp:106] Creating Layer pool1
I0205 06:46:44.009726 12783 net.cpp:454] pool1 <- conv1
I0205 06:46:44.009733 12783 net.cpp:411] pool1 -> pool1
I0205 06:46:44.009758 12783 net.cpp:150] Setting up pool1
I0205 06:46:44.009766 12783 net.cpp:157] Top shape: 100 8 27 27 (583200)
I0205 06:46:44.009771 12783 net.cpp:165] Memory required for data: 42304800
I0205 06:46:44.009778 12783 layer_factory.hpp:77] Creating layer norm1
I0205 06:46:44.009798 12783 net.cpp:106] Creating Layer norm1
I0205 06:46:44.009814 12783 net.cpp:454] norm1 <- pool1
I0205 06:46:44.009821 12783 net.cpp:411] norm1 -> norm1
I0205 06:46:44.009841 12783 net.cpp:150] Setting up norm1
I0205 06:46:44.009850 12783 net.cpp:157] Top shape: 100 8 27 27 (583200)
I0205 06:46:44.009855 12783 net.cpp:165] Memory required for data: 44637600
I0205 06:46:44.009860 12783 layer_factory.hpp:77] Creating layer conv2
I0205 06:46:44.009871 12783 net.cpp:106] Creating Layer conv2
I0205 06:46:44.009877 12783 net.cpp:454] conv2 <- norm1
I0205 06:46:44.009886 12783 net.cpp:411] conv2 -> conv2
I0205 06:46:44.009915 12783 net.cpp:150] Setting up conv2
I0205 06:46:44.009923 12783 net.cpp:157] Top shape: 100 8 27 27 (583200)
I0205 06:46:44.009929 12783 net.cpp:165] Memory required for data: 46970400
I0205 06:46:44.009939 12783 layer_factory.hpp:77] Creating layer relu2
I0205 06:46:44.009948 12783 net.cpp:106] Creating Layer relu2
I0205 06:46:44.009953 12783 net.cpp:454] relu2 <- conv2
I0205 06:46:44.009961 12783 net.cpp:397] relu2 -> conv2 (in-place)
I0205 06:46:44.009974 12783 net.cpp:150] Setting up relu2
I0205 06:46:44.009981 12783 net.cpp:157] Top shape: 100 8 27 27 (583200)
I0205 06:46:44.009986 12783 net.cpp:165] Memory required for data: 49303200
I0205 06:46:44.009991 12783 layer_factory.hpp:77] Creating layer pool2
I0205 06:46:44.009999 12783 net.cpp:106] Creating Layer pool2
I0205 06:46:44.010004 12783 net.cpp:454] pool2 <- conv2
I0205 06:46:44.010011 12783 net.cpp:411] pool2 -> pool2
I0205 06:46:44.010021 12783 net.cpp:150] Setting up pool2
I0205 06:46:44.010028 12783 net.cpp:157] Top shape: 100 8 13 13 (135200)
I0205 06:46:44.010033 12783 net.cpp:165] Memory required for data: 49844000
I0205 06:46:44.010040 12783 layer_factory.hpp:77] Creating layer norm2
I0205 06:46:44.010049 12783 net.cpp:106] Creating Layer norm2
I0205 06:46:44.010056 12783 net.cpp:454] norm2 <- pool2
I0205 06:46:44.010062 12783 net.cpp:411] norm2 -> norm2
I0205 06:46:44.010071 12783 net.cpp:150] Setting up norm2
I0205 06:46:44.010078 12783 net.cpp:157] Top shape: 100 8 13 13 (135200)
I0205 06:46:44.010083 12783 net.cpp:165] Memory required for data: 50384800
I0205 06:46:44.010088 12783 layer_factory.hpp:77] Creating layer conv3
I0205 06:46:44.010097 12783 net.cpp:106] Creating Layer conv3
I0205 06:46:44.010103 12783 net.cpp:454] conv3 <- norm2
I0205 06:46:44.010118 12783 net.cpp:411] conv3 -> conv3
I0205 06:46:44.010144 12783 net.cpp:150] Setting up conv3
I0205 06:46:44.010152 12783 net.cpp:157] Top shape: 100 8 13 13 (135200)
I0205 06:46:44.010159 12783 net.cpp:165] Memory required for data: 50925600
I0205 06:46:44.010169 12783 layer_factory.hpp:77] Creating layer relu3
I0205 06:46:44.010179 12783 net.cpp:106] Creating Layer relu3
I0205 06:46:44.010185 12783 net.cpp:454] relu3 <- conv3
I0205 06:46:44.010192 12783 net.cpp:397] relu3 -> conv3 (in-place)
I0205 06:46:44.010200 12783 net.cpp:150] Setting up relu3
I0205 06:46:44.010206 12783 net.cpp:157] Top shape: 100 8 13 13 (135200)
I0205 06:46:44.010211 12783 net.cpp:165] Memory required for data: 51466400
I0205 06:46:44.010217 12783 layer_factory.hpp:77] Creating layer conv4
I0205 06:46:44.010226 12783 net.cpp:106] Creating Layer conv4
I0205 06:46:44.010232 12783 net.cpp:454] conv4 <- conv3
I0205 06:46:44.010241 12783 net.cpp:411] conv4 -> conv4
I0205 06:46:44.010263 12783 net.cpp:150] Setting up conv4
I0205 06:46:44.010270 12783 net.cpp:157] Top shape: 100 8 13 13 (135200)
I0205 06:46:44.010275 12783 net.cpp:165] Memory required for data: 52007200
I0205 06:46:44.010283 12783 layer_factory.hpp:77] Creating layer relu4
I0205 06:46:44.010290 12783 net.cpp:106] Creating Layer relu4
I0205 06:46:44.010298 12783 net.cpp:454] relu4 <- conv4
I0205 06:46:44.010306 12783 net.cpp:397] relu4 -> conv4 (in-place)
I0205 06:46:44.010314 12783 net.cpp:150] Setting up relu4
I0205 06:46:44.010321 12783 net.cpp:157] Top shape: 100 8 13 13 (135200)
I0205 06:46:44.010326 12783 net.cpp:165] Memory required for data: 52548000
I0205 06:46:44.010331 12783 layer_factory.hpp:77] Creating layer conv5
I0205 06:46:44.010346 12783 net.cpp:106] Creating Layer conv5
I0205 06:46:44.010359 12783 net.cpp:454] conv5 <- conv4
I0205 06:46:44.010366 12783 net.cpp:411] conv5 -> conv5
I0205 06:46:44.010387 12783 net.cpp:150] Setting up conv5
I0205 06:46:44.010395 12783 net.cpp:157] Top shape: 100 8 13 13 (135200)
I0205 06:46:44.010401 12783 net.cpp:165] Memory required for data: 53088800
I0205 06:46:44.010411 12783 layer_factory.hpp:77] Creating layer relu5
I0205 06:46:44.010421 12783 net.cpp:106] Creating Layer relu5
I0205 06:46:44.010426 12783 net.cpp:454] relu5 <- conv5
I0205 06:46:44.010434 12783 net.cpp:397] relu5 -> conv5 (in-place)
I0205 06:46:44.010442 12783 net.cpp:150] Setting up relu5
I0205 06:46:44.010449 12783 net.cpp:157] Top shape: 100 8 13 13 (135200)
I0205 06:46:44.010454 12783 net.cpp:165] Memory required for data: 53629600
I0205 06:46:44.010460 12783 layer_factory.hpp:77] Creating layer pool5
I0205 06:46:44.010468 12783 net.cpp:106] Creating Layer pool5
I0205 06:46:44.010473 12783 net.cpp:454] pool5 <- conv5
I0205 06:46:44.010480 12783 net.cpp:411] pool5 -> pool5
I0205 06:46:44.010490 12783 net.cpp:150] Setting up pool5
I0205 06:46:44.010498 12783 net.cpp:157] Top shape: 100 8 6 6 (28800)
I0205 06:46:44.010502 12783 net.cpp:165] Memory required for data: 53744800
I0205 06:46:44.010507 12783 layer_factory.hpp:77] Creating layer fc6
I0205 06:46:44.010522 12783 net.cpp:106] Creating Layer fc6
I0205 06:46:44.010529 12783 net.cpp:454] fc6 <- pool5
I0205 06:46:44.010536 12783 net.cpp:411] fc6 -> fc6
I0205 06:46:44.011327 12783 net.cpp:150] Setting up fc6
I0205 06:46:44.011340 12783 net.cpp:157] Top shape: 100 256 (25600)
I0205 06:46:44.011345 12783 net.cpp:165] Memory required for data: 53847200
I0205 06:46:44.011354 12783 layer_factory.hpp:77] Creating layer relu6
I0205 06:46:44.011363 12783 net.cpp:106] Creating Layer relu6
I0205 06:46:44.011369 12783 net.cpp:454] relu6 <- fc6
I0205 06:46:44.011378 12783 net.cpp:397] relu6 -> fc6 (in-place)
I0205 06:46:44.011386 12783 net.cpp:150] Setting up relu6
I0205 06:46:44.011394 12783 net.cpp:157] Top shape: 100 256 (25600)
I0205 06:46:44.011399 12783 net.cpp:165] Memory required for data: 53949600
I0205 06:46:44.011404 12783 layer_factory.hpp:77] Creating layer drop6
I0205 06:46:44.011414 12783 net.cpp:106] Creating Layer drop6
I0205 06:46:44.011420 12783 net.cpp:454] drop6 <- fc6
I0205 06:46:44.011426 12783 net.cpp:397] drop6 -> fc6 (in-place)
I0205 06:46:44.011447 12783 net.cpp:150] Setting up drop6
I0205 06:46:44.011456 12783 net.cpp:157] Top shape: 100 256 (25600)
I0205 06:46:44.011461 12783 net.cpp:165] Memory required for data: 54052000
I0205 06:46:44.011467 12783 layer_factory.hpp:77] Creating layer fc7
I0205 06:46:44.011476 12783 net.cpp:106] Creating Layer fc7
I0205 06:46:44.011482 12783 net.cpp:454] fc7 <- fc6
I0205 06:46:44.011490 12783 net.cpp:411] fc7 -> fc7
I0205 06:46:44.012179 12783 net.cpp:150] Setting up fc7
I0205 06:46:44.012192 12783 net.cpp:157] Top shape: 100 256 (25600)
I0205 06:46:44.012197 12783 net.cpp:165] Memory required for data: 54154400
I0205 06:46:44.012205 12783 layer_factory.hpp:77] Creating layer relu7
I0205 06:46:44.012212 12783 net.cpp:106] Creating Layer relu7
I0205 06:46:44.012218 12783 net.cpp:454] relu7 <- fc7
I0205 06:46:44.012226 12783 net.cpp:397] relu7 -> fc7 (in-place)
I0205 06:46:44.012234 12783 net.cpp:150] Setting up relu7
I0205 06:46:44.012243 12783 net.cpp:157] Top shape: 100 256 (25600)
I0205 06:46:44.012248 12783 net.cpp:165] Memory required for data: 54256800
I0205 06:46:44.012254 12783 layer_factory.hpp:77] Creating layer drop7
I0205 06:46:44.012264 12783 net.cpp:106] Creating Layer drop7
I0205 06:46:44.012270 12783 net.cpp:454] drop7 <- fc7
I0205 06:46:44.012277 12783 net.cpp:397] drop7 -> fc7 (in-place)
I0205 06:46:44.012287 12783 net.cpp:150] Setting up drop7
I0205 06:46:44.012293 12783 net.cpp:157] Top shape: 100 256 (25600)
I0205 06:46:44.012298 12783 net.cpp:165] Memory required for data: 54359200
I0205 06:46:44.012305 12783 layer_factory.hpp:77] Creating layer fc8
I0205 06:46:44.012315 12783 net.cpp:106] Creating Layer fc8
I0205 06:46:44.012326 12783 net.cpp:454] fc8 <- fc7
I0205 06:46:44.012339 12783 net.cpp:411] fc8 -> fc8
I0205 06:46:44.012363 12783 net.cpp:150] Setting up fc8
I0205 06:46:44.012372 12783 net.cpp:157] Top shape: 100 2 (200)
I0205 06:46:44.012378 12783 net.cpp:165] Memory required for data: 54360000
I0205 06:46:44.012387 12783 layer_factory.hpp:77] Creating layer loss
I0205 06:46:44.012394 12783 net.cpp:106] Creating Layer loss
I0205 06:46:44.012400 12783 net.cpp:454] loss <- fc8
I0205 06:46:44.012408 12783 net.cpp:454] loss <- label
I0205 06:46:44.012418 12783 net.cpp:411] loss -> loss
I0205 06:46:44.012434 12783 layer_factory.hpp:77] Creating layer loss
…
I0205 06:46:44.016639 12783 net.cpp:322] The NetState phase (1) differed from the phase (0) specified by a rule in layer data
I0205 06:46:44.016964 12783 net.cpp:49] Initializing net from parameters: 
name: "CaffeNet"
state {
  phase: TEST
}
layer {
  name: "data"
  type: "Data"
  top: "data"
  top: "label"
  include {
    phase: TEST
  }
  transform_param {
    mirror: false
    crop_size: 227
    mean_file: "/home/pearlstl/proj_cv/master/lmdb/synth1_test_lum_db/mean_file.binaryproto"
  }
  data_param {
    source: "/home/pearlstl/proj_cv/master/lmdb/synth1_test_lum_db"
    batch_size: 100
    backend: LMDB
  }
}
layer {
  name: "conv1"
  type: "Convolution"
  bottom: "data"
  top: "conv1"
  param {
    lr_mult: 1
    decay_mult: 1
  }
  param {
    lr_mult: 2
    decay_mult: 0
  }
  convolution_param {
    num_output: 8
    kernel_size: 11
    stride: 4
    weight_filler {
      type: "xavier"
    }
    bias_filler {
      type: "constant"
      value: 0
    }
  }
}
layer {
  name: "relu1"
  type: "ReLU"
  bottom: "conv1"
  top: "conv1"
}
layer {
  name: "pool1"
  type: "Pooling"
  bottom: "conv1"
  top: "pool1"
  pooling_param {
    pool: MAX
    kernel_size: 3
    stride: 2
  }
}
layer {
  name: "norm1"
  type: "LRN"
  bottom: "pool1"
  top: "norm1"
  lrn_param {
    local_size: 5
    alpha: 0.0001
    beta: 0.75
  }
}
layer {
  name: "conv2"
  type: "Convolution"
  bottom: "norm1"
  top: "conv2"
  param {
    lr_mult: 1
    decay_mult: 1
  }
  param {
    lr_mult: 2
    decay_mult: 0
  }
  convolution_param {
    num_output: 8
    pad: 2
    kernel_size: 5
    group: 2
    weight_filler {
      type: "xavier"
    }
    bias_filler {
      type: "constant"
      value: 1
    }
  }
}
layer {
  name: "relu2"
  type: "ReLU"
  bottom: "conv2"
  top: "conv2"
}
layer {
  name: "pool2"
  type: "Pooling"
  bottom: "conv2"
  top: "pool2"
  pooling_param {
    pool: MAX
    kernel_size: 3
    stride: 2
  }
}
layer {
  name: "norm2"
  type: "LRN"
  bottom: "pool2"
  top: "norm2"
  lrn_param {
    local_size: 5
    alpha: 0.0001
    beta: 0.75
  }
}
layer {
  name: "conv3"
  type: "Convolution"
  bottom: "norm2"
  top: "conv3"
  param {
    lr_mult: 1
    decay_mult: 1
  }
  param {
    lr_mult: 2
    decay_mult: 0
  }
  convolution_param {
    num_output: 8
    pad: 1
    kernel_size: 3
    weight_filler {
      type: "xavier"
    }
    bias_filler {
      type: "constant"
      value: 0
    }
  }
}
layer {
  name: "relu3"
  type: "ReLU"
  bottom: "conv3"
  top: "conv3"
}
layer {
  name: "conv4"
  type: "Convolution"
  bottom: "conv3"
  top: "conv4"
  param {
    lr_mult: 1
    decay_mult: 1
  }
  param {
    lr_mult: 2
    decay_mult: 0
  }
  convolution_param {
    num_output: 8
    pad: 1
    kernel_size: 3
    group: 2
    weight_filler {
      type: "xavier"
    }
    bias_filler {
      type: "constant"
      value: 1
    }
  }
}
layer {
  name: "relu4"
  type: "ReLU"
  bottom: "conv4"
  top: "conv4"
}
layer {
  name: "conv5"
  type: "Convolution"
  bottom: "conv4"
  top: "conv5"
  param {
    lr_mult: 1
    decay_mult: 1
  }
  param {
    lr_mult: 2
    decay_mult: 0
  }
  convolution_param {
    num_output: 8
    pad: 1
    kernel_size: 3
    group: 2
    weight_filler {
      type: "xavier"
    }
    bias_filler {
      type: "constant"
      value: 1
    }
  }
}
layer {
  name: "relu5"
  type: "ReLU"
  bottom: "conv5"
  top: "conv5"
}
layer {
  name: "pool5"
  type: "Pooling"
  bottom: "conv5"
  top: "pool5"
  pooling_param {
    pool: MAX
    kernel_size: 3
    stride: 2
  }
}
layer {
  name: "fc6"
  type: "InnerProduct"
  bottom: "pool5"
  top: "fc6"
  param {
    lr_mult: 1
    decay_mult: 1
  }
  param {
    lr_mult: 2
    decay_mult: 0
  }
  inner_product_param {
    num_output: 256
    weight_filler {
      type: "xavier"
    }
    bias_filler {
      type: "constant"
      value: 1
    }
  }
}
layer {
  name: "relu6"
  type: "ReLU"
  bottom: "fc6"
  top: "fc6"
}
layer {
  name: "drop6"
  type: "Dropout"
  bottom: "fc6"
  top: "fc6"
  dropout_param {
    dropout_ratio: 0.5
  }
}
layer {
  name: "fc7"
  type: "InnerProduct"
  bottom: "fc6"
  top: "fc7"
  param {
    lr_mult: 1
    decay_mult: 1
  }
  param {
    lr_mult: 2
    decay_mult: 0
  }
  inner_product_param {
    num_output: 256
    weight_filler {
      type: "xavier"
    }
    bias_filler {
      type: "constant"
      value: 1
    }
  }
}
layer {
  name: "relu7"
  type: "ReLU"
  bottom: "fc7"
  top: "fc7"
}
layer {
  name: "drop7"
  type: "Dropout"
  bottom: "fc7"
  top: "fc7"
  dropout_param {
    dropout_ratio: 0.5
  }
}
layer {
  name: "fc8"
  type: "InnerProduct"
  bottom: "fc7"
  top: "fc8"
  param {
    lr_mult: 1
    decay_mult: 1
  }
  param {
    lr_mult: 2
    decay_mult: 0
  }
  inner_product_param {
    num_output: 2
    weight_filler {
      type: "xavier"
    }
    bias_filler {
      type: "constant"
      value: 0
    }
  }
}
layer {
  name: "accuracy"
  type: "Accuracy"
  bottom: "fc8"
  bottom: "label"
  top: "accuracy"
  include {
    phase: TEST
  }
}
layer {
  name: "loss"
  type: "SoftmaxWithLoss"
  bottom: "fc8"
  bottom: "label"
  top: "loss"
}
I0205 06:46:44.017155 12783 layer_factory.hpp:77] Creating layer data
I0205 06:46:44.017310 12783 net.cpp:106] Creating Layer data
I0205 06:46:44.017324 12783 net.cpp:411] data -> data
I0205 06:46:44.017339 12783 net.cpp:411] data -> label
I0205 06:46:44.017350 12783 data_transformer.cpp:25] Loading mean file from: /home/pearlstl/proj_cv/master/lmdb/synth1_test_lum_db/mean_file.binaryproto
I0205 06:46:44.017534 12788 db_lmdb.cpp:38] Opened lmdb /home/pearlstl/proj_cv/master/lmdb/synth1_test_lum_db
I0205 06:46:44.018220 12783 data_layer.cpp:41] output data size: 100,1,227,227
I0205 06:46:44.044160 12783 net.cpp:150] Setting up data
I0205 06:46:44.044203 12783 net.cpp:157] Top shape: 100 1 227 227 (5152900)
I0205 06:46:44.044211 12783 net.cpp:157] Top shape: 100 (100)
I0205 06:46:44.044217 12783 net.cpp:165] Memory required for data: 20612000
I0205 06:46:44.044229 12783 layer_factory.hpp:77] Creating layer label_data_1_split
I0205 06:46:44.044252 12783 net.cpp:106] Creating Layer label_data_1_split
I0205 06:46:44.044260 12783 net.cpp:454] label_data_1_split <- label
I0205 06:46:44.044272 12783 net.cpp:411] label_data_1_split -> label_data_1_split_0
I0205 06:46:44.044291 12783 net.cpp:411] label_data_1_split -> label_data_1_split_1
I0205 06:46:44.044307 12783 net.cpp:150] Setting up label_data_1_split
I0205 06:46:44.044317 12783 net.cpp:157] Top shape: 100 (100)
I0205 06:46:44.044325 12783 net.cpp:157] Top shape: 100 (100)
I0205 06:46:44.044332 12783 net.cpp:165] Memory required for data: 20612800
I0205 06:46:44.044337 12783 layer_factory.hpp:77] Creating layer conv1
I0205 06:46:44.044353 12783 net.cpp:106] Creating Layer conv1
I0205 06:46:44.044360 12783 net.cpp:454] conv1 <- data
I0205 06:46:44.044370 12783 net.cpp:411] conv1 -> conv1
I0205 06:46:44.044425 12783 net.cpp:150] Setting up conv1
I0205 06:46:44.044436 12783 net.cpp:157] Top shape: 100 8 55 55 (2420000)
I0205 06:46:44.044441 12783 net.cpp:165] Memory required for data: 30292800
I0205 06:46:44.044456 12783 layer_factory.hpp:77] Creating layer relu1
I0205 06:46:44.044466 12783 net.cpp:106] Creating Layer relu1
I0205 06:46:44.044474 12783 net.cpp:454] relu1 <- conv1
I0205 06:46:44.044482 12783 net.cpp:397] relu1 -> conv1 (in-place)
I0205 06:46:44.044492 12783 net.cpp:150] Setting up relu1
I0205 06:46:44.044499 12783 net.cpp:157] Top shape: 100 8 55 55 (2420000)
I0205 06:46:44.044505 12783 net.cpp:165] Memory required for data: 39972800
I0205 06:46:44.044510 12783 layer_factory.hpp:77] Creating layer pool1
I0205 06:46:44.044523 12783 net.cpp:106] Creating Layer pool1
I0205 06:46:44.044528 12783 net.cpp:454] pool1 <- conv1
I0205 06:46:44.044538 12783 net.cpp:411] pool1 -> pool1
I0205 06:46:44.044551 12783 net.cpp:150] Setting up pool1
I0205 06:46:44.044559 12783 net.cpp:157] Top shape: 100 8 27 27 (583200)
I0205 06:46:44.044564 12783 net.cpp:165] Memory required for data: 42305600
I0205 06:46:44.044569 12783 layer_factory.hpp:77] Creating layer norm1
I0205 06:46:44.044582 12783 net.cpp:106] Creating Layer norm1
I0205 06:46:44.044589 12783 net.cpp:454] norm1 <- pool1
I0205 06:46:44.044596 12783 net.cpp:411] norm1 -> norm1
I0205 06:46:44.044607 12783 net.cpp:150] Setting up norm1
I0205 06:46:44.044615 12783 net.cpp:157] Top shape: 100 8 27 27 (583200)
I0205 06:46:44.044623 12783 net.cpp:165] Memory required for data: 44638400
I0205 06:46:44.044630 12783 layer_factory.hpp:77] Creating layer conv2
I0205 06:46:44.044639 12783 net.cpp:106] Creating Layer conv2
I0205 06:46:44.044646 12783 net.cpp:454] conv2 <- norm1
I0205 06:46:44.044654 12783 net.cpp:411] conv2 -> conv2
I0205 06:46:44.044685 12783 net.cpp:150] Setting up conv2
I0205 06:46:44.044693 12783 net.cpp:157] Top shape: 100 8 27 27 (583200)
I0205 06:46:44.044698 12783 net.cpp:165] Memory required for data: 46971200
I0205 06:46:44.044708 12783 layer_factory.hpp:77] Creating layer relu2
I0205 06:46:44.044718 12783 net.cpp:106] Creating Layer relu2
I0205 06:46:44.044726 12783 net.cpp:454] relu2 <- conv2
I0205 06:46:44.044734 12783 net.cpp:397] relu2 -> conv2 (in-place)
I0205 06:46:44.044754 12783 net.cpp:150] Setting up relu2
I0205 06:46:44.044772 12783 net.cpp:157] Top shape: 100 8 27 27 (583200)
I0205 06:46:44.044777 12783 net.cpp:165] Memory required for data: 49304000
I0205 06:46:44.044783 12783 layer_factory.hpp:77] Creating layer pool2
I0205 06:46:44.044795 12783 net.cpp:106] Creating Layer pool2
I0205 06:46:44.044800 12783 net.cpp:454] pool2 <- conv2
I0205 06:46:44.044808 12783 net.cpp:411] pool2 -> pool2
I0205 06:46:44.044819 12783 net.cpp:150] Setting up pool2
I0205 06:46:44.044826 12783 net.cpp:157] Top shape: 100 8 13 13 (135200)
I0205 06:46:44.044832 12783 net.cpp:165] Memory required for data: 49844800
I0205 06:46:44.044838 12783 layer_factory.hpp:77] Creating layer norm2
I0205 06:46:44.044847 12783 net.cpp:106] Creating Layer norm2
I0205 06:46:44.044852 12783 net.cpp:454] norm2 <- pool2
I0205 06:46:44.044860 12783 net.cpp:411] norm2 -> norm2
I0205 06:46:44.044869 12783 net.cpp:150] Setting up norm2
I0205 06:46:44.044878 12783 net.cpp:157] Top shape: 100 8 13 13 (135200)
I0205 06:46:44.044885 12783 net.cpp:165] Memory required for data: 50385600
I0205 06:46:44.044890 12783 layer_factory.hpp:77] Creating layer conv3
I0205 06:46:44.044901 12783 net.cpp:106] Creating Layer conv3
I0205 06:46:44.044908 12783 net.cpp:454] conv3 <- norm2
I0205 06:46:44.044919 12783 net.cpp:411] conv3 -> conv3
I0205 06:46:44.044945 12783 net.cpp:150] Setting up conv3
I0205 06:46:44.044953 12783 net.cpp:157] Top shape: 100 8 13 13 (135200)
I0205 06:46:44.044958 12783 net.cpp:165] Memory required for data: 50926400
I0205 06:46:44.044968 12783 layer_factory.hpp:77] Creating layer relu3
I0205 06:46:44.044977 12783 net.cpp:106] Creating Layer relu3
I0205 06:46:44.044984 12783 net.cpp:454] relu3 <- conv3
I0205 06:46:44.044992 12783 net.cpp:397] relu3 -> conv3 (in-place)
I0205 06:46:44.045001 12783 net.cpp:150] Setting up relu3
I0205 06:46:44.045007 12783 net.cpp:157] Top shape: 100 8 13 13 (135200)
I0205 06:46:44.045012 12783 net.cpp:165] Memory required for data: 51467200
I0205 06:46:44.045017 12783 layer_factory.hpp:77] Creating layer conv4
I0205 06:46:44.045030 12783 net.cpp:106] Creating Layer conv4
I0205 06:46:44.045037 12783 net.cpp:454] conv4 <- conv3
I0205 06:46:44.045045 12783 net.cpp:411] conv4 -> conv4
I0205 06:46:44.045068 12783 net.cpp:150] Setting up conv4
I0205 06:46:44.045074 12783 net.cpp:157] Top shape: 100 8 13 13 (135200)
I0205 06:46:44.045079 12783 net.cpp:165] Memory required for data: 52008000
I0205 06:46:44.045088 12783 layer_factory.hpp:77] Creating layer relu4
I0205 06:46:44.045097 12783 net.cpp:106] Creating Layer relu4
I0205 06:46:44.045104 12783 net.cpp:454] relu4 <- conv4
I0205 06:46:44.045126 12783 net.cpp:397] relu4 -> conv4 (in-place)
I0205 06:46:44.045136 12783 net.cpp:150] Setting up relu4
I0205 06:46:44.045143 12783 net.cpp:157] Top shape: 100 8 13 13 (135200)
I0205 06:46:44.045150 12783 net.cpp:165] Memory required for data: 52548800
I0205 06:46:44.045156 12783 layer_factory.hpp:77] Creating layer conv5
I0205 06:46:44.045167 12783 net.cpp:106] Creating Layer conv5
I0205 06:46:44.045174 12783 net.cpp:454] conv5 <- conv4
I0205 06:46:44.045184 12783 net.cpp:411] conv5 -> conv5
I0205 06:46:44.045207 12783 net.cpp:150] Setting up conv5
I0205 06:46:44.045214 12783 net.cpp:157] Top shape: 100 8 13 13 (135200)
I0205 06:46:44.045219 12783 net.cpp:165] Memory required for data: 53089600
I0205 06:46:44.045229 12783 layer_factory.hpp:77] Creating layer relu5
I0205 06:46:44.045240 12783 net.cpp:106] Creating Layer relu5
I0205 06:46:44.045246 12783 net.cpp:454] relu5 <- conv5
I0205 06:46:44.045254 12783 net.cpp:397] relu5 -> conv5 (in-place)
I0205 06:46:44.045263 12783 net.cpp:150] Setting up relu5
I0205 06:46:44.045269 12783 net.cpp:157] Top shape: 100 8 13 13 (135200)
I0205 06:46:44.045274 12783 net.cpp:165] Memory required for data: 53630400
I0205 06:46:44.045279 12783 layer_factory.hpp:77] Creating layer pool5
I0205 06:46:44.045289 12783 net.cpp:106] Creating Layer pool5
I0205 06:46:44.045295 12783 net.cpp:454] pool5 <- conv5
I0205 06:46:44.045303 12783 net.cpp:411] pool5 -> pool5
I0205 06:46:44.045318 12783 net.cpp:150] Setting up pool5
I0205 06:46:44.045337 12783 net.cpp:157] Top shape: 100 8 6 6 (28800)
I0205 06:46:44.045342 12783 net.cpp:165] Memory required for data: 53745600
I0205 06:46:44.045348 12783 layer_factory.hpp:77] Creating layer fc6
I0205 06:46:44.045359 12783 net.cpp:106] Creating Layer fc6
I0205 06:46:44.045367 12783 net.cpp:454] fc6 <- pool5
I0205 06:46:44.045378 12783 net.cpp:411] fc6 -> fc6
I0205 06:46:44.046099 12783 net.cpp:150] Setting up fc6
I0205 06:46:44.046116 12783 net.cpp:157] Top shape: 100 256 (25600)
I0205 06:46:44.046121 12783 net.cpp:165] Memory required for data: 53848000
I0205 06:46:44.046131 12783 layer_factory.hpp:77] Creating layer relu6
I0205 06:46:44.046144 12783 net.cpp:106] Creating Layer relu6
I0205 06:46:44.046149 12783 net.cpp:454] relu6 <- fc6
I0205 06:46:44.046156 12783 net.cpp:397] relu6 -> fc6 (in-place)
I0205 06:46:44.046165 12783 net.cpp:150] Setting up relu6
I0205 06:46:44.046175 12783 net.cpp:157] Top shape: 100 256 (25600)
I0205 06:46:44.046180 12783 net.cpp:165] Memory required for data: 53950400
I0205 06:46:44.046185 12783 layer_factory.hpp:77] Creating layer drop6
I0205 06:46:44.046195 12783 net.cpp:106] Creating Layer drop6
I0205 06:46:44.046201 12783 net.cpp:454] drop6 <- fc6
I0205 06:46:44.046211 12783 net.cpp:397] drop6 -> fc6 (in-place)
I0205 06:46:44.046222 12783 net.cpp:150] Setting up drop6
I0205 06:46:44.046229 12783 net.cpp:157] Top shape: 100 256 (25600)
I0205 06:46:44.046234 12783 net.cpp:165] Memory required for data: 54052800
I0205 06:46:44.046239 12783 layer_factory.hpp:77] Creating layer fc7
I0205 06:46:44.046248 12783 net.cpp:106] Creating Layer fc7
I0205 06:46:44.046254 12783 net.cpp:454] fc7 <- fc6
I0205 06:46:44.046264 12783 net.cpp:411] fc7 -> fc7
I0205 06:46:44.046990 12783 net.cpp:150] Setting up fc7
I0205 06:46:44.047001 12783 net.cpp:157] Top shape: 100 256 (25600)
I0205 06:46:44.047006 12783 net.cpp:165] Memory required for data: 54155200
I0205 06:46:44.047015 12783 layer_factory.hpp:77] Creating layer relu7
I0205 06:46:44.047025 12783 net.cpp:106] Creating Layer relu7
I0205 06:46:44.047031 12783 net.cpp:454] relu7 <- fc7
I0205 06:46:44.047039 12783 net.cpp:397] relu7 -> fc7 (in-place)
I0205 06:46:44.047050 12783 net.cpp:150] Setting up relu7
I0205 06:46:44.047057 12783 net.cpp:157] Top shape: 100 256 (25600)
I0205 06:46:44.047063 12783 net.cpp:165] Memory required for data: 54257600
I0205 06:46:44.047068 12783 layer_factory.hpp:77] Creating layer drop7
I0205 06:46:44.047076 12783 net.cpp:106] Creating Layer drop7
I0205 06:46:44.047083 12783 net.cpp:454] drop7 <- fc7
I0205 06:46:44.047092 12783 net.cpp:397] drop7 -> fc7 (in-place)
I0205 06:46:44.047101 12783 net.cpp:150] Setting up drop7
I0205 06:46:44.047108 12783 net.cpp:157] Top shape: 100 256 (25600)
I0205 06:46:44.047119 12783 net.cpp:165] Memory required for data: 54360000
I0205 06:46:44.047124 12783 layer_factory.hpp:77] Creating layer fc8
I0205 06:46:44.047137 12783 net.cpp:106] Creating Layer fc8
I0205 06:46:44.047142 12783 net.cpp:454] fc8 <- fc7
I0205 06:46:44.047152 12783 net.cpp:411] fc8 -> fc8
I0205 06:46:44.047178 12783 net.cpp:150] Setting up fc8
I0205 06:46:44.047185 12783 net.cpp:157] Top shape: 100 2 (200)
I0205 06:46:44.047190 12783 net.cpp:165] Memory required for data: 54360800
I0205 06:46:44.047199 12783 layer_factory.hpp:77] Creating layer fc8_fc8_0_split
I0205 06:46:44.047206 12783 net.cpp:106] Creating Layer fc8_fc8_0_split
I0205 06:46:44.047212 12783 net.cpp:454] fc8_fc8_0_split <- fc8
I0205 06:46:44.047219 12783 net.cpp:411] fc8_fc8_0_split -> fc8_fc8_0_split_0
I0205 06:46:44.047227 12783 net.cpp:411] fc8_fc8_0_split -> fc8_fc8_0_split_1
I0205 06:46:44.047242 12783 net.cpp:150] Setting up fc8_fc8_0_split
I0205 06:46:44.047250 12783 net.cpp:157] Top shape: 100 2 (200)
I0205 06:46:44.047255 12783 net.cpp:157] Top shape: 100 2 (200)
I0205 06:46:44.047261 12783 net.cpp:165] Memory required for data: 54362400
I0205 06:46:44.047269 12783 layer_factory.hpp:77] Creating layer accuracy
I0205 06:46:44.047282 12783 net.cpp:106] Creating Layer accuracy
I0205 06:46:44.047292 12783 net.cpp:454] accuracy <- fc8_fc8_0_split_0
I0205 06:46:44.047307 12783 net.cpp:454] accuracy <- label_data_1_split_0
I0205 06:46:44.047317 12783 net.cpp:411] accuracy -> accuracy
…
