…
I0204 18:49:43.998138  5458 net.cpp:322] The NetState phase (0) differed from the phase (1) specified by a rule in layer accuracy
I0204 18:49:43.998386  5458 net.cpp:49] Initializing net from parameters: 
name: "CaffeNet"
state {
  phase: TRAIN
}
layer {
  name: "data"
  type: "Data"
  top: "data"
  top: "label"
  include {
    phase: TRAIN
  }
  transform_param {
    mirror: true
    crop_size: 227
    mean_file: "/home/pearlstl/proj_cv/master/lmdb/synth1_train_lum_db/mean_file.binaryproto"
  }
  data_param {
    source: "/home/pearlstl/proj_cv/master/lmdb/synth1_train_lum_db"
    batch_size: 100
    backend: LMDB
  }
}
layer {
  name: "conv1"
  type: "Convolution"
  bottom: "data"
  top: "conv1"
  param {
    lr_mult: 1
    decay_mult: 1
  }
  param {
    lr_mult: 2
    decay_mult: 0
  }
  convolution_param {
    num_output: 32
    kernel_size: 11
    stride: 4
    weight_filler {
      type: "xavier"
    }
    bias_filler {
      type: "constant"
      value: 0
    }
  }
}
layer {
  name: "relu1"
  type: "ReLU"
  bottom: "conv1"
  top: "conv1"
}
layer {
  name: "pool1"
  type: "Pooling"
  bottom: "conv1"
  top: "pool1"
  pooling_param {
    pool: MAX
    kernel_size: 3
    stride: 2
  }
}
layer {
  name: "norm1"
  type: "LRN"
  bottom: "pool1"
  top: "norm1"
  lrn_param {
    local_size: 5
    alpha: 0.0001
    beta: 0.75
  }
}
layer {
  name: "conv2"
  type: "Convolution"
  bottom: "norm1"
  top: "conv2"
  param {
    lr_mult: 1
    decay_mult: 1
  }
  param {
    lr_mult: 2
    decay_mult: 0
  }
  convolution_param {
    num_output: 32
    pad: 2
    kernel_size: 5
    group: 2
    weight_filler {
      type: "xavier"
    }
    bias_filler {
      type: "constant"
      value: 1
    }
  }
}
layer {
  name: "relu2"
  type: "ReLU"
  bottom: "conv2"
  top: "conv2"
}
layer {
  name: "pool2"
  type: "Pooling"
  bottom: "conv2"
  top: "pool2"
  pooling_param {
    pool: MAX
    kernel_size: 3
    stride: 2
  }
}
layer {
  name: "norm2"
  type: "LRN"
  bottom: "pool2"
  top: "norm2"
  lrn_param {
    local_size: 5
    alpha: 0.0001
    beta: 0.75
  }
}
layer {
  name: "conv3"
  type: "Convolution"
  bottom: "norm2"
  top: "conv3"
  param {
    lr_mult: 1
    decay_mult: 1
  }
  param {
    lr_mult: 2
    decay_mult: 0
  }
  convolution_param {
    num_output: 32
    pad: 1
    kernel_size: 3
    weight_filler {
      type: "xavier"
    }
    bias_filler {
      type: "constant"
      value: 0
    }
  }
}
layer {
  name: "relu3"
  type: "ReLU"
  bottom: "conv3"
  top: "conv3"
}
layer {
  name: "conv4"
  type: "Convolution"
  bottom: "conv3"
  top: "conv4"
  param {
    lr_mult: 1
    decay_mult: 1
  }
  param {
    lr_mult: 2
    decay_mult: 0
  }
  convolution_param {
    num_output: 32
    pad: 1
    kernel_size: 3
    group: 2
    weight_filler {
      type: "xavier"
    }
    bias_filler {
      type: "constant"
      value: 1
    }
  }
}
layer {
  name: "relu4"
  type: "ReLU"
  bottom: "conv4"
  top: "conv4"
}
layer {
  name: "conv5"
  type: "Convolution"
  bottom: "conv4"
  top: "conv5"
  param {
    lr_mult: 1
    decay_mult: 1
  }
  param {
    lr_mult: 2
    decay_mult: 0
  }
  convolution_param {
    num_output: 16
    pad: 1
    kernel_size: 3
    group: 2
    weight_filler {
      type: "xavier"
    }
    bias_filler {
      type: "constant"
      value: 1
    }
  }
}
layer {
  name: "relu5"
  type: "ReLU"
  bottom: "conv5"
  top: "conv5"
}
layer {
  name: "pool5"
  type: "Pooling"
  bottom: "conv5"
  top: "pool5"
  pooling_param {
    pool: MAX
    kernel_size: 3
    stride: 2
  }
}
layer {
  name: "fc6"
  type: "InnerProduct"
  bottom: "pool5"
  top: "fc6"
  param {
    lr_mult: 1
    decay_mult: 1
  }
  param {
    lr_mult: 2
    decay_mult: 0
  }
  inner_product_param {
    num_output: 256
    weight_filler {
      type: "xavier"
    }
    bias_filler {
      type: "constant"
      value: 1
    }
  }
}
layer {
  name: "relu6"
  type: "ReLU"
  bottom: "fc6"
  top: "fc6"
}
layer {
  name: "drop6"
  type: "Dropout"
  bottom: "fc6"
  top: "fc6"
  dropout_param {
    dropout_ratio: 0.5
  }
}
layer {
  name: "fc7"
  type: "InnerProduct"
  bottom: "fc6"
  top: "fc7"
  param {
    lr_mult: 1
    decay_mult: 1
  }
  param {
    lr_mult: 2
    decay_mult: 0
  }
  inner_product_param {
    num_output: 256
    weight_filler {
      type: "xavier"
    }
    bias_filler {
      type: "constant"
      value: 1
    }
  }
}
layer {
  name: "relu7"
  type: "ReLU"
  bottom: "fc7"
  top: "fc7"
}
layer {
  name: "drop7"
  type: "Dropout"
  bottom: "fc7"
  top: "fc7"
  dropout_param {
    dropout_ratio: 0.5
  }
}
layer {
  name: "fc8"
  type: "InnerProduct"
  bottom: "fc7"
  top: "fc8"
  param {
    lr_mult: 1
    decay_mult: 1
  }
  param {
    lr_mult: 2
    decay_mult: 0
  }
  inner_product_param {
    num_output: 2
    weight_filler {
      type: "xavier"
    }
    bias_filler {
      type: "constant"
      value: 0
    }
  }
}
layer {
  name: "loss"
  type: "SoftmaxWithLoss"
  bottom: "fc8"
  bottom: "label"
  top: "loss"
}
I0204 18:49:43.998522  5458 layer_factory.hpp:77] Creating layer data
I0204 18:49:43.998708  5458 net.cpp:106] Creating Layer data
I0204 18:49:43.998724  5458 net.cpp:411] data -> data
I0204 18:49:43.998817  5458 net.cpp:411] data -> label
I0204 18:49:43.998845  5458 data_transformer.cpp:25] Loading mean file from: /home/pearlstl/proj_cv/master/lmdb/synth1_train_lum_db/mean_file.binaryproto
I0204 18:49:43.999037  5459 db_lmdb.cpp:38] Opened lmdb /home/pearlstl/proj_cv/master/lmdb/synth1_train_lum_db
I0204 18:49:44.000010  5458 data_layer.cpp:41] output data size: 100,1,227,227
I0204 18:49:44.027230  5458 net.cpp:150] Setting up data
I0204 18:49:44.027305  5458 net.cpp:157] Top shape: 100 1 227 227 (5152900)
I0204 18:49:44.027314  5458 net.cpp:157] Top shape: 100 (100)
I0204 18:49:44.027320  5458 net.cpp:165] Memory required for data: 20612000
I0204 18:49:44.027338  5458 layer_factory.hpp:77] Creating layer conv1
I0204 18:49:44.027361  5458 net.cpp:106] Creating Layer conv1
I0204 18:49:44.027370  5458 net.cpp:454] conv1 <- data
I0204 18:49:44.027390  5458 net.cpp:411] conv1 -> conv1
I0204 18:49:44.027518  5458 net.cpp:150] Setting up conv1
I0204 18:49:44.027530  5458 net.cpp:157] Top shape: 100 32 55 55 (9680000)
I0204 18:49:44.027535  5458 net.cpp:165] Memory required for data: 59332000
I0204 18:49:44.027556  5458 layer_factory.hpp:77] Creating layer relu1
I0204 18:49:44.027568  5458 net.cpp:106] Creating Layer relu1
I0204 18:49:44.027575  5458 net.cpp:454] relu1 <- conv1
I0204 18:49:44.027583  5458 net.cpp:397] relu1 -> conv1 (in-place)
I0204 18:49:44.027597  5458 net.cpp:150] Setting up relu1
I0204 18:49:44.027606  5458 net.cpp:157] Top shape: 100 32 55 55 (9680000)
I0204 18:49:44.027611  5458 net.cpp:165] Memory required for data: 98052000
I0204 18:49:44.027616  5458 layer_factory.hpp:77] Creating layer pool1
I0204 18:49:44.027626  5458 net.cpp:106] Creating Layer pool1
I0204 18:49:44.027631  5458 net.cpp:454] pool1 <- conv1
I0204 18:49:44.027640  5458 net.cpp:411] pool1 -> pool1
I0204 18:49:44.027668  5458 net.cpp:150] Setting up pool1
I0204 18:49:44.027676  5458 net.cpp:157] Top shape: 100 32 27 27 (2332800)
I0204 18:49:44.027683  5458 net.cpp:165] Memory required for data: 107383200
I0204 18:49:44.027688  5458 layer_factory.hpp:77] Creating layer norm1
I0204 18:49:44.027714  5458 net.cpp:106] Creating Layer norm1
I0204 18:49:44.027719  5458 net.cpp:454] norm1 <- pool1
I0204 18:49:44.027729  5458 net.cpp:411] norm1 -> norm1
I0204 18:49:44.027750  5458 net.cpp:150] Setting up norm1
I0204 18:49:44.027758  5458 net.cpp:157] Top shape: 100 32 27 27 (2332800)
I0204 18:49:44.027763  5458 net.cpp:165] Memory required for data: 116714400
I0204 18:49:44.027770  5458 layer_factory.hpp:77] Creating layer conv2
I0204 18:49:44.027778  5458 net.cpp:106] Creating Layer conv2
I0204 18:49:44.027784  5458 net.cpp:454] conv2 <- norm1
I0204 18:49:44.027792  5458 net.cpp:411] conv2 -> conv2
I0204 18:49:44.027921  5458 net.cpp:150] Setting up conv2
I0204 18:49:44.027931  5458 net.cpp:157] Top shape: 100 32 27 27 (2332800)
I0204 18:49:44.027937  5458 net.cpp:165] Memory required for data: 126045600
I0204 18:49:44.027950  5458 layer_factory.hpp:77] Creating layer relu2
I0204 18:49:44.027957  5458 net.cpp:106] Creating Layer relu2
I0204 18:49:44.027963  5458 net.cpp:454] relu2 <- conv2
I0204 18:49:44.027981  5458 net.cpp:397] relu2 -> conv2 (in-place)
I0204 18:49:44.027992  5458 net.cpp:150] Setting up relu2
I0204 18:49:44.027998  5458 net.cpp:157] Top shape: 100 32 27 27 (2332800)
I0204 18:49:44.028004  5458 net.cpp:165] Memory required for data: 135376800
I0204 18:49:44.028009  5458 layer_factory.hpp:77] Creating layer pool2
I0204 18:49:44.028020  5458 net.cpp:106] Creating Layer pool2
I0204 18:49:44.028026  5458 net.cpp:454] pool2 <- conv2
I0204 18:49:44.028033  5458 net.cpp:411] pool2 -> pool2
I0204 18:49:44.028045  5458 net.cpp:150] Setting up pool2
I0204 18:49:44.028053  5458 net.cpp:157] Top shape: 100 32 13 13 (540800)
I0204 18:49:44.028059  5458 net.cpp:165] Memory required for data: 137540000
I0204 18:49:44.028064  5458 layer_factory.hpp:77] Creating layer norm2
I0204 18:49:44.028074  5458 net.cpp:106] Creating Layer norm2
I0204 18:49:44.028079  5458 net.cpp:454] norm2 <- pool2
I0204 18:49:44.028100  5458 net.cpp:411] norm2 -> norm2
I0204 18:49:44.028115  5458 net.cpp:150] Setting up norm2
I0204 18:49:44.028122  5458 net.cpp:157] Top shape: 100 32 13 13 (540800)
I0204 18:49:44.028127  5458 net.cpp:165] Memory required for data: 139703200
I0204 18:49:44.028133  5458 layer_factory.hpp:77] Creating layer conv3
I0204 18:49:44.028142  5458 net.cpp:106] Creating Layer conv3
I0204 18:49:44.028147  5458 net.cpp:454] conv3 <- norm2
I0204 18:49:44.028158  5458 net.cpp:411] conv3 -> conv3
I0204 18:49:44.028269  5458 net.cpp:150] Setting up conv3
I0204 18:49:44.028278  5458 net.cpp:157] Top shape: 100 32 13 13 (540800)
I0204 18:49:44.028286  5458 net.cpp:165] Memory required for data: 141866400
I0204 18:49:44.028297  5458 layer_factory.hpp:77] Creating layer relu3
I0204 18:49:44.028306  5458 net.cpp:106] Creating Layer relu3
I0204 18:49:44.028311  5458 net.cpp:454] relu3 <- conv3
I0204 18:49:44.028322  5458 net.cpp:397] relu3 -> conv3 (in-place)
I0204 18:49:44.028332  5458 net.cpp:150] Setting up relu3
I0204 18:49:44.028338  5458 net.cpp:157] Top shape: 100 32 13 13 (540800)
I0204 18:49:44.028344  5458 net.cpp:165] Memory required for data: 144029600
I0204 18:49:44.028349  5458 layer_factory.hpp:77] Creating layer conv4
I0204 18:49:44.028357  5458 net.cpp:106] Creating Layer conv4
I0204 18:49:44.028363  5458 net.cpp:454] conv4 <- conv3
I0204 18:49:44.028376  5458 net.cpp:411] conv4 -> conv4
I0204 18:49:44.028456  5458 net.cpp:150] Setting up conv4
I0204 18:49:44.028468  5458 net.cpp:157] Top shape: 100 32 13 13 (540800)
I0204 18:49:44.028473  5458 net.cpp:165] Memory required for data: 146192800
I0204 18:49:44.028481  5458 layer_factory.hpp:77] Creating layer relu4
I0204 18:49:44.028489  5458 net.cpp:106] Creating Layer relu4
I0204 18:49:44.028494  5458 net.cpp:454] relu4 <- conv4
I0204 18:49:44.028502  5458 net.cpp:397] relu4 -> conv4 (in-place)
I0204 18:49:44.028511  5458 net.cpp:150] Setting up relu4
I0204 18:49:44.028517  5458 net.cpp:157] Top shape: 100 32 13 13 (540800)
I0204 18:49:44.028522  5458 net.cpp:165] Memory required for data: 148356000
I0204 18:49:44.028533  5458 layer_factory.hpp:77] Creating layer conv5
I0204 18:49:44.028553  5458 net.cpp:106] Creating Layer conv5
I0204 18:49:44.028559  5458 net.cpp:454] conv5 <- conv4
I0204 18:49:44.028568  5458 net.cpp:411] conv5 -> conv5
I0204 18:49:44.028614  5458 net.cpp:150] Setting up conv5
I0204 18:49:44.028623  5458 net.cpp:157] Top shape: 100 16 13 13 (270400)
I0204 18:49:44.028628  5458 net.cpp:165] Memory required for data: 149437600
I0204 18:49:44.028640  5458 layer_factory.hpp:77] Creating layer relu5
I0204 18:49:44.028652  5458 net.cpp:106] Creating Layer relu5
I0204 18:49:44.028658  5458 net.cpp:454] relu5 <- conv5
I0204 18:49:44.028666  5458 net.cpp:397] relu5 -> conv5 (in-place)
I0204 18:49:44.028676  5458 net.cpp:150] Setting up relu5
I0204 18:49:44.028682  5458 net.cpp:157] Top shape: 100 16 13 13 (270400)
I0204 18:49:44.028687  5458 net.cpp:165] Memory required for data: 150519200
I0204 18:49:44.028693  5458 layer_factory.hpp:77] Creating layer pool5
I0204 18:49:44.028700  5458 net.cpp:106] Creating Layer pool5
I0204 18:49:44.028707  5458 net.cpp:454] pool5 <- conv5
I0204 18:49:44.028717  5458 net.cpp:411] pool5 -> pool5
I0204 18:49:44.028730  5458 net.cpp:150] Setting up pool5
I0204 18:49:44.028738  5458 net.cpp:157] Top shape: 100 16 6 6 (57600)
I0204 18:49:44.028743  5458 net.cpp:165] Memory required for data: 150749600
I0204 18:49:44.028749  5458 layer_factory.hpp:77] Creating layer fc6
I0204 18:49:44.028767  5458 net.cpp:106] Creating Layer fc6
I0204 18:49:44.028774  5458 net.cpp:454] fc6 <- pool5
I0204 18:49:44.028781  5458 net.cpp:411] fc6 -> fc6
I0204 18:49:44.030470  5458 net.cpp:150] Setting up fc6
I0204 18:49:44.030483  5458 net.cpp:157] Top shape: 100 256 (25600)
I0204 18:49:44.030489  5458 net.cpp:165] Memory required for data: 150852000
I0204 18:49:44.030498  5458 layer_factory.hpp:77] Creating layer relu6
I0204 18:49:44.030509  5458 net.cpp:106] Creating Layer relu6
I0204 18:49:44.030515  5458 net.cpp:454] relu6 <- fc6
I0204 18:49:44.030524  5458 net.cpp:397] relu6 -> fc6 (in-place)
I0204 18:49:44.030534  5458 net.cpp:150] Setting up relu6
I0204 18:49:44.030540  5458 net.cpp:157] Top shape: 100 256 (25600)
I0204 18:49:44.030545  5458 net.cpp:165] Memory required for data: 150954400
I0204 18:49:44.030551  5458 layer_factory.hpp:77] Creating layer drop6
I0204 18:49:44.030562  5458 net.cpp:106] Creating Layer drop6
I0204 18:49:44.030570  5458 net.cpp:454] drop6 <- fc6
I0204 18:49:44.030576  5458 net.cpp:397] drop6 -> fc6 (in-place)
I0204 18:49:44.030596  5458 net.cpp:150] Setting up drop6
I0204 18:49:44.030602  5458 net.cpp:157] Top shape: 100 256 (25600)
I0204 18:49:44.030607  5458 net.cpp:165] Memory required for data: 151056800
I0204 18:49:44.030613  5458 layer_factory.hpp:77] Creating layer fc7
I0204 18:49:44.030622  5458 net.cpp:106] Creating Layer fc7
I0204 18:49:44.030628  5458 net.cpp:454] fc7 <- fc6
I0204 18:49:44.030639  5458 net.cpp:411] fc7 -> fc7
I0204 18:49:44.031364  5458 net.cpp:150] Setting up fc7
I0204 18:49:44.031376  5458 net.cpp:157] Top shape: 100 256 (25600)
I0204 18:49:44.031383  5458 net.cpp:165] Memory required for data: 151159200
I0204 18:49:44.031393  5458 layer_factory.hpp:77] Creating layer relu7
I0204 18:49:44.031400  5458 net.cpp:106] Creating Layer relu7
I0204 18:49:44.031406  5458 net.cpp:454] relu7 <- fc7
I0204 18:49:44.031417  5458 net.cpp:397] relu7 -> fc7 (in-place)
I0204 18:49:44.031426  5458 net.cpp:150] Setting up relu7
I0204 18:49:44.031433  5458 net.cpp:157] Top shape: 100 256 (25600)
I0204 18:49:44.031440  5458 net.cpp:165] Memory required for data: 151261600
I0204 18:49:44.031445  5458 layer_factory.hpp:77] Creating layer drop7
I0204 18:49:44.031452  5458 net.cpp:106] Creating Layer drop7
I0204 18:49:44.031458  5458 net.cpp:454] drop7 <- fc7
I0204 18:49:44.031468  5458 net.cpp:397] drop7 -> fc7 (in-place)
I0204 18:49:44.031481  5458 net.cpp:150] Setting up drop7
I0204 18:49:44.031487  5458 net.cpp:157] Top shape: 100 256 (25600)
I0204 18:49:44.031492  5458 net.cpp:165] Memory required for data: 151364000
I0204 18:49:44.031498  5458 layer_factory.hpp:77] Creating layer fc8
I0204 18:49:44.031512  5458 net.cpp:106] Creating Layer fc8
I0204 18:49:44.031524  5458 net.cpp:454] fc8 <- fc7
I0204 18:49:44.031535  5458 net.cpp:411] fc8 -> fc8
I0204 18:49:44.031558  5458 net.cpp:150] Setting up fc8
I0204 18:49:44.031569  5458 net.cpp:157] Top shape: 100 2 (200)
I0204 18:49:44.031574  5458 net.cpp:165] Memory required for data: 151364800
I0204 18:49:44.031582  5458 layer_factory.hpp:77] Creating layer loss
I0204 18:49:44.031594  5458 net.cpp:106] Creating Layer loss
I0204 18:49:44.031599  5458 net.cpp:454] loss <- fc8
I0204 18:49:44.031605  5458 net.cpp:454] loss <- label
I0204 18:49:44.031615  5458 net.cpp:411] loss -> loss
I0204 18:49:44.031630  5458 layer_factory.hpp:77] Creating layer loss
…
I0204 18:49:44.035413  5458 net.cpp:322] The NetState phase (1) differed from the phase (0) specified by a rule in layer data
I0204 18:49:44.035748  5458 net.cpp:49] Initializing net from parameters: 
name: "CaffeNet"
state {
  phase: TEST
}
layer {
  name: "data"
  type: "Data"
  top: "data"
  top: "label"
  include {
    phase: TEST
  }
  transform_param {
    mirror: false
    crop_size: 227
    mean_file: "/home/pearlstl/proj_cv/master/lmdb/synth1_test_lum_db/mean_file.binaryproto"
  }
  data_param {
    source: "/home/pearlstl/proj_cv/master/lmdb/synth1_test_lum_db"
    batch_size: 100
    backend: LMDB
  }
}
layer {
  name: "conv1"
  type: "Convolution"
  bottom: "data"
  top: "conv1"
  param {
    lr_mult: 1
    decay_mult: 1
  }
  param {
    lr_mult: 2
    decay_mult: 0
  }
  convolution_param {
    num_output: 32
    kernel_size: 11
    stride: 4
    weight_filler {
      type: "xavier"
    }
    bias_filler {
      type: "constant"
      value: 0
    }
  }
}
layer {
  name: "relu1"
  type: "ReLU"
  bottom: "conv1"
  top: "conv1"
}
layer {
  name: "pool1"
  type: "Pooling"
  bottom: "conv1"
  top: "pool1"
  pooling_param {
    pool: MAX
    kernel_size: 3
    stride: 2
  }
}
layer {
  name: "norm1"
  type: "LRN"
  bottom: "pool1"
  top: "norm1"
  lrn_param {
    local_size: 5
    alpha: 0.0001
    beta: 0.75
  }
}
layer {
  name: "conv2"
  type: "Convolution"
  bottom: "norm1"
  top: "conv2"
  param {
    lr_mult: 1
    decay_mult: 1
  }
  param {
    lr_mult: 2
    decay_mult: 0
  }
  convolution_param {
    num_output: 32
    pad: 2
    kernel_size: 5
    group: 2
    weight_filler {
      type: "xavier"
    }
    bias_filler {
      type: "constant"
      value: 1
    }
  }
}
layer {
  name: "relu2"
  type: "ReLU"
  bottom: "conv2"
  top: "conv2"
}
layer {
  name: "pool2"
  type: "Pooling"
  bottom: "conv2"
  top: "pool2"
  pooling_param {
    pool: MAX
    kernel_size: 3
    stride: 2
  }
}
layer {
  name: "norm2"
  type: "LRN"
  bottom: "pool2"
  top: "norm2"
  lrn_param {
    local_size: 5
    alpha: 0.0001
    beta: 0.75
  }
}
layer {
  name: "conv3"
  type: "Convolution"
  bottom: "norm2"
  top: "conv3"
  param {
    lr_mult: 1
    decay_mult: 1
  }
  param {
    lr_mult: 2
    decay_mult: 0
  }
  convolution_param {
    num_output: 32
    pad: 1
    kernel_size: 3
    weight_filler {
      type: "xavier"
    }
    bias_filler {
      type: "constant"
      value: 0
    }
  }
}
layer {
  name: "relu3"
  type: "ReLU"
  bottom: "conv3"
  top: "conv3"
}
layer {
  name: "conv4"
  type: "Convolution"
  bottom: "conv3"
  top: "conv4"
  param {
    lr_mult: 1
    decay_mult: 1
  }
  param {
    lr_mult: 2
    decay_mult: 0
  }
  convolution_param {
    num_output: 32
    pad: 1
    kernel_size: 3
    group: 2
    weight_filler {
      type: "xavier"
    }
    bias_filler {
      type: "constant"
      value: 1
    }
  }
}
layer {
  name: "relu4"
  type: "ReLU"
  bottom: "conv4"
  top: "conv4"
}
layer {
  name: "conv5"
  type: "Convolution"
  bottom: "conv4"
  top: "conv5"
  param {
    lr_mult: 1
    decay_mult: 1
  }
  param {
    lr_mult: 2
    decay_mult: 0
  }
  convolution_param {
    num_output: 16
    pad: 1
    kernel_size: 3
    group: 2
    weight_filler {
      type: "xavier"
    }
    bias_filler {
      type: "constant"
      value: 1
    }
  }
}
layer {
  name: "relu5"
  type: "ReLU"
  bottom: "conv5"
  top: "conv5"
}
layer {
  name: "pool5"
  type: "Pooling"
  bottom: "conv5"
  top: "pool5"
  pooling_param {
    pool: MAX
    kernel_size: 3
    stride: 2
  }
}
layer {
  name: "fc6"
  type: "InnerProduct"
  bottom: "pool5"
  top: "fc6"
  param {
    lr_mult: 1
    decay_mult: 1
  }
  param {
    lr_mult: 2
    decay_mult: 0
  }
  inner_product_param {
    num_output: 256
    weight_filler {
      type: "xavier"
    }
    bias_filler {
      type: "constant"
      value: 1
    }
  }
}
layer {
  name: "relu6"
  type: "ReLU"
  bottom: "fc6"
  top: "fc6"
}
layer {
  name: "drop6"
  type: "Dropout"
  bottom: "fc6"
  top: "fc6"
  dropout_param {
    dropout_ratio: 0.5
  }
}
layer {
  name: "fc7"
  type: "InnerProduct"
  bottom: "fc6"
  top: "fc7"
  param {
    lr_mult: 1
    decay_mult: 1
  }
  param {
    lr_mult: 2
    decay_mult: 0
  }
  inner_product_param {
    num_output: 256
    weight_filler {
      type: "xavier"
    }
    bias_filler {
      type: "constant"
      value: 1
    }
  }
}
layer {
  name: "relu7"
  type: "ReLU"
  bottom: "fc7"
  top: "fc7"
}
layer {
  name: "drop7"
  type: "Dropout"
  bottom: "fc7"
  top: "fc7"
  dropout_param {
    dropout_ratio: 0.5
  }
}
layer {
  name: "fc8"
  type: "InnerProduct"
  bottom: "fc7"
  top: "fc8"
  param {
    lr_mult: 1
    decay_mult: 1
  }
  param {
    lr_mult: 2
    decay_mult: 0
  }
  inner_product_param {
    num_output: 2
    weight_filler {
      type: "xavier"
    }
    bias_filler {
      type: "constant"
      value: 0
    }
  }
}
layer {
  name: "accuracy"
  type: "Accuracy"
  bottom: "fc8"
  bottom: "label"
  top: "accuracy"
  include {
    phase: TEST
  }
}
layer {
  name: "loss"
  type: "SoftmaxWithLoss"
  bottom: "fc8"
  bottom: "label"
  top: "loss"
}
I0204 18:49:44.035934  5458 layer_factory.hpp:77] Creating layer data
I0204 18:49:44.036123  5458 net.cpp:106] Creating Layer data
I0204 18:49:44.036140  5458 net.cpp:411] data -> data
I0204 18:49:44.036155  5458 net.cpp:411] data -> label
I0204 18:49:44.036167  5458 data_transformer.cpp:25] Loading mean file from: /home/pearlstl/proj_cv/master/lmdb/synth1_test_lum_db/mean_file.binaryproto
I0204 18:49:44.036414  5463 db_lmdb.cpp:38] Opened lmdb /home/pearlstl/proj_cv/master/lmdb/synth1_test_lum_db
I0204 18:49:44.037166  5458 data_layer.cpp:41] output data size: 100,1,227,227
I0204 18:49:44.065038  5458 net.cpp:150] Setting up data
I0204 18:49:44.065083  5458 net.cpp:157] Top shape: 100 1 227 227 (5152900)
I0204 18:49:44.065110  5458 net.cpp:157] Top shape: 100 (100)
I0204 18:49:44.065116  5458 net.cpp:165] Memory required for data: 20612000
I0204 18:49:44.065132  5458 layer_factory.hpp:77] Creating layer label_data_1_split
I0204 18:49:44.065153  5458 net.cpp:106] Creating Layer label_data_1_split
I0204 18:49:44.065161  5458 net.cpp:454] label_data_1_split <- label
I0204 18:49:44.065174  5458 net.cpp:411] label_data_1_split -> label_data_1_split_0
I0204 18:49:44.065193  5458 net.cpp:411] label_data_1_split -> label_data_1_split_1
I0204 18:49:44.065207  5458 net.cpp:150] Setting up label_data_1_split
I0204 18:49:44.065218  5458 net.cpp:157] Top shape: 100 (100)
I0204 18:49:44.065224  5458 net.cpp:157] Top shape: 100 (100)
I0204 18:49:44.065230  5458 net.cpp:165] Memory required for data: 20612800
I0204 18:49:44.065237  5458 layer_factory.hpp:77] Creating layer conv1
I0204 18:49:44.065254  5458 net.cpp:106] Creating Layer conv1
I0204 18:49:44.065261  5458 net.cpp:454] conv1 <- data
I0204 18:49:44.065273  5458 net.cpp:411] conv1 -> conv1
I0204 18:49:44.065352  5458 net.cpp:150] Setting up conv1
I0204 18:49:44.065362  5458 net.cpp:157] Top shape: 100 32 55 55 (9680000)
I0204 18:49:44.065371  5458 net.cpp:165] Memory required for data: 59332800
I0204 18:49:44.065385  5458 layer_factory.hpp:77] Creating layer relu1
I0204 18:49:44.065397  5458 net.cpp:106] Creating Layer relu1
I0204 18:49:44.065402  5458 net.cpp:454] relu1 <- conv1
I0204 18:49:44.065412  5458 net.cpp:397] relu1 -> conv1 (in-place)
I0204 18:49:44.065421  5458 net.cpp:150] Setting up relu1
I0204 18:49:44.065431  5458 net.cpp:157] Top shape: 100 32 55 55 (9680000)
I0204 18:49:44.065438  5458 net.cpp:165] Memory required for data: 98052800
I0204 18:49:44.065444  5458 layer_factory.hpp:77] Creating layer pool1
I0204 18:49:44.065455  5458 net.cpp:106] Creating Layer pool1
I0204 18:49:44.065461  5458 net.cpp:454] pool1 <- conv1
I0204 18:49:44.065470  5458 net.cpp:411] pool1 -> pool1
I0204 18:49:44.065486  5458 net.cpp:150] Setting up pool1
I0204 18:49:44.065493  5458 net.cpp:157] Top shape: 100 32 27 27 (2332800)
I0204 18:49:44.065500  5458 net.cpp:165] Memory required for data: 107384000
I0204 18:49:44.065505  5458 layer_factory.hpp:77] Creating layer norm1
I0204 18:49:44.065516  5458 net.cpp:106] Creating Layer norm1
I0204 18:49:44.065522  5458 net.cpp:454] norm1 <- pool1
I0204 18:49:44.065533  5458 net.cpp:411] norm1 -> norm1
I0204 18:49:44.065546  5458 net.cpp:150] Setting up norm1
I0204 18:49:44.065553  5458 net.cpp:157] Top shape: 100 32 27 27 (2332800)
I0204 18:49:44.065558  5458 net.cpp:165] Memory required for data: 116715200
I0204 18:49:44.065564  5458 layer_factory.hpp:77] Creating layer conv2
I0204 18:49:44.065577  5458 net.cpp:106] Creating Layer conv2
I0204 18:49:44.065584  5458 net.cpp:454] conv2 <- norm1
I0204 18:49:44.065594  5458 net.cpp:411] conv2 -> conv2
I0204 18:49:44.065726  5458 net.cpp:150] Setting up conv2
I0204 18:49:44.065737  5458 net.cpp:157] Top shape: 100 32 27 27 (2332800)
I0204 18:49:44.065742  5458 net.cpp:165] Memory required for data: 126046400
I0204 18:49:44.065753  5458 layer_factory.hpp:77] Creating layer relu2
I0204 18:49:44.065762  5458 net.cpp:106] Creating Layer relu2
I0204 18:49:44.065768  5458 net.cpp:454] relu2 <- conv2
I0204 18:49:44.065788  5458 net.cpp:397] relu2 -> conv2 (in-place)
I0204 18:49:44.065811  5458 net.cpp:150] Setting up relu2
I0204 18:49:44.065819  5458 net.cpp:157] Top shape: 100 32 27 27 (2332800)
I0204 18:49:44.065824  5458 net.cpp:165] Memory required for data: 135377600
I0204 18:49:44.065830  5458 layer_factory.hpp:77] Creating layer pool2
I0204 18:49:44.065840  5458 net.cpp:106] Creating Layer pool2
I0204 18:49:44.065846  5458 net.cpp:454] pool2 <- conv2
I0204 18:49:44.065855  5458 net.cpp:411] pool2 -> pool2
I0204 18:49:44.065866  5458 net.cpp:150] Setting up pool2
I0204 18:49:44.065877  5458 net.cpp:157] Top shape: 100 32 13 13 (540800)
I0204 18:49:44.065882  5458 net.cpp:165] Memory required for data: 137540800
I0204 18:49:44.065888  5458 layer_factory.hpp:77] Creating layer norm2
I0204 18:49:44.065897  5458 net.cpp:106] Creating Layer norm2
I0204 18:49:44.065903  5458 net.cpp:454] norm2 <- pool2
I0204 18:49:44.065912  5458 net.cpp:411] norm2 -> norm2
I0204 18:49:44.065922  5458 net.cpp:150] Setting up norm2
I0204 18:49:44.065929  5458 net.cpp:157] Top shape: 100 32 13 13 (540800)
I0204 18:49:44.065934  5458 net.cpp:165] Memory required for data: 139704000
I0204 18:49:44.065940  5458 layer_factory.hpp:77] Creating layer conv3
I0204 18:49:44.065953  5458 net.cpp:106] Creating Layer conv3
I0204 18:49:44.065959  5458 net.cpp:454] conv3 <- norm2
I0204 18:49:44.065970  5458 net.cpp:411] conv3 -> conv3
I0204 18:49:44.066071  5458 net.cpp:150] Setting up conv3
I0204 18:49:44.066081  5458 net.cpp:157] Top shape: 100 32 13 13 (540800)
I0204 18:49:44.066085  5458 net.cpp:165] Memory required for data: 141867200
I0204 18:49:44.066102  5458 layer_factory.hpp:77] Creating layer relu3
I0204 18:49:44.066112  5458 net.cpp:106] Creating Layer relu3
I0204 18:49:44.066120  5458 net.cpp:454] relu3 <- conv3
I0204 18:49:44.066129  5458 net.cpp:397] relu3 -> conv3 (in-place)
I0204 18:49:44.066140  5458 net.cpp:150] Setting up relu3
I0204 18:49:44.066148  5458 net.cpp:157] Top shape: 100 32 13 13 (540800)
I0204 18:49:44.066153  5458 net.cpp:165] Memory required for data: 144030400
I0204 18:49:44.066159  5458 layer_factory.hpp:77] Creating layer conv4
I0204 18:49:44.066169  5458 net.cpp:106] Creating Layer conv4
I0204 18:49:44.066177  5458 net.cpp:454] conv4 <- conv3
I0204 18:49:44.066187  5458 net.cpp:411] conv4 -> conv4
I0204 18:49:44.066247  5458 net.cpp:150] Setting up conv4
I0204 18:49:44.066256  5458 net.cpp:157] Top shape: 100 32 13 13 (540800)
I0204 18:49:44.066262  5458 net.cpp:165] Memory required for data: 146193600
I0204 18:49:44.066272  5458 layer_factory.hpp:77] Creating layer relu4
I0204 18:49:44.066280  5458 net.cpp:106] Creating Layer relu4
I0204 18:49:44.066287  5458 net.cpp:454] relu4 <- conv4
I0204 18:49:44.066295  5458 net.cpp:397] relu4 -> conv4 (in-place)
I0204 18:49:44.066304  5458 net.cpp:150] Setting up relu4
I0204 18:49:44.066310  5458 net.cpp:157] Top shape: 100 32 13 13 (540800)
I0204 18:49:44.066316  5458 net.cpp:165] Memory required for data: 148356800
I0204 18:49:44.066323  5458 layer_factory.hpp:77] Creating layer conv5
I0204 18:49:44.066336  5458 net.cpp:106] Creating Layer conv5
I0204 18:49:44.066341  5458 net.cpp:454] conv5 <- conv4
I0204 18:49:44.066350  5458 net.cpp:411] conv5 -> conv5
I0204 18:49:44.066391  5458 net.cpp:150] Setting up conv5
I0204 18:49:44.066400  5458 net.cpp:157] Top shape: 100 16 13 13 (270400)
I0204 18:49:44.066406  5458 net.cpp:165] Memory required for data: 149438400
I0204 18:49:44.066416  5458 layer_factory.hpp:77] Creating layer relu5
I0204 18:49:44.066427  5458 net.cpp:106] Creating Layer relu5
I0204 18:49:44.066433  5458 net.cpp:454] relu5 <- conv5
I0204 18:49:44.066442  5458 net.cpp:397] relu5 -> conv5 (in-place)
I0204 18:49:44.066452  5458 net.cpp:150] Setting up relu5
I0204 18:49:44.066458  5458 net.cpp:157] Top shape: 100 16 13 13 (270400)
I0204 18:49:44.066463  5458 net.cpp:165] Memory required for data: 150520000
I0204 18:49:44.066471  5458 layer_factory.hpp:77] Creating layer pool5
I0204 18:49:44.066483  5458 net.cpp:106] Creating Layer pool5
I0204 18:49:44.066493  5458 net.cpp:454] pool5 <- conv5
I0204 18:49:44.066512  5458 net.cpp:411] pool5 -> pool5
I0204 18:49:44.066524  5458 net.cpp:150] Setting up pool5
I0204 18:49:44.066532  5458 net.cpp:157] Top shape: 100 16 6 6 (57600)
I0204 18:49:44.066537  5458 net.cpp:165] Memory required for data: 150750400
I0204 18:49:44.066543  5458 layer_factory.hpp:77] Creating layer fc6
I0204 18:49:44.066555  5458 net.cpp:106] Creating Layer fc6
I0204 18:49:44.066561  5458 net.cpp:454] fc6 <- pool5
I0204 18:49:44.066573  5458 net.cpp:411] fc6 -> fc6
I0204 18:49:44.068197  5458 net.cpp:150] Setting up fc6
I0204 18:49:44.068209  5458 net.cpp:157] Top shape: 100 256 (25600)
I0204 18:49:44.068214  5458 net.cpp:165] Memory required for data: 150852800
I0204 18:49:44.068223  5458 layer_factory.hpp:77] Creating layer relu6
I0204 18:49:44.068233  5458 net.cpp:106] Creating Layer relu6
I0204 18:49:44.068239  5458 net.cpp:454] relu6 <- fc6
I0204 18:49:44.068248  5458 net.cpp:397] relu6 -> fc6 (in-place)
I0204 18:49:44.068258  5458 net.cpp:150] Setting up relu6
I0204 18:49:44.068265  5458 net.cpp:157] Top shape: 100 256 (25600)
I0204 18:49:44.068271  5458 net.cpp:165] Memory required for data: 150955200
I0204 18:49:44.068276  5458 layer_factory.hpp:77] Creating layer drop6
I0204 18:49:44.068287  5458 net.cpp:106] Creating Layer drop6
I0204 18:49:44.068294  5458 net.cpp:454] drop6 <- fc6
I0204 18:49:44.068305  5458 net.cpp:397] drop6 -> fc6 (in-place)
I0204 18:49:44.068320  5458 net.cpp:150] Setting up drop6
I0204 18:49:44.068326  5458 net.cpp:157] Top shape: 100 256 (25600)
I0204 18:49:44.068331  5458 net.cpp:165] Memory required for data: 151057600
I0204 18:49:44.068337  5458 layer_factory.hpp:77] Creating layer fc7
I0204 18:49:44.068347  5458 net.cpp:106] Creating Layer fc7
I0204 18:49:44.068353  5458 net.cpp:454] fc7 <- fc6
I0204 18:49:44.068362  5458 net.cpp:411] fc7 -> fc7
I0204 18:49:44.069078  5458 net.cpp:150] Setting up fc7
I0204 18:49:44.069095  5458 net.cpp:157] Top shape: 100 256 (25600)
I0204 18:49:44.069103  5458 net.cpp:165] Memory required for data: 151160000
I0204 18:49:44.069114  5458 layer_factory.hpp:77] Creating layer relu7
I0204 18:49:44.069123  5458 net.cpp:106] Creating Layer relu7
I0204 18:49:44.069129  5458 net.cpp:454] relu7 <- fc7
I0204 18:49:44.069139  5458 net.cpp:397] relu7 -> fc7 (in-place)
I0204 18:49:44.069149  5458 net.cpp:150] Setting up relu7
I0204 18:49:44.069156  5458 net.cpp:157] Top shape: 100 256 (25600)
I0204 18:49:44.069161  5458 net.cpp:165] Memory required for data: 151262400
I0204 18:49:44.069167  5458 layer_factory.hpp:77] Creating layer drop7
I0204 18:49:44.069175  5458 net.cpp:106] Creating Layer drop7
I0204 18:49:44.069181  5458 net.cpp:454] drop7 <- fc7
I0204 18:49:44.069188  5458 net.cpp:397] drop7 -> fc7 (in-place)
I0204 18:49:44.069201  5458 net.cpp:150] Setting up drop7
I0204 18:49:44.069208  5458 net.cpp:157] Top shape: 100 256 (25600)
I0204 18:49:44.069213  5458 net.cpp:165] Memory required for data: 151364800
I0204 18:49:44.069219  5458 layer_factory.hpp:77] Creating layer fc8
I0204 18:49:44.069228  5458 net.cpp:106] Creating Layer fc8
I0204 18:49:44.069234  5458 net.cpp:454] fc8 <- fc7
I0204 18:49:44.069242  5458 net.cpp:411] fc8 -> fc8
I0204 18:49:44.069283  5458 net.cpp:150] Setting up fc8
I0204 18:49:44.069291  5458 net.cpp:157] Top shape: 100 2 (200)
I0204 18:49:44.069298  5458 net.cpp:165] Memory required for data: 151365600
I0204 18:49:44.069305  5458 layer_factory.hpp:77] Creating layer fc8_fc8_0_split
I0204 18:49:44.069316  5458 net.cpp:106] Creating Layer fc8_fc8_0_split
I0204 18:49:44.069322  5458 net.cpp:454] fc8_fc8_0_split <- fc8
I0204 18:49:44.069330  5458 net.cpp:411] fc8_fc8_0_split -> fc8_fc8_0_split_0
I0204 18:49:44.069341  5458 net.cpp:411] fc8_fc8_0_split -> fc8_fc8_0_split_1
I0204 18:49:44.069351  5458 net.cpp:150] Setting up fc8_fc8_0_split
I0204 18:49:44.069358  5458 net.cpp:157] Top shape: 100 2 (200)
I0204 18:49:44.069365  5458 net.cpp:157] Top shape: 100 2 (200)
I0204 18:49:44.069370  5458 net.cpp:165] Memory required for data: 151367200
I0204 18:49:44.069375  5458 layer_factory.hpp:77] Creating layer accuracy
I0204 18:49:44.069402  5458 net.cpp:106] Creating Layer accuracy
I0204 18:49:44.069411  5458 net.cpp:454] accuracy <- fc8_fc8_0_split_0
I0204 18:49:44.069419  5458 net.cpp:454] accuracy <- label_data_1_split_0
I0204 18:49:44.069428  5458 net.cpp:411] accuracy -> accuracy
…
