…
I0204 16:28:13.687119  3312 net.cpp:322] The NetState phase (0) differed from the phase (1) specified by a rule in layer accuracy
I0204 16:28:13.687362  3312 net.cpp:49] Initializing net from parameters: 
name: "CaffeNet"
state {
  phase: TRAIN
}
layer {
  name: "data"
  type: "Data"
  top: "data"
  top: "label"
  include {
    phase: TRAIN
  }
  transform_param {
    mirror: true
    crop_size: 227
    mean_file: "/home/pearlstl/proj_cv/master/lmdb/synth1_train_lum_db/mean_file.binaryproto"
  }
  data_param {
    source: "/home/pearlstl/proj_cv/master/lmdb/synth1_train_lum_db"
    batch_size: 100
    backend: LMDB
  }
}
layer {
  name: "conv1"
  type: "Convolution"
  bottom: "data"
  top: "conv1"
  param {
    lr_mult: 1
    decay_mult: 1
  }
  param {
    lr_mult: 2
    decay_mult: 0
  }
  convolution_param {
    num_output: 32
    kernel_size: 11
    stride: 4
    weight_filler {
      type: "xavier"
    }
    bias_filler {
      type: "constant"
      value: 0
    }
  }
}
layer {
  name: "relu1"
  type: "ReLU"
  bottom: "conv1"
  top: "conv1"
}
layer {
  name: "pool1"
  type: "Pooling"
  bottom: "conv1"
  top: "pool1"
  pooling_param {
    pool: MAX
    kernel_size: 3
    stride: 2
  }
}
layer {
  name: "norm1"
  type: "LRN"
  bottom: "pool1"
  top: "norm1"
  lrn_param {
    local_size: 5
    alpha: 0.0001
    beta: 0.75
  }
}
layer {
  name: "conv2"
  type: "Convolution"
  bottom: "norm1"
  top: "conv2"
  param {
    lr_mult: 1
    decay_mult: 1
  }
  param {
    lr_mult: 2
    decay_mult: 0
  }
  convolution_param {
    num_output: 32
    pad: 2
    kernel_size: 5
    group: 2
    weight_filler {
      type: "xavier"
    }
    bias_filler {
      type: "constant"
      value: 1
    }
  }
}
layer {
  name: "relu2"
  type: "ReLU"
  bottom: "conv2"
  top: "conv2"
}
layer {
  name: "pool2"
  type: "Pooling"
  bottom: "conv2"
  top: "pool2"
  pooling_param {
    pool: MAX
    kernel_size: 3
    stride: 2
  }
}
layer {
  name: "norm2"
  type: "LRN"
  bottom: "pool2"
  top: "norm2"
  lrn_param {
    local_size: 5
    alpha: 0.0001
    beta: 0.75
  }
}
layer {
  name: "conv3"
  type: "Convolution"
  bottom: "norm2"
  top: "conv3"
  param {
    lr_mult: 1
    decay_mult: 1
  }
  param {
    lr_mult: 2
    decay_mult: 0
  }
  convolution_param {
    num_output: 32
    pad: 1
    kernel_size: 3
    weight_filler {
      type: "xavier"
    }
    bias_filler {
      type: "constant"
      value: 0
    }
  }
}
layer {
  name: "relu3"
  type: "ReLU"
  bottom: "conv3"
  top: "conv3"
}
layer {
  name: "conv4"
  type: "Convolution"
  bottom: "conv3"
  top: "conv4"
  param {
    lr_mult: 1
    decay_mult: 1
  }
  param {
    lr_mult: 2
    decay_mult: 0
  }
  convolution_param {
    num_output: 32
    pad: 1
    kernel_size: 3
    group: 2
    weight_filler {
      type: "xavier"
    }
    bias_filler {
      type: "constant"
      value: 1
    }
  }
}
layer {
  name: "relu4"
  type: "ReLU"
  bottom: "conv4"
  top: "conv4"
}
layer {
  name: "conv5"
  type: "Convolution"
  bottom: "conv4"
  top: "conv5"
  param {
    lr_mult: 1
    decay_mult: 1
  }
  param {
    lr_mult: 2
    decay_mult: 0
  }
  convolution_param {
    num_output: 16
    pad: 1
    kernel_size: 3
    group: 2
    weight_filler {
      type: "xavier"
    }
    bias_filler {
      type: "constant"
      value: 1
    }
  }
}
layer {
  name: "relu5"
  type: "ReLU"
  bottom: "conv5"
  top: "conv5"
}
layer {
  name: "pool5"
  type: "Pooling"
  bottom: "conv5"
  top: "pool5"
  pooling_param {
    pool: MAX
    kernel_size: 3
    stride: 2
  }
}
layer {
  name: "fc6"
  type: "InnerProduct"
  bottom: "pool5"
  top: "fc6"
  param {
    lr_mult: 1
    decay_mult: 1
  }
  param {
    lr_mult: 2
    decay_mult: 0
  }
  inner_product_param {
    num_output: 256
    weight_filler {
      type: "xavier"
    }
    bias_filler {
      type: "constant"
      value: 1
    }
  }
}
layer {
  name: "relu6"
  type: "ReLU"
  bottom: "fc6"
  top: "fc6"
}
layer {
  name: "drop6"
  type: "Dropout"
  bottom: "fc6"
  top: "fc6"
  dropout_param {
    dropout_ratio: 0.5
  }
}
layer {
  name: "fc7"
  type: "InnerProduct"
  bottom: "fc6"
  top: "fc7"
  param {
    lr_mult: 1
    decay_mult: 1
  }
  param {
    lr_mult: 2
    decay_mult: 0
  }
  inner_product_param {
    num_output: 256
    weight_filler {
      type: "xavier"
    }
    bias_filler {
      type: "constant"
      value: 1
    }
  }
}
layer {
  name: "relu7"
  type: "ReLU"
  bottom: "fc7"
  top: "fc7"
}
layer {
  name: "drop7"
  type: "Dropout"
  bottom: "fc7"
  top: "fc7"
  dropout_param {
    dropout_ratio: 0.5
  }
}
layer {
  name: "fc8"
  type: "InnerProduct"
  bottom: "fc7"
  top: "fc8"
  param {
    lr_mult: 1
    decay_mult: 1
  }
  param {
    lr_mult: 2
    decay_mult: 0
  }
  inner_product_param {
    num_output: 2
    weight_filler {
      type: "xavier"
    }
    bias_filler {
      type: "constant"
      value: 0
    }
  }
}
layer {
  name: "loss"
  type: "SoftmaxWithLoss"
  bottom: "fc8"
  bottom: "label"
  top: "loss"
}
I0204 16:28:13.687511  3312 layer_factory.hpp:77] Creating layer data
I0204 16:28:13.687716  3312 net.cpp:106] Creating Layer data
I0204 16:28:13.687734  3312 net.cpp:411] data -> data
I0204 16:28:13.687777  3312 net.cpp:411] data -> label
I0204 16:28:13.687798  3312 data_transformer.cpp:25] Loading mean file from: /home/pearlstl/proj_cv/master/lmdb/synth1_train_lum_db/mean_file.binaryproto
I0204 16:28:13.687834  3317 db_lmdb.cpp:38] Opened lmdb /home/pearlstl/proj_cv/master/lmdb/synth1_train_lum_db
I0204 16:28:13.688868  3312 data_layer.cpp:41] output data size: 100,1,227,227
I0204 16:28:13.727141  3312 net.cpp:150] Setting up data
I0204 16:28:13.727304  3312 net.cpp:157] Top shape: 100 1 227 227 (5152900)
I0204 16:28:13.727330  3312 net.cpp:157] Top shape: 100 (100)
I0204 16:28:13.727342  3312 net.cpp:165] Memory required for data: 20612000
I0204 16:28:13.727371  3312 layer_factory.hpp:77] Creating layer conv1
I0204 16:28:13.727421  3312 net.cpp:106] Creating Layer conv1
I0204 16:28:13.727438  3312 net.cpp:454] conv1 <- data
I0204 16:28:13.727471  3312 net.cpp:411] conv1 -> conv1
I0204 16:28:13.727685  3312 net.cpp:150] Setting up conv1
I0204 16:28:13.727708  3312 net.cpp:157] Top shape: 100 32 55 55 (9680000)
I0204 16:28:13.727718  3312 net.cpp:165] Memory required for data: 59332000
I0204 16:28:13.727754  3312 layer_factory.hpp:77] Creating layer relu1
I0204 16:28:13.727778  3312 net.cpp:106] Creating Layer relu1
I0204 16:28:13.727790  3312 net.cpp:454] relu1 <- conv1
I0204 16:28:13.727807  3312 net.cpp:397] relu1 -> conv1 (in-place)
I0204 16:28:13.727831  3312 net.cpp:150] Setting up relu1
I0204 16:28:13.727851  3312 net.cpp:157] Top shape: 100 32 55 55 (9680000)
I0204 16:28:13.727862  3312 net.cpp:165] Memory required for data: 98052000
I0204 16:28:13.727874  3312 layer_factory.hpp:77] Creating layer pool1
I0204 16:28:13.727892  3312 net.cpp:106] Creating Layer pool1
I0204 16:28:13.727903  3312 net.cpp:454] pool1 <- conv1
I0204 16:28:13.727919  3312 net.cpp:411] pool1 -> pool1
I0204 16:28:13.727964  3312 net.cpp:150] Setting up pool1
I0204 16:28:13.727988  3312 net.cpp:157] Top shape: 100 32 27 27 (2332800)
I0204 16:28:13.727998  3312 net.cpp:165] Memory required for data: 107383200
I0204 16:28:13.728010  3312 layer_factory.hpp:77] Creating layer norm1
I0204 16:28:13.728077  3312 net.cpp:106] Creating Layer norm1
I0204 16:28:13.728091  3312 net.cpp:454] norm1 <- pool1
I0204 16:28:13.728107  3312 net.cpp:411] norm1 -> norm1
I0204 16:28:13.728140  3312 net.cpp:150] Setting up norm1
I0204 16:28:13.728157  3312 net.cpp:157] Top shape: 100 32 27 27 (2332800)
I0204 16:28:13.728168  3312 net.cpp:165] Memory required for data: 116714400
I0204 16:28:13.728183  3312 layer_factory.hpp:77] Creating layer conv2
I0204 16:28:13.728205  3312 net.cpp:106] Creating Layer conv2
I0204 16:28:13.728216  3312 net.cpp:454] conv2 <- norm1
I0204 16:28:13.728234  3312 net.cpp:411] conv2 -> conv2
I0204 16:28:13.728507  3312 net.cpp:150] Setting up conv2
I0204 16:28:13.728525  3312 net.cpp:157] Top shape: 100 32 27 27 (2332800)
I0204 16:28:13.728534  3312 net.cpp:165] Memory required for data: 126045600
I0204 16:28:13.728555  3312 layer_factory.hpp:77] Creating layer relu2
I0204 16:28:13.728572  3312 net.cpp:106] Creating Layer relu2
I0204 16:28:13.728585  3312 net.cpp:454] relu2 <- conv2
I0204 16:28:13.728617  3312 net.cpp:397] relu2 -> conv2 (in-place)
I0204 16:28:13.728639  3312 net.cpp:150] Setting up relu2
I0204 16:28:13.728653  3312 net.cpp:157] Top shape: 100 32 27 27 (2332800)
I0204 16:28:13.728663  3312 net.cpp:165] Memory required for data: 135376800
I0204 16:28:13.728675  3312 layer_factory.hpp:77] Creating layer pool2
I0204 16:28:13.728691  3312 net.cpp:106] Creating Layer pool2
I0204 16:28:13.728701  3312 net.cpp:454] pool2 <- conv2
I0204 16:28:13.728723  3312 net.cpp:411] pool2 -> pool2
I0204 16:28:13.728745  3312 net.cpp:150] Setting up pool2
I0204 16:28:13.728760  3312 net.cpp:157] Top shape: 100 32 13 13 (540800)
I0204 16:28:13.728770  3312 net.cpp:165] Memory required for data: 137540000
I0204 16:28:13.728780  3312 layer_factory.hpp:77] Creating layer norm2
I0204 16:28:13.728797  3312 net.cpp:106] Creating Layer norm2
I0204 16:28:13.728812  3312 net.cpp:454] norm2 <- pool2
I0204 16:28:13.728832  3312 net.cpp:411] norm2 -> norm2
I0204 16:28:13.728852  3312 net.cpp:150] Setting up norm2
I0204 16:28:13.728866  3312 net.cpp:157] Top shape: 100 32 13 13 (540800)
I0204 16:28:13.728875  3312 net.cpp:165] Memory required for data: 139703200
I0204 16:28:13.728885  3312 layer_factory.hpp:77] Creating layer conv3
I0204 16:28:13.728905  3312 net.cpp:106] Creating Layer conv3
I0204 16:28:13.728921  3312 net.cpp:454] conv3 <- norm2
I0204 16:28:13.728940  3312 net.cpp:411] conv3 -> conv3
I0204 16:28:13.729183  3312 net.cpp:150] Setting up conv3
I0204 16:28:13.729204  3312 net.cpp:157] Top shape: 100 32 13 13 (540800)
I0204 16:28:13.729214  3312 net.cpp:165] Memory required for data: 141866400
I0204 16:28:13.729234  3312 layer_factory.hpp:77] Creating layer relu3
I0204 16:28:13.729264  3312 net.cpp:106] Creating Layer relu3
I0204 16:28:13.729276  3312 net.cpp:454] relu3 <- conv3
I0204 16:28:13.729291  3312 net.cpp:397] relu3 -> conv3 (in-place)
I0204 16:28:13.729310  3312 net.cpp:150] Setting up relu3
I0204 16:28:13.729323  3312 net.cpp:157] Top shape: 100 32 13 13 (540800)
I0204 16:28:13.729333  3312 net.cpp:165] Memory required for data: 144029600
I0204 16:28:13.729343  3312 layer_factory.hpp:77] Creating layer conv4
I0204 16:28:13.729370  3312 net.cpp:106] Creating Layer conv4
I0204 16:28:13.729383  3312 net.cpp:454] conv4 <- conv3
I0204 16:28:13.729405  3312 net.cpp:411] conv4 -> conv4
I0204 16:28:13.729542  3312 net.cpp:150] Setting up conv4
I0204 16:28:13.729558  3312 net.cpp:157] Top shape: 100 32 13 13 (540800)
I0204 16:28:13.729573  3312 net.cpp:165] Memory required for data: 146192800
I0204 16:28:13.729591  3312 layer_factory.hpp:77] Creating layer relu4
I0204 16:28:13.729607  3312 net.cpp:106] Creating Layer relu4
I0204 16:28:13.729619  3312 net.cpp:454] relu4 <- conv4
I0204 16:28:13.729635  3312 net.cpp:397] relu4 -> conv4 (in-place)
I0204 16:28:13.729651  3312 net.cpp:150] Setting up relu4
I0204 16:28:13.729666  3312 net.cpp:157] Top shape: 100 32 13 13 (540800)
I0204 16:28:13.729681  3312 net.cpp:165] Memory required for data: 148356000
I0204 16:28:13.729703  3312 layer_factory.hpp:77] Creating layer conv5
I0204 16:28:13.729740  3312 net.cpp:106] Creating Layer conv5
I0204 16:28:13.729753  3312 net.cpp:454] conv5 <- conv4
I0204 16:28:13.729769  3312 net.cpp:411] conv5 -> conv5
I0204 16:28:13.729861  3312 net.cpp:150] Setting up conv5
I0204 16:28:13.729877  3312 net.cpp:157] Top shape: 100 16 13 13 (270400)
I0204 16:28:13.729892  3312 net.cpp:165] Memory required for data: 149437600
I0204 16:28:13.729913  3312 layer_factory.hpp:77] Creating layer relu5
I0204 16:28:13.729928  3312 net.cpp:106] Creating Layer relu5
I0204 16:28:13.729939  3312 net.cpp:454] relu5 <- conv5
I0204 16:28:13.729957  3312 net.cpp:397] relu5 -> conv5 (in-place)
I0204 16:28:13.729974  3312 net.cpp:150] Setting up relu5
I0204 16:28:13.729991  3312 net.cpp:157] Top shape: 100 16 13 13 (270400)
I0204 16:28:13.730002  3312 net.cpp:165] Memory required for data: 150519200
I0204 16:28:13.730013  3312 layer_factory.hpp:77] Creating layer pool5
I0204 16:28:13.730029  3312 net.cpp:106] Creating Layer pool5
I0204 16:28:13.730041  3312 net.cpp:454] pool5 <- conv5
I0204 16:28:13.730069  3312 net.cpp:411] pool5 -> pool5
I0204 16:28:13.730093  3312 net.cpp:150] Setting up pool5
I0204 16:28:13.730113  3312 net.cpp:157] Top shape: 100 16 6 6 (57600)
I0204 16:28:13.730123  3312 net.cpp:165] Memory required for data: 150749600
I0204 16:28:13.730134  3312 layer_factory.hpp:77] Creating layer fc6
I0204 16:28:13.730164  3312 net.cpp:106] Creating Layer fc6
I0204 16:28:13.730177  3312 net.cpp:454] fc6 <- pool5
I0204 16:28:13.730202  3312 net.cpp:411] fc6 -> fc6
I0204 16:28:13.735285  3312 net.cpp:150] Setting up fc6
I0204 16:28:13.735328  3312 net.cpp:157] Top shape: 100 256 (25600)
I0204 16:28:13.735340  3312 net.cpp:165] Memory required for data: 150852000
I0204 16:28:13.735363  3312 layer_factory.hpp:77] Creating layer relu6
I0204 16:28:13.735389  3312 net.cpp:106] Creating Layer relu6
I0204 16:28:13.735404  3312 net.cpp:454] relu6 <- fc6
I0204 16:28:13.735425  3312 net.cpp:397] relu6 -> fc6 (in-place)
I0204 16:28:13.735450  3312 net.cpp:150] Setting up relu6
I0204 16:28:13.735468  3312 net.cpp:157] Top shape: 100 256 (25600)
I0204 16:28:13.735479  3312 net.cpp:165] Memory required for data: 150954400
I0204 16:28:13.735491  3312 layer_factory.hpp:77] Creating layer drop6
I0204 16:28:13.735509  3312 net.cpp:106] Creating Layer drop6
I0204 16:28:13.735520  3312 net.cpp:454] drop6 <- fc6
I0204 16:28:13.735539  3312 net.cpp:397] drop6 -> fc6 (in-place)
I0204 16:28:13.735574  3312 net.cpp:150] Setting up drop6
I0204 16:28:13.735589  3312 net.cpp:157] Top shape: 100 256 (25600)
I0204 16:28:13.735599  3312 net.cpp:165] Memory required for data: 151056800
I0204 16:28:13.735610  3312 layer_factory.hpp:77] Creating layer fc7
I0204 16:28:13.735638  3312 net.cpp:106] Creating Layer fc7
I0204 16:28:13.735651  3312 net.cpp:454] fc7 <- fc6
I0204 16:28:13.735671  3312 net.cpp:411] fc7 -> fc7
I0204 16:28:13.738548  3312 net.cpp:150] Setting up fc7
I0204 16:28:13.738618  3312 net.cpp:157] Top shape: 100 256 (25600)
I0204 16:28:13.738628  3312 net.cpp:165] Memory required for data: 151159200
I0204 16:28:13.738659  3312 layer_factory.hpp:77] Creating layer relu7
I0204 16:28:13.738692  3312 net.cpp:106] Creating Layer relu7
I0204 16:28:13.738708  3312 net.cpp:454] relu7 <- fc7
I0204 16:28:13.738728  3312 net.cpp:397] relu7 -> fc7 (in-place)
I0204 16:28:13.738756  3312 net.cpp:150] Setting up relu7
I0204 16:28:13.738770  3312 net.cpp:157] Top shape: 100 256 (25600)
I0204 16:28:13.738780  3312 net.cpp:165] Memory required for data: 151261600
I0204 16:28:13.738792  3312 layer_factory.hpp:77] Creating layer drop7
I0204 16:28:13.738823  3312 net.cpp:106] Creating Layer drop7
I0204 16:28:13.738836  3312 net.cpp:454] drop7 <- fc7
I0204 16:28:13.738847  3312 net.cpp:397] drop7 -> fc7 (in-place)
I0204 16:28:13.738867  3312 net.cpp:150] Setting up drop7
I0204 16:28:13.738878  3312 net.cpp:157] Top shape: 100 256 (25600)
I0204 16:28:13.738885  3312 net.cpp:165] Memory required for data: 151364000
I0204 16:28:13.738898  3312 layer_factory.hpp:77] Creating layer fc8
I0204 16:28:13.738930  3312 net.cpp:106] Creating Layer fc8
I0204 16:28:13.738953  3312 net.cpp:454] fc8 <- fc7
I0204 16:28:13.738966  3312 net.cpp:411] fc8 -> fc8
I0204 16:28:13.739012  3312 net.cpp:150] Setting up fc8
I0204 16:28:13.739025  3312 net.cpp:157] Top shape: 100 2 (200)
I0204 16:28:13.739032  3312 net.cpp:165] Memory required for data: 151364800
I0204 16:28:13.739044  3312 layer_factory.hpp:77] Creating layer loss
I0204 16:28:13.739061  3312 net.cpp:106] Creating Layer loss
I0204 16:28:13.739085  3312 net.cpp:454] loss <- fc8
I0204 16:28:13.739095  3312 net.cpp:454] loss <- label
I0204 16:28:13.739110  3312 net.cpp:411] loss -> loss
I0204 16:28:13.739132  3312 layer_factory.hpp:77] Creating layer loss
…
I0204 16:28:13.740897  3312 net.cpp:322] The NetState phase (1) differed from the phase (0) specified by a rule in layer data
I0204 16:28:13.741415  3312 net.cpp:49] Initializing net from parameters: 
name: "CaffeNet"
state {
  phase: TEST
}
layer {
  name: "data"
  type: "Data"
  top: "data"
  top: "label"
  include {
    phase: TEST
  }
  transform_param {
    mirror: false
    crop_size: 227
    mean_file: "/home/pearlstl/proj_cv/master/lmdb/synth1_test_lum_db/mean_file.binaryproto"
  }
  data_param {
    source: "/home/pearlstl/proj_cv/master/lmdb/synth1_test_lum_db"
    batch_size: 100
    backend: LMDB
  }
}
layer {
  name: "conv1"
  type: "Convolution"
  bottom: "data"
  top: "conv1"
  param {
    lr_mult: 1
    decay_mult: 1
  }
  param {
    lr_mult: 2
    decay_mult: 0
  }
  convolution_param {
    num_output: 32
    kernel_size: 11
    stride: 4
    weight_filler {
      type: "xavier"
    }
    bias_filler {
      type: "constant"
      value: 0
    }
  }
}
layer {
  name: "relu1"
  type: "ReLU"
  bottom: "conv1"
  top: "conv1"
}
layer {
  name: "pool1"
  type: "Pooling"
  bottom: "conv1"
  top: "pool1"
  pooling_param {
    pool: MAX
    kernel_size: 3
    stride: 2
  }
}
layer {
  name: "norm1"
  type: "LRN"
  bottom: "pool1"
  top: "norm1"
  lrn_param {
    local_size: 5
    alpha: 0.0001
    beta: 0.75
  }
}
layer {
  name: "conv2"
  type: "Convolution"
  bottom: "norm1"
  top: "conv2"
  param {
    lr_mult: 1
    decay_mult: 1
  }
  param {
    lr_mult: 2
    decay_mult: 0
  }
  convolution_param {
    num_output: 32
    pad: 2
    kernel_size: 5
    group: 2
    weight_filler {
      type: "xavier"
    }
    bias_filler {
      type: "constant"
      value: 1
    }
  }
}
layer {
  name: "relu2"
  type: "ReLU"
  bottom: "conv2"
  top: "conv2"
}
layer {
  name: "pool2"
  type: "Pooling"
  bottom: "conv2"
  top: "pool2"
  pooling_param {
    pool: MAX
    kernel_size: 3
    stride: 2
  }
}
layer {
  name: "norm2"
  type: "LRN"
  bottom: "pool2"
  top: "norm2"
  lrn_param {
    local_size: 5
    alpha: 0.0001
    beta: 0.75
  }
}
layer {
  name: "conv3"
  type: "Convolution"
  bottom: "norm2"
  top: "conv3"
  param {
    lr_mult: 1
    decay_mult: 1
  }
  param {
    lr_mult: 2
    decay_mult: 0
  }
  convolution_param {
    num_output: 32
    pad: 1
    kernel_size: 3
    weight_filler {
      type: "xavier"
    }
    bias_filler {
      type: "constant"
      value: 0
    }
  }
}
layer {
  name: "relu3"
  type: "ReLU"
  bottom: "conv3"
  top: "conv3"
}
layer {
  name: "conv4"
  type: "Convolution"
  bottom: "conv3"
  top: "conv4"
  param {
    lr_mult: 1
    decay_mult: 1
  }
  param {
    lr_mult: 2
    decay_mult: 0
  }
  convolution_param {
    num_output: 32
    pad: 1
    kernel_size: 3
    group: 2
    weight_filler {
      type: "xavier"
    }
    bias_filler {
      type: "constant"
      value: 1
    }
  }
}
layer {
  name: "relu4"
  type: "ReLU"
  bottom: "conv4"
  top: "conv4"
}
layer {
  name: "conv5"
  type: "Convolution"
  bottom: "conv4"
  top: "conv5"
  param {
    lr_mult: 1
    decay_mult: 1
  }
  param {
    lr_mult: 2
    decay_mult: 0
  }
  convolution_param {
    num_output: 16
    pad: 1
    kernel_size: 3
    group: 2
    weight_filler {
      type: "xavier"
    }
    bias_filler {
      type: "constant"
      value: 1
    }
  }
}
layer {
  name: "relu5"
  type: "ReLU"
  bottom: "conv5"
  top: "conv5"
}
layer {
  name: "pool5"
  type: "Pooling"
  bottom: "conv5"
  top: "pool5"
  pooling_param {
    pool: MAX
    kernel_size: 3
    stride: 2
  }
}
layer {
  name: "fc6"
  type: "InnerProduct"
  bottom: "pool5"
  top: "fc6"
  param {
    lr_mult: 1
    decay_mult: 1
  }
  param {
    lr_mult: 2
    decay_mult: 0
  }
  inner_product_param {
    num_output: 256
    weight_filler {
      type: "xavier"
    }
    bias_filler {
      type: "constant"
      value: 1
    }
  }
}
layer {
  name: "relu6"
  type: "ReLU"
  bottom: "fc6"
  top: "fc6"
}
layer {
  name: "drop6"
  type: "Dropout"
  bottom: "fc6"
  top: "fc6"
  dropout_param {
    dropout_ratio: 0.5
  }
}
layer {
  name: "fc7"
  type: "InnerProduct"
  bottom: "fc6"
  top: "fc7"
  param {
    lr_mult: 1
    decay_mult: 1
  }
  param {
    lr_mult: 2
    decay_mult: 0
  }
  inner_product_param {
    num_output: 256
    weight_filler {
      type: "xavier"
    }
    bias_filler {
      type: "constant"
      value: 1
    }
  }
}
layer {
  name: "relu7"
  type: "ReLU"
  bottom: "fc7"
  top: "fc7"
}
layer {
  name: "drop7"
  type: "Dropout"
  bottom: "fc7"
  top: "fc7"
  dropout_param {
    dropout_ratio: 0.5
  }
}
layer {
  name: "fc8"
  type: "InnerProduct"
  bottom: "fc7"
  top: "fc8"
  param {
    lr_mult: 1
    decay_mult: 1
  }
  param {
    lr_mult: 2
    decay_mult: 0
  }
  inner_product_param {
    num_output: 2
    weight_filler {
      type: "xavier"
    }
    bias_filler {
      type: "constant"
      value: 0
    }
  }
}
layer {
  name: "accuracy"
  type: "Accuracy"
  bottom: "fc8"
  bottom: "label"
  top: "accuracy"
  include {
    phase: TEST
  }
}
layer {
  name: "loss"
  type: "SoftmaxWithLoss"
  bottom: "fc8"
  bottom: "label"
  top: "loss"
}
I0204 16:28:13.741695  3312 layer_factory.hpp:77] Creating layer data
I0204 16:28:13.741971  3312 net.cpp:106] Creating Layer data
I0204 16:28:13.741999  3312 net.cpp:411] data -> data
I0204 16:28:13.742025  3312 net.cpp:411] data -> label
I0204 16:28:13.742054  3312 data_transformer.cpp:25] Loading mean file from: /home/pearlstl/proj_cv/master/lmdb/synth1_test_lum_db/mean_file.binaryproto
I0204 16:28:13.743438  3336 db_lmdb.cpp:38] Opened lmdb /home/pearlstl/proj_cv/master/lmdb/synth1_test_lum_db
I0204 16:28:13.743669  3312 data_layer.cpp:41] output data size: 100,1,227,227
I0204 16:28:13.803560  3312 net.cpp:150] Setting up data
I0204 16:28:13.803633  3312 net.cpp:157] Top shape: 100 1 227 227 (5152900)
I0204 16:28:13.803649  3312 net.cpp:157] Top shape: 100 (100)
I0204 16:28:13.803660  3312 net.cpp:165] Memory required for data: 20612000
I0204 16:28:13.803678  3312 layer_factory.hpp:77] Creating layer label_data_1_split
I0204 16:28:13.803731  3312 net.cpp:106] Creating Layer label_data_1_split
I0204 16:28:13.803748  3312 net.cpp:454] label_data_1_split <- label
I0204 16:28:13.803769  3312 net.cpp:411] label_data_1_split -> label_data_1_split_0
I0204 16:28:13.803800  3312 net.cpp:411] label_data_1_split -> label_data_1_split_1
I0204 16:28:13.803829  3312 net.cpp:150] Setting up label_data_1_split
I0204 16:28:13.803844  3312 net.cpp:157] Top shape: 100 (100)
I0204 16:28:13.803859  3312 net.cpp:157] Top shape: 100 (100)
I0204 16:28:13.803869  3312 net.cpp:165] Memory required for data: 20612800
I0204 16:28:13.803879  3312 layer_factory.hpp:77] Creating layer conv1
I0204 16:28:13.803906  3312 net.cpp:106] Creating Layer conv1
I0204 16:28:13.803918  3312 net.cpp:454] conv1 <- data
I0204 16:28:13.803936  3312 net.cpp:411] conv1 -> conv1
I0204 16:28:13.804071  3312 net.cpp:150] Setting up conv1
I0204 16:28:13.804091  3312 net.cpp:157] Top shape: 100 32 55 55 (9680000)
I0204 16:28:13.804101  3312 net.cpp:165] Memory required for data: 59332800
I0204 16:28:13.804126  3312 layer_factory.hpp:77] Creating layer relu1
I0204 16:28:13.804146  3312 net.cpp:106] Creating Layer relu1
I0204 16:28:13.804165  3312 net.cpp:454] relu1 <- conv1
I0204 16:28:13.804180  3312 net.cpp:397] relu1 -> conv1 (in-place)
I0204 16:28:13.804198  3312 net.cpp:150] Setting up relu1
I0204 16:28:13.804211  3312 net.cpp:157] Top shape: 100 32 55 55 (9680000)
I0204 16:28:13.804221  3312 net.cpp:165] Memory required for data: 98052800
I0204 16:28:13.804232  3312 layer_factory.hpp:77] Creating layer pool1
I0204 16:28:13.804250  3312 net.cpp:106] Creating Layer pool1
I0204 16:28:13.804261  3312 net.cpp:454] pool1 <- conv1
I0204 16:28:13.804275  3312 net.cpp:411] pool1 -> pool1
I0204 16:28:13.804299  3312 net.cpp:150] Setting up pool1
I0204 16:28:13.804312  3312 net.cpp:157] Top shape: 100 32 27 27 (2332800)
I0204 16:28:13.804322  3312 net.cpp:165] Memory required for data: 107384000
I0204 16:28:13.804332  3312 layer_factory.hpp:77] Creating layer norm1
I0204 16:28:13.804348  3312 net.cpp:106] Creating Layer norm1
I0204 16:28:13.804359  3312 net.cpp:454] norm1 <- pool1
I0204 16:28:13.804376  3312 net.cpp:411] norm1 -> norm1
I0204 16:28:13.804396  3312 net.cpp:150] Setting up norm1
I0204 16:28:13.804409  3312 net.cpp:157] Top shape: 100 32 27 27 (2332800)
I0204 16:28:13.804419  3312 net.cpp:165] Memory required for data: 116715200
I0204 16:28:13.804430  3312 layer_factory.hpp:77] Creating layer conv2
I0204 16:28:13.804450  3312 net.cpp:106] Creating Layer conv2
I0204 16:28:13.804461  3312 net.cpp:454] conv2 <- norm1
I0204 16:28:13.804474  3312 net.cpp:411] conv2 -> conv2
I0204 16:28:13.804736  3312 net.cpp:150] Setting up conv2
I0204 16:28:13.804752  3312 net.cpp:157] Top shape: 100 32 27 27 (2332800)
I0204 16:28:13.804762  3312 net.cpp:165] Memory required for data: 126046400
I0204 16:28:13.804786  3312 layer_factory.hpp:77] Creating layer relu2
I0204 16:28:13.804802  3312 net.cpp:106] Creating Layer relu2
I0204 16:28:13.804813  3312 net.cpp:454] relu2 <- conv2
I0204 16:28:13.804843  3312 net.cpp:397] relu2 -> conv2 (in-place)
I0204 16:28:13.804879  3312 net.cpp:150] Setting up relu2
I0204 16:28:13.804893  3312 net.cpp:157] Top shape: 100 32 27 27 (2332800)
I0204 16:28:13.804901  3312 net.cpp:165] Memory required for data: 135377600
I0204 16:28:13.804911  3312 layer_factory.hpp:77] Creating layer pool2
I0204 16:28:13.804932  3312 net.cpp:106] Creating Layer pool2
I0204 16:28:13.804944  3312 net.cpp:454] pool2 <- conv2
I0204 16:28:13.804960  3312 net.cpp:411] pool2 -> pool2
I0204 16:28:13.804980  3312 net.cpp:150] Setting up pool2
I0204 16:28:13.804993  3312 net.cpp:157] Top shape: 100 32 13 13 (540800)
I0204 16:28:13.805003  3312 net.cpp:165] Memory required for data: 137540800
I0204 16:28:13.805012  3312 layer_factory.hpp:77] Creating layer norm2
I0204 16:28:13.805027  3312 net.cpp:106] Creating Layer norm2
I0204 16:28:13.805037  3312 net.cpp:454] norm2 <- pool2
I0204 16:28:13.805050  3312 net.cpp:411] norm2 -> norm2
I0204 16:28:13.805073  3312 net.cpp:150] Setting up norm2
I0204 16:28:13.805085  3312 net.cpp:157] Top shape: 100 32 13 13 (540800)
I0204 16:28:13.805095  3312 net.cpp:165] Memory required for data: 139704000
I0204 16:28:13.805104  3312 layer_factory.hpp:77] Creating layer conv3
I0204 16:28:13.805122  3312 net.cpp:106] Creating Layer conv3
I0204 16:28:13.805132  3312 net.cpp:454] conv3 <- norm2
I0204 16:28:13.805147  3312 net.cpp:411] conv3 -> conv3
I0204 16:28:13.805367  3312 net.cpp:150] Setting up conv3
I0204 16:28:13.805383  3312 net.cpp:157] Top shape: 100 32 13 13 (540800)
I0204 16:28:13.805393  3312 net.cpp:165] Memory required for data: 141867200
I0204 16:28:13.805413  3312 layer_factory.hpp:77] Creating layer relu3
I0204 16:28:13.805428  3312 net.cpp:106] Creating Layer relu3
I0204 16:28:13.805438  3312 net.cpp:454] relu3 <- conv3
I0204 16:28:13.805452  3312 net.cpp:397] relu3 -> conv3 (in-place)
I0204 16:28:13.805469  3312 net.cpp:150] Setting up relu3
I0204 16:28:13.805481  3312 net.cpp:157] Top shape: 100 32 13 13 (540800)
I0204 16:28:13.805490  3312 net.cpp:165] Memory required for data: 144030400
I0204 16:28:13.805503  3312 layer_factory.hpp:77] Creating layer conv4
I0204 16:28:13.805524  3312 net.cpp:106] Creating Layer conv4
I0204 16:28:13.805536  3312 net.cpp:454] conv4 <- conv3
I0204 16:28:13.805551  3312 net.cpp:411] conv4 -> conv4
I0204 16:28:13.805675  3312 net.cpp:150] Setting up conv4
I0204 16:28:13.805691  3312 net.cpp:157] Top shape: 100 32 13 13 (540800)
I0204 16:28:13.805699  3312 net.cpp:165] Memory required for data: 146193600
I0204 16:28:13.805716  3312 layer_factory.hpp:77] Creating layer relu4
I0204 16:28:13.805730  3312 net.cpp:106] Creating Layer relu4
I0204 16:28:13.805742  3312 net.cpp:454] relu4 <- conv4
I0204 16:28:13.805755  3312 net.cpp:397] relu4 -> conv4 (in-place)
I0204 16:28:13.805771  3312 net.cpp:150] Setting up relu4
I0204 16:28:13.805784  3312 net.cpp:157] Top shape: 100 32 13 13 (540800)
I0204 16:28:13.805794  3312 net.cpp:165] Memory required for data: 148356800
I0204 16:28:13.805804  3312 layer_factory.hpp:77] Creating layer conv5
I0204 16:28:13.805824  3312 net.cpp:106] Creating Layer conv5
I0204 16:28:13.805835  3312 net.cpp:454] conv5 <- conv4
I0204 16:28:13.805850  3312 net.cpp:411] conv5 -> conv5
I0204 16:28:13.805923  3312 net.cpp:150] Setting up conv5
I0204 16:28:13.805938  3312 net.cpp:157] Top shape: 100 16 13 13 (270400)
I0204 16:28:13.805946  3312 net.cpp:165] Memory required for data: 149438400
I0204 16:28:13.805969  3312 layer_factory.hpp:77] Creating layer relu5
I0204 16:28:13.805985  3312 net.cpp:106] Creating Layer relu5
I0204 16:28:13.805996  3312 net.cpp:454] relu5 <- conv5
I0204 16:28:13.806010  3312 net.cpp:397] relu5 -> conv5 (in-place)
I0204 16:28:13.806025  3312 net.cpp:150] Setting up relu5
I0204 16:28:13.806036  3312 net.cpp:157] Top shape: 100 16 13 13 (270400)
I0204 16:28:13.806046  3312 net.cpp:165] Memory required for data: 150520000
I0204 16:28:13.806056  3312 layer_factory.hpp:77] Creating layer pool5
I0204 16:28:13.806074  3312 net.cpp:106] Creating Layer pool5
I0204 16:28:13.806087  3312 net.cpp:454] pool5 <- conv5
I0204 16:28:13.806120  3312 net.cpp:411] pool5 -> pool5
I0204 16:28:13.806143  3312 net.cpp:150] Setting up pool5
I0204 16:28:13.806162  3312 net.cpp:157] Top shape: 100 16 6 6 (57600)
I0204 16:28:13.806172  3312 net.cpp:165] Memory required for data: 150750400
I0204 16:28:13.806182  3312 layer_factory.hpp:77] Creating layer fc6
I0204 16:28:13.806201  3312 net.cpp:106] Creating Layer fc6
I0204 16:28:13.806212  3312 net.cpp:454] fc6 <- pool5
I0204 16:28:13.806231  3312 net.cpp:411] fc6 -> fc6
I0204 16:28:13.808540  3312 net.cpp:150] Setting up fc6
I0204 16:28:13.808590  3312 net.cpp:157] Top shape: 100 256 (25600)
I0204 16:28:13.808600  3312 net.cpp:165] Memory required for data: 150852800
I0204 16:28:13.808619  3312 layer_factory.hpp:77] Creating layer relu6
I0204 16:28:13.808642  3312 net.cpp:106] Creating Layer relu6
I0204 16:28:13.808653  3312 net.cpp:454] relu6 <- fc6
I0204 16:28:13.808670  3312 net.cpp:397] relu6 -> fc6 (in-place)
I0204 16:28:13.808691  3312 net.cpp:150] Setting up relu6
I0204 16:28:13.808703  3312 net.cpp:157] Top shape: 100 256 (25600)
I0204 16:28:13.808712  3312 net.cpp:165] Memory required for data: 150955200
I0204 16:28:13.808719  3312 layer_factory.hpp:77] Creating layer drop6
I0204 16:28:13.808737  3312 net.cpp:106] Creating Layer drop6
I0204 16:28:13.808745  3312 net.cpp:454] drop6 <- fc6
I0204 16:28:13.808758  3312 net.cpp:397] drop6 -> fc6 (in-place)
I0204 16:28:13.808775  3312 net.cpp:150] Setting up drop6
I0204 16:28:13.808784  3312 net.cpp:157] Top shape: 100 256 (25600)
I0204 16:28:13.808792  3312 net.cpp:165] Memory required for data: 151057600
I0204 16:28:13.808800  3312 layer_factory.hpp:77] Creating layer fc7
I0204 16:28:13.808820  3312 net.cpp:106] Creating Layer fc7
I0204 16:28:13.808828  3312 net.cpp:454] fc7 <- fc6
I0204 16:28:13.808841  3312 net.cpp:411] fc7 -> fc7
I0204 16:28:13.809895  3312 net.cpp:150] Setting up fc7
I0204 16:28:13.809911  3312 net.cpp:157] Top shape: 100 256 (25600)
I0204 16:28:13.809919  3312 net.cpp:165] Memory required for data: 151160000
I0204 16:28:13.809931  3312 layer_factory.hpp:77] Creating layer relu7
I0204 16:28:13.809947  3312 net.cpp:106] Creating Layer relu7
I0204 16:28:13.809955  3312 net.cpp:454] relu7 <- fc7
I0204 16:28:13.809967  3312 net.cpp:397] relu7 -> fc7 (in-place)
I0204 16:28:13.809989  3312 net.cpp:150] Setting up relu7
I0204 16:28:13.810000  3312 net.cpp:157] Top shape: 100 256 (25600)
I0204 16:28:13.810008  3312 net.cpp:165] Memory required for data: 151262400
I0204 16:28:13.810015  3312 layer_factory.hpp:77] Creating layer drop7
I0204 16:28:13.810027  3312 net.cpp:106] Creating Layer drop7
I0204 16:28:13.810037  3312 net.cpp:454] drop7 <- fc7
I0204 16:28:13.810047  3312 net.cpp:397] drop7 -> fc7 (in-place)
I0204 16:28:13.810061  3312 net.cpp:150] Setting up drop7
I0204 16:28:13.810070  3312 net.cpp:157] Top shape: 100 256 (25600)
I0204 16:28:13.810078  3312 net.cpp:165] Memory required for data: 151364800
I0204 16:28:13.810086  3312 layer_factory.hpp:77] Creating layer fc8
I0204 16:28:13.810108  3312 net.cpp:106] Creating Layer fc8
I0204 16:28:13.810117  3312 net.cpp:454] fc8 <- fc7
I0204 16:28:13.810128  3312 net.cpp:411] fc8 -> fc8
I0204 16:28:13.810169  3312 net.cpp:150] Setting up fc8
I0204 16:28:13.810181  3312 net.cpp:157] Top shape: 100 2 (200)
I0204 16:28:13.810189  3312 net.cpp:165] Memory required for data: 151365600
I0204 16:28:13.810200  3312 layer_factory.hpp:77] Creating layer fc8_fc8_0_split
I0204 16:28:13.810216  3312 net.cpp:106] Creating Layer fc8_fc8_0_split
I0204 16:28:13.810225  3312 net.cpp:454] fc8_fc8_0_split <- fc8
I0204 16:28:13.810235  3312 net.cpp:411] fc8_fc8_0_split -> fc8_fc8_0_split_0
I0204 16:28:13.810247  3312 net.cpp:411] fc8_fc8_0_split -> fc8_fc8_0_split_1
I0204 16:28:13.810261  3312 net.cpp:150] Setting up fc8_fc8_0_split
I0204 16:28:13.810271  3312 net.cpp:157] Top shape: 100 2 (200)
I0204 16:28:13.810281  3312 net.cpp:157] Top shape: 100 2 (200)
I0204 16:28:13.810288  3312 net.cpp:165] Memory required for data: 151367200
I0204 16:28:13.810295  3312 layer_factory.hpp:77] Creating layer accuracy
I0204 16:28:13.810364  3312 net.cpp:106] Creating Layer accuracy
I0204 16:28:13.810372  3312 net.cpp:454] accuracy <- fc8_fc8_0_split_0
I0204 16:28:13.810382  3312 net.cpp:454] accuracy <- label_data_1_split_0
I0204 16:28:13.810392  3312 net.cpp:411] accuracy -> accuracy
…
