…
I0204 16:30:48.756139  3457 net.cpp:322] The NetState phase (0) differed from the phase (1) specified by a rule in layer accuracy
I0204 16:30:48.756377  3457 net.cpp:49] Initializing net from parameters: 
name: "CaffeNet"
state {
  phase: TRAIN
}
layer {
  name: "data"
  type: "Data"
  top: "data"
  top: "label"
  include {
    phase: TRAIN
  }
  transform_param {
    mirror: true
    crop_size: 227
    mean_file: "/home/pearlstl/proj_cv/master/lmdb/synth1_train_lum_db/mean_file.binaryproto"
  }
  data_param {
    source: "/home/pearlstl/proj_cv/master/lmdb/synth1_train_lum_db"
    batch_size: 100
    backend: LMDB
  }
}
layer {
  name: "conv1"
  type: "Convolution"
  bottom: "data"
  top: "conv1"
  param {
    lr_mult: 1
    decay_mult: 1
  }
  param {
    lr_mult: 2
    decay_mult: 0
  }
  convolution_param {
    num_output: 8
    kernel_size: 11
    stride: 4
    weight_filler {
      type: "xavier"
    }
    bias_filler {
      type: "constant"
      value: 0
    }
  }
}
layer {
  name: "relu1"
  type: "ReLU"
  bottom: "conv1"
  top: "conv1"
}
layer {
  name: "pool1"
  type: "Pooling"
  bottom: "conv1"
  top: "pool1"
  pooling_param {
    pool: MAX
    kernel_size: 3
    stride: 2
  }
}
layer {
  name: "norm1"
  type: "LRN"
  bottom: "pool1"
  top: "norm1"
  lrn_param {
    local_size: 5
    alpha: 0.0001
    beta: 0.75
  }
}
layer {
  name: "conv2"
  type: "Convolution"
  bottom: "norm1"
  top: "conv2"
  param {
    lr_mult: 1
    decay_mult: 1
  }
  param {
    lr_mult: 2
    decay_mult: 0
  }
  convolution_param {
    num_output: 8
    pad: 2
    kernel_size: 5
    group: 2
    weight_filler {
      type: "xavier"
    }
    bias_filler {
      type: "constant"
      value: 1
    }
  }
}
layer {
  name: "relu2"
  type: "ReLU"
  bottom: "conv2"
  top: "conv2"
}
layer {
  name: "pool2"
  type: "Pooling"
  bottom: "conv2"
  top: "pool2"
  pooling_param {
    pool: MAX
    kernel_size: 3
    stride: 2
  }
}
layer {
  name: "norm2"
  type: "LRN"
  bottom: "pool2"
  top: "norm2"
  lrn_param {
    local_size: 5
    alpha: 0.0001
    beta: 0.75
  }
}
layer {
  name: "conv3"
  type: "Convolution"
  bottom: "norm2"
  top: "conv3"
  param {
    lr_mult: 1
    decay_mult: 1
  }
  param {
    lr_mult: 2
    decay_mult: 0
  }
  convolution_param {
    num_output: 8
    pad: 1
    kernel_size: 3
    weight_filler {
      type: "xavier"
    }
    bias_filler {
      type: "constant"
      value: 0
    }
  }
}
layer {
  name: "relu3"
  type: "ReLU"
  bottom: "conv3"
  top: "conv3"
}
layer {
  name: "conv4"
  type: "Convolution"
  bottom: "conv3"
  top: "conv4"
  param {
    lr_mult: 1
    decay_mult: 1
  }
  param {
    lr_mult: 2
    decay_mult: 0
  }
  convolution_param {
    num_output: 8
    pad: 1
    kernel_size: 3
    group: 2
    weight_filler {
      type: "xavier"
    }
    bias_filler {
      type: "constant"
      value: 1
    }
  }
}
layer {
  name: "relu4"
  type: "ReLU"
  bottom: "conv4"
  top: "conv4"
}
layer {
  name: "conv5"
  type: "Convolution"
  bottom: "conv4"
  top: "conv5"
  param {
    lr_mult: 1
    decay_mult: 1
  }
  param {
    lr_mult: 2
    decay_mult: 0
  }
  convolution_param {
    num_output: 8
    pad: 1
    kernel_size: 3
    group: 2
    weight_filler {
      type: "xavier"
    }
    bias_filler {
      type: "constant"
      value: 1
    }
  }
}
layer {
  name: "relu5"
  type: "ReLU"
  bottom: "conv5"
  top: "conv5"
}
layer {
  name: "pool5"
  type: "Pooling"
  bottom: "conv5"
  top: "pool5"
  pooling_param {
    pool: MAX
    kernel_size: 3
    stride: 2
  }
}
layer {
  name: "fc6"
  type: "InnerProduct"
  bottom: "pool5"
  top: "fc6"
  param {
    lr_mult: 1
    decay_mult: 1
  }
  param {
    lr_mult: 2
    decay_mult: 0
  }
  inner_product_param {
    num_output: 256
    weight_filler {
      type: "xavier"
    }
    bias_filler {
      type: "constant"
      value: 1
    }
  }
}
layer {
  name: "relu6"
  type: "ReLU"
  bottom: "fc6"
  top: "fc6"
}
layer {
  name: "drop6"
  type: "Dropout"
  bottom: "fc6"
  top: "fc6"
  dropout_param {
    dropout_ratio: 0.5
  }
}
layer {
  name: "fc7"
  type: "InnerProduct"
  bottom: "fc6"
  top: "fc7"
  param {
    lr_mult: 1
    decay_mult: 1
  }
  param {
    lr_mult: 2
    decay_mult: 0
  }
  inner_product_param {
    num_output: 256
    weight_filler {
      type: "xavier"
    }
    bias_filler {
      type: "constant"
      value: 1
    }
  }
}
layer {
  name: "relu7"
  type: "ReLU"
  bottom: "fc7"
  top: "fc7"
}
layer {
  name: "drop7"
  type: "Dropout"
  bottom: "fc7"
  top: "fc7"
  dropout_param {
    dropout_ratio: 0.5
  }
}
layer {
  name: "fc8"
  type: "InnerProduct"
  bottom: "fc7"
  top: "fc8"
  param {
    lr_mult: 1
    decay_mult: 1
  }
  param {
    lr_mult: 2
    decay_mult: 0
  }
  inner_product_param {
    num_output: 2
    weight_filler {
      type: "xavier"
    }
    bias_filler {
      type: "constant"
      value: 0
    }
  }
}
layer {
  name: "loss"
  type: "SoftmaxWithLoss"
  bottom: "fc8"
  bottom: "label"
  top: "loss"
}
I0204 16:30:48.756500  3457 layer_factory.hpp:77] Creating layer data
I0204 16:30:48.756670  3457 net.cpp:106] Creating Layer data
I0204 16:30:48.756686  3457 net.cpp:411] data -> data
I0204 16:30:48.756741  3457 net.cpp:411] data -> label
I0204 16:30:48.756759  3457 data_transformer.cpp:25] Loading mean file from: /home/pearlstl/proj_cv/master/lmdb/synth1_train_lum_db/mean_file.binaryproto
I0204 16:30:48.756805  3459 db_lmdb.cpp:38] Opened lmdb /home/pearlstl/proj_cv/master/lmdb/synth1_train_lum_db
I0204 16:30:48.757691  3457 data_layer.cpp:41] output data size: 100,1,227,227
I0204 16:30:48.777725  3457 net.cpp:150] Setting up data
I0204 16:30:48.777792  3457 net.cpp:157] Top shape: 100 1 227 227 (5152900)
I0204 16:30:48.777801  3457 net.cpp:157] Top shape: 100 (100)
I0204 16:30:48.777808  3457 net.cpp:165] Memory required for data: 20612000
I0204 16:30:48.777828  3457 layer_factory.hpp:77] Creating layer conv1
I0204 16:30:48.777854  3457 net.cpp:106] Creating Layer conv1
I0204 16:30:48.777863  3457 net.cpp:454] conv1 <- data
I0204 16:30:48.777883  3457 net.cpp:411] conv1 -> conv1
I0204 16:30:48.777978  3457 net.cpp:150] Setting up conv1
I0204 16:30:48.777989  3457 net.cpp:157] Top shape: 100 8 55 55 (2420000)
I0204 16:30:48.777995  3457 net.cpp:165] Memory required for data: 30292000
I0204 16:30:48.778012  3457 layer_factory.hpp:77] Creating layer relu1
I0204 16:30:48.778023  3457 net.cpp:106] Creating Layer relu1
I0204 16:30:48.778029  3457 net.cpp:454] relu1 <- conv1
I0204 16:30:48.778038  3457 net.cpp:397] relu1 -> conv1 (in-place)
I0204 16:30:48.778049  3457 net.cpp:150] Setting up relu1
I0204 16:30:48.778058  3457 net.cpp:157] Top shape: 100 8 55 55 (2420000)
I0204 16:30:48.778062  3457 net.cpp:165] Memory required for data: 39972000
I0204 16:30:48.778069  3457 layer_factory.hpp:77] Creating layer pool1
I0204 16:30:48.778080  3457 net.cpp:106] Creating Layer pool1
I0204 16:30:48.778085  3457 net.cpp:454] pool1 <- conv1
I0204 16:30:48.778094  3457 net.cpp:411] pool1 -> pool1
I0204 16:30:48.778115  3457 net.cpp:150] Setting up pool1
I0204 16:30:48.778123  3457 net.cpp:157] Top shape: 100 8 27 27 (583200)
I0204 16:30:48.778128  3457 net.cpp:165] Memory required for data: 42304800
I0204 16:30:48.778139  3457 layer_factory.hpp:77] Creating layer norm1
I0204 16:30:48.778158  3457 net.cpp:106] Creating Layer norm1
I0204 16:30:48.778173  3457 net.cpp:454] norm1 <- pool1
I0204 16:30:48.778182  3457 net.cpp:411] norm1 -> norm1
I0204 16:30:48.778200  3457 net.cpp:150] Setting up norm1
I0204 16:30:48.778208  3457 net.cpp:157] Top shape: 100 8 27 27 (583200)
I0204 16:30:48.778213  3457 net.cpp:165] Memory required for data: 44637600
I0204 16:30:48.778219  3457 layer_factory.hpp:77] Creating layer conv2
I0204 16:30:48.778229  3457 net.cpp:106] Creating Layer conv2
I0204 16:30:48.778234  3457 net.cpp:454] conv2 <- norm1
I0204 16:30:48.778244  3457 net.cpp:411] conv2 -> conv2
I0204 16:30:48.778273  3457 net.cpp:150] Setting up conv2
I0204 16:30:48.778281  3457 net.cpp:157] Top shape: 100 8 27 27 (583200)
I0204 16:30:48.778286  3457 net.cpp:165] Memory required for data: 46970400
I0204 16:30:48.778296  3457 layer_factory.hpp:77] Creating layer relu2
I0204 16:30:48.778304  3457 net.cpp:106] Creating Layer relu2
I0204 16:30:48.778312  3457 net.cpp:454] relu2 <- conv2
I0204 16:30:48.778319  3457 net.cpp:397] relu2 -> conv2 (in-place)
I0204 16:30:48.778328  3457 net.cpp:150] Setting up relu2
I0204 16:30:48.778334  3457 net.cpp:157] Top shape: 100 8 27 27 (583200)
I0204 16:30:48.778340  3457 net.cpp:165] Memory required for data: 49303200
I0204 16:30:48.778345  3457 layer_factory.hpp:77] Creating layer pool2
I0204 16:30:48.778353  3457 net.cpp:106] Creating Layer pool2
I0204 16:30:48.778358  3457 net.cpp:454] pool2 <- conv2
I0204 16:30:48.778365  3457 net.cpp:411] pool2 -> pool2
I0204 16:30:48.778375  3457 net.cpp:150] Setting up pool2
I0204 16:30:48.778383  3457 net.cpp:157] Top shape: 100 8 13 13 (135200)
I0204 16:30:48.778388  3457 net.cpp:165] Memory required for data: 49844000
I0204 16:30:48.778393  3457 layer_factory.hpp:77] Creating layer norm2
I0204 16:30:48.778401  3457 net.cpp:106] Creating Layer norm2
I0204 16:30:48.778406  3457 net.cpp:454] norm2 <- pool2
I0204 16:30:48.778414  3457 net.cpp:411] norm2 -> norm2
I0204 16:30:48.778424  3457 net.cpp:150] Setting up norm2
I0204 16:30:48.778431  3457 net.cpp:157] Top shape: 100 8 13 13 (135200)
I0204 16:30:48.778437  3457 net.cpp:165] Memory required for data: 50384800
I0204 16:30:48.778442  3457 layer_factory.hpp:77] Creating layer conv3
I0204 16:30:48.778451  3457 net.cpp:106] Creating Layer conv3
I0204 16:30:48.778457  3457 net.cpp:454] conv3 <- norm2
I0204 16:30:48.778465  3457 net.cpp:411] conv3 -> conv3
I0204 16:30:48.778493  3457 net.cpp:150] Setting up conv3
I0204 16:30:48.778501  3457 net.cpp:157] Top shape: 100 8 13 13 (135200)
I0204 16:30:48.778506  3457 net.cpp:165] Memory required for data: 50925600
I0204 16:30:48.778515  3457 layer_factory.hpp:77] Creating layer relu3
I0204 16:30:48.778523  3457 net.cpp:106] Creating Layer relu3
I0204 16:30:48.778529  3457 net.cpp:454] relu3 <- conv3
I0204 16:30:48.778538  3457 net.cpp:397] relu3 -> conv3 (in-place)
I0204 16:30:48.778547  3457 net.cpp:150] Setting up relu3
I0204 16:30:48.778553  3457 net.cpp:157] Top shape: 100 8 13 13 (135200)
I0204 16:30:48.778558  3457 net.cpp:165] Memory required for data: 51466400
I0204 16:30:48.778563  3457 layer_factory.hpp:77] Creating layer conv4
I0204 16:30:48.778573  3457 net.cpp:106] Creating Layer conv4
I0204 16:30:48.778578  3457 net.cpp:454] conv4 <- conv3
I0204 16:30:48.778586  3457 net.cpp:411] conv4 -> conv4
I0204 16:30:48.778606  3457 net.cpp:150] Setting up conv4
I0204 16:30:48.778614  3457 net.cpp:157] Top shape: 100 8 13 13 (135200)
I0204 16:30:48.778620  3457 net.cpp:165] Memory required for data: 52007200
I0204 16:30:48.778627  3457 layer_factory.hpp:77] Creating layer relu4
I0204 16:30:48.778633  3457 net.cpp:106] Creating Layer relu4
I0204 16:30:48.778640  3457 net.cpp:454] relu4 <- conv4
I0204 16:30:48.778648  3457 net.cpp:397] relu4 -> conv4 (in-place)
I0204 16:30:48.778656  3457 net.cpp:150] Setting up relu4
I0204 16:30:48.778662  3457 net.cpp:157] Top shape: 100 8 13 13 (135200)
I0204 16:30:48.778667  3457 net.cpp:165] Memory required for data: 52548000
I0204 16:30:48.778673  3457 layer_factory.hpp:77] Creating layer conv5
I0204 16:30:48.778687  3457 net.cpp:106] Creating Layer conv5
I0204 16:30:48.778697  3457 net.cpp:454] conv5 <- conv4
I0204 16:30:48.778705  3457 net.cpp:411] conv5 -> conv5
I0204 16:30:48.778725  3457 net.cpp:150] Setting up conv5
I0204 16:30:48.778733  3457 net.cpp:157] Top shape: 100 8 13 13 (135200)
I0204 16:30:48.778738  3457 net.cpp:165] Memory required for data: 53088800
I0204 16:30:48.778748  3457 layer_factory.hpp:77] Creating layer relu5
I0204 16:30:48.778759  3457 net.cpp:106] Creating Layer relu5
I0204 16:30:48.778764  3457 net.cpp:454] relu5 <- conv5
I0204 16:30:48.778772  3457 net.cpp:397] relu5 -> conv5 (in-place)
I0204 16:30:48.778779  3457 net.cpp:150] Setting up relu5
I0204 16:30:48.778786  3457 net.cpp:157] Top shape: 100 8 13 13 (135200)
I0204 16:30:48.778791  3457 net.cpp:165] Memory required for data: 53629600
I0204 16:30:48.778797  3457 layer_factory.hpp:77] Creating layer pool5
I0204 16:30:48.778805  3457 net.cpp:106] Creating Layer pool5
I0204 16:30:48.778810  3457 net.cpp:454] pool5 <- conv5
I0204 16:30:48.778817  3457 net.cpp:411] pool5 -> pool5
I0204 16:30:48.778826  3457 net.cpp:150] Setting up pool5
I0204 16:30:48.778833  3457 net.cpp:157] Top shape: 100 8 6 6 (28800)
I0204 16:30:48.778838  3457 net.cpp:165] Memory required for data: 53744800
I0204 16:30:48.778843  3457 layer_factory.hpp:77] Creating layer fc6
I0204 16:30:48.778857  3457 net.cpp:106] Creating Layer fc6
I0204 16:30:48.778863  3457 net.cpp:454] fc6 <- pool5
I0204 16:30:48.778872  3457 net.cpp:411] fc6 -> fc6
I0204 16:30:48.779649  3457 net.cpp:150] Setting up fc6
I0204 16:30:48.779661  3457 net.cpp:157] Top shape: 100 256 (25600)
I0204 16:30:48.779667  3457 net.cpp:165] Memory required for data: 53847200
I0204 16:30:48.779675  3457 layer_factory.hpp:77] Creating layer relu6
I0204 16:30:48.779683  3457 net.cpp:106] Creating Layer relu6
I0204 16:30:48.779688  3457 net.cpp:454] relu6 <- fc6
I0204 16:30:48.779696  3457 net.cpp:397] relu6 -> fc6 (in-place)
I0204 16:30:48.779706  3457 net.cpp:150] Setting up relu6
I0204 16:30:48.779713  3457 net.cpp:157] Top shape: 100 256 (25600)
I0204 16:30:48.779718  3457 net.cpp:165] Memory required for data: 53949600
I0204 16:30:48.779726  3457 layer_factory.hpp:77] Creating layer drop6
I0204 16:30:48.779734  3457 net.cpp:106] Creating Layer drop6
I0204 16:30:48.779742  3457 net.cpp:454] drop6 <- fc6
I0204 16:30:48.779748  3457 net.cpp:397] drop6 -> fc6 (in-place)
I0204 16:30:48.779764  3457 net.cpp:150] Setting up drop6
I0204 16:30:48.779772  3457 net.cpp:157] Top shape: 100 256 (25600)
I0204 16:30:48.779777  3457 net.cpp:165] Memory required for data: 54052000
I0204 16:30:48.779781  3457 layer_factory.hpp:77] Creating layer fc7
I0204 16:30:48.779790  3457 net.cpp:106] Creating Layer fc7
I0204 16:30:48.779795  3457 net.cpp:454] fc7 <- fc6
I0204 16:30:48.779803  3457 net.cpp:411] fc7 -> fc7
I0204 16:30:48.780462  3457 net.cpp:150] Setting up fc7
I0204 16:30:48.780472  3457 net.cpp:157] Top shape: 100 256 (25600)
I0204 16:30:48.780478  3457 net.cpp:165] Memory required for data: 54154400
I0204 16:30:48.780485  3457 layer_factory.hpp:77] Creating layer relu7
I0204 16:30:48.780493  3457 net.cpp:106] Creating Layer relu7
I0204 16:30:48.780499  3457 net.cpp:454] relu7 <- fc7
I0204 16:30:48.780506  3457 net.cpp:397] relu7 -> fc7 (in-place)
I0204 16:30:48.780514  3457 net.cpp:150] Setting up relu7
I0204 16:30:48.780520  3457 net.cpp:157] Top shape: 100 256 (25600)
I0204 16:30:48.780526  3457 net.cpp:165] Memory required for data: 54256800
I0204 16:30:48.780534  3457 layer_factory.hpp:77] Creating layer drop7
I0204 16:30:48.780542  3457 net.cpp:106] Creating Layer drop7
I0204 16:30:48.780549  3457 net.cpp:454] drop7 <- fc7
I0204 16:30:48.780555  3457 net.cpp:397] drop7 -> fc7 (in-place)
I0204 16:30:48.780565  3457 net.cpp:150] Setting up drop7
I0204 16:30:48.780570  3457 net.cpp:157] Top shape: 100 256 (25600)
I0204 16:30:48.780575  3457 net.cpp:165] Memory required for data: 54359200
I0204 16:30:48.780581  3457 layer_factory.hpp:77] Creating layer fc8
I0204 16:30:48.780591  3457 net.cpp:106] Creating Layer fc8
I0204 16:30:48.780601  3457 net.cpp:454] fc8 <- fc7
I0204 16:30:48.780614  3457 net.cpp:411] fc8 -> fc8
I0204 16:30:48.780637  3457 net.cpp:150] Setting up fc8
I0204 16:30:48.780645  3457 net.cpp:157] Top shape: 100 2 (200)
I0204 16:30:48.780650  3457 net.cpp:165] Memory required for data: 54360000
I0204 16:30:48.780658  3457 layer_factory.hpp:77] Creating layer loss
I0204 16:30:48.780666  3457 net.cpp:106] Creating Layer loss
I0204 16:30:48.780671  3457 net.cpp:454] loss <- fc8
I0204 16:30:48.780678  3457 net.cpp:454] loss <- label
I0204 16:30:48.780689  3457 net.cpp:411] loss -> loss
I0204 16:30:48.780702  3457 layer_factory.hpp:77] Creating layer loss
…
I0204 16:30:48.781720  3457 net.cpp:322] The NetState phase (1) differed from the phase (0) specified by a rule in layer data
I0204 16:30:48.782006  3457 net.cpp:49] Initializing net from parameters: 
name: "CaffeNet"
state {
  phase: TEST
}
layer {
  name: "data"
  type: "Data"
  top: "data"
  top: "label"
  include {
    phase: TEST
  }
  transform_param {
    mirror: false
    crop_size: 227
    mean_file: "/home/pearlstl/proj_cv/master/lmdb/synth1_test_lum_db/mean_file.binaryproto"
  }
  data_param {
    source: "/home/pearlstl/proj_cv/master/lmdb/synth1_test_lum_db"
    batch_size: 100
    backend: LMDB
  }
}
layer {
  name: "conv1"
  type: "Convolution"
  bottom: "data"
  top: "conv1"
  param {
    lr_mult: 1
    decay_mult: 1
  }
  param {
    lr_mult: 2
    decay_mult: 0
  }
  convolution_param {
    num_output: 8
    kernel_size: 11
    stride: 4
    weight_filler {
      type: "xavier"
    }
    bias_filler {
      type: "constant"
      value: 0
    }
  }
}
layer {
  name: "relu1"
  type: "ReLU"
  bottom: "conv1"
  top: "conv1"
}
layer {
  name: "pool1"
  type: "Pooling"
  bottom: "conv1"
  top: "pool1"
  pooling_param {
    pool: MAX
    kernel_size: 3
    stride: 2
  }
}
layer {
  name: "norm1"
  type: "LRN"
  bottom: "pool1"
  top: "norm1"
  lrn_param {
    local_size: 5
    alpha: 0.0001
    beta: 0.75
  }
}
layer {
  name: "conv2"
  type: "Convolution"
  bottom: "norm1"
  top: "conv2"
  param {
    lr_mult: 1
    decay_mult: 1
  }
  param {
    lr_mult: 2
    decay_mult: 0
  }
  convolution_param {
    num_output: 8
    pad: 2
    kernel_size: 5
    group: 2
    weight_filler {
      type: "xavier"
    }
    bias_filler {
      type: "constant"
      value: 1
    }
  }
}
layer {
  name: "relu2"
  type: "ReLU"
  bottom: "conv2"
  top: "conv2"
}
layer {
  name: "pool2"
  type: "Pooling"
  bottom: "conv2"
  top: "pool2"
  pooling_param {
    pool: MAX
    kernel_size: 3
    stride: 2
  }
}
layer {
  name: "norm2"
  type: "LRN"
  bottom: "pool2"
  top: "norm2"
  lrn_param {
    local_size: 5
    alpha: 0.0001
    beta: 0.75
  }
}
layer {
  name: "conv3"
  type: "Convolution"
  bottom: "norm2"
  top: "conv3"
  param {
    lr_mult: 1
    decay_mult: 1
  }
  param {
    lr_mult: 2
    decay_mult: 0
  }
  convolution_param {
    num_output: 8
    pad: 1
    kernel_size: 3
    weight_filler {
      type: "xavier"
    }
    bias_filler {
      type: "constant"
      value: 0
    }
  }
}
layer {
  name: "relu3"
  type: "ReLU"
  bottom: "conv3"
  top: "conv3"
}
layer {
  name: "conv4"
  type: "Convolution"
  bottom: "conv3"
  top: "conv4"
  param {
    lr_mult: 1
    decay_mult: 1
  }
  param {
    lr_mult: 2
    decay_mult: 0
  }
  convolution_param {
    num_output: 8
    pad: 1
    kernel_size: 3
    group: 2
    weight_filler {
      type: "xavier"
    }
    bias_filler {
      type: "constant"
      value: 1
    }
  }
}
layer {
  name: "relu4"
  type: "ReLU"
  bottom: "conv4"
  top: "conv4"
}
layer {
  name: "conv5"
  type: "Convolution"
  bottom: "conv4"
  top: "conv5"
  param {
    lr_mult: 1
    decay_mult: 1
  }
  param {
    lr_mult: 2
    decay_mult: 0
  }
  convolution_param {
    num_output: 8
    pad: 1
    kernel_size: 3
    group: 2
    weight_filler {
      type: "xavier"
    }
    bias_filler {
      type: "constant"
      value: 1
    }
  }
}
layer {
  name: "relu5"
  type: "ReLU"
  bottom: "conv5"
  top: "conv5"
}
layer {
  name: "pool5"
  type: "Pooling"
  bottom: "conv5"
  top: "pool5"
  pooling_param {
    pool: MAX
    kernel_size: 3
    stride: 2
  }
}
layer {
  name: "fc6"
  type: "InnerProduct"
  bottom: "pool5"
  top: "fc6"
  param {
    lr_mult: 1
    decay_mult: 1
  }
  param {
    lr_mult: 2
    decay_mult: 0
  }
  inner_product_param {
    num_output: 256
    weight_filler {
      type: "xavier"
    }
    bias_filler {
      type: "constant"
      value: 1
    }
  }
}
layer {
  name: "relu6"
  type: "ReLU"
  bottom: "fc6"
  top: "fc6"
}
layer {
  name: "drop6"
  type: "Dropout"
  bottom: "fc6"
  top: "fc6"
  dropout_param {
    dropout_ratio: 0.5
  }
}
layer {
  name: "fc7"
  type: "InnerProduct"
  bottom: "fc6"
  top: "fc7"
  param {
    lr_mult: 1
    decay_mult: 1
  }
  param {
    lr_mult: 2
    decay_mult: 0
  }
  inner_product_param {
    num_output: 256
    weight_filler {
      type: "xavier"
    }
    bias_filler {
      type: "constant"
      value: 1
    }
  }
}
layer {
  name: "relu7"
  type: "ReLU"
  bottom: "fc7"
  top: "fc7"
}
layer {
  name: "drop7"
  type: "Dropout"
  bottom: "fc7"
  top: "fc7"
  dropout_param {
    dropout_ratio: 0.5
  }
}
layer {
  name: "fc8"
  type: "InnerProduct"
  bottom: "fc7"
  top: "fc8"
  param {
    lr_mult: 1
    decay_mult: 1
  }
  param {
    lr_mult: 2
    decay_mult: 0
  }
  inner_product_param {
    num_output: 2
    weight_filler {
      type: "xavier"
    }
    bias_filler {
      type: "constant"
      value: 0
    }
  }
}
layer {
  name: "accuracy"
  type: "Accuracy"
  bottom: "fc8"
  bottom: "label"
  top: "accuracy"
  include {
    phase: TEST
  }
}
layer {
  name: "loss"
  type: "SoftmaxWithLoss"
  bottom: "fc8"
  bottom: "label"
  top: "loss"
}
I0204 16:30:48.782181  3457 layer_factory.hpp:77] Creating layer data
I0204 16:30:48.782326  3457 net.cpp:106] Creating Layer data
I0204 16:30:48.782340  3457 net.cpp:411] data -> data
I0204 16:30:48.782352  3457 net.cpp:411] data -> label
I0204 16:30:48.782363  3457 data_transformer.cpp:25] Loading mean file from: /home/pearlstl/proj_cv/master/lmdb/synth1_test_lum_db/mean_file.binaryproto
I0204 16:30:48.782521  3471 db_lmdb.cpp:38] Opened lmdb /home/pearlstl/proj_cv/master/lmdb/synth1_test_lum_db
I0204 16:30:48.783182  3457 data_layer.cpp:41] output data size: 100,1,227,227
I0204 16:30:48.815626  3457 net.cpp:150] Setting up data
I0204 16:30:48.815659  3457 net.cpp:157] Top shape: 100 1 227 227 (5152900)
I0204 16:30:48.815667  3457 net.cpp:157] Top shape: 100 (100)
I0204 16:30:48.815675  3457 net.cpp:165] Memory required for data: 20612000
I0204 16:30:48.815685  3457 layer_factory.hpp:77] Creating layer label_data_1_split
I0204 16:30:48.815704  3457 net.cpp:106] Creating Layer label_data_1_split
I0204 16:30:48.815712  3457 net.cpp:454] label_data_1_split <- label
I0204 16:30:48.815726  3457 net.cpp:411] label_data_1_split -> label_data_1_split_0
I0204 16:30:48.815742  3457 net.cpp:411] label_data_1_split -> label_data_1_split_1
I0204 16:30:48.815754  3457 net.cpp:150] Setting up label_data_1_split
I0204 16:30:48.815765  3457 net.cpp:157] Top shape: 100 (100)
I0204 16:30:48.815771  3457 net.cpp:157] Top shape: 100 (100)
I0204 16:30:48.815779  3457 net.cpp:165] Memory required for data: 20612800
I0204 16:30:48.815785  3457 layer_factory.hpp:77] Creating layer conv1
I0204 16:30:48.815799  3457 net.cpp:106] Creating Layer conv1
I0204 16:30:48.815805  3457 net.cpp:454] conv1 <- data
I0204 16:30:48.815814  3457 net.cpp:411] conv1 -> conv1
I0204 16:30:48.815863  3457 net.cpp:150] Setting up conv1
I0204 16:30:48.815873  3457 net.cpp:157] Top shape: 100 8 55 55 (2420000)
I0204 16:30:48.815878  3457 net.cpp:165] Memory required for data: 30292800
I0204 16:30:48.815891  3457 layer_factory.hpp:77] Creating layer relu1
I0204 16:30:48.815902  3457 net.cpp:106] Creating Layer relu1
I0204 16:30:48.815908  3457 net.cpp:454] relu1 <- conv1
I0204 16:30:48.815917  3457 net.cpp:397] relu1 -> conv1 (in-place)
I0204 16:30:48.815927  3457 net.cpp:150] Setting up relu1
I0204 16:30:48.815934  3457 net.cpp:157] Top shape: 100 8 55 55 (2420000)
I0204 16:30:48.815940  3457 net.cpp:165] Memory required for data: 39972800
I0204 16:30:48.815945  3457 layer_factory.hpp:77] Creating layer pool1
I0204 16:30:48.815958  3457 net.cpp:106] Creating Layer pool1
I0204 16:30:48.815963  3457 net.cpp:454] pool1 <- conv1
I0204 16:30:48.815973  3457 net.cpp:411] pool1 -> pool1
I0204 16:30:48.815989  3457 net.cpp:150] Setting up pool1
I0204 16:30:48.815996  3457 net.cpp:157] Top shape: 100 8 27 27 (583200)
I0204 16:30:48.816002  3457 net.cpp:165] Memory required for data: 42305600
I0204 16:30:48.816009  3457 layer_factory.hpp:77] Creating layer norm1
I0204 16:30:48.816021  3457 net.cpp:106] Creating Layer norm1
I0204 16:30:48.816027  3457 net.cpp:454] norm1 <- pool1
I0204 16:30:48.816035  3457 net.cpp:411] norm1 -> norm1
I0204 16:30:48.816045  3457 net.cpp:150] Setting up norm1
I0204 16:30:48.816053  3457 net.cpp:157] Top shape: 100 8 27 27 (583200)
I0204 16:30:48.816059  3457 net.cpp:165] Memory required for data: 44638400
I0204 16:30:48.816066  3457 layer_factory.hpp:77] Creating layer conv2
I0204 16:30:48.816076  3457 net.cpp:106] Creating Layer conv2
I0204 16:30:48.816082  3457 net.cpp:454] conv2 <- norm1
I0204 16:30:48.816090  3457 net.cpp:411] conv2 -> conv2
I0204 16:30:48.816143  3457 net.cpp:150] Setting up conv2
I0204 16:30:48.816153  3457 net.cpp:157] Top shape: 100 8 27 27 (583200)
I0204 16:30:48.816157  3457 net.cpp:165] Memory required for data: 46971200
I0204 16:30:48.816169  3457 layer_factory.hpp:77] Creating layer relu2
I0204 16:30:48.816177  3457 net.cpp:106] Creating Layer relu2
I0204 16:30:48.816184  3457 net.cpp:454] relu2 <- conv2
I0204 16:30:48.816190  3457 net.cpp:397] relu2 -> conv2 (in-place)
I0204 16:30:48.816205  3457 net.cpp:150] Setting up relu2
I0204 16:30:48.816221  3457 net.cpp:157] Top shape: 100 8 27 27 (583200)
I0204 16:30:48.816228  3457 net.cpp:165] Memory required for data: 49304000
I0204 16:30:48.816234  3457 layer_factory.hpp:77] Creating layer pool2
I0204 16:30:48.816243  3457 net.cpp:106] Creating Layer pool2
I0204 16:30:48.816248  3457 net.cpp:454] pool2 <- conv2
I0204 16:30:48.816256  3457 net.cpp:411] pool2 -> pool2
I0204 16:30:48.816269  3457 net.cpp:150] Setting up pool2
I0204 16:30:48.816277  3457 net.cpp:157] Top shape: 100 8 13 13 (135200)
I0204 16:30:48.816282  3457 net.cpp:165] Memory required for data: 49844800
I0204 16:30:48.816287  3457 layer_factory.hpp:77] Creating layer norm2
I0204 16:30:48.816296  3457 net.cpp:106] Creating Layer norm2
I0204 16:30:48.816301  3457 net.cpp:454] norm2 <- pool2
I0204 16:30:48.816309  3457 net.cpp:411] norm2 -> norm2
I0204 16:30:48.816318  3457 net.cpp:150] Setting up norm2
I0204 16:30:48.816324  3457 net.cpp:157] Top shape: 100 8 13 13 (135200)
I0204 16:30:48.816329  3457 net.cpp:165] Memory required for data: 50385600
I0204 16:30:48.816335  3457 layer_factory.hpp:77] Creating layer conv3
I0204 16:30:48.816344  3457 net.cpp:106] Creating Layer conv3
I0204 16:30:48.816350  3457 net.cpp:454] conv3 <- norm2
I0204 16:30:48.816360  3457 net.cpp:411] conv3 -> conv3
I0204 16:30:48.816395  3457 net.cpp:150] Setting up conv3
I0204 16:30:48.816406  3457 net.cpp:157] Top shape: 100 8 13 13 (135200)
I0204 16:30:48.816411  3457 net.cpp:165] Memory required for data: 50926400
I0204 16:30:48.816422  3457 layer_factory.hpp:77] Creating layer relu3
I0204 16:30:48.816431  3457 net.cpp:106] Creating Layer relu3
I0204 16:30:48.816437  3457 net.cpp:454] relu3 <- conv3
I0204 16:30:48.816443  3457 net.cpp:397] relu3 -> conv3 (in-place)
I0204 16:30:48.816452  3457 net.cpp:150] Setting up relu3
I0204 16:30:48.816458  3457 net.cpp:157] Top shape: 100 8 13 13 (135200)
I0204 16:30:48.816463  3457 net.cpp:165] Memory required for data: 51467200
I0204 16:30:48.816469  3457 layer_factory.hpp:77] Creating layer conv4
I0204 16:30:48.816479  3457 net.cpp:106] Creating Layer conv4
I0204 16:30:48.816484  3457 net.cpp:454] conv4 <- conv3
I0204 16:30:48.816493  3457 net.cpp:411] conv4 -> conv4
I0204 16:30:48.816516  3457 net.cpp:150] Setting up conv4
I0204 16:30:48.816524  3457 net.cpp:157] Top shape: 100 8 13 13 (135200)
I0204 16:30:48.816529  3457 net.cpp:165] Memory required for data: 52008000
I0204 16:30:48.816537  3457 layer_factory.hpp:77] Creating layer relu4
I0204 16:30:48.816545  3457 net.cpp:106] Creating Layer relu4
I0204 16:30:48.816553  3457 net.cpp:454] relu4 <- conv4
I0204 16:30:48.816562  3457 net.cpp:397] relu4 -> conv4 (in-place)
I0204 16:30:48.816570  3457 net.cpp:150] Setting up relu4
I0204 16:30:48.816577  3457 net.cpp:157] Top shape: 100 8 13 13 (135200)
I0204 16:30:48.816582  3457 net.cpp:165] Memory required for data: 52548800
I0204 16:30:48.816588  3457 layer_factory.hpp:77] Creating layer conv5
I0204 16:30:48.816597  3457 net.cpp:106] Creating Layer conv5
I0204 16:30:48.816603  3457 net.cpp:454] conv5 <- conv4
I0204 16:30:48.816612  3457 net.cpp:411] conv5 -> conv5
I0204 16:30:48.816633  3457 net.cpp:150] Setting up conv5
I0204 16:30:48.816640  3457 net.cpp:157] Top shape: 100 8 13 13 (135200)
I0204 16:30:48.816648  3457 net.cpp:165] Memory required for data: 53089600
I0204 16:30:48.816659  3457 layer_factory.hpp:77] Creating layer relu5
I0204 16:30:48.816668  3457 net.cpp:106] Creating Layer relu5
I0204 16:30:48.816673  3457 net.cpp:454] relu5 <- conv5
I0204 16:30:48.816680  3457 net.cpp:397] relu5 -> conv5 (in-place)
I0204 16:30:48.816689  3457 net.cpp:150] Setting up relu5
I0204 16:30:48.816694  3457 net.cpp:157] Top shape: 100 8 13 13 (135200)
I0204 16:30:48.816700  3457 net.cpp:165] Memory required for data: 53630400
I0204 16:30:48.816705  3457 layer_factory.hpp:77] Creating layer pool5
I0204 16:30:48.816715  3457 net.cpp:106] Creating Layer pool5
I0204 16:30:48.816721  3457 net.cpp:454] pool5 <- conv5
I0204 16:30:48.816731  3457 net.cpp:411] pool5 -> pool5
I0204 16:30:48.816746  3457 net.cpp:150] Setting up pool5
I0204 16:30:48.816759  3457 net.cpp:157] Top shape: 100 8 6 6 (28800)
I0204 16:30:48.816764  3457 net.cpp:165] Memory required for data: 53745600
I0204 16:30:48.816771  3457 layer_factory.hpp:77] Creating layer fc6
I0204 16:30:48.816781  3457 net.cpp:106] Creating Layer fc6
I0204 16:30:48.816787  3457 net.cpp:454] fc6 <- pool5
I0204 16:30:48.816797  3457 net.cpp:411] fc6 -> fc6
I0204 16:30:48.817533  3457 net.cpp:150] Setting up fc6
I0204 16:30:48.817544  3457 net.cpp:157] Top shape: 100 256 (25600)
I0204 16:30:48.817549  3457 net.cpp:165] Memory required for data: 53848000
I0204 16:30:48.817558  3457 layer_factory.hpp:77] Creating layer relu6
I0204 16:30:48.817566  3457 net.cpp:106] Creating Layer relu6
I0204 16:30:48.817574  3457 net.cpp:454] relu6 <- fc6
I0204 16:30:48.817582  3457 net.cpp:397] relu6 -> fc6 (in-place)
I0204 16:30:48.817590  3457 net.cpp:150] Setting up relu6
I0204 16:30:48.817597  3457 net.cpp:157] Top shape: 100 256 (25600)
I0204 16:30:48.817602  3457 net.cpp:165] Memory required for data: 53950400
I0204 16:30:48.817608  3457 layer_factory.hpp:77] Creating layer drop6
I0204 16:30:48.817617  3457 net.cpp:106] Creating Layer drop6
I0204 16:30:48.817625  3457 net.cpp:454] drop6 <- fc6
I0204 16:30:48.817632  3457 net.cpp:397] drop6 -> fc6 (in-place)
I0204 16:30:48.817643  3457 net.cpp:150] Setting up drop6
I0204 16:30:48.817651  3457 net.cpp:157] Top shape: 100 256 (25600)
I0204 16:30:48.817656  3457 net.cpp:165] Memory required for data: 54052800
I0204 16:30:48.817662  3457 layer_factory.hpp:77] Creating layer fc7
I0204 16:30:48.817672  3457 net.cpp:106] Creating Layer fc7
I0204 16:30:48.817677  3457 net.cpp:454] fc7 <- fc6
I0204 16:30:48.817687  3457 net.cpp:411] fc7 -> fc7
I0204 16:30:48.818382  3457 net.cpp:150] Setting up fc7
I0204 16:30:48.818394  3457 net.cpp:157] Top shape: 100 256 (25600)
I0204 16:30:48.818399  3457 net.cpp:165] Memory required for data: 54155200
I0204 16:30:48.818408  3457 layer_factory.hpp:77] Creating layer relu7
I0204 16:30:48.818415  3457 net.cpp:106] Creating Layer relu7
I0204 16:30:48.818421  3457 net.cpp:454] relu7 <- fc7
I0204 16:30:48.818434  3457 net.cpp:397] relu7 -> fc7 (in-place)
I0204 16:30:48.818442  3457 net.cpp:150] Setting up relu7
I0204 16:30:48.818449  3457 net.cpp:157] Top shape: 100 256 (25600)
I0204 16:30:48.818454  3457 net.cpp:165] Memory required for data: 54257600
I0204 16:30:48.818460  3457 layer_factory.hpp:77] Creating layer drop7
I0204 16:30:48.818469  3457 net.cpp:106] Creating Layer drop7
I0204 16:30:48.818475  3457 net.cpp:454] drop7 <- fc7
I0204 16:30:48.818483  3457 net.cpp:397] drop7 -> fc7 (in-place)
I0204 16:30:48.818492  3457 net.cpp:150] Setting up drop7
I0204 16:30:48.818500  3457 net.cpp:157] Top shape: 100 256 (25600)
I0204 16:30:48.818505  3457 net.cpp:165] Memory required for data: 54360000
I0204 16:30:48.818511  3457 layer_factory.hpp:77] Creating layer fc8
I0204 16:30:48.818522  3457 net.cpp:106] Creating Layer fc8
I0204 16:30:48.818528  3457 net.cpp:454] fc8 <- fc7
I0204 16:30:48.818538  3457 net.cpp:411] fc8 -> fc8
I0204 16:30:48.818560  3457 net.cpp:150] Setting up fc8
I0204 16:30:48.818570  3457 net.cpp:157] Top shape: 100 2 (200)
I0204 16:30:48.818575  3457 net.cpp:165] Memory required for data: 54360800
I0204 16:30:48.818583  3457 layer_factory.hpp:77] Creating layer fc8_fc8_0_split
I0204 16:30:48.818593  3457 net.cpp:106] Creating Layer fc8_fc8_0_split
I0204 16:30:48.818599  3457 net.cpp:454] fc8_fc8_0_split <- fc8
I0204 16:30:48.818606  3457 net.cpp:411] fc8_fc8_0_split -> fc8_fc8_0_split_0
I0204 16:30:48.818614  3457 net.cpp:411] fc8_fc8_0_split -> fc8_fc8_0_split_1
I0204 16:30:48.818624  3457 net.cpp:150] Setting up fc8_fc8_0_split
I0204 16:30:48.818630  3457 net.cpp:157] Top shape: 100 2 (200)
I0204 16:30:48.818637  3457 net.cpp:157] Top shape: 100 2 (200)
I0204 16:30:48.818642  3457 net.cpp:165] Memory required for data: 54362400
I0204 16:30:48.818647  3457 layer_factory.hpp:77] Creating layer accuracy
I0204 16:30:48.818661  3457 net.cpp:106] Creating Layer accuracy
I0204 16:30:48.818671  3457 net.cpp:454] accuracy <- fc8_fc8_0_split_0
I0204 16:30:48.818684  3457 net.cpp:454] accuracy <- label_data_1_split_0
I0204 16:30:48.818694  3457 net.cpp:411] accuracy -> accuracy
…
