…
I0205 06:12:44.466266 12584 net.cpp:322] The NetState phase (0) differed from the phase (1) specified by a rule in layer accuracy
I0205 06:12:44.466516 12584 net.cpp:49] Initializing net from parameters: 
name: "CaffeNet"
state {
  phase: TRAIN
}
layer {
  name: "data"
  type: "Data"
  top: "data"
  top: "label"
  include {
    phase: TRAIN
  }
  transform_param {
    mirror: true
    crop_size: 227
    mean_file: "/home/pearlstl/proj_cv/master/lmdb/synth1_train_lum_db/mean_file.binaryproto"
  }
  data_param {
    source: "/home/pearlstl/proj_cv/master/lmdb/synth1_train_lum_db"
    batch_size: 100
    backend: LMDB
  }
}
layer {
  name: "conv1"
  type: "Convolution"
  bottom: "data"
  top: "conv1"
  param {
    lr_mult: 1
    decay_mult: 1
  }
  param {
    lr_mult: 2
    decay_mult: 0
  }
  convolution_param {
    num_output: 8
    kernel_size: 11
    stride: 4
    weight_filler {
      type: "xavier"
    }
    bias_filler {
      type: "constant"
      value: 0
    }
  }
}
layer {
  name: "relu1"
  type: "ReLU"
  bottom: "conv1"
  top: "conv1"
}
layer {
  name: "pool1"
  type: "Pooling"
  bottom: "conv1"
  top: "pool1"
  pooling_param {
    pool: MAX
    kernel_size: 3
    stride: 2
  }
}
layer {
  name: "norm1"
  type: "LRN"
  bottom: "pool1"
  top: "norm1"
  lrn_param {
    local_size: 5
    alpha: 0.0001
    beta: 0.75
  }
}
layer {
  name: "conv2"
  type: "Convolution"
  bottom: "norm1"
  top: "conv2"
  param {
    lr_mult: 1
    decay_mult: 1
  }
  param {
    lr_mult: 2
    decay_mult: 0
  }
  convolution_param {
    num_output: 8
    pad: 2
    kernel_size: 5
    group: 2
    weight_filler {
      type: "xavier"
    }
    bias_filler {
      type: "constant"
      value: 1
    }
  }
}
layer {
  name: "relu2"
  type: "ReLU"
  bottom: "conv2"
  top: "conv2"
}
layer {
  name: "pool2"
  type: "Pooling"
  bottom: "conv2"
  top: "pool2"
  pooling_param {
    pool: MAX
    kernel_size: 3
    stride: 2
  }
}
layer {
  name: "norm2"
  type: "LRN"
  bottom: "pool2"
  top: "norm2"
  lrn_param {
    local_size: 5
    alpha: 0.0001
    beta: 0.75
  }
}
layer {
  name: "conv3"
  type: "Convolution"
  bottom: "norm2"
  top: "conv3"
  param {
    lr_mult: 1
    decay_mult: 1
  }
  param {
    lr_mult: 2
    decay_mult: 0
  }
  convolution_param {
    num_output: 8
    pad: 1
    kernel_size: 3
    weight_filler {
      type: "xavier"
    }
    bias_filler {
      type: "constant"
      value: 0
    }
  }
}
layer {
  name: "relu3"
  type: "ReLU"
  bottom: "conv3"
  top: "conv3"
}
layer {
  name: "conv4"
  type: "Convolution"
  bottom: "conv3"
  top: "conv4"
  param {
    lr_mult: 1
    decay_mult: 1
  }
  param {
    lr_mult: 2
    decay_mult: 0
  }
  convolution_param {
    num_output: 8
    pad: 1
    kernel_size: 3
    group: 2
    weight_filler {
      type: "xavier"
    }
    bias_filler {
      type: "constant"
      value: 1
    }
  }
}
layer {
  name: "relu4"
  type: "ReLU"
  bottom: "conv4"
  top: "conv4"
}
layer {
  name: "conv5"
  type: "Convolution"
  bottom: "conv4"
  top: "conv5"
  param {
    lr_mult: 1
    decay_mult: 1
  }
  param {
    lr_mult: 2
    decay_mult: 0
  }
  convolution_param {
    num_output: 8
    pad: 1
    kernel_size: 3
    group: 2
    weight_filler {
      type: "xavier"
    }
    bias_filler {
      type: "constant"
      value: 1
    }
  }
}
layer {
  name: "relu5"
  type: "ReLU"
  bottom: "conv5"
  top: "conv5"
}
layer {
  name: "pool5"
  type: "Pooling"
  bottom: "conv5"
  top: "pool5"
  pooling_param {
    pool: MAX
    kernel_size: 3
    stride: 2
  }
}
layer {
  name: "fc6"
  type: "InnerProduct"
  bottom: "pool5"
  top: "fc6"
  param {
    lr_mult: 1
    decay_mult: 1
  }
  param {
    lr_mult: 2
    decay_mult: 0
  }
  inner_product_param {
    num_output: 256
    weight_filler {
      type: "xavier"
    }
    bias_filler {
      type: "constant"
      value: 1
    }
  }
}
layer {
  name: "relu6"
  type: "ReLU"
  bottom: "fc6"
  top: "fc6"
}
layer {
  name: "drop6"
  type: "Dropout"
  bottom: "fc6"
  top: "fc6"
  dropout_param {
    dropout_ratio: 0.5
  }
}
layer {
  name: "fc7"
  type: "InnerProduct"
  bottom: "fc6"
  top: "fc7"
  param {
    lr_mult: 1
    decay_mult: 1
  }
  param {
    lr_mult: 2
    decay_mult: 0
  }
  inner_product_param {
    num_output: 256
    weight_filler {
      type: "xavier"
    }
    bias_filler {
      type: "constant"
      value: 1
    }
  }
}
layer {
  name: "relu7"
  type: "ReLU"
  bottom: "fc7"
  top: "fc7"
}
layer {
  name: "drop7"
  type: "Dropout"
  bottom: "fc7"
  top: "fc7"
  dropout_param {
    dropout_ratio: 0.5
  }
}
layer {
  name: "fc8"
  type: "InnerProduct"
  bottom: "fc7"
  top: "fc8"
  param {
    lr_mult: 1
    decay_mult: 1
  }
  param {
    lr_mult: 2
    decay_mult: 0
  }
  inner_product_param {
    num_output: 2
    weight_filler {
      type: "xavier"
    }
    bias_filler {
      type: "constant"
      value: 0
    }
  }
}
layer {
  name: "loss"
  type: "SoftmaxWithLoss"
  bottom: "fc8"
  bottom: "label"
  top: "loss"
}
I0205 06:12:44.466657 12584 layer_factory.hpp:77] Creating layer data
I0205 06:12:44.466842 12584 net.cpp:106] Creating Layer data
I0205 06:12:44.466862 12584 net.cpp:411] data -> data
I0205 06:12:44.466958 12584 net.cpp:411] data -> label
I0205 06:12:44.466990 12584 data_transformer.cpp:25] Loading mean file from: /home/pearlstl/proj_cv/master/lmdb/synth1_train_lum_db/mean_file.binaryproto
I0205 06:12:44.467161 12585 db_lmdb.cpp:38] Opened lmdb /home/pearlstl/proj_cv/master/lmdb/synth1_train_lum_db
I0205 06:12:44.468119 12584 data_layer.cpp:41] output data size: 100,1,227,227
I0205 06:12:44.503989 12584 net.cpp:150] Setting up data
I0205 06:12:44.504053 12584 net.cpp:157] Top shape: 100 1 227 227 (5152900)
I0205 06:12:44.504063 12584 net.cpp:157] Top shape: 100 (100)
I0205 06:12:44.504070 12584 net.cpp:165] Memory required for data: 20612000
I0205 06:12:44.504091 12584 layer_factory.hpp:77] Creating layer conv1
I0205 06:12:44.504137 12584 net.cpp:106] Creating Layer conv1
I0205 06:12:44.504148 12584 net.cpp:454] conv1 <- data
I0205 06:12:44.504170 12584 net.cpp:411] conv1 -> conv1
I0205 06:12:44.504284 12584 net.cpp:150] Setting up conv1
I0205 06:12:44.504295 12584 net.cpp:157] Top shape: 100 8 55 55 (2420000)
I0205 06:12:44.504302 12584 net.cpp:165] Memory required for data: 30292000
I0205 06:12:44.504319 12584 layer_factory.hpp:77] Creating layer relu1
I0205 06:12:44.504333 12584 net.cpp:106] Creating Layer relu1
I0205 06:12:44.504338 12584 net.cpp:454] relu1 <- conv1
I0205 06:12:44.504348 12584 net.cpp:397] relu1 -> conv1 (in-place)
I0205 06:12:44.504362 12584 net.cpp:150] Setting up relu1
I0205 06:12:44.504370 12584 net.cpp:157] Top shape: 100 8 55 55 (2420000)
I0205 06:12:44.504375 12584 net.cpp:165] Memory required for data: 39972000
I0205 06:12:44.504381 12584 layer_factory.hpp:77] Creating layer pool1
I0205 06:12:44.504393 12584 net.cpp:106] Creating Layer pool1
I0205 06:12:44.504398 12584 net.cpp:454] pool1 <- conv1
I0205 06:12:44.504407 12584 net.cpp:411] pool1 -> pool1
I0205 06:12:44.504433 12584 net.cpp:150] Setting up pool1
I0205 06:12:44.504441 12584 net.cpp:157] Top shape: 100 8 27 27 (583200)
I0205 06:12:44.504446 12584 net.cpp:165] Memory required for data: 42304800
I0205 06:12:44.504452 12584 layer_factory.hpp:77] Creating layer norm1
I0205 06:12:44.504474 12584 net.cpp:106] Creating Layer norm1
I0205 06:12:44.504493 12584 net.cpp:454] norm1 <- pool1
I0205 06:12:44.504503 12584 net.cpp:411] norm1 -> norm1
I0205 06:12:44.504520 12584 net.cpp:150] Setting up norm1
I0205 06:12:44.504528 12584 net.cpp:157] Top shape: 100 8 27 27 (583200)
I0205 06:12:44.504534 12584 net.cpp:165] Memory required for data: 44637600
I0205 06:12:44.504539 12584 layer_factory.hpp:77] Creating layer conv2
I0205 06:12:44.504551 12584 net.cpp:106] Creating Layer conv2
I0205 06:12:44.504557 12584 net.cpp:454] conv2 <- norm1
I0205 06:12:44.504566 12584 net.cpp:411] conv2 -> conv2
I0205 06:12:44.504598 12584 net.cpp:150] Setting up conv2
I0205 06:12:44.504607 12584 net.cpp:157] Top shape: 100 8 27 27 (583200)
I0205 06:12:44.504613 12584 net.cpp:165] Memory required for data: 46970400
I0205 06:12:44.504624 12584 layer_factory.hpp:77] Creating layer relu2
I0205 06:12:44.504633 12584 net.cpp:106] Creating Layer relu2
I0205 06:12:44.504639 12584 net.cpp:454] relu2 <- conv2
I0205 06:12:44.504647 12584 net.cpp:397] relu2 -> conv2 (in-place)
I0205 06:12:44.504655 12584 net.cpp:150] Setting up relu2
I0205 06:12:44.504662 12584 net.cpp:157] Top shape: 100 8 27 27 (583200)
I0205 06:12:44.504667 12584 net.cpp:165] Memory required for data: 49303200
I0205 06:12:44.504673 12584 layer_factory.hpp:77] Creating layer pool2
I0205 06:12:44.504681 12584 net.cpp:106] Creating Layer pool2
I0205 06:12:44.504688 12584 net.cpp:454] pool2 <- conv2
I0205 06:12:44.504695 12584 net.cpp:411] pool2 -> pool2
I0205 06:12:44.504704 12584 net.cpp:150] Setting up pool2
I0205 06:12:44.504711 12584 net.cpp:157] Top shape: 100 8 13 13 (135200)
I0205 06:12:44.504716 12584 net.cpp:165] Memory required for data: 49844000
I0205 06:12:44.504721 12584 layer_factory.hpp:77] Creating layer norm2
I0205 06:12:44.504731 12584 net.cpp:106] Creating Layer norm2
I0205 06:12:44.504739 12584 net.cpp:454] norm2 <- pool2
I0205 06:12:44.504747 12584 net.cpp:411] norm2 -> norm2
I0205 06:12:44.504757 12584 net.cpp:150] Setting up norm2
I0205 06:12:44.504763 12584 net.cpp:157] Top shape: 100 8 13 13 (135200)
I0205 06:12:44.504768 12584 net.cpp:165] Memory required for data: 50384800
I0205 06:12:44.504776 12584 layer_factory.hpp:77] Creating layer conv3
I0205 06:12:44.504787 12584 net.cpp:106] Creating Layer conv3
I0205 06:12:44.504793 12584 net.cpp:454] conv3 <- norm2
I0205 06:12:44.504802 12584 net.cpp:411] conv3 -> conv3
I0205 06:12:44.504830 12584 net.cpp:150] Setting up conv3
I0205 06:12:44.504838 12584 net.cpp:157] Top shape: 100 8 13 13 (135200)
I0205 06:12:44.504843 12584 net.cpp:165] Memory required for data: 50925600
I0205 06:12:44.504853 12584 layer_factory.hpp:77] Creating layer relu3
I0205 06:12:44.504861 12584 net.cpp:106] Creating Layer relu3
I0205 06:12:44.504868 12584 net.cpp:454] relu3 <- conv3
I0205 06:12:44.504878 12584 net.cpp:397] relu3 -> conv3 (in-place)
I0205 06:12:44.504885 12584 net.cpp:150] Setting up relu3
I0205 06:12:44.504891 12584 net.cpp:157] Top shape: 100 8 13 13 (135200)
I0205 06:12:44.504896 12584 net.cpp:165] Memory required for data: 51466400
I0205 06:12:44.504901 12584 layer_factory.hpp:77] Creating layer conv4
I0205 06:12:44.504914 12584 net.cpp:106] Creating Layer conv4
I0205 06:12:44.504919 12584 net.cpp:454] conv4 <- conv3
I0205 06:12:44.504926 12584 net.cpp:411] conv4 -> conv4
I0205 06:12:44.504948 12584 net.cpp:150] Setting up conv4
I0205 06:12:44.504956 12584 net.cpp:157] Top shape: 100 8 13 13 (135200)
I0205 06:12:44.504961 12584 net.cpp:165] Memory required for data: 52007200
I0205 06:12:44.504974 12584 layer_factory.hpp:77] Creating layer relu4
I0205 06:12:44.504982 12584 net.cpp:106] Creating Layer relu4
I0205 06:12:44.504988 12584 net.cpp:454] relu4 <- conv4
I0205 06:12:44.504995 12584 net.cpp:397] relu4 -> conv4 (in-place)
I0205 06:12:44.505005 12584 net.cpp:150] Setting up relu4
I0205 06:12:44.505012 12584 net.cpp:157] Top shape: 100 8 13 13 (135200)
I0205 06:12:44.505018 12584 net.cpp:165] Memory required for data: 52548000
I0205 06:12:44.505023 12584 layer_factory.hpp:77] Creating layer conv5
I0205 06:12:44.505040 12584 net.cpp:106] Creating Layer conv5
I0205 06:12:44.505051 12584 net.cpp:454] conv5 <- conv4
I0205 06:12:44.505061 12584 net.cpp:411] conv5 -> conv5
I0205 06:12:44.505085 12584 net.cpp:150] Setting up conv5
I0205 06:12:44.505095 12584 net.cpp:157] Top shape: 100 8 13 13 (135200)
I0205 06:12:44.505100 12584 net.cpp:165] Memory required for data: 53088800
I0205 06:12:44.505110 12584 layer_factory.hpp:77] Creating layer relu5
I0205 06:12:44.505118 12584 net.cpp:106] Creating Layer relu5
I0205 06:12:44.505125 12584 net.cpp:454] relu5 <- conv5
I0205 06:12:44.505131 12584 net.cpp:397] relu5 -> conv5 (in-place)
I0205 06:12:44.505141 12584 net.cpp:150] Setting up relu5
I0205 06:12:44.505148 12584 net.cpp:157] Top shape: 100 8 13 13 (135200)
I0205 06:12:44.505153 12584 net.cpp:165] Memory required for data: 53629600
I0205 06:12:44.505158 12584 layer_factory.hpp:77] Creating layer pool5
I0205 06:12:44.505168 12584 net.cpp:106] Creating Layer pool5
I0205 06:12:44.505173 12584 net.cpp:454] pool5 <- conv5
I0205 06:12:44.505182 12584 net.cpp:411] pool5 -> pool5
I0205 06:12:44.505192 12584 net.cpp:150] Setting up pool5
I0205 06:12:44.505198 12584 net.cpp:157] Top shape: 100 8 6 6 (28800)
I0205 06:12:44.505204 12584 net.cpp:165] Memory required for data: 53744800
I0205 06:12:44.505209 12584 layer_factory.hpp:77] Creating layer fc6
I0205 06:12:44.505225 12584 net.cpp:106] Creating Layer fc6
I0205 06:12:44.505231 12584 net.cpp:454] fc6 <- pool5
I0205 06:12:44.505240 12584 net.cpp:411] fc6 -> fc6
I0205 06:12:44.506073 12584 net.cpp:150] Setting up fc6
I0205 06:12:44.506088 12584 net.cpp:157] Top shape: 100 256 (25600)
I0205 06:12:44.506094 12584 net.cpp:165] Memory required for data: 53847200
I0205 06:12:44.506103 12584 layer_factory.hpp:77] Creating layer relu6
I0205 06:12:44.506113 12584 net.cpp:106] Creating Layer relu6
I0205 06:12:44.506119 12584 net.cpp:454] relu6 <- fc6
I0205 06:12:44.506127 12584 net.cpp:397] relu6 -> fc6 (in-place)
I0205 06:12:44.506137 12584 net.cpp:150] Setting up relu6
I0205 06:12:44.506144 12584 net.cpp:157] Top shape: 100 256 (25600)
I0205 06:12:44.506148 12584 net.cpp:165] Memory required for data: 53949600
I0205 06:12:44.506155 12584 layer_factory.hpp:77] Creating layer drop6
I0205 06:12:44.506165 12584 net.cpp:106] Creating Layer drop6
I0205 06:12:44.506171 12584 net.cpp:454] drop6 <- fc6
I0205 06:12:44.506178 12584 net.cpp:397] drop6 -> fc6 (in-place)
I0205 06:12:44.506196 12584 net.cpp:150] Setting up drop6
I0205 06:12:44.506202 12584 net.cpp:157] Top shape: 100 256 (25600)
I0205 06:12:44.506207 12584 net.cpp:165] Memory required for data: 54052000
I0205 06:12:44.506213 12584 layer_factory.hpp:77] Creating layer fc7
I0205 06:12:44.506225 12584 net.cpp:106] Creating Layer fc7
I0205 06:12:44.506233 12584 net.cpp:454] fc7 <- fc6
I0205 06:12:44.506242 12584 net.cpp:411] fc7 -> fc7
I0205 06:12:44.506932 12584 net.cpp:150] Setting up fc7
I0205 06:12:44.506944 12584 net.cpp:157] Top shape: 100 256 (25600)
I0205 06:12:44.506950 12584 net.cpp:165] Memory required for data: 54154400
I0205 06:12:44.506958 12584 layer_factory.hpp:77] Creating layer relu7
I0205 06:12:44.506973 12584 net.cpp:106] Creating Layer relu7
I0205 06:12:44.506981 12584 net.cpp:454] relu7 <- fc7
I0205 06:12:44.506989 12584 net.cpp:397] relu7 -> fc7 (in-place)
I0205 06:12:44.506997 12584 net.cpp:150] Setting up relu7
I0205 06:12:44.507004 12584 net.cpp:157] Top shape: 100 256 (25600)
I0205 06:12:44.507009 12584 net.cpp:165] Memory required for data: 54256800
I0205 06:12:44.507015 12584 layer_factory.hpp:77] Creating layer drop7
I0205 06:12:44.507027 12584 net.cpp:106] Creating Layer drop7
I0205 06:12:44.507035 12584 net.cpp:454] drop7 <- fc7
I0205 06:12:44.507041 12584 net.cpp:397] drop7 -> fc7 (in-place)
I0205 06:12:44.507051 12584 net.cpp:150] Setting up drop7
I0205 06:12:44.507057 12584 net.cpp:157] Top shape: 100 256 (25600)
I0205 06:12:44.507062 12584 net.cpp:165] Memory required for data: 54359200
I0205 06:12:44.507068 12584 layer_factory.hpp:77] Creating layer fc8
I0205 06:12:44.507082 12584 net.cpp:106] Creating Layer fc8
I0205 06:12:44.507092 12584 net.cpp:454] fc8 <- fc7
I0205 06:12:44.507107 12584 net.cpp:411] fc8 -> fc8
I0205 06:12:44.507141 12584 net.cpp:150] Setting up fc8
I0205 06:12:44.507149 12584 net.cpp:157] Top shape: 100 2 (200)
I0205 06:12:44.507154 12584 net.cpp:165] Memory required for data: 54360000
I0205 06:12:44.507164 12584 layer_factory.hpp:77] Creating layer loss
I0205 06:12:44.507174 12584 net.cpp:106] Creating Layer loss
I0205 06:12:44.507179 12584 net.cpp:454] loss <- fc8
I0205 06:12:44.507186 12584 net.cpp:454] loss <- label
I0205 06:12:44.507197 12584 net.cpp:411] loss -> loss
I0205 06:12:44.507211 12584 layer_factory.hpp:77] Creating layer loss
…
I0205 06:12:44.508285 12584 net.cpp:322] The NetState phase (1) differed from the phase (0) specified by a rule in layer data
I0205 06:12:44.508584 12584 net.cpp:49] Initializing net from parameters: 
name: "CaffeNet"
state {
  phase: TEST
}
layer {
  name: "data"
  type: "Data"
  top: "data"
  top: "label"
  include {
    phase: TEST
  }
  transform_param {
    mirror: false
    crop_size: 227
    mean_file: "/home/pearlstl/proj_cv/master/lmdb/synth1_test_lum_db/mean_file.binaryproto"
  }
  data_param {
    source: "/home/pearlstl/proj_cv/master/lmdb/synth1_test_lum_db"
    batch_size: 100
    backend: LMDB
  }
}
layer {
  name: "conv1"
  type: "Convolution"
  bottom: "data"
  top: "conv1"
  param {
    lr_mult: 1
    decay_mult: 1
  }
  param {
    lr_mult: 2
    decay_mult: 0
  }
  convolution_param {
    num_output: 8
    kernel_size: 11
    stride: 4
    weight_filler {
      type: "xavier"
    }
    bias_filler {
      type: "constant"
      value: 0
    }
  }
}
layer {
  name: "relu1"
  type: "ReLU"
  bottom: "conv1"
  top: "conv1"
}
layer {
  name: "pool1"
  type: "Pooling"
  bottom: "conv1"
  top: "pool1"
  pooling_param {
    pool: MAX
    kernel_size: 3
    stride: 2
  }
}
layer {
  name: "norm1"
  type: "LRN"
  bottom: "pool1"
  top: "norm1"
  lrn_param {
    local_size: 5
    alpha: 0.0001
    beta: 0.75
  }
}
layer {
  name: "conv2"
  type: "Convolution"
  bottom: "norm1"
  top: "conv2"
  param {
    lr_mult: 1
    decay_mult: 1
  }
  param {
    lr_mult: 2
    decay_mult: 0
  }
  convolution_param {
    num_output: 8
    pad: 2
    kernel_size: 5
    group: 2
    weight_filler {
      type: "xavier"
    }
    bias_filler {
      type: "constant"
      value: 1
    }
  }
}
layer {
  name: "relu2"
  type: "ReLU"
  bottom: "conv2"
  top: "conv2"
}
layer {
  name: "pool2"
  type: "Pooling"
  bottom: "conv2"
  top: "pool2"
  pooling_param {
    pool: MAX
    kernel_size: 3
    stride: 2
  }
}
layer {
  name: "norm2"
  type: "LRN"
  bottom: "pool2"
  top: "norm2"
  lrn_param {
    local_size: 5
    alpha: 0.0001
    beta: 0.75
  }
}
layer {
  name: "conv3"
  type: "Convolution"
  bottom: "norm2"
  top: "conv3"
  param {
    lr_mult: 1
    decay_mult: 1
  }
  param {
    lr_mult: 2
    decay_mult: 0
  }
  convolution_param {
    num_output: 8
    pad: 1
    kernel_size: 3
    weight_filler {
      type: "xavier"
    }
    bias_filler {
      type: "constant"
      value: 0
    }
  }
}
layer {
  name: "relu3"
  type: "ReLU"
  bottom: "conv3"
  top: "conv3"
}
layer {
  name: "conv4"
  type: "Convolution"
  bottom: "conv3"
  top: "conv4"
  param {
    lr_mult: 1
    decay_mult: 1
  }
  param {
    lr_mult: 2
    decay_mult: 0
  }
  convolution_param {
    num_output: 8
    pad: 1
    kernel_size: 3
    group: 2
    weight_filler {
      type: "xavier"
    }
    bias_filler {
      type: "constant"
      value: 1
    }
  }
}
layer {
  name: "relu4"
  type: "ReLU"
  bottom: "conv4"
  top: "conv4"
}
layer {
  name: "conv5"
  type: "Convolution"
  bottom: "conv4"
  top: "conv5"
  param {
    lr_mult: 1
    decay_mult: 1
  }
  param {
    lr_mult: 2
    decay_mult: 0
  }
  convolution_param {
    num_output: 8
    pad: 1
    kernel_size: 3
    group: 2
    weight_filler {
      type: "xavier"
    }
    bias_filler {
      type: "constant"
      value: 1
    }
  }
}
layer {
  name: "relu5"
  type: "ReLU"
  bottom: "conv5"
  top: "conv5"
}
layer {
  name: "pool5"
  type: "Pooling"
  bottom: "conv5"
  top: "pool5"
  pooling_param {
    pool: MAX
    kernel_size: 3
    stride: 2
  }
}
layer {
  name: "fc6"
  type: "InnerProduct"
  bottom: "pool5"
  top: "fc6"
  param {
    lr_mult: 1
    decay_mult: 1
  }
  param {
    lr_mult: 2
    decay_mult: 0
  }
  inner_product_param {
    num_output: 256
    weight_filler {
      type: "xavier"
    }
    bias_filler {
      type: "constant"
      value: 1
    }
  }
}
layer {
  name: "relu6"
  type: "ReLU"
  bottom: "fc6"
  top: "fc6"
}
layer {
  name: "drop6"
  type: "Dropout"
  bottom: "fc6"
  top: "fc6"
  dropout_param {
    dropout_ratio: 0.5
  }
}
layer {
  name: "fc7"
  type: "InnerProduct"
  bottom: "fc6"
  top: "fc7"
  param {
    lr_mult: 1
    decay_mult: 1
  }
  param {
    lr_mult: 2
    decay_mult: 0
  }
  inner_product_param {
    num_output: 256
    weight_filler {
      type: "xavier"
    }
    bias_filler {
      type: "constant"
      value: 1
    }
  }
}
layer {
  name: "relu7"
  type: "ReLU"
  bottom: "fc7"
  top: "fc7"
}
layer {
  name: "drop7"
  type: "Dropout"
  bottom: "fc7"
  top: "fc7"
  dropout_param {
    dropout_ratio: 0.5
  }
}
layer {
  name: "fc8"
  type: "InnerProduct"
  bottom: "fc7"
  top: "fc8"
  param {
    lr_mult: 1
    decay_mult: 1
  }
  param {
    lr_mult: 2
    decay_mult: 0
  }
  inner_product_param {
    num_output: 2
    weight_filler {
      type: "xavier"
    }
    bias_filler {
      type: "constant"
      value: 0
    }
  }
}
layer {
  name: "accuracy"
  type: "Accuracy"
  bottom: "fc8"
  bottom: "label"
  top: "accuracy"
  include {
    phase: TEST
  }
}
layer {
  name: "loss"
  type: "SoftmaxWithLoss"
  bottom: "fc8"
  bottom: "label"
  top: "loss"
}
I0205 06:12:44.508761 12584 layer_factory.hpp:77] Creating layer data
I0205 06:12:44.508925 12584 net.cpp:106] Creating Layer data
I0205 06:12:44.508940 12584 net.cpp:411] data -> data
I0205 06:12:44.508955 12584 net.cpp:411] data -> label
I0205 06:12:44.508972 12584 data_transformer.cpp:25] Loading mean file from: /home/pearlstl/proj_cv/master/lmdb/synth1_test_lum_db/mean_file.binaryproto
I0205 06:12:44.509237 12589 db_lmdb.cpp:38] Opened lmdb /home/pearlstl/proj_cv/master/lmdb/synth1_test_lum_db
I0205 06:12:44.509935 12584 data_layer.cpp:41] output data size: 100,1,227,227
I0205 06:12:44.543457 12584 net.cpp:150] Setting up data
I0205 06:12:44.543488 12584 net.cpp:157] Top shape: 100 1 227 227 (5152900)
I0205 06:12:44.543495 12584 net.cpp:157] Top shape: 100 (100)
I0205 06:12:44.543501 12584 net.cpp:165] Memory required for data: 20612000
I0205 06:12:44.543510 12584 layer_factory.hpp:77] Creating layer label_data_1_split
I0205 06:12:44.543527 12584 net.cpp:106] Creating Layer label_data_1_split
I0205 06:12:44.543534 12584 net.cpp:454] label_data_1_split <- label
I0205 06:12:44.543546 12584 net.cpp:411] label_data_1_split -> label_data_1_split_0
I0205 06:12:44.543560 12584 net.cpp:411] label_data_1_split -> label_data_1_split_1
I0205 06:12:44.543572 12584 net.cpp:150] Setting up label_data_1_split
I0205 06:12:44.543579 12584 net.cpp:157] Top shape: 100 (100)
I0205 06:12:44.543586 12584 net.cpp:157] Top shape: 100 (100)
I0205 06:12:44.543591 12584 net.cpp:165] Memory required for data: 20612800
I0205 06:12:44.543598 12584 layer_factory.hpp:77] Creating layer conv1
I0205 06:12:44.543612 12584 net.cpp:106] Creating Layer conv1
I0205 06:12:44.543618 12584 net.cpp:454] conv1 <- data
I0205 06:12:44.543627 12584 net.cpp:411] conv1 -> conv1
I0205 06:12:44.543678 12584 net.cpp:150] Setting up conv1
I0205 06:12:44.543689 12584 net.cpp:157] Top shape: 100 8 55 55 (2420000)
I0205 06:12:44.543694 12584 net.cpp:165] Memory required for data: 30292800
I0205 06:12:44.543709 12584 layer_factory.hpp:77] Creating layer relu1
I0205 06:12:44.543720 12584 net.cpp:106] Creating Layer relu1
I0205 06:12:44.543727 12584 net.cpp:454] relu1 <- conv1
I0205 06:12:44.543736 12584 net.cpp:397] relu1 -> conv1 (in-place)
I0205 06:12:44.543745 12584 net.cpp:150] Setting up relu1
I0205 06:12:44.543752 12584 net.cpp:157] Top shape: 100 8 55 55 (2420000)
I0205 06:12:44.543757 12584 net.cpp:165] Memory required for data: 39972800
I0205 06:12:44.543763 12584 layer_factory.hpp:77] Creating layer pool1
I0205 06:12:44.543774 12584 net.cpp:106] Creating Layer pool1
I0205 06:12:44.543779 12584 net.cpp:454] pool1 <- conv1
I0205 06:12:44.543788 12584 net.cpp:411] pool1 -> pool1
I0205 06:12:44.543802 12584 net.cpp:150] Setting up pool1
I0205 06:12:44.543809 12584 net.cpp:157] Top shape: 100 8 27 27 (583200)
I0205 06:12:44.543815 12584 net.cpp:165] Memory required for data: 42305600
I0205 06:12:44.543820 12584 layer_factory.hpp:77] Creating layer norm1
I0205 06:12:44.543831 12584 net.cpp:106] Creating Layer norm1
I0205 06:12:44.543838 12584 net.cpp:454] norm1 <- pool1
I0205 06:12:44.543845 12584 net.cpp:411] norm1 -> norm1
I0205 06:12:44.543855 12584 net.cpp:150] Setting up norm1
I0205 06:12:44.543862 12584 net.cpp:157] Top shape: 100 8 27 27 (583200)
I0205 06:12:44.543869 12584 net.cpp:165] Memory required for data: 44638400
I0205 06:12:44.543876 12584 layer_factory.hpp:77] Creating layer conv2
I0205 06:12:44.543886 12584 net.cpp:106] Creating Layer conv2
I0205 06:12:44.543892 12584 net.cpp:454] conv2 <- norm1
I0205 06:12:44.543901 12584 net.cpp:411] conv2 -> conv2
I0205 06:12:44.543931 12584 net.cpp:150] Setting up conv2
I0205 06:12:44.543941 12584 net.cpp:157] Top shape: 100 8 27 27 (583200)
I0205 06:12:44.543946 12584 net.cpp:165] Memory required for data: 46971200
I0205 06:12:44.543956 12584 layer_factory.hpp:77] Creating layer relu2
I0205 06:12:44.543970 12584 net.cpp:106] Creating Layer relu2
I0205 06:12:44.543977 12584 net.cpp:454] relu2 <- conv2
I0205 06:12:44.543984 12584 net.cpp:397] relu2 -> conv2 (in-place)
I0205 06:12:44.544005 12584 net.cpp:150] Setting up relu2
I0205 06:12:44.544021 12584 net.cpp:157] Top shape: 100 8 27 27 (583200)
I0205 06:12:44.544028 12584 net.cpp:165] Memory required for data: 49304000
I0205 06:12:44.544036 12584 layer_factory.hpp:77] Creating layer pool2
I0205 06:12:44.544046 12584 net.cpp:106] Creating Layer pool2
I0205 06:12:44.544052 12584 net.cpp:454] pool2 <- conv2
I0205 06:12:44.544059 12584 net.cpp:411] pool2 -> pool2
I0205 06:12:44.544072 12584 net.cpp:150] Setting up pool2
I0205 06:12:44.544080 12584 net.cpp:157] Top shape: 100 8 13 13 (135200)
I0205 06:12:44.544085 12584 net.cpp:165] Memory required for data: 49844800
I0205 06:12:44.544091 12584 layer_factory.hpp:77] Creating layer norm2
I0205 06:12:44.544100 12584 net.cpp:106] Creating Layer norm2
I0205 06:12:44.544106 12584 net.cpp:454] norm2 <- pool2
I0205 06:12:44.544114 12584 net.cpp:411] norm2 -> norm2
I0205 06:12:44.544123 12584 net.cpp:150] Setting up norm2
I0205 06:12:44.544131 12584 net.cpp:157] Top shape: 100 8 13 13 (135200)
I0205 06:12:44.544136 12584 net.cpp:165] Memory required for data: 50385600
I0205 06:12:44.544140 12584 layer_factory.hpp:77] Creating layer conv3
I0205 06:12:44.544152 12584 net.cpp:106] Creating Layer conv3
I0205 06:12:44.544157 12584 net.cpp:454] conv3 <- norm2
I0205 06:12:44.544164 12584 net.cpp:411] conv3 -> conv3
I0205 06:12:44.544193 12584 net.cpp:150] Setting up conv3
I0205 06:12:44.544201 12584 net.cpp:157] Top shape: 100 8 13 13 (135200)
I0205 06:12:44.544206 12584 net.cpp:165] Memory required for data: 50926400
I0205 06:12:44.544216 12584 layer_factory.hpp:77] Creating layer relu3
I0205 06:12:44.544225 12584 net.cpp:106] Creating Layer relu3
I0205 06:12:44.544231 12584 net.cpp:454] relu3 <- conv3
I0205 06:12:44.544241 12584 net.cpp:397] relu3 -> conv3 (in-place)
I0205 06:12:44.544250 12584 net.cpp:150] Setting up relu3
I0205 06:12:44.544257 12584 net.cpp:157] Top shape: 100 8 13 13 (135200)
I0205 06:12:44.544262 12584 net.cpp:165] Memory required for data: 51467200
I0205 06:12:44.544267 12584 layer_factory.hpp:77] Creating layer conv4
I0205 06:12:44.544277 12584 net.cpp:106] Creating Layer conv4
I0205 06:12:44.544282 12584 net.cpp:454] conv4 <- conv3
I0205 06:12:44.544291 12584 net.cpp:411] conv4 -> conv4
I0205 06:12:44.544311 12584 net.cpp:150] Setting up conv4
I0205 06:12:44.544318 12584 net.cpp:157] Top shape: 100 8 13 13 (135200)
I0205 06:12:44.544323 12584 net.cpp:165] Memory required for data: 52008000
I0205 06:12:44.544332 12584 layer_factory.hpp:77] Creating layer relu4
I0205 06:12:44.544340 12584 net.cpp:106] Creating Layer relu4
I0205 06:12:44.544345 12584 net.cpp:454] relu4 <- conv4
I0205 06:12:44.544353 12584 net.cpp:397] relu4 -> conv4 (in-place)
I0205 06:12:44.544360 12584 net.cpp:150] Setting up relu4
I0205 06:12:44.544369 12584 net.cpp:157] Top shape: 100 8 13 13 (135200)
I0205 06:12:44.544374 12584 net.cpp:165] Memory required for data: 52548800
I0205 06:12:44.544380 12584 layer_factory.hpp:77] Creating layer conv5
I0205 06:12:44.544390 12584 net.cpp:106] Creating Layer conv5
I0205 06:12:44.544395 12584 net.cpp:454] conv5 <- conv4
I0205 06:12:44.544404 12584 net.cpp:411] conv5 -> conv5
I0205 06:12:44.544427 12584 net.cpp:150] Setting up conv5
I0205 06:12:44.544435 12584 net.cpp:157] Top shape: 100 8 13 13 (135200)
I0205 06:12:44.544440 12584 net.cpp:165] Memory required for data: 53089600
I0205 06:12:44.544450 12584 layer_factory.hpp:77] Creating layer relu5
I0205 06:12:44.544457 12584 net.cpp:106] Creating Layer relu5
I0205 06:12:44.544463 12584 net.cpp:454] relu5 <- conv5
I0205 06:12:44.544471 12584 net.cpp:397] relu5 -> conv5 (in-place)
I0205 06:12:44.544478 12584 net.cpp:150] Setting up relu5
I0205 06:12:44.544484 12584 net.cpp:157] Top shape: 100 8 13 13 (135200)
I0205 06:12:44.544489 12584 net.cpp:165] Memory required for data: 53630400
I0205 06:12:44.544494 12584 layer_factory.hpp:77] Creating layer pool5
I0205 06:12:44.544504 12584 net.cpp:106] Creating Layer pool5
I0205 06:12:44.544510 12584 net.cpp:454] pool5 <- conv5
I0205 06:12:44.544518 12584 net.cpp:411] pool5 -> pool5
I0205 06:12:44.544535 12584 net.cpp:150] Setting up pool5
I0205 06:12:44.544550 12584 net.cpp:157] Top shape: 100 8 6 6 (28800)
I0205 06:12:44.544555 12584 net.cpp:165] Memory required for data: 53745600
I0205 06:12:44.544560 12584 layer_factory.hpp:77] Creating layer fc6
I0205 06:12:44.544571 12584 net.cpp:106] Creating Layer fc6
I0205 06:12:44.544577 12584 net.cpp:454] fc6 <- pool5
I0205 06:12:44.544587 12584 net.cpp:411] fc6 -> fc6
I0205 06:12:44.545328 12584 net.cpp:150] Setting up fc6
I0205 06:12:44.545341 12584 net.cpp:157] Top shape: 100 256 (25600)
I0205 06:12:44.545347 12584 net.cpp:165] Memory required for data: 53848000
I0205 06:12:44.545356 12584 layer_factory.hpp:77] Creating layer relu6
I0205 06:12:44.545367 12584 net.cpp:106] Creating Layer relu6
I0205 06:12:44.545373 12584 net.cpp:454] relu6 <- fc6
I0205 06:12:44.545383 12584 net.cpp:397] relu6 -> fc6 (in-place)
I0205 06:12:44.545392 12584 net.cpp:150] Setting up relu6
I0205 06:12:44.545398 12584 net.cpp:157] Top shape: 100 256 (25600)
I0205 06:12:44.545403 12584 net.cpp:165] Memory required for data: 53950400
I0205 06:12:44.545409 12584 layer_factory.hpp:77] Creating layer drop6
I0205 06:12:44.545418 12584 net.cpp:106] Creating Layer drop6
I0205 06:12:44.545424 12584 net.cpp:454] drop6 <- fc6
I0205 06:12:44.545433 12584 net.cpp:397] drop6 -> fc6 (in-place)
I0205 06:12:44.545444 12584 net.cpp:150] Setting up drop6
I0205 06:12:44.545450 12584 net.cpp:157] Top shape: 100 256 (25600)
I0205 06:12:44.545455 12584 net.cpp:165] Memory required for data: 54052800
I0205 06:12:44.545460 12584 layer_factory.hpp:77] Creating layer fc7
I0205 06:12:44.545474 12584 net.cpp:106] Creating Layer fc7
I0205 06:12:44.545480 12584 net.cpp:454] fc7 <- fc6
I0205 06:12:44.545490 12584 net.cpp:411] fc7 -> fc7
I0205 06:12:44.546221 12584 net.cpp:150] Setting up fc7
I0205 06:12:44.546232 12584 net.cpp:157] Top shape: 100 256 (25600)
I0205 06:12:44.546238 12584 net.cpp:165] Memory required for data: 54155200
I0205 06:12:44.546248 12584 layer_factory.hpp:77] Creating layer relu7
I0205 06:12:44.546257 12584 net.cpp:106] Creating Layer relu7
I0205 06:12:44.546262 12584 net.cpp:454] relu7 <- fc7
I0205 06:12:44.546272 12584 net.cpp:397] relu7 -> fc7 (in-place)
I0205 06:12:44.546280 12584 net.cpp:150] Setting up relu7
I0205 06:12:44.546288 12584 net.cpp:157] Top shape: 100 256 (25600)
I0205 06:12:44.546293 12584 net.cpp:165] Memory required for data: 54257600
I0205 06:12:44.546298 12584 layer_factory.hpp:77] Creating layer drop7
I0205 06:12:44.546305 12584 net.cpp:106] Creating Layer drop7
I0205 06:12:44.546311 12584 net.cpp:454] drop7 <- fc7
I0205 06:12:44.546319 12584 net.cpp:397] drop7 -> fc7 (in-place)
I0205 06:12:44.546327 12584 net.cpp:150] Setting up drop7
I0205 06:12:44.546334 12584 net.cpp:157] Top shape: 100 256 (25600)
I0205 06:12:44.546340 12584 net.cpp:165] Memory required for data: 54360000
I0205 06:12:44.546345 12584 layer_factory.hpp:77] Creating layer fc8
I0205 06:12:44.546357 12584 net.cpp:106] Creating Layer fc8
I0205 06:12:44.546363 12584 net.cpp:454] fc8 <- fc7
I0205 06:12:44.546373 12584 net.cpp:411] fc8 -> fc8
I0205 06:12:44.546397 12584 net.cpp:150] Setting up fc8
I0205 06:12:44.546409 12584 net.cpp:157] Top shape: 100 2 (200)
I0205 06:12:44.546414 12584 net.cpp:165] Memory required for data: 54360800
I0205 06:12:44.546422 12584 layer_factory.hpp:77] Creating layer fc8_fc8_0_split
I0205 06:12:44.546432 12584 net.cpp:106] Creating Layer fc8_fc8_0_split
I0205 06:12:44.546437 12584 net.cpp:454] fc8_fc8_0_split <- fc8
I0205 06:12:44.546443 12584 net.cpp:411] fc8_fc8_0_split -> fc8_fc8_0_split_0
I0205 06:12:44.546452 12584 net.cpp:411] fc8_fc8_0_split -> fc8_fc8_0_split_1
I0205 06:12:44.546460 12584 net.cpp:150] Setting up fc8_fc8_0_split
I0205 06:12:44.546468 12584 net.cpp:157] Top shape: 100 2 (200)
I0205 06:12:44.546473 12584 net.cpp:157] Top shape: 100 2 (200)
I0205 06:12:44.546478 12584 net.cpp:165] Memory required for data: 54362400
I0205 06:12:44.546485 12584 layer_factory.hpp:77] Creating layer accuracy
I0205 06:12:44.546500 12584 net.cpp:106] Creating Layer accuracy
I0205 06:12:44.546510 12584 net.cpp:454] accuracy <- fc8_fc8_0_split_0
I0205 06:12:44.546525 12584 net.cpp:454] accuracy <- label_data_1_split_0
I0205 06:12:44.546535 12584 net.cpp:411] accuracy -> accuracy
…
