…
I0205 02:45:44.437047 11512 net.cpp:322] The NetState phase (0) differed from the phase (1) specified by a rule in layer accuracy
I0205 02:45:44.437309 11512 net.cpp:49] Initializing net from parameters: 
name: "CaffeNet"
state {
  phase: TRAIN
}
layer {
  name: "data"
  type: "Data"
  top: "data"
  top: "label"
  include {
    phase: TRAIN
  }
  transform_param {
    mirror: true
    crop_size: 227
    mean_file: "/home/pearlstl/proj_cv/master/lmdb/synth1_train_lum_db/mean_file.binaryproto"
  }
  data_param {
    source: "/home/pearlstl/proj_cv/master/lmdb/synth1_train_lum_db"
    batch_size: 100
    backend: LMDB
  }
}
layer {
  name: "conv1"
  type: "Convolution"
  bottom: "data"
  top: "conv1"
  param {
    lr_mult: 1
    decay_mult: 1
  }
  param {
    lr_mult: 2
    decay_mult: 0
  }
  convolution_param {
    num_output: 32
    kernel_size: 11
    stride: 4
    weight_filler {
      type: "xavier"
    }
    bias_filler {
      type: "constant"
      value: 0
    }
  }
}
layer {
  name: "relu1"
  type: "ReLU"
  bottom: "conv1"
  top: "conv1"
}
layer {
  name: "pool1"
  type: "Pooling"
  bottom: "conv1"
  top: "pool1"
  pooling_param {
    pool: MAX
    kernel_size: 3
    stride: 2
  }
}
layer {
  name: "norm1"
  type: "LRN"
  bottom: "pool1"
  top: "norm1"
  lrn_param {
    local_size: 5
    alpha: 0.0001
    beta: 0.75
  }
}
layer {
  name: "conv2"
  type: "Convolution"
  bottom: "norm1"
  top: "conv2"
  param {
    lr_mult: 1
    decay_mult: 1
  }
  param {
    lr_mult: 2
    decay_mult: 0
  }
  convolution_param {
    num_output: 32
    pad: 2
    kernel_size: 5
    group: 2
    weight_filler {
      type: "xavier"
    }
    bias_filler {
      type: "constant"
      value: 1
    }
  }
}
layer {
  name: "relu2"
  type: "ReLU"
  bottom: "conv2"
  top: "conv2"
}
layer {
  name: "pool2"
  type: "Pooling"
  bottom: "conv2"
  top: "pool2"
  pooling_param {
    pool: MAX
    kernel_size: 3
    stride: 2
  }
}
layer {
  name: "norm2"
  type: "LRN"
  bottom: "pool2"
  top: "norm2"
  lrn_param {
    local_size: 5
    alpha: 0.0001
    beta: 0.75
  }
}
layer {
  name: "conv3"
  type: "Convolution"
  bottom: "norm2"
  top: "conv3"
  param {
    lr_mult: 1
    decay_mult: 1
  }
  param {
    lr_mult: 2
    decay_mult: 0
  }
  convolution_param {
    num_output: 32
    pad: 1
    kernel_size: 3
    weight_filler {
      type: "xavier"
    }
    bias_filler {
      type: "constant"
      value: 0
    }
  }
}
layer {
  name: "relu3"
  type: "ReLU"
  bottom: "conv3"
  top: "conv3"
}
layer {
  name: "conv4"
  type: "Convolution"
  bottom: "conv3"
  top: "conv4"
  param {
    lr_mult: 1
    decay_mult: 1
  }
  param {
    lr_mult: 2
    decay_mult: 0
  }
  convolution_param {
    num_output: 32
    pad: 1
    kernel_size: 3
    group: 2
    weight_filler {
      type: "xavier"
    }
    bias_filler {
      type: "constant"
      value: 1
    }
  }
}
layer {
  name: "relu4"
  type: "ReLU"
  bottom: "conv4"
  top: "conv4"
}
layer {
  name: "conv5"
  type: "Convolution"
  bottom: "conv4"
  top: "conv5"
  param {
    lr_mult: 1
    decay_mult: 1
  }
  param {
    lr_mult: 2
    decay_mult: 0
  }
  convolution_param {
    num_output: 16
    pad: 1
    kernel_size: 3
    group: 2
    weight_filler {
      type: "xavier"
    }
    bias_filler {
      type: "constant"
      value: 1
    }
  }
}
layer {
  name: "relu5"
  type: "ReLU"
  bottom: "conv5"
  top: "conv5"
}
layer {
  name: "pool5"
  type: "Pooling"
  bottom: "conv5"
  top: "pool5"
  pooling_param {
    pool: MAX
    kernel_size: 3
    stride: 2
  }
}
layer {
  name: "fc6"
  type: "InnerProduct"
  bottom: "pool5"
  top: "fc6"
  param {
    lr_mult: 1
    decay_mult: 1
  }
  param {
    lr_mult: 2
    decay_mult: 0
  }
  inner_product_param {
    num_output: 256
    weight_filler {
      type: "xavier"
    }
    bias_filler {
      type: "constant"
      value: 1
    }
  }
}
layer {
  name: "relu6"
  type: "ReLU"
  bottom: "fc6"
  top: "fc6"
}
layer {
  name: "drop6"
  type: "Dropout"
  bottom: "fc6"
  top: "fc6"
  dropout_param {
    dropout_ratio: 0.5
  }
}
layer {
  name: "fc7"
  type: "InnerProduct"
  bottom: "fc6"
  top: "fc7"
  param {
    lr_mult: 1
    decay_mult: 1
  }
  param {
    lr_mult: 2
    decay_mult: 0
  }
  inner_product_param {
    num_output: 256
    weight_filler {
      type: "xavier"
    }
    bias_filler {
      type: "constant"
      value: 1
    }
  }
}
layer {
  name: "relu7"
  type: "ReLU"
  bottom: "fc7"
  top: "fc7"
}
layer {
  name: "drop7"
  type: "Dropout"
  bottom: "fc7"
  top: "fc7"
  dropout_param {
    dropout_ratio: 0.5
  }
}
layer {
  name: "fc8"
  type: "InnerProduct"
  bottom: "fc7"
  top: "fc8"
  param {
    lr_mult: 1
    decay_mult: 1
  }
  param {
    lr_mult: 2
    decay_mult: 0
  }
  inner_product_param {
    num_output: 2
    weight_filler {
      type: "xavier"
    }
    bias_filler {
      type: "constant"
      value: 0
    }
  }
}
layer {
  name: "loss"
  type: "SoftmaxWithLoss"
  bottom: "fc8"
  bottom: "label"
  top: "loss"
}
I0205 02:45:44.437464 11512 layer_factory.hpp:77] Creating layer data
I0205 02:45:44.437671 11512 net.cpp:106] Creating Layer data
I0205 02:45:44.437691 11512 net.cpp:411] data -> data
I0205 02:45:44.437786 11512 net.cpp:411] data -> label
I0205 02:45:44.437814 11512 data_transformer.cpp:25] Loading mean file from: /home/pearlstl/proj_cv/master/lmdb/synth1_train_lum_db/mean_file.binaryproto
I0205 02:45:44.437979 11513 db_lmdb.cpp:38] Opened lmdb /home/pearlstl/proj_cv/master/lmdb/synth1_train_lum_db
I0205 02:45:44.439007 11512 data_layer.cpp:41] output data size: 100,1,227,227
I0205 02:45:44.470763 11512 net.cpp:150] Setting up data
I0205 02:45:44.470857 11512 net.cpp:157] Top shape: 100 1 227 227 (5152900)
I0205 02:45:44.470868 11512 net.cpp:157] Top shape: 100 (100)
I0205 02:45:44.470875 11512 net.cpp:165] Memory required for data: 20612000
I0205 02:45:44.470897 11512 layer_factory.hpp:77] Creating layer conv1
I0205 02:45:44.470927 11512 net.cpp:106] Creating Layer conv1
I0205 02:45:44.470935 11512 net.cpp:454] conv1 <- data
I0205 02:45:44.470957 11512 net.cpp:411] conv1 -> conv1
I0205 02:45:44.471108 11512 net.cpp:150] Setting up conv1
I0205 02:45:44.471122 11512 net.cpp:157] Top shape: 100 32 55 55 (9680000)
I0205 02:45:44.471129 11512 net.cpp:165] Memory required for data: 59332000
I0205 02:45:44.471148 11512 layer_factory.hpp:77] Creating layer relu1
I0205 02:45:44.471160 11512 net.cpp:106] Creating Layer relu1
I0205 02:45:44.471166 11512 net.cpp:454] relu1 <- conv1
I0205 02:45:44.471179 11512 net.cpp:397] relu1 -> conv1 (in-place)
I0205 02:45:44.471194 11512 net.cpp:150] Setting up relu1
I0205 02:45:44.471200 11512 net.cpp:157] Top shape: 100 32 55 55 (9680000)
I0205 02:45:44.471206 11512 net.cpp:165] Memory required for data: 98052000
I0205 02:45:44.471212 11512 layer_factory.hpp:77] Creating layer pool1
I0205 02:45:44.471225 11512 net.cpp:106] Creating Layer pool1
I0205 02:45:44.471230 11512 net.cpp:454] pool1 <- conv1
I0205 02:45:44.471238 11512 net.cpp:411] pool1 -> pool1
I0205 02:45:44.471264 11512 net.cpp:150] Setting up pool1
I0205 02:45:44.471273 11512 net.cpp:157] Top shape: 100 32 27 27 (2332800)
I0205 02:45:44.471278 11512 net.cpp:165] Memory required for data: 107383200
I0205 02:45:44.471284 11512 layer_factory.hpp:77] Creating layer norm1
I0205 02:45:44.471319 11512 net.cpp:106] Creating Layer norm1
I0205 02:45:44.471325 11512 net.cpp:454] norm1 <- pool1
I0205 02:45:44.471335 11512 net.cpp:411] norm1 -> norm1
I0205 02:45:44.471354 11512 net.cpp:150] Setting up norm1
I0205 02:45:44.471362 11512 net.cpp:157] Top shape: 100 32 27 27 (2332800)
I0205 02:45:44.471367 11512 net.cpp:165] Memory required for data: 116714400
I0205 02:45:44.471374 11512 layer_factory.hpp:77] Creating layer conv2
I0205 02:45:44.471385 11512 net.cpp:106] Creating Layer conv2
I0205 02:45:44.471391 11512 net.cpp:454] conv2 <- norm1
I0205 02:45:44.471400 11512 net.cpp:411] conv2 -> conv2
I0205 02:45:44.471534 11512 net.cpp:150] Setting up conv2
I0205 02:45:44.471544 11512 net.cpp:157] Top shape: 100 32 27 27 (2332800)
I0205 02:45:44.471549 11512 net.cpp:165] Memory required for data: 126045600
I0205 02:45:44.471562 11512 layer_factory.hpp:77] Creating layer relu2
I0205 02:45:44.471571 11512 net.cpp:106] Creating Layer relu2
I0205 02:45:44.471577 11512 net.cpp:454] relu2 <- conv2
I0205 02:45:44.471602 11512 net.cpp:397] relu2 -> conv2 (in-place)
I0205 02:45:44.471614 11512 net.cpp:150] Setting up relu2
I0205 02:45:44.471621 11512 net.cpp:157] Top shape: 100 32 27 27 (2332800)
I0205 02:45:44.471626 11512 net.cpp:165] Memory required for data: 135376800
I0205 02:45:44.471632 11512 layer_factory.hpp:77] Creating layer pool2
I0205 02:45:44.471642 11512 net.cpp:106] Creating Layer pool2
I0205 02:45:44.471647 11512 net.cpp:454] pool2 <- conv2
I0205 02:45:44.471655 11512 net.cpp:411] pool2 -> pool2
I0205 02:45:44.471668 11512 net.cpp:150] Setting up pool2
I0205 02:45:44.471674 11512 net.cpp:157] Top shape: 100 32 13 13 (540800)
I0205 02:45:44.471679 11512 net.cpp:165] Memory required for data: 137540000
I0205 02:45:44.471684 11512 layer_factory.hpp:77] Creating layer norm2
I0205 02:45:44.471695 11512 net.cpp:106] Creating Layer norm2
I0205 02:45:44.471703 11512 net.cpp:454] norm2 <- pool2
I0205 02:45:44.471714 11512 net.cpp:411] norm2 -> norm2
I0205 02:45:44.471724 11512 net.cpp:150] Setting up norm2
I0205 02:45:44.471730 11512 net.cpp:157] Top shape: 100 32 13 13 (540800)
I0205 02:45:44.471736 11512 net.cpp:165] Memory required for data: 139703200
I0205 02:45:44.471741 11512 layer_factory.hpp:77] Creating layer conv3
I0205 02:45:44.471752 11512 net.cpp:106] Creating Layer conv3
I0205 02:45:44.471758 11512 net.cpp:454] conv3 <- norm2
I0205 02:45:44.471766 11512 net.cpp:411] conv3 -> conv3
I0205 02:45:44.471882 11512 net.cpp:150] Setting up conv3
I0205 02:45:44.471892 11512 net.cpp:157] Top shape: 100 32 13 13 (540800)
I0205 02:45:44.471899 11512 net.cpp:165] Memory required for data: 141866400
I0205 02:45:44.471909 11512 layer_factory.hpp:77] Creating layer relu3
I0205 02:45:44.471920 11512 net.cpp:106] Creating Layer relu3
I0205 02:45:44.471926 11512 net.cpp:454] relu3 <- conv3
I0205 02:45:44.471933 11512 net.cpp:397] relu3 -> conv3 (in-place)
I0205 02:45:44.471943 11512 net.cpp:150] Setting up relu3
I0205 02:45:44.471951 11512 net.cpp:157] Top shape: 100 32 13 13 (540800)
I0205 02:45:44.471958 11512 net.cpp:165] Memory required for data: 144029600
I0205 02:45:44.471964 11512 layer_factory.hpp:77] Creating layer conv4
I0205 02:45:44.471977 11512 net.cpp:106] Creating Layer conv4
I0205 02:45:44.471982 11512 net.cpp:454] conv4 <- conv3
I0205 02:45:44.471993 11512 net.cpp:411] conv4 -> conv4
I0205 02:45:44.472065 11512 net.cpp:150] Setting up conv4
I0205 02:45:44.472074 11512 net.cpp:157] Top shape: 100 32 13 13 (540800)
I0205 02:45:44.472079 11512 net.cpp:165] Memory required for data: 146192800
I0205 02:45:44.472087 11512 layer_factory.hpp:77] Creating layer relu4
I0205 02:45:44.472105 11512 net.cpp:106] Creating Layer relu4
I0205 02:45:44.472110 11512 net.cpp:454] relu4 <- conv4
I0205 02:45:44.472117 11512 net.cpp:397] relu4 -> conv4 (in-place)
I0205 02:45:44.472126 11512 net.cpp:150] Setting up relu4
I0205 02:45:44.472133 11512 net.cpp:157] Top shape: 100 32 13 13 (540800)
I0205 02:45:44.472139 11512 net.cpp:165] Memory required for data: 148356000
I0205 02:45:44.472151 11512 layer_factory.hpp:77] Creating layer conv5
I0205 02:45:44.472170 11512 net.cpp:106] Creating Layer conv5
I0205 02:45:44.472177 11512 net.cpp:454] conv5 <- conv4
I0205 02:45:44.472185 11512 net.cpp:411] conv5 -> conv5
I0205 02:45:44.472234 11512 net.cpp:150] Setting up conv5
I0205 02:45:44.472244 11512 net.cpp:157] Top shape: 100 16 13 13 (270400)
I0205 02:45:44.472249 11512 net.cpp:165] Memory required for data: 149437600
I0205 02:45:44.472259 11512 layer_factory.hpp:77] Creating layer relu5
I0205 02:45:44.472268 11512 net.cpp:106] Creating Layer relu5
I0205 02:45:44.472273 11512 net.cpp:454] relu5 <- conv5
I0205 02:45:44.472283 11512 net.cpp:397] relu5 -> conv5 (in-place)
I0205 02:45:44.472292 11512 net.cpp:150] Setting up relu5
I0205 02:45:44.472301 11512 net.cpp:157] Top shape: 100 16 13 13 (270400)
I0205 02:45:44.472306 11512 net.cpp:165] Memory required for data: 150519200
I0205 02:45:44.472311 11512 layer_factory.hpp:77] Creating layer pool5
I0205 02:45:44.472319 11512 net.cpp:106] Creating Layer pool5
I0205 02:45:44.472326 11512 net.cpp:454] pool5 <- conv5
I0205 02:45:44.472335 11512 net.cpp:411] pool5 -> pool5
I0205 02:45:44.472347 11512 net.cpp:150] Setting up pool5
I0205 02:45:44.472355 11512 net.cpp:157] Top shape: 100 16 6 6 (57600)
I0205 02:45:44.472362 11512 net.cpp:165] Memory required for data: 150749600
I0205 02:45:44.472367 11512 layer_factory.hpp:77] Creating layer fc6
I0205 02:45:44.472383 11512 net.cpp:106] Creating Layer fc6
I0205 02:45:44.472388 11512 net.cpp:454] fc6 <- pool5
I0205 02:45:44.472399 11512 net.cpp:411] fc6 -> fc6
I0205 02:45:44.473987 11512 net.cpp:150] Setting up fc6
I0205 02:45:44.474001 11512 net.cpp:157] Top shape: 100 256 (25600)
I0205 02:45:44.474006 11512 net.cpp:165] Memory required for data: 150852000
I0205 02:45:44.474015 11512 layer_factory.hpp:77] Creating layer relu6
I0205 02:45:44.474027 11512 net.cpp:106] Creating Layer relu6
I0205 02:45:44.474033 11512 net.cpp:454] relu6 <- fc6
I0205 02:45:44.474040 11512 net.cpp:397] relu6 -> fc6 (in-place)
I0205 02:45:44.474050 11512 net.cpp:150] Setting up relu6
I0205 02:45:44.474056 11512 net.cpp:157] Top shape: 100 256 (25600)
I0205 02:45:44.474062 11512 net.cpp:165] Memory required for data: 150954400
I0205 02:45:44.474069 11512 layer_factory.hpp:77] Creating layer drop6
I0205 02:45:44.474081 11512 net.cpp:106] Creating Layer drop6
I0205 02:45:44.474086 11512 net.cpp:454] drop6 <- fc6
I0205 02:45:44.474099 11512 net.cpp:397] drop6 -> fc6 (in-place)
I0205 02:45:44.474117 11512 net.cpp:150] Setting up drop6
I0205 02:45:44.474124 11512 net.cpp:157] Top shape: 100 256 (25600)
I0205 02:45:44.474130 11512 net.cpp:165] Memory required for data: 151056800
I0205 02:45:44.474136 11512 layer_factory.hpp:77] Creating layer fc7
I0205 02:45:44.474145 11512 net.cpp:106] Creating Layer fc7
I0205 02:45:44.474151 11512 net.cpp:454] fc7 <- fc6
I0205 02:45:44.474161 11512 net.cpp:411] fc7 -> fc7
I0205 02:45:44.474856 11512 net.cpp:150] Setting up fc7
I0205 02:45:44.474870 11512 net.cpp:157] Top shape: 100 256 (25600)
I0205 02:45:44.474875 11512 net.cpp:165] Memory required for data: 151159200
I0205 02:45:44.474884 11512 layer_factory.hpp:77] Creating layer relu7
I0205 02:45:44.474892 11512 net.cpp:106] Creating Layer relu7
I0205 02:45:44.474897 11512 net.cpp:454] relu7 <- fc7
I0205 02:45:44.474907 11512 net.cpp:397] relu7 -> fc7 (in-place)
I0205 02:45:44.474917 11512 net.cpp:150] Setting up relu7
I0205 02:45:44.474923 11512 net.cpp:157] Top shape: 100 256 (25600)
I0205 02:45:44.474930 11512 net.cpp:165] Memory required for data: 151261600
I0205 02:45:44.474934 11512 layer_factory.hpp:77] Creating layer drop7
I0205 02:45:44.474942 11512 net.cpp:106] Creating Layer drop7
I0205 02:45:44.474949 11512 net.cpp:454] drop7 <- fc7
I0205 02:45:44.474959 11512 net.cpp:397] drop7 -> fc7 (in-place)
I0205 02:45:44.474969 11512 net.cpp:150] Setting up drop7
I0205 02:45:44.474977 11512 net.cpp:157] Top shape: 100 256 (25600)
I0205 02:45:44.474982 11512 net.cpp:165] Memory required for data: 151364000
I0205 02:45:44.474987 11512 layer_factory.hpp:77] Creating layer fc8
I0205 02:45:44.475004 11512 net.cpp:106] Creating Layer fc8
I0205 02:45:44.475018 11512 net.cpp:454] fc8 <- fc7
I0205 02:45:44.475028 11512 net.cpp:411] fc8 -> fc8
I0205 02:45:44.475052 11512 net.cpp:150] Setting up fc8
I0205 02:45:44.475059 11512 net.cpp:157] Top shape: 100 2 (200)
I0205 02:45:44.475065 11512 net.cpp:165] Memory required for data: 151364800
I0205 02:45:44.475074 11512 layer_factory.hpp:77] Creating layer loss
I0205 02:45:44.475085 11512 net.cpp:106] Creating Layer loss
I0205 02:45:44.475106 11512 net.cpp:454] loss <- fc8
I0205 02:45:44.475112 11512 net.cpp:454] loss <- label
I0205 02:45:44.475122 11512 net.cpp:411] loss -> loss
I0205 02:45:44.475138 11512 layer_factory.hpp:77] Creating layer loss
…
I0205 02:45:44.476245 11512 net.cpp:322] The NetState phase (1) differed from the phase (0) specified by a rule in layer data
I0205 02:45:44.476548 11512 net.cpp:49] Initializing net from parameters: 
name: "CaffeNet"
state {
  phase: TEST
}
layer {
  name: "data"
  type: "Data"
  top: "data"
  top: "label"
  include {
    phase: TEST
  }
  transform_param {
    mirror: false
    crop_size: 227
    mean_file: "/home/pearlstl/proj_cv/master/lmdb/synth1_test_lum_db/mean_file.binaryproto"
  }
  data_param {
    source: "/home/pearlstl/proj_cv/master/lmdb/synth1_test_lum_db"
    batch_size: 100
    backend: LMDB
  }
}
layer {
  name: "conv1"
  type: "Convolution"
  bottom: "data"
  top: "conv1"
  param {
    lr_mult: 1
    decay_mult: 1
  }
  param {
    lr_mult: 2
    decay_mult: 0
  }
  convolution_param {
    num_output: 32
    kernel_size: 11
    stride: 4
    weight_filler {
      type: "xavier"
    }
    bias_filler {
      type: "constant"
      value: 0
    }
  }
}
layer {
  name: "relu1"
  type: "ReLU"
  bottom: "conv1"
  top: "conv1"
}
layer {
  name: "pool1"
  type: "Pooling"
  bottom: "conv1"
  top: "pool1"
  pooling_param {
    pool: MAX
    kernel_size: 3
    stride: 2
  }
}
layer {
  name: "norm1"
  type: "LRN"
  bottom: "pool1"
  top: "norm1"
  lrn_param {
    local_size: 5
    alpha: 0.0001
    beta: 0.75
  }
}
layer {
  name: "conv2"
  type: "Convolution"
  bottom: "norm1"
  top: "conv2"
  param {
    lr_mult: 1
    decay_mult: 1
  }
  param {
    lr_mult: 2
    decay_mult: 0
  }
  convolution_param {
    num_output: 32
    pad: 2
    kernel_size: 5
    group: 2
    weight_filler {
      type: "xavier"
    }
    bias_filler {
      type: "constant"
      value: 1
    }
  }
}
layer {
  name: "relu2"
  type: "ReLU"
  bottom: "conv2"
  top: "conv2"
}
layer {
  name: "pool2"
  type: "Pooling"
  bottom: "conv2"
  top: "pool2"
  pooling_param {
    pool: MAX
    kernel_size: 3
    stride: 2
  }
}
layer {
  name: "norm2"
  type: "LRN"
  bottom: "pool2"
  top: "norm2"
  lrn_param {
    local_size: 5
    alpha: 0.0001
    beta: 0.75
  }
}
layer {
  name: "conv3"
  type: "Convolution"
  bottom: "norm2"
  top: "conv3"
  param {
    lr_mult: 1
    decay_mult: 1
  }
  param {
    lr_mult: 2
    decay_mult: 0
  }
  convolution_param {
    num_output: 32
    pad: 1
    kernel_size: 3
    weight_filler {
      type: "xavier"
    }
    bias_filler {
      type: "constant"
      value: 0
    }
  }
}
layer {
  name: "relu3"
  type: "ReLU"
  bottom: "conv3"
  top: "conv3"
}
layer {
  name: "conv4"
  type: "Convolution"
  bottom: "conv3"
  top: "conv4"
  param {
    lr_mult: 1
    decay_mult: 1
  }
  param {
    lr_mult: 2
    decay_mult: 0
  }
  convolution_param {
    num_output: 32
    pad: 1
    kernel_size: 3
    group: 2
    weight_filler {
      type: "xavier"
    }
    bias_filler {
      type: "constant"
      value: 1
    }
  }
}
layer {
  name: "relu4"
  type: "ReLU"
  bottom: "conv4"
  top: "conv4"
}
layer {
  name: "conv5"
  type: "Convolution"
  bottom: "conv4"
  top: "conv5"
  param {
    lr_mult: 1
    decay_mult: 1
  }
  param {
    lr_mult: 2
    decay_mult: 0
  }
  convolution_param {
    num_output: 16
    pad: 1
    kernel_size: 3
    group: 2
    weight_filler {
      type: "xavier"
    }
    bias_filler {
      type: "constant"
      value: 1
    }
  }
}
layer {
  name: "relu5"
  type: "ReLU"
  bottom: "conv5"
  top: "conv5"
}
layer {
  name: "pool5"
  type: "Pooling"
  bottom: "conv5"
  top: "pool5"
  pooling_param {
    pool: MAX
    kernel_size: 3
    stride: 2
  }
}
layer {
  name: "fc6"
  type: "InnerProduct"
  bottom: "pool5"
  top: "fc6"
  param {
    lr_mult: 1
    decay_mult: 1
  }
  param {
    lr_mult: 2
    decay_mult: 0
  }
  inner_product_param {
    num_output: 256
    weight_filler {
      type: "xavier"
    }
    bias_filler {
      type: "constant"
      value: 1
    }
  }
}
layer {
  name: "relu6"
  type: "ReLU"
  bottom: "fc6"
  top: "fc6"
}
layer {
  name: "drop6"
  type: "Dropout"
  bottom: "fc6"
  top: "fc6"
  dropout_param {
    dropout_ratio: 0.5
  }
}
layer {
  name: "fc7"
  type: "InnerProduct"
  bottom: "fc6"
  top: "fc7"
  param {
    lr_mult: 1
    decay_mult: 1
  }
  param {
    lr_mult: 2
    decay_mult: 0
  }
  inner_product_param {
    num_output: 256
    weight_filler {
      type: "xavier"
    }
    bias_filler {
      type: "constant"
      value: 1
    }
  }
}
layer {
  name: "relu7"
  type: "ReLU"
  bottom: "fc7"
  top: "fc7"
}
layer {
  name: "drop7"
  type: "Dropout"
  bottom: "fc7"
  top: "fc7"
  dropout_param {
    dropout_ratio: 0.5
  }
}
layer {
  name: "fc8"
  type: "InnerProduct"
  bottom: "fc7"
  top: "fc8"
  param {
    lr_mult: 1
    decay_mult: 1
  }
  param {
    lr_mult: 2
    decay_mult: 0
  }
  inner_product_param {
    num_output: 2
    weight_filler {
      type: "xavier"
    }
    bias_filler {
      type: "constant"
      value: 0
    }
  }
}
layer {
  name: "accuracy"
  type: "Accuracy"
  bottom: "fc8"
  bottom: "label"
  top: "accuracy"
  include {
    phase: TEST
  }
}
layer {
  name: "loss"
  type: "SoftmaxWithLoss"
  bottom: "fc8"
  bottom: "label"
  top: "loss"
}
I0205 02:45:44.476727 11512 layer_factory.hpp:77] Creating layer data
I0205 02:45:44.476884 11512 net.cpp:106] Creating Layer data
I0205 02:45:44.476909 11512 net.cpp:411] data -> data
I0205 02:45:44.476924 11512 net.cpp:411] data -> label
I0205 02:45:44.476935 11512 data_transformer.cpp:25] Loading mean file from: /home/pearlstl/proj_cv/master/lmdb/synth1_test_lum_db/mean_file.binaryproto
I0205 02:45:44.477165 11516 db_lmdb.cpp:38] Opened lmdb /home/pearlstl/proj_cv/master/lmdb/synth1_test_lum_db
I0205 02:45:44.477951 11512 data_layer.cpp:41] output data size: 100,1,227,227
I0205 02:45:44.507693 11512 net.cpp:150] Setting up data
I0205 02:45:44.507721 11512 net.cpp:157] Top shape: 100 1 227 227 (5152900)
I0205 02:45:44.507730 11512 net.cpp:157] Top shape: 100 (100)
I0205 02:45:44.507735 11512 net.cpp:165] Memory required for data: 20612000
I0205 02:45:44.507745 11512 layer_factory.hpp:77] Creating layer label_data_1_split
I0205 02:45:44.507762 11512 net.cpp:106] Creating Layer label_data_1_split
I0205 02:45:44.507771 11512 net.cpp:454] label_data_1_split <- label
I0205 02:45:44.507782 11512 net.cpp:411] label_data_1_split -> label_data_1_split_0
I0205 02:45:44.507797 11512 net.cpp:411] label_data_1_split -> label_data_1_split_1
I0205 02:45:44.507809 11512 net.cpp:150] Setting up label_data_1_split
I0205 02:45:44.507817 11512 net.cpp:157] Top shape: 100 (100)
I0205 02:45:44.507824 11512 net.cpp:157] Top shape: 100 (100)
I0205 02:45:44.507829 11512 net.cpp:165] Memory required for data: 20612800
I0205 02:45:44.507835 11512 layer_factory.hpp:77] Creating layer conv1
I0205 02:45:44.507850 11512 net.cpp:106] Creating Layer conv1
I0205 02:45:44.507858 11512 net.cpp:454] conv1 <- data
I0205 02:45:44.507868 11512 net.cpp:411] conv1 -> conv1
I0205 02:45:44.507938 11512 net.cpp:150] Setting up conv1
I0205 02:45:44.507951 11512 net.cpp:157] Top shape: 100 32 55 55 (9680000)
I0205 02:45:44.507957 11512 net.cpp:165] Memory required for data: 59332800
I0205 02:45:44.507972 11512 layer_factory.hpp:77] Creating layer relu1
I0205 02:45:44.507982 11512 net.cpp:106] Creating Layer relu1
I0205 02:45:44.507989 11512 net.cpp:454] relu1 <- conv1
I0205 02:45:44.507997 11512 net.cpp:397] relu1 -> conv1 (in-place)
I0205 02:45:44.508008 11512 net.cpp:150] Setting up relu1
I0205 02:45:44.508014 11512 net.cpp:157] Top shape: 100 32 55 55 (9680000)
I0205 02:45:44.508019 11512 net.cpp:165] Memory required for data: 98052800
I0205 02:45:44.508025 11512 layer_factory.hpp:77] Creating layer pool1
I0205 02:45:44.508035 11512 net.cpp:106] Creating Layer pool1
I0205 02:45:44.508041 11512 net.cpp:454] pool1 <- conv1
I0205 02:45:44.508049 11512 net.cpp:411] pool1 -> pool1
I0205 02:45:44.508064 11512 net.cpp:150] Setting up pool1
I0205 02:45:44.508070 11512 net.cpp:157] Top shape: 100 32 27 27 (2332800)
I0205 02:45:44.508075 11512 net.cpp:165] Memory required for data: 107384000
I0205 02:45:44.508081 11512 layer_factory.hpp:77] Creating layer norm1
I0205 02:45:44.508098 11512 net.cpp:106] Creating Layer norm1
I0205 02:45:44.508105 11512 net.cpp:454] norm1 <- pool1
I0205 02:45:44.508115 11512 net.cpp:411] norm1 -> norm1
I0205 02:45:44.508126 11512 net.cpp:150] Setting up norm1
I0205 02:45:44.508133 11512 net.cpp:157] Top shape: 100 32 27 27 (2332800)
I0205 02:45:44.508138 11512 net.cpp:165] Memory required for data: 116715200
I0205 02:45:44.508144 11512 layer_factory.hpp:77] Creating layer conv2
I0205 02:45:44.508157 11512 net.cpp:106] Creating Layer conv2
I0205 02:45:44.508163 11512 net.cpp:454] conv2 <- norm1
I0205 02:45:44.508172 11512 net.cpp:411] conv2 -> conv2
I0205 02:45:44.508322 11512 net.cpp:150] Setting up conv2
I0205 02:45:44.508332 11512 net.cpp:157] Top shape: 100 32 27 27 (2332800)
I0205 02:45:44.508337 11512 net.cpp:165] Memory required for data: 126046400
I0205 02:45:44.508348 11512 layer_factory.hpp:77] Creating layer relu2
I0205 02:45:44.508358 11512 net.cpp:106] Creating Layer relu2
I0205 02:45:44.508363 11512 net.cpp:454] relu2 <- conv2
I0205 02:45:44.508379 11512 net.cpp:397] relu2 -> conv2 (in-place)
I0205 02:45:44.508399 11512 net.cpp:150] Setting up relu2
I0205 02:45:44.508406 11512 net.cpp:157] Top shape: 100 32 27 27 (2332800)
I0205 02:45:44.508411 11512 net.cpp:165] Memory required for data: 135377600
I0205 02:45:44.508417 11512 layer_factory.hpp:77] Creating layer pool2
I0205 02:45:44.508427 11512 net.cpp:106] Creating Layer pool2
I0205 02:45:44.508432 11512 net.cpp:454] pool2 <- conv2
I0205 02:45:44.508455 11512 net.cpp:411] pool2 -> pool2
I0205 02:45:44.508467 11512 net.cpp:150] Setting up pool2
I0205 02:45:44.508474 11512 net.cpp:157] Top shape: 100 32 13 13 (540800)
I0205 02:45:44.508479 11512 net.cpp:165] Memory required for data: 137540800
I0205 02:45:44.508486 11512 layer_factory.hpp:77] Creating layer norm2
I0205 02:45:44.508493 11512 net.cpp:106] Creating Layer norm2
I0205 02:45:44.508499 11512 net.cpp:454] norm2 <- pool2
I0205 02:45:44.508507 11512 net.cpp:411] norm2 -> norm2
I0205 02:45:44.508518 11512 net.cpp:150] Setting up norm2
I0205 02:45:44.508527 11512 net.cpp:157] Top shape: 100 32 13 13 (540800)
I0205 02:45:44.508532 11512 net.cpp:165] Memory required for data: 139704000
I0205 02:45:44.508536 11512 layer_factory.hpp:77] Creating layer conv3
I0205 02:45:44.508548 11512 net.cpp:106] Creating Layer conv3
I0205 02:45:44.508553 11512 net.cpp:454] conv3 <- norm2
I0205 02:45:44.508561 11512 net.cpp:411] conv3 -> conv3
I0205 02:45:44.508661 11512 net.cpp:150] Setting up conv3
I0205 02:45:44.508669 11512 net.cpp:157] Top shape: 100 32 13 13 (540800)
I0205 02:45:44.508676 11512 net.cpp:165] Memory required for data: 141867200
I0205 02:45:44.508685 11512 layer_factory.hpp:77] Creating layer relu3
I0205 02:45:44.508694 11512 net.cpp:106] Creating Layer relu3
I0205 02:45:44.508699 11512 net.cpp:454] relu3 <- conv3
I0205 02:45:44.508708 11512 net.cpp:397] relu3 -> conv3 (in-place)
I0205 02:45:44.508718 11512 net.cpp:150] Setting up relu3
I0205 02:45:44.508724 11512 net.cpp:157] Top shape: 100 32 13 13 (540800)
I0205 02:45:44.508729 11512 net.cpp:165] Memory required for data: 144030400
I0205 02:45:44.508735 11512 layer_factory.hpp:77] Creating layer conv4
I0205 02:45:44.508745 11512 net.cpp:106] Creating Layer conv4
I0205 02:45:44.508751 11512 net.cpp:454] conv4 <- conv3
I0205 02:45:44.508760 11512 net.cpp:411] conv4 -> conv4
I0205 02:45:44.508821 11512 net.cpp:150] Setting up conv4
I0205 02:45:44.508831 11512 net.cpp:157] Top shape: 100 32 13 13 (540800)
I0205 02:45:44.508837 11512 net.cpp:165] Memory required for data: 146193600
I0205 02:45:44.508846 11512 layer_factory.hpp:77] Creating layer relu4
I0205 02:45:44.508853 11512 net.cpp:106] Creating Layer relu4
I0205 02:45:44.508859 11512 net.cpp:454] relu4 <- conv4
I0205 02:45:44.508867 11512 net.cpp:397] relu4 -> conv4 (in-place)
I0205 02:45:44.508875 11512 net.cpp:150] Setting up relu4
I0205 02:45:44.508882 11512 net.cpp:157] Top shape: 100 32 13 13 (540800)
I0205 02:45:44.508888 11512 net.cpp:165] Memory required for data: 148356800
I0205 02:45:44.508893 11512 layer_factory.hpp:77] Creating layer conv5
I0205 02:45:44.508903 11512 net.cpp:106] Creating Layer conv5
I0205 02:45:44.508908 11512 net.cpp:454] conv5 <- conv4
I0205 02:45:44.508918 11512 net.cpp:411] conv5 -> conv5
I0205 02:45:44.508957 11512 net.cpp:150] Setting up conv5
I0205 02:45:44.508965 11512 net.cpp:157] Top shape: 100 16 13 13 (270400)
I0205 02:45:44.508971 11512 net.cpp:165] Memory required for data: 149438400
I0205 02:45:44.508981 11512 layer_factory.hpp:77] Creating layer relu5
I0205 02:45:44.508991 11512 net.cpp:106] Creating Layer relu5
I0205 02:45:44.508998 11512 net.cpp:454] relu5 <- conv5
I0205 02:45:44.509006 11512 net.cpp:397] relu5 -> conv5 (in-place)
I0205 02:45:44.509014 11512 net.cpp:150] Setting up relu5
I0205 02:45:44.509021 11512 net.cpp:157] Top shape: 100 16 13 13 (270400)
I0205 02:45:44.509027 11512 net.cpp:165] Memory required for data: 150520000
I0205 02:45:44.509032 11512 layer_factory.hpp:77] Creating layer pool5
I0205 02:45:44.509042 11512 net.cpp:106] Creating Layer pool5
I0205 02:45:44.509052 11512 net.cpp:454] pool5 <- conv5
I0205 02:45:44.509070 11512 net.cpp:411] pool5 -> pool5
I0205 02:45:44.509083 11512 net.cpp:150] Setting up pool5
I0205 02:45:44.509094 11512 net.cpp:157] Top shape: 100 16 6 6 (57600)
I0205 02:45:44.509100 11512 net.cpp:165] Memory required for data: 150750400
I0205 02:45:44.509109 11512 layer_factory.hpp:77] Creating layer fc6
I0205 02:45:44.509120 11512 net.cpp:106] Creating Layer fc6
I0205 02:45:44.509126 11512 net.cpp:454] fc6 <- pool5
I0205 02:45:44.509135 11512 net.cpp:411] fc6 -> fc6
I0205 02:45:44.510810 11512 net.cpp:150] Setting up fc6
I0205 02:45:44.510823 11512 net.cpp:157] Top shape: 100 256 (25600)
I0205 02:45:44.510828 11512 net.cpp:165] Memory required for data: 150852800
I0205 02:45:44.510838 11512 layer_factory.hpp:77] Creating layer relu6
I0205 02:45:44.510846 11512 net.cpp:106] Creating Layer relu6
I0205 02:45:44.510853 11512 net.cpp:454] relu6 <- fc6
I0205 02:45:44.510860 11512 net.cpp:397] relu6 -> fc6 (in-place)
I0205 02:45:44.510871 11512 net.cpp:150] Setting up relu6
I0205 02:45:44.510879 11512 net.cpp:157] Top shape: 100 256 (25600)
I0205 02:45:44.510884 11512 net.cpp:165] Memory required for data: 150955200
I0205 02:45:44.510890 11512 layer_factory.hpp:77] Creating layer drop6
I0205 02:45:44.510900 11512 net.cpp:106] Creating Layer drop6
I0205 02:45:44.510905 11512 net.cpp:454] drop6 <- fc6
I0205 02:45:44.510913 11512 net.cpp:397] drop6 -> fc6 (in-place)
I0205 02:45:44.510924 11512 net.cpp:150] Setting up drop6
I0205 02:45:44.510934 11512 net.cpp:157] Top shape: 100 256 (25600)
I0205 02:45:44.510941 11512 net.cpp:165] Memory required for data: 151057600
I0205 02:45:44.510946 11512 layer_factory.hpp:77] Creating layer fc7
I0205 02:45:44.510956 11512 net.cpp:106] Creating Layer fc7
I0205 02:45:44.510962 11512 net.cpp:454] fc7 <- fc6
I0205 02:45:44.510969 11512 net.cpp:411] fc7 -> fc7
I0205 02:45:44.511692 11512 net.cpp:150] Setting up fc7
I0205 02:45:44.511703 11512 net.cpp:157] Top shape: 100 256 (25600)
I0205 02:45:44.511708 11512 net.cpp:165] Memory required for data: 151160000
I0205 02:45:44.511716 11512 layer_factory.hpp:77] Creating layer relu7
I0205 02:45:44.511724 11512 net.cpp:106] Creating Layer relu7
I0205 02:45:44.511730 11512 net.cpp:454] relu7 <- fc7
I0205 02:45:44.511760 11512 net.cpp:397] relu7 -> fc7 (in-place)
I0205 02:45:44.511770 11512 net.cpp:150] Setting up relu7
I0205 02:45:44.511777 11512 net.cpp:157] Top shape: 100 256 (25600)
I0205 02:45:44.511783 11512 net.cpp:165] Memory required for data: 151262400
I0205 02:45:44.511788 11512 layer_factory.hpp:77] Creating layer drop7
I0205 02:45:44.511797 11512 net.cpp:106] Creating Layer drop7
I0205 02:45:44.511802 11512 net.cpp:454] drop7 <- fc7
I0205 02:45:44.511812 11512 net.cpp:397] drop7 -> fc7 (in-place)
I0205 02:45:44.511822 11512 net.cpp:150] Setting up drop7
I0205 02:45:44.511831 11512 net.cpp:157] Top shape: 100 256 (25600)
I0205 02:45:44.511837 11512 net.cpp:165] Memory required for data: 151364800
I0205 02:45:44.511842 11512 layer_factory.hpp:77] Creating layer fc8
I0205 02:45:44.511852 11512 net.cpp:106] Creating Layer fc8
I0205 02:45:44.511857 11512 net.cpp:454] fc8 <- fc7
I0205 02:45:44.511864 11512 net.cpp:411] fc8 -> fc8
I0205 02:45:44.511904 11512 net.cpp:150] Setting up fc8
I0205 02:45:44.511914 11512 net.cpp:157] Top shape: 100 2 (200)
I0205 02:45:44.511919 11512 net.cpp:165] Memory required for data: 151365600
I0205 02:45:44.511926 11512 layer_factory.hpp:77] Creating layer fc8_fc8_0_split
I0205 02:45:44.511937 11512 net.cpp:106] Creating Layer fc8_fc8_0_split
I0205 02:45:44.511943 11512 net.cpp:454] fc8_fc8_0_split <- fc8
I0205 02:45:44.511953 11512 net.cpp:411] fc8_fc8_0_split -> fc8_fc8_0_split_0
I0205 02:45:44.511965 11512 net.cpp:411] fc8_fc8_0_split -> fc8_fc8_0_split_1
I0205 02:45:44.511975 11512 net.cpp:150] Setting up fc8_fc8_0_split
I0205 02:45:44.511981 11512 net.cpp:157] Top shape: 100 2 (200)
I0205 02:45:44.511989 11512 net.cpp:157] Top shape: 100 2 (200)
I0205 02:45:44.511996 11512 net.cpp:165] Memory required for data: 151367200
I0205 02:45:44.512001 11512 layer_factory.hpp:77] Creating layer accuracy
I0205 02:45:44.512025 11512 net.cpp:106] Creating Layer accuracy
I0205 02:45:44.512032 11512 net.cpp:454] accuracy <- fc8_fc8_0_split_0
I0205 02:45:44.512039 11512 net.cpp:454] accuracy <- label_data_1_split_0
I0205 02:45:44.512047 11512 net.cpp:411] accuracy -> accuracy
…
