…
I0204 16:30:48.853588  3484 net.cpp:322] The NetState phase (0) differed from the phase (1) specified by a rule in layer accuracy
I0204 16:30:48.853829  3484 net.cpp:49] Initializing net from parameters: 
name: "CaffeNet"
state {
  phase: TRAIN
}
layer {
  name: "data"
  type: "Data"
  top: "data"
  top: "label"
  include {
    phase: TRAIN
  }
  transform_param {
    mirror: true
    crop_size: 227
    mean_file: "/home/pearlstl/proj_cv/master/lmdb/synth1_train_lum_db/mean_file.binaryproto"
  }
  data_param {
    source: "/home/pearlstl/proj_cv/master/lmdb/synth1_train_lum_db"
    batch_size: 100
    backend: LMDB
  }
}
layer {
  name: "conv1"
  type: "Convolution"
  bottom: "data"
  top: "conv1"
  param {
    lr_mult: 1
    decay_mult: 1
  }
  param {
    lr_mult: 2
    decay_mult: 0
  }
  convolution_param {
    num_output: 8
    kernel_size: 11
    stride: 4
    weight_filler {
      type: "xavier"
    }
    bias_filler {
      type: "constant"
      value: 0
    }
  }
}
layer {
  name: "relu1"
  type: "ReLU"
  bottom: "conv1"
  top: "conv1"
}
layer {
  name: "pool1"
  type: "Pooling"
  bottom: "conv1"
  top: "pool1"
  pooling_param {
    pool: MAX
    kernel_size: 3
    stride: 2
  }
}
layer {
  name: "norm1"
  type: "LRN"
  bottom: "pool1"
  top: "norm1"
  lrn_param {
    local_size: 5
    alpha: 0.0001
    beta: 0.75
  }
}
layer {
  name: "conv2"
  type: "Convolution"
  bottom: "norm1"
  top: "conv2"
  param {
    lr_mult: 1
    decay_mult: 1
  }
  param {
    lr_mult: 2
    decay_mult: 0
  }
  convolution_param {
    num_output: 8
    pad: 2
    kernel_size: 5
    group: 2
    weight_filler {
      type: "xavier"
    }
    bias_filler {
      type: "constant"
      value: 1
    }
  }
}
layer {
  name: "relu2"
  type: "ReLU"
  bottom: "conv2"
  top: "conv2"
}
layer {
  name: "pool2"
  type: "Pooling"
  bottom: "conv2"
  top: "pool2"
  pooling_param {
    pool: MAX
    kernel_size: 3
    stride: 2
  }
}
layer {
  name: "norm2"
  type: "LRN"
  bottom: "pool2"
  top: "norm2"
  lrn_param {
    local_size: 5
    alpha: 0.0001
    beta: 0.75
  }
}
layer {
  name: "conv3"
  type: "Convolution"
  bottom: "norm2"
  top: "conv3"
  param {
    lr_mult: 1
    decay_mult: 1
  }
  param {
    lr_mult: 2
    decay_mult: 0
  }
  convolution_param {
    num_output: 8
    pad: 1
    kernel_size: 3
    weight_filler {
      type: "xavier"
    }
    bias_filler {
      type: "constant"
      value: 0
    }
  }
}
layer {
  name: "relu3"
  type: "ReLU"
  bottom: "conv3"
  top: "conv3"
}
layer {
  name: "conv4"
  type: "Convolution"
  bottom: "conv3"
  top: "conv4"
  param {
    lr_mult: 1
    decay_mult: 1
  }
  param {
    lr_mult: 2
    decay_mult: 0
  }
  convolution_param {
    num_output: 8
    pad: 1
    kernel_size: 3
    group: 2
    weight_filler {
      type: "xavier"
    }
    bias_filler {
      type: "constant"
      value: 1
    }
  }
}
layer {
  name: "relu4"
  type: "ReLU"
  bottom: "conv4"
  top: "conv4"
}
layer {
  name: "conv5"
  type: "Convolution"
  bottom: "conv4"
  top: "conv5"
  param {
    lr_mult: 1
    decay_mult: 1
  }
  param {
    lr_mult: 2
    decay_mult: 0
  }
  convolution_param {
    num_output: 8
    pad: 1
    kernel_size: 3
    group: 2
    weight_filler {
      type: "xavier"
    }
    bias_filler {
      type: "constant"
      value: 1
    }
  }
}
layer {
  name: "relu5"
  type: "ReLU"
  bottom: "conv5"
  top: "conv5"
}
layer {
  name: "pool5"
  type: "Pooling"
  bottom: "conv5"
  top: "pool5"
  pooling_param {
    pool: MAX
    kernel_size: 3
    stride: 2
  }
}
layer {
  name: "fc6"
  type: "InnerProduct"
  bottom: "pool5"
  top: "fc6"
  param {
    lr_mult: 1
    decay_mult: 1
  }
  param {
    lr_mult: 2
    decay_mult: 0
  }
  inner_product_param {
    num_output: 256
    weight_filler {
      type: "xavier"
    }
    bias_filler {
      type: "constant"
      value: 1
    }
  }
}
layer {
  name: "relu6"
  type: "ReLU"
  bottom: "fc6"
  top: "fc6"
}
layer {
  name: "drop6"
  type: "Dropout"
  bottom: "fc6"
  top: "fc6"
  dropout_param {
    dropout_ratio: 0.5
  }
}
layer {
  name: "fc7"
  type: "InnerProduct"
  bottom: "fc6"
  top: "fc7"
  param {
    lr_mult: 1
    decay_mult: 1
  }
  param {
    lr_mult: 2
    decay_mult: 0
  }
  inner_product_param {
    num_output: 256
    weight_filler {
      type: "xavier"
    }
    bias_filler {
      type: "constant"
      value: 1
    }
  }
}
layer {
  name: "relu7"
  type: "ReLU"
  bottom: "fc7"
  top: "fc7"
}
layer {
  name: "drop7"
  type: "Dropout"
  bottom: "fc7"
  top: "fc7"
  dropout_param {
    dropout_ratio: 0.5
  }
}
layer {
  name: "fc8"
  type: "InnerProduct"
  bottom: "fc7"
  top: "fc8"
  param {
    lr_mult: 1
    decay_mult: 1
  }
  param {
    lr_mult: 2
    decay_mult: 0
  }
  inner_product_param {
    num_output: 2
    weight_filler {
      type: "xavier"
    }
    bias_filler {
      type: "constant"
      value: 0
    }
  }
}
layer {
  name: "loss"
  type: "SoftmaxWithLoss"
  bottom: "fc8"
  bottom: "label"
  top: "loss"
}
I0204 16:30:48.853957  3484 layer_factory.hpp:77] Creating layer data
I0204 16:30:48.854137  3484 net.cpp:106] Creating Layer data
I0204 16:30:48.854177  3484 net.cpp:411] data -> data
I0204 16:30:48.854223  3484 net.cpp:411] data -> label
I0204 16:30:48.854243  3484 data_transformer.cpp:25] Loading mean file from: /home/pearlstl/proj_cv/master/lmdb/synth1_train_lum_db/mean_file.binaryproto
I0204 16:30:48.854308  3496 db_lmdb.cpp:38] Opened lmdb /home/pearlstl/proj_cv/master/lmdb/synth1_train_lum_db
I0204 16:30:48.858044  3484 data_layer.cpp:41] output data size: 100,1,227,227
I0204 16:30:48.880028  3484 net.cpp:150] Setting up data
I0204 16:30:48.880071  3484 net.cpp:157] Top shape: 100 1 227 227 (5152900)
I0204 16:30:48.880080  3484 net.cpp:157] Top shape: 100 (100)
I0204 16:30:48.880086  3484 net.cpp:165] Memory required for data: 20612000
I0204 16:30:48.880102  3484 layer_factory.hpp:77] Creating layer conv1
I0204 16:30:48.880130  3484 net.cpp:106] Creating Layer conv1
I0204 16:30:48.880139  3484 net.cpp:454] conv1 <- data
I0204 16:30:48.880163  3484 net.cpp:411] conv1 -> conv1
I0204 16:30:48.880255  3484 net.cpp:150] Setting up conv1
I0204 16:30:48.880266  3484 net.cpp:157] Top shape: 100 8 55 55 (2420000)
I0204 16:30:48.880273  3484 net.cpp:165] Memory required for data: 30292000
I0204 16:30:48.880290  3484 layer_factory.hpp:77] Creating layer relu1
I0204 16:30:48.880301  3484 net.cpp:106] Creating Layer relu1
I0204 16:30:48.880307  3484 net.cpp:454] relu1 <- conv1
I0204 16:30:48.880316  3484 net.cpp:397] relu1 -> conv1 (in-place)
I0204 16:30:48.880329  3484 net.cpp:150] Setting up relu1
I0204 16:30:48.880336  3484 net.cpp:157] Top shape: 100 8 55 55 (2420000)
I0204 16:30:48.880343  3484 net.cpp:165] Memory required for data: 39972000
I0204 16:30:48.880349  3484 layer_factory.hpp:77] Creating layer pool1
I0204 16:30:48.880359  3484 net.cpp:106] Creating Layer pool1
I0204 16:30:48.880365  3484 net.cpp:454] pool1 <- conv1
I0204 16:30:48.880373  3484 net.cpp:411] pool1 -> pool1
I0204 16:30:48.880395  3484 net.cpp:150] Setting up pool1
I0204 16:30:48.880403  3484 net.cpp:157] Top shape: 100 8 27 27 (583200)
I0204 16:30:48.880410  3484 net.cpp:165] Memory required for data: 42304800
I0204 16:30:48.880416  3484 layer_factory.hpp:77] Creating layer norm1
I0204 16:30:48.880437  3484 net.cpp:106] Creating Layer norm1
I0204 16:30:48.880451  3484 net.cpp:454] norm1 <- pool1
I0204 16:30:48.880460  3484 net.cpp:411] norm1 -> norm1
I0204 16:30:48.880478  3484 net.cpp:150] Setting up norm1
I0204 16:30:48.880486  3484 net.cpp:157] Top shape: 100 8 27 27 (583200)
I0204 16:30:48.880492  3484 net.cpp:165] Memory required for data: 44637600
I0204 16:30:48.880497  3484 layer_factory.hpp:77] Creating layer conv2
I0204 16:30:48.880508  3484 net.cpp:106] Creating Layer conv2
I0204 16:30:48.880513  3484 net.cpp:454] conv2 <- norm1
I0204 16:30:48.880522  3484 net.cpp:411] conv2 -> conv2
I0204 16:30:48.880555  3484 net.cpp:150] Setting up conv2
I0204 16:30:48.880563  3484 net.cpp:157] Top shape: 100 8 27 27 (583200)
I0204 16:30:48.880568  3484 net.cpp:165] Memory required for data: 46970400
I0204 16:30:48.880578  3484 layer_factory.hpp:77] Creating layer relu2
I0204 16:30:48.880587  3484 net.cpp:106] Creating Layer relu2
I0204 16:30:48.880592  3484 net.cpp:454] relu2 <- conv2
I0204 16:30:48.880600  3484 net.cpp:397] relu2 -> conv2 (in-place)
I0204 16:30:48.880610  3484 net.cpp:150] Setting up relu2
I0204 16:30:48.880619  3484 net.cpp:157] Top shape: 100 8 27 27 (583200)
I0204 16:30:48.880625  3484 net.cpp:165] Memory required for data: 49303200
I0204 16:30:48.880630  3484 layer_factory.hpp:77] Creating layer pool2
I0204 16:30:48.880637  3484 net.cpp:106] Creating Layer pool2
I0204 16:30:48.880643  3484 net.cpp:454] pool2 <- conv2
I0204 16:30:48.880651  3484 net.cpp:411] pool2 -> pool2
I0204 16:30:48.880661  3484 net.cpp:150] Setting up pool2
I0204 16:30:48.880669  3484 net.cpp:157] Top shape: 100 8 13 13 (135200)
I0204 16:30:48.880674  3484 net.cpp:165] Memory required for data: 49844000
I0204 16:30:48.880681  3484 layer_factory.hpp:77] Creating layer norm2
I0204 16:30:48.880691  3484 net.cpp:106] Creating Layer norm2
I0204 16:30:48.880697  3484 net.cpp:454] norm2 <- pool2
I0204 16:30:48.880704  3484 net.cpp:411] norm2 -> norm2
I0204 16:30:48.880713  3484 net.cpp:150] Setting up norm2
I0204 16:30:48.880720  3484 net.cpp:157] Top shape: 100 8 13 13 (135200)
I0204 16:30:48.880727  3484 net.cpp:165] Memory required for data: 50384800
I0204 16:30:48.880731  3484 layer_factory.hpp:77] Creating layer conv3
I0204 16:30:48.880741  3484 net.cpp:106] Creating Layer conv3
I0204 16:30:48.880746  3484 net.cpp:454] conv3 <- norm2
I0204 16:30:48.880758  3484 net.cpp:411] conv3 -> conv3
I0204 16:30:48.880784  3484 net.cpp:150] Setting up conv3
I0204 16:30:48.880792  3484 net.cpp:157] Top shape: 100 8 13 13 (135200)
I0204 16:30:48.880797  3484 net.cpp:165] Memory required for data: 50925600
I0204 16:30:48.880807  3484 layer_factory.hpp:77] Creating layer relu3
I0204 16:30:48.880815  3484 net.cpp:106] Creating Layer relu3
I0204 16:30:48.880823  3484 net.cpp:454] relu3 <- conv3
I0204 16:30:48.880831  3484 net.cpp:397] relu3 -> conv3 (in-place)
I0204 16:30:48.880841  3484 net.cpp:150] Setting up relu3
I0204 16:30:48.880846  3484 net.cpp:157] Top shape: 100 8 13 13 (135200)
I0204 16:30:48.880851  3484 net.cpp:165] Memory required for data: 51466400
I0204 16:30:48.880857  3484 layer_factory.hpp:77] Creating layer conv4
I0204 16:30:48.880867  3484 net.cpp:106] Creating Layer conv4
I0204 16:30:48.880872  3484 net.cpp:454] conv4 <- conv3
I0204 16:30:48.880880  3484 net.cpp:411] conv4 -> conv4
I0204 16:30:48.880906  3484 net.cpp:150] Setting up conv4
I0204 16:30:48.880913  3484 net.cpp:157] Top shape: 100 8 13 13 (135200)
I0204 16:30:48.880918  3484 net.cpp:165] Memory required for data: 52007200
I0204 16:30:48.880926  3484 layer_factory.hpp:77] Creating layer relu4
I0204 16:30:48.880934  3484 net.cpp:106] Creating Layer relu4
I0204 16:30:48.880939  3484 net.cpp:454] relu4 <- conv4
I0204 16:30:48.880946  3484 net.cpp:397] relu4 -> conv4 (in-place)
I0204 16:30:48.880957  3484 net.cpp:150] Setting up relu4
I0204 16:30:48.880964  3484 net.cpp:157] Top shape: 100 8 13 13 (135200)
I0204 16:30:48.880970  3484 net.cpp:165] Memory required for data: 52548000
I0204 16:30:48.880975  3484 layer_factory.hpp:77] Creating layer conv5
I0204 16:30:48.880990  3484 net.cpp:106] Creating Layer conv5
I0204 16:30:48.881001  3484 net.cpp:454] conv5 <- conv4
I0204 16:30:48.881011  3484 net.cpp:411] conv5 -> conv5
I0204 16:30:48.881034  3484 net.cpp:150] Setting up conv5
I0204 16:30:48.881042  3484 net.cpp:157] Top shape: 100 8 13 13 (135200)
I0204 16:30:48.881048  3484 net.cpp:165] Memory required for data: 53088800
I0204 16:30:48.881059  3484 layer_factory.hpp:77] Creating layer relu5
I0204 16:30:48.881067  3484 net.cpp:106] Creating Layer relu5
I0204 16:30:48.881073  3484 net.cpp:454] relu5 <- conv5
I0204 16:30:48.881081  3484 net.cpp:397] relu5 -> conv5 (in-place)
I0204 16:30:48.881089  3484 net.cpp:150] Setting up relu5
I0204 16:30:48.881098  3484 net.cpp:157] Top shape: 100 8 13 13 (135200)
I0204 16:30:48.881103  3484 net.cpp:165] Memory required for data: 53629600
I0204 16:30:48.881109  3484 layer_factory.hpp:77] Creating layer pool5
I0204 16:30:48.881117  3484 net.cpp:106] Creating Layer pool5
I0204 16:30:48.881124  3484 net.cpp:454] pool5 <- conv5
I0204 16:30:48.881131  3484 net.cpp:411] pool5 -> pool5
I0204 16:30:48.881141  3484 net.cpp:150] Setting up pool5
I0204 16:30:48.881148  3484 net.cpp:157] Top shape: 100 8 6 6 (28800)
I0204 16:30:48.881160  3484 net.cpp:165] Memory required for data: 53744800
I0204 16:30:48.881165  3484 layer_factory.hpp:77] Creating layer fc6
I0204 16:30:48.881181  3484 net.cpp:106] Creating Layer fc6
I0204 16:30:48.881188  3484 net.cpp:454] fc6 <- pool5
I0204 16:30:48.881197  3484 net.cpp:411] fc6 -> fc6
I0204 16:30:48.881961  3484 net.cpp:150] Setting up fc6
I0204 16:30:48.881973  3484 net.cpp:157] Top shape: 100 256 (25600)
I0204 16:30:48.881978  3484 net.cpp:165] Memory required for data: 53847200
I0204 16:30:48.881986  3484 layer_factory.hpp:77] Creating layer relu6
I0204 16:30:48.881996  3484 net.cpp:106] Creating Layer relu6
I0204 16:30:48.882002  3484 net.cpp:454] relu6 <- fc6
I0204 16:30:48.882011  3484 net.cpp:397] relu6 -> fc6 (in-place)
I0204 16:30:48.882021  3484 net.cpp:150] Setting up relu6
I0204 16:30:48.882028  3484 net.cpp:157] Top shape: 100 256 (25600)
I0204 16:30:48.882033  3484 net.cpp:165] Memory required for data: 53949600
I0204 16:30:48.882040  3484 layer_factory.hpp:77] Creating layer drop6
I0204 16:30:48.882050  3484 net.cpp:106] Creating Layer drop6
I0204 16:30:48.882055  3484 net.cpp:454] drop6 <- fc6
I0204 16:30:48.882063  3484 net.cpp:397] drop6 -> fc6 (in-place)
I0204 16:30:48.882079  3484 net.cpp:150] Setting up drop6
I0204 16:30:48.882088  3484 net.cpp:157] Top shape: 100 256 (25600)
I0204 16:30:48.882093  3484 net.cpp:165] Memory required for data: 54052000
I0204 16:30:48.882099  3484 layer_factory.hpp:77] Creating layer fc7
I0204 16:30:48.882108  3484 net.cpp:106] Creating Layer fc7
I0204 16:30:48.882113  3484 net.cpp:454] fc7 <- fc6
I0204 16:30:48.882122  3484 net.cpp:411] fc7 -> fc7
I0204 16:30:48.882777  3484 net.cpp:150] Setting up fc7
I0204 16:30:48.882788  3484 net.cpp:157] Top shape: 100 256 (25600)
I0204 16:30:48.882794  3484 net.cpp:165] Memory required for data: 54154400
I0204 16:30:48.882802  3484 layer_factory.hpp:77] Creating layer relu7
I0204 16:30:48.882812  3484 net.cpp:106] Creating Layer relu7
I0204 16:30:48.882818  3484 net.cpp:454] relu7 <- fc7
I0204 16:30:48.882825  3484 net.cpp:397] relu7 -> fc7 (in-place)
I0204 16:30:48.882834  3484 net.cpp:150] Setting up relu7
I0204 16:30:48.882840  3484 net.cpp:157] Top shape: 100 256 (25600)
I0204 16:30:48.882845  3484 net.cpp:165] Memory required for data: 54256800
I0204 16:30:48.882853  3484 layer_factory.hpp:77] Creating layer drop7
I0204 16:30:48.882860  3484 net.cpp:106] Creating Layer drop7
I0204 16:30:48.882866  3484 net.cpp:454] drop7 <- fc7
I0204 16:30:48.882875  3484 net.cpp:397] drop7 -> fc7 (in-place)
I0204 16:30:48.882885  3484 net.cpp:150] Setting up drop7
I0204 16:30:48.882892  3484 net.cpp:157] Top shape: 100 256 (25600)
I0204 16:30:48.882897  3484 net.cpp:165] Memory required for data: 54359200
I0204 16:30:48.882904  3484 layer_factory.hpp:77] Creating layer fc8
I0204 16:30:48.882911  3484 net.cpp:106] Creating Layer fc8
I0204 16:30:48.882923  3484 net.cpp:454] fc8 <- fc7
I0204 16:30:48.882939  3484 net.cpp:411] fc8 -> fc8
I0204 16:30:48.882963  3484 net.cpp:150] Setting up fc8
I0204 16:30:48.882972  3484 net.cpp:157] Top shape: 100 2 (200)
I0204 16:30:48.882977  3484 net.cpp:165] Memory required for data: 54360000
I0204 16:30:48.882985  3484 layer_factory.hpp:77] Creating layer loss
I0204 16:30:48.882995  3484 net.cpp:106] Creating Layer loss
I0204 16:30:48.883002  3484 net.cpp:454] loss <- fc8
I0204 16:30:48.883008  3484 net.cpp:454] loss <- label
I0204 16:30:48.883018  3484 net.cpp:411] loss -> loss
I0204 16:30:48.883031  3484 layer_factory.hpp:77] Creating layer loss
…
I0204 16:30:48.884089  3484 net.cpp:322] The NetState phase (1) differed from the phase (0) specified by a rule in layer data
I0204 16:30:48.884392  3484 net.cpp:49] Initializing net from parameters: 
name: "CaffeNet"
state {
  phase: TEST
}
layer {
  name: "data"
  type: "Data"
  top: "data"
  top: "label"
  include {
    phase: TEST
  }
  transform_param {
    mirror: false
    crop_size: 227
    mean_file: "/home/pearlstl/proj_cv/master/lmdb/synth1_test_lum_db/mean_file.binaryproto"
  }
  data_param {
    source: "/home/pearlstl/proj_cv/master/lmdb/synth1_test_lum_db"
    batch_size: 100
    backend: LMDB
  }
}
layer {
  name: "conv1"
  type: "Convolution"
  bottom: "data"
  top: "conv1"
  param {
    lr_mult: 1
    decay_mult: 1
  }
  param {
    lr_mult: 2
    decay_mult: 0
  }
  convolution_param {
    num_output: 8
    kernel_size: 11
    stride: 4
    weight_filler {
      type: "xavier"
    }
    bias_filler {
      type: "constant"
      value: 0
    }
  }
}
layer {
  name: "relu1"
  type: "ReLU"
  bottom: "conv1"
  top: "conv1"
}
layer {
  name: "pool1"
  type: "Pooling"
  bottom: "conv1"
  top: "pool1"
  pooling_param {
    pool: MAX
    kernel_size: 3
    stride: 2
  }
}
layer {
  name: "norm1"
  type: "LRN"
  bottom: "pool1"
  top: "norm1"
  lrn_param {
    local_size: 5
    alpha: 0.0001
    beta: 0.75
  }
}
layer {
  name: "conv2"
  type: "Convolution"
  bottom: "norm1"
  top: "conv2"
  param {
    lr_mult: 1
    decay_mult: 1
  }
  param {
    lr_mult: 2
    decay_mult: 0
  }
  convolution_param {
    num_output: 8
    pad: 2
    kernel_size: 5
    group: 2
    weight_filler {
      type: "xavier"
    }
    bias_filler {
      type: "constant"
      value: 1
    }
  }
}
layer {
  name: "relu2"
  type: "ReLU"
  bottom: "conv2"
  top: "conv2"
}
layer {
  name: "pool2"
  type: "Pooling"
  bottom: "conv2"
  top: "pool2"
  pooling_param {
    pool: MAX
    kernel_size: 3
    stride: 2
  }
}
layer {
  name: "norm2"
  type: "LRN"
  bottom: "pool2"
  top: "norm2"
  lrn_param {
    local_size: 5
    alpha: 0.0001
    beta: 0.75
  }
}
layer {
  name: "conv3"
  type: "Convolution"
  bottom: "norm2"
  top: "conv3"
  param {
    lr_mult: 1
    decay_mult: 1
  }
  param {
    lr_mult: 2
    decay_mult: 0
  }
  convolution_param {
    num_output: 8
    pad: 1
    kernel_size: 3
    weight_filler {
      type: "xavier"
    }
    bias_filler {
      type: "constant"
      value: 0
    }
  }
}
layer {
  name: "relu3"
  type: "ReLU"
  bottom: "conv3"
  top: "conv3"
}
layer {
  name: "conv4"
  type: "Convolution"
  bottom: "conv3"
  top: "conv4"
  param {
    lr_mult: 1
    decay_mult: 1
  }
  param {
    lr_mult: 2
    decay_mult: 0
  }
  convolution_param {
    num_output: 8
    pad: 1
    kernel_size: 3
    group: 2
    weight_filler {
      type: "xavier"
    }
    bias_filler {
      type: "constant"
      value: 1
    }
  }
}
layer {
  name: "relu4"
  type: "ReLU"
  bottom: "conv4"
  top: "conv4"
}
layer {
  name: "conv5"
  type: "Convolution"
  bottom: "conv4"
  top: "conv5"
  param {
    lr_mult: 1
    decay_mult: 1
  }
  param {
    lr_mult: 2
    decay_mult: 0
  }
  convolution_param {
    num_output: 8
    pad: 1
    kernel_size: 3
    group: 2
    weight_filler {
      type: "xavier"
    }
    bias_filler {
      type: "constant"
      value: 1
    }
  }
}
layer {
  name: "relu5"
  type: "ReLU"
  bottom: "conv5"
  top: "conv5"
}
layer {
  name: "pool5"
  type: "Pooling"
  bottom: "conv5"
  top: "pool5"
  pooling_param {
    pool: MAX
    kernel_size: 3
    stride: 2
  }
}
layer {
  name: "fc6"
  type: "InnerProduct"
  bottom: "pool5"
  top: "fc6"
  param {
    lr_mult: 1
    decay_mult: 1
  }
  param {
    lr_mult: 2
    decay_mult: 0
  }
  inner_product_param {
    num_output: 256
    weight_filler {
      type: "xavier"
    }
    bias_filler {
      type: "constant"
      value: 1
    }
  }
}
layer {
  name: "relu6"
  type: "ReLU"
  bottom: "fc6"
  top: "fc6"
}
layer {
  name: "drop6"
  type: "Dropout"
  bottom: "fc6"
  top: "fc6"
  dropout_param {
    dropout_ratio: 0.5
  }
}
layer {
  name: "fc7"
  type: "InnerProduct"
  bottom: "fc6"
  top: "fc7"
  param {
    lr_mult: 1
    decay_mult: 1
  }
  param {
    lr_mult: 2
    decay_mult: 0
  }
  inner_product_param {
    num_output: 256
    weight_filler {
      type: "xavier"
    }
    bias_filler {
      type: "constant"
      value: 1
    }
  }
}
layer {
  name: "relu7"
  type: "ReLU"
  bottom: "fc7"
  top: "fc7"
}
layer {
  name: "drop7"
  type: "Dropout"
  bottom: "fc7"
  top: "fc7"
  dropout_param {
    dropout_ratio: 0.5
  }
}
layer {
  name: "fc8"
  type: "InnerProduct"
  bottom: "fc7"
  top: "fc8"
  param {
    lr_mult: 1
    decay_mult: 1
  }
  param {
    lr_mult: 2
    decay_mult: 0
  }
  inner_product_param {
    num_output: 2
    weight_filler {
      type: "xavier"
    }
    bias_filler {
      type: "constant"
      value: 0
    }
  }
}
layer {
  name: "accuracy"
  type: "Accuracy"
  bottom: "fc8"
  bottom: "label"
  top: "accuracy"
  include {
    phase: TEST
  }
}
layer {
  name: "loss"
  type: "SoftmaxWithLoss"
  bottom: "fc8"
  bottom: "label"
  top: "loss"
}
I0204 16:30:48.884559  3484 layer_factory.hpp:77] Creating layer data
I0204 16:30:48.884706  3484 net.cpp:106] Creating Layer data
I0204 16:30:48.884719  3484 net.cpp:411] data -> data
I0204 16:30:48.884732  3484 net.cpp:411] data -> label
I0204 16:30:48.884744  3484 data_transformer.cpp:25] Loading mean file from: /home/pearlstl/proj_cv/master/lmdb/synth1_test_lum_db/mean_file.binaryproto
I0204 16:30:48.895226  3501 db_lmdb.cpp:38] Opened lmdb /home/pearlstl/proj_cv/master/lmdb/synth1_test_lum_db
I0204 16:30:48.895500  3484 data_layer.cpp:41] output data size: 100,1,227,227
I0204 16:30:48.945225  3484 net.cpp:150] Setting up data
I0204 16:30:48.945264  3484 net.cpp:157] Top shape: 100 1 227 227 (5152900)
I0204 16:30:48.945272  3484 net.cpp:157] Top shape: 100 (100)
I0204 16:30:48.945278  3484 net.cpp:165] Memory required for data: 20612000
I0204 16:30:48.945289  3484 layer_factory.hpp:77] Creating layer label_data_1_split
I0204 16:30:48.945310  3484 net.cpp:106] Creating Layer label_data_1_split
I0204 16:30:48.945318  3484 net.cpp:454] label_data_1_split <- label
I0204 16:30:48.945330  3484 net.cpp:411] label_data_1_split -> label_data_1_split_0
I0204 16:30:48.945348  3484 net.cpp:411] label_data_1_split -> label_data_1_split_1
I0204 16:30:48.945363  3484 net.cpp:150] Setting up label_data_1_split
I0204 16:30:48.945374  3484 net.cpp:157] Top shape: 100 (100)
I0204 16:30:48.945380  3484 net.cpp:157] Top shape: 100 (100)
I0204 16:30:48.945385  3484 net.cpp:165] Memory required for data: 20612800
I0204 16:30:48.945391  3484 layer_factory.hpp:77] Creating layer conv1
I0204 16:30:48.945406  3484 net.cpp:106] Creating Layer conv1
I0204 16:30:48.945413  3484 net.cpp:454] conv1 <- data
I0204 16:30:48.945422  3484 net.cpp:411] conv1 -> conv1
I0204 16:30:48.945471  3484 net.cpp:150] Setting up conv1
I0204 16:30:48.945480  3484 net.cpp:157] Top shape: 100 8 55 55 (2420000)
I0204 16:30:48.945487  3484 net.cpp:165] Memory required for data: 30292800
I0204 16:30:48.945499  3484 layer_factory.hpp:77] Creating layer relu1
I0204 16:30:48.945508  3484 net.cpp:106] Creating Layer relu1
I0204 16:30:48.945514  3484 net.cpp:454] relu1 <- conv1
I0204 16:30:48.945524  3484 net.cpp:397] relu1 -> conv1 (in-place)
I0204 16:30:48.945535  3484 net.cpp:150] Setting up relu1
I0204 16:30:48.945543  3484 net.cpp:157] Top shape: 100 8 55 55 (2420000)
I0204 16:30:48.945547  3484 net.cpp:165] Memory required for data: 39972800
I0204 16:30:48.945554  3484 layer_factory.hpp:77] Creating layer pool1
I0204 16:30:48.945564  3484 net.cpp:106] Creating Layer pool1
I0204 16:30:48.945570  3484 net.cpp:454] pool1 <- conv1
I0204 16:30:48.945579  3484 net.cpp:411] pool1 -> pool1
I0204 16:30:48.945593  3484 net.cpp:150] Setting up pool1
I0204 16:30:48.945601  3484 net.cpp:157] Top shape: 100 8 27 27 (583200)
I0204 16:30:48.945606  3484 net.cpp:165] Memory required for data: 42305600
I0204 16:30:48.945612  3484 layer_factory.hpp:77] Creating layer norm1
I0204 16:30:48.945623  3484 net.cpp:106] Creating Layer norm1
I0204 16:30:48.945629  3484 net.cpp:454] norm1 <- pool1
I0204 16:30:48.945636  3484 net.cpp:411] norm1 -> norm1
I0204 16:30:48.945647  3484 net.cpp:150] Setting up norm1
I0204 16:30:48.945655  3484 net.cpp:157] Top shape: 100 8 27 27 (583200)
I0204 16:30:48.945660  3484 net.cpp:165] Memory required for data: 44638400
I0204 16:30:48.945665  3484 layer_factory.hpp:77] Creating layer conv2
I0204 16:30:48.945675  3484 net.cpp:106] Creating Layer conv2
I0204 16:30:48.945683  3484 net.cpp:454] conv2 <- norm1
I0204 16:30:48.945693  3484 net.cpp:411] conv2 -> conv2
I0204 16:30:48.945722  3484 net.cpp:150] Setting up conv2
I0204 16:30:48.945730  3484 net.cpp:157] Top shape: 100 8 27 27 (583200)
I0204 16:30:48.945735  3484 net.cpp:165] Memory required for data: 46971200
I0204 16:30:48.945745  3484 layer_factory.hpp:77] Creating layer relu2
I0204 16:30:48.945756  3484 net.cpp:106] Creating Layer relu2
I0204 16:30:48.945762  3484 net.cpp:454] relu2 <- conv2
I0204 16:30:48.945770  3484 net.cpp:397] relu2 -> conv2 (in-place)
I0204 16:30:48.945788  3484 net.cpp:150] Setting up relu2
I0204 16:30:48.945804  3484 net.cpp:157] Top shape: 100 8 27 27 (583200)
I0204 16:30:48.945809  3484 net.cpp:165] Memory required for data: 49304000
I0204 16:30:48.945816  3484 layer_factory.hpp:77] Creating layer pool2
I0204 16:30:48.945824  3484 net.cpp:106] Creating Layer pool2
I0204 16:30:48.945832  3484 net.cpp:454] pool2 <- conv2
I0204 16:30:48.945840  3484 net.cpp:411] pool2 -> pool2
I0204 16:30:48.945852  3484 net.cpp:150] Setting up pool2
I0204 16:30:48.945860  3484 net.cpp:157] Top shape: 100 8 13 13 (135200)
I0204 16:30:48.945865  3484 net.cpp:165] Memory required for data: 49844800
I0204 16:30:48.945870  3484 layer_factory.hpp:77] Creating layer norm2
I0204 16:30:48.945878  3484 net.cpp:106] Creating Layer norm2
I0204 16:30:48.945884  3484 net.cpp:454] norm2 <- pool2
I0204 16:30:48.945893  3484 net.cpp:411] norm2 -> norm2
I0204 16:30:48.945904  3484 net.cpp:150] Setting up norm2
I0204 16:30:48.945911  3484 net.cpp:157] Top shape: 100 8 13 13 (135200)
I0204 16:30:48.945916  3484 net.cpp:165] Memory required for data: 50385600
I0204 16:30:48.945922  3484 layer_factory.hpp:77] Creating layer conv3
I0204 16:30:48.945932  3484 net.cpp:106] Creating Layer conv3
I0204 16:30:48.945938  3484 net.cpp:454] conv3 <- norm2
I0204 16:30:48.945947  3484 net.cpp:411] conv3 -> conv3
I0204 16:30:48.945974  3484 net.cpp:150] Setting up conv3
I0204 16:30:48.945982  3484 net.cpp:157] Top shape: 100 8 13 13 (135200)
I0204 16:30:48.945988  3484 net.cpp:165] Memory required for data: 50926400
I0204 16:30:48.945999  3484 layer_factory.hpp:77] Creating layer relu3
I0204 16:30:48.946007  3484 net.cpp:106] Creating Layer relu3
I0204 16:30:48.946013  3484 net.cpp:454] relu3 <- conv3
I0204 16:30:48.946022  3484 net.cpp:397] relu3 -> conv3 (in-place)
I0204 16:30:48.946030  3484 net.cpp:150] Setting up relu3
I0204 16:30:48.946036  3484 net.cpp:157] Top shape: 100 8 13 13 (135200)
I0204 16:30:48.946041  3484 net.cpp:165] Memory required for data: 51467200
I0204 16:30:48.946048  3484 layer_factory.hpp:77] Creating layer conv4
I0204 16:30:48.946059  3484 net.cpp:106] Creating Layer conv4
I0204 16:30:48.946064  3484 net.cpp:454] conv4 <- conv3
I0204 16:30:48.946074  3484 net.cpp:411] conv4 -> conv4
I0204 16:30:48.946094  3484 net.cpp:150] Setting up conv4
I0204 16:30:48.946102  3484 net.cpp:157] Top shape: 100 8 13 13 (135200)
I0204 16:30:48.946108  3484 net.cpp:165] Memory required for data: 52008000
I0204 16:30:48.946116  3484 layer_factory.hpp:77] Creating layer relu4
I0204 16:30:48.946125  3484 net.cpp:106] Creating Layer relu4
I0204 16:30:48.946132  3484 net.cpp:454] relu4 <- conv4
I0204 16:30:48.946141  3484 net.cpp:397] relu4 -> conv4 (in-place)
I0204 16:30:48.946148  3484 net.cpp:150] Setting up relu4
I0204 16:30:48.946161  3484 net.cpp:157] Top shape: 100 8 13 13 (135200)
I0204 16:30:48.946167  3484 net.cpp:165] Memory required for data: 52548800
I0204 16:30:48.946173  3484 layer_factory.hpp:77] Creating layer conv5
I0204 16:30:48.946183  3484 net.cpp:106] Creating Layer conv5
I0204 16:30:48.946189  3484 net.cpp:454] conv5 <- conv4
I0204 16:30:48.946199  3484 net.cpp:411] conv5 -> conv5
I0204 16:30:48.946223  3484 net.cpp:150] Setting up conv5
I0204 16:30:48.946230  3484 net.cpp:157] Top shape: 100 8 13 13 (135200)
I0204 16:30:48.946235  3484 net.cpp:165] Memory required for data: 53089600
I0204 16:30:48.946246  3484 layer_factory.hpp:77] Creating layer relu5
I0204 16:30:48.946254  3484 net.cpp:106] Creating Layer relu5
I0204 16:30:48.946259  3484 net.cpp:454] relu5 <- conv5
I0204 16:30:48.946266  3484 net.cpp:397] relu5 -> conv5 (in-place)
I0204 16:30:48.946277  3484 net.cpp:150] Setting up relu5
I0204 16:30:48.946285  3484 net.cpp:157] Top shape: 100 8 13 13 (135200)
I0204 16:30:48.946290  3484 net.cpp:165] Memory required for data: 53630400
I0204 16:30:48.946295  3484 layer_factory.hpp:77] Creating layer pool5
I0204 16:30:48.946305  3484 net.cpp:106] Creating Layer pool5
I0204 16:30:48.946310  3484 net.cpp:454] pool5 <- conv5
I0204 16:30:48.946318  3484 net.cpp:411] pool5 -> pool5
I0204 16:30:48.946333  3484 net.cpp:150] Setting up pool5
I0204 16:30:48.946348  3484 net.cpp:157] Top shape: 100 8 6 6 (28800)
I0204 16:30:48.946354  3484 net.cpp:165] Memory required for data: 53745600
I0204 16:30:48.946360  3484 layer_factory.hpp:77] Creating layer fc6
I0204 16:30:48.946372  3484 net.cpp:106] Creating Layer fc6
I0204 16:30:48.946378  3484 net.cpp:454] fc6 <- pool5
I0204 16:30:48.946387  3484 net.cpp:411] fc6 -> fc6
I0204 16:30:48.950336  3484 net.cpp:150] Setting up fc6
I0204 16:30:48.950367  3484 net.cpp:157] Top shape: 100 256 (25600)
I0204 16:30:48.950373  3484 net.cpp:165] Memory required for data: 53848000
I0204 16:30:48.950386  3484 layer_factory.hpp:77] Creating layer relu6
I0204 16:30:48.950397  3484 net.cpp:106] Creating Layer relu6
I0204 16:30:48.950404  3484 net.cpp:454] relu6 <- fc6
I0204 16:30:48.950413  3484 net.cpp:397] relu6 -> fc6 (in-place)
I0204 16:30:48.950426  3484 net.cpp:150] Setting up relu6
I0204 16:30:48.950434  3484 net.cpp:157] Top shape: 100 256 (25600)
I0204 16:30:48.950440  3484 net.cpp:165] Memory required for data: 53950400
I0204 16:30:48.950445  3484 layer_factory.hpp:77] Creating layer drop6
I0204 16:30:48.950459  3484 net.cpp:106] Creating Layer drop6
I0204 16:30:48.950464  3484 net.cpp:454] drop6 <- fc6
I0204 16:30:48.950472  3484 net.cpp:397] drop6 -> fc6 (in-place)
I0204 16:30:48.950484  3484 net.cpp:150] Setting up drop6
I0204 16:30:48.950491  3484 net.cpp:157] Top shape: 100 256 (25600)
I0204 16:30:48.950496  3484 net.cpp:165] Memory required for data: 54052800
I0204 16:30:48.950505  3484 layer_factory.hpp:77] Creating layer fc7
I0204 16:30:48.950517  3484 net.cpp:106] Creating Layer fc7
I0204 16:30:48.950523  3484 net.cpp:454] fc7 <- fc6
I0204 16:30:48.950531  3484 net.cpp:411] fc7 -> fc7
I0204 16:30:48.951223  3484 net.cpp:150] Setting up fc7
I0204 16:30:48.951236  3484 net.cpp:157] Top shape: 100 256 (25600)
I0204 16:30:48.951241  3484 net.cpp:165] Memory required for data: 54155200
I0204 16:30:48.951251  3484 layer_factory.hpp:77] Creating layer relu7
I0204 16:30:48.951261  3484 net.cpp:106] Creating Layer relu7
I0204 16:30:48.951267  3484 net.cpp:454] relu7 <- fc7
I0204 16:30:48.951273  3484 net.cpp:397] relu7 -> fc7 (in-place)
I0204 16:30:48.951282  3484 net.cpp:150] Setting up relu7
I0204 16:30:48.951289  3484 net.cpp:157] Top shape: 100 256 (25600)
I0204 16:30:48.951294  3484 net.cpp:165] Memory required for data: 54257600
I0204 16:30:48.951300  3484 layer_factory.hpp:77] Creating layer drop7
I0204 16:30:48.951310  3484 net.cpp:106] Creating Layer drop7
I0204 16:30:48.951316  3484 net.cpp:454] drop7 <- fc7
I0204 16:30:48.951323  3484 net.cpp:397] drop7 -> fc7 (in-place)
I0204 16:30:48.951333  3484 net.cpp:150] Setting up drop7
I0204 16:30:48.951342  3484 net.cpp:157] Top shape: 100 256 (25600)
I0204 16:30:48.951347  3484 net.cpp:165] Memory required for data: 54360000
I0204 16:30:48.951354  3484 layer_factory.hpp:77] Creating layer fc8
I0204 16:30:48.951367  3484 net.cpp:106] Creating Layer fc8
I0204 16:30:48.951373  3484 net.cpp:454] fc8 <- fc7
I0204 16:30:48.951381  3484 net.cpp:411] fc8 -> fc8
I0204 16:30:48.951408  3484 net.cpp:150] Setting up fc8
I0204 16:30:48.951418  3484 net.cpp:157] Top shape: 100 2 (200)
I0204 16:30:48.951424  3484 net.cpp:165] Memory required for data: 54360800
I0204 16:30:48.951432  3484 layer_factory.hpp:77] Creating layer fc8_fc8_0_split
I0204 16:30:48.951441  3484 net.cpp:106] Creating Layer fc8_fc8_0_split
I0204 16:30:48.951447  3484 net.cpp:454] fc8_fc8_0_split <- fc8
I0204 16:30:48.951457  3484 net.cpp:411] fc8_fc8_0_split -> fc8_fc8_0_split_0
I0204 16:30:48.951465  3484 net.cpp:411] fc8_fc8_0_split -> fc8_fc8_0_split_1
I0204 16:30:48.951475  3484 net.cpp:150] Setting up fc8_fc8_0_split
I0204 16:30:48.951483  3484 net.cpp:157] Top shape: 100 2 (200)
I0204 16:30:48.951490  3484 net.cpp:157] Top shape: 100 2 (200)
I0204 16:30:48.951496  3484 net.cpp:165] Memory required for data: 54362400
I0204 16:30:48.951501  3484 layer_factory.hpp:77] Creating layer accuracy
I0204 16:30:48.951516  3484 net.cpp:106] Creating Layer accuracy
I0204 16:30:48.951529  3484 net.cpp:454] accuracy <- fc8_fc8_0_split_0
I0204 16:30:48.951545  3484 net.cpp:454] accuracy <- label_data_1_split_0
I0204 16:30:48.951553  3484 net.cpp:411] accuracy -> accuracy
…
