…
I0204 08:47:10.106673 31851 net.cpp:322] The NetState phase (0) differed from the phase (1) specified by a rule in layer accuracy
I0204 08:47:10.106920 31851 net.cpp:49] Initializing net from parameters: 
name: "CaffeNet"
state {
  phase: TRAIN
}
layer {
  name: "data"
  type: "Data"
  top: "data"
  top: "label"
  include {
    phase: TRAIN
  }
  transform_param {
    mirror: true
    crop_size: 227
    mean_file: "/home/pearlstl/proj_cv/master/lmdb/synth1_train_lum_db/mean_file.binaryproto"
  }
  data_param {
    source: "/home/pearlstl/proj_cv/master/lmdb/synth1_train_lum_db"
    batch_size: 100
    backend: LMDB
  }
}
layer {
  name: "conv1"
  type: "Convolution"
  bottom: "data"
  top: "conv1"
  param {
    lr_mult: 1
    decay_mult: 1
  }
  param {
    lr_mult: 2
    decay_mult: 0
  }
  convolution_param {
    num_output: 32
    kernel_size: 11
    stride: 4
    weight_filler {
      type: "xavier"
    }
    bias_filler {
      type: "constant"
      value: 0
    }
  }
}
layer {
  name: "relu1"
  type: "ReLU"
  bottom: "conv1"
  top: "conv1"
}
layer {
  name: "pool1"
  type: "Pooling"
  bottom: "conv1"
  top: "pool1"
  pooling_param {
    pool: MAX
    kernel_size: 3
    stride: 2
  }
}
layer {
  name: "norm1"
  type: "LRN"
  bottom: "pool1"
  top: "norm1"
  lrn_param {
    local_size: 5
    alpha: 0.0001
    beta: 0.75
  }
}
layer {
  name: "conv2"
  type: "Convolution"
  bottom: "norm1"
  top: "conv2"
  param {
    lr_mult: 1
    decay_mult: 1
  }
  param {
    lr_mult: 2
    decay_mult: 0
  }
  convolution_param {
    num_output: 32
    pad: 2
    kernel_size: 5
    group: 2
    weight_filler {
      type: "xavier"
    }
    bias_filler {
      type: "constant"
      value: 1
    }
  }
}
layer {
  name: "relu2"
  type: "ReLU"
  bottom: "conv2"
  top: "conv2"
}
layer {
  name: "pool2"
  type: "Pooling"
  bottom: "conv2"
  top: "pool2"
  pooling_param {
    pool: MAX
    kernel_size: 3
    stride: 2
  }
}
layer {
  name: "norm2"
  type: "LRN"
  bottom: "pool2"
  top: "norm2"
  lrn_param {
    local_size: 5
    alpha: 0.0001
    beta: 0.75
  }
}
layer {
  name: "conv3"
  type: "Convolution"
  bottom: "norm2"
  top: "conv3"
  param {
    lr_mult: 1
    decay_mult: 1
  }
  param {
    lr_mult: 2
    decay_mult: 0
  }
  convolution_param {
    num_output: 32
    pad: 1
    kernel_size: 3
    weight_filler {
      type: "xavier"
    }
    bias_filler {
      type: "constant"
      value: 0
    }
  }
}
layer {
  name: "relu3"
  type: "ReLU"
  bottom: "conv3"
  top: "conv3"
}
layer {
  name: "conv4"
  type: "Convolution"
  bottom: "conv3"
  top: "conv4"
  param {
    lr_mult: 1
    decay_mult: 1
  }
  param {
    lr_mult: 2
    decay_mult: 0
  }
  convolution_param {
    num_output: 32
    pad: 1
    kernel_size: 3
    group: 2
    weight_filler {
      type: "xavier"
    }
    bias_filler {
      type: "constant"
      value: 1
    }
  }
}
layer {
  name: "relu4"
  type: "ReLU"
  bottom: "conv4"
  top: "conv4"
}
layer {
  name: "conv5"
  type: "Convolution"
  bottom: "conv4"
  top: "conv5"
  param {
    lr_mult: 1
    decay_mult: 1
  }
  param {
    lr_mult: 2
    decay_mult: 0
  }
  convolution_param {
    num_output: 16
    pad: 1
    kernel_size: 3
    group: 2
    weight_filler {
      type: "xavier"
    }
    bias_filler {
      type: "constant"
      value: 1
    }
  }
}
layer {
  name: "relu5"
  type: "ReLU"
  bottom: "conv5"
  top: "conv5"
}
layer {
  name: "pool5"
  type: "Pooling"
  bottom: "conv5"
  top: "pool5"
  pooling_param {
    pool: MAX
    kernel_size: 3
    stride: 2
  }
}
layer {
  name: "fc6"
  type: "InnerProduct"
  bottom: "pool5"
  top: "fc6"
  param {
    lr_mult: 1
    decay_mult: 1
  }
  param {
    lr_mult: 2
    decay_mult: 0
  }
  inner_product_param {
    num_output: 256
    weight_filler {
      type: "xavier"
    }
    bias_filler {
      type: "constant"
      value: 1
    }
  }
}
layer {
  name: "relu6"
  type: "ReLU"
  bottom: "fc6"
  top: "fc6"
}
layer {
  name: "drop6"
  type: "Dropout"
  bottom: "fc6"
  top: "fc6"
  dropout_param {
    dropout_ratio: 0.5
  }
}
layer {
  name: "fc7"
  type: "InnerProduct"
  bottom: "fc6"
  top: "fc7"
  param {
    lr_mult: 1
    decay_mult: 1
  }
  param {
    lr_mult: 2
    decay_mult: 0
  }
  inner_product_param {
    num_output: 256
    weight_filler {
      type: "xavier"
    }
    bias_filler {
      type: "constant"
      value: 1
    }
  }
}
layer {
  name: "relu7"
  type: "ReLU"
  bottom: "fc7"
  top: "fc7"
}
layer {
  name: "drop7"
  type: "Dropout"
  bottom: "fc7"
  top: "fc7"
  dropout_param {
    dropout_ratio: 0.5
  }
}
layer {
  name: "fc8"
  type: "InnerProduct"
  bottom: "fc7"
  top: "fc8"
  param {
    lr_mult: 1
    decay_mult: 1
  }
  param {
    lr_mult: 2
    decay_mult: 0
  }
  inner_product_param {
    num_output: 2
    weight_filler {
      type: "xavier"
    }
    bias_filler {
      type: "constant"
      value: 0
    }
  }
}
layer {
  name: "loss"
  type: "SoftmaxWithLoss"
  bottom: "fc8"
  bottom: "label"
  top: "loss"
}
I0204 08:47:10.107060 31851 layer_factory.hpp:77] Creating layer data
I0204 08:47:10.107250 31851 net.cpp:106] Creating Layer data
I0204 08:47:10.107270 31851 net.cpp:411] data -> data
I0204 08:47:10.107348 31851 net.cpp:411] data -> label
I0204 08:47:10.107372 31851 data_transformer.cpp:25] Loading mean file from: /home/pearlstl/proj_cv/master/lmdb/synth1_train_lum_db/mean_file.binaryproto
I0204 08:47:10.107530 31858 db_lmdb.cpp:38] Opened lmdb /home/pearlstl/proj_cv/master/lmdb/synth1_train_lum_db
I0204 08:47:10.108433 31851 data_layer.cpp:41] output data size: 100,1,227,227
I0204 08:47:10.137362 31851 net.cpp:150] Setting up data
I0204 08:47:10.137389 31851 net.cpp:157] Top shape: 100 1 227 227 (5152900)
I0204 08:47:10.137399 31851 net.cpp:157] Top shape: 100 (100)
I0204 08:47:10.137405 31851 net.cpp:165] Memory required for data: 20612000
I0204 08:47:10.137421 31851 layer_factory.hpp:77] Creating layer conv1
I0204 08:47:10.137457 31851 net.cpp:106] Creating Layer conv1
I0204 08:47:10.137467 31851 net.cpp:454] conv1 <- data
I0204 08:47:10.137490 31851 net.cpp:411] conv1 -> conv1
I0204 08:47:10.137619 31851 net.cpp:150] Setting up conv1
I0204 08:47:10.137630 31851 net.cpp:157] Top shape: 100 32 55 55 (9680000)
I0204 08:47:10.137636 31851 net.cpp:165] Memory required for data: 59332000
I0204 08:47:10.137653 31851 layer_factory.hpp:77] Creating layer relu1
I0204 08:47:10.137665 31851 net.cpp:106] Creating Layer relu1
I0204 08:47:10.137672 31851 net.cpp:454] relu1 <- conv1
I0204 08:47:10.137681 31851 net.cpp:397] relu1 -> conv1 (in-place)
I0204 08:47:10.137694 31851 net.cpp:150] Setting up relu1
I0204 08:47:10.137701 31851 net.cpp:157] Top shape: 100 32 55 55 (9680000)
I0204 08:47:10.137707 31851 net.cpp:165] Memory required for data: 98052000
I0204 08:47:10.137712 31851 layer_factory.hpp:77] Creating layer pool1
I0204 08:47:10.137723 31851 net.cpp:106] Creating Layer pool1
I0204 08:47:10.137732 31851 net.cpp:454] pool1 <- conv1
I0204 08:47:10.137740 31851 net.cpp:411] pool1 -> pool1
I0204 08:47:10.137763 31851 net.cpp:150] Setting up pool1
I0204 08:47:10.137773 31851 net.cpp:157] Top shape: 100 32 27 27 (2332800)
I0204 08:47:10.137778 31851 net.cpp:165] Memory required for data: 107383200
I0204 08:47:10.137784 31851 layer_factory.hpp:77] Creating layer norm1
I0204 08:47:10.137801 31851 net.cpp:106] Creating Layer norm1
I0204 08:47:10.137817 31851 net.cpp:454] norm1 <- pool1
I0204 08:47:10.137825 31851 net.cpp:411] norm1 -> norm1
I0204 08:47:10.137841 31851 net.cpp:150] Setting up norm1
I0204 08:47:10.137851 31851 net.cpp:157] Top shape: 100 32 27 27 (2332800)
I0204 08:47:10.137857 31851 net.cpp:165] Memory required for data: 116714400
I0204 08:47:10.137863 31851 layer_factory.hpp:77] Creating layer conv2
I0204 08:47:10.137874 31851 net.cpp:106] Creating Layer conv2
I0204 08:47:10.137881 31851 net.cpp:454] conv2 <- norm1
I0204 08:47:10.137889 31851 net.cpp:411] conv2 -> conv2
I0204 08:47:10.138020 31851 net.cpp:150] Setting up conv2
I0204 08:47:10.138031 31851 net.cpp:157] Top shape: 100 32 27 27 (2332800)
I0204 08:47:10.138036 31851 net.cpp:165] Memory required for data: 126045600
I0204 08:47:10.138047 31851 layer_factory.hpp:77] Creating layer relu2
I0204 08:47:10.138056 31851 net.cpp:106] Creating Layer relu2
I0204 08:47:10.138062 31851 net.cpp:454] relu2 <- conv2
I0204 08:47:10.138079 31851 net.cpp:397] relu2 -> conv2 (in-place)
I0204 08:47:10.138089 31851 net.cpp:150] Setting up relu2
I0204 08:47:10.138097 31851 net.cpp:157] Top shape: 100 32 27 27 (2332800)
I0204 08:47:10.138103 31851 net.cpp:165] Memory required for data: 135376800
I0204 08:47:10.138108 31851 layer_factory.hpp:77] Creating layer pool2
I0204 08:47:10.138118 31851 net.cpp:106] Creating Layer pool2
I0204 08:47:10.138124 31851 net.cpp:454] pool2 <- conv2
I0204 08:47:10.138139 31851 net.cpp:411] pool2 -> pool2
I0204 08:47:10.138151 31851 net.cpp:150] Setting up pool2
I0204 08:47:10.138159 31851 net.cpp:157] Top shape: 100 32 13 13 (540800)
I0204 08:47:10.138165 31851 net.cpp:165] Memory required for data: 137540000
I0204 08:47:10.138170 31851 layer_factory.hpp:77] Creating layer norm2
I0204 08:47:10.138180 31851 net.cpp:106] Creating Layer norm2
I0204 08:47:10.138186 31851 net.cpp:454] norm2 <- pool2
I0204 08:47:10.138196 31851 net.cpp:411] norm2 -> norm2
I0204 08:47:10.138206 31851 net.cpp:150] Setting up norm2
I0204 08:47:10.138212 31851 net.cpp:157] Top shape: 100 32 13 13 (540800)
I0204 08:47:10.138218 31851 net.cpp:165] Memory required for data: 139703200
I0204 08:47:10.138223 31851 layer_factory.hpp:77] Creating layer conv3
I0204 08:47:10.138234 31851 net.cpp:106] Creating Layer conv3
I0204 08:47:10.138239 31851 net.cpp:454] conv3 <- norm2
I0204 08:47:10.138252 31851 net.cpp:411] conv3 -> conv3
I0204 08:47:10.138361 31851 net.cpp:150] Setting up conv3
I0204 08:47:10.138371 31851 net.cpp:157] Top shape: 100 32 13 13 (540800)
I0204 08:47:10.138376 31851 net.cpp:165] Memory required for data: 141866400
I0204 08:47:10.138389 31851 layer_factory.hpp:77] Creating layer relu3
I0204 08:47:10.138397 31851 net.cpp:106] Creating Layer relu3
I0204 08:47:10.138403 31851 net.cpp:454] relu3 <- conv3
I0204 08:47:10.138413 31851 net.cpp:397] relu3 -> conv3 (in-place)
I0204 08:47:10.138422 31851 net.cpp:150] Setting up relu3
I0204 08:47:10.138429 31851 net.cpp:157] Top shape: 100 32 13 13 (540800)
I0204 08:47:10.138434 31851 net.cpp:165] Memory required for data: 144029600
I0204 08:47:10.138439 31851 layer_factory.hpp:77] Creating layer conv4
I0204 08:47:10.138449 31851 net.cpp:106] Creating Layer conv4
I0204 08:47:10.138454 31851 net.cpp:454] conv4 <- conv3
I0204 08:47:10.138465 31851 net.cpp:411] conv4 -> conv4
I0204 08:47:10.138543 31851 net.cpp:150] Setting up conv4
I0204 08:47:10.138552 31851 net.cpp:157] Top shape: 100 32 13 13 (540800)
I0204 08:47:10.138557 31851 net.cpp:165] Memory required for data: 146192800
I0204 08:47:10.138566 31851 layer_factory.hpp:77] Creating layer relu4
I0204 08:47:10.138573 31851 net.cpp:106] Creating Layer relu4
I0204 08:47:10.138578 31851 net.cpp:454] relu4 <- conv4
I0204 08:47:10.138586 31851 net.cpp:397] relu4 -> conv4 (in-place)
I0204 08:47:10.138594 31851 net.cpp:150] Setting up relu4
I0204 08:47:10.138602 31851 net.cpp:157] Top shape: 100 32 13 13 (540800)
I0204 08:47:10.138607 31851 net.cpp:165] Memory required for data: 148356000
I0204 08:47:10.138612 31851 layer_factory.hpp:77] Creating layer conv5
I0204 08:47:10.138635 31851 net.cpp:106] Creating Layer conv5
I0204 08:47:10.138643 31851 net.cpp:454] conv5 <- conv4
I0204 08:47:10.138651 31851 net.cpp:411] conv5 -> conv5
I0204 08:47:10.138698 31851 net.cpp:150] Setting up conv5
I0204 08:47:10.138707 31851 net.cpp:157] Top shape: 100 16 13 13 (270400)
I0204 08:47:10.138713 31851 net.cpp:165] Memory required for data: 149437600
I0204 08:47:10.138725 31851 layer_factory.hpp:77] Creating layer relu5
I0204 08:47:10.138734 31851 net.cpp:106] Creating Layer relu5
I0204 08:47:10.138741 31851 net.cpp:454] relu5 <- conv5
I0204 08:47:10.138747 31851 net.cpp:397] relu5 -> conv5 (in-place)
I0204 08:47:10.138756 31851 net.cpp:150] Setting up relu5
I0204 08:47:10.138762 31851 net.cpp:157] Top shape: 100 16 13 13 (270400)
I0204 08:47:10.138767 31851 net.cpp:165] Memory required for data: 150519200
I0204 08:47:10.138775 31851 layer_factory.hpp:77] Creating layer pool5
I0204 08:47:10.138785 31851 net.cpp:106] Creating Layer pool5
I0204 08:47:10.138792 31851 net.cpp:454] pool5 <- conv5
I0204 08:47:10.138802 31851 net.cpp:411] pool5 -> pool5
I0204 08:47:10.138813 31851 net.cpp:150] Setting up pool5
I0204 08:47:10.138820 31851 net.cpp:157] Top shape: 100 16 6 6 (57600)
I0204 08:47:10.138825 31851 net.cpp:165] Memory required for data: 150749600
I0204 08:47:10.138831 31851 layer_factory.hpp:77] Creating layer fc6
I0204 08:47:10.138849 31851 net.cpp:106] Creating Layer fc6
I0204 08:47:10.138854 31851 net.cpp:454] fc6 <- pool5
I0204 08:47:10.138862 31851 net.cpp:411] fc6 -> fc6
I0204 08:47:10.140436 31851 net.cpp:150] Setting up fc6
I0204 08:47:10.140450 31851 net.cpp:157] Top shape: 100 256 (25600)
I0204 08:47:10.140455 31851 net.cpp:165] Memory required for data: 150852000
I0204 08:47:10.140463 31851 layer_factory.hpp:77] Creating layer relu6
I0204 08:47:10.140476 31851 net.cpp:106] Creating Layer relu6
I0204 08:47:10.140482 31851 net.cpp:454] relu6 <- fc6
I0204 08:47:10.140491 31851 net.cpp:397] relu6 -> fc6 (in-place)
I0204 08:47:10.140501 31851 net.cpp:150] Setting up relu6
I0204 08:47:10.140507 31851 net.cpp:157] Top shape: 100 256 (25600)
I0204 08:47:10.140512 31851 net.cpp:165] Memory required for data: 150954400
I0204 08:47:10.140517 31851 layer_factory.hpp:77] Creating layer drop6
I0204 08:47:10.140527 31851 net.cpp:106] Creating Layer drop6
I0204 08:47:10.140532 31851 net.cpp:454] drop6 <- fc6
I0204 08:47:10.140539 31851 net.cpp:397] drop6 -> fc6 (in-place)
I0204 08:47:10.140555 31851 net.cpp:150] Setting up drop6
I0204 08:47:10.140563 31851 net.cpp:157] Top shape: 100 256 (25600)
I0204 08:47:10.140568 31851 net.cpp:165] Memory required for data: 151056800
I0204 08:47:10.140574 31851 layer_factory.hpp:77] Creating layer fc7
I0204 08:47:10.140583 31851 net.cpp:106] Creating Layer fc7
I0204 08:47:10.140588 31851 net.cpp:454] fc7 <- fc6
I0204 08:47:10.140601 31851 net.cpp:411] fc7 -> fc7
I0204 08:47:10.141306 31851 net.cpp:150] Setting up fc7
I0204 08:47:10.141319 31851 net.cpp:157] Top shape: 100 256 (25600)
I0204 08:47:10.141324 31851 net.cpp:165] Memory required for data: 151159200
I0204 08:47:10.141333 31851 layer_factory.hpp:77] Creating layer relu7
I0204 08:47:10.141345 31851 net.cpp:106] Creating Layer relu7
I0204 08:47:10.141350 31851 net.cpp:454] relu7 <- fc7
I0204 08:47:10.141357 31851 net.cpp:397] relu7 -> fc7 (in-place)
I0204 08:47:10.141366 31851 net.cpp:150] Setting up relu7
I0204 08:47:10.141373 31851 net.cpp:157] Top shape: 100 256 (25600)
I0204 08:47:10.141378 31851 net.cpp:165] Memory required for data: 151261600
I0204 08:47:10.141384 31851 layer_factory.hpp:77] Creating layer drop7
I0204 08:47:10.141391 31851 net.cpp:106] Creating Layer drop7
I0204 08:47:10.141402 31851 net.cpp:454] drop7 <- fc7
I0204 08:47:10.141409 31851 net.cpp:397] drop7 -> fc7 (in-place)
I0204 08:47:10.141419 31851 net.cpp:150] Setting up drop7
I0204 08:47:10.141427 31851 net.cpp:157] Top shape: 100 256 (25600)
I0204 08:47:10.141432 31851 net.cpp:165] Memory required for data: 151364000
I0204 08:47:10.141438 31851 layer_factory.hpp:77] Creating layer fc8
I0204 08:47:10.141450 31851 net.cpp:106] Creating Layer fc8
I0204 08:47:10.141463 31851 net.cpp:454] fc8 <- fc7
I0204 08:47:10.141474 31851 net.cpp:411] fc8 -> fc8
I0204 08:47:10.141495 31851 net.cpp:150] Setting up fc8
I0204 08:47:10.141504 31851 net.cpp:157] Top shape: 100 2 (200)
I0204 08:47:10.141508 31851 net.cpp:165] Memory required for data: 151364800
I0204 08:47:10.141516 31851 layer_factory.hpp:77] Creating layer loss
I0204 08:47:10.141528 31851 net.cpp:106] Creating Layer loss
I0204 08:47:10.141535 31851 net.cpp:454] loss <- fc8
I0204 08:47:10.141541 31851 net.cpp:454] loss <- label
I0204 08:47:10.141554 31851 net.cpp:411] loss -> loss
I0204 08:47:10.141568 31851 layer_factory.hpp:77] Creating layer loss
…
I0204 08:47:10.142602 31851 net.cpp:322] The NetState phase (1) differed from the phase (0) specified by a rule in layer data
I0204 08:47:10.142890 31851 net.cpp:49] Initializing net from parameters: 
name: "CaffeNet"
state {
  phase: TEST
}
layer {
  name: "data"
  type: "Data"
  top: "data"
  top: "label"
  include {
    phase: TEST
  }
  transform_param {
    mirror: false
    crop_size: 227
    mean_file: "/home/pearlstl/proj_cv/master/lmdb/synth1_test_lum_db/mean_file.binaryproto"
  }
  data_param {
    source: "/home/pearlstl/proj_cv/master/lmdb/synth1_test_lum_db"
    batch_size: 100
    backend: LMDB
  }
}
layer {
  name: "conv1"
  type: "Convolution"
  bottom: "data"
  top: "conv1"
  param {
    lr_mult: 1
    decay_mult: 1
  }
  param {
    lr_mult: 2
    decay_mult: 0
  }
  convolution_param {
    num_output: 32
    kernel_size: 11
    stride: 4
    weight_filler {
      type: "xavier"
    }
    bias_filler {
      type: "constant"
      value: 0
    }
  }
}
layer {
  name: "relu1"
  type: "ReLU"
  bottom: "conv1"
  top: "conv1"
}
layer {
  name: "pool1"
  type: "Pooling"
  bottom: "conv1"
  top: "pool1"
  pooling_param {
    pool: MAX
    kernel_size: 3
    stride: 2
  }
}
layer {
  name: "norm1"
  type: "LRN"
  bottom: "pool1"
  top: "norm1"
  lrn_param {
    local_size: 5
    alpha: 0.0001
    beta: 0.75
  }
}
layer {
  name: "conv2"
  type: "Convolution"
  bottom: "norm1"
  top: "conv2"
  param {
    lr_mult: 1
    decay_mult: 1
  }
  param {
    lr_mult: 2
    decay_mult: 0
  }
  convolution_param {
    num_output: 32
    pad: 2
    kernel_size: 5
    group: 2
    weight_filler {
      type: "xavier"
    }
    bias_filler {
      type: "constant"
      value: 1
    }
  }
}
layer {
  name: "relu2"
  type: "ReLU"
  bottom: "conv2"
  top: "conv2"
}
layer {
  name: "pool2"
  type: "Pooling"
  bottom: "conv2"
  top: "pool2"
  pooling_param {
    pool: MAX
    kernel_size: 3
    stride: 2
  }
}
layer {
  name: "norm2"
  type: "LRN"
  bottom: "pool2"
  top: "norm2"
  lrn_param {
    local_size: 5
    alpha: 0.0001
    beta: 0.75
  }
}
layer {
  name: "conv3"
  type: "Convolution"
  bottom: "norm2"
  top: "conv3"
  param {
    lr_mult: 1
    decay_mult: 1
  }
  param {
    lr_mult: 2
    decay_mult: 0
  }
  convolution_param {
    num_output: 32
    pad: 1
    kernel_size: 3
    weight_filler {
      type: "xavier"
    }
    bias_filler {
      type: "constant"
      value: 0
    }
  }
}
layer {
  name: "relu3"
  type: "ReLU"
  bottom: "conv3"
  top: "conv3"
}
layer {
  name: "conv4"
  type: "Convolution"
  bottom: "conv3"
  top: "conv4"
  param {
    lr_mult: 1
    decay_mult: 1
  }
  param {
    lr_mult: 2
    decay_mult: 0
  }
  convolution_param {
    num_output: 32
    pad: 1
    kernel_size: 3
    group: 2
    weight_filler {
      type: "xavier"
    }
    bias_filler {
      type: "constant"
      value: 1
    }
  }
}
layer {
  name: "relu4"
  type: "ReLU"
  bottom: "conv4"
  top: "conv4"
}
layer {
  name: "conv5"
  type: "Convolution"
  bottom: "conv4"
  top: "conv5"
  param {
    lr_mult: 1
    decay_mult: 1
  }
  param {
    lr_mult: 2
    decay_mult: 0
  }
  convolution_param {
    num_output: 16
    pad: 1
    kernel_size: 3
    group: 2
    weight_filler {
      type: "xavier"
    }
    bias_filler {
      type: "constant"
      value: 1
    }
  }
}
layer {
  name: "relu5"
  type: "ReLU"
  bottom: "conv5"
  top: "conv5"
}
layer {
  name: "pool5"
  type: "Pooling"
  bottom: "conv5"
  top: "pool5"
  pooling_param {
    pool: MAX
    kernel_size: 3
    stride: 2
  }
}
layer {
  name: "fc6"
  type: "InnerProduct"
  bottom: "pool5"
  top: "fc6"
  param {
    lr_mult: 1
    decay_mult: 1
  }
  param {
    lr_mult: 2
    decay_mult: 0
  }
  inner_product_param {
    num_output: 256
    weight_filler {
      type: "xavier"
    }
    bias_filler {
      type: "constant"
      value: 1
    }
  }
}
layer {
  name: "relu6"
  type: "ReLU"
  bottom: "fc6"
  top: "fc6"
}
layer {
  name: "drop6"
  type: "Dropout"
  bottom: "fc6"
  top: "fc6"
  dropout_param {
    dropout_ratio: 0.5
  }
}
layer {
  name: "fc7"
  type: "InnerProduct"
  bottom: "fc6"
  top: "fc7"
  param {
    lr_mult: 1
    decay_mult: 1
  }
  param {
    lr_mult: 2
    decay_mult: 0
  }
  inner_product_param {
    num_output: 256
    weight_filler {
      type: "xavier"
    }
    bias_filler {
      type: "constant"
      value: 1
    }
  }
}
layer {
  name: "relu7"
  type: "ReLU"
  bottom: "fc7"
  top: "fc7"
}
layer {
  name: "drop7"
  type: "Dropout"
  bottom: "fc7"
  top: "fc7"
  dropout_param {
    dropout_ratio: 0.5
  }
}
layer {
  name: "fc8"
  type: "InnerProduct"
  bottom: "fc7"
  top: "fc8"
  param {
    lr_mult: 1
    decay_mult: 1
  }
  param {
    lr_mult: 2
    decay_mult: 0
  }
  inner_product_param {
    num_output: 2
    weight_filler {
      type: "xavier"
    }
    bias_filler {
      type: "constant"
      value: 0
    }
  }
}
layer {
  name: "accuracy"
  type: "Accuracy"
  bottom: "fc8"
  bottom: "label"
  top: "accuracy"
  include {
    phase: TEST
  }
}
layer {
  name: "loss"
  type: "SoftmaxWithLoss"
  bottom: "fc8"
  bottom: "label"
  top: "loss"
}
I0204 08:47:10.143064 31851 layer_factory.hpp:77] Creating layer data
I0204 08:47:10.143223 31851 net.cpp:106] Creating Layer data
I0204 08:47:10.143239 31851 net.cpp:411] data -> data
I0204 08:47:10.143252 31851 net.cpp:411] data -> label
I0204 08:47:10.143263 31851 data_transformer.cpp:25] Loading mean file from: /home/pearlstl/proj_cv/master/lmdb/synth1_test_lum_db/mean_file.binaryproto
I0204 08:47:10.143445 31870 db_lmdb.cpp:38] Opened lmdb /home/pearlstl/proj_cv/master/lmdb/synth1_test_lum_db
I0204 08:47:10.144271 31851 data_layer.cpp:41] output data size: 100,1,227,227
I0204 08:47:10.176983 31851 net.cpp:150] Setting up data
I0204 08:47:10.177016 31851 net.cpp:157] Top shape: 100 1 227 227 (5152900)
I0204 08:47:10.177027 31851 net.cpp:157] Top shape: 100 (100)
I0204 08:47:10.177037 31851 net.cpp:165] Memory required for data: 20612000
I0204 08:47:10.177052 31851 layer_factory.hpp:77] Creating layer label_data_1_split
I0204 08:47:10.177073 31851 net.cpp:106] Creating Layer label_data_1_split
I0204 08:47:10.177095 31851 net.cpp:454] label_data_1_split <- label
I0204 08:47:10.177108 31851 net.cpp:411] label_data_1_split -> label_data_1_split_0
I0204 08:47:10.177125 31851 net.cpp:411] label_data_1_split -> label_data_1_split_1
I0204 08:47:10.177139 31851 net.cpp:150] Setting up label_data_1_split
I0204 08:47:10.177147 31851 net.cpp:157] Top shape: 100 (100)
I0204 08:47:10.177153 31851 net.cpp:157] Top shape: 100 (100)
I0204 08:47:10.177160 31851 net.cpp:165] Memory required for data: 20612800
I0204 08:47:10.177165 31851 layer_factory.hpp:77] Creating layer conv1
I0204 08:47:10.177182 31851 net.cpp:106] Creating Layer conv1
I0204 08:47:10.177189 31851 net.cpp:454] conv1 <- data
I0204 08:47:10.177199 31851 net.cpp:411] conv1 -> conv1
I0204 08:47:10.177278 31851 net.cpp:150] Setting up conv1
I0204 08:47:10.177290 31851 net.cpp:157] Top shape: 100 32 55 55 (9680000)
I0204 08:47:10.177296 31851 net.cpp:165] Memory required for data: 59332800
I0204 08:47:10.177310 31851 layer_factory.hpp:77] Creating layer relu1
I0204 08:47:10.177325 31851 net.cpp:106] Creating Layer relu1
I0204 08:47:10.177331 31851 net.cpp:454] relu1 <- conv1
I0204 08:47:10.177340 31851 net.cpp:397] relu1 -> conv1 (in-place)
I0204 08:47:10.177352 31851 net.cpp:150] Setting up relu1
I0204 08:47:10.177361 31851 net.cpp:157] Top shape: 100 32 55 55 (9680000)
I0204 08:47:10.177366 31851 net.cpp:165] Memory required for data: 98052800
I0204 08:47:10.177372 31851 layer_factory.hpp:77] Creating layer pool1
I0204 08:47:10.177383 31851 net.cpp:106] Creating Layer pool1
I0204 08:47:10.177391 31851 net.cpp:454] pool1 <- conv1
I0204 08:47:10.177398 31851 net.cpp:411] pool1 -> pool1
I0204 08:47:10.177417 31851 net.cpp:150] Setting up pool1
I0204 08:47:10.177425 31851 net.cpp:157] Top shape: 100 32 27 27 (2332800)
I0204 08:47:10.177430 31851 net.cpp:165] Memory required for data: 107384000
I0204 08:47:10.177438 31851 layer_factory.hpp:77] Creating layer norm1
I0204 08:47:10.177448 31851 net.cpp:106] Creating Layer norm1
I0204 08:47:10.177454 31851 net.cpp:454] norm1 <- pool1
I0204 08:47:10.177462 31851 net.cpp:411] norm1 -> norm1
I0204 08:47:10.177474 31851 net.cpp:150] Setting up norm1
I0204 08:47:10.177484 31851 net.cpp:157] Top shape: 100 32 27 27 (2332800)
I0204 08:47:10.177490 31851 net.cpp:165] Memory required for data: 116715200
I0204 08:47:10.177497 31851 layer_factory.hpp:77] Creating layer conv2
I0204 08:47:10.177510 31851 net.cpp:106] Creating Layer conv2
I0204 08:47:10.177516 31851 net.cpp:454] conv2 <- norm1
I0204 08:47:10.177526 31851 net.cpp:411] conv2 -> conv2
I0204 08:47:10.177662 31851 net.cpp:150] Setting up conv2
I0204 08:47:10.177673 31851 net.cpp:157] Top shape: 100 32 27 27 (2332800)
I0204 08:47:10.177680 31851 net.cpp:165] Memory required for data: 126046400
I0204 08:47:10.177691 31851 layer_factory.hpp:77] Creating layer relu2
I0204 08:47:10.177700 31851 net.cpp:106] Creating Layer relu2
I0204 08:47:10.177707 31851 net.cpp:454] relu2 <- conv2
I0204 08:47:10.177716 31851 net.cpp:397] relu2 -> conv2 (in-place)
I0204 08:47:10.177747 31851 net.cpp:150] Setting up relu2
I0204 08:47:10.177754 31851 net.cpp:157] Top shape: 100 32 27 27 (2332800)
I0204 08:47:10.177760 31851 net.cpp:165] Memory required for data: 135377600
I0204 08:47:10.177767 31851 layer_factory.hpp:77] Creating layer pool2
I0204 08:47:10.177778 31851 net.cpp:106] Creating Layer pool2
I0204 08:47:10.177783 31851 net.cpp:454] pool2 <- conv2
I0204 08:47:10.177793 31851 net.cpp:411] pool2 -> pool2
I0204 08:47:10.177809 31851 net.cpp:150] Setting up pool2
I0204 08:47:10.177816 31851 net.cpp:157] Top shape: 100 32 13 13 (540800)
I0204 08:47:10.177822 31851 net.cpp:165] Memory required for data: 137540800
I0204 08:47:10.177829 31851 layer_factory.hpp:77] Creating layer norm2
I0204 08:47:10.177839 31851 net.cpp:106] Creating Layer norm2
I0204 08:47:10.177845 31851 net.cpp:454] norm2 <- pool2
I0204 08:47:10.177855 31851 net.cpp:411] norm2 -> norm2
I0204 08:47:10.177865 31851 net.cpp:150] Setting up norm2
I0204 08:47:10.177872 31851 net.cpp:157] Top shape: 100 32 13 13 (540800)
I0204 08:47:10.177881 31851 net.cpp:165] Memory required for data: 139704000
I0204 08:47:10.177887 31851 layer_factory.hpp:77] Creating layer conv3
I0204 08:47:10.177901 31851 net.cpp:106] Creating Layer conv3
I0204 08:47:10.177907 31851 net.cpp:454] conv3 <- norm2
I0204 08:47:10.177917 31851 net.cpp:411] conv3 -> conv3
I0204 08:47:10.178020 31851 net.cpp:150] Setting up conv3
I0204 08:47:10.178030 31851 net.cpp:157] Top shape: 100 32 13 13 (540800)
I0204 08:47:10.178035 31851 net.cpp:165] Memory required for data: 141867200
I0204 08:47:10.178055 31851 layer_factory.hpp:77] Creating layer relu3
I0204 08:47:10.178067 31851 net.cpp:106] Creating Layer relu3
I0204 08:47:10.178073 31851 net.cpp:454] relu3 <- conv3
I0204 08:47:10.178083 31851 net.cpp:397] relu3 -> conv3 (in-place)
I0204 08:47:10.178094 31851 net.cpp:150] Setting up relu3
I0204 08:47:10.178102 31851 net.cpp:157] Top shape: 100 32 13 13 (540800)
I0204 08:47:10.178107 31851 net.cpp:165] Memory required for data: 144030400
I0204 08:47:10.178113 31851 layer_factory.hpp:77] Creating layer conv4
I0204 08:47:10.178128 31851 net.cpp:106] Creating Layer conv4
I0204 08:47:10.178135 31851 net.cpp:454] conv4 <- conv3
I0204 08:47:10.178146 31851 net.cpp:411] conv4 -> conv4
I0204 08:47:10.178210 31851 net.cpp:150] Setting up conv4
I0204 08:47:10.178220 31851 net.cpp:157] Top shape: 100 32 13 13 (540800)
I0204 08:47:10.178226 31851 net.cpp:165] Memory required for data: 146193600
I0204 08:47:10.178236 31851 layer_factory.hpp:77] Creating layer relu4
I0204 08:47:10.178246 31851 net.cpp:106] Creating Layer relu4
I0204 08:47:10.178251 31851 net.cpp:454] relu4 <- conv4
I0204 08:47:10.178261 31851 net.cpp:397] relu4 -> conv4 (in-place)
I0204 08:47:10.178270 31851 net.cpp:150] Setting up relu4
I0204 08:47:10.178278 31851 net.cpp:157] Top shape: 100 32 13 13 (540800)
I0204 08:47:10.178284 31851 net.cpp:165] Memory required for data: 148356800
I0204 08:47:10.178289 31851 layer_factory.hpp:77] Creating layer conv5
I0204 08:47:10.178304 31851 net.cpp:106] Creating Layer conv5
I0204 08:47:10.178310 31851 net.cpp:454] conv5 <- conv4
I0204 08:47:10.178320 31851 net.cpp:411] conv5 -> conv5
I0204 08:47:10.178364 31851 net.cpp:150] Setting up conv5
I0204 08:47:10.178375 31851 net.cpp:157] Top shape: 100 16 13 13 (270400)
I0204 08:47:10.178381 31851 net.cpp:165] Memory required for data: 149438400
I0204 08:47:10.178395 31851 layer_factory.hpp:77] Creating layer relu5
I0204 08:47:10.178405 31851 net.cpp:106] Creating Layer relu5
I0204 08:47:10.178411 31851 net.cpp:454] relu5 <- conv5
I0204 08:47:10.178418 31851 net.cpp:397] relu5 -> conv5 (in-place)
I0204 08:47:10.178428 31851 net.cpp:150] Setting up relu5
I0204 08:47:10.178436 31851 net.cpp:157] Top shape: 100 16 13 13 (270400)
I0204 08:47:10.178441 31851 net.cpp:165] Memory required for data: 150520000
I0204 08:47:10.178449 31851 layer_factory.hpp:77] Creating layer pool5
I0204 08:47:10.178460 31851 net.cpp:106] Creating Layer pool5
I0204 08:47:10.178467 31851 net.cpp:454] pool5 <- conv5
I0204 08:47:10.178481 31851 net.cpp:411] pool5 -> pool5
I0204 08:47:10.178500 31851 net.cpp:150] Setting up pool5
I0204 08:47:10.178508 31851 net.cpp:157] Top shape: 100 16 6 6 (57600)
I0204 08:47:10.178514 31851 net.cpp:165] Memory required for data: 150750400
I0204 08:47:10.178520 31851 layer_factory.hpp:77] Creating layer fc6
I0204 08:47:10.178531 31851 net.cpp:106] Creating Layer fc6
I0204 08:47:10.178540 31851 net.cpp:454] fc6 <- pool5
I0204 08:47:10.178551 31851 net.cpp:411] fc6 -> fc6
I0204 08:47:10.180275 31851 net.cpp:150] Setting up fc6
I0204 08:47:10.180295 31851 net.cpp:157] Top shape: 100 256 (25600)
I0204 08:47:10.180302 31851 net.cpp:165] Memory required for data: 150852800
I0204 08:47:10.180312 31851 layer_factory.hpp:77] Creating layer relu6
I0204 08:47:10.180322 31851 net.cpp:106] Creating Layer relu6
I0204 08:47:10.180330 31851 net.cpp:454] relu6 <- fc6
I0204 08:47:10.180340 31851 net.cpp:397] relu6 -> fc6 (in-place)
I0204 08:47:10.180349 31851 net.cpp:150] Setting up relu6
I0204 08:47:10.180356 31851 net.cpp:157] Top shape: 100 256 (25600)
I0204 08:47:10.180362 31851 net.cpp:165] Memory required for data: 150955200
I0204 08:47:10.180369 31851 layer_factory.hpp:77] Creating layer drop6
I0204 08:47:10.180382 31851 net.cpp:106] Creating Layer drop6
I0204 08:47:10.180390 31851 net.cpp:454] drop6 <- fc6
I0204 08:47:10.180400 31851 net.cpp:397] drop6 -> fc6 (in-place)
I0204 08:47:10.180413 31851 net.cpp:150] Setting up drop6
I0204 08:47:10.180420 31851 net.cpp:157] Top shape: 100 256 (25600)
I0204 08:47:10.180425 31851 net.cpp:165] Memory required for data: 151057600
I0204 08:47:10.180431 31851 layer_factory.hpp:77] Creating layer fc7
I0204 08:47:10.180446 31851 net.cpp:106] Creating Layer fc7
I0204 08:47:10.180454 31851 net.cpp:454] fc7 <- fc6
I0204 08:47:10.180462 31851 net.cpp:411] fc7 -> fc7
I0204 08:47:10.181205 31851 net.cpp:150] Setting up fc7
I0204 08:47:10.181219 31851 net.cpp:157] Top shape: 100 256 (25600)
I0204 08:47:10.181226 31851 net.cpp:165] Memory required for data: 151160000
I0204 08:47:10.181234 31851 layer_factory.hpp:77] Creating layer relu7
I0204 08:47:10.181277 31851 net.cpp:106] Creating Layer relu7
I0204 08:47:10.181288 31851 net.cpp:454] relu7 <- fc7
I0204 08:47:10.181296 31851 net.cpp:397] relu7 -> fc7 (in-place)
I0204 08:47:10.181308 31851 net.cpp:150] Setting up relu7
I0204 08:47:10.181314 31851 net.cpp:157] Top shape: 100 256 (25600)
I0204 08:47:10.181319 31851 net.cpp:165] Memory required for data: 151262400
I0204 08:47:10.181325 31851 layer_factory.hpp:77] Creating layer drop7
I0204 08:47:10.181337 31851 net.cpp:106] Creating Layer drop7
I0204 08:47:10.181344 31851 net.cpp:454] drop7 <- fc7
I0204 08:47:10.181351 31851 net.cpp:397] drop7 -> fc7 (in-place)
I0204 08:47:10.181362 31851 net.cpp:150] Setting up drop7
I0204 08:47:10.181370 31851 net.cpp:157] Top shape: 100 256 (25600)
I0204 08:47:10.181375 31851 net.cpp:165] Memory required for data: 151364800
I0204 08:47:10.181381 31851 layer_factory.hpp:77] Creating layer fc8
I0204 08:47:10.181394 31851 net.cpp:106] Creating Layer fc8
I0204 08:47:10.181401 31851 net.cpp:454] fc8 <- fc7
I0204 08:47:10.181409 31851 net.cpp:411] fc8 -> fc8
I0204 08:47:10.181464 31851 net.cpp:150] Setting up fc8
I0204 08:47:10.181478 31851 net.cpp:157] Top shape: 100 2 (200)
I0204 08:47:10.181483 31851 net.cpp:165] Memory required for data: 151365600
I0204 08:47:10.181491 31851 layer_factory.hpp:77] Creating layer fc8_fc8_0_split
I0204 08:47:10.181500 31851 net.cpp:106] Creating Layer fc8_fc8_0_split
I0204 08:47:10.181506 31851 net.cpp:454] fc8_fc8_0_split <- fc8
I0204 08:47:10.181517 31851 net.cpp:411] fc8_fc8_0_split -> fc8_fc8_0_split_0
I0204 08:47:10.181527 31851 net.cpp:411] fc8_fc8_0_split -> fc8_fc8_0_split_1
I0204 08:47:10.181538 31851 net.cpp:150] Setting up fc8_fc8_0_split
I0204 08:47:10.181548 31851 net.cpp:157] Top shape: 100 2 (200)
I0204 08:47:10.181555 31851 net.cpp:157] Top shape: 100 2 (200)
I0204 08:47:10.181560 31851 net.cpp:165] Memory required for data: 151367200
I0204 08:47:10.181565 31851 layer_factory.hpp:77] Creating layer accuracy
I0204 08:47:10.181583 31851 net.cpp:106] Creating Layer accuracy
I0204 08:47:10.181599 31851 net.cpp:454] accuracy <- fc8_fc8_0_split_0
I0204 08:47:10.181607 31851 net.cpp:454] accuracy <- label_data_1_split_0
I0204 08:47:10.181617 31851 net.cpp:411] accuracy -> accuracy
…
