…
I0204 23:54:44.437033 10511 net.cpp:322] The NetState phase (0) differed from the phase (1) specified by a rule in layer accuracy
I0204 23:54:44.437247 10511 net.cpp:49] Initializing net from parameters: 
name: "CaffeNet"
state {
  phase: TRAIN
}
layer {
  name: "data"
  type: "Data"
  top: "data"
  top: "label"
  include {
    phase: TRAIN
  }
  transform_param {
    mirror: true
    crop_size: 227
    mean_file: "/home/pearlstl/proj_cv/master/lmdb/synth1_train_lum_db/mean_file.binaryproto"
  }
  data_param {
    source: "/home/pearlstl/proj_cv/master/lmdb/synth1_train_lum_db"
    batch_size: 100
    backend: LMDB
  }
}
layer {
  name: "conv1"
  type: "Convolution"
  bottom: "data"
  top: "conv1"
  param {
    lr_mult: 1
    decay_mult: 1
  }
  param {
    lr_mult: 2
    decay_mult: 0
  }
  convolution_param {
    num_output: 8
    kernel_size: 11
    stride: 4
    weight_filler {
      type: "xavier"
    }
    bias_filler {
      type: "constant"
      value: 0
    }
  }
}
layer {
  name: "relu1"
  type: "ReLU"
  bottom: "conv1"
  top: "conv1"
}
layer {
  name: "pool1"
  type: "Pooling"
  bottom: "conv1"
  top: "pool1"
  pooling_param {
    pool: MAX
    kernel_size: 3
    stride: 2
  }
}
layer {
  name: "norm1"
  type: "LRN"
  bottom: "pool1"
  top: "norm1"
  lrn_param {
    local_size: 5
    alpha: 0.0001
    beta: 0.75
  }
}
layer {
  name: "conv2"
  type: "Convolution"
  bottom: "norm1"
  top: "conv2"
  param {
    lr_mult: 1
    decay_mult: 1
  }
  param {
    lr_mult: 2
    decay_mult: 0
  }
  convolution_param {
    num_output: 8
    pad: 2
    kernel_size: 5
    group: 2
    weight_filler {
      type: "xavier"
    }
    bias_filler {
      type: "constant"
      value: 1
    }
  }
}
layer {
  name: "relu2"
  type: "ReLU"
  bottom: "conv2"
  top: "conv2"
}
layer {
  name: "pool2"
  type: "Pooling"
  bottom: "conv2"
  top: "pool2"
  pooling_param {
    pool: MAX
    kernel_size: 3
    stride: 2
  }
}
layer {
  name: "norm2"
  type: "LRN"
  bottom: "pool2"
  top: "norm2"
  lrn_param {
    local_size: 5
    alpha: 0.0001
    beta: 0.75
  }
}
layer {
  name: "conv3"
  type: "Convolution"
  bottom: "norm2"
  top: "conv3"
  param {
    lr_mult: 1
    decay_mult: 1
  }
  param {
    lr_mult: 2
    decay_mult: 0
  }
  convolution_param {
    num_output: 8
    pad: 1
    kernel_size: 3
    weight_filler {
      type: "xavier"
    }
    bias_filler {
      type: "constant"
      value: 0
    }
  }
}
layer {
  name: "relu3"
  type: "ReLU"
  bottom: "conv3"
  top: "conv3"
}
layer {
  name: "conv4"
  type: "Convolution"
  bottom: "conv3"
  top: "conv4"
  param {
    lr_mult: 1
    decay_mult: 1
  }
  param {
    lr_mult: 2
    decay_mult: 0
  }
  convolution_param {
    num_output: 8
    pad: 1
    kernel_size: 3
    group: 2
    weight_filler {
      type: "xavier"
    }
    bias_filler {
      type: "constant"
      value: 1
    }
  }
}
layer {
  name: "relu4"
  type: "ReLU"
  bottom: "conv4"
  top: "conv4"
}
layer {
  name: "conv5"
  type: "Convolution"
  bottom: "conv4"
  top: "conv5"
  param {
    lr_mult: 1
    decay_mult: 1
  }
  param {
    lr_mult: 2
    decay_mult: 0
  }
  convolution_param {
    num_output: 8
    pad: 1
    kernel_size: 3
    group: 2
    weight_filler {
      type: "xavier"
    }
    bias_filler {
      type: "constant"
      value: 1
    }
  }
}
layer {
  name: "relu5"
  type: "ReLU"
  bottom: "conv5"
  top: "conv5"
}
layer {
  name: "pool5"
  type: "Pooling"
  bottom: "conv5"
  top: "pool5"
  pooling_param {
    pool: MAX
    kernel_size: 3
    stride: 2
  }
}
layer {
  name: "fc6"
  type: "InnerProduct"
  bottom: "pool5"
  top: "fc6"
  param {
    lr_mult: 1
    decay_mult: 1
  }
  param {
    lr_mult: 2
    decay_mult: 0
  }
  inner_product_param {
    num_output: 256
    weight_filler {
      type: "xavier"
    }
    bias_filler {
      type: "constant"
      value: 1
    }
  }
}
layer {
  name: "relu6"
  type: "ReLU"
  bottom: "fc6"
  top: "fc6"
}
layer {
  name: "drop6"
  type: "Dropout"
  bottom: "fc6"
  top: "fc6"
  dropout_param {
    dropout_ratio: 0.5
  }
}
layer {
  name: "fc7"
  type: "InnerProduct"
  bottom: "fc6"
  top: "fc7"
  param {
    lr_mult: 1
    decay_mult: 1
  }
  param {
    lr_mult: 2
    decay_mult: 0
  }
  inner_product_param {
    num_output: 256
    weight_filler {
      type: "xavier"
    }
    bias_filler {
      type: "constant"
      value: 1
    }
  }
}
layer {
  name: "relu7"
  type: "ReLU"
  bottom: "fc7"
  top: "fc7"
}
layer {
  name: "drop7"
  type: "Dropout"
  bottom: "fc7"
  top: "fc7"
  dropout_param {
    dropout_ratio: 0.5
  }
}
layer {
  name: "fc8"
  type: "InnerProduct"
  bottom: "fc7"
  top: "fc8"
  param {
    lr_mult: 1
    decay_mult: 1
  }
  param {
    lr_mult: 2
    decay_mult: 0
  }
  inner_product_param {
    num_output: 2
    weight_filler {
      type: "xavier"
    }
    bias_filler {
      type: "constant"
      value: 0
    }
  }
}
layer {
  name: "loss"
  type: "SoftmaxWithLoss"
  bottom: "fc8"
  bottom: "label"
  top: "loss"
}
I0204 23:54:44.437371 10511 layer_factory.hpp:77] Creating layer data
I0204 23:54:44.437544 10511 net.cpp:106] Creating Layer data
I0204 23:54:44.437561 10511 net.cpp:411] data -> data
I0204 23:54:44.437625 10511 net.cpp:411] data -> label
I0204 23:54:44.437652 10511 data_transformer.cpp:25] Loading mean file from: /home/pearlstl/proj_cv/master/lmdb/synth1_train_lum_db/mean_file.binaryproto
I0204 23:54:44.437867 10512 db_lmdb.cpp:38] Opened lmdb /home/pearlstl/proj_cv/master/lmdb/synth1_train_lum_db
I0204 23:54:44.438755 10511 data_layer.cpp:41] output data size: 100,1,227,227
I0204 23:54:44.470360 10511 net.cpp:150] Setting up data
I0204 23:54:44.470443 10511 net.cpp:157] Top shape: 100 1 227 227 (5152900)
I0204 23:54:44.470450 10511 net.cpp:157] Top shape: 100 (100)
I0204 23:54:44.470456 10511 net.cpp:165] Memory required for data: 20612000
I0204 23:54:44.470479 10511 layer_factory.hpp:77] Creating layer conv1
I0204 23:54:44.470506 10511 net.cpp:106] Creating Layer conv1
I0204 23:54:44.470515 10511 net.cpp:454] conv1 <- data
I0204 23:54:44.470538 10511 net.cpp:411] conv1 -> conv1
I0204 23:54:44.470654 10511 net.cpp:150] Setting up conv1
I0204 23:54:44.470664 10511 net.cpp:157] Top shape: 100 8 55 55 (2420000)
I0204 23:54:44.470669 10511 net.cpp:165] Memory required for data: 30292000
I0204 23:54:44.470685 10511 layer_factory.hpp:77] Creating layer relu1
I0204 23:54:44.470697 10511 net.cpp:106] Creating Layer relu1
I0204 23:54:44.470703 10511 net.cpp:454] relu1 <- conv1
I0204 23:54:44.470711 10511 net.cpp:397] relu1 -> conv1 (in-place)
I0204 23:54:44.470733 10511 net.cpp:150] Setting up relu1
I0204 23:54:44.470741 10511 net.cpp:157] Top shape: 100 8 55 55 (2420000)
I0204 23:54:44.470746 10511 net.cpp:165] Memory required for data: 39972000
I0204 23:54:44.470752 10511 layer_factory.hpp:77] Creating layer pool1
I0204 23:54:44.470762 10511 net.cpp:106] Creating Layer pool1
I0204 23:54:44.470767 10511 net.cpp:454] pool1 <- conv1
I0204 23:54:44.470774 10511 net.cpp:411] pool1 -> pool1
I0204 23:54:44.470801 10511 net.cpp:150] Setting up pool1
I0204 23:54:44.470809 10511 net.cpp:157] Top shape: 100 8 27 27 (583200)
I0204 23:54:44.470813 10511 net.cpp:165] Memory required for data: 42304800
I0204 23:54:44.470819 10511 layer_factory.hpp:77] Creating layer norm1
I0204 23:54:44.470839 10511 net.cpp:106] Creating Layer norm1
I0204 23:54:44.470856 10511 net.cpp:454] norm1 <- pool1
I0204 23:54:44.470865 10511 net.cpp:411] norm1 -> norm1
I0204 23:54:44.470882 10511 net.cpp:150] Setting up norm1
I0204 23:54:44.470890 10511 net.cpp:157] Top shape: 100 8 27 27 (583200)
I0204 23:54:44.470895 10511 net.cpp:165] Memory required for data: 44637600
I0204 23:54:44.470899 10511 layer_factory.hpp:77] Creating layer conv2
I0204 23:54:44.470911 10511 net.cpp:106] Creating Layer conv2
I0204 23:54:44.470916 10511 net.cpp:454] conv2 <- norm1
I0204 23:54:44.470923 10511 net.cpp:411] conv2 -> conv2
I0204 23:54:44.470949 10511 net.cpp:150] Setting up conv2
I0204 23:54:44.470957 10511 net.cpp:157] Top shape: 100 8 27 27 (583200)
I0204 23:54:44.470963 10511 net.cpp:165] Memory required for data: 46970400
I0204 23:54:44.470971 10511 layer_factory.hpp:77] Creating layer relu2
I0204 23:54:44.470979 10511 net.cpp:106] Creating Layer relu2
I0204 23:54:44.470984 10511 net.cpp:454] relu2 <- conv2
I0204 23:54:44.470994 10511 net.cpp:397] relu2 -> conv2 (in-place)
I0204 23:54:44.471002 10511 net.cpp:150] Setting up relu2
I0204 23:54:44.471009 10511 net.cpp:157] Top shape: 100 8 27 27 (583200)
I0204 23:54:44.471012 10511 net.cpp:165] Memory required for data: 49303200
I0204 23:54:44.471017 10511 layer_factory.hpp:77] Creating layer pool2
I0204 23:54:44.471025 10511 net.cpp:106] Creating Layer pool2
I0204 23:54:44.471030 10511 net.cpp:454] pool2 <- conv2
I0204 23:54:44.471037 10511 net.cpp:411] pool2 -> pool2
I0204 23:54:44.471045 10511 net.cpp:150] Setting up pool2
I0204 23:54:44.471051 10511 net.cpp:157] Top shape: 100 8 13 13 (135200)
I0204 23:54:44.471068 10511 net.cpp:165] Memory required for data: 49844000
I0204 23:54:44.471073 10511 layer_factory.hpp:77] Creating layer norm2
I0204 23:54:44.471082 10511 net.cpp:106] Creating Layer norm2
I0204 23:54:44.471087 10511 net.cpp:454] norm2 <- pool2
I0204 23:54:44.471102 10511 net.cpp:411] norm2 -> norm2
I0204 23:54:44.471110 10511 net.cpp:150] Setting up norm2
I0204 23:54:44.471117 10511 net.cpp:157] Top shape: 100 8 13 13 (135200)
I0204 23:54:44.471122 10511 net.cpp:165] Memory required for data: 50384800
I0204 23:54:44.471129 10511 layer_factory.hpp:77] Creating layer conv3
I0204 23:54:44.471139 10511 net.cpp:106] Creating Layer conv3
I0204 23:54:44.471145 10511 net.cpp:454] conv3 <- norm2
I0204 23:54:44.471154 10511 net.cpp:411] conv3 -> conv3
I0204 23:54:44.471180 10511 net.cpp:150] Setting up conv3
I0204 23:54:44.471187 10511 net.cpp:157] Top shape: 100 8 13 13 (135200)
I0204 23:54:44.471192 10511 net.cpp:165] Memory required for data: 50925600
I0204 23:54:44.471201 10511 layer_factory.hpp:77] Creating layer relu3
I0204 23:54:44.471210 10511 net.cpp:106] Creating Layer relu3
I0204 23:54:44.471215 10511 net.cpp:454] relu3 <- conv3
I0204 23:54:44.471221 10511 net.cpp:397] relu3 -> conv3 (in-place)
I0204 23:54:44.471228 10511 net.cpp:150] Setting up relu3
I0204 23:54:44.471235 10511 net.cpp:157] Top shape: 100 8 13 13 (135200)
I0204 23:54:44.471238 10511 net.cpp:165] Memory required for data: 51466400
I0204 23:54:44.471243 10511 layer_factory.hpp:77] Creating layer conv4
I0204 23:54:44.471253 10511 net.cpp:106] Creating Layer conv4
I0204 23:54:44.471258 10511 net.cpp:454] conv4 <- conv3
I0204 23:54:44.471268 10511 net.cpp:411] conv4 -> conv4
I0204 23:54:44.471289 10511 net.cpp:150] Setting up conv4
I0204 23:54:44.471297 10511 net.cpp:157] Top shape: 100 8 13 13 (135200)
I0204 23:54:44.471300 10511 net.cpp:165] Memory required for data: 52007200
I0204 23:54:44.471307 10511 layer_factory.hpp:77] Creating layer relu4
I0204 23:54:44.471315 10511 net.cpp:106] Creating Layer relu4
I0204 23:54:44.471320 10511 net.cpp:454] relu4 <- conv4
I0204 23:54:44.471326 10511 net.cpp:397] relu4 -> conv4 (in-place)
I0204 23:54:44.471333 10511 net.cpp:150] Setting up relu4
I0204 23:54:44.471339 10511 net.cpp:157] Top shape: 100 8 13 13 (135200)
I0204 23:54:44.471344 10511 net.cpp:165] Memory required for data: 52548000
I0204 23:54:44.471349 10511 layer_factory.hpp:77] Creating layer conv5
I0204 23:54:44.471375 10511 net.cpp:106] Creating Layer conv5
I0204 23:54:44.471387 10511 net.cpp:454] conv5 <- conv4
I0204 23:54:44.471397 10511 net.cpp:411] conv5 -> conv5
I0204 23:54:44.471416 10511 net.cpp:150] Setting up conv5
I0204 23:54:44.471422 10511 net.cpp:157] Top shape: 100 8 13 13 (135200)
I0204 23:54:44.471427 10511 net.cpp:165] Memory required for data: 53088800
I0204 23:54:44.471437 10511 layer_factory.hpp:77] Creating layer relu5
I0204 23:54:44.471444 10511 net.cpp:106] Creating Layer relu5
I0204 23:54:44.471449 10511 net.cpp:454] relu5 <- conv5
I0204 23:54:44.471456 10511 net.cpp:397] relu5 -> conv5 (in-place)
I0204 23:54:44.471462 10511 net.cpp:150] Setting up relu5
I0204 23:54:44.471467 10511 net.cpp:157] Top shape: 100 8 13 13 (135200)
I0204 23:54:44.471472 10511 net.cpp:165] Memory required for data: 53629600
I0204 23:54:44.471477 10511 layer_factory.hpp:77] Creating layer pool5
I0204 23:54:44.471484 10511 net.cpp:106] Creating Layer pool5
I0204 23:54:44.471489 10511 net.cpp:454] pool5 <- conv5
I0204 23:54:44.471496 10511 net.cpp:411] pool5 -> pool5
I0204 23:54:44.471504 10511 net.cpp:150] Setting up pool5
I0204 23:54:44.471510 10511 net.cpp:157] Top shape: 100 8 6 6 (28800)
I0204 23:54:44.471515 10511 net.cpp:165] Memory required for data: 53744800
I0204 23:54:44.471519 10511 layer_factory.hpp:77] Creating layer fc6
I0204 23:54:44.471537 10511 net.cpp:106] Creating Layer fc6
I0204 23:54:44.471542 10511 net.cpp:454] fc6 <- pool5
I0204 23:54:44.471550 10511 net.cpp:411] fc6 -> fc6
I0204 23:54:44.472285 10511 net.cpp:150] Setting up fc6
I0204 23:54:44.472297 10511 net.cpp:157] Top shape: 100 256 (25600)
I0204 23:54:44.472302 10511 net.cpp:165] Memory required for data: 53847200
I0204 23:54:44.472311 10511 layer_factory.hpp:77] Creating layer relu6
I0204 23:54:44.472319 10511 net.cpp:106] Creating Layer relu6
I0204 23:54:44.472324 10511 net.cpp:454] relu6 <- fc6
I0204 23:54:44.472332 10511 net.cpp:397] relu6 -> fc6 (in-place)
I0204 23:54:44.472342 10511 net.cpp:150] Setting up relu6
I0204 23:54:44.472347 10511 net.cpp:157] Top shape: 100 256 (25600)
I0204 23:54:44.472352 10511 net.cpp:165] Memory required for data: 53949600
I0204 23:54:44.472369 10511 layer_factory.hpp:77] Creating layer drop6
I0204 23:54:44.472380 10511 net.cpp:106] Creating Layer drop6
I0204 23:54:44.472385 10511 net.cpp:454] drop6 <- fc6
I0204 23:54:44.472393 10511 net.cpp:397] drop6 -> fc6 (in-place)
I0204 23:54:44.472409 10511 net.cpp:150] Setting up drop6
I0204 23:54:44.472416 10511 net.cpp:157] Top shape: 100 256 (25600)
I0204 23:54:44.472420 10511 net.cpp:165] Memory required for data: 54052000
I0204 23:54:44.472425 10511 layer_factory.hpp:77] Creating layer fc7
I0204 23:54:44.472435 10511 net.cpp:106] Creating Layer fc7
I0204 23:54:44.472440 10511 net.cpp:454] fc7 <- fc6
I0204 23:54:44.472447 10511 net.cpp:411] fc7 -> fc7
I0204 23:54:44.473052 10511 net.cpp:150] Setting up fc7
I0204 23:54:44.473075 10511 net.cpp:157] Top shape: 100 256 (25600)
I0204 23:54:44.473080 10511 net.cpp:165] Memory required for data: 54154400
I0204 23:54:44.473088 10511 layer_factory.hpp:77] Creating layer relu7
I0204 23:54:44.473108 10511 net.cpp:106] Creating Layer relu7
I0204 23:54:44.473112 10511 net.cpp:454] relu7 <- fc7
I0204 23:54:44.473119 10511 net.cpp:397] relu7 -> fc7 (in-place)
I0204 23:54:44.473127 10511 net.cpp:150] Setting up relu7
I0204 23:54:44.473132 10511 net.cpp:157] Top shape: 100 256 (25600)
I0204 23:54:44.473137 10511 net.cpp:165] Memory required for data: 54256800
I0204 23:54:44.473142 10511 layer_factory.hpp:77] Creating layer drop7
I0204 23:54:44.473151 10511 net.cpp:106] Creating Layer drop7
I0204 23:54:44.473156 10511 net.cpp:454] drop7 <- fc7
I0204 23:54:44.473163 10511 net.cpp:397] drop7 -> fc7 (in-place)
I0204 23:54:44.473171 10511 net.cpp:150] Setting up drop7
I0204 23:54:44.473177 10511 net.cpp:157] Top shape: 100 256 (25600)
I0204 23:54:44.473181 10511 net.cpp:165] Memory required for data: 54359200
I0204 23:54:44.473186 10511 layer_factory.hpp:77] Creating layer fc8
I0204 23:54:44.473197 10511 net.cpp:106] Creating Layer fc8
I0204 23:54:44.473206 10511 net.cpp:454] fc8 <- fc7
I0204 23:54:44.473222 10511 net.cpp:411] fc8 -> fc8
I0204 23:54:44.473244 10511 net.cpp:150] Setting up fc8
I0204 23:54:44.473251 10511 net.cpp:157] Top shape: 100 2 (200)
I0204 23:54:44.473255 10511 net.cpp:165] Memory required for data: 54360000
I0204 23:54:44.473263 10511 layer_factory.hpp:77] Creating layer loss
I0204 23:54:44.473271 10511 net.cpp:106] Creating Layer loss
I0204 23:54:44.473276 10511 net.cpp:454] loss <- fc8
I0204 23:54:44.473281 10511 net.cpp:454] loss <- label
I0204 23:54:44.473292 10511 net.cpp:411] loss -> loss
I0204 23:54:44.473306 10511 layer_factory.hpp:77] Creating layer loss
…
I0204 23:54:44.474315 10511 net.cpp:322] The NetState phase (1) differed from the phase (0) specified by a rule in layer data
I0204 23:54:44.474591 10511 net.cpp:49] Initializing net from parameters: 
name: "CaffeNet"
state {
  phase: TEST
}
layer {
  name: "data"
  type: "Data"
  top: "data"
  top: "label"
  include {
    phase: TEST
  }
  transform_param {
    mirror: false
    crop_size: 227
    mean_file: "/home/pearlstl/proj_cv/master/lmdb/synth1_test_lum_db/mean_file.binaryproto"
  }
  data_param {
    source: "/home/pearlstl/proj_cv/master/lmdb/synth1_test_lum_db"
    batch_size: 100
    backend: LMDB
  }
}
layer {
  name: "conv1"
  type: "Convolution"
  bottom: "data"
  top: "conv1"
  param {
    lr_mult: 1
    decay_mult: 1
  }
  param {
    lr_mult: 2
    decay_mult: 0
  }
  convolution_param {
    num_output: 8
    kernel_size: 11
    stride: 4
    weight_filler {
      type: "xavier"
    }
    bias_filler {
      type: "constant"
      value: 0
    }
  }
}
layer {
  name: "relu1"
  type: "ReLU"
  bottom: "conv1"
  top: "conv1"
}
layer {
  name: "pool1"
  type: "Pooling"
  bottom: "conv1"
  top: "pool1"
  pooling_param {
    pool: MAX
    kernel_size: 3
    stride: 2
  }
}
layer {
  name: "norm1"
  type: "LRN"
  bottom: "pool1"
  top: "norm1"
  lrn_param {
    local_size: 5
    alpha: 0.0001
    beta: 0.75
  }
}
layer {
  name: "conv2"
  type: "Convolution"
  bottom: "norm1"
  top: "conv2"
  param {
    lr_mult: 1
    decay_mult: 1
  }
  param {
    lr_mult: 2
    decay_mult: 0
  }
  convolution_param {
    num_output: 8
    pad: 2
    kernel_size: 5
    group: 2
    weight_filler {
      type: "xavier"
    }
    bias_filler {
      type: "constant"
      value: 1
    }
  }
}
layer {
  name: "relu2"
  type: "ReLU"
  bottom: "conv2"
  top: "conv2"
}
layer {
  name: "pool2"
  type: "Pooling"
  bottom: "conv2"
  top: "pool2"
  pooling_param {
    pool: MAX
    kernel_size: 3
    stride: 2
  }
}
layer {
  name: "norm2"
  type: "LRN"
  bottom: "pool2"
  top: "norm2"
  lrn_param {
    local_size: 5
    alpha: 0.0001
    beta: 0.75
  }
}
layer {
  name: "conv3"
  type: "Convolution"
  bottom: "norm2"
  top: "conv3"
  param {
    lr_mult: 1
    decay_mult: 1
  }
  param {
    lr_mult: 2
    decay_mult: 0
  }
  convolution_param {
    num_output: 8
    pad: 1
    kernel_size: 3
    weight_filler {
      type: "xavier"
    }
    bias_filler {
      type: "constant"
      value: 0
    }
  }
}
layer {
  name: "relu3"
  type: "ReLU"
  bottom: "conv3"
  top: "conv3"
}
layer {
  name: "conv4"
  type: "Convolution"
  bottom: "conv3"
  top: "conv4"
  param {
    lr_mult: 1
    decay_mult: 1
  }
  param {
    lr_mult: 2
    decay_mult: 0
  }
  convolution_param {
    num_output: 8
    pad: 1
    kernel_size: 3
    group: 2
    weight_filler {
      type: "xavier"
    }
    bias_filler {
      type: "constant"
      value: 1
    }
  }
}
layer {
  name: "relu4"
  type: "ReLU"
  bottom: "conv4"
  top: "conv4"
}
layer {
  name: "conv5"
  type: "Convolution"
  bottom: "conv4"
  top: "conv5"
  param {
    lr_mult: 1
    decay_mult: 1
  }
  param {
    lr_mult: 2
    decay_mult: 0
  }
  convolution_param {
    num_output: 8
    pad: 1
    kernel_size: 3
    group: 2
    weight_filler {
      type: "xavier"
    }
    bias_filler {
      type: "constant"
      value: 1
    }
  }
}
layer {
  name: "relu5"
  type: "ReLU"
  bottom: "conv5"
  top: "conv5"
}
layer {
  name: "pool5"
  type: "Pooling"
  bottom: "conv5"
  top: "pool5"
  pooling_param {
    pool: MAX
    kernel_size: 3
    stride: 2
  }
}
layer {
  name: "fc6"
  type: "InnerProduct"
  bottom: "pool5"
  top: "fc6"
  param {
    lr_mult: 1
    decay_mult: 1
  }
  param {
    lr_mult: 2
    decay_mult: 0
  }
  inner_product_param {
    num_output: 256
    weight_filler {
      type: "xavier"
    }
    bias_filler {
      type: "constant"
      value: 1
    }
  }
}
layer {
  name: "relu6"
  type: "ReLU"
  bottom: "fc6"
  top: "fc6"
}
layer {
  name: "drop6"
  type: "Dropout"
  bottom: "fc6"
  top: "fc6"
  dropout_param {
    dropout_ratio: 0.5
  }
}
layer {
  name: "fc7"
  type: "InnerProduct"
  bottom: "fc6"
  top: "fc7"
  param {
    lr_mult: 1
    decay_mult: 1
  }
  param {
    lr_mult: 2
    decay_mult: 0
  }
  inner_product_param {
    num_output: 256
    weight_filler {
      type: "xavier"
    }
    bias_filler {
      type: "constant"
      value: 1
    }
  }
}
layer {
  name: "relu7"
  type: "ReLU"
  bottom: "fc7"
  top: "fc7"
}
layer {
  name: "drop7"
  type: "Dropout"
  bottom: "fc7"
  top: "fc7"
  dropout_param {
    dropout_ratio: 0.5
  }
}
layer {
  name: "fc8"
  type: "InnerProduct"
  bottom: "fc7"
  top: "fc8"
  param {
    lr_mult: 1
    decay_mult: 1
  }
  param {
    lr_mult: 2
    decay_mult: 0
  }
  inner_product_param {
    num_output: 2
    weight_filler {
      type: "xavier"
    }
    bias_filler {
      type: "constant"
      value: 0
    }
  }
}
layer {
  name: "accuracy"
  type: "Accuracy"
  bottom: "fc8"
  bottom: "label"
  top: "accuracy"
  include {
    phase: TEST
  }
}
layer {
  name: "loss"
  type: "SoftmaxWithLoss"
  bottom: "fc8"
  bottom: "label"
  top: "loss"
}
I0204 23:54:44.474745 10511 layer_factory.hpp:77] Creating layer data
I0204 23:54:44.474895 10511 net.cpp:106] Creating Layer data
I0204 23:54:44.474907 10511 net.cpp:411] data -> data
I0204 23:54:44.474920 10511 net.cpp:411] data -> label
I0204 23:54:44.474930 10511 data_transformer.cpp:25] Loading mean file from: /home/pearlstl/proj_cv/master/lmdb/synth1_test_lum_db/mean_file.binaryproto
I0204 23:54:44.475217 10515 db_lmdb.cpp:38] Opened lmdb /home/pearlstl/proj_cv/master/lmdb/synth1_test_lum_db
I0204 23:54:44.475953 10511 data_layer.cpp:41] output data size: 100,1,227,227
I0204 23:54:44.505022 10511 net.cpp:150] Setting up data
I0204 23:54:44.505062 10511 net.cpp:157] Top shape: 100 1 227 227 (5152900)
I0204 23:54:44.505069 10511 net.cpp:157] Top shape: 100 (100)
I0204 23:54:44.505086 10511 net.cpp:165] Memory required for data: 20612000
I0204 23:54:44.505120 10511 layer_factory.hpp:77] Creating layer label_data_1_split
I0204 23:54:44.505141 10511 net.cpp:106] Creating Layer label_data_1_split
I0204 23:54:44.505147 10511 net.cpp:454] label_data_1_split <- label
I0204 23:54:44.505161 10511 net.cpp:411] label_data_1_split -> label_data_1_split_0
I0204 23:54:44.505175 10511 net.cpp:411] label_data_1_split -> label_data_1_split_1
I0204 23:54:44.505187 10511 net.cpp:150] Setting up label_data_1_split
I0204 23:54:44.505195 10511 net.cpp:157] Top shape: 100 (100)
I0204 23:54:44.505201 10511 net.cpp:157] Top shape: 100 (100)
I0204 23:54:44.505206 10511 net.cpp:165] Memory required for data: 20612800
I0204 23:54:44.505211 10511 layer_factory.hpp:77] Creating layer conv1
I0204 23:54:44.505226 10511 net.cpp:106] Creating Layer conv1
I0204 23:54:44.505233 10511 net.cpp:454] conv1 <- data
I0204 23:54:44.505241 10511 net.cpp:411] conv1 -> conv1
I0204 23:54:44.505293 10511 net.cpp:150] Setting up conv1
I0204 23:54:44.505302 10511 net.cpp:157] Top shape: 100 8 55 55 (2420000)
I0204 23:54:44.505307 10511 net.cpp:165] Memory required for data: 30292800
I0204 23:54:44.505321 10511 layer_factory.hpp:77] Creating layer relu1
I0204 23:54:44.505331 10511 net.cpp:106] Creating Layer relu1
I0204 23:54:44.505337 10511 net.cpp:454] relu1 <- conv1
I0204 23:54:44.505345 10511 net.cpp:397] relu1 -> conv1 (in-place)
I0204 23:54:44.505354 10511 net.cpp:150] Setting up relu1
I0204 23:54:44.505360 10511 net.cpp:157] Top shape: 100 8 55 55 (2420000)
I0204 23:54:44.505365 10511 net.cpp:165] Memory required for data: 39972800
I0204 23:54:44.505370 10511 layer_factory.hpp:77] Creating layer pool1
I0204 23:54:44.505381 10511 net.cpp:106] Creating Layer pool1
I0204 23:54:44.505388 10511 net.cpp:454] pool1 <- conv1
I0204 23:54:44.505395 10511 net.cpp:411] pool1 -> pool1
I0204 23:54:44.505409 10511 net.cpp:150] Setting up pool1
I0204 23:54:44.505429 10511 net.cpp:157] Top shape: 100 8 27 27 (583200)
I0204 23:54:44.505434 10511 net.cpp:165] Memory required for data: 42305600
I0204 23:54:44.505439 10511 layer_factory.hpp:77] Creating layer norm1
I0204 23:54:44.505450 10511 net.cpp:106] Creating Layer norm1
I0204 23:54:44.505455 10511 net.cpp:454] norm1 <- pool1
I0204 23:54:44.505462 10511 net.cpp:411] norm1 -> norm1
I0204 23:54:44.505472 10511 net.cpp:150] Setting up norm1
I0204 23:54:44.505478 10511 net.cpp:157] Top shape: 100 8 27 27 (583200)
I0204 23:54:44.505483 10511 net.cpp:165] Memory required for data: 44638400
I0204 23:54:44.505488 10511 layer_factory.hpp:77] Creating layer conv2
I0204 23:54:44.505498 10511 net.cpp:106] Creating Layer conv2
I0204 23:54:44.505503 10511 net.cpp:454] conv2 <- norm1
I0204 23:54:44.505512 10511 net.cpp:411] conv2 -> conv2
I0204 23:54:44.505539 10511 net.cpp:150] Setting up conv2
I0204 23:54:44.505547 10511 net.cpp:157] Top shape: 100 8 27 27 (583200)
I0204 23:54:44.505551 10511 net.cpp:165] Memory required for data: 46971200
I0204 23:54:44.505565 10511 layer_factory.hpp:77] Creating layer relu2
I0204 23:54:44.505573 10511 net.cpp:106] Creating Layer relu2
I0204 23:54:44.505578 10511 net.cpp:454] relu2 <- conv2
I0204 23:54:44.505585 10511 net.cpp:397] relu2 -> conv2 (in-place)
I0204 23:54:44.505604 10511 net.cpp:150] Setting up relu2
I0204 23:54:44.505622 10511 net.cpp:157] Top shape: 100 8 27 27 (583200)
I0204 23:54:44.505626 10511 net.cpp:165] Memory required for data: 49304000
I0204 23:54:44.505631 10511 layer_factory.hpp:77] Creating layer pool2
I0204 23:54:44.505640 10511 net.cpp:106] Creating Layer pool2
I0204 23:54:44.505645 10511 net.cpp:454] pool2 <- conv2
I0204 23:54:44.505652 10511 net.cpp:411] pool2 -> pool2
I0204 23:54:44.505662 10511 net.cpp:150] Setting up pool2
I0204 23:54:44.505669 10511 net.cpp:157] Top shape: 100 8 13 13 (135200)
I0204 23:54:44.505673 10511 net.cpp:165] Memory required for data: 49844800
I0204 23:54:44.505678 10511 layer_factory.hpp:77] Creating layer norm2
I0204 23:54:44.505686 10511 net.cpp:106] Creating Layer norm2
I0204 23:54:44.505692 10511 net.cpp:454] norm2 <- pool2
I0204 23:54:44.505698 10511 net.cpp:411] norm2 -> norm2
I0204 23:54:44.505709 10511 net.cpp:150] Setting up norm2
I0204 23:54:44.505717 10511 net.cpp:157] Top shape: 100 8 13 13 (135200)
I0204 23:54:44.505722 10511 net.cpp:165] Memory required for data: 50385600
I0204 23:54:44.505728 10511 layer_factory.hpp:77] Creating layer conv3
I0204 23:54:44.505738 10511 net.cpp:106] Creating Layer conv3
I0204 23:54:44.505744 10511 net.cpp:454] conv3 <- norm2
I0204 23:54:44.505753 10511 net.cpp:411] conv3 -> conv3
I0204 23:54:44.505775 10511 net.cpp:150] Setting up conv3
I0204 23:54:44.505782 10511 net.cpp:157] Top shape: 100 8 13 13 (135200)
I0204 23:54:44.505786 10511 net.cpp:165] Memory required for data: 50926400
I0204 23:54:44.505796 10511 layer_factory.hpp:77] Creating layer relu3
I0204 23:54:44.505805 10511 net.cpp:106] Creating Layer relu3
I0204 23:54:44.505810 10511 net.cpp:454] relu3 <- conv3
I0204 23:54:44.505816 10511 net.cpp:397] relu3 -> conv3 (in-place)
I0204 23:54:44.505823 10511 net.cpp:150] Setting up relu3
I0204 23:54:44.505830 10511 net.cpp:157] Top shape: 100 8 13 13 (135200)
I0204 23:54:44.505833 10511 net.cpp:165] Memory required for data: 51467200
I0204 23:54:44.505838 10511 layer_factory.hpp:77] Creating layer conv4
I0204 23:54:44.505847 10511 net.cpp:106] Creating Layer conv4
I0204 23:54:44.505854 10511 net.cpp:454] conv4 <- conv3
I0204 23:54:44.505863 10511 net.cpp:411] conv4 -> conv4
I0204 23:54:44.505885 10511 net.cpp:150] Setting up conv4
I0204 23:54:44.505892 10511 net.cpp:157] Top shape: 100 8 13 13 (135200)
I0204 23:54:44.505897 10511 net.cpp:165] Memory required for data: 52008000
I0204 23:54:44.505903 10511 layer_factory.hpp:77] Creating layer relu4
I0204 23:54:44.505911 10511 net.cpp:106] Creating Layer relu4
I0204 23:54:44.505916 10511 net.cpp:454] relu4 <- conv4
I0204 23:54:44.505923 10511 net.cpp:397] relu4 -> conv4 (in-place)
I0204 23:54:44.505929 10511 net.cpp:150] Setting up relu4
I0204 23:54:44.505935 10511 net.cpp:157] Top shape: 100 8 13 13 (135200)
I0204 23:54:44.505939 10511 net.cpp:165] Memory required for data: 52548800
I0204 23:54:44.505944 10511 layer_factory.hpp:77] Creating layer conv5
I0204 23:54:44.505957 10511 net.cpp:106] Creating Layer conv5
I0204 23:54:44.505962 10511 net.cpp:454] conv5 <- conv4
I0204 23:54:44.505970 10511 net.cpp:411] conv5 -> conv5
I0204 23:54:44.505990 10511 net.cpp:150] Setting up conv5
I0204 23:54:44.505995 10511 net.cpp:157] Top shape: 100 8 13 13 (135200)
I0204 23:54:44.506000 10511 net.cpp:165] Memory required for data: 53089600
I0204 23:54:44.506011 10511 layer_factory.hpp:77] Creating layer relu5
I0204 23:54:44.506018 10511 net.cpp:106] Creating Layer relu5
I0204 23:54:44.506023 10511 net.cpp:454] relu5 <- conv5
I0204 23:54:44.506031 10511 net.cpp:397] relu5 -> conv5 (in-place)
I0204 23:54:44.506039 10511 net.cpp:150] Setting up relu5
I0204 23:54:44.506045 10511 net.cpp:157] Top shape: 100 8 13 13 (135200)
I0204 23:54:44.506050 10511 net.cpp:165] Memory required for data: 53630400
I0204 23:54:44.506055 10511 layer_factory.hpp:77] Creating layer pool5
I0204 23:54:44.506064 10511 net.cpp:106] Creating Layer pool5
I0204 23:54:44.506069 10511 net.cpp:454] pool5 <- conv5
I0204 23:54:44.506088 10511 net.cpp:411] pool5 -> pool5
I0204 23:54:44.506108 10511 net.cpp:150] Setting up pool5
I0204 23:54:44.506124 10511 net.cpp:157] Top shape: 100 8 6 6 (28800)
I0204 23:54:44.506129 10511 net.cpp:165] Memory required for data: 53745600
I0204 23:54:44.506134 10511 layer_factory.hpp:77] Creating layer fc6
I0204 23:54:44.506145 10511 net.cpp:106] Creating Layer fc6
I0204 23:54:44.506150 10511 net.cpp:454] fc6 <- pool5
I0204 23:54:44.506157 10511 net.cpp:411] fc6 -> fc6
I0204 23:54:44.506822 10511 net.cpp:150] Setting up fc6
I0204 23:54:44.506832 10511 net.cpp:157] Top shape: 100 256 (25600)
I0204 23:54:44.506836 10511 net.cpp:165] Memory required for data: 53848000
I0204 23:54:44.506844 10511 layer_factory.hpp:77] Creating layer relu6
I0204 23:54:44.506867 10511 net.cpp:106] Creating Layer relu6
I0204 23:54:44.506873 10511 net.cpp:454] relu6 <- fc6
I0204 23:54:44.506880 10511 net.cpp:397] relu6 -> fc6 (in-place)
I0204 23:54:44.506887 10511 net.cpp:150] Setting up relu6
I0204 23:54:44.506893 10511 net.cpp:157] Top shape: 100 256 (25600)
I0204 23:54:44.506897 10511 net.cpp:165] Memory required for data: 53950400
I0204 23:54:44.506902 10511 layer_factory.hpp:77] Creating layer drop6
I0204 23:54:44.506911 10511 net.cpp:106] Creating Layer drop6
I0204 23:54:44.506916 10511 net.cpp:454] drop6 <- fc6
I0204 23:54:44.506925 10511 net.cpp:397] drop6 -> fc6 (in-place)
I0204 23:54:44.506935 10511 net.cpp:150] Setting up drop6
I0204 23:54:44.506940 10511 net.cpp:157] Top shape: 100 256 (25600)
I0204 23:54:44.506945 10511 net.cpp:165] Memory required for data: 54052800
I0204 23:54:44.506953 10511 layer_factory.hpp:77] Creating layer fc7
I0204 23:54:44.506961 10511 net.cpp:106] Creating Layer fc7
I0204 23:54:44.506966 10511 net.cpp:454] fc7 <- fc6
I0204 23:54:44.506984 10511 net.cpp:411] fc7 -> fc7
I0204 23:54:44.507683 10511 net.cpp:150] Setting up fc7
I0204 23:54:44.507693 10511 net.cpp:157] Top shape: 100 256 (25600)
I0204 23:54:44.507696 10511 net.cpp:165] Memory required for data: 54155200
I0204 23:54:44.507704 10511 layer_factory.hpp:77] Creating layer relu7
I0204 23:54:44.507714 10511 net.cpp:106] Creating Layer relu7
I0204 23:54:44.507719 10511 net.cpp:454] relu7 <- fc7
I0204 23:54:44.507726 10511 net.cpp:397] relu7 -> fc7 (in-place)
I0204 23:54:44.507733 10511 net.cpp:150] Setting up relu7
I0204 23:54:44.507740 10511 net.cpp:157] Top shape: 100 256 (25600)
I0204 23:54:44.507745 10511 net.cpp:165] Memory required for data: 54257600
I0204 23:54:44.507750 10511 layer_factory.hpp:77] Creating layer drop7
I0204 23:54:44.507756 10511 net.cpp:106] Creating Layer drop7
I0204 23:54:44.507761 10511 net.cpp:454] drop7 <- fc7
I0204 23:54:44.507767 10511 net.cpp:397] drop7 -> fc7 (in-place)
I0204 23:54:44.507776 10511 net.cpp:150] Setting up drop7
I0204 23:54:44.507781 10511 net.cpp:157] Top shape: 100 256 (25600)
I0204 23:54:44.507786 10511 net.cpp:165] Memory required for data: 54360000
I0204 23:54:44.507791 10511 layer_factory.hpp:77] Creating layer fc8
I0204 23:54:44.507802 10511 net.cpp:106] Creating Layer fc8
I0204 23:54:44.507808 10511 net.cpp:454] fc8 <- fc7
I0204 23:54:44.507828 10511 net.cpp:411] fc8 -> fc8
I0204 23:54:44.507851 10511 net.cpp:150] Setting up fc8
I0204 23:54:44.507860 10511 net.cpp:157] Top shape: 100 2 (200)
I0204 23:54:44.507865 10511 net.cpp:165] Memory required for data: 54360800
I0204 23:54:44.507872 10511 layer_factory.hpp:77] Creating layer fc8_fc8_0_split
I0204 23:54:44.507880 10511 net.cpp:106] Creating Layer fc8_fc8_0_split
I0204 23:54:44.507885 10511 net.cpp:454] fc8_fc8_0_split <- fc8
I0204 23:54:44.507891 10511 net.cpp:411] fc8_fc8_0_split -> fc8_fc8_0_split_0
I0204 23:54:44.507899 10511 net.cpp:411] fc8_fc8_0_split -> fc8_fc8_0_split_1
I0204 23:54:44.507906 10511 net.cpp:150] Setting up fc8_fc8_0_split
I0204 23:54:44.507912 10511 net.cpp:157] Top shape: 100 2 (200)
I0204 23:54:44.507917 10511 net.cpp:157] Top shape: 100 2 (200)
I0204 23:54:44.507922 10511 net.cpp:165] Memory required for data: 54362400
I0204 23:54:44.507926 10511 layer_factory.hpp:77] Creating layer accuracy
I0204 23:54:44.507941 10511 net.cpp:106] Creating Layer accuracy
I0204 23:54:44.507951 10511 net.cpp:454] accuracy <- fc8_fc8_0_split_0
I0204 23:54:44.507964 10511 net.cpp:454] accuracy <- label_data_1_split_0
I0204 23:54:44.507975 10511 net.cpp:411] accuracy -> accuracy
…
