…
I0204 08:47:10.137928 31863 net.cpp:322] The NetState phase (0) differed from the phase (1) specified by a rule in layer accuracy
I0204 08:47:10.138181 31863 net.cpp:49] Initializing net from parameters: 
name: "CaffeNet"
state {
  phase: TRAIN
}
layer {
  name: "data"
  type: "Data"
  top: "data"
  top: "label"
  include {
    phase: TRAIN
  }
  transform_param {
    mirror: true
    crop_size: 227
    mean_file: "/home/pearlstl/proj_cv/master/lmdb/synth1_train_lum_db/mean_file.binaryproto"
  }
  data_param {
    source: "/home/pearlstl/proj_cv/master/lmdb/synth1_train_lum_db"
    batch_size: 100
    backend: LMDB
  }
}
layer {
  name: "conv1"
  type: "Convolution"
  bottom: "data"
  top: "conv1"
  param {
    lr_mult: 1
    decay_mult: 1
  }
  param {
    lr_mult: 2
    decay_mult: 0
  }
  convolution_param {
    num_output: 32
    kernel_size: 11
    stride: 4
    weight_filler {
      type: "xavier"
    }
    bias_filler {
      type: "constant"
      value: 0
    }
  }
}
layer {
  name: "relu1"
  type: "ReLU"
  bottom: "conv1"
  top: "conv1"
}
layer {
  name: "pool1"
  type: "Pooling"
  bottom: "conv1"
  top: "pool1"
  pooling_param {
    pool: MAX
    kernel_size: 3
    stride: 2
  }
}
layer {
  name: "norm1"
  type: "LRN"
  bottom: "pool1"
  top: "norm1"
  lrn_param {
    local_size: 5
    alpha: 0.0001
    beta: 0.75
  }
}
layer {
  name: "conv2"
  type: "Convolution"
  bottom: "norm1"
  top: "conv2"
  param {
    lr_mult: 1
    decay_mult: 1
  }
  param {
    lr_mult: 2
    decay_mult: 0
  }
  convolution_param {
    num_output: 32
    pad: 2
    kernel_size: 5
    group: 2
    weight_filler {
      type: "xavier"
    }
    bias_filler {
      type: "constant"
      value: 1
    }
  }
}
layer {
  name: "relu2"
  type: "ReLU"
  bottom: "conv2"
  top: "conv2"
}
layer {
  name: "pool2"
  type: "Pooling"
  bottom: "conv2"
  top: "pool2"
  pooling_param {
    pool: MAX
    kernel_size: 3
    stride: 2
  }
}
layer {
  name: "norm2"
  type: "LRN"
  bottom: "pool2"
  top: "norm2"
  lrn_param {
    local_size: 5
    alpha: 0.0001
    beta: 0.75
  }
}
layer {
  name: "conv3"
  type: "Convolution"
  bottom: "norm2"
  top: "conv3"
  param {
    lr_mult: 1
    decay_mult: 1
  }
  param {
    lr_mult: 2
    decay_mult: 0
  }
  convolution_param {
    num_output: 32
    pad: 1
    kernel_size: 3
    weight_filler {
      type: "xavier"
    }
    bias_filler {
      type: "constant"
      value: 0
    }
  }
}
layer {
  name: "relu3"
  type: "ReLU"
  bottom: "conv3"
  top: "conv3"
}
layer {
  name: "conv4"
  type: "Convolution"
  bottom: "conv3"
  top: "conv4"
  param {
    lr_mult: 1
    decay_mult: 1
  }
  param {
    lr_mult: 2
    decay_mult: 0
  }
  convolution_param {
    num_output: 16
    pad: 1
    kernel_size: 3
    group: 2
    weight_filler {
      type: "xavier"
    }
    bias_filler {
      type: "constant"
      value: 1
    }
  }
}
layer {
  name: "relu4"
  type: "ReLU"
  bottom: "conv4"
  top: "conv4"
}
layer {
  name: "conv5"
  type: "Convolution"
  bottom: "conv4"
  top: "conv5"
  param {
    lr_mult: 1
    decay_mult: 1
  }
  param {
    lr_mult: 2
    decay_mult: 0
  }
  convolution_param {
    num_output: 16
    pad: 1
    kernel_size: 3
    group: 2
    weight_filler {
      type: "xavier"
    }
    bias_filler {
      type: "constant"
      value: 1
    }
  }
}
layer {
  name: "relu5"
  type: "ReLU"
  bottom: "conv5"
  top: "conv5"
}
layer {
  name: "pool5"
  type: "Pooling"
  bottom: "conv5"
  top: "pool5"
  pooling_param {
    pool: MAX
    kernel_size: 3
    stride: 2
  }
}
layer {
  name: "fc6"
  type: "InnerProduct"
  bottom: "pool5"
  top: "fc6"
  param {
    lr_mult: 1
    decay_mult: 1
  }
  param {
    lr_mult: 2
    decay_mult: 0
  }
  inner_product_param {
    num_output: 256
    weight_filler {
      type: "xavier"
    }
    bias_filler {
      type: "constant"
      value: 1
    }
  }
}
layer {
  name: "relu6"
  type: "ReLU"
  bottom: "fc6"
  top: "fc6"
}
layer {
  name: "drop6"
  type: "Dropout"
  bottom: "fc6"
  top: "fc6"
  dropout_param {
    dropout_ratio: 0.5
  }
}
layer {
  name: "fc7"
  type: "InnerProduct"
  bottom: "fc6"
  top: "fc7"
  param {
    lr_mult: 1
    decay_mult: 1
  }
  param {
    lr_mult: 2
    decay_mult: 0
  }
  inner_product_param {
    num_output: 256
    weight_filler {
      type: "xavier"
    }
    bias_filler {
      type: "constant"
      value: 1
    }
  }
}
layer {
  name: "relu7"
  type: "ReLU"
  bottom: "fc7"
  top: "fc7"
}
layer {
  name: "drop7"
  type: "Dropout"
  bottom: "fc7"
  top: "fc7"
  dropout_param {
    dropout_ratio: 0.5
  }
}
layer {
  name: "fc8"
  type: "InnerProduct"
  bottom: "fc7"
  top: "fc8"
  param {
    lr_mult: 1
    decay_mult: 1
  }
  param {
    lr_mult: 2
    decay_mult: 0
  }
  inner_product_param {
    num_output: 2
    weight_filler {
      type: "xavier"
    }
    bias_filler {
      type: "constant"
      value: 0
    }
  }
}
layer {
  name: "loss"
  type: "SoftmaxWithLoss"
  bottom: "fc8"
  bottom: "label"
  top: "loss"
}
I0204 08:47:10.138312 31863 layer_factory.hpp:77] Creating layer data
I0204 08:47:10.138483 31863 net.cpp:106] Creating Layer data
I0204 08:47:10.138499 31863 net.cpp:411] data -> data
I0204 08:47:10.138579 31863 net.cpp:411] data -> label
I0204 08:47:10.138603 31863 data_transformer.cpp:25] Loading mean file from: /home/pearlstl/proj_cv/master/lmdb/synth1_train_lum_db/mean_file.binaryproto
I0204 08:47:10.138751 31866 db_lmdb.cpp:38] Opened lmdb /home/pearlstl/proj_cv/master/lmdb/synth1_train_lum_db
I0204 08:47:10.139693 31863 data_layer.cpp:41] output data size: 100,1,227,227
I0204 08:47:10.169544 31863 net.cpp:150] Setting up data
I0204 08:47:10.169625 31863 net.cpp:157] Top shape: 100 1 227 227 (5152900)
I0204 08:47:10.169634 31863 net.cpp:157] Top shape: 100 (100)
I0204 08:47:10.169641 31863 net.cpp:165] Memory required for data: 20612000
I0204 08:47:10.169661 31863 layer_factory.hpp:77] Creating layer conv1
I0204 08:47:10.169690 31863 net.cpp:106] Creating Layer conv1
I0204 08:47:10.169699 31863 net.cpp:454] conv1 <- data
I0204 08:47:10.169720 31863 net.cpp:411] conv1 -> conv1
I0204 08:47:10.169849 31863 net.cpp:150] Setting up conv1
I0204 08:47:10.169872 31863 net.cpp:157] Top shape: 100 32 55 55 (9680000)
I0204 08:47:10.169878 31863 net.cpp:165] Memory required for data: 59332000
I0204 08:47:10.169896 31863 layer_factory.hpp:77] Creating layer relu1
I0204 08:47:10.169909 31863 net.cpp:106] Creating Layer relu1
I0204 08:47:10.169914 31863 net.cpp:454] relu1 <- conv1
I0204 08:47:10.169924 31863 net.cpp:397] relu1 -> conv1 (in-place)
I0204 08:47:10.169937 31863 net.cpp:150] Setting up relu1
I0204 08:47:10.169945 31863 net.cpp:157] Top shape: 100 32 55 55 (9680000)
I0204 08:47:10.169953 31863 net.cpp:165] Memory required for data: 98052000
I0204 08:47:10.169958 31863 layer_factory.hpp:77] Creating layer pool1
I0204 08:47:10.169970 31863 net.cpp:106] Creating Layer pool1
I0204 08:47:10.169975 31863 net.cpp:454] pool1 <- conv1
I0204 08:47:10.169983 31863 net.cpp:411] pool1 -> pool1
I0204 08:47:10.170011 31863 net.cpp:150] Setting up pool1
I0204 08:47:10.170019 31863 net.cpp:157] Top shape: 100 32 27 27 (2332800)
I0204 08:47:10.170025 31863 net.cpp:165] Memory required for data: 107383200
I0204 08:47:10.170030 31863 layer_factory.hpp:77] Creating layer norm1
I0204 08:47:10.170056 31863 net.cpp:106] Creating Layer norm1
I0204 08:47:10.170081 31863 net.cpp:454] norm1 <- pool1
I0204 08:47:10.170100 31863 net.cpp:411] norm1 -> norm1
I0204 08:47:10.170125 31863 net.cpp:150] Setting up norm1
I0204 08:47:10.170136 31863 net.cpp:157] Top shape: 100 32 27 27 (2332800)
I0204 08:47:10.170142 31863 net.cpp:165] Memory required for data: 116714400
I0204 08:47:10.170148 31863 layer_factory.hpp:77] Creating layer conv2
I0204 08:47:10.170162 31863 net.cpp:106] Creating Layer conv2
I0204 08:47:10.170168 31863 net.cpp:454] conv2 <- norm1
I0204 08:47:10.170179 31863 net.cpp:411] conv2 -> conv2
I0204 08:47:10.170316 31863 net.cpp:150] Setting up conv2
I0204 08:47:10.170325 31863 net.cpp:157] Top shape: 100 32 27 27 (2332800)
I0204 08:47:10.170331 31863 net.cpp:165] Memory required for data: 126045600
I0204 08:47:10.170342 31863 layer_factory.hpp:77] Creating layer relu2
I0204 08:47:10.170351 31863 net.cpp:106] Creating Layer relu2
I0204 08:47:10.170357 31863 net.cpp:454] relu2 <- conv2
I0204 08:47:10.170366 31863 net.cpp:397] relu2 -> conv2 (in-place)
I0204 08:47:10.170373 31863 net.cpp:150] Setting up relu2
I0204 08:47:10.170380 31863 net.cpp:157] Top shape: 100 32 27 27 (2332800)
I0204 08:47:10.170387 31863 net.cpp:165] Memory required for data: 135376800
I0204 08:47:10.170393 31863 layer_factory.hpp:77] Creating layer pool2
I0204 08:47:10.170419 31863 net.cpp:106] Creating Layer pool2
I0204 08:47:10.170428 31863 net.cpp:454] pool2 <- conv2
I0204 08:47:10.170435 31863 net.cpp:411] pool2 -> pool2
I0204 08:47:10.170447 31863 net.cpp:150] Setting up pool2
I0204 08:47:10.170455 31863 net.cpp:157] Top shape: 100 32 13 13 (540800)
I0204 08:47:10.170460 31863 net.cpp:165] Memory required for data: 137540000
I0204 08:47:10.170465 31863 layer_factory.hpp:77] Creating layer norm2
I0204 08:47:10.170475 31863 net.cpp:106] Creating Layer norm2
I0204 08:47:10.170481 31863 net.cpp:454] norm2 <- pool2
I0204 08:47:10.170491 31863 net.cpp:411] norm2 -> norm2
I0204 08:47:10.170501 31863 net.cpp:150] Setting up norm2
I0204 08:47:10.170508 31863 net.cpp:157] Top shape: 100 32 13 13 (540800)
I0204 08:47:10.170513 31863 net.cpp:165] Memory required for data: 139703200
I0204 08:47:10.170518 31863 layer_factory.hpp:77] Creating layer conv3
I0204 08:47:10.170531 31863 net.cpp:106] Creating Layer conv3
I0204 08:47:10.170537 31863 net.cpp:454] conv3 <- norm2
I0204 08:47:10.170547 31863 net.cpp:411] conv3 -> conv3
I0204 08:47:10.170665 31863 net.cpp:150] Setting up conv3
I0204 08:47:10.170675 31863 net.cpp:157] Top shape: 100 32 13 13 (540800)
I0204 08:47:10.170680 31863 net.cpp:165] Memory required for data: 141866400
I0204 08:47:10.170691 31863 layer_factory.hpp:77] Creating layer relu3
I0204 08:47:10.170702 31863 net.cpp:106] Creating Layer relu3
I0204 08:47:10.170708 31863 net.cpp:454] relu3 <- conv3
I0204 08:47:10.170716 31863 net.cpp:397] relu3 -> conv3 (in-place)
I0204 08:47:10.170724 31863 net.cpp:150] Setting up relu3
I0204 08:47:10.170732 31863 net.cpp:157] Top shape: 100 32 13 13 (540800)
I0204 08:47:10.170737 31863 net.cpp:165] Memory required for data: 144029600
I0204 08:47:10.170742 31863 layer_factory.hpp:77] Creating layer conv4
I0204 08:47:10.170754 31863 net.cpp:106] Creating Layer conv4
I0204 08:47:10.170760 31863 net.cpp:454] conv4 <- conv3
I0204 08:47:10.170770 31863 net.cpp:411] conv4 -> conv4
I0204 08:47:10.170822 31863 net.cpp:150] Setting up conv4
I0204 08:47:10.170832 31863 net.cpp:157] Top shape: 100 16 13 13 (270400)
I0204 08:47:10.170837 31863 net.cpp:165] Memory required for data: 145111200
I0204 08:47:10.170846 31863 layer_factory.hpp:77] Creating layer relu4
I0204 08:47:10.170855 31863 net.cpp:106] Creating Layer relu4
I0204 08:47:10.170861 31863 net.cpp:454] relu4 <- conv4
I0204 08:47:10.170871 31863 net.cpp:397] relu4 -> conv4 (in-place)
I0204 08:47:10.170879 31863 net.cpp:150] Setting up relu4
I0204 08:47:10.170886 31863 net.cpp:157] Top shape: 100 16 13 13 (270400)
I0204 08:47:10.170892 31863 net.cpp:165] Memory required for data: 146192800
I0204 08:47:10.170898 31863 layer_factory.hpp:77] Creating layer conv5
I0204 08:47:10.170923 31863 net.cpp:106] Creating Layer conv5
I0204 08:47:10.170930 31863 net.cpp:454] conv5 <- conv4
I0204 08:47:10.170943 31863 net.cpp:411] conv5 -> conv5
I0204 08:47:10.170984 31863 net.cpp:150] Setting up conv5
I0204 08:47:10.170994 31863 net.cpp:157] Top shape: 100 16 13 13 (270400)
I0204 08:47:10.171000 31863 net.cpp:165] Memory required for data: 147274400
I0204 08:47:10.171010 31863 layer_factory.hpp:77] Creating layer relu5
I0204 08:47:10.171020 31863 net.cpp:106] Creating Layer relu5
I0204 08:47:10.171025 31863 net.cpp:454] relu5 <- conv5
I0204 08:47:10.171032 31863 net.cpp:397] relu5 -> conv5 (in-place)
I0204 08:47:10.171041 31863 net.cpp:150] Setting up relu5
I0204 08:47:10.171051 31863 net.cpp:157] Top shape: 100 16 13 13 (270400)
I0204 08:47:10.171056 31863 net.cpp:165] Memory required for data: 148356000
I0204 08:47:10.171062 31863 layer_factory.hpp:77] Creating layer pool5
I0204 08:47:10.171072 31863 net.cpp:106] Creating Layer pool5
I0204 08:47:10.171077 31863 net.cpp:454] pool5 <- conv5
I0204 08:47:10.171088 31863 net.cpp:411] pool5 -> pool5
I0204 08:47:10.171108 31863 net.cpp:150] Setting up pool5
I0204 08:47:10.171114 31863 net.cpp:157] Top shape: 100 16 6 6 (57600)
I0204 08:47:10.171119 31863 net.cpp:165] Memory required for data: 148586400
I0204 08:47:10.171125 31863 layer_factory.hpp:77] Creating layer fc6
I0204 08:47:10.171141 31863 net.cpp:106] Creating Layer fc6
I0204 08:47:10.171147 31863 net.cpp:454] fc6 <- pool5
I0204 08:47:10.171154 31863 net.cpp:411] fc6 -> fc6
I0204 08:47:10.172781 31863 net.cpp:150] Setting up fc6
I0204 08:47:10.172797 31863 net.cpp:157] Top shape: 100 256 (25600)
I0204 08:47:10.172804 31863 net.cpp:165] Memory required for data: 148688800
I0204 08:47:10.172813 31863 layer_factory.hpp:77] Creating layer relu6
I0204 08:47:10.172821 31863 net.cpp:106] Creating Layer relu6
I0204 08:47:10.172827 31863 net.cpp:454] relu6 <- fc6
I0204 08:47:10.172834 31863 net.cpp:397] relu6 -> fc6 (in-place)
I0204 08:47:10.172843 31863 net.cpp:150] Setting up relu6
I0204 08:47:10.172850 31863 net.cpp:157] Top shape: 100 256 (25600)
I0204 08:47:10.172855 31863 net.cpp:165] Memory required for data: 148791200
I0204 08:47:10.172862 31863 layer_factory.hpp:77] Creating layer drop6
I0204 08:47:10.172870 31863 net.cpp:106] Creating Layer drop6
I0204 08:47:10.172876 31863 net.cpp:454] drop6 <- fc6
I0204 08:47:10.172886 31863 net.cpp:397] drop6 -> fc6 (in-place)
I0204 08:47:10.172902 31863 net.cpp:150] Setting up drop6
I0204 08:47:10.172909 31863 net.cpp:157] Top shape: 100 256 (25600)
I0204 08:47:10.172914 31863 net.cpp:165] Memory required for data: 148893600
I0204 08:47:10.172920 31863 layer_factory.hpp:77] Creating layer fc7
I0204 08:47:10.172935 31863 net.cpp:106] Creating Layer fc7
I0204 08:47:10.172942 31863 net.cpp:454] fc7 <- fc6
I0204 08:47:10.172953 31863 net.cpp:411] fc7 -> fc7
I0204 08:47:10.173681 31863 net.cpp:150] Setting up fc7
I0204 08:47:10.173692 31863 net.cpp:157] Top shape: 100 256 (25600)
I0204 08:47:10.173698 31863 net.cpp:165] Memory required for data: 148996000
I0204 08:47:10.173707 31863 layer_factory.hpp:77] Creating layer relu7
I0204 08:47:10.173717 31863 net.cpp:106] Creating Layer relu7
I0204 08:47:10.173722 31863 net.cpp:454] relu7 <- fc7
I0204 08:47:10.173729 31863 net.cpp:397] relu7 -> fc7 (in-place)
I0204 08:47:10.173738 31863 net.cpp:150] Setting up relu7
I0204 08:47:10.173744 31863 net.cpp:157] Top shape: 100 256 (25600)
I0204 08:47:10.173751 31863 net.cpp:165] Memory required for data: 149098400
I0204 08:47:10.173758 31863 layer_factory.hpp:77] Creating layer drop7
I0204 08:47:10.173765 31863 net.cpp:106] Creating Layer drop7
I0204 08:47:10.173771 31863 net.cpp:454] drop7 <- fc7
I0204 08:47:10.173781 31863 net.cpp:397] drop7 -> fc7 (in-place)
I0204 08:47:10.173791 31863 net.cpp:150] Setting up drop7
I0204 08:47:10.173797 31863 net.cpp:157] Top shape: 100 256 (25600)
I0204 08:47:10.173802 31863 net.cpp:165] Memory required for data: 149200800
I0204 08:47:10.173809 31863 layer_factory.hpp:77] Creating layer fc8
I0204 08:47:10.173821 31863 net.cpp:106] Creating Layer fc8
I0204 08:47:10.173833 31863 net.cpp:454] fc8 <- fc7
I0204 08:47:10.173846 31863 net.cpp:411] fc8 -> fc8
I0204 08:47:10.173871 31863 net.cpp:150] Setting up fc8
I0204 08:47:10.173880 31863 net.cpp:157] Top shape: 100 2 (200)
I0204 08:47:10.173885 31863 net.cpp:165] Memory required for data: 149201600
I0204 08:47:10.173894 31863 layer_factory.hpp:77] Creating layer loss
I0204 08:47:10.173902 31863 net.cpp:106] Creating Layer loss
I0204 08:47:10.173908 31863 net.cpp:454] loss <- fc8
I0204 08:47:10.173914 31863 net.cpp:454] loss <- label
I0204 08:47:10.173923 31863 net.cpp:411] loss -> loss
I0204 08:47:10.173936 31863 layer_factory.hpp:77] Creating layer loss
…
I0204 08:47:10.175019 31863 net.cpp:322] The NetState phase (1) differed from the phase (0) specified by a rule in layer data
I0204 08:47:10.175336 31863 net.cpp:49] Initializing net from parameters: 
name: "CaffeNet"
state {
  phase: TEST
}
layer {
  name: "data"
  type: "Data"
  top: "data"
  top: "label"
  include {
    phase: TEST
  }
  transform_param {
    mirror: false
    crop_size: 227
    mean_file: "/home/pearlstl/proj_cv/master/lmdb/synth1_test_lum_db/mean_file.binaryproto"
  }
  data_param {
    source: "/home/pearlstl/proj_cv/master/lmdb/synth1_test_lum_db"
    batch_size: 100
    backend: LMDB
  }
}
layer {
  name: "conv1"
  type: "Convolution"
  bottom: "data"
  top: "conv1"
  param {
    lr_mult: 1
    decay_mult: 1
  }
  param {
    lr_mult: 2
    decay_mult: 0
  }
  convolution_param {
    num_output: 32
    kernel_size: 11
    stride: 4
    weight_filler {
      type: "xavier"
    }
    bias_filler {
      type: "constant"
      value: 0
    }
  }
}
layer {
  name: "relu1"
  type: "ReLU"
  bottom: "conv1"
  top: "conv1"
}
layer {
  name: "pool1"
  type: "Pooling"
  bottom: "conv1"
  top: "pool1"
  pooling_param {
    pool: MAX
    kernel_size: 3
    stride: 2
  }
}
layer {
  name: "norm1"
  type: "LRN"
  bottom: "pool1"
  top: "norm1"
  lrn_param {
    local_size: 5
    alpha: 0.0001
    beta: 0.75
  }
}
layer {
  name: "conv2"
  type: "Convolution"
  bottom: "norm1"
  top: "conv2"
  param {
    lr_mult: 1
    decay_mult: 1
  }
  param {
    lr_mult: 2
    decay_mult: 0
  }
  convolution_param {
    num_output: 32
    pad: 2
    kernel_size: 5
    group: 2
    weight_filler {
      type: "xavier"
    }
    bias_filler {
      type: "constant"
      value: 1
    }
  }
}
layer {
  name: "relu2"
  type: "ReLU"
  bottom: "conv2"
  top: "conv2"
}
layer {
  name: "pool2"
  type: "Pooling"
  bottom: "conv2"
  top: "pool2"
  pooling_param {
    pool: MAX
    kernel_size: 3
    stride: 2
  }
}
layer {
  name: "norm2"
  type: "LRN"
  bottom: "pool2"
  top: "norm2"
  lrn_param {
    local_size: 5
    alpha: 0.0001
    beta: 0.75
  }
}
layer {
  name: "conv3"
  type: "Convolution"
  bottom: "norm2"
  top: "conv3"
  param {
    lr_mult: 1
    decay_mult: 1
  }
  param {
    lr_mult: 2
    decay_mult: 0
  }
  convolution_param {
    num_output: 32
    pad: 1
    kernel_size: 3
    weight_filler {
      type: "xavier"
    }
    bias_filler {
      type: "constant"
      value: 0
    }
  }
}
layer {
  name: "relu3"
  type: "ReLU"
  bottom: "conv3"
  top: "conv3"
}
layer {
  name: "conv4"
  type: "Convolution"
  bottom: "conv3"
  top: "conv4"
  param {
    lr_mult: 1
    decay_mult: 1
  }
  param {
    lr_mult: 2
    decay_mult: 0
  }
  convolution_param {
    num_output: 16
    pad: 1
    kernel_size: 3
    group: 2
    weight_filler {
      type: "xavier"
    }
    bias_filler {
      type: "constant"
      value: 1
    }
  }
}
layer {
  name: "relu4"
  type: "ReLU"
  bottom: "conv4"
  top: "conv4"
}
layer {
  name: "conv5"
  type: "Convolution"
  bottom: "conv4"
  top: "conv5"
  param {
    lr_mult: 1
    decay_mult: 1
  }
  param {
    lr_mult: 2
    decay_mult: 0
  }
  convolution_param {
    num_output: 16
    pad: 1
    kernel_size: 3
    group: 2
    weight_filler {
      type: "xavier"
    }
    bias_filler {
      type: "constant"
      value: 1
    }
  }
}
layer {
  name: "relu5"
  type: "ReLU"
  bottom: "conv5"
  top: "conv5"
}
layer {
  name: "pool5"
  type: "Pooling"
  bottom: "conv5"
  top: "pool5"
  pooling_param {
    pool: MAX
    kernel_size: 3
    stride: 2
  }
}
layer {
  name: "fc6"
  type: "InnerProduct"
  bottom: "pool5"
  top: "fc6"
  param {
    lr_mult: 1
    decay_mult: 1
  }
  param {
    lr_mult: 2
    decay_mult: 0
  }
  inner_product_param {
    num_output: 256
    weight_filler {
      type: "xavier"
    }
    bias_filler {
      type: "constant"
      value: 1
    }
  }
}
layer {
  name: "relu6"
  type: "ReLU"
  bottom: "fc6"
  top: "fc6"
}
layer {
  name: "drop6"
  type: "Dropout"
  bottom: "fc6"
  top: "fc6"
  dropout_param {
    dropout_ratio: 0.5
  }
}
layer {
  name: "fc7"
  type: "InnerProduct"
  bottom: "fc6"
  top: "fc7"
  param {
    lr_mult: 1
    decay_mult: 1
  }
  param {
    lr_mult: 2
    decay_mult: 0
  }
  inner_product_param {
    num_output: 256
    weight_filler {
      type: "xavier"
    }
    bias_filler {
      type: "constant"
      value: 1
    }
  }
}
layer {
  name: "relu7"
  type: "ReLU"
  bottom: "fc7"
  top: "fc7"
}
layer {
  name: "drop7"
  type: "Dropout"
  bottom: "fc7"
  top: "fc7"
  dropout_param {
    dropout_ratio: 0.5
  }
}
layer {
  name: "fc8"
  type: "InnerProduct"
  bottom: "fc7"
  top: "fc8"
  param {
    lr_mult: 1
    decay_mult: 1
  }
  param {
    lr_mult: 2
    decay_mult: 0
  }
  inner_product_param {
    num_output: 2
    weight_filler {
      type: "xavier"
    }
    bias_filler {
      type: "constant"
      value: 0
    }
  }
}
layer {
  name: "accuracy"
  type: "Accuracy"
  bottom: "fc8"
  bottom: "label"
  top: "accuracy"
  include {
    phase: TEST
  }
}
layer {
  name: "loss"
  type: "SoftmaxWithLoss"
  bottom: "fc8"
  bottom: "label"
  top: "loss"
}
I0204 08:47:10.175508 31863 layer_factory.hpp:77] Creating layer data
I0204 08:47:10.175686 31863 net.cpp:106] Creating Layer data
I0204 08:47:10.175709 31863 net.cpp:411] data -> data
I0204 08:47:10.175722 31863 net.cpp:411] data -> label
I0204 08:47:10.175734 31863 data_transformer.cpp:25] Loading mean file from: /home/pearlstl/proj_cv/master/lmdb/synth1_test_lum_db/mean_file.binaryproto
I0204 08:47:10.175901 31880 db_lmdb.cpp:38] Opened lmdb /home/pearlstl/proj_cv/master/lmdb/synth1_test_lum_db
I0204 08:47:10.176761 31863 data_layer.cpp:41] output data size: 100,1,227,227
I0204 08:47:10.229243 31863 net.cpp:150] Setting up data
I0204 08:47:10.229291 31863 net.cpp:157] Top shape: 100 1 227 227 (5152900)
I0204 08:47:10.229306 31863 net.cpp:157] Top shape: 100 (100)
I0204 08:47:10.229317 31863 net.cpp:165] Memory required for data: 20612000
I0204 08:47:10.229332 31863 layer_factory.hpp:77] Creating layer label_data_1_split
I0204 08:47:10.229368 31863 net.cpp:106] Creating Layer label_data_1_split
I0204 08:47:10.229380 31863 net.cpp:454] label_data_1_split <- label
I0204 08:47:10.229399 31863 net.cpp:411] label_data_1_split -> label_data_1_split_0
I0204 08:47:10.229428 31863 net.cpp:411] label_data_1_split -> label_data_1_split_1
I0204 08:47:10.229451 31863 net.cpp:150] Setting up label_data_1_split
I0204 08:47:10.229465 31863 net.cpp:157] Top shape: 100 (100)
I0204 08:47:10.229476 31863 net.cpp:157] Top shape: 100 (100)
I0204 08:47:10.229486 31863 net.cpp:165] Memory required for data: 20612800
I0204 08:47:10.229496 31863 layer_factory.hpp:77] Creating layer conv1
I0204 08:47:10.229523 31863 net.cpp:106] Creating Layer conv1
I0204 08:47:10.229534 31863 net.cpp:454] conv1 <- data
I0204 08:47:10.229552 31863 net.cpp:411] conv1 -> conv1
I0204 08:47:10.229691 31863 net.cpp:150] Setting up conv1
I0204 08:47:10.229712 31863 net.cpp:157] Top shape: 100 32 55 55 (9680000)
I0204 08:47:10.229722 31863 net.cpp:165] Memory required for data: 59332800
I0204 08:47:10.229750 31863 layer_factory.hpp:77] Creating layer relu1
I0204 08:47:10.229769 31863 net.cpp:106] Creating Layer relu1
I0204 08:47:10.229781 31863 net.cpp:454] relu1 <- conv1
I0204 08:47:10.229796 31863 net.cpp:397] relu1 -> conv1 (in-place)
I0204 08:47:10.229815 31863 net.cpp:150] Setting up relu1
I0204 08:47:10.229827 31863 net.cpp:157] Top shape: 100 32 55 55 (9680000)
I0204 08:47:10.229840 31863 net.cpp:165] Memory required for data: 98052800
I0204 08:47:10.229851 31863 layer_factory.hpp:77] Creating layer pool1
I0204 08:47:10.229871 31863 net.cpp:106] Creating Layer pool1
I0204 08:47:10.229882 31863 net.cpp:454] pool1 <- conv1
I0204 08:47:10.229897 31863 net.cpp:411] pool1 -> pool1
I0204 08:47:10.229920 31863 net.cpp:150] Setting up pool1
I0204 08:47:10.229938 31863 net.cpp:157] Top shape: 100 32 27 27 (2332800)
I0204 08:47:10.229948 31863 net.cpp:165] Memory required for data: 107384000
I0204 08:47:10.229957 31863 layer_factory.hpp:77] Creating layer norm1
I0204 08:47:10.229975 31863 net.cpp:106] Creating Layer norm1
I0204 08:47:10.229990 31863 net.cpp:454] norm1 <- pool1
I0204 08:47:10.230003 31863 net.cpp:411] norm1 -> norm1
I0204 08:47:10.230034 31863 net.cpp:150] Setting up norm1
I0204 08:47:10.230049 31863 net.cpp:157] Top shape: 100 32 27 27 (2332800)
I0204 08:47:10.230060 31863 net.cpp:165] Memory required for data: 116715200
I0204 08:47:10.230074 31863 layer_factory.hpp:77] Creating layer conv2
I0204 08:47:10.230096 31863 net.cpp:106] Creating Layer conv2
I0204 08:47:10.230108 31863 net.cpp:454] conv2 <- norm1
I0204 08:47:10.230123 31863 net.cpp:411] conv2 -> conv2
I0204 08:47:10.230387 31863 net.cpp:150] Setting up conv2
I0204 08:47:10.230404 31863 net.cpp:157] Top shape: 100 32 27 27 (2332800)
I0204 08:47:10.230414 31863 net.cpp:165] Memory required for data: 126046400
I0204 08:47:10.230434 31863 layer_factory.hpp:77] Creating layer relu2
I0204 08:47:10.230453 31863 net.cpp:106] Creating Layer relu2
I0204 08:47:10.230463 31863 net.cpp:454] relu2 <- conv2
I0204 08:47:10.230481 31863 net.cpp:397] relu2 -> conv2 (in-place)
I0204 08:47:10.230535 31863 net.cpp:150] Setting up relu2
I0204 08:47:10.230551 31863 net.cpp:157] Top shape: 100 32 27 27 (2332800)
I0204 08:47:10.230559 31863 net.cpp:165] Memory required for data: 135377600
I0204 08:47:10.230573 31863 layer_factory.hpp:77] Creating layer pool2
I0204 08:47:10.230595 31863 net.cpp:106] Creating Layer pool2
I0204 08:47:10.230607 31863 net.cpp:454] pool2 <- conv2
I0204 08:47:10.230623 31863 net.cpp:411] pool2 -> pool2
I0204 08:47:10.230646 31863 net.cpp:150] Setting up pool2
I0204 08:47:10.230659 31863 net.cpp:157] Top shape: 100 32 13 13 (540800)
I0204 08:47:10.230669 31863 net.cpp:165] Memory required for data: 137540800
I0204 08:47:10.230679 31863 layer_factory.hpp:77] Creating layer norm2
I0204 08:47:10.230698 31863 net.cpp:106] Creating Layer norm2
I0204 08:47:10.230710 31863 net.cpp:454] norm2 <- pool2
I0204 08:47:10.230725 31863 net.cpp:411] norm2 -> norm2
I0204 08:47:10.230746 31863 net.cpp:150] Setting up norm2
I0204 08:47:10.230758 31863 net.cpp:157] Top shape: 100 32 13 13 (540800)
I0204 08:47:10.230767 31863 net.cpp:165] Memory required for data: 139704000
I0204 08:47:10.230777 31863 layer_factory.hpp:77] Creating layer conv3
I0204 08:47:10.230798 31863 net.cpp:106] Creating Layer conv3
I0204 08:47:10.230809 31863 net.cpp:454] conv3 <- norm2
I0204 08:47:10.230825 31863 net.cpp:411] conv3 -> conv3
I0204 08:47:10.231034 31863 net.cpp:150] Setting up conv3
I0204 08:47:10.231070 31863 net.cpp:157] Top shape: 100 32 13 13 (540800)
I0204 08:47:10.231081 31863 net.cpp:165] Memory required for data: 141867200
I0204 08:47:10.231101 31863 layer_factory.hpp:77] Creating layer relu3
I0204 08:47:10.231117 31863 net.cpp:106] Creating Layer relu3
I0204 08:47:10.231127 31863 net.cpp:454] relu3 <- conv3
I0204 08:47:10.231140 31863 net.cpp:397] relu3 -> conv3 (in-place)
I0204 08:47:10.231159 31863 net.cpp:150] Setting up relu3
I0204 08:47:10.231173 31863 net.cpp:157] Top shape: 100 32 13 13 (540800)
I0204 08:47:10.231184 31863 net.cpp:165] Memory required for data: 144030400
I0204 08:47:10.231194 31863 layer_factory.hpp:77] Creating layer conv4
I0204 08:47:10.231212 31863 net.cpp:106] Creating Layer conv4
I0204 08:47:10.231222 31863 net.cpp:454] conv4 <- conv3
I0204 08:47:10.231238 31863 net.cpp:411] conv4 -> conv4
I0204 08:47:10.231330 31863 net.cpp:150] Setting up conv4
I0204 08:47:10.231348 31863 net.cpp:157] Top shape: 100 16 13 13 (270400)
I0204 08:47:10.231358 31863 net.cpp:165] Memory required for data: 145112000
I0204 08:47:10.231376 31863 layer_factory.hpp:77] Creating layer relu4
I0204 08:47:10.231391 31863 net.cpp:106] Creating Layer relu4
I0204 08:47:10.231402 31863 net.cpp:454] relu4 <- conv4
I0204 08:47:10.231416 31863 net.cpp:397] relu4 -> conv4 (in-place)
I0204 08:47:10.231432 31863 net.cpp:150] Setting up relu4
I0204 08:47:10.231444 31863 net.cpp:157] Top shape: 100 16 13 13 (270400)
I0204 08:47:10.231453 31863 net.cpp:165] Memory required for data: 146193600
I0204 08:47:10.231464 31863 layer_factory.hpp:77] Creating layer conv5
I0204 08:47:10.231485 31863 net.cpp:106] Creating Layer conv5
I0204 08:47:10.231497 31863 net.cpp:454] conv5 <- conv4
I0204 08:47:10.231515 31863 net.cpp:411] conv5 -> conv5
I0204 08:47:10.231576 31863 net.cpp:150] Setting up conv5
I0204 08:47:10.231591 31863 net.cpp:157] Top shape: 100 16 13 13 (270400)
I0204 08:47:10.231600 31863 net.cpp:165] Memory required for data: 147275200
I0204 08:47:10.231621 31863 layer_factory.hpp:77] Creating layer relu5
I0204 08:47:10.231636 31863 net.cpp:106] Creating Layer relu5
I0204 08:47:10.231644 31863 net.cpp:454] relu5 <- conv5
I0204 08:47:10.231662 31863 net.cpp:397] relu5 -> conv5 (in-place)
I0204 08:47:10.231679 31863 net.cpp:150] Setting up relu5
I0204 08:47:10.231690 31863 net.cpp:157] Top shape: 100 16 13 13 (270400)
I0204 08:47:10.231699 31863 net.cpp:165] Memory required for data: 148356800
I0204 08:47:10.231709 31863 layer_factory.hpp:77] Creating layer pool5
I0204 08:47:10.231726 31863 net.cpp:106] Creating Layer pool5
I0204 08:47:10.231736 31863 net.cpp:454] pool5 <- conv5
I0204 08:47:10.231762 31863 net.cpp:411] pool5 -> pool5
I0204 08:47:10.231797 31863 net.cpp:150] Setting up pool5
I0204 08:47:10.231812 31863 net.cpp:157] Top shape: 100 16 6 6 (57600)
I0204 08:47:10.231820 31863 net.cpp:165] Memory required for data: 148587200
I0204 08:47:10.231833 31863 layer_factory.hpp:77] Creating layer fc6
I0204 08:47:10.231853 31863 net.cpp:106] Creating Layer fc6
I0204 08:47:10.231861 31863 net.cpp:454] fc6 <- pool5
I0204 08:47:10.231878 31863 net.cpp:411] fc6 -> fc6
I0204 08:47:10.243245 31863 net.cpp:150] Setting up fc6
I0204 08:47:10.243291 31863 net.cpp:157] Top shape: 100 256 (25600)
I0204 08:47:10.243305 31863 net.cpp:165] Memory required for data: 148689600
I0204 08:47:10.243326 31863 layer_factory.hpp:77] Creating layer relu6
I0204 08:47:10.243352 31863 net.cpp:106] Creating Layer relu6
I0204 08:47:10.243367 31863 net.cpp:454] relu6 <- fc6
I0204 08:47:10.243384 31863 net.cpp:397] relu6 -> fc6 (in-place)
I0204 08:47:10.243407 31863 net.cpp:150] Setting up relu6
I0204 08:47:10.243419 31863 net.cpp:157] Top shape: 100 256 (25600)
I0204 08:47:10.243429 31863 net.cpp:165] Memory required for data: 148792000
I0204 08:47:10.243440 31863 layer_factory.hpp:77] Creating layer drop6
I0204 08:47:10.243461 31863 net.cpp:106] Creating Layer drop6
I0204 08:47:10.243473 31863 net.cpp:454] drop6 <- fc6
I0204 08:47:10.243489 31863 net.cpp:397] drop6 -> fc6 (in-place)
I0204 08:47:10.243510 31863 net.cpp:150] Setting up drop6
I0204 08:47:10.243527 31863 net.cpp:157] Top shape: 100 256 (25600)
I0204 08:47:10.243536 31863 net.cpp:165] Memory required for data: 148894400
I0204 08:47:10.243546 31863 layer_factory.hpp:77] Creating layer fc7
I0204 08:47:10.243571 31863 net.cpp:106] Creating Layer fc7
I0204 08:47:10.243582 31863 net.cpp:454] fc7 <- fc6
I0204 08:47:10.243598 31863 net.cpp:411] fc7 -> fc7
I0204 08:47:10.244920 31863 net.cpp:150] Setting up fc7
I0204 08:47:10.244940 31863 net.cpp:157] Top shape: 100 256 (25600)
I0204 08:47:10.244947 31863 net.cpp:165] Memory required for data: 148996800
I0204 08:47:10.244958 31863 layer_factory.hpp:77] Creating layer relu7
I0204 08:47:10.244972 31863 net.cpp:106] Creating Layer relu7
I0204 08:47:10.244979 31863 net.cpp:454] relu7 <- fc7
I0204 08:47:10.244988 31863 net.cpp:397] relu7 -> fc7 (in-place)
I0204 08:47:10.245000 31863 net.cpp:150] Setting up relu7
I0204 08:47:10.245008 31863 net.cpp:157] Top shape: 100 256 (25600)
I0204 08:47:10.245014 31863 net.cpp:165] Memory required for data: 149099200
I0204 08:47:10.245020 31863 layer_factory.hpp:77] Creating layer drop7
I0204 08:47:10.245043 31863 net.cpp:106] Creating Layer drop7
I0204 08:47:10.245050 31863 net.cpp:454] drop7 <- fc7
I0204 08:47:10.245060 31863 net.cpp:397] drop7 -> fc7 (in-place)
I0204 08:47:10.245072 31863 net.cpp:150] Setting up drop7
I0204 08:47:10.245079 31863 net.cpp:157] Top shape: 100 256 (25600)
I0204 08:47:10.245085 31863 net.cpp:165] Memory required for data: 149201600
I0204 08:47:10.245090 31863 layer_factory.hpp:77] Creating layer fc8
I0204 08:47:10.245101 31863 net.cpp:106] Creating Layer fc8
I0204 08:47:10.245107 31863 net.cpp:454] fc8 <- fc7
I0204 08:47:10.245126 31863 net.cpp:411] fc8 -> fc8
I0204 08:47:10.245157 31863 net.cpp:150] Setting up fc8
I0204 08:47:10.245170 31863 net.cpp:157] Top shape: 100 2 (200)
I0204 08:47:10.245179 31863 net.cpp:165] Memory required for data: 149202400
I0204 08:47:10.245188 31863 layer_factory.hpp:77] Creating layer fc8_fc8_0_split
I0204 08:47:10.245198 31863 net.cpp:106] Creating Layer fc8_fc8_0_split
I0204 08:47:10.245204 31863 net.cpp:454] fc8_fc8_0_split <- fc8
I0204 08:47:10.245214 31863 net.cpp:411] fc8_fc8_0_split -> fc8_fc8_0_split_0
I0204 08:47:10.245223 31863 net.cpp:411] fc8_fc8_0_split -> fc8_fc8_0_split_1
I0204 08:47:10.245234 31863 net.cpp:150] Setting up fc8_fc8_0_split
I0204 08:47:10.245240 31863 net.cpp:157] Top shape: 100 2 (200)
I0204 08:47:10.245249 31863 net.cpp:157] Top shape: 100 2 (200)
I0204 08:47:10.245254 31863 net.cpp:165] Memory required for data: 149204000
I0204 08:47:10.245260 31863 layer_factory.hpp:77] Creating layer accuracy
I0204 08:47:10.245285 31863 net.cpp:106] Creating Layer accuracy
I0204 08:47:10.245301 31863 net.cpp:454] accuracy <- fc8_fc8_0_split_0
I0204 08:47:10.245311 31863 net.cpp:454] accuracy <- label_data_1_split_0
I0204 08:47:10.245319 31863 net.cpp:411] accuracy -> accuracy
…
