…
I0204 08:47:10.229073 31892 net.cpp:322] The NetState phase (0) differed from the phase (1) specified by a rule in layer accuracy
I0204 08:47:10.229316 31892 net.cpp:49] Initializing net from parameters: 
name: "CaffeNet"
state {
  phase: TRAIN
}
layer {
  name: "data"
  type: "Data"
  top: "data"
  top: "label"
  include {
    phase: TRAIN
  }
  transform_param {
    mirror: true
    crop_size: 227
    mean_file: "/home/pearlstl/proj_cv/master/lmdb/synth1_train_lum_db/mean_file.binaryproto"
  }
  data_param {
    source: "/home/pearlstl/proj_cv/master/lmdb/synth1_train_lum_db"
    batch_size: 100
    backend: LMDB
  }
}
layer {
  name: "conv1"
  type: "Convolution"
  bottom: "data"
  top: "conv1"
  param {
    lr_mult: 1
    decay_mult: 1
  }
  param {
    lr_mult: 2
    decay_mult: 0
  }
  convolution_param {
    num_output: 32
    kernel_size: 11
    stride: 4
    weight_filler {
      type: "xavier"
    }
    bias_filler {
      type: "constant"
      value: 0
    }
  }
}
layer {
  name: "relu1"
  type: "ReLU"
  bottom: "conv1"
  top: "conv1"
}
layer {
  name: "pool1"
  type: "Pooling"
  bottom: "conv1"
  top: "pool1"
  pooling_param {
    pool: MAX
    kernel_size: 3
    stride: 2
  }
}
layer {
  name: "norm1"
  type: "LRN"
  bottom: "pool1"
  top: "norm1"
  lrn_param {
    local_size: 5
    alpha: 0.0001
    beta: 0.75
  }
}
layer {
  name: "conv2"
  type: "Convolution"
  bottom: "norm1"
  top: "conv2"
  param {
    lr_mult: 1
    decay_mult: 1
  }
  param {
    lr_mult: 2
    decay_mult: 0
  }
  convolution_param {
    num_output: 16
    pad: 2
    kernel_size: 5
    group: 2
    weight_filler {
      type: "xavier"
    }
    bias_filler {
      type: "constant"
      value: 1
    }
  }
}
layer {
  name: "relu2"
  type: "ReLU"
  bottom: "conv2"
  top: "conv2"
}
layer {
  name: "pool2"
  type: "Pooling"
  bottom: "conv2"
  top: "pool2"
  pooling_param {
    pool: MAX
    kernel_size: 3
    stride: 2
  }
}
layer {
  name: "norm2"
  type: "LRN"
  bottom: "pool2"
  top: "norm2"
  lrn_param {
    local_size: 5
    alpha: 0.0001
    beta: 0.75
  }
}
layer {
  name: "conv3"
  type: "Convolution"
  bottom: "norm2"
  top: "conv3"
  param {
    lr_mult: 1
    decay_mult: 1
  }
  param {
    lr_mult: 2
    decay_mult: 0
  }
  convolution_param {
    num_output: 16
    pad: 1
    kernel_size: 3
    weight_filler {
      type: "xavier"
    }
    bias_filler {
      type: "constant"
      value: 0
    }
  }
}
layer {
  name: "relu3"
  type: "ReLU"
  bottom: "conv3"
  top: "conv3"
}
layer {
  name: "conv4"
  type: "Convolution"
  bottom: "conv3"
  top: "conv4"
  param {
    lr_mult: 1
    decay_mult: 1
  }
  param {
    lr_mult: 2
    decay_mult: 0
  }
  convolution_param {
    num_output: 16
    pad: 1
    kernel_size: 3
    group: 2
    weight_filler {
      type: "xavier"
    }
    bias_filler {
      type: "constant"
      value: 1
    }
  }
}
layer {
  name: "relu4"
  type: "ReLU"
  bottom: "conv4"
  top: "conv4"
}
layer {
  name: "conv5"
  type: "Convolution"
  bottom: "conv4"
  top: "conv5"
  param {
    lr_mult: 1
    decay_mult: 1
  }
  param {
    lr_mult: 2
    decay_mult: 0
  }
  convolution_param {
    num_output: 16
    pad: 1
    kernel_size: 3
    group: 2
    weight_filler {
      type: "xavier"
    }
    bias_filler {
      type: "constant"
      value: 1
    }
  }
}
layer {
  name: "relu5"
  type: "ReLU"
  bottom: "conv5"
  top: "conv5"
}
layer {
  name: "pool5"
  type: "Pooling"
  bottom: "conv5"
  top: "pool5"
  pooling_param {
    pool: MAX
    kernel_size: 3
    stride: 2
  }
}
layer {
  name: "fc6"
  type: "InnerProduct"
  bottom: "pool5"
  top: "fc6"
  param {
    lr_mult: 1
    decay_mult: 1
  }
  param {
    lr_mult: 2
    decay_mult: 0
  }
  inner_product_param {
    num_output: 256
    weight_filler {
      type: "xavier"
    }
    bias_filler {
      type: "constant"
      value: 1
    }
  }
}
layer {
  name: "relu6"
  type: "ReLU"
  bottom: "fc6"
  top: "fc6"
}
layer {
  name: "drop6"
  type: "Dropout"
  bottom: "fc6"
  top: "fc6"
  dropout_param {
    dropout_ratio: 0.5
  }
}
layer {
  name: "fc7"
  type: "InnerProduct"
  bottom: "fc6"
  top: "fc7"
  param {
    lr_mult: 1
    decay_mult: 1
  }
  param {
    lr_mult: 2
    decay_mult: 0
  }
  inner_product_param {
    num_output: 256
    weight_filler {
      type: "xavier"
    }
    bias_filler {
      type: "constant"
      value: 1
    }
  }
}
layer {
  name: "relu7"
  type: "ReLU"
  bottom: "fc7"
  top: "fc7"
}
layer {
  name: "drop7"
  type: "Dropout"
  bottom: "fc7"
  top: "fc7"
  dropout_param {
    dropout_ratio: 0.5
  }
}
layer {
  name: "fc8"
  type: "InnerProduct"
  bottom: "fc7"
  top: "fc8"
  param {
    lr_mult: 1
    decay_mult: 1
  }
  param {
    lr_mult: 2
    decay_mult: 0
  }
  inner_product_param {
    num_output: 2
    weight_filler {
      type: "xavier"
    }
    bias_filler {
      type: "constant"
      value: 0
    }
  }
}
layer {
  name: "loss"
  type: "SoftmaxWithLoss"
  bottom: "fc8"
  bottom: "label"
  top: "loss"
}
I0204 08:47:10.229454 31892 layer_factory.hpp:77] Creating layer data
I0204 08:47:10.229629 31892 net.cpp:106] Creating Layer data
I0204 08:47:10.229647 31892 net.cpp:411] data -> data
I0204 08:47:10.229753 31892 net.cpp:411] data -> label
I0204 08:47:10.229810 31892 data_transformer.cpp:25] Loading mean file from: /home/pearlstl/proj_cv/master/lmdb/synth1_train_lum_db/mean_file.binaryproto
I0204 08:47:10.230267 31898 db_lmdb.cpp:38] Opened lmdb /home/pearlstl/proj_cv/master/lmdb/synth1_train_lum_db
I0204 08:47:10.232815 31892 data_layer.cpp:41] output data size: 100,1,227,227
I0204 08:47:10.265921 31892 net.cpp:150] Setting up data
I0204 08:47:10.265992 31892 net.cpp:157] Top shape: 100 1 227 227 (5152900)
I0204 08:47:10.266001 31892 net.cpp:157] Top shape: 100 (100)
I0204 08:47:10.266007 31892 net.cpp:165] Memory required for data: 20612000
I0204 08:47:10.266029 31892 layer_factory.hpp:77] Creating layer conv1
I0204 08:47:10.266059 31892 net.cpp:106] Creating Layer conv1
I0204 08:47:10.266068 31892 net.cpp:454] conv1 <- data
I0204 08:47:10.266103 31892 net.cpp:411] conv1 -> conv1
I0204 08:47:10.266274 31892 net.cpp:150] Setting up conv1
I0204 08:47:10.266288 31892 net.cpp:157] Top shape: 100 32 55 55 (9680000)
I0204 08:47:10.266294 31892 net.cpp:165] Memory required for data: 59332000
I0204 08:47:10.266312 31892 layer_factory.hpp:77] Creating layer relu1
I0204 08:47:10.266326 31892 net.cpp:106] Creating Layer relu1
I0204 08:47:10.266333 31892 net.cpp:454] relu1 <- conv1
I0204 08:47:10.266342 31892 net.cpp:397] relu1 -> conv1 (in-place)
I0204 08:47:10.266355 31892 net.cpp:150] Setting up relu1
I0204 08:47:10.266366 31892 net.cpp:157] Top shape: 100 32 55 55 (9680000)
I0204 08:47:10.266371 31892 net.cpp:165] Memory required for data: 98052000
I0204 08:47:10.266376 31892 layer_factory.hpp:77] Creating layer pool1
I0204 08:47:10.266387 31892 net.cpp:106] Creating Layer pool1
I0204 08:47:10.266393 31892 net.cpp:454] pool1 <- conv1
I0204 08:47:10.266402 31892 net.cpp:411] pool1 -> pool1
I0204 08:47:10.266427 31892 net.cpp:150] Setting up pool1
I0204 08:47:10.266434 31892 net.cpp:157] Top shape: 100 32 27 27 (2332800)
I0204 08:47:10.266440 31892 net.cpp:165] Memory required for data: 107383200
I0204 08:47:10.266445 31892 layer_factory.hpp:77] Creating layer norm1
I0204 08:47:10.266466 31892 net.cpp:106] Creating Layer norm1
I0204 08:47:10.266482 31892 net.cpp:454] norm1 <- pool1
I0204 08:47:10.266494 31892 net.cpp:411] norm1 -> norm1
I0204 08:47:10.266512 31892 net.cpp:150] Setting up norm1
I0204 08:47:10.266521 31892 net.cpp:157] Top shape: 100 32 27 27 (2332800)
I0204 08:47:10.266526 31892 net.cpp:165] Memory required for data: 116714400
I0204 08:47:10.266531 31892 layer_factory.hpp:77] Creating layer conv2
I0204 08:47:10.266542 31892 net.cpp:106] Creating Layer conv2
I0204 08:47:10.266548 31892 net.cpp:454] conv2 <- norm1
I0204 08:47:10.266557 31892 net.cpp:411] conv2 -> conv2
I0204 08:47:10.266638 31892 net.cpp:150] Setting up conv2
I0204 08:47:10.266646 31892 net.cpp:157] Top shape: 100 16 27 27 (1166400)
I0204 08:47:10.266651 31892 net.cpp:165] Memory required for data: 121380000
I0204 08:47:10.266662 31892 layer_factory.hpp:77] Creating layer relu2
I0204 08:47:10.266671 31892 net.cpp:106] Creating Layer relu2
I0204 08:47:10.266677 31892 net.cpp:454] relu2 <- conv2
I0204 08:47:10.266685 31892 net.cpp:397] relu2 -> conv2 (in-place)
I0204 08:47:10.266695 31892 net.cpp:150] Setting up relu2
I0204 08:47:10.266701 31892 net.cpp:157] Top shape: 100 16 27 27 (1166400)
I0204 08:47:10.266707 31892 net.cpp:165] Memory required for data: 126045600
I0204 08:47:10.266712 31892 layer_factory.hpp:77] Creating layer pool2
I0204 08:47:10.266721 31892 net.cpp:106] Creating Layer pool2
I0204 08:47:10.266726 31892 net.cpp:454] pool2 <- conv2
I0204 08:47:10.266734 31892 net.cpp:411] pool2 -> pool2
I0204 08:47:10.266746 31892 net.cpp:150] Setting up pool2
I0204 08:47:10.266752 31892 net.cpp:157] Top shape: 100 16 13 13 (270400)
I0204 08:47:10.266757 31892 net.cpp:165] Memory required for data: 127127200
I0204 08:47:10.266762 31892 layer_factory.hpp:77] Creating layer norm2
I0204 08:47:10.266772 31892 net.cpp:106] Creating Layer norm2
I0204 08:47:10.266778 31892 net.cpp:454] norm2 <- pool2
I0204 08:47:10.266787 31892 net.cpp:411] norm2 -> norm2
I0204 08:47:10.266796 31892 net.cpp:150] Setting up norm2
I0204 08:47:10.266803 31892 net.cpp:157] Top shape: 100 16 13 13 (270400)
I0204 08:47:10.266808 31892 net.cpp:165] Memory required for data: 128208800
I0204 08:47:10.266813 31892 layer_factory.hpp:77] Creating layer conv3
I0204 08:47:10.266824 31892 net.cpp:106] Creating Layer conv3
I0204 08:47:10.266830 31892 net.cpp:454] conv3 <- norm2
I0204 08:47:10.266841 31892 net.cpp:411] conv3 -> conv3
I0204 08:47:10.266891 31892 net.cpp:150] Setting up conv3
I0204 08:47:10.266901 31892 net.cpp:157] Top shape: 100 16 13 13 (270400)
I0204 08:47:10.266906 31892 net.cpp:165] Memory required for data: 129290400
I0204 08:47:10.266916 31892 layer_factory.hpp:77] Creating layer relu3
I0204 08:47:10.266935 31892 net.cpp:106] Creating Layer relu3
I0204 08:47:10.266942 31892 net.cpp:454] relu3 <- conv3
I0204 08:47:10.266950 31892 net.cpp:397] relu3 -> conv3 (in-place)
I0204 08:47:10.266960 31892 net.cpp:150] Setting up relu3
I0204 08:47:10.266968 31892 net.cpp:157] Top shape: 100 16 13 13 (270400)
I0204 08:47:10.266973 31892 net.cpp:165] Memory required for data: 130372000
I0204 08:47:10.266979 31892 layer_factory.hpp:77] Creating layer conv4
I0204 08:47:10.266990 31892 net.cpp:106] Creating Layer conv4
I0204 08:47:10.266995 31892 net.cpp:454] conv4 <- conv3
I0204 08:47:10.267169 31892 net.cpp:411] conv4 -> conv4
I0204 08:47:10.267220 31892 net.cpp:150] Setting up conv4
I0204 08:47:10.267230 31892 net.cpp:157] Top shape: 100 16 13 13 (270400)
I0204 08:47:10.267235 31892 net.cpp:165] Memory required for data: 131453600
I0204 08:47:10.267243 31892 layer_factory.hpp:77] Creating layer relu4
I0204 08:47:10.267266 31892 net.cpp:106] Creating Layer relu4
I0204 08:47:10.267271 31892 net.cpp:454] relu4 <- conv4
I0204 08:47:10.267279 31892 net.cpp:397] relu4 -> conv4 (in-place)
I0204 08:47:10.267288 31892 net.cpp:150] Setting up relu4
I0204 08:47:10.267295 31892 net.cpp:157] Top shape: 100 16 13 13 (270400)
I0204 08:47:10.267300 31892 net.cpp:165] Memory required for data: 132535200
I0204 08:47:10.267307 31892 layer_factory.hpp:77] Creating layer conv5
I0204 08:47:10.267338 31892 net.cpp:106] Creating Layer conv5
I0204 08:47:10.267344 31892 net.cpp:454] conv5 <- conv4
I0204 08:47:10.267356 31892 net.cpp:411] conv5 -> conv5
I0204 08:47:10.267395 31892 net.cpp:150] Setting up conv5
I0204 08:47:10.267403 31892 net.cpp:157] Top shape: 100 16 13 13 (270400)
I0204 08:47:10.267408 31892 net.cpp:165] Memory required for data: 133616800
I0204 08:47:10.267421 31892 layer_factory.hpp:77] Creating layer relu5
I0204 08:47:10.267429 31892 net.cpp:106] Creating Layer relu5
I0204 08:47:10.267436 31892 net.cpp:454] relu5 <- conv5
I0204 08:47:10.267443 31892 net.cpp:397] relu5 -> conv5 (in-place)
I0204 08:47:10.267452 31892 net.cpp:150] Setting up relu5
I0204 08:47:10.267460 31892 net.cpp:157] Top shape: 100 16 13 13 (270400)
I0204 08:47:10.267465 31892 net.cpp:165] Memory required for data: 134698400
I0204 08:47:10.267472 31892 layer_factory.hpp:77] Creating layer pool5
I0204 08:47:10.267482 31892 net.cpp:106] Creating Layer pool5
I0204 08:47:10.267488 31892 net.cpp:454] pool5 <- conv5
I0204 08:47:10.267495 31892 net.cpp:411] pool5 -> pool5
I0204 08:47:10.267508 31892 net.cpp:150] Setting up pool5
I0204 08:47:10.267514 31892 net.cpp:157] Top shape: 100 16 6 6 (57600)
I0204 08:47:10.267519 31892 net.cpp:165] Memory required for data: 134928800
I0204 08:47:10.267524 31892 layer_factory.hpp:77] Creating layer fc6
I0204 08:47:10.267547 31892 net.cpp:106] Creating Layer fc6
I0204 08:47:10.267554 31892 net.cpp:454] fc6 <- pool5
I0204 08:47:10.267562 31892 net.cpp:411] fc6 -> fc6
I0204 08:47:10.269280 31892 net.cpp:150] Setting up fc6
I0204 08:47:10.269316 31892 net.cpp:157] Top shape: 100 256 (25600)
I0204 08:47:10.269321 31892 net.cpp:165] Memory required for data: 135031200
I0204 08:47:10.269336 31892 layer_factory.hpp:77] Creating layer relu6
I0204 08:47:10.269352 31892 net.cpp:106] Creating Layer relu6
I0204 08:47:10.269361 31892 net.cpp:454] relu6 <- fc6
I0204 08:47:10.269371 31892 net.cpp:397] relu6 -> fc6 (in-place)
I0204 08:47:10.269386 31892 net.cpp:150] Setting up relu6
I0204 08:47:10.269393 31892 net.cpp:157] Top shape: 100 256 (25600)
I0204 08:47:10.269398 31892 net.cpp:165] Memory required for data: 135133600
I0204 08:47:10.269404 31892 layer_factory.hpp:77] Creating layer drop6
I0204 08:47:10.269417 31892 net.cpp:106] Creating Layer drop6
I0204 08:47:10.269421 31892 net.cpp:454] drop6 <- fc6
I0204 08:47:10.269433 31892 net.cpp:397] drop6 -> fc6 (in-place)
I0204 08:47:10.269455 31892 net.cpp:150] Setting up drop6
I0204 08:47:10.269464 31892 net.cpp:157] Top shape: 100 256 (25600)
I0204 08:47:10.269469 31892 net.cpp:165] Memory required for data: 135236000
I0204 08:47:10.269474 31892 layer_factory.hpp:77] Creating layer fc7
I0204 08:47:10.269487 31892 net.cpp:106] Creating Layer fc7
I0204 08:47:10.269493 31892 net.cpp:454] fc7 <- fc6
I0204 08:47:10.269502 31892 net.cpp:411] fc7 -> fc7
I0204 08:47:10.276736 31892 net.cpp:150] Setting up fc7
I0204 08:47:10.276798 31892 net.cpp:157] Top shape: 100 256 (25600)
I0204 08:47:10.276808 31892 net.cpp:165] Memory required for data: 135338400
I0204 08:47:10.276824 31892 layer_factory.hpp:77] Creating layer relu7
I0204 08:47:10.276841 31892 net.cpp:106] Creating Layer relu7
I0204 08:47:10.276852 31892 net.cpp:454] relu7 <- fc7
I0204 08:47:10.276867 31892 net.cpp:397] relu7 -> fc7 (in-place)
I0204 08:47:10.276887 31892 net.cpp:150] Setting up relu7
I0204 08:47:10.276897 31892 net.cpp:157] Top shape: 100 256 (25600)
I0204 08:47:10.276904 31892 net.cpp:165] Memory required for data: 135440800
I0204 08:47:10.276912 31892 layer_factory.hpp:77] Creating layer drop7
I0204 08:47:10.276926 31892 net.cpp:106] Creating Layer drop7
I0204 08:47:10.276934 31892 net.cpp:454] drop7 <- fc7
I0204 08:47:10.276944 31892 net.cpp:397] drop7 -> fc7 (in-place)
I0204 08:47:10.276962 31892 net.cpp:150] Setting up drop7
I0204 08:47:10.276971 31892 net.cpp:157] Top shape: 100 256 (25600)
I0204 08:47:10.276978 31892 net.cpp:165] Memory required for data: 135543200
I0204 08:47:10.276986 31892 layer_factory.hpp:77] Creating layer fc8
I0204 08:47:10.277020 31892 net.cpp:106] Creating Layer fc8
I0204 08:47:10.277040 31892 net.cpp:454] fc8 <- fc7
I0204 08:47:10.277055 31892 net.cpp:411] fc8 -> fc8
I0204 08:47:10.277089 31892 net.cpp:150] Setting up fc8
I0204 08:47:10.277099 31892 net.cpp:157] Top shape: 100 2 (200)
I0204 08:47:10.277107 31892 net.cpp:165] Memory required for data: 135544000
I0204 08:47:10.277117 31892 layer_factory.hpp:77] Creating layer loss
I0204 08:47:10.277130 31892 net.cpp:106] Creating Layer loss
I0204 08:47:10.277138 31892 net.cpp:454] loss <- fc8
I0204 08:47:10.277148 31892 net.cpp:454] loss <- label
I0204 08:47:10.277160 31892 net.cpp:411] loss -> loss
I0204 08:47:10.277180 31892 layer_factory.hpp:77] Creating layer loss
…
I0204 08:47:10.278622 31892 net.cpp:322] The NetState phase (1) differed from the phase (0) specified by a rule in layer data
I0204 08:47:10.285595 31892 net.cpp:49] Initializing net from parameters: 
name: "CaffeNet"
state {
  phase: TEST
}
layer {
  name: "data"
  type: "Data"
  top: "data"
  top: "label"
  include {
    phase: TEST
  }
  transform_param {
    mirror: false
    crop_size: 227
    mean_file: "/home/pearlstl/proj_cv/master/lmdb/synth1_test_lum_db/mean_file.binaryproto"
  }
  data_param {
    source: "/home/pearlstl/proj_cv/master/lmdb/synth1_test_lum_db"
    batch_size: 100
    backend: LMDB
  }
}
layer {
  name: "conv1"
  type: "Convolution"
  bottom: "data"
  top: "conv1"
  param {
    lr_mult: 1
    decay_mult: 1
  }
  param {
    lr_mult: 2
    decay_mult: 0
  }
  convolution_param {
    num_output: 32
    kernel_size: 11
    stride: 4
    weight_filler {
      type: "xavier"
    }
    bias_filler {
      type: "constant"
      value: 0
    }
  }
}
layer {
  name: "relu1"
  type: "ReLU"
  bottom: "conv1"
  top: "conv1"
}
layer {
  name: "pool1"
  type: "Pooling"
  bottom: "conv1"
  top: "pool1"
  pooling_param {
    pool: MAX
    kernel_size: 3
    stride: 2
  }
}
layer {
  name: "norm1"
  type: "LRN"
  bottom: "pool1"
  top: "norm1"
  lrn_param {
    local_size: 5
    alpha: 0.0001
    beta: 0.75
  }
}
layer {
  name: "conv2"
  type: "Convolution"
  bottom: "norm1"
  top: "conv2"
  param {
    lr_mult: 1
    decay_mult: 1
  }
  param {
    lr_mult: 2
    decay_mult: 0
  }
  convolution_param {
    num_output: 16
    pad: 2
    kernel_size: 5
    group: 2
    weight_filler {
      type: "xavier"
    }
    bias_filler {
      type: "constant"
      value: 1
    }
  }
}
layer {
  name: "relu2"
  type: "ReLU"
  bottom: "conv2"
  top: "conv2"
}
layer {
  name: "pool2"
  type: "Pooling"
  bottom: "conv2"
  top: "pool2"
  pooling_param {
    pool: MAX
    kernel_size: 3
    stride: 2
  }
}
layer {
  name: "norm2"
  type: "LRN"
  bottom: "pool2"
  top: "norm2"
  lrn_param {
    local_size: 5
    alpha: 0.0001
    beta: 0.75
  }
}
layer {
  name: "conv3"
  type: "Convolution"
  bottom: "norm2"
  top: "conv3"
  param {
    lr_mult: 1
    decay_mult: 1
  }
  param {
    lr_mult: 2
    decay_mult: 0
  }
  convolution_param {
    num_output: 16
    pad: 1
    kernel_size: 3
    weight_filler {
      type: "xavier"
    }
    bias_filler {
      type: "constant"
      value: 0
    }
  }
}
layer {
  name: "relu3"
  type: "ReLU"
  bottom: "conv3"
  top: "conv3"
}
layer {
  name: "conv4"
  type: "Convolution"
  bottom: "conv3"
  top: "conv4"
  param {
    lr_mult: 1
    decay_mult: 1
  }
  param {
    lr_mult: 2
    decay_mult: 0
  }
  convolution_param {
    num_output: 16
    pad: 1
    kernel_size: 3
    group: 2
    weight_filler {
      type: "xavier"
    }
    bias_filler {
      type: "constant"
      value: 1
    }
  }
}
layer {
  name: "relu4"
  type: "ReLU"
  bottom: "conv4"
  top: "conv4"
}
layer {
  name: "conv5"
  type: "Convolution"
  bottom: "conv4"
  top: "conv5"
  param {
    lr_mult: 1
    decay_mult: 1
  }
  param {
    lr_mult: 2
    decay_mult: 0
  }
  convolution_param {
    num_output: 16
    pad: 1
    kernel_size: 3
    group: 2
    weight_filler {
      type: "xavier"
    }
    bias_filler {
      type: "constant"
      value: 1
    }
  }
}
layer {
  name: "relu5"
  type: "ReLU"
  bottom: "conv5"
  top: "conv5"
}
layer {
  name: "pool5"
  type: "Pooling"
  bottom: "conv5"
  top: "pool5"
  pooling_param {
    pool: MAX
    kernel_size: 3
    stride: 2
  }
}
layer {
  name: "fc6"
  type: "InnerProduct"
  bottom: "pool5"
  top: "fc6"
  param {
    lr_mult: 1
    decay_mult: 1
  }
  param {
    lr_mult: 2
    decay_mult: 0
  }
  inner_product_param {
    num_output: 256
    weight_filler {
      type: "xavier"
    }
    bias_filler {
      type: "constant"
      value: 1
    }
  }
}
layer {
  name: "relu6"
  type: "ReLU"
  bottom: "fc6"
  top: "fc6"
}
layer {
  name: "drop6"
  type: "Dropout"
  bottom: "fc6"
  top: "fc6"
  dropout_param {
    dropout_ratio: 0.5
  }
}
layer {
  name: "fc7"
  type: "InnerProduct"
  bottom: "fc6"
  top: "fc7"
  param {
    lr_mult: 1
    decay_mult: 1
  }
  param {
    lr_mult: 2
    decay_mult: 0
  }
  inner_product_param {
    num_output: 256
    weight_filler {
      type: "xavier"
    }
    bias_filler {
      type: "constant"
      value: 1
    }
  }
}
layer {
  name: "relu7"
  type: "ReLU"
  bottom: "fc7"
  top: "fc7"
}
layer {
  name: "drop7"
  type: "Dropout"
  bottom: "fc7"
  top: "fc7"
  dropout_param {
    dropout_ratio: 0.5
  }
}
layer {
  name: "fc8"
  type: "InnerProduct"
  bottom: "fc7"
  top: "fc8"
  param {
    lr_mult: 1
    decay_mult: 1
  }
  param {
    lr_mult: 2
    decay_mult: 0
  }
  inner_product_param {
    num_output: 2
    weight_filler {
      type: "xavier"
    }
    bias_filler {
      type: "constant"
      value: 0
    }
  }
}
layer {
  name: "accuracy"
  type: "Accuracy"
  bottom: "fc8"
  bottom: "label"
  top: "accuracy"
  include {
    phase: TEST
  }
}
layer {
  name: "loss"
  type: "SoftmaxWithLoss"
  bottom: "fc8"
  bottom: "label"
  top: "loss"
}
I0204 08:47:10.285863 31892 layer_factory.hpp:77] Creating layer data
I0204 08:47:10.287976 31892 net.cpp:106] Creating Layer data
I0204 08:47:10.288020 31892 net.cpp:411] data -> data
I0204 08:47:10.288044 31892 net.cpp:411] data -> label
I0204 08:47:10.288058 31892 data_transformer.cpp:25] Loading mean file from: /home/pearlstl/proj_cv/master/lmdb/synth1_test_lum_db/mean_file.binaryproto
I0204 08:47:10.293825 31911 db_lmdb.cpp:38] Opened lmdb /home/pearlstl/proj_cv/master/lmdb/synth1_test_lum_db
I0204 08:47:10.294790 31892 data_layer.cpp:41] output data size: 100,1,227,227
I0204 08:47:10.337716 31892 net.cpp:150] Setting up data
I0204 08:47:10.337780 31892 net.cpp:157] Top shape: 100 1 227 227 (5152900)
I0204 08:47:10.337796 31892 net.cpp:157] Top shape: 100 (100)
I0204 08:47:10.337806 31892 net.cpp:165] Memory required for data: 20612000
I0204 08:47:10.337821 31892 layer_factory.hpp:77] Creating layer label_data_1_split
I0204 08:47:10.337849 31892 net.cpp:106] Creating Layer label_data_1_split
I0204 08:47:10.337865 31892 net.cpp:454] label_data_1_split <- label
I0204 08:47:10.337885 31892 net.cpp:411] label_data_1_split -> label_data_1_split_0
I0204 08:47:10.337910 31892 net.cpp:411] label_data_1_split -> label_data_1_split_1
I0204 08:47:10.337934 31892 net.cpp:150] Setting up label_data_1_split
I0204 08:47:10.337949 31892 net.cpp:157] Top shape: 100 (100)
I0204 08:47:10.337961 31892 net.cpp:157] Top shape: 100 (100)
I0204 08:47:10.337980 31892 net.cpp:165] Memory required for data: 20612800
I0204 08:47:10.337990 31892 layer_factory.hpp:77] Creating layer conv1
I0204 08:47:10.338013 31892 net.cpp:106] Creating Layer conv1
I0204 08:47:10.338023 31892 net.cpp:454] conv1 <- data
I0204 08:47:10.338039 31892 net.cpp:411] conv1 -> conv1
I0204 08:47:10.338163 31892 net.cpp:150] Setting up conv1
I0204 08:47:10.338181 31892 net.cpp:157] Top shape: 100 32 55 55 (9680000)
I0204 08:47:10.338191 31892 net.cpp:165] Memory required for data: 59332800
I0204 08:47:10.338214 31892 layer_factory.hpp:77] Creating layer relu1
I0204 08:47:10.338232 31892 net.cpp:106] Creating Layer relu1
I0204 08:47:10.338241 31892 net.cpp:454] relu1 <- conv1
I0204 08:47:10.338255 31892 net.cpp:397] relu1 -> conv1 (in-place)
I0204 08:47:10.338274 31892 net.cpp:150] Setting up relu1
I0204 08:47:10.338286 31892 net.cpp:157] Top shape: 100 32 55 55 (9680000)
I0204 08:47:10.338295 31892 net.cpp:165] Memory required for data: 98052800
I0204 08:47:10.338305 31892 layer_factory.hpp:77] Creating layer pool1
I0204 08:47:10.338323 31892 net.cpp:106] Creating Layer pool1
I0204 08:47:10.338333 31892 net.cpp:454] pool1 <- conv1
I0204 08:47:10.338347 31892 net.cpp:411] pool1 -> pool1
I0204 08:47:10.338369 31892 net.cpp:150] Setting up pool1
I0204 08:47:10.338382 31892 net.cpp:157] Top shape: 100 32 27 27 (2332800)
I0204 08:47:10.338392 31892 net.cpp:165] Memory required for data: 107384000
I0204 08:47:10.338402 31892 layer_factory.hpp:77] Creating layer norm1
I0204 08:47:10.338418 31892 net.cpp:106] Creating Layer norm1
I0204 08:47:10.338428 31892 net.cpp:454] norm1 <- pool1
I0204 08:47:10.338443 31892 net.cpp:411] norm1 -> norm1
I0204 08:47:10.338460 31892 net.cpp:150] Setting up norm1
I0204 08:47:10.338474 31892 net.cpp:157] Top shape: 100 32 27 27 (2332800)
I0204 08:47:10.338482 31892 net.cpp:165] Memory required for data: 116715200
I0204 08:47:10.338492 31892 layer_factory.hpp:77] Creating layer conv2
I0204 08:47:10.338510 31892 net.cpp:106] Creating Layer conv2
I0204 08:47:10.338520 31892 net.cpp:454] conv2 <- norm1
I0204 08:47:10.338534 31892 net.cpp:411] conv2 -> conv2
I0204 08:47:10.338676 31892 net.cpp:150] Setting up conv2
I0204 08:47:10.338691 31892 net.cpp:157] Top shape: 100 16 27 27 (1166400)
I0204 08:47:10.338701 31892 net.cpp:165] Memory required for data: 121380800
I0204 08:47:10.338721 31892 layer_factory.hpp:77] Creating layer relu2
I0204 08:47:10.338735 31892 net.cpp:106] Creating Layer relu2
I0204 08:47:10.338747 31892 net.cpp:454] relu2 <- conv2
I0204 08:47:10.338759 31892 net.cpp:397] relu2 -> conv2 (in-place)
I0204 08:47:10.338803 31892 net.cpp:150] Setting up relu2
I0204 08:47:10.338816 31892 net.cpp:157] Top shape: 100 16 27 27 (1166400)
I0204 08:47:10.338825 31892 net.cpp:165] Memory required for data: 126046400
I0204 08:47:10.338835 31892 layer_factory.hpp:77] Creating layer pool2
I0204 08:47:10.338851 31892 net.cpp:106] Creating Layer pool2
I0204 08:47:10.338861 31892 net.cpp:454] pool2 <- conv2
I0204 08:47:10.338876 31892 net.cpp:411] pool2 -> pool2
I0204 08:47:10.338896 31892 net.cpp:150] Setting up pool2
I0204 08:47:10.338910 31892 net.cpp:157] Top shape: 100 16 13 13 (270400)
I0204 08:47:10.338920 31892 net.cpp:165] Memory required for data: 127128000
I0204 08:47:10.338929 31892 layer_factory.hpp:77] Creating layer norm2
I0204 08:47:10.338944 31892 net.cpp:106] Creating Layer norm2
I0204 08:47:10.338956 31892 net.cpp:454] norm2 <- pool2
I0204 08:47:10.338978 31892 net.cpp:411] norm2 -> norm2
I0204 08:47:10.338996 31892 net.cpp:150] Setting up norm2
I0204 08:47:10.339010 31892 net.cpp:157] Top shape: 100 16 13 13 (270400)
I0204 08:47:10.339018 31892 net.cpp:165] Memory required for data: 128209600
I0204 08:47:10.339028 31892 layer_factory.hpp:77] Creating layer conv3
I0204 08:47:10.339045 31892 net.cpp:106] Creating Layer conv3
I0204 08:47:10.339056 31892 net.cpp:454] conv3 <- norm2
I0204 08:47:10.339071 31892 net.cpp:411] conv3 -> conv3
I0204 08:47:10.339146 31892 net.cpp:150] Setting up conv3
I0204 08:47:10.339161 31892 net.cpp:157] Top shape: 100 16 13 13 (270400)
I0204 08:47:10.339170 31892 net.cpp:165] Memory required for data: 129291200
I0204 08:47:10.339190 31892 layer_factory.hpp:77] Creating layer relu3
I0204 08:47:10.339205 31892 net.cpp:106] Creating Layer relu3
I0204 08:47:10.339215 31892 net.cpp:454] relu3 <- conv3
I0204 08:47:10.339229 31892 net.cpp:397] relu3 -> conv3 (in-place)
I0204 08:47:10.339246 31892 net.cpp:150] Setting up relu3
I0204 08:47:10.339258 31892 net.cpp:157] Top shape: 100 16 13 13 (270400)
I0204 08:47:10.339267 31892 net.cpp:165] Memory required for data: 130372800
I0204 08:47:10.339277 31892 layer_factory.hpp:77] Creating layer conv4
I0204 08:47:10.339294 31892 net.cpp:106] Creating Layer conv4
I0204 08:47:10.339304 31892 net.cpp:454] conv4 <- conv3
I0204 08:47:10.339319 31892 net.cpp:411] conv4 -> conv4
I0204 08:47:10.339375 31892 net.cpp:150] Setting up conv4
I0204 08:47:10.339388 31892 net.cpp:157] Top shape: 100 16 13 13 (270400)
I0204 08:47:10.339397 31892 net.cpp:165] Memory required for data: 131454400
I0204 08:47:10.339412 31892 layer_factory.hpp:77] Creating layer relu4
I0204 08:47:10.339426 31892 net.cpp:106] Creating Layer relu4
I0204 08:47:10.339437 31892 net.cpp:454] relu4 <- conv4
I0204 08:47:10.339448 31892 net.cpp:397] relu4 -> conv4 (in-place)
I0204 08:47:10.339463 31892 net.cpp:150] Setting up relu4
I0204 08:47:10.339475 31892 net.cpp:157] Top shape: 100 16 13 13 (270400)
I0204 08:47:10.339485 31892 net.cpp:165] Memory required for data: 132536000
I0204 08:47:10.339494 31892 layer_factory.hpp:77] Creating layer conv5
I0204 08:47:10.339511 31892 net.cpp:106] Creating Layer conv5
I0204 08:47:10.339521 31892 net.cpp:454] conv5 <- conv4
I0204 08:47:10.339535 31892 net.cpp:411] conv5 -> conv5
I0204 08:47:10.339588 31892 net.cpp:150] Setting up conv5
I0204 08:47:10.339601 31892 net.cpp:157] Top shape: 100 16 13 13 (270400)
I0204 08:47:10.339614 31892 net.cpp:165] Memory required for data: 133617600
I0204 08:47:10.339635 31892 layer_factory.hpp:77] Creating layer relu5
I0204 08:47:10.339649 31892 net.cpp:106] Creating Layer relu5
I0204 08:47:10.339659 31892 net.cpp:454] relu5 <- conv5
I0204 08:47:10.339673 31892 net.cpp:397] relu5 -> conv5 (in-place)
I0204 08:47:10.339689 31892 net.cpp:150] Setting up relu5
I0204 08:47:10.339700 31892 net.cpp:157] Top shape: 100 16 13 13 (270400)
I0204 08:47:10.339709 31892 net.cpp:165] Memory required for data: 134699200
I0204 08:47:10.339720 31892 layer_factory.hpp:77] Creating layer pool5
I0204 08:47:10.339737 31892 net.cpp:106] Creating Layer pool5
I0204 08:47:10.339747 31892 net.cpp:454] pool5 <- conv5
I0204 08:47:10.339769 31892 net.cpp:411] pool5 -> pool5
I0204 08:47:10.339802 31892 net.cpp:150] Setting up pool5
I0204 08:47:10.339815 31892 net.cpp:157] Top shape: 100 16 6 6 (57600)
I0204 08:47:10.339824 31892 net.cpp:165] Memory required for data: 134929600
I0204 08:47:10.339834 31892 layer_factory.hpp:77] Creating layer fc6
I0204 08:47:10.339851 31892 net.cpp:106] Creating Layer fc6
I0204 08:47:10.339861 31892 net.cpp:454] fc6 <- pool5
I0204 08:47:10.339875 31892 net.cpp:411] fc6 -> fc6
I0204 08:47:10.345667 31892 net.cpp:150] Setting up fc6
I0204 08:47:10.345731 31892 net.cpp:157] Top shape: 100 256 (25600)
I0204 08:47:10.345742 31892 net.cpp:165] Memory required for data: 135032000
I0204 08:47:10.345763 31892 layer_factory.hpp:77] Creating layer relu6
I0204 08:47:10.345787 31892 net.cpp:106] Creating Layer relu6
I0204 08:47:10.345803 31892 net.cpp:454] relu6 <- fc6
I0204 08:47:10.345824 31892 net.cpp:397] relu6 -> fc6 (in-place)
I0204 08:47:10.345847 31892 net.cpp:150] Setting up relu6
I0204 08:47:10.345861 31892 net.cpp:157] Top shape: 100 256 (25600)
I0204 08:47:10.345870 31892 net.cpp:165] Memory required for data: 135134400
I0204 08:47:10.345881 31892 layer_factory.hpp:77] Creating layer drop6
I0204 08:47:10.345898 31892 net.cpp:106] Creating Layer drop6
I0204 08:47:10.345908 31892 net.cpp:454] drop6 <- fc6
I0204 08:47:10.345927 31892 net.cpp:397] drop6 -> fc6 (in-place)
I0204 08:47:10.345950 31892 net.cpp:150] Setting up drop6
I0204 08:47:10.345965 31892 net.cpp:157] Top shape: 100 256 (25600)
I0204 08:47:10.345974 31892 net.cpp:165] Memory required for data: 135236800
I0204 08:47:10.345984 31892 layer_factory.hpp:77] Creating layer fc7
I0204 08:47:10.346004 31892 net.cpp:106] Creating Layer fc7
I0204 08:47:10.346015 31892 net.cpp:454] fc7 <- fc6
I0204 08:47:10.346040 31892 net.cpp:411] fc7 -> fc7
I0204 08:47:10.347332 31892 net.cpp:150] Setting up fc7
I0204 08:47:10.347368 31892 net.cpp:157] Top shape: 100 256 (25600)
I0204 08:47:10.347378 31892 net.cpp:165] Memory required for data: 135339200
I0204 08:47:10.347396 31892 layer_factory.hpp:77] Creating layer relu7
I0204 08:47:10.347422 31892 net.cpp:106] Creating Layer relu7
I0204 08:47:10.347434 31892 net.cpp:454] relu7 <- fc7
I0204 08:47:10.347450 31892 net.cpp:397] relu7 -> fc7 (in-place)
I0204 08:47:10.347470 31892 net.cpp:150] Setting up relu7
I0204 08:47:10.347482 31892 net.cpp:157] Top shape: 100 256 (25600)
I0204 08:47:10.347492 31892 net.cpp:165] Memory required for data: 135441600
I0204 08:47:10.347502 31892 layer_factory.hpp:77] Creating layer drop7
I0204 08:47:10.347518 31892 net.cpp:106] Creating Layer drop7
I0204 08:47:10.347529 31892 net.cpp:454] drop7 <- fc7
I0204 08:47:10.347553 31892 net.cpp:397] drop7 -> fc7 (in-place)
I0204 08:47:10.347574 31892 net.cpp:150] Setting up drop7
I0204 08:47:10.347587 31892 net.cpp:157] Top shape: 100 256 (25600)
I0204 08:47:10.347596 31892 net.cpp:165] Memory required for data: 135544000
I0204 08:47:10.347606 31892 layer_factory.hpp:77] Creating layer fc8
I0204 08:47:10.347625 31892 net.cpp:106] Creating Layer fc8
I0204 08:47:10.347635 31892 net.cpp:454] fc8 <- fc7
I0204 08:47:10.347652 31892 net.cpp:411] fc8 -> fc8
I0204 08:47:10.347710 31892 net.cpp:150] Setting up fc8
I0204 08:47:10.347726 31892 net.cpp:157] Top shape: 100 2 (200)
I0204 08:47:10.347735 31892 net.cpp:165] Memory required for data: 135544800
I0204 08:47:10.347750 31892 layer_factory.hpp:77] Creating layer fc8_fc8_0_split
I0204 08:47:10.347765 31892 net.cpp:106] Creating Layer fc8_fc8_0_split
I0204 08:47:10.347776 31892 net.cpp:454] fc8_fc8_0_split <- fc8
I0204 08:47:10.347790 31892 net.cpp:411] fc8_fc8_0_split -> fc8_fc8_0_split_0
I0204 08:47:10.347823 31892 net.cpp:411] fc8_fc8_0_split -> fc8_fc8_0_split_1
I0204 08:47:10.347846 31892 net.cpp:150] Setting up fc8_fc8_0_split
I0204 08:47:10.347859 31892 net.cpp:157] Top shape: 100 2 (200)
I0204 08:47:10.347870 31892 net.cpp:157] Top shape: 100 2 (200)
I0204 08:47:10.347879 31892 net.cpp:165] Memory required for data: 135546400
I0204 08:47:10.347889 31892 layer_factory.hpp:77] Creating layer accuracy
I0204 08:47:10.347921 31892 net.cpp:106] Creating Layer accuracy
I0204 08:47:10.347949 31892 net.cpp:454] accuracy <- fc8_fc8_0_split_0
I0204 08:47:10.347971 31892 net.cpp:454] accuracy <- label_data_1_split_0
I0204 08:47:10.347991 31892 net.cpp:411] accuracy -> accuracy
…
