…
I0205 07:01:43.965900 12892 net.cpp:322] The NetState phase (0) differed from the phase (1) specified by a rule in layer accuracy
I0205 07:01:43.966178 12892 net.cpp:49] Initializing net from parameters: 
name: "CaffeNet"
state {
  phase: TRAIN
}
layer {
  name: "data"
  type: "Data"
  top: "data"
  top: "label"
  include {
    phase: TRAIN
  }
  transform_param {
    mirror: true
    crop_size: 227
    mean_file: "/home/pearlstl/proj_cv/master/lmdb/synth1_train_lum_db/mean_file.binaryproto"
  }
  data_param {
    source: "/home/pearlstl/proj_cv/master/lmdb/synth1_train_lum_db"
    batch_size: 100
    backend: LMDB
  }
}
layer {
  name: "conv1"
  type: "Convolution"
  bottom: "data"
  top: "conv1"
  param {
    lr_mult: 1
    decay_mult: 1
  }
  param {
    lr_mult: 2
    decay_mult: 0
  }
  convolution_param {
    num_output: 8
    kernel_size: 11
    stride: 4
    weight_filler {
      type: "xavier"
    }
    bias_filler {
      type: "constant"
      value: 0
    }
  }
}
layer {
  name: "relu1"
  type: "ReLU"
  bottom: "conv1"
  top: "conv1"
}
layer {
  name: "pool1"
  type: "Pooling"
  bottom: "conv1"
  top: "pool1"
  pooling_param {
    pool: MAX
    kernel_size: 3
    stride: 2
  }
}
layer {
  name: "norm1"
  type: "LRN"
  bottom: "pool1"
  top: "norm1"
  lrn_param {
    local_size: 5
    alpha: 0.0001
    beta: 0.75
  }
}
layer {
  name: "conv2"
  type: "Convolution"
  bottom: "norm1"
  top: "conv2"
  param {
    lr_mult: 1
    decay_mult: 1
  }
  param {
    lr_mult: 2
    decay_mult: 0
  }
  convolution_param {
    num_output: 8
    pad: 2
    kernel_size: 5
    group: 2
    weight_filler {
      type: "xavier"
    }
    bias_filler {
      type: "constant"
      value: 1
    }
  }
}
layer {
  name: "relu2"
  type: "ReLU"
  bottom: "conv2"
  top: "conv2"
}
layer {
  name: "pool2"
  type: "Pooling"
  bottom: "conv2"
  top: "pool2"
  pooling_param {
    pool: MAX
    kernel_size: 3
    stride: 2
  }
}
layer {
  name: "norm2"
  type: "LRN"
  bottom: "pool2"
  top: "norm2"
  lrn_param {
    local_size: 5
    alpha: 0.0001
    beta: 0.75
  }
}
layer {
  name: "conv3"
  type: "Convolution"
  bottom: "norm2"
  top: "conv3"
  param {
    lr_mult: 1
    decay_mult: 1
  }
  param {
    lr_mult: 2
    decay_mult: 0
  }
  convolution_param {
    num_output: 8
    pad: 1
    kernel_size: 3
    weight_filler {
      type: "xavier"
    }
    bias_filler {
      type: "constant"
      value: 0
    }
  }
}
layer {
  name: "relu3"
  type: "ReLU"
  bottom: "conv3"
  top: "conv3"
}
layer {
  name: "conv4"
  type: "Convolution"
  bottom: "conv3"
  top: "conv4"
  param {
    lr_mult: 1
    decay_mult: 1
  }
  param {
    lr_mult: 2
    decay_mult: 0
  }
  convolution_param {
    num_output: 8
    pad: 1
    kernel_size: 3
    group: 2
    weight_filler {
      type: "xavier"
    }
    bias_filler {
      type: "constant"
      value: 1
    }
  }
}
layer {
  name: "relu4"
  type: "ReLU"
  bottom: "conv4"
  top: "conv4"
}
layer {
  name: "conv5"
  type: "Convolution"
  bottom: "conv4"
  top: "conv5"
  param {
    lr_mult: 1
    decay_mult: 1
  }
  param {
    lr_mult: 2
    decay_mult: 0
  }
  convolution_param {
    num_output: 8
    pad: 1
    kernel_size: 3
    group: 2
    weight_filler {
      type: "xavier"
    }
    bias_filler {
      type: "constant"
      value: 1
    }
  }
}
layer {
  name: "relu5"
  type: "ReLU"
  bottom: "conv5"
  top: "conv5"
}
layer {
  name: "pool5"
  type: "Pooling"
  bottom: "conv5"
  top: "pool5"
  pooling_param {
    pool: MAX
    kernel_size: 3
    stride: 2
  }
}
layer {
  name: "fc6"
  type: "InnerProduct"
  bottom: "pool5"
  top: "fc6"
  param {
    lr_mult: 1
    decay_mult: 1
  }
  param {
    lr_mult: 2
    decay_mult: 0
  }
  inner_product_param {
    num_output: 256
    weight_filler {
      type: "xavier"
    }
    bias_filler {
      type: "constant"
      value: 1
    }
  }
}
layer {
  name: "relu6"
  type: "ReLU"
  bottom: "fc6"
  top: "fc6"
}
layer {
  name: "drop6"
  type: "Dropout"
  bottom: "fc6"
  top: "fc6"
  dropout_param {
    dropout_ratio: 0.5
  }
}
layer {
  name: "fc7"
  type: "InnerProduct"
  bottom: "fc6"
  top: "fc7"
  param {
    lr_mult: 1
    decay_mult: 1
  }
  param {
    lr_mult: 2
    decay_mult: 0
  }
  inner_product_param {
    num_output: 256
    weight_filler {
      type: "xavier"
    }
    bias_filler {
      type: "constant"
      value: 1
    }
  }
}
layer {
  name: "relu7"
  type: "ReLU"
  bottom: "fc7"
  top: "fc7"
}
layer {
  name: "drop7"
  type: "Dropout"
  bottom: "fc7"
  top: "fc7"
  dropout_param {
    dropout_ratio: 0.5
  }
}
layer {
  name: "fc8"
  type: "InnerProduct"
  bottom: "fc7"
  top: "fc8"
  param {
    lr_mult: 1
    decay_mult: 1
  }
  param {
    lr_mult: 2
    decay_mult: 0
  }
  inner_product_param {
    num_output: 2
    weight_filler {
      type: "xavier"
    }
    bias_filler {
      type: "constant"
      value: 0
    }
  }
}
layer {
  name: "loss"
  type: "SoftmaxWithLoss"
  bottom: "fc8"
  bottom: "label"
  top: "loss"
}
I0205 07:01:43.966325 12892 layer_factory.hpp:77] Creating layer data
I0205 07:01:43.966514 12892 net.cpp:106] Creating Layer data
I0205 07:01:43.966534 12892 net.cpp:411] data -> data
I0205 07:01:43.966639 12892 net.cpp:411] data -> label
I0205 07:01:43.966666 12892 data_transformer.cpp:25] Loading mean file from: /home/pearlstl/proj_cv/master/lmdb/synth1_train_lum_db/mean_file.binaryproto
I0205 07:01:43.966830 12893 db_lmdb.cpp:38] Opened lmdb /home/pearlstl/proj_cv/master/lmdb/synth1_train_lum_db
I0205 07:01:43.967816 12892 data_layer.cpp:41] output data size: 100,1,227,227
I0205 07:01:43.996435 12892 net.cpp:150] Setting up data
I0205 07:01:43.996469 12892 net.cpp:157] Top shape: 100 1 227 227 (5152900)
I0205 07:01:43.996477 12892 net.cpp:157] Top shape: 100 (100)
I0205 07:01:43.996484 12892 net.cpp:165] Memory required for data: 20612000
I0205 07:01:43.996498 12892 layer_factory.hpp:77] Creating layer conv1
I0205 07:01:43.996539 12892 net.cpp:106] Creating Layer conv1
I0205 07:01:43.996549 12892 net.cpp:454] conv1 <- data
I0205 07:01:43.996569 12892 net.cpp:411] conv1 -> conv1
I0205 07:01:43.996683 12892 net.cpp:150] Setting up conv1
I0205 07:01:43.996695 12892 net.cpp:157] Top shape: 100 8 55 55 (2420000)
I0205 07:01:43.996701 12892 net.cpp:165] Memory required for data: 30292000
I0205 07:01:43.996718 12892 layer_factory.hpp:77] Creating layer relu1
I0205 07:01:43.996729 12892 net.cpp:106] Creating Layer relu1
I0205 07:01:43.996736 12892 net.cpp:454] relu1 <- conv1
I0205 07:01:43.996744 12892 net.cpp:397] relu1 -> conv1 (in-place)
I0205 07:01:43.996757 12892 net.cpp:150] Setting up relu1
I0205 07:01:43.996765 12892 net.cpp:157] Top shape: 100 8 55 55 (2420000)
I0205 07:01:43.996770 12892 net.cpp:165] Memory required for data: 39972000
I0205 07:01:43.996775 12892 layer_factory.hpp:77] Creating layer pool1
I0205 07:01:43.996784 12892 net.cpp:106] Creating Layer pool1
I0205 07:01:43.996790 12892 net.cpp:454] pool1 <- conv1
I0205 07:01:43.996801 12892 net.cpp:411] pool1 -> pool1
I0205 07:01:43.996825 12892 net.cpp:150] Setting up pool1
I0205 07:01:43.996832 12892 net.cpp:157] Top shape: 100 8 27 27 (583200)
I0205 07:01:43.996837 12892 net.cpp:165] Memory required for data: 42304800
I0205 07:01:43.996844 12892 layer_factory.hpp:77] Creating layer norm1
I0205 07:01:43.996862 12892 net.cpp:106] Creating Layer norm1
I0205 07:01:43.996877 12892 net.cpp:454] norm1 <- pool1
I0205 07:01:43.996886 12892 net.cpp:411] norm1 -> norm1
I0205 07:01:43.996903 12892 net.cpp:150] Setting up norm1
I0205 07:01:43.996912 12892 net.cpp:157] Top shape: 100 8 27 27 (583200)
I0205 07:01:43.996917 12892 net.cpp:165] Memory required for data: 44637600
I0205 07:01:43.996924 12892 layer_factory.hpp:77] Creating layer conv2
I0205 07:01:43.996935 12892 net.cpp:106] Creating Layer conv2
I0205 07:01:43.996940 12892 net.cpp:454] conv2 <- norm1
I0205 07:01:43.996951 12892 net.cpp:411] conv2 -> conv2
I0205 07:01:43.996989 12892 net.cpp:150] Setting up conv2
I0205 07:01:43.996997 12892 net.cpp:157] Top shape: 100 8 27 27 (583200)
I0205 07:01:43.997002 12892 net.cpp:165] Memory required for data: 46970400
I0205 07:01:43.997012 12892 layer_factory.hpp:77] Creating layer relu2
I0205 07:01:43.997021 12892 net.cpp:106] Creating Layer relu2
I0205 07:01:43.997026 12892 net.cpp:454] relu2 <- conv2
I0205 07:01:43.997035 12892 net.cpp:397] relu2 -> conv2 (in-place)
I0205 07:01:43.997043 12892 net.cpp:150] Setting up relu2
I0205 07:01:43.997051 12892 net.cpp:157] Top shape: 100 8 27 27 (583200)
I0205 07:01:43.997057 12892 net.cpp:165] Memory required for data: 49303200
I0205 07:01:43.997063 12892 layer_factory.hpp:77] Creating layer pool2
I0205 07:01:43.997072 12892 net.cpp:106] Creating Layer pool2
I0205 07:01:43.997077 12892 net.cpp:454] pool2 <- conv2
I0205 07:01:43.997087 12892 net.cpp:411] pool2 -> pool2
I0205 07:01:43.997097 12892 net.cpp:150] Setting up pool2
I0205 07:01:43.997103 12892 net.cpp:157] Top shape: 100 8 13 13 (135200)
I0205 07:01:43.997109 12892 net.cpp:165] Memory required for data: 49844000
I0205 07:01:43.997114 12892 layer_factory.hpp:77] Creating layer norm2
I0205 07:01:43.997124 12892 net.cpp:106] Creating Layer norm2
I0205 07:01:43.997130 12892 net.cpp:454] norm2 <- pool2
I0205 07:01:43.997138 12892 net.cpp:411] norm2 -> norm2
I0205 07:01:43.997146 12892 net.cpp:150] Setting up norm2
I0205 07:01:43.997153 12892 net.cpp:157] Top shape: 100 8 13 13 (135200)
I0205 07:01:43.997158 12892 net.cpp:165] Memory required for data: 50384800
I0205 07:01:43.997164 12892 layer_factory.hpp:77] Creating layer conv3
I0205 07:01:43.997172 12892 net.cpp:106] Creating Layer conv3
I0205 07:01:43.997177 12892 net.cpp:454] conv3 <- norm2
I0205 07:01:43.997185 12892 net.cpp:411] conv3 -> conv3
I0205 07:01:43.997215 12892 net.cpp:150] Setting up conv3
I0205 07:01:43.997222 12892 net.cpp:157] Top shape: 100 8 13 13 (135200)
I0205 07:01:43.997227 12892 net.cpp:165] Memory required for data: 50925600
I0205 07:01:43.997237 12892 layer_factory.hpp:77] Creating layer relu3
I0205 07:01:43.997246 12892 net.cpp:106] Creating Layer relu3
I0205 07:01:43.997251 12892 net.cpp:454] relu3 <- conv3
I0205 07:01:43.997258 12892 net.cpp:397] relu3 -> conv3 (in-place)
I0205 07:01:43.997267 12892 net.cpp:150] Setting up relu3
I0205 07:01:43.997272 12892 net.cpp:157] Top shape: 100 8 13 13 (135200)
I0205 07:01:43.997277 12892 net.cpp:165] Memory required for data: 51466400
I0205 07:01:43.997283 12892 layer_factory.hpp:77] Creating layer conv4
I0205 07:01:43.997292 12892 net.cpp:106] Creating Layer conv4
I0205 07:01:43.997298 12892 net.cpp:454] conv4 <- conv3
I0205 07:01:43.997305 12892 net.cpp:411] conv4 -> conv4
I0205 07:01:43.997330 12892 net.cpp:150] Setting up conv4
I0205 07:01:43.997339 12892 net.cpp:157] Top shape: 100 8 13 13 (135200)
I0205 07:01:43.997344 12892 net.cpp:165] Memory required for data: 52007200
I0205 07:01:43.997351 12892 layer_factory.hpp:77] Creating layer relu4
I0205 07:01:43.997359 12892 net.cpp:106] Creating Layer relu4
I0205 07:01:43.997364 12892 net.cpp:454] relu4 <- conv4
I0205 07:01:43.997371 12892 net.cpp:397] relu4 -> conv4 (in-place)
I0205 07:01:43.997380 12892 net.cpp:150] Setting up relu4
I0205 07:01:43.997386 12892 net.cpp:157] Top shape: 100 8 13 13 (135200)
I0205 07:01:43.997391 12892 net.cpp:165] Memory required for data: 52548000
I0205 07:01:43.997396 12892 layer_factory.hpp:77] Creating layer conv5
I0205 07:01:43.997411 12892 net.cpp:106] Creating Layer conv5
I0205 07:01:43.997422 12892 net.cpp:454] conv5 <- conv4
I0205 07:01:43.997431 12892 net.cpp:411] conv5 -> conv5
I0205 07:01:43.997454 12892 net.cpp:150] Setting up conv5
I0205 07:01:43.997462 12892 net.cpp:157] Top shape: 100 8 13 13 (135200)
I0205 07:01:43.997467 12892 net.cpp:165] Memory required for data: 53088800
I0205 07:01:43.997478 12892 layer_factory.hpp:77] Creating layer relu5
I0205 07:01:43.997485 12892 net.cpp:106] Creating Layer relu5
I0205 07:01:43.997491 12892 net.cpp:454] relu5 <- conv5
I0205 07:01:43.997498 12892 net.cpp:397] relu5 -> conv5 (in-place)
I0205 07:01:43.997506 12892 net.cpp:150] Setting up relu5
I0205 07:01:43.997512 12892 net.cpp:157] Top shape: 100 8 13 13 (135200)
I0205 07:01:43.997517 12892 net.cpp:165] Memory required for data: 53629600
I0205 07:01:43.997524 12892 layer_factory.hpp:77] Creating layer pool5
I0205 07:01:43.997530 12892 net.cpp:106] Creating Layer pool5
I0205 07:01:43.997535 12892 net.cpp:454] pool5 <- conv5
I0205 07:01:43.997544 12892 net.cpp:411] pool5 -> pool5
I0205 07:01:43.997553 12892 net.cpp:150] Setting up pool5
I0205 07:01:43.997560 12892 net.cpp:157] Top shape: 100 8 6 6 (28800)
I0205 07:01:43.997565 12892 net.cpp:165] Memory required for data: 53744800
I0205 07:01:43.997572 12892 layer_factory.hpp:77] Creating layer fc6
I0205 07:01:43.997587 12892 net.cpp:106] Creating Layer fc6
I0205 07:01:43.997593 12892 net.cpp:454] fc6 <- pool5
I0205 07:01:43.997601 12892 net.cpp:411] fc6 -> fc6
I0205 07:01:43.998406 12892 net.cpp:150] Setting up fc6
I0205 07:01:43.998420 12892 net.cpp:157] Top shape: 100 256 (25600)
I0205 07:01:43.998425 12892 net.cpp:165] Memory required for data: 53847200
I0205 07:01:43.998433 12892 layer_factory.hpp:77] Creating layer relu6
I0205 07:01:43.998442 12892 net.cpp:106] Creating Layer relu6
I0205 07:01:43.998447 12892 net.cpp:454] relu6 <- fc6
I0205 07:01:43.998456 12892 net.cpp:397] relu6 -> fc6 (in-place)
I0205 07:01:43.998464 12892 net.cpp:150] Setting up relu6
I0205 07:01:43.998471 12892 net.cpp:157] Top shape: 100 256 (25600)
I0205 07:01:43.998476 12892 net.cpp:165] Memory required for data: 53949600
I0205 07:01:43.998481 12892 layer_factory.hpp:77] Creating layer drop6
I0205 07:01:43.998491 12892 net.cpp:106] Creating Layer drop6
I0205 07:01:43.998497 12892 net.cpp:454] drop6 <- fc6
I0205 07:01:43.998503 12892 net.cpp:397] drop6 -> fc6 (in-place)
I0205 07:01:43.998522 12892 net.cpp:150] Setting up drop6
I0205 07:01:43.998529 12892 net.cpp:157] Top shape: 100 256 (25600)
I0205 07:01:43.998534 12892 net.cpp:165] Memory required for data: 54052000
I0205 07:01:43.998539 12892 layer_factory.hpp:77] Creating layer fc7
I0205 07:01:43.998548 12892 net.cpp:106] Creating Layer fc7
I0205 07:01:43.998553 12892 net.cpp:454] fc7 <- fc6
I0205 07:01:43.998561 12892 net.cpp:411] fc7 -> fc7
I0205 07:01:43.999255 12892 net.cpp:150] Setting up fc7
I0205 07:01:43.999267 12892 net.cpp:157] Top shape: 100 256 (25600)
I0205 07:01:43.999272 12892 net.cpp:165] Memory required for data: 54154400
I0205 07:01:43.999281 12892 layer_factory.hpp:77] Creating layer relu7
I0205 07:01:43.999289 12892 net.cpp:106] Creating Layer relu7
I0205 07:01:43.999297 12892 net.cpp:454] relu7 <- fc7
I0205 07:01:43.999305 12892 net.cpp:397] relu7 -> fc7 (in-place)
I0205 07:01:43.999315 12892 net.cpp:150] Setting up relu7
I0205 07:01:43.999320 12892 net.cpp:157] Top shape: 100 256 (25600)
I0205 07:01:43.999331 12892 net.cpp:165] Memory required for data: 54256800
I0205 07:01:43.999336 12892 layer_factory.hpp:77] Creating layer drop7
I0205 07:01:43.999346 12892 net.cpp:106] Creating Layer drop7
I0205 07:01:43.999352 12892 net.cpp:454] drop7 <- fc7
I0205 07:01:43.999359 12892 net.cpp:397] drop7 -> fc7 (in-place)
I0205 07:01:43.999369 12892 net.cpp:150] Setting up drop7
I0205 07:01:43.999377 12892 net.cpp:157] Top shape: 100 256 (25600)
I0205 07:01:43.999382 12892 net.cpp:165] Memory required for data: 54359200
I0205 07:01:43.999387 12892 layer_factory.hpp:77] Creating layer fc8
I0205 07:01:43.999397 12892 net.cpp:106] Creating Layer fc8
I0205 07:01:43.999408 12892 net.cpp:454] fc8 <- fc7
I0205 07:01:43.999423 12892 net.cpp:411] fc8 -> fc8
I0205 07:01:43.999450 12892 net.cpp:150] Setting up fc8
I0205 07:01:43.999457 12892 net.cpp:157] Top shape: 100 2 (200)
I0205 07:01:43.999462 12892 net.cpp:165] Memory required for data: 54360000
I0205 07:01:43.999470 12892 layer_factory.hpp:77] Creating layer loss
I0205 07:01:43.999478 12892 net.cpp:106] Creating Layer loss
I0205 07:01:43.999485 12892 net.cpp:454] loss <- fc8
I0205 07:01:43.999490 12892 net.cpp:454] loss <- label
I0205 07:01:43.999501 12892 net.cpp:411] loss -> loss
I0205 07:01:43.999516 12892 layer_factory.hpp:77] Creating layer loss
…
I0205 07:01:44.000531 12892 net.cpp:322] The NetState phase (1) differed from the phase (0) specified by a rule in layer data
I0205 07:01:44.000818 12892 net.cpp:49] Initializing net from parameters: 
name: "CaffeNet"
state {
  phase: TEST
}
layer {
  name: "data"
  type: "Data"
  top: "data"
  top: "label"
  include {
    phase: TEST
  }
  transform_param {
    mirror: false
    crop_size: 227
    mean_file: "/home/pearlstl/proj_cv/master/lmdb/synth1_test_lum_db/mean_file.binaryproto"
  }
  data_param {
    source: "/home/pearlstl/proj_cv/master/lmdb/synth1_test_lum_db"
    batch_size: 100
    backend: LMDB
  }
}
layer {
  name: "conv1"
  type: "Convolution"
  bottom: "data"
  top: "conv1"
  param {
    lr_mult: 1
    decay_mult: 1
  }
  param {
    lr_mult: 2
    decay_mult: 0
  }
  convolution_param {
    num_output: 8
    kernel_size: 11
    stride: 4
    weight_filler {
      type: "xavier"
    }
    bias_filler {
      type: "constant"
      value: 0
    }
  }
}
layer {
  name: "relu1"
  type: "ReLU"
  bottom: "conv1"
  top: "conv1"
}
layer {
  name: "pool1"
  type: "Pooling"
  bottom: "conv1"
  top: "pool1"
  pooling_param {
    pool: MAX
    kernel_size: 3
    stride: 2
  }
}
layer {
  name: "norm1"
  type: "LRN"
  bottom: "pool1"
  top: "norm1"
  lrn_param {
    local_size: 5
    alpha: 0.0001
    beta: 0.75
  }
}
layer {
  name: "conv2"
  type: "Convolution"
  bottom: "norm1"
  top: "conv2"
  param {
    lr_mult: 1
    decay_mult: 1
  }
  param {
    lr_mult: 2
    decay_mult: 0
  }
  convolution_param {
    num_output: 8
    pad: 2
    kernel_size: 5
    group: 2
    weight_filler {
      type: "xavier"
    }
    bias_filler {
      type: "constant"
      value: 1
    }
  }
}
layer {
  name: "relu2"
  type: "ReLU"
  bottom: "conv2"
  top: "conv2"
}
layer {
  name: "pool2"
  type: "Pooling"
  bottom: "conv2"
  top: "pool2"
  pooling_param {
    pool: MAX
    kernel_size: 3
    stride: 2
  }
}
layer {
  name: "norm2"
  type: "LRN"
  bottom: "pool2"
  top: "norm2"
  lrn_param {
    local_size: 5
    alpha: 0.0001
    beta: 0.75
  }
}
layer {
  name: "conv3"
  type: "Convolution"
  bottom: "norm2"
  top: "conv3"
  param {
    lr_mult: 1
    decay_mult: 1
  }
  param {
    lr_mult: 2
    decay_mult: 0
  }
  convolution_param {
    num_output: 8
    pad: 1
    kernel_size: 3
    weight_filler {
      type: "xavier"
    }
    bias_filler {
      type: "constant"
      value: 0
    }
  }
}
layer {
  name: "relu3"
  type: "ReLU"
  bottom: "conv3"
  top: "conv3"
}
layer {
  name: "conv4"
  type: "Convolution"
  bottom: "conv3"
  top: "conv4"
  param {
    lr_mult: 1
    decay_mult: 1
  }
  param {
    lr_mult: 2
    decay_mult: 0
  }
  convolution_param {
    num_output: 8
    pad: 1
    kernel_size: 3
    group: 2
    weight_filler {
      type: "xavier"
    }
    bias_filler {
      type: "constant"
      value: 1
    }
  }
}
layer {
  name: "relu4"
  type: "ReLU"
  bottom: "conv4"
  top: "conv4"
}
layer {
  name: "conv5"
  type: "Convolution"
  bottom: "conv4"
  top: "conv5"
  param {
    lr_mult: 1
    decay_mult: 1
  }
  param {
    lr_mult: 2
    decay_mult: 0
  }
  convolution_param {
    num_output: 8
    pad: 1
    kernel_size: 3
    group: 2
    weight_filler {
      type: "xavier"
    }
    bias_filler {
      type: "constant"
      value: 1
    }
  }
}
layer {
  name: "relu5"
  type: "ReLU"
  bottom: "conv5"
  top: "conv5"
}
layer {
  name: "pool5"
  type: "Pooling"
  bottom: "conv5"
  top: "pool5"
  pooling_param {
    pool: MAX
    kernel_size: 3
    stride: 2
  }
}
layer {
  name: "fc6"
  type: "InnerProduct"
  bottom: "pool5"
  top: "fc6"
  param {
    lr_mult: 1
    decay_mult: 1
  }
  param {
    lr_mult: 2
    decay_mult: 0
  }
  inner_product_param {
    num_output: 256
    weight_filler {
      type: "xavier"
    }
    bias_filler {
      type: "constant"
      value: 1
    }
  }
}
layer {
  name: "relu6"
  type: "ReLU"
  bottom: "fc6"
  top: "fc6"
}
layer {
  name: "drop6"
  type: "Dropout"
  bottom: "fc6"
  top: "fc6"
  dropout_param {
    dropout_ratio: 0.5
  }
}
layer {
  name: "fc7"
  type: "InnerProduct"
  bottom: "fc6"
  top: "fc7"
  param {
    lr_mult: 1
    decay_mult: 1
  }
  param {
    lr_mult: 2
    decay_mult: 0
  }
  inner_product_param {
    num_output: 256
    weight_filler {
      type: "xavier"
    }
    bias_filler {
      type: "constant"
      value: 1
    }
  }
}
layer {
  name: "relu7"
  type: "ReLU"
  bottom: "fc7"
  top: "fc7"
}
layer {
  name: "drop7"
  type: "Dropout"
  bottom: "fc7"
  top: "fc7"
  dropout_param {
    dropout_ratio: 0.5
  }
}
layer {
  name: "fc8"
  type: "InnerProduct"
  bottom: "fc7"
  top: "fc8"
  param {
    lr_mult: 1
    decay_mult: 1
  }
  param {
    lr_mult: 2
    decay_mult: 0
  }
  inner_product_param {
    num_output: 2
    weight_filler {
      type: "xavier"
    }
    bias_filler {
      type: "constant"
      value: 0
    }
  }
}
layer {
  name: "accuracy"
  type: "Accuracy"
  bottom: "fc8"
  bottom: "label"
  top: "accuracy"
  include {
    phase: TEST
  }
}
layer {
  name: "loss"
  type: "SoftmaxWithLoss"
  bottom: "fc8"
  bottom: "label"
  top: "loss"
}
I0205 07:01:44.001016 12892 layer_factory.hpp:77] Creating layer data
I0205 07:01:44.001183 12892 net.cpp:106] Creating Layer data
I0205 07:01:44.001196 12892 net.cpp:411] data -> data
I0205 07:01:44.001209 12892 net.cpp:411] data -> label
I0205 07:01:44.001220 12892 data_transformer.cpp:25] Loading mean file from: /home/pearlstl/proj_cv/master/lmdb/synth1_test_lum_db/mean_file.binaryproto
I0205 07:01:44.001432 12896 db_lmdb.cpp:38] Opened lmdb /home/pearlstl/proj_cv/master/lmdb/synth1_test_lum_db
I0205 07:01:44.002162 12892 data_layer.cpp:41] output data size: 100,1,227,227
I0205 07:01:44.030941 12892 net.cpp:150] Setting up data
I0205 07:01:44.030961 12892 net.cpp:157] Top shape: 100 1 227 227 (5152900)
I0205 07:01:44.030974 12892 net.cpp:157] Top shape: 100 (100)
I0205 07:01:44.030982 12892 net.cpp:165] Memory required for data: 20612000
I0205 07:01:44.030989 12892 layer_factory.hpp:77] Creating layer label_data_1_split
I0205 07:01:44.031004 12892 net.cpp:106] Creating Layer label_data_1_split
I0205 07:01:44.031011 12892 net.cpp:454] label_data_1_split <- label
I0205 07:01:44.031023 12892 net.cpp:411] label_data_1_split -> label_data_1_split_0
I0205 07:01:44.031034 12892 net.cpp:411] label_data_1_split -> label_data_1_split_1
I0205 07:01:44.031045 12892 net.cpp:150] Setting up label_data_1_split
I0205 07:01:44.031052 12892 net.cpp:157] Top shape: 100 (100)
I0205 07:01:44.031059 12892 net.cpp:157] Top shape: 100 (100)
I0205 07:01:44.031080 12892 net.cpp:165] Memory required for data: 20612800
I0205 07:01:44.031085 12892 layer_factory.hpp:77] Creating layer conv1
I0205 07:01:44.031097 12892 net.cpp:106] Creating Layer conv1
I0205 07:01:44.031103 12892 net.cpp:454] conv1 <- data
I0205 07:01:44.031111 12892 net.cpp:411] conv1 -> conv1
I0205 07:01:44.031153 12892 net.cpp:150] Setting up conv1
I0205 07:01:44.031162 12892 net.cpp:157] Top shape: 100 8 55 55 (2420000)
I0205 07:01:44.031167 12892 net.cpp:165] Memory required for data: 30292800
I0205 07:01:44.031179 12892 layer_factory.hpp:77] Creating layer relu1
I0205 07:01:44.031190 12892 net.cpp:106] Creating Layer relu1
I0205 07:01:44.031196 12892 net.cpp:454] relu1 <- conv1
I0205 07:01:44.031203 12892 net.cpp:397] relu1 -> conv1 (in-place)
I0205 07:01:44.031213 12892 net.cpp:150] Setting up relu1
I0205 07:01:44.031219 12892 net.cpp:157] Top shape: 100 8 55 55 (2420000)
I0205 07:01:44.031224 12892 net.cpp:165] Memory required for data: 39972800
I0205 07:01:44.031229 12892 layer_factory.hpp:77] Creating layer pool1
I0205 07:01:44.031239 12892 net.cpp:106] Creating Layer pool1
I0205 07:01:44.031244 12892 net.cpp:454] pool1 <- conv1
I0205 07:01:44.031252 12892 net.cpp:411] pool1 -> pool1
I0205 07:01:44.031265 12892 net.cpp:150] Setting up pool1
I0205 07:01:44.031271 12892 net.cpp:157] Top shape: 100 8 27 27 (583200)
I0205 07:01:44.031276 12892 net.cpp:165] Memory required for data: 42305600
I0205 07:01:44.031285 12892 layer_factory.hpp:77] Creating layer norm1
I0205 07:01:44.031292 12892 net.cpp:106] Creating Layer norm1
I0205 07:01:44.031298 12892 net.cpp:454] norm1 <- pool1
I0205 07:01:44.031306 12892 net.cpp:411] norm1 -> norm1
I0205 07:01:44.031316 12892 net.cpp:150] Setting up norm1
I0205 07:01:44.031322 12892 net.cpp:157] Top shape: 100 8 27 27 (583200)
I0205 07:01:44.031327 12892 net.cpp:165] Memory required for data: 44638400
I0205 07:01:44.031333 12892 layer_factory.hpp:77] Creating layer conv2
I0205 07:01:44.031344 12892 net.cpp:106] Creating Layer conv2
I0205 07:01:44.031350 12892 net.cpp:454] conv2 <- norm1
I0205 07:01:44.031358 12892 net.cpp:411] conv2 -> conv2
I0205 07:01:44.031386 12892 net.cpp:150] Setting up conv2
I0205 07:01:44.031394 12892 net.cpp:157] Top shape: 100 8 27 27 (583200)
I0205 07:01:44.031399 12892 net.cpp:165] Memory required for data: 46971200
I0205 07:01:44.031409 12892 layer_factory.hpp:77] Creating layer relu2
I0205 07:01:44.031417 12892 net.cpp:106] Creating Layer relu2
I0205 07:01:44.031424 12892 net.cpp:454] relu2 <- conv2
I0205 07:01:44.031430 12892 net.cpp:397] relu2 -> conv2 (in-place)
I0205 07:01:44.031446 12892 net.cpp:150] Setting up relu2
I0205 07:01:44.031461 12892 net.cpp:157] Top shape: 100 8 27 27 (583200)
I0205 07:01:44.031466 12892 net.cpp:165] Memory required for data: 49304000
I0205 07:01:44.031471 12892 layer_factory.hpp:77] Creating layer pool2
I0205 07:01:44.031479 12892 net.cpp:106] Creating Layer pool2
I0205 07:01:44.031484 12892 net.cpp:454] pool2 <- conv2
I0205 07:01:44.031492 12892 net.cpp:411] pool2 -> pool2
I0205 07:01:44.031505 12892 net.cpp:150] Setting up pool2
I0205 07:01:44.031513 12892 net.cpp:157] Top shape: 100 8 13 13 (135200)
I0205 07:01:44.031518 12892 net.cpp:165] Memory required for data: 49844800
I0205 07:01:44.031523 12892 layer_factory.hpp:77] Creating layer norm2
I0205 07:01:44.031530 12892 net.cpp:106] Creating Layer norm2
I0205 07:01:44.031536 12892 net.cpp:454] norm2 <- pool2
I0205 07:01:44.031544 12892 net.cpp:411] norm2 -> norm2
I0205 07:01:44.031553 12892 net.cpp:150] Setting up norm2
I0205 07:01:44.031559 12892 net.cpp:157] Top shape: 100 8 13 13 (135200)
I0205 07:01:44.031564 12892 net.cpp:165] Memory required for data: 50385600
I0205 07:01:44.031569 12892 layer_factory.hpp:77] Creating layer conv3
I0205 07:01:44.031579 12892 net.cpp:106] Creating Layer conv3
I0205 07:01:44.031584 12892 net.cpp:454] conv3 <- norm2
I0205 07:01:44.031591 12892 net.cpp:411] conv3 -> conv3
I0205 07:01:44.031618 12892 net.cpp:150] Setting up conv3
I0205 07:01:44.031626 12892 net.cpp:157] Top shape: 100 8 13 13 (135200)
I0205 07:01:44.031631 12892 net.cpp:165] Memory required for data: 50926400
I0205 07:01:44.031641 12892 layer_factory.hpp:77] Creating layer relu3
I0205 07:01:44.031648 12892 net.cpp:106] Creating Layer relu3
I0205 07:01:44.031656 12892 net.cpp:454] relu3 <- conv3
I0205 07:01:44.031663 12892 net.cpp:397] relu3 -> conv3 (in-place)
I0205 07:01:44.031672 12892 net.cpp:150] Setting up relu3
I0205 07:01:44.031678 12892 net.cpp:157] Top shape: 100 8 13 13 (135200)
I0205 07:01:44.031683 12892 net.cpp:165] Memory required for data: 51467200
I0205 07:01:44.031689 12892 layer_factory.hpp:77] Creating layer conv4
I0205 07:01:44.031697 12892 net.cpp:106] Creating Layer conv4
I0205 07:01:44.031702 12892 net.cpp:454] conv4 <- conv3
I0205 07:01:44.031710 12892 net.cpp:411] conv4 -> conv4
I0205 07:01:44.031730 12892 net.cpp:150] Setting up conv4
I0205 07:01:44.031738 12892 net.cpp:157] Top shape: 100 8 13 13 (135200)
I0205 07:01:44.031743 12892 net.cpp:165] Memory required for data: 52008000
I0205 07:01:44.031752 12892 layer_factory.hpp:77] Creating layer relu4
I0205 07:01:44.031760 12892 net.cpp:106] Creating Layer relu4
I0205 07:01:44.031765 12892 net.cpp:454] relu4 <- conv4
I0205 07:01:44.031772 12892 net.cpp:397] relu4 -> conv4 (in-place)
I0205 07:01:44.031780 12892 net.cpp:150] Setting up relu4
I0205 07:01:44.031786 12892 net.cpp:157] Top shape: 100 8 13 13 (135200)
I0205 07:01:44.031792 12892 net.cpp:165] Memory required for data: 52548800
I0205 07:01:44.031797 12892 layer_factory.hpp:77] Creating layer conv5
I0205 07:01:44.031806 12892 net.cpp:106] Creating Layer conv5
I0205 07:01:44.031815 12892 net.cpp:454] conv5 <- conv4
I0205 07:01:44.031822 12892 net.cpp:411] conv5 -> conv5
I0205 07:01:44.031844 12892 net.cpp:150] Setting up conv5
I0205 07:01:44.031852 12892 net.cpp:157] Top shape: 100 8 13 13 (135200)
I0205 07:01:44.031857 12892 net.cpp:165] Memory required for data: 53089600
I0205 07:01:44.031865 12892 layer_factory.hpp:77] Creating layer relu5
I0205 07:01:44.031873 12892 net.cpp:106] Creating Layer relu5
I0205 07:01:44.031878 12892 net.cpp:454] relu5 <- conv5
I0205 07:01:44.031885 12892 net.cpp:397] relu5 -> conv5 (in-place)
I0205 07:01:44.031893 12892 net.cpp:150] Setting up relu5
I0205 07:01:44.031901 12892 net.cpp:157] Top shape: 100 8 13 13 (135200)
I0205 07:01:44.031908 12892 net.cpp:165] Memory required for data: 53630400
I0205 07:01:44.031913 12892 layer_factory.hpp:77] Creating layer pool5
I0205 07:01:44.031921 12892 net.cpp:106] Creating Layer pool5
I0205 07:01:44.031929 12892 net.cpp:454] pool5 <- conv5
I0205 07:01:44.031935 12892 net.cpp:411] pool5 -> pool5
I0205 07:01:44.031950 12892 net.cpp:150] Setting up pool5
I0205 07:01:44.031975 12892 net.cpp:157] Top shape: 100 8 6 6 (28800)
I0205 07:01:44.031980 12892 net.cpp:165] Memory required for data: 53745600
I0205 07:01:44.031986 12892 layer_factory.hpp:77] Creating layer fc6
I0205 07:01:44.031996 12892 net.cpp:106] Creating Layer fc6
I0205 07:01:44.032002 12892 net.cpp:454] fc6 <- pool5
I0205 07:01:44.032011 12892 net.cpp:411] fc6 -> fc6
I0205 07:01:44.032737 12892 net.cpp:150] Setting up fc6
I0205 07:01:44.032752 12892 net.cpp:157] Top shape: 100 256 (25600)
I0205 07:01:44.032757 12892 net.cpp:165] Memory required for data: 53848000
I0205 07:01:44.032765 12892 layer_factory.hpp:77] Creating layer relu6
I0205 07:01:44.032776 12892 net.cpp:106] Creating Layer relu6
I0205 07:01:44.032783 12892 net.cpp:454] relu6 <- fc6
I0205 07:01:44.032789 12892 net.cpp:397] relu6 -> fc6 (in-place)
I0205 07:01:44.032799 12892 net.cpp:150] Setting up relu6
I0205 07:01:44.032804 12892 net.cpp:157] Top shape: 100 256 (25600)
I0205 07:01:44.032809 12892 net.cpp:165] Memory required for data: 53950400
I0205 07:01:44.032814 12892 layer_factory.hpp:77] Creating layer drop6
I0205 07:01:44.032824 12892 net.cpp:106] Creating Layer drop6
I0205 07:01:44.032829 12892 net.cpp:454] drop6 <- fc6
I0205 07:01:44.032841 12892 net.cpp:397] drop6 -> fc6 (in-place)
I0205 07:01:44.032852 12892 net.cpp:150] Setting up drop6
I0205 07:01:44.032858 12892 net.cpp:157] Top shape: 100 256 (25600)
I0205 07:01:44.032863 12892 net.cpp:165] Memory required for data: 54052800
I0205 07:01:44.032868 12892 layer_factory.hpp:77] Creating layer fc7
I0205 07:01:44.032877 12892 net.cpp:106] Creating Layer fc7
I0205 07:01:44.032882 12892 net.cpp:454] fc7 <- fc6
I0205 07:01:44.032892 12892 net.cpp:411] fc7 -> fc7
I0205 07:01:44.033649 12892 net.cpp:150] Setting up fc7
I0205 07:01:44.033663 12892 net.cpp:157] Top shape: 100 256 (25600)
I0205 07:01:44.033668 12892 net.cpp:165] Memory required for data: 54155200
I0205 07:01:44.033676 12892 layer_factory.hpp:77] Creating layer relu7
I0205 07:01:44.033684 12892 net.cpp:106] Creating Layer relu7
I0205 07:01:44.033690 12892 net.cpp:454] relu7 <- fc7
I0205 07:01:44.033700 12892 net.cpp:397] relu7 -> fc7 (in-place)
I0205 07:01:44.033710 12892 net.cpp:150] Setting up relu7
I0205 07:01:44.033715 12892 net.cpp:157] Top shape: 100 256 (25600)
I0205 07:01:44.033720 12892 net.cpp:165] Memory required for data: 54257600
I0205 07:01:44.033726 12892 layer_factory.hpp:77] Creating layer drop7
I0205 07:01:44.033735 12892 net.cpp:106] Creating Layer drop7
I0205 07:01:44.033741 12892 net.cpp:454] drop7 <- fc7
I0205 07:01:44.033748 12892 net.cpp:397] drop7 -> fc7 (in-place)
I0205 07:01:44.033757 12892 net.cpp:150] Setting up drop7
I0205 07:01:44.033764 12892 net.cpp:157] Top shape: 100 256 (25600)
I0205 07:01:44.033769 12892 net.cpp:165] Memory required for data: 54360000
I0205 07:01:44.033776 12892 layer_factory.hpp:77] Creating layer fc8
I0205 07:01:44.033788 12892 net.cpp:106] Creating Layer fc8
I0205 07:01:44.033794 12892 net.cpp:454] fc8 <- fc7
I0205 07:01:44.033804 12892 net.cpp:411] fc8 -> fc8
I0205 07:01:44.033828 12892 net.cpp:150] Setting up fc8
I0205 07:01:44.033838 12892 net.cpp:157] Top shape: 100 2 (200)
I0205 07:01:44.033843 12892 net.cpp:165] Memory required for data: 54360800
I0205 07:01:44.033851 12892 layer_factory.hpp:77] Creating layer fc8_fc8_0_split
I0205 07:01:44.033859 12892 net.cpp:106] Creating Layer fc8_fc8_0_split
I0205 07:01:44.033864 12892 net.cpp:454] fc8_fc8_0_split <- fc8
I0205 07:01:44.033871 12892 net.cpp:411] fc8_fc8_0_split -> fc8_fc8_0_split_0
I0205 07:01:44.033881 12892 net.cpp:411] fc8_fc8_0_split -> fc8_fc8_0_split_1
I0205 07:01:44.033891 12892 net.cpp:150] Setting up fc8_fc8_0_split
I0205 07:01:44.033898 12892 net.cpp:157] Top shape: 100 2 (200)
I0205 07:01:44.033905 12892 net.cpp:157] Top shape: 100 2 (200)
I0205 07:01:44.033910 12892 net.cpp:165] Memory required for data: 54362400
I0205 07:01:44.033915 12892 layer_factory.hpp:77] Creating layer accuracy
I0205 07:01:44.033931 12892 net.cpp:106] Creating Layer accuracy
I0205 07:01:44.033941 12892 net.cpp:454] accuracy <- fc8_fc8_0_split_0
I0205 07:01:44.033959 12892 net.cpp:454] accuracy <- label_data_1_split_0
I0205 07:01:44.033977 12892 net.cpp:411] accuracy -> accuracy
…
