…
I0204 16:28:13.601999  3286 net.cpp:322] The NetState phase (0) differed from the phase (1) specified by a rule in layer accuracy
I0204 16:28:13.602252  3286 net.cpp:49] Initializing net from parameters: 
name: "CaffeNet"
state {
  phase: TRAIN
}
layer {
  name: "data"
  type: "Data"
  top: "data"
  top: "label"
  include {
    phase: TRAIN
  }
  transform_param {
    mirror: true
    crop_size: 227
    mean_file: "/home/pearlstl/proj_cv/master/lmdb/synth1_train_lum_db/mean_file.binaryproto"
  }
  data_param {
    source: "/home/pearlstl/proj_cv/master/lmdb/synth1_train_lum_db"
    batch_size: 100
    backend: LMDB
  }
}
layer {
  name: "conv1"
  type: "Convolution"
  bottom: "data"
  top: "conv1"
  param {
    lr_mult: 1
    decay_mult: 1
  }
  param {
    lr_mult: 2
    decay_mult: 0
  }
  convolution_param {
    num_output: 32
    kernel_size: 11
    stride: 4
    weight_filler {
      type: "xavier"
    }
    bias_filler {
      type: "constant"
      value: 0
    }
  }
}
layer {
  name: "relu1"
  type: "ReLU"
  bottom: "conv1"
  top: "conv1"
}
layer {
  name: "pool1"
  type: "Pooling"
  bottom: "conv1"
  top: "pool1"
  pooling_param {
    pool: MAX
    kernel_size: 3
    stride: 2
  }
}
layer {
  name: "norm1"
  type: "LRN"
  bottom: "pool1"
  top: "norm1"
  lrn_param {
    local_size: 5
    alpha: 0.0001
    beta: 0.75
  }
}
layer {
  name: "conv2"
  type: "Convolution"
  bottom: "norm1"
  top: "conv2"
  param {
    lr_mult: 1
    decay_mult: 1
  }
  param {
    lr_mult: 2
    decay_mult: 0
  }
  convolution_param {
    num_output: 32
    pad: 2
    kernel_size: 5
    group: 2
    weight_filler {
      type: "xavier"
    }
    bias_filler {
      type: "constant"
      value: 1
    }
  }
}
layer {
  name: "relu2"
  type: "ReLU"
  bottom: "conv2"
  top: "conv2"
}
layer {
  name: "pool2"
  type: "Pooling"
  bottom: "conv2"
  top: "pool2"
  pooling_param {
    pool: MAX
    kernel_size: 3
    stride: 2
  }
}
layer {
  name: "norm2"
  type: "LRN"
  bottom: "pool2"
  top: "norm2"
  lrn_param {
    local_size: 5
    alpha: 0.0001
    beta: 0.75
  }
}
layer {
  name: "conv3"
  type: "Convolution"
  bottom: "norm2"
  top: "conv3"
  param {
    lr_mult: 1
    decay_mult: 1
  }
  param {
    lr_mult: 2
    decay_mult: 0
  }
  convolution_param {
    num_output: 32
    pad: 1
    kernel_size: 3
    weight_filler {
      type: "xavier"
    }
    bias_filler {
      type: "constant"
      value: 0
    }
  }
}
layer {
  name: "relu3"
  type: "ReLU"
  bottom: "conv3"
  top: "conv3"
}
layer {
  name: "conv4"
  type: "Convolution"
  bottom: "conv3"
  top: "conv4"
  param {
    lr_mult: 1
    decay_mult: 1
  }
  param {
    lr_mult: 2
    decay_mult: 0
  }
  convolution_param {
    num_output: 32
    pad: 1
    kernel_size: 3
    group: 2
    weight_filler {
      type: "xavier"
    }
    bias_filler {
      type: "constant"
      value: 1
    }
  }
}
layer {
  name: "relu4"
  type: "ReLU"
  bottom: "conv4"
  top: "conv4"
}
layer {
  name: "conv5"
  type: "Convolution"
  bottom: "conv4"
  top: "conv5"
  param {
    lr_mult: 1
    decay_mult: 1
  }
  param {
    lr_mult: 2
    decay_mult: 0
  }
  convolution_param {
    num_output: 16
    pad: 1
    kernel_size: 3
    group: 2
    weight_filler {
      type: "xavier"
    }
    bias_filler {
      type: "constant"
      value: 1
    }
  }
}
layer {
  name: "relu5"
  type: "ReLU"
  bottom: "conv5"
  top: "conv5"
}
layer {
  name: "pool5"
  type: "Pooling"
  bottom: "conv5"
  top: "pool5"
  pooling_param {
    pool: MAX
    kernel_size: 3
    stride: 2
  }
}
layer {
  name: "fc6"
  type: "InnerProduct"
  bottom: "pool5"
  top: "fc6"
  param {
    lr_mult: 1
    decay_mult: 1
  }
  param {
    lr_mult: 2
    decay_mult: 0
  }
  inner_product_param {
    num_output: 256
    weight_filler {
      type: "xavier"
    }
    bias_filler {
      type: "constant"
      value: 1
    }
  }
}
layer {
  name: "relu6"
  type: "ReLU"
  bottom: "fc6"
  top: "fc6"
}
layer {
  name: "drop6"
  type: "Dropout"
  bottom: "fc6"
  top: "fc6"
  dropout_param {
    dropout_ratio: 0.5
  }
}
layer {
  name: "fc7"
  type: "InnerProduct"
  bottom: "fc6"
  top: "fc7"
  param {
    lr_mult: 1
    decay_mult: 1
  }
  param {
    lr_mult: 2
    decay_mult: 0
  }
  inner_product_param {
    num_output: 256
    weight_filler {
      type: "xavier"
    }
    bias_filler {
      type: "constant"
      value: 1
    }
  }
}
layer {
  name: "relu7"
  type: "ReLU"
  bottom: "fc7"
  top: "fc7"
}
layer {
  name: "drop7"
  type: "Dropout"
  bottom: "fc7"
  top: "fc7"
  dropout_param {
    dropout_ratio: 0.5
  }
}
layer {
  name: "fc8"
  type: "InnerProduct"
  bottom: "fc7"
  top: "fc8"
  param {
    lr_mult: 1
    decay_mult: 1
  }
  param {
    lr_mult: 2
    decay_mult: 0
  }
  inner_product_param {
    num_output: 2
    weight_filler {
      type: "xavier"
    }
    bias_filler {
      type: "constant"
      value: 0
    }
  }
}
layer {
  name: "loss"
  type: "SoftmaxWithLoss"
  bottom: "fc8"
  bottom: "label"
  top: "loss"
}
I0204 16:28:13.602391  3286 layer_factory.hpp:77] Creating layer data
I0204 16:28:13.602589  3286 net.cpp:106] Creating Layer data
I0204 16:28:13.602607  3286 net.cpp:411] data -> data
I0204 16:28:13.602697  3286 net.cpp:411] data -> label
I0204 16:28:13.602722  3286 data_transformer.cpp:25] Loading mean file from: /home/pearlstl/proj_cv/master/lmdb/synth1_train_lum_db/mean_file.binaryproto
I0204 16:28:13.602886  3291 db_lmdb.cpp:38] Opened lmdb /home/pearlstl/proj_cv/master/lmdb/synth1_train_lum_db
I0204 16:28:13.603804  3286 data_layer.cpp:41] output data size: 100,1,227,227
I0204 16:28:13.633755  3286 net.cpp:150] Setting up data
I0204 16:28:13.633826  3286 net.cpp:157] Top shape: 100 1 227 227 (5152900)
I0204 16:28:13.633844  3286 net.cpp:157] Top shape: 100 (100)
I0204 16:28:13.633852  3286 net.cpp:165] Memory required for data: 20612000
I0204 16:28:13.633879  3286 layer_factory.hpp:77] Creating layer conv1
I0204 16:28:13.633908  3286 net.cpp:106] Creating Layer conv1
I0204 16:28:13.633921  3286 net.cpp:454] conv1 <- data
I0204 16:28:13.633941  3286 net.cpp:411] conv1 -> conv1
I0204 16:28:13.634079  3286 net.cpp:150] Setting up conv1
I0204 16:28:13.634091  3286 net.cpp:157] Top shape: 100 32 55 55 (9680000)
I0204 16:28:13.634098  3286 net.cpp:165] Memory required for data: 59332000
I0204 16:28:13.634115  3286 layer_factory.hpp:77] Creating layer relu1
I0204 16:28:13.634130  3286 net.cpp:106] Creating Layer relu1
I0204 16:28:13.634136  3286 net.cpp:454] relu1 <- conv1
I0204 16:28:13.634146  3286 net.cpp:397] relu1 -> conv1 (in-place)
I0204 16:28:13.634160  3286 net.cpp:150] Setting up relu1
I0204 16:28:13.634166  3286 net.cpp:157] Top shape: 100 32 55 55 (9680000)
I0204 16:28:13.634172  3286 net.cpp:165] Memory required for data: 98052000
I0204 16:28:13.634177  3286 layer_factory.hpp:77] Creating layer pool1
I0204 16:28:13.634188  3286 net.cpp:106] Creating Layer pool1
I0204 16:28:13.634194  3286 net.cpp:454] pool1 <- conv1
I0204 16:28:13.634203  3286 net.cpp:411] pool1 -> pool1
I0204 16:28:13.634227  3286 net.cpp:150] Setting up pool1
I0204 16:28:13.634235  3286 net.cpp:157] Top shape: 100 32 27 27 (2332800)
I0204 16:28:13.634240  3286 net.cpp:165] Memory required for data: 107383200
I0204 16:28:13.634246  3286 layer_factory.hpp:77] Creating layer norm1
I0204 16:28:13.634292  3286 net.cpp:106] Creating Layer norm1
I0204 16:28:13.634300  3286 net.cpp:454] norm1 <- pool1
I0204 16:28:13.634310  3286 net.cpp:411] norm1 -> norm1
I0204 16:28:13.634327  3286 net.cpp:150] Setting up norm1
I0204 16:28:13.634336  3286 net.cpp:157] Top shape: 100 32 27 27 (2332800)
I0204 16:28:13.634341  3286 net.cpp:165] Memory required for data: 116714400
I0204 16:28:13.634346  3286 layer_factory.hpp:77] Creating layer conv2
I0204 16:28:13.634359  3286 net.cpp:106] Creating Layer conv2
I0204 16:28:13.634364  3286 net.cpp:454] conv2 <- norm1
I0204 16:28:13.634373  3286 net.cpp:411] conv2 -> conv2
I0204 16:28:13.634506  3286 net.cpp:150] Setting up conv2
I0204 16:28:13.634516  3286 net.cpp:157] Top shape: 100 32 27 27 (2332800)
I0204 16:28:13.634521  3286 net.cpp:165] Memory required for data: 126045600
I0204 16:28:13.634532  3286 layer_factory.hpp:77] Creating layer relu2
I0204 16:28:13.634552  3286 net.cpp:106] Creating Layer relu2
I0204 16:28:13.634559  3286 net.cpp:454] relu2 <- conv2
I0204 16:28:13.634568  3286 net.cpp:397] relu2 -> conv2 (in-place)
I0204 16:28:13.634579  3286 net.cpp:150] Setting up relu2
I0204 16:28:13.634585  3286 net.cpp:157] Top shape: 100 32 27 27 (2332800)
I0204 16:28:13.634590  3286 net.cpp:165] Memory required for data: 135376800
I0204 16:28:13.634596  3286 layer_factory.hpp:77] Creating layer pool2
I0204 16:28:13.634604  3286 net.cpp:106] Creating Layer pool2
I0204 16:28:13.634610  3286 net.cpp:454] pool2 <- conv2
I0204 16:28:13.634618  3286 net.cpp:411] pool2 -> pool2
I0204 16:28:13.634629  3286 net.cpp:150] Setting up pool2
I0204 16:28:13.634635  3286 net.cpp:157] Top shape: 100 32 13 13 (540800)
I0204 16:28:13.634640  3286 net.cpp:165] Memory required for data: 137540000
I0204 16:28:13.634645  3286 layer_factory.hpp:77] Creating layer norm2
I0204 16:28:13.634659  3286 net.cpp:106] Creating Layer norm2
I0204 16:28:13.634663  3286 net.cpp:454] norm2 <- pool2
I0204 16:28:13.634672  3286 net.cpp:411] norm2 -> norm2
I0204 16:28:13.634681  3286 net.cpp:150] Setting up norm2
I0204 16:28:13.634688  3286 net.cpp:157] Top shape: 100 32 13 13 (540800)
I0204 16:28:13.634693  3286 net.cpp:165] Memory required for data: 139703200
I0204 16:28:13.634698  3286 layer_factory.hpp:77] Creating layer conv3
I0204 16:28:13.634712  3286 net.cpp:106] Creating Layer conv3
I0204 16:28:13.634717  3286 net.cpp:454] conv3 <- norm2
I0204 16:28:13.634729  3286 net.cpp:411] conv3 -> conv3
I0204 16:28:13.634837  3286 net.cpp:150] Setting up conv3
I0204 16:28:13.634847  3286 net.cpp:157] Top shape: 100 32 13 13 (540800)
I0204 16:28:13.634851  3286 net.cpp:165] Memory required for data: 141866400
I0204 16:28:13.634861  3286 layer_factory.hpp:77] Creating layer relu3
I0204 16:28:13.634871  3286 net.cpp:106] Creating Layer relu3
I0204 16:28:13.634876  3286 net.cpp:454] relu3 <- conv3
I0204 16:28:13.634886  3286 net.cpp:397] relu3 -> conv3 (in-place)
I0204 16:28:13.634894  3286 net.cpp:150] Setting up relu3
I0204 16:28:13.634901  3286 net.cpp:157] Top shape: 100 32 13 13 (540800)
I0204 16:28:13.634905  3286 net.cpp:165] Memory required for data: 144029600
I0204 16:28:13.634910  3286 layer_factory.hpp:77] Creating layer conv4
I0204 16:28:13.634920  3286 net.cpp:106] Creating Layer conv4
I0204 16:28:13.634927  3286 net.cpp:454] conv4 <- conv3
I0204 16:28:13.634937  3286 net.cpp:411] conv4 -> conv4
I0204 16:28:13.635030  3286 net.cpp:150] Setting up conv4
I0204 16:28:13.635042  3286 net.cpp:157] Top shape: 100 32 13 13 (540800)
I0204 16:28:13.635047  3286 net.cpp:165] Memory required for data: 146192800
I0204 16:28:13.635056  3286 layer_factory.hpp:77] Creating layer relu4
I0204 16:28:13.635066  3286 net.cpp:106] Creating Layer relu4
I0204 16:28:13.635073  3286 net.cpp:454] relu4 <- conv4
I0204 16:28:13.635081  3286 net.cpp:397] relu4 -> conv4 (in-place)
I0204 16:28:13.635089  3286 net.cpp:150] Setting up relu4
I0204 16:28:13.635097  3286 net.cpp:157] Top shape: 100 32 13 13 (540800)
I0204 16:28:13.635102  3286 net.cpp:165] Memory required for data: 148356000
I0204 16:28:13.635112  3286 layer_factory.hpp:77] Creating layer conv5
I0204 16:28:13.635131  3286 net.cpp:106] Creating Layer conv5
I0204 16:28:13.635139  3286 net.cpp:454] conv5 <- conv4
I0204 16:28:13.635148  3286 net.cpp:411] conv5 -> conv5
I0204 16:28:13.635193  3286 net.cpp:150] Setting up conv5
I0204 16:28:13.635201  3286 net.cpp:157] Top shape: 100 16 13 13 (270400)
I0204 16:28:13.635206  3286 net.cpp:165] Memory required for data: 149437600
I0204 16:28:13.635216  3286 layer_factory.hpp:77] Creating layer relu5
I0204 16:28:13.635227  3286 net.cpp:106] Creating Layer relu5
I0204 16:28:13.635232  3286 net.cpp:454] relu5 <- conv5
I0204 16:28:13.635239  3286 net.cpp:397] relu5 -> conv5 (in-place)
I0204 16:28:13.635247  3286 net.cpp:150] Setting up relu5
I0204 16:28:13.635253  3286 net.cpp:157] Top shape: 100 16 13 13 (270400)
I0204 16:28:13.635258  3286 net.cpp:165] Memory required for data: 150519200
I0204 16:28:13.635264  3286 layer_factory.hpp:77] Creating layer pool5
I0204 16:28:13.635274  3286 net.cpp:106] Creating Layer pool5
I0204 16:28:13.635280  3286 net.cpp:454] pool5 <- conv5
I0204 16:28:13.635289  3286 net.cpp:411] pool5 -> pool5
I0204 16:28:13.635300  3286 net.cpp:150] Setting up pool5
I0204 16:28:13.635308  3286 net.cpp:157] Top shape: 100 16 6 6 (57600)
I0204 16:28:13.635313  3286 net.cpp:165] Memory required for data: 150749600
I0204 16:28:13.635318  3286 layer_factory.hpp:77] Creating layer fc6
I0204 16:28:13.635335  3286 net.cpp:106] Creating Layer fc6
I0204 16:28:13.635341  3286 net.cpp:454] fc6 <- pool5
I0204 16:28:13.635349  3286 net.cpp:411] fc6 -> fc6
I0204 16:28:13.636952  3286 net.cpp:150] Setting up fc6
I0204 16:28:13.636971  3286 net.cpp:157] Top shape: 100 256 (25600)
I0204 16:28:13.636976  3286 net.cpp:165] Memory required for data: 150852000
I0204 16:28:13.636986  3286 layer_factory.hpp:77] Creating layer relu6
I0204 16:28:13.636997  3286 net.cpp:106] Creating Layer relu6
I0204 16:28:13.637002  3286 net.cpp:454] relu6 <- fc6
I0204 16:28:13.637011  3286 net.cpp:397] relu6 -> fc6 (in-place)
I0204 16:28:13.637022  3286 net.cpp:150] Setting up relu6
I0204 16:28:13.637028  3286 net.cpp:157] Top shape: 100 256 (25600)
I0204 16:28:13.637033  3286 net.cpp:165] Memory required for data: 150954400
I0204 16:28:13.637038  3286 layer_factory.hpp:77] Creating layer drop6
I0204 16:28:13.637048  3286 net.cpp:106] Creating Layer drop6
I0204 16:28:13.637054  3286 net.cpp:454] drop6 <- fc6
I0204 16:28:13.637061  3286 net.cpp:397] drop6 -> fc6 (in-place)
I0204 16:28:13.637078  3286 net.cpp:150] Setting up drop6
I0204 16:28:13.637085  3286 net.cpp:157] Top shape: 100 256 (25600)
I0204 16:28:13.637091  3286 net.cpp:165] Memory required for data: 151056800
I0204 16:28:13.637096  3286 layer_factory.hpp:77] Creating layer fc7
I0204 16:28:13.637106  3286 net.cpp:106] Creating Layer fc7
I0204 16:28:13.637111  3286 net.cpp:454] fc7 <- fc6
I0204 16:28:13.637121  3286 net.cpp:411] fc7 -> fc7
I0204 16:28:13.637838  3286 net.cpp:150] Setting up fc7
I0204 16:28:13.637850  3286 net.cpp:157] Top shape: 100 256 (25600)
I0204 16:28:13.637855  3286 net.cpp:165] Memory required for data: 151159200
I0204 16:28:13.637863  3286 layer_factory.hpp:77] Creating layer relu7
I0204 16:28:13.637873  3286 net.cpp:106] Creating Layer relu7
I0204 16:28:13.637879  3286 net.cpp:454] relu7 <- fc7
I0204 16:28:13.637887  3286 net.cpp:397] relu7 -> fc7 (in-place)
I0204 16:28:13.637895  3286 net.cpp:150] Setting up relu7
I0204 16:28:13.637902  3286 net.cpp:157] Top shape: 100 256 (25600)
I0204 16:28:13.637907  3286 net.cpp:165] Memory required for data: 151261600
I0204 16:28:13.637912  3286 layer_factory.hpp:77] Creating layer drop7
I0204 16:28:13.637923  3286 net.cpp:106] Creating Layer drop7
I0204 16:28:13.637928  3286 net.cpp:454] drop7 <- fc7
I0204 16:28:13.637934  3286 net.cpp:397] drop7 -> fc7 (in-place)
I0204 16:28:13.637943  3286 net.cpp:150] Setting up drop7
I0204 16:28:13.637950  3286 net.cpp:157] Top shape: 100 256 (25600)
I0204 16:28:13.637956  3286 net.cpp:165] Memory required for data: 151364000
I0204 16:28:13.637962  3286 layer_factory.hpp:77] Creating layer fc8
I0204 16:28:13.637982  3286 net.cpp:106] Creating Layer fc8
I0204 16:28:13.637995  3286 net.cpp:454] fc8 <- fc7
I0204 16:28:13.638005  3286 net.cpp:411] fc8 -> fc8
I0204 16:28:13.638031  3286 net.cpp:150] Setting up fc8
I0204 16:28:13.638037  3286 net.cpp:157] Top shape: 100 2 (200)
I0204 16:28:13.638042  3286 net.cpp:165] Memory required for data: 151364800
I0204 16:28:13.638051  3286 layer_factory.hpp:77] Creating layer loss
I0204 16:28:13.638061  3286 net.cpp:106] Creating Layer loss
I0204 16:28:13.638065  3286 net.cpp:454] loss <- fc8
I0204 16:28:13.638072  3286 net.cpp:454] loss <- label
I0204 16:28:13.638085  3286 net.cpp:411] loss -> loss
I0204 16:28:13.638103  3286 layer_factory.hpp:77] Creating layer loss
…
I0204 16:28:13.639163  3286 net.cpp:322] The NetState phase (1) differed from the phase (0) specified by a rule in layer data
I0204 16:28:13.639456  3286 net.cpp:49] Initializing net from parameters: 
name: "CaffeNet"
state {
  phase: TEST
}
layer {
  name: "data"
  type: "Data"
  top: "data"
  top: "label"
  include {
    phase: TEST
  }
  transform_param {
    mirror: false
    crop_size: 227
    mean_file: "/home/pearlstl/proj_cv/master/lmdb/synth1_test_lum_db/mean_file.binaryproto"
  }
  data_param {
    source: "/home/pearlstl/proj_cv/master/lmdb/synth1_test_lum_db"
    batch_size: 100
    backend: LMDB
  }
}
layer {
  name: "conv1"
  type: "Convolution"
  bottom: "data"
  top: "conv1"
  param {
    lr_mult: 1
    decay_mult: 1
  }
  param {
    lr_mult: 2
    decay_mult: 0
  }
  convolution_param {
    num_output: 32
    kernel_size: 11
    stride: 4
    weight_filler {
      type: "xavier"
    }
    bias_filler {
      type: "constant"
      value: 0
    }
  }
}
layer {
  name: "relu1"
  type: "ReLU"
  bottom: "conv1"
  top: "conv1"
}
layer {
  name: "pool1"
  type: "Pooling"
  bottom: "conv1"
  top: "pool1"
  pooling_param {
    pool: MAX
    kernel_size: 3
    stride: 2
  }
}
layer {
  name: "norm1"
  type: "LRN"
  bottom: "pool1"
  top: "norm1"
  lrn_param {
    local_size: 5
    alpha: 0.0001
    beta: 0.75
  }
}
layer {
  name: "conv2"
  type: "Convolution"
  bottom: "norm1"
  top: "conv2"
  param {
    lr_mult: 1
    decay_mult: 1
  }
  param {
    lr_mult: 2
    decay_mult: 0
  }
  convolution_param {
    num_output: 32
    pad: 2
    kernel_size: 5
    group: 2
    weight_filler {
      type: "xavier"
    }
    bias_filler {
      type: "constant"
      value: 1
    }
  }
}
layer {
  name: "relu2"
  type: "ReLU"
  bottom: "conv2"
  top: "conv2"
}
layer {
  name: "pool2"
  type: "Pooling"
  bottom: "conv2"
  top: "pool2"
  pooling_param {
    pool: MAX
    kernel_size: 3
    stride: 2
  }
}
layer {
  name: "norm2"
  type: "LRN"
  bottom: "pool2"
  top: "norm2"
  lrn_param {
    local_size: 5
    alpha: 0.0001
    beta: 0.75
  }
}
layer {
  name: "conv3"
  type: "Convolution"
  bottom: "norm2"
  top: "conv3"
  param {
    lr_mult: 1
    decay_mult: 1
  }
  param {
    lr_mult: 2
    decay_mult: 0
  }
  convolution_param {
    num_output: 32
    pad: 1
    kernel_size: 3
    weight_filler {
      type: "xavier"
    }
    bias_filler {
      type: "constant"
      value: 0
    }
  }
}
layer {
  name: "relu3"
  type: "ReLU"
  bottom: "conv3"
  top: "conv3"
}
layer {
  name: "conv4"
  type: "Convolution"
  bottom: "conv3"
  top: "conv4"
  param {
    lr_mult: 1
    decay_mult: 1
  }
  param {
    lr_mult: 2
    decay_mult: 0
  }
  convolution_param {
    num_output: 32
    pad: 1
    kernel_size: 3
    group: 2
    weight_filler {
      type: "xavier"
    }
    bias_filler {
      type: "constant"
      value: 1
    }
  }
}
layer {
  name: "relu4"
  type: "ReLU"
  bottom: "conv4"
  top: "conv4"
}
layer {
  name: "conv5"
  type: "Convolution"
  bottom: "conv4"
  top: "conv5"
  param {
    lr_mult: 1
    decay_mult: 1
  }
  param {
    lr_mult: 2
    decay_mult: 0
  }
  convolution_param {
    num_output: 16
    pad: 1
    kernel_size: 3
    group: 2
    weight_filler {
      type: "xavier"
    }
    bias_filler {
      type: "constant"
      value: 1
    }
  }
}
layer {
  name: "relu5"
  type: "ReLU"
  bottom: "conv5"
  top: "conv5"
}
layer {
  name: "pool5"
  type: "Pooling"
  bottom: "conv5"
  top: "pool5"
  pooling_param {
    pool: MAX
    kernel_size: 3
    stride: 2
  }
}
layer {
  name: "fc6"
  type: "InnerProduct"
  bottom: "pool5"
  top: "fc6"
  param {
    lr_mult: 1
    decay_mult: 1
  }
  param {
    lr_mult: 2
    decay_mult: 0
  }
  inner_product_param {
    num_output: 256
    weight_filler {
      type: "xavier"
    }
    bias_filler {
      type: "constant"
      value: 1
    }
  }
}
layer {
  name: "relu6"
  type: "ReLU"
  bottom: "fc6"
  top: "fc6"
}
layer {
  name: "drop6"
  type: "Dropout"
  bottom: "fc6"
  top: "fc6"
  dropout_param {
    dropout_ratio: 0.5
  }
}
layer {
  name: "fc7"
  type: "InnerProduct"
  bottom: "fc6"
  top: "fc7"
  param {
    lr_mult: 1
    decay_mult: 1
  }
  param {
    lr_mult: 2
    decay_mult: 0
  }
  inner_product_param {
    num_output: 256
    weight_filler {
      type: "xavier"
    }
    bias_filler {
      type: "constant"
      value: 1
    }
  }
}
layer {
  name: "relu7"
  type: "ReLU"
  bottom: "fc7"
  top: "fc7"
}
layer {
  name: "drop7"
  type: "Dropout"
  bottom: "fc7"
  top: "fc7"
  dropout_param {
    dropout_ratio: 0.5
  }
}
layer {
  name: "fc8"
  type: "InnerProduct"
  bottom: "fc7"
  top: "fc8"
  param {
    lr_mult: 1
    decay_mult: 1
  }
  param {
    lr_mult: 2
    decay_mult: 0
  }
  inner_product_param {
    num_output: 2
    weight_filler {
      type: "xavier"
    }
    bias_filler {
      type: "constant"
      value: 0
    }
  }
}
layer {
  name: "accuracy"
  type: "Accuracy"
  bottom: "fc8"
  bottom: "label"
  top: "accuracy"
  include {
    phase: TEST
  }
}
layer {
  name: "loss"
  type: "SoftmaxWithLoss"
  bottom: "fc8"
  bottom: "label"
  top: "loss"
}
I0204 16:28:13.639626  3286 layer_factory.hpp:77] Creating layer data
I0204 16:28:13.639777  3286 net.cpp:106] Creating Layer data
I0204 16:28:13.639793  3286 net.cpp:411] data -> data
I0204 16:28:13.639808  3286 net.cpp:411] data -> label
I0204 16:28:13.639819  3286 data_transformer.cpp:25] Loading mean file from: /home/pearlstl/proj_cv/master/lmdb/synth1_test_lum_db/mean_file.binaryproto
I0204 16:28:13.640043  3301 db_lmdb.cpp:38] Opened lmdb /home/pearlstl/proj_cv/master/lmdb/synth1_test_lum_db
I0204 16:28:13.640820  3286 data_layer.cpp:41] output data size: 100,1,227,227
I0204 16:28:13.676832  3286 net.cpp:150] Setting up data
I0204 16:28:13.676863  3286 net.cpp:157] Top shape: 100 1 227 227 (5152900)
I0204 16:28:13.676874  3286 net.cpp:157] Top shape: 100 (100)
I0204 16:28:13.676883  3286 net.cpp:165] Memory required for data: 20612000
I0204 16:28:13.676894  3286 layer_factory.hpp:77] Creating layer label_data_1_split
I0204 16:28:13.676915  3286 net.cpp:106] Creating Layer label_data_1_split
I0204 16:28:13.676924  3286 net.cpp:454] label_data_1_split <- label
I0204 16:28:13.676937  3286 net.cpp:411] label_data_1_split -> label_data_1_split_0
I0204 16:28:13.676952  3286 net.cpp:411] label_data_1_split -> label_data_1_split_1
I0204 16:28:13.676972  3286 net.cpp:150] Setting up label_data_1_split
I0204 16:28:13.676982  3286 net.cpp:157] Top shape: 100 (100)
I0204 16:28:13.676990  3286 net.cpp:157] Top shape: 100 (100)
I0204 16:28:13.676997  3286 net.cpp:165] Memory required for data: 20612800
I0204 16:28:13.677005  3286 layer_factory.hpp:77] Creating layer conv1
I0204 16:28:13.677021  3286 net.cpp:106] Creating Layer conv1
I0204 16:28:13.677029  3286 net.cpp:454] conv1 <- data
I0204 16:28:13.677042  3286 net.cpp:411] conv1 -> conv1
I0204 16:28:13.677127  3286 net.cpp:150] Setting up conv1
I0204 16:28:13.677140  3286 net.cpp:157] Top shape: 100 32 55 55 (9680000)
I0204 16:28:13.677146  3286 net.cpp:165] Memory required for data: 59332800
I0204 16:28:13.677163  3286 layer_factory.hpp:77] Creating layer relu1
I0204 16:28:13.677175  3286 net.cpp:106] Creating Layer relu1
I0204 16:28:13.677183  3286 net.cpp:454] relu1 <- conv1
I0204 16:28:13.677193  3286 net.cpp:397] relu1 -> conv1 (in-place)
I0204 16:28:13.677206  3286 net.cpp:150] Setting up relu1
I0204 16:28:13.677214  3286 net.cpp:157] Top shape: 100 32 55 55 (9680000)
I0204 16:28:13.677222  3286 net.cpp:165] Memory required for data: 98052800
I0204 16:28:13.677230  3286 layer_factory.hpp:77] Creating layer pool1
I0204 16:28:13.677244  3286 net.cpp:106] Creating Layer pool1
I0204 16:28:13.677251  3286 net.cpp:454] pool1 <- conv1
I0204 16:28:13.677265  3286 net.cpp:411] pool1 -> pool1
I0204 16:28:13.677281  3286 net.cpp:150] Setting up pool1
I0204 16:28:13.677290  3286 net.cpp:157] Top shape: 100 32 27 27 (2332800)
I0204 16:28:13.677296  3286 net.cpp:165] Memory required for data: 107384000
I0204 16:28:13.677304  3286 layer_factory.hpp:77] Creating layer norm1
I0204 16:28:13.677315  3286 net.cpp:106] Creating Layer norm1
I0204 16:28:13.677322  3286 net.cpp:454] norm1 <- pool1
I0204 16:28:13.677332  3286 net.cpp:411] norm1 -> norm1
I0204 16:28:13.677345  3286 net.cpp:150] Setting up norm1
I0204 16:28:13.677355  3286 net.cpp:157] Top shape: 100 32 27 27 (2332800)
I0204 16:28:13.677361  3286 net.cpp:165] Memory required for data: 116715200
I0204 16:28:13.677367  3286 layer_factory.hpp:77] Creating layer conv2
I0204 16:28:13.677381  3286 net.cpp:106] Creating Layer conv2
I0204 16:28:13.677391  3286 net.cpp:454] conv2 <- norm1
I0204 16:28:13.677402  3286 net.cpp:411] conv2 -> conv2
I0204 16:28:13.677574  3286 net.cpp:150] Setting up conv2
I0204 16:28:13.677588  3286 net.cpp:157] Top shape: 100 32 27 27 (2332800)
I0204 16:28:13.677594  3286 net.cpp:165] Memory required for data: 126046400
I0204 16:28:13.677608  3286 layer_factory.hpp:77] Creating layer relu2
I0204 16:28:13.677618  3286 net.cpp:106] Creating Layer relu2
I0204 16:28:13.677626  3286 net.cpp:454] relu2 <- conv2
I0204 16:28:13.677642  3286 net.cpp:397] relu2 -> conv2 (in-place)
I0204 16:28:13.677667  3286 net.cpp:150] Setting up relu2
I0204 16:28:13.677675  3286 net.cpp:157] Top shape: 100 32 27 27 (2332800)
I0204 16:28:13.677682  3286 net.cpp:165] Memory required for data: 135377600
I0204 16:28:13.677688  3286 layer_factory.hpp:77] Creating layer pool2
I0204 16:28:13.677700  3286 net.cpp:106] Creating Layer pool2
I0204 16:28:13.677709  3286 net.cpp:454] pool2 <- conv2
I0204 16:28:13.677721  3286 net.cpp:411] pool2 -> pool2
I0204 16:28:13.677736  3286 net.cpp:150] Setting up pool2
I0204 16:28:13.677745  3286 net.cpp:157] Top shape: 100 32 13 13 (540800)
I0204 16:28:13.677752  3286 net.cpp:165] Memory required for data: 137540800
I0204 16:28:13.677758  3286 layer_factory.hpp:77] Creating layer norm2
I0204 16:28:13.677772  3286 net.cpp:106] Creating Layer norm2
I0204 16:28:13.677779  3286 net.cpp:454] norm2 <- pool2
I0204 16:28:13.677788  3286 net.cpp:411] norm2 -> norm2
I0204 16:28:13.677801  3286 net.cpp:150] Setting up norm2
I0204 16:28:13.677809  3286 net.cpp:157] Top shape: 100 32 13 13 (540800)
I0204 16:28:13.677815  3286 net.cpp:165] Memory required for data: 139704000
I0204 16:28:13.677822  3286 layer_factory.hpp:77] Creating layer conv3
I0204 16:28:13.677835  3286 net.cpp:106] Creating Layer conv3
I0204 16:28:13.677842  3286 net.cpp:454] conv3 <- norm2
I0204 16:28:13.677852  3286 net.cpp:411] conv3 -> conv3
I0204 16:28:13.677990  3286 net.cpp:150] Setting up conv3
I0204 16:28:13.678004  3286 net.cpp:157] Top shape: 100 32 13 13 (540800)
I0204 16:28:13.678009  3286 net.cpp:165] Memory required for data: 141867200
I0204 16:28:13.678022  3286 layer_factory.hpp:77] Creating layer relu3
I0204 16:28:13.678032  3286 net.cpp:106] Creating Layer relu3
I0204 16:28:13.678040  3286 net.cpp:454] relu3 <- conv3
I0204 16:28:13.678051  3286 net.cpp:397] relu3 -> conv3 (in-place)
I0204 16:28:13.678063  3286 net.cpp:150] Setting up relu3
I0204 16:28:13.678071  3286 net.cpp:157] Top shape: 100 32 13 13 (540800)
I0204 16:28:13.678077  3286 net.cpp:165] Memory required for data: 144030400
I0204 16:28:13.678084  3286 layer_factory.hpp:77] Creating layer conv4
I0204 16:28:13.678097  3286 net.cpp:106] Creating Layer conv4
I0204 16:28:13.678107  3286 net.cpp:454] conv4 <- conv3
I0204 16:28:13.678117  3286 net.cpp:411] conv4 -> conv4
I0204 16:28:13.678192  3286 net.cpp:150] Setting up conv4
I0204 16:28:13.678202  3286 net.cpp:157] Top shape: 100 32 13 13 (540800)
I0204 16:28:13.678208  3286 net.cpp:165] Memory required for data: 146193600
I0204 16:28:13.678220  3286 layer_factory.hpp:77] Creating layer relu4
I0204 16:28:13.678231  3286 net.cpp:106] Creating Layer relu4
I0204 16:28:13.678238  3286 net.cpp:454] relu4 <- conv4
I0204 16:28:13.678247  3286 net.cpp:397] relu4 -> conv4 (in-place)
I0204 16:28:13.678257  3286 net.cpp:150] Setting up relu4
I0204 16:28:13.678267  3286 net.cpp:157] Top shape: 100 32 13 13 (540800)
I0204 16:28:13.678272  3286 net.cpp:165] Memory required for data: 148356800
I0204 16:28:13.678280  3286 layer_factory.hpp:77] Creating layer conv5
I0204 16:28:13.678294  3286 net.cpp:106] Creating Layer conv5
I0204 16:28:13.678303  3286 net.cpp:454] conv5 <- conv4
I0204 16:28:13.678313  3286 net.cpp:411] conv5 -> conv5
I0204 16:28:13.678362  3286 net.cpp:150] Setting up conv5
I0204 16:28:13.678371  3286 net.cpp:157] Top shape: 100 16 13 13 (270400)
I0204 16:28:13.678377  3286 net.cpp:165] Memory required for data: 149438400
I0204 16:28:13.678390  3286 layer_factory.hpp:77] Creating layer relu5
I0204 16:28:13.678402  3286 net.cpp:106] Creating Layer relu5
I0204 16:28:13.678411  3286 net.cpp:454] relu5 <- conv5
I0204 16:28:13.678421  3286 net.cpp:397] relu5 -> conv5 (in-place)
I0204 16:28:13.678431  3286 net.cpp:150] Setting up relu5
I0204 16:28:13.678438  3286 net.cpp:157] Top shape: 100 16 13 13 (270400)
I0204 16:28:13.678444  3286 net.cpp:165] Memory required for data: 150520000
I0204 16:28:13.678452  3286 layer_factory.hpp:77] Creating layer pool5
I0204 16:28:13.678463  3286 net.cpp:106] Creating Layer pool5
I0204 16:28:13.678472  3286 net.cpp:454] pool5 <- conv5
I0204 16:28:13.678498  3286 net.cpp:411] pool5 -> pool5
I0204 16:28:13.678513  3286 net.cpp:150] Setting up pool5
I0204 16:28:13.678522  3286 net.cpp:157] Top shape: 100 16 6 6 (57600)
I0204 16:28:13.678529  3286 net.cpp:165] Memory required for data: 150750400
I0204 16:28:13.678535  3286 layer_factory.hpp:77] Creating layer fc6
I0204 16:28:13.678549  3286 net.cpp:106] Creating Layer fc6
I0204 16:28:13.678555  3286 net.cpp:454] fc6 <- pool5
I0204 16:28:13.678568  3286 net.cpp:411] fc6 -> fc6
I0204 16:28:13.681236  3286 net.cpp:150] Setting up fc6
I0204 16:28:13.681255  3286 net.cpp:157] Top shape: 100 256 (25600)
I0204 16:28:13.681264  3286 net.cpp:165] Memory required for data: 150852800
I0204 16:28:13.681277  3286 layer_factory.hpp:77] Creating layer relu6
I0204 16:28:13.681288  3286 net.cpp:106] Creating Layer relu6
I0204 16:28:13.681295  3286 net.cpp:454] relu6 <- fc6
I0204 16:28:13.681306  3286 net.cpp:397] relu6 -> fc6 (in-place)
I0204 16:28:13.681321  3286 net.cpp:150] Setting up relu6
I0204 16:28:13.681330  3286 net.cpp:157] Top shape: 100 256 (25600)
I0204 16:28:13.681336  3286 net.cpp:165] Memory required for data: 150955200
I0204 16:28:13.681344  3286 layer_factory.hpp:77] Creating layer drop6
I0204 16:28:13.681359  3286 net.cpp:106] Creating Layer drop6
I0204 16:28:13.681366  3286 net.cpp:454] drop6 <- fc6
I0204 16:28:13.681376  3286 net.cpp:397] drop6 -> fc6 (in-place)
I0204 16:28:13.681388  3286 net.cpp:150] Setting up drop6
I0204 16:28:13.681397  3286 net.cpp:157] Top shape: 100 256 (25600)
I0204 16:28:13.681403  3286 net.cpp:165] Memory required for data: 151057600
I0204 16:28:13.681411  3286 layer_factory.hpp:77] Creating layer fc7
I0204 16:28:13.681422  3286 net.cpp:106] Creating Layer fc7
I0204 16:28:13.681429  3286 net.cpp:454] fc7 <- fc6
I0204 16:28:13.681440  3286 net.cpp:411] fc7 -> fc7
I0204 16:28:13.682389  3286 net.cpp:150] Setting up fc7
I0204 16:28:13.682404  3286 net.cpp:157] Top shape: 100 256 (25600)
I0204 16:28:13.682410  3286 net.cpp:165] Memory required for data: 151160000
I0204 16:28:13.682421  3286 layer_factory.hpp:77] Creating layer relu7
I0204 16:28:13.682431  3286 net.cpp:106] Creating Layer relu7
I0204 16:28:13.682438  3286 net.cpp:454] relu7 <- fc7
I0204 16:28:13.682448  3286 net.cpp:397] relu7 -> fc7 (in-place)
I0204 16:28:13.682462  3286 net.cpp:150] Setting up relu7
I0204 16:28:13.682471  3286 net.cpp:157] Top shape: 100 256 (25600)
I0204 16:28:13.682477  3286 net.cpp:165] Memory required for data: 151262400
I0204 16:28:13.682484  3286 layer_factory.hpp:77] Creating layer drop7
I0204 16:28:13.682498  3286 net.cpp:106] Creating Layer drop7
I0204 16:28:13.682505  3286 net.cpp:454] drop7 <- fc7
I0204 16:28:13.682514  3286 net.cpp:397] drop7 -> fc7 (in-place)
I0204 16:28:13.682526  3286 net.cpp:150] Setting up drop7
I0204 16:28:13.682536  3286 net.cpp:157] Top shape: 100 256 (25600)
I0204 16:28:13.682543  3286 net.cpp:165] Memory required for data: 151364800
I0204 16:28:13.682549  3286 layer_factory.hpp:77] Creating layer fc8
I0204 16:28:13.682565  3286 net.cpp:106] Creating Layer fc8
I0204 16:28:13.682574  3286 net.cpp:454] fc8 <- fc7
I0204 16:28:13.682582  3286 net.cpp:411] fc8 -> fc8
I0204 16:28:13.682621  3286 net.cpp:150] Setting up fc8
I0204 16:28:13.682631  3286 net.cpp:157] Top shape: 100 2 (200)
I0204 16:28:13.682641  3286 net.cpp:165] Memory required for data: 151365600
I0204 16:28:13.682652  3286 layer_factory.hpp:77] Creating layer fc8_fc8_0_split
I0204 16:28:13.682667  3286 net.cpp:106] Creating Layer fc8_fc8_0_split
I0204 16:28:13.682674  3286 net.cpp:454] fc8_fc8_0_split <- fc8
I0204 16:28:13.682683  3286 net.cpp:411] fc8_fc8_0_split -> fc8_fc8_0_split_0
I0204 16:28:13.682694  3286 net.cpp:411] fc8_fc8_0_split -> fc8_fc8_0_split_1
I0204 16:28:13.682706  3286 net.cpp:150] Setting up fc8_fc8_0_split
I0204 16:28:13.682719  3286 net.cpp:157] Top shape: 100 2 (200)
I0204 16:28:13.682728  3286 net.cpp:157] Top shape: 100 2 (200)
I0204 16:28:13.682734  3286 net.cpp:165] Memory required for data: 151367200
I0204 16:28:13.682741  3286 layer_factory.hpp:77] Creating layer accuracy
I0204 16:28:13.682771  3286 net.cpp:106] Creating Layer accuracy
I0204 16:28:13.682780  3286 net.cpp:454] accuracy <- fc8_fc8_0_split_0
I0204 16:28:13.682787  3286 net.cpp:454] accuracy <- label_data_1_split_0
I0204 16:28:13.682797  3286 net.cpp:411] accuracy -> accuracy
…
