…
I0205 06:27:44.958551 12688 net.cpp:322] The NetState phase (0) differed from the phase (1) specified by a rule in layer accuracy
I0205 06:27:44.959044 12688 net.cpp:49] Initializing net from parameters: 
name: "CaffeNet"
state {
  phase: TRAIN
}
layer {
  name: "data"
  type: "Data"
  top: "data"
  top: "label"
  include {
    phase: TRAIN
  }
  transform_param {
    mirror: true
    crop_size: 227
    mean_file: "/home/pearlstl/proj_cv/master/lmdb/synth1_train_lum_db/mean_file.binaryproto"
  }
  data_param {
    source: "/home/pearlstl/proj_cv/master/lmdb/synth1_train_lum_db"
    batch_size: 100
    backend: LMDB
  }
}
layer {
  name: "conv1"
  type: "Convolution"
  bottom: "data"
  top: "conv1"
  param {
    lr_mult: 1
    decay_mult: 1
  }
  param {
    lr_mult: 2
    decay_mult: 0
  }
  convolution_param {
    num_output: 8
    kernel_size: 11
    stride: 4
    weight_filler {
      type: "xavier"
    }
    bias_filler {
      type: "constant"
      value: 0
    }
  }
}
layer {
  name: "relu1"
  type: "ReLU"
  bottom: "conv1"
  top: "conv1"
}
layer {
  name: "pool1"
  type: "Pooling"
  bottom: "conv1"
  top: "pool1"
  pooling_param {
    pool: MAX
    kernel_size: 3
    stride: 2
  }
}
layer {
  name: "norm1"
  type: "LRN"
  bottom: "pool1"
  top: "norm1"
  lrn_param {
    local_size: 5
    alpha: 0.0001
    beta: 0.75
  }
}
layer {
  name: "conv2"
  type: "Convolution"
  bottom: "norm1"
  top: "conv2"
  param {
    lr_mult: 1
    decay_mult: 1
  }
  param {
    lr_mult: 2
    decay_mult: 0
  }
  convolution_param {
    num_output: 8
    pad: 2
    kernel_size: 5
    group: 2
    weight_filler {
      type: "xavier"
    }
    bias_filler {
      type: "constant"
      value: 1
    }
  }
}
layer {
  name: "relu2"
  type: "ReLU"
  bottom: "conv2"
  top: "conv2"
}
layer {
  name: "pool2"
  type: "Pooling"
  bottom: "conv2"
  top: "pool2"
  pooling_param {
    pool: MAX
    kernel_size: 3
    stride: 2
  }
}
layer {
  name: "norm2"
  type: "LRN"
  bottom: "pool2"
  top: "norm2"
  lrn_param {
    local_size: 5
    alpha: 0.0001
    beta: 0.75
  }
}
layer {
  name: "conv3"
  type: "Convolution"
  bottom: "norm2"
  top: "conv3"
  param {
    lr_mult: 1
    decay_mult: 1
  }
  param {
    lr_mult: 2
    decay_mult: 0
  }
  convolution_param {
    num_output: 8
    pad: 1
    kernel_size: 3
    weight_filler {
      type: "xavier"
    }
    bias_filler {
      type: "constant"
      value: 0
    }
  }
}
layer {
  name: "relu3"
  type: "ReLU"
  bottom: "conv3"
  top: "conv3"
}
layer {
  name: "conv4"
  type: "Convolution"
  bottom: "conv3"
  top: "conv4"
  param {
    lr_mult: 1
    decay_mult: 1
  }
  param {
    lr_mult: 2
    decay_mult: 0
  }
  convolution_param {
    num_output: 8
    pad: 1
    kernel_size: 3
    group: 2
    weight_filler {
      type: "xavier"
    }
    bias_filler {
      type: "constant"
      value: 1
    }
  }
}
layer {
  name: "relu4"
  type: "ReLU"
  bottom: "conv4"
  top: "conv4"
}
layer {
  name: "conv5"
  type: "Convolution"
  bottom: "conv4"
  top: "conv5"
  param {
    lr_mult: 1
    decay_mult: 1
  }
  param {
    lr_mult: 2
    decay_mult: 0
  }
  convolution_param {
    num_output: 8
    pad: 1
    kernel_size: 3
    group: 2
    weight_filler {
      type: "xavier"
    }
    bias_filler {
      type: "constant"
      value: 1
    }
  }
}
layer {
  name: "relu5"
  type: "ReLU"
  bottom: "conv5"
  top: "conv5"
}
layer {
  name: "pool5"
  type: "Pooling"
  bottom: "conv5"
  top: "pool5"
  pooling_param {
    pool: MAX
    kernel_size: 3
    stride: 2
  }
}
layer {
  name: "fc6"
  type: "InnerProduct"
  bottom: "pool5"
  top: "fc6"
  param {
    lr_mult: 1
    decay_mult: 1
  }
  param {
    lr_mult: 2
    decay_mult: 0
  }
  inner_product_param {
    num_output: 256
    weight_filler {
      type: "xavier"
    }
    bias_filler {
      type: "constant"
      value: 1
    }
  }
}
layer {
  name: "relu6"
  type: "ReLU"
  bottom: "fc6"
  top: "fc6"
}
layer {
  name: "drop6"
  type: "Dropout"
  bottom: "fc6"
  top: "fc6"
  dropout_param {
    dropout_ratio: 0.5
  }
}
layer {
  name: "fc7"
  type: "InnerProduct"
  bottom: "fc6"
  top: "fc7"
  param {
    lr_mult: 1
    decay_mult: 1
  }
  param {
    lr_mult: 2
    decay_mult: 0
  }
  inner_product_param {
    num_output: 256
    weight_filler {
      type: "xavier"
    }
    bias_filler {
      type: "constant"
      value: 1
    }
  }
}
layer {
  name: "relu7"
  type: "ReLU"
  bottom: "fc7"
  top: "fc7"
}
layer {
  name: "drop7"
  type: "Dropout"
  bottom: "fc7"
  top: "fc7"
  dropout_param {
    dropout_ratio: 0.5
  }
}
layer {
  name: "fc8"
  type: "InnerProduct"
  bottom: "fc7"
  top: "fc8"
  param {
    lr_mult: 1
    decay_mult: 1
  }
  param {
    lr_mult: 2
    decay_mult: 0
  }
  inner_product_param {
    num_output: 2
    weight_filler {
      type: "xavier"
    }
    bias_filler {
      type: "constant"
      value: 0
    }
  }
}
layer {
  name: "loss"
  type: "SoftmaxWithLoss"
  bottom: "fc8"
  bottom: "label"
  top: "loss"
}
I0205 06:27:44.959293 12688 layer_factory.hpp:77] Creating layer data
I0205 06:27:44.960379 12688 net.cpp:106] Creating Layer data
I0205 06:27:44.960415 12688 net.cpp:411] data -> data
I0205 06:27:44.960546 12688 net.cpp:411] data -> label
I0205 06:27:44.960587 12688 data_transformer.cpp:25] Loading mean file from: /home/pearlstl/proj_cv/master/lmdb/synth1_train_lum_db/mean_file.binaryproto
I0205 06:27:44.960752 12689 db_lmdb.cpp:38] Opened lmdb /home/pearlstl/proj_cv/master/lmdb/synth1_train_lum_db
I0205 06:27:44.962385 12688 data_layer.cpp:41] output data size: 100,1,227,227
I0205 06:27:44.997931 12688 net.cpp:150] Setting up data
I0205 06:27:44.998037 12688 net.cpp:157] Top shape: 100 1 227 227 (5152900)
I0205 06:27:44.998046 12688 net.cpp:157] Top shape: 100 (100)
I0205 06:27:44.998054 12688 net.cpp:165] Memory required for data: 20612000
I0205 06:27:44.998075 12688 layer_factory.hpp:77] Creating layer conv1
I0205 06:27:44.998126 12688 net.cpp:106] Creating Layer conv1
I0205 06:27:44.998137 12688 net.cpp:454] conv1 <- data
I0205 06:27:44.998160 12688 net.cpp:411] conv1 -> conv1
I0205 06:27:44.998312 12688 net.cpp:150] Setting up conv1
I0205 06:27:44.998325 12688 net.cpp:157] Top shape: 100 8 55 55 (2420000)
I0205 06:27:44.998332 12688 net.cpp:165] Memory required for data: 30292000
I0205 06:27:44.998350 12688 layer_factory.hpp:77] Creating layer relu1
I0205 06:27:44.998363 12688 net.cpp:106] Creating Layer relu1
I0205 06:27:44.998373 12688 net.cpp:454] relu1 <- conv1
I0205 06:27:44.998383 12688 net.cpp:397] relu1 -> conv1 (in-place)
I0205 06:27:44.998396 12688 net.cpp:150] Setting up relu1
I0205 06:27:44.998404 12688 net.cpp:157] Top shape: 100 8 55 55 (2420000)
I0205 06:27:44.998409 12688 net.cpp:165] Memory required for data: 39972000
I0205 06:27:44.998415 12688 layer_factory.hpp:77] Creating layer pool1
I0205 06:27:44.998426 12688 net.cpp:106] Creating Layer pool1
I0205 06:27:44.998432 12688 net.cpp:454] pool1 <- conv1
I0205 06:27:44.998440 12688 net.cpp:411] pool1 -> pool1
I0205 06:27:44.998468 12688 net.cpp:150] Setting up pool1
I0205 06:27:44.998476 12688 net.cpp:157] Top shape: 100 8 27 27 (583200)
I0205 06:27:44.998481 12688 net.cpp:165] Memory required for data: 42304800
I0205 06:27:44.998487 12688 layer_factory.hpp:77] Creating layer norm1
I0205 06:27:44.998512 12688 net.cpp:106] Creating Layer norm1
I0205 06:27:44.998533 12688 net.cpp:454] norm1 <- pool1
I0205 06:27:44.998543 12688 net.cpp:411] norm1 -> norm1
I0205 06:27:44.998563 12688 net.cpp:150] Setting up norm1
I0205 06:27:44.998570 12688 net.cpp:157] Top shape: 100 8 27 27 (583200)
I0205 06:27:44.998576 12688 net.cpp:165] Memory required for data: 44637600
I0205 06:27:44.998581 12688 layer_factory.hpp:77] Creating layer conv2
I0205 06:27:44.998594 12688 net.cpp:106] Creating Layer conv2
I0205 06:27:44.998600 12688 net.cpp:454] conv2 <- norm1
I0205 06:27:44.998610 12688 net.cpp:411] conv2 -> conv2
I0205 06:27:44.998643 12688 net.cpp:150] Setting up conv2
I0205 06:27:44.998652 12688 net.cpp:157] Top shape: 100 8 27 27 (583200)
I0205 06:27:44.998657 12688 net.cpp:165] Memory required for data: 46970400
I0205 06:27:44.998668 12688 layer_factory.hpp:77] Creating layer relu2
I0205 06:27:44.998677 12688 net.cpp:106] Creating Layer relu2
I0205 06:27:44.998683 12688 net.cpp:454] relu2 <- conv2
I0205 06:27:44.998692 12688 net.cpp:397] relu2 -> conv2 (in-place)
I0205 06:27:44.998700 12688 net.cpp:150] Setting up relu2
I0205 06:27:44.998708 12688 net.cpp:157] Top shape: 100 8 27 27 (583200)
I0205 06:27:44.998713 12688 net.cpp:165] Memory required for data: 49303200
I0205 06:27:44.998718 12688 layer_factory.hpp:77] Creating layer pool2
I0205 06:27:44.998728 12688 net.cpp:106] Creating Layer pool2
I0205 06:27:44.998733 12688 net.cpp:454] pool2 <- conv2
I0205 06:27:44.998742 12688 net.cpp:411] pool2 -> pool2
I0205 06:27:44.998752 12688 net.cpp:150] Setting up pool2
I0205 06:27:44.998761 12688 net.cpp:157] Top shape: 100 8 13 13 (135200)
I0205 06:27:44.998766 12688 net.cpp:165] Memory required for data: 49844000
I0205 06:27:44.998772 12688 layer_factory.hpp:77] Creating layer norm2
I0205 06:27:44.998782 12688 net.cpp:106] Creating Layer norm2
I0205 06:27:44.998787 12688 net.cpp:454] norm2 <- pool2
I0205 06:27:44.998796 12688 net.cpp:411] norm2 -> norm2
I0205 06:27:44.998805 12688 net.cpp:150] Setting up norm2
I0205 06:27:44.998812 12688 net.cpp:157] Top shape: 100 8 13 13 (135200)
I0205 06:27:44.998817 12688 net.cpp:165] Memory required for data: 50384800
I0205 06:27:44.998822 12688 layer_factory.hpp:77] Creating layer conv3
I0205 06:27:44.998834 12688 net.cpp:106] Creating Layer conv3
I0205 06:27:44.998839 12688 net.cpp:454] conv3 <- norm2
I0205 06:27:44.998848 12688 net.cpp:411] conv3 -> conv3
I0205 06:27:44.998878 12688 net.cpp:150] Setting up conv3
I0205 06:27:44.998885 12688 net.cpp:157] Top shape: 100 8 13 13 (135200)
I0205 06:27:44.998893 12688 net.cpp:165] Memory required for data: 50925600
I0205 06:27:44.998903 12688 layer_factory.hpp:77] Creating layer relu3
I0205 06:27:44.998913 12688 net.cpp:106] Creating Layer relu3
I0205 06:27:44.998917 12688 net.cpp:454] relu3 <- conv3
I0205 06:27:44.998925 12688 net.cpp:397] relu3 -> conv3 (in-place)
I0205 06:27:44.998934 12688 net.cpp:150] Setting up relu3
I0205 06:27:44.998940 12688 net.cpp:157] Top shape: 100 8 13 13 (135200)
I0205 06:27:44.998945 12688 net.cpp:165] Memory required for data: 51466400
I0205 06:27:44.998953 12688 layer_factory.hpp:77] Creating layer conv4
I0205 06:27:44.998970 12688 net.cpp:106] Creating Layer conv4
I0205 06:27:44.998975 12688 net.cpp:454] conv4 <- conv3
I0205 06:27:44.998986 12688 net.cpp:411] conv4 -> conv4
I0205 06:27:44.999011 12688 net.cpp:150] Setting up conv4
I0205 06:27:44.999018 12688 net.cpp:157] Top shape: 100 8 13 13 (135200)
I0205 06:27:44.999027 12688 net.cpp:165] Memory required for data: 52007200
I0205 06:27:44.999034 12688 layer_factory.hpp:77] Creating layer relu4
I0205 06:27:44.999042 12688 net.cpp:106] Creating Layer relu4
I0205 06:27:44.999047 12688 net.cpp:454] relu4 <- conv4
I0205 06:27:44.999055 12688 net.cpp:397] relu4 -> conv4 (in-place)
I0205 06:27:44.999063 12688 net.cpp:150] Setting up relu4
I0205 06:27:44.999071 12688 net.cpp:157] Top shape: 100 8 13 13 (135200)
I0205 06:27:44.999076 12688 net.cpp:165] Memory required for data: 52548000
I0205 06:27:44.999083 12688 layer_factory.hpp:77] Creating layer conv5
I0205 06:27:44.999099 12688 net.cpp:106] Creating Layer conv5
I0205 06:27:44.999111 12688 net.cpp:454] conv5 <- conv4
I0205 06:27:44.999122 12688 net.cpp:411] conv5 -> conv5
I0205 06:27:44.999145 12688 net.cpp:150] Setting up conv5
I0205 06:27:44.999152 12688 net.cpp:157] Top shape: 100 8 13 13 (135200)
I0205 06:27:44.999160 12688 net.cpp:165] Memory required for data: 53088800
I0205 06:27:44.999171 12688 layer_factory.hpp:77] Creating layer relu5
I0205 06:27:44.999181 12688 net.cpp:106] Creating Layer relu5
I0205 06:27:44.999186 12688 net.cpp:454] relu5 <- conv5
I0205 06:27:44.999194 12688 net.cpp:397] relu5 -> conv5 (in-place)
I0205 06:27:44.999202 12688 net.cpp:150] Setting up relu5
I0205 06:27:44.999208 12688 net.cpp:157] Top shape: 100 8 13 13 (135200)
I0205 06:27:44.999214 12688 net.cpp:165] Memory required for data: 53629600
I0205 06:27:44.999219 12688 layer_factory.hpp:77] Creating layer pool5
I0205 06:27:44.999228 12688 net.cpp:106] Creating Layer pool5
I0205 06:27:44.999233 12688 net.cpp:454] pool5 <- conv5
I0205 06:27:44.999241 12688 net.cpp:411] pool5 -> pool5
I0205 06:27:44.999253 12688 net.cpp:150] Setting up pool5
I0205 06:27:44.999259 12688 net.cpp:157] Top shape: 100 8 6 6 (28800)
I0205 06:27:44.999264 12688 net.cpp:165] Memory required for data: 53744800
I0205 06:27:44.999269 12688 layer_factory.hpp:77] Creating layer fc6
I0205 06:27:44.999286 12688 net.cpp:106] Creating Layer fc6
I0205 06:27:44.999294 12688 net.cpp:454] fc6 <- pool5
I0205 06:27:44.999305 12688 net.cpp:411] fc6 -> fc6
I0205 06:27:45.000130 12688 net.cpp:150] Setting up fc6
I0205 06:27:45.000144 12688 net.cpp:157] Top shape: 100 256 (25600)
I0205 06:27:45.000149 12688 net.cpp:165] Memory required for data: 53847200
I0205 06:27:45.000157 12688 layer_factory.hpp:77] Creating layer relu6
I0205 06:27:45.000167 12688 net.cpp:106] Creating Layer relu6
I0205 06:27:45.000174 12688 net.cpp:454] relu6 <- fc6
I0205 06:27:45.000182 12688 net.cpp:397] relu6 -> fc6 (in-place)
I0205 06:27:45.000192 12688 net.cpp:150] Setting up relu6
I0205 06:27:45.000198 12688 net.cpp:157] Top shape: 100 256 (25600)
I0205 06:27:45.000205 12688 net.cpp:165] Memory required for data: 53949600
I0205 06:27:45.000210 12688 layer_factory.hpp:77] Creating layer drop6
I0205 06:27:45.000221 12688 net.cpp:106] Creating Layer drop6
I0205 06:27:45.000227 12688 net.cpp:454] drop6 <- fc6
I0205 06:27:45.000234 12688 net.cpp:397] drop6 -> fc6 (in-place)
I0205 06:27:45.000262 12688 net.cpp:150] Setting up drop6
I0205 06:27:45.000272 12688 net.cpp:157] Top shape: 100 256 (25600)
I0205 06:27:45.000277 12688 net.cpp:165] Memory required for data: 54052000
I0205 06:27:45.000283 12688 layer_factory.hpp:77] Creating layer fc7
I0205 06:27:45.000293 12688 net.cpp:106] Creating Layer fc7
I0205 06:27:45.000298 12688 net.cpp:454] fc7 <- fc6
I0205 06:27:45.000306 12688 net.cpp:411] fc7 -> fc7
I0205 06:27:45.001003 12688 net.cpp:150] Setting up fc7
I0205 06:27:45.001018 12688 net.cpp:157] Top shape: 100 256 (25600)
I0205 06:27:45.001022 12688 net.cpp:165] Memory required for data: 54154400
I0205 06:27:45.001031 12688 layer_factory.hpp:77] Creating layer relu7
I0205 06:27:45.001039 12688 net.cpp:106] Creating Layer relu7
I0205 06:27:45.001045 12688 net.cpp:454] relu7 <- fc7
I0205 06:27:45.001055 12688 net.cpp:397] relu7 -> fc7 (in-place)
I0205 06:27:45.001065 12688 net.cpp:150] Setting up relu7
I0205 06:27:45.001070 12688 net.cpp:157] Top shape: 100 256 (25600)
I0205 06:27:45.001076 12688 net.cpp:165] Memory required for data: 54256800
I0205 06:27:45.001081 12688 layer_factory.hpp:77] Creating layer drop7
I0205 06:27:45.001092 12688 net.cpp:106] Creating Layer drop7
I0205 06:27:45.001098 12688 net.cpp:454] drop7 <- fc7
I0205 06:27:45.001106 12688 net.cpp:397] drop7 -> fc7 (in-place)
I0205 06:27:45.001116 12688 net.cpp:150] Setting up drop7
I0205 06:27:45.001121 12688 net.cpp:157] Top shape: 100 256 (25600)
I0205 06:27:45.001127 12688 net.cpp:165] Memory required for data: 54359200
I0205 06:27:45.001132 12688 layer_factory.hpp:77] Creating layer fc8
I0205 06:27:45.001144 12688 net.cpp:106] Creating Layer fc8
I0205 06:27:45.001154 12688 net.cpp:454] fc8 <- fc7
I0205 06:27:45.001168 12688 net.cpp:411] fc8 -> fc8
I0205 06:27:45.001196 12688 net.cpp:150] Setting up fc8
I0205 06:27:45.001204 12688 net.cpp:157] Top shape: 100 2 (200)
I0205 06:27:45.001209 12688 net.cpp:165] Memory required for data: 54360000
I0205 06:27:45.001220 12688 layer_factory.hpp:77] Creating layer loss
I0205 06:27:45.001230 12688 net.cpp:106] Creating Layer loss
I0205 06:27:45.001235 12688 net.cpp:454] loss <- fc8
I0205 06:27:45.001241 12688 net.cpp:454] loss <- label
I0205 06:27:45.001252 12688 net.cpp:411] loss -> loss
I0205 06:27:45.001268 12688 layer_factory.hpp:77] Creating layer loss
…
I0205 06:27:45.003509 12688 net.cpp:322] The NetState phase (1) differed from the phase (0) specified by a rule in layer data
I0205 06:27:45.003813 12688 net.cpp:49] Initializing net from parameters: 
name: "CaffeNet"
state {
  phase: TEST
}
layer {
  name: "data"
  type: "Data"
  top: "data"
  top: "label"
  include {
    phase: TEST
  }
  transform_param {
    mirror: false
    crop_size: 227
    mean_file: "/home/pearlstl/proj_cv/master/lmdb/synth1_test_lum_db/mean_file.binaryproto"
  }
  data_param {
    source: "/home/pearlstl/proj_cv/master/lmdb/synth1_test_lum_db"
    batch_size: 100
    backend: LMDB
  }
}
layer {
  name: "conv1"
  type: "Convolution"
  bottom: "data"
  top: "conv1"
  param {
    lr_mult: 1
    decay_mult: 1
  }
  param {
    lr_mult: 2
    decay_mult: 0
  }
  convolution_param {
    num_output: 8
    kernel_size: 11
    stride: 4
    weight_filler {
      type: "xavier"
    }
    bias_filler {
      type: "constant"
      value: 0
    }
  }
}
layer {
  name: "relu1"
  type: "ReLU"
  bottom: "conv1"
  top: "conv1"
}
layer {
  name: "pool1"
  type: "Pooling"
  bottom: "conv1"
  top: "pool1"
  pooling_param {
    pool: MAX
    kernel_size: 3
    stride: 2
  }
}
layer {
  name: "norm1"
  type: "LRN"
  bottom: "pool1"
  top: "norm1"
  lrn_param {
    local_size: 5
    alpha: 0.0001
    beta: 0.75
  }
}
layer {
  name: "conv2"
  type: "Convolution"
  bottom: "norm1"
  top: "conv2"
  param {
    lr_mult: 1
    decay_mult: 1
  }
  param {
    lr_mult: 2
    decay_mult: 0
  }
  convolution_param {
    num_output: 8
    pad: 2
    kernel_size: 5
    group: 2
    weight_filler {
      type: "xavier"
    }
    bias_filler {
      type: "constant"
      value: 1
    }
  }
}
layer {
  name: "relu2"
  type: "ReLU"
  bottom: "conv2"
  top: "conv2"
}
layer {
  name: "pool2"
  type: "Pooling"
  bottom: "conv2"
  top: "pool2"
  pooling_param {
    pool: MAX
    kernel_size: 3
    stride: 2
  }
}
layer {
  name: "norm2"
  type: "LRN"
  bottom: "pool2"
  top: "norm2"
  lrn_param {
    local_size: 5
    alpha: 0.0001
    beta: 0.75
  }
}
layer {
  name: "conv3"
  type: "Convolution"
  bottom: "norm2"
  top: "conv3"
  param {
    lr_mult: 1
    decay_mult: 1
  }
  param {
    lr_mult: 2
    decay_mult: 0
  }
  convolution_param {
    num_output: 8
    pad: 1
    kernel_size: 3
    weight_filler {
      type: "xavier"
    }
    bias_filler {
      type: "constant"
      value: 0
    }
  }
}
layer {
  name: "relu3"
  type: "ReLU"
  bottom: "conv3"
  top: "conv3"
}
layer {
  name: "conv4"
  type: "Convolution"
  bottom: "conv3"
  top: "conv4"
  param {
    lr_mult: 1
    decay_mult: 1
  }
  param {
    lr_mult: 2
    decay_mult: 0
  }
  convolution_param {
    num_output: 8
    pad: 1
    kernel_size: 3
    group: 2
    weight_filler {
      type: "xavier"
    }
    bias_filler {
      type: "constant"
      value: 1
    }
  }
}
layer {
  name: "relu4"
  type: "ReLU"
  bottom: "conv4"
  top: "conv4"
}
layer {
  name: "conv5"
  type: "Convolution"
  bottom: "conv4"
  top: "conv5"
  param {
    lr_mult: 1
    decay_mult: 1
  }
  param {
    lr_mult: 2
    decay_mult: 0
  }
  convolution_param {
    num_output: 8
    pad: 1
    kernel_size: 3
    group: 2
    weight_filler {
      type: "xavier"
    }
    bias_filler {
      type: "constant"
      value: 1
    }
  }
}
layer {
  name: "relu5"
  type: "ReLU"
  bottom: "conv5"
  top: "conv5"
}
layer {
  name: "pool5"
  type: "Pooling"
  bottom: "conv5"
  top: "pool5"
  pooling_param {
    pool: MAX
    kernel_size: 3
    stride: 2
  }
}
layer {
  name: "fc6"
  type: "InnerProduct"
  bottom: "pool5"
  top: "fc6"
  param {
    lr_mult: 1
    decay_mult: 1
  }
  param {
    lr_mult: 2
    decay_mult: 0
  }
  inner_product_param {
    num_output: 256
    weight_filler {
      type: "xavier"
    }
    bias_filler {
      type: "constant"
      value: 1
    }
  }
}
layer {
  name: "relu6"
  type: "ReLU"
  bottom: "fc6"
  top: "fc6"
}
layer {
  name: "drop6"
  type: "Dropout"
  bottom: "fc6"
  top: "fc6"
  dropout_param {
    dropout_ratio: 0.5
  }
}
layer {
  name: "fc7"
  type: "InnerProduct"
  bottom: "fc6"
  top: "fc7"
  param {
    lr_mult: 1
    decay_mult: 1
  }
  param {
    lr_mult: 2
    decay_mult: 0
  }
  inner_product_param {
    num_output: 256
    weight_filler {
      type: "xavier"
    }
    bias_filler {
      type: "constant"
      value: 1
    }
  }
}
layer {
  name: "relu7"
  type: "ReLU"
  bottom: "fc7"
  top: "fc7"
}
layer {
  name: "drop7"
  type: "Dropout"
  bottom: "fc7"
  top: "fc7"
  dropout_param {
    dropout_ratio: 0.5
  }
}
layer {
  name: "fc8"
  type: "InnerProduct"
  bottom: "fc7"
  top: "fc8"
  param {
    lr_mult: 1
    decay_mult: 1
  }
  param {
    lr_mult: 2
    decay_mult: 0
  }
  inner_product_param {
    num_output: 2
    weight_filler {
      type: "xavier"
    }
    bias_filler {
      type: "constant"
      value: 0
    }
  }
}
layer {
  name: "accuracy"
  type: "Accuracy"
  bottom: "fc8"
  bottom: "label"
  top: "accuracy"
  include {
    phase: TEST
  }
}
layer {
  name: "loss"
  type: "SoftmaxWithLoss"
  bottom: "fc8"
  bottom: "label"
  top: "loss"
}
I0205 06:27:45.003998 12688 layer_factory.hpp:77] Creating layer data
I0205 06:27:45.004158 12688 net.cpp:106] Creating Layer data
I0205 06:27:45.004173 12688 net.cpp:411] data -> data
I0205 06:27:45.004189 12688 net.cpp:411] data -> label
I0205 06:27:45.004202 12688 data_transformer.cpp:25] Loading mean file from: /home/pearlstl/proj_cv/master/lmdb/synth1_test_lum_db/mean_file.binaryproto
I0205 06:27:45.004406 12692 db_lmdb.cpp:38] Opened lmdb /home/pearlstl/proj_cv/master/lmdb/synth1_test_lum_db
I0205 06:27:45.005142 12688 data_layer.cpp:41] output data size: 100,1,227,227
I0205 06:27:45.037737 12688 net.cpp:150] Setting up data
I0205 06:27:45.037765 12688 net.cpp:157] Top shape: 100 1 227 227 (5152900)
I0205 06:27:45.037773 12688 net.cpp:157] Top shape: 100 (100)
I0205 06:27:45.037778 12688 net.cpp:165] Memory required for data: 20612000
I0205 06:27:45.037788 12688 layer_factory.hpp:77] Creating layer label_data_1_split
I0205 06:27:45.037803 12688 net.cpp:106] Creating Layer label_data_1_split
I0205 06:27:45.037813 12688 net.cpp:454] label_data_1_split <- label
I0205 06:27:45.037824 12688 net.cpp:411] label_data_1_split -> label_data_1_split_0
I0205 06:27:45.037839 12688 net.cpp:411] label_data_1_split -> label_data_1_split_1
I0205 06:27:45.037852 12688 net.cpp:150] Setting up label_data_1_split
I0205 06:27:45.037859 12688 net.cpp:157] Top shape: 100 (100)
I0205 06:27:45.037865 12688 net.cpp:157] Top shape: 100 (100)
I0205 06:27:45.037870 12688 net.cpp:165] Memory required for data: 20612800
I0205 06:27:45.037876 12688 layer_factory.hpp:77] Creating layer conv1
I0205 06:27:45.037890 12688 net.cpp:106] Creating Layer conv1
I0205 06:27:45.037896 12688 net.cpp:454] conv1 <- data
I0205 06:27:45.037905 12688 net.cpp:411] conv1 -> conv1
I0205 06:27:45.037955 12688 net.cpp:150] Setting up conv1
I0205 06:27:45.037978 12688 net.cpp:157] Top shape: 100 8 55 55 (2420000)
I0205 06:27:45.037988 12688 net.cpp:165] Memory required for data: 30292800
I0205 06:27:45.038002 12688 layer_factory.hpp:77] Creating layer relu1
I0205 06:27:45.038012 12688 net.cpp:106] Creating Layer relu1
I0205 06:27:45.038018 12688 net.cpp:454] relu1 <- conv1
I0205 06:27:45.038027 12688 net.cpp:397] relu1 -> conv1 (in-place)
I0205 06:27:45.038035 12688 net.cpp:150] Setting up relu1
I0205 06:27:45.038043 12688 net.cpp:157] Top shape: 100 8 55 55 (2420000)
I0205 06:27:45.038048 12688 net.cpp:165] Memory required for data: 39972800
I0205 06:27:45.038054 12688 layer_factory.hpp:77] Creating layer pool1
I0205 06:27:45.038064 12688 net.cpp:106] Creating Layer pool1
I0205 06:27:45.038069 12688 net.cpp:454] pool1 <- conv1
I0205 06:27:45.038077 12688 net.cpp:411] pool1 -> pool1
I0205 06:27:45.038091 12688 net.cpp:150] Setting up pool1
I0205 06:27:45.038100 12688 net.cpp:157] Top shape: 100 8 27 27 (583200)
I0205 06:27:45.038106 12688 net.cpp:165] Memory required for data: 42305600
I0205 06:27:45.038112 12688 layer_factory.hpp:77] Creating layer norm1
I0205 06:27:45.038122 12688 net.cpp:106] Creating Layer norm1
I0205 06:27:45.038128 12688 net.cpp:454] norm1 <- pool1
I0205 06:27:45.038136 12688 net.cpp:411] norm1 -> norm1
I0205 06:27:45.038147 12688 net.cpp:150] Setting up norm1
I0205 06:27:45.038156 12688 net.cpp:157] Top shape: 100 8 27 27 (583200)
I0205 06:27:45.038162 12688 net.cpp:165] Memory required for data: 44638400
I0205 06:27:45.038168 12688 layer_factory.hpp:77] Creating layer conv2
I0205 06:27:45.038179 12688 net.cpp:106] Creating Layer conv2
I0205 06:27:45.038185 12688 net.cpp:454] conv2 <- norm1
I0205 06:27:45.038193 12688 net.cpp:411] conv2 -> conv2
I0205 06:27:45.038223 12688 net.cpp:150] Setting up conv2
I0205 06:27:45.038230 12688 net.cpp:157] Top shape: 100 8 27 27 (583200)
I0205 06:27:45.038235 12688 net.cpp:165] Memory required for data: 46971200
I0205 06:27:45.038246 12688 layer_factory.hpp:77] Creating layer relu2
I0205 06:27:45.038256 12688 net.cpp:106] Creating Layer relu2
I0205 06:27:45.038262 12688 net.cpp:454] relu2 <- conv2
I0205 06:27:45.038270 12688 net.cpp:397] relu2 -> conv2 (in-place)
I0205 06:27:45.038287 12688 net.cpp:150] Setting up relu2
I0205 06:27:45.038306 12688 net.cpp:157] Top shape: 100 8 27 27 (583200)
I0205 06:27:45.038312 12688 net.cpp:165] Memory required for data: 49304000
I0205 06:27:45.038318 12688 layer_factory.hpp:77] Creating layer pool2
I0205 06:27:45.038331 12688 net.cpp:106] Creating Layer pool2
I0205 06:27:45.038336 12688 net.cpp:454] pool2 <- conv2
I0205 06:27:45.038344 12688 net.cpp:411] pool2 -> pool2
I0205 06:27:45.038355 12688 net.cpp:150] Setting up pool2
I0205 06:27:45.038363 12688 net.cpp:157] Top shape: 100 8 13 13 (135200)
I0205 06:27:45.038368 12688 net.cpp:165] Memory required for data: 49844800
I0205 06:27:45.038373 12688 layer_factory.hpp:77] Creating layer norm2
I0205 06:27:45.038383 12688 net.cpp:106] Creating Layer norm2
I0205 06:27:45.038388 12688 net.cpp:454] norm2 <- pool2
I0205 06:27:45.038395 12688 net.cpp:411] norm2 -> norm2
I0205 06:27:45.038404 12688 net.cpp:150] Setting up norm2
I0205 06:27:45.038411 12688 net.cpp:157] Top shape: 100 8 13 13 (135200)
I0205 06:27:45.038416 12688 net.cpp:165] Memory required for data: 50385600
I0205 06:27:45.038421 12688 layer_factory.hpp:77] Creating layer conv3
I0205 06:27:45.038434 12688 net.cpp:106] Creating Layer conv3
I0205 06:27:45.038439 12688 net.cpp:454] conv3 <- norm2
I0205 06:27:45.038447 12688 net.cpp:411] conv3 -> conv3
I0205 06:27:45.038473 12688 net.cpp:150] Setting up conv3
I0205 06:27:45.038481 12688 net.cpp:157] Top shape: 100 8 13 13 (135200)
I0205 06:27:45.038486 12688 net.cpp:165] Memory required for data: 50926400
I0205 06:27:45.038499 12688 layer_factory.hpp:77] Creating layer relu3
I0205 06:27:45.038523 12688 net.cpp:106] Creating Layer relu3
I0205 06:27:45.038529 12688 net.cpp:454] relu3 <- conv3
I0205 06:27:45.038537 12688 net.cpp:397] relu3 -> conv3 (in-place)
I0205 06:27:45.038545 12688 net.cpp:150] Setting up relu3
I0205 06:27:45.038552 12688 net.cpp:157] Top shape: 100 8 13 13 (135200)
I0205 06:27:45.038558 12688 net.cpp:165] Memory required for data: 51467200
I0205 06:27:45.038563 12688 layer_factory.hpp:77] Creating layer conv4
I0205 06:27:45.038571 12688 net.cpp:106] Creating Layer conv4
I0205 06:27:45.038578 12688 net.cpp:454] conv4 <- conv3
I0205 06:27:45.038584 12688 net.cpp:411] conv4 -> conv4
I0205 06:27:45.038607 12688 net.cpp:150] Setting up conv4
I0205 06:27:45.038615 12688 net.cpp:157] Top shape: 100 8 13 13 (135200)
I0205 06:27:45.038620 12688 net.cpp:165] Memory required for data: 52008000
I0205 06:27:45.038628 12688 layer_factory.hpp:77] Creating layer relu4
I0205 06:27:45.038635 12688 net.cpp:106] Creating Layer relu4
I0205 06:27:45.038641 12688 net.cpp:454] relu4 <- conv4
I0205 06:27:45.038648 12688 net.cpp:397] relu4 -> conv4 (in-place)
I0205 06:27:45.038658 12688 net.cpp:150] Setting up relu4
I0205 06:27:45.038666 12688 net.cpp:157] Top shape: 100 8 13 13 (135200)
I0205 06:27:45.038671 12688 net.cpp:165] Memory required for data: 52548800
I0205 06:27:45.038676 12688 layer_factory.hpp:77] Creating layer conv5
I0205 06:27:45.038687 12688 net.cpp:106] Creating Layer conv5
I0205 06:27:45.038692 12688 net.cpp:454] conv5 <- conv4
I0205 06:27:45.038702 12688 net.cpp:411] conv5 -> conv5
I0205 06:27:45.038722 12688 net.cpp:150] Setting up conv5
I0205 06:27:45.038730 12688 net.cpp:157] Top shape: 100 8 13 13 (135200)
I0205 06:27:45.038735 12688 net.cpp:165] Memory required for data: 53089600
I0205 06:27:45.038745 12688 layer_factory.hpp:77] Creating layer relu5
I0205 06:27:45.038755 12688 net.cpp:106] Creating Layer relu5
I0205 06:27:45.038761 12688 net.cpp:454] relu5 <- conv5
I0205 06:27:45.038769 12688 net.cpp:397] relu5 -> conv5 (in-place)
I0205 06:27:45.038776 12688 net.cpp:150] Setting up relu5
I0205 06:27:45.038784 12688 net.cpp:157] Top shape: 100 8 13 13 (135200)
I0205 06:27:45.038789 12688 net.cpp:165] Memory required for data: 53630400
I0205 06:27:45.038794 12688 layer_factory.hpp:77] Creating layer pool5
I0205 06:27:45.038803 12688 net.cpp:106] Creating Layer pool5
I0205 06:27:45.038810 12688 net.cpp:454] pool5 <- conv5
I0205 06:27:45.038817 12688 net.cpp:411] pool5 -> pool5
I0205 06:27:45.038836 12688 net.cpp:150] Setting up pool5
I0205 06:27:45.038852 12688 net.cpp:157] Top shape: 100 8 6 6 (28800)
I0205 06:27:45.038857 12688 net.cpp:165] Memory required for data: 53745600
I0205 06:27:45.038863 12688 layer_factory.hpp:77] Creating layer fc6
I0205 06:27:45.038874 12688 net.cpp:106] Creating Layer fc6
I0205 06:27:45.038880 12688 net.cpp:454] fc6 <- pool5
I0205 06:27:45.038888 12688 net.cpp:411] fc6 -> fc6
I0205 06:27:45.039623 12688 net.cpp:150] Setting up fc6
I0205 06:27:45.039636 12688 net.cpp:157] Top shape: 100 256 (25600)
I0205 06:27:45.039641 12688 net.cpp:165] Memory required for data: 53848000
I0205 06:27:45.039650 12688 layer_factory.hpp:77] Creating layer relu6
I0205 06:27:45.039662 12688 net.cpp:106] Creating Layer relu6
I0205 06:27:45.039669 12688 net.cpp:454] relu6 <- fc6
I0205 06:27:45.039677 12688 net.cpp:397] relu6 -> fc6 (in-place)
I0205 06:27:45.039686 12688 net.cpp:150] Setting up relu6
I0205 06:27:45.039693 12688 net.cpp:157] Top shape: 100 256 (25600)
I0205 06:27:45.039698 12688 net.cpp:165] Memory required for data: 53950400
I0205 06:27:45.039703 12688 layer_factory.hpp:77] Creating layer drop6
I0205 06:27:45.039713 12688 net.cpp:106] Creating Layer drop6
I0205 06:27:45.039718 12688 net.cpp:454] drop6 <- fc6
I0205 06:27:45.039726 12688 net.cpp:397] drop6 -> fc6 (in-place)
I0205 06:27:45.039736 12688 net.cpp:150] Setting up drop6
I0205 06:27:45.039742 12688 net.cpp:157] Top shape: 100 256 (25600)
I0205 06:27:45.039749 12688 net.cpp:165] Memory required for data: 54052800
I0205 06:27:45.039755 12688 layer_factory.hpp:77] Creating layer fc7
I0205 06:27:45.039767 12688 net.cpp:106] Creating Layer fc7
I0205 06:27:45.039773 12688 net.cpp:454] fc7 <- fc6
I0205 06:27:45.039783 12688 net.cpp:411] fc7 -> fc7
I0205 06:27:45.040549 12688 net.cpp:150] Setting up fc7
I0205 06:27:45.040562 12688 net.cpp:157] Top shape: 100 256 (25600)
I0205 06:27:45.040567 12688 net.cpp:165] Memory required for data: 54155200
I0205 06:27:45.040576 12688 layer_factory.hpp:77] Creating layer relu7
I0205 06:27:45.040585 12688 net.cpp:106] Creating Layer relu7
I0205 06:27:45.040591 12688 net.cpp:454] relu7 <- fc7
I0205 06:27:45.040602 12688 net.cpp:397] relu7 -> fc7 (in-place)
I0205 06:27:45.040611 12688 net.cpp:150] Setting up relu7
I0205 06:27:45.040617 12688 net.cpp:157] Top shape: 100 256 (25600)
I0205 06:27:45.040623 12688 net.cpp:165] Memory required for data: 54257600
I0205 06:27:45.040628 12688 layer_factory.hpp:77] Creating layer drop7
I0205 06:27:45.040637 12688 net.cpp:106] Creating Layer drop7
I0205 06:27:45.040642 12688 net.cpp:454] drop7 <- fc7
I0205 06:27:45.040648 12688 net.cpp:397] drop7 -> fc7 (in-place)
I0205 06:27:45.040657 12688 net.cpp:150] Setting up drop7
I0205 06:27:45.040666 12688 net.cpp:157] Top shape: 100 256 (25600)
I0205 06:27:45.040671 12688 net.cpp:165] Memory required for data: 54360000
I0205 06:27:45.040678 12688 layer_factory.hpp:77] Creating layer fc8
I0205 06:27:45.040688 12688 net.cpp:106] Creating Layer fc8
I0205 06:27:45.040694 12688 net.cpp:454] fc8 <- fc7
I0205 06:27:45.040704 12688 net.cpp:411] fc8 -> fc8
I0205 06:27:45.040729 12688 net.cpp:150] Setting up fc8
I0205 06:27:45.040740 12688 net.cpp:157] Top shape: 100 2 (200)
I0205 06:27:45.040746 12688 net.cpp:165] Memory required for data: 54360800
I0205 06:27:45.040755 12688 layer_factory.hpp:77] Creating layer fc8_fc8_0_split
I0205 06:27:45.040762 12688 net.cpp:106] Creating Layer fc8_fc8_0_split
I0205 06:27:45.040767 12688 net.cpp:454] fc8_fc8_0_split <- fc8
I0205 06:27:45.040776 12688 net.cpp:411] fc8_fc8_0_split -> fc8_fc8_0_split_0
I0205 06:27:45.040784 12688 net.cpp:411] fc8_fc8_0_split -> fc8_fc8_0_split_1
I0205 06:27:45.040793 12688 net.cpp:150] Setting up fc8_fc8_0_split
I0205 06:27:45.040799 12688 net.cpp:157] Top shape: 100 2 (200)
I0205 06:27:45.040807 12688 net.cpp:157] Top shape: 100 2 (200)
I0205 06:27:45.040810 12688 net.cpp:165] Memory required for data: 54362400
I0205 06:27:45.040817 12688 layer_factory.hpp:77] Creating layer accuracy
I0205 06:27:45.040848 12688 net.cpp:106] Creating Layer accuracy
I0205 06:27:45.040858 12688 net.cpp:454] accuracy <- fc8_fc8_0_split_0
I0205 06:27:45.040873 12688 net.cpp:454] accuracy <- label_data_1_split_0
I0205 06:27:45.040884 12688 net.cpp:411] accuracy -> accuracy
…
