…
I0204 16:28:13.779769  3342 net.cpp:322] The NetState phase (0) differed from the phase (1) specified by a rule in layer accuracy
I0204 16:28:13.780025  3342 net.cpp:49] Initializing net from parameters: 
name: "CaffeNet"
state {
  phase: TRAIN
}
layer {
  name: "data"
  type: "Data"
  top: "data"
  top: "label"
  include {
    phase: TRAIN
  }
  transform_param {
    mirror: true
    crop_size: 227
    mean_file: "/home/pearlstl/proj_cv/master/lmdb/synth1_train_lum_db/mean_file.binaryproto"
  }
  data_param {
    source: "/home/pearlstl/proj_cv/master/lmdb/synth1_train_lum_db"
    batch_size: 100
    backend: LMDB
  }
}
layer {
  name: "conv1"
  type: "Convolution"
  bottom: "data"
  top: "conv1"
  param {
    lr_mult: 1
    decay_mult: 1
  }
  param {
    lr_mult: 2
    decay_mult: 0
  }
  convolution_param {
    num_output: 32
    kernel_size: 11
    stride: 4
    weight_filler {
      type: "xavier"
    }
    bias_filler {
      type: "constant"
      value: 0
    }
  }
}
layer {
  name: "relu1"
  type: "ReLU"
  bottom: "conv1"
  top: "conv1"
}
layer {
  name: "pool1"
  type: "Pooling"
  bottom: "conv1"
  top: "pool1"
  pooling_param {
    pool: MAX
    kernel_size: 3
    stride: 2
  }
}
layer {
  name: "norm1"
  type: "LRN"
  bottom: "pool1"
  top: "norm1"
  lrn_param {
    local_size: 5
    alpha: 0.0001
    beta: 0.75
  }
}
layer {
  name: "conv2"
  type: "Convolution"
  bottom: "norm1"
  top: "conv2"
  param {
    lr_mult: 1
    decay_mult: 1
  }
  param {
    lr_mult: 2
    decay_mult: 0
  }
  convolution_param {
    num_output: 32
    pad: 2
    kernel_size: 5
    group: 2
    weight_filler {
      type: "xavier"
    }
    bias_filler {
      type: "constant"
      value: 1
    }
  }
}
layer {
  name: "relu2"
  type: "ReLU"
  bottom: "conv2"
  top: "conv2"
}
layer {
  name: "pool2"
  type: "Pooling"
  bottom: "conv2"
  top: "pool2"
  pooling_param {
    pool: MAX
    kernel_size: 3
    stride: 2
  }
}
layer {
  name: "norm2"
  type: "LRN"
  bottom: "pool2"
  top: "norm2"
  lrn_param {
    local_size: 5
    alpha: 0.0001
    beta: 0.75
  }
}
layer {
  name: "conv3"
  type: "Convolution"
  bottom: "norm2"
  top: "conv3"
  param {
    lr_mult: 1
    decay_mult: 1
  }
  param {
    lr_mult: 2
    decay_mult: 0
  }
  convolution_param {
    num_output: 32
    pad: 1
    kernel_size: 3
    weight_filler {
      type: "xavier"
    }
    bias_filler {
      type: "constant"
      value: 0
    }
  }
}
layer {
  name: "relu3"
  type: "ReLU"
  bottom: "conv3"
  top: "conv3"
}
layer {
  name: "conv4"
  type: "Convolution"
  bottom: "conv3"
  top: "conv4"
  param {
    lr_mult: 1
    decay_mult: 1
  }
  param {
    lr_mult: 2
    decay_mult: 0
  }
  convolution_param {
    num_output: 32
    pad: 1
    kernel_size: 3
    group: 2
    weight_filler {
      type: "xavier"
    }
    bias_filler {
      type: "constant"
      value: 1
    }
  }
}
layer {
  name: "relu4"
  type: "ReLU"
  bottom: "conv4"
  top: "conv4"
}
layer {
  name: "conv5"
  type: "Convolution"
  bottom: "conv4"
  top: "conv5"
  param {
    lr_mult: 1
    decay_mult: 1
  }
  param {
    lr_mult: 2
    decay_mult: 0
  }
  convolution_param {
    num_output: 16
    pad: 1
    kernel_size: 3
    group: 2
    weight_filler {
      type: "xavier"
    }
    bias_filler {
      type: "constant"
      value: 1
    }
  }
}
layer {
  name: "relu5"
  type: "ReLU"
  bottom: "conv5"
  top: "conv5"
}
layer {
  name: "pool5"
  type: "Pooling"
  bottom: "conv5"
  top: "pool5"
  pooling_param {
    pool: MAX
    kernel_size: 3
    stride: 2
  }
}
layer {
  name: "fc6"
  type: "InnerProduct"
  bottom: "pool5"
  top: "fc6"
  param {
    lr_mult: 1
    decay_mult: 1
  }
  param {
    lr_mult: 2
    decay_mult: 0
  }
  inner_product_param {
    num_output: 256
    weight_filler {
      type: "xavier"
    }
    bias_filler {
      type: "constant"
      value: 1
    }
  }
}
layer {
  name: "relu6"
  type: "ReLU"
  bottom: "fc6"
  top: "fc6"
}
layer {
  name: "drop6"
  type: "Dropout"
  bottom: "fc6"
  top: "fc6"
  dropout_param {
    dropout_ratio: 0.5
  }
}
layer {
  name: "fc7"
  type: "InnerProduct"
  bottom: "fc6"
  top: "fc7"
  param {
    lr_mult: 1
    decay_mult: 1
  }
  param {
    lr_mult: 2
    decay_mult: 0
  }
  inner_product_param {
    num_output: 256
    weight_filler {
      type: "xavier"
    }
    bias_filler {
      type: "constant"
      value: 1
    }
  }
}
layer {
  name: "relu7"
  type: "ReLU"
  bottom: "fc7"
  top: "fc7"
}
layer {
  name: "drop7"
  type: "Dropout"
  bottom: "fc7"
  top: "fc7"
  dropout_param {
    dropout_ratio: 0.5
  }
}
layer {
  name: "fc8"
  type: "InnerProduct"
  bottom: "fc7"
  top: "fc8"
  param {
    lr_mult: 1
    decay_mult: 1
  }
  param {
    lr_mult: 2
    decay_mult: 0
  }
  inner_product_param {
    num_output: 2
    weight_filler {
      type: "xavier"
    }
    bias_filler {
      type: "constant"
      value: 0
    }
  }
}
layer {
  name: "loss"
  type: "SoftmaxWithLoss"
  bottom: "fc8"
  bottom: "label"
  top: "loss"
}
I0204 16:28:13.780176  3342 layer_factory.hpp:77] Creating layer data
I0204 16:28:13.780397  3342 net.cpp:106] Creating Layer data
I0204 16:28:13.780428  3342 net.cpp:411] data -> data
I0204 16:28:13.780503  3342 net.cpp:411] data -> label
I0204 16:28:13.780529  3342 data_transformer.cpp:25] Loading mean file from: /home/pearlstl/proj_cv/master/lmdb/synth1_train_lum_db/mean_file.binaryproto
I0204 16:28:13.780591  3344 db_lmdb.cpp:38] Opened lmdb /home/pearlstl/proj_cv/master/lmdb/synth1_train_lum_db
I0204 16:28:13.781638  3342 data_layer.cpp:41] output data size: 100,1,227,227
I0204 16:28:13.816289  3342 net.cpp:150] Setting up data
I0204 16:28:13.816387  3342 net.cpp:157] Top shape: 100 1 227 227 (5152900)
I0204 16:28:13.816454  3342 net.cpp:157] Top shape: 100 (100)
I0204 16:28:13.816462  3342 net.cpp:165] Memory required for data: 20612000
I0204 16:28:13.816485  3342 layer_factory.hpp:77] Creating layer conv1
I0204 16:28:13.816545  3342 net.cpp:106] Creating Layer conv1
I0204 16:28:13.816555  3342 net.cpp:454] conv1 <- data
I0204 16:28:13.816576  3342 net.cpp:411] conv1 -> conv1
I0204 16:28:13.825255  3342 net.cpp:150] Setting up conv1
I0204 16:28:13.825311  3342 net.cpp:157] Top shape: 100 32 55 55 (9680000)
I0204 16:28:13.825317  3342 net.cpp:165] Memory required for data: 59332000
I0204 16:28:13.825346  3342 layer_factory.hpp:77] Creating layer relu1
I0204 16:28:13.825368  3342 net.cpp:106] Creating Layer relu1
I0204 16:28:13.825378  3342 net.cpp:454] relu1 <- conv1
I0204 16:28:13.825390  3342 net.cpp:397] relu1 -> conv1 (in-place)
I0204 16:28:13.825410  3342 net.cpp:150] Setting up relu1
I0204 16:28:13.825419  3342 net.cpp:157] Top shape: 100 32 55 55 (9680000)
I0204 16:28:13.825425  3342 net.cpp:165] Memory required for data: 98052000
I0204 16:28:13.825435  3342 layer_factory.hpp:77] Creating layer pool1
I0204 16:28:13.825448  3342 net.cpp:106] Creating Layer pool1
I0204 16:28:13.825454  3342 net.cpp:454] pool1 <- conv1
I0204 16:28:13.825464  3342 net.cpp:411] pool1 -> pool1
I0204 16:28:13.825491  3342 net.cpp:150] Setting up pool1
I0204 16:28:13.825502  3342 net.cpp:157] Top shape: 100 32 27 27 (2332800)
I0204 16:28:13.825522  3342 net.cpp:165] Memory required for data: 107383200
I0204 16:28:13.825530  3342 layer_factory.hpp:77] Creating layer norm1
I0204 16:28:13.825570  3342 net.cpp:106] Creating Layer norm1
I0204 16:28:13.825577  3342 net.cpp:454] norm1 <- pool1
I0204 16:28:13.825587  3342 net.cpp:411] norm1 -> norm1
I0204 16:28:13.825749  3342 net.cpp:150] Setting up norm1
I0204 16:28:13.825763  3342 net.cpp:157] Top shape: 100 32 27 27 (2332800)
I0204 16:28:13.825769  3342 net.cpp:165] Memory required for data: 116714400
I0204 16:28:13.825776  3342 layer_factory.hpp:77] Creating layer conv2
I0204 16:28:13.825793  3342 net.cpp:106] Creating Layer conv2
I0204 16:28:13.825800  3342 net.cpp:454] conv2 <- norm1
I0204 16:28:13.825811  3342 net.cpp:411] conv2 -> conv2
I0204 16:28:13.825975  3342 net.cpp:150] Setting up conv2
I0204 16:28:13.825987  3342 net.cpp:157] Top shape: 100 32 27 27 (2332800)
I0204 16:28:13.825992  3342 net.cpp:165] Memory required for data: 126045600
I0204 16:28:13.826006  3342 layer_factory.hpp:77] Creating layer relu2
I0204 16:28:13.826035  3342 net.cpp:106] Creating Layer relu2
I0204 16:28:13.826043  3342 net.cpp:454] relu2 <- conv2
I0204 16:28:13.826063  3342 net.cpp:397] relu2 -> conv2 (in-place)
I0204 16:28:13.826074  3342 net.cpp:150] Setting up relu2
I0204 16:28:13.826083  3342 net.cpp:157] Top shape: 100 32 27 27 (2332800)
I0204 16:28:13.826088  3342 net.cpp:165] Memory required for data: 135376800
I0204 16:28:13.826095  3342 layer_factory.hpp:77] Creating layer pool2
I0204 16:28:13.826109  3342 net.cpp:106] Creating Layer pool2
I0204 16:28:13.826117  3342 net.cpp:454] pool2 <- conv2
I0204 16:28:13.826125  3342 net.cpp:411] pool2 -> pool2
I0204 16:28:13.826138  3342 net.cpp:150] Setting up pool2
I0204 16:28:13.826146  3342 net.cpp:157] Top shape: 100 32 13 13 (540800)
I0204 16:28:13.826151  3342 net.cpp:165] Memory required for data: 137540000
I0204 16:28:13.826158  3342 layer_factory.hpp:77] Creating layer norm2
I0204 16:28:13.826170  3342 net.cpp:106] Creating Layer norm2
I0204 16:28:13.826177  3342 net.cpp:454] norm2 <- pool2
I0204 16:28:13.826189  3342 net.cpp:411] norm2 -> norm2
I0204 16:28:13.826200  3342 net.cpp:150] Setting up norm2
I0204 16:28:13.826206  3342 net.cpp:157] Top shape: 100 32 13 13 (540800)
I0204 16:28:13.826212  3342 net.cpp:165] Memory required for data: 139703200
I0204 16:28:13.826217  3342 layer_factory.hpp:77] Creating layer conv3
I0204 16:28:13.826231  3342 net.cpp:106] Creating Layer conv3
I0204 16:28:13.826236  3342 net.cpp:454] conv3 <- norm2
I0204 16:28:13.826246  3342 net.cpp:411] conv3 -> conv3
I0204 16:28:13.826371  3342 net.cpp:150] Setting up conv3
I0204 16:28:13.826383  3342 net.cpp:157] Top shape: 100 32 13 13 (540800)
I0204 16:28:13.826388  3342 net.cpp:165] Memory required for data: 141866400
I0204 16:28:13.826400  3342 layer_factory.hpp:77] Creating layer relu3
I0204 16:28:13.826411  3342 net.cpp:106] Creating Layer relu3
I0204 16:28:13.826426  3342 net.cpp:454] relu3 <- conv3
I0204 16:28:13.826436  3342 net.cpp:397] relu3 -> conv3 (in-place)
I0204 16:28:13.826444  3342 net.cpp:150] Setting up relu3
I0204 16:28:13.826462  3342 net.cpp:157] Top shape: 100 32 13 13 (540800)
I0204 16:28:13.826468  3342 net.cpp:165] Memory required for data: 144029600
I0204 16:28:13.826474  3342 layer_factory.hpp:77] Creating layer conv4
I0204 16:28:13.826489  3342 net.cpp:106] Creating Layer conv4
I0204 16:28:13.826496  3342 net.cpp:454] conv4 <- conv3
I0204 16:28:13.826508  3342 net.cpp:411] conv4 -> conv4
I0204 16:28:13.826598  3342 net.cpp:150] Setting up conv4
I0204 16:28:13.826608  3342 net.cpp:157] Top shape: 100 32 13 13 (540800)
I0204 16:28:13.826614  3342 net.cpp:165] Memory required for data: 146192800
I0204 16:28:13.826624  3342 layer_factory.hpp:77] Creating layer relu4
I0204 16:28:13.826632  3342 net.cpp:106] Creating Layer relu4
I0204 16:28:13.826639  3342 net.cpp:454] relu4 <- conv4
I0204 16:28:13.826648  3342 net.cpp:397] relu4 -> conv4 (in-place)
I0204 16:28:13.826658  3342 net.cpp:150] Setting up relu4
I0204 16:28:13.826666  3342 net.cpp:157] Top shape: 100 32 13 13 (540800)
I0204 16:28:13.826673  3342 net.cpp:165] Memory required for data: 148356000
I0204 16:28:13.826689  3342 layer_factory.hpp:77] Creating layer conv5
I0204 16:28:13.826712  3342 net.cpp:106] Creating Layer conv5
I0204 16:28:13.826719  3342 net.cpp:454] conv5 <- conv4
I0204 16:28:13.826730  3342 net.cpp:411] conv5 -> conv5
I0204 16:28:13.826802  3342 net.cpp:150] Setting up conv5
I0204 16:28:13.826817  3342 net.cpp:157] Top shape: 100 16 13 13 (270400)
I0204 16:28:13.826824  3342 net.cpp:165] Memory required for data: 149437600
I0204 16:28:13.826838  3342 layer_factory.hpp:77] Creating layer relu5
I0204 16:28:13.826848  3342 net.cpp:106] Creating Layer relu5
I0204 16:28:13.826855  3342 net.cpp:454] relu5 <- conv5
I0204 16:28:13.826869  3342 net.cpp:397] relu5 -> conv5 (in-place)
I0204 16:28:13.826879  3342 net.cpp:150] Setting up relu5
I0204 16:28:13.826889  3342 net.cpp:157] Top shape: 100 16 13 13 (270400)
I0204 16:28:13.826894  3342 net.cpp:165] Memory required for data: 150519200
I0204 16:28:13.826900  3342 layer_factory.hpp:77] Creating layer pool5
I0204 16:28:13.826910  3342 net.cpp:106] Creating Layer pool5
I0204 16:28:13.826917  3342 net.cpp:454] pool5 <- conv5
I0204 16:28:13.826951  3342 net.cpp:411] pool5 -> pool5
I0204 16:28:13.826968  3342 net.cpp:150] Setting up pool5
I0204 16:28:13.826977  3342 net.cpp:157] Top shape: 100 16 6 6 (57600)
I0204 16:28:13.826983  3342 net.cpp:165] Memory required for data: 150749600
I0204 16:28:13.826990  3342 layer_factory.hpp:77] Creating layer fc6
I0204 16:28:13.827009  3342 net.cpp:106] Creating Layer fc6
I0204 16:28:13.827031  3342 net.cpp:454] fc6 <- pool5
I0204 16:28:13.827045  3342 net.cpp:411] fc6 -> fc6
I0204 16:28:13.829094  3342 net.cpp:150] Setting up fc6
I0204 16:28:13.829118  3342 net.cpp:157] Top shape: 100 256 (25600)
I0204 16:28:13.829125  3342 net.cpp:165] Memory required for data: 150852000
I0204 16:28:13.829138  3342 layer_factory.hpp:77] Creating layer relu6
I0204 16:28:13.829154  3342 net.cpp:106] Creating Layer relu6
I0204 16:28:13.829160  3342 net.cpp:454] relu6 <- fc6
I0204 16:28:13.829172  3342 net.cpp:397] relu6 -> fc6 (in-place)
I0204 16:28:13.829185  3342 net.cpp:150] Setting up relu6
I0204 16:28:13.829193  3342 net.cpp:157] Top shape: 100 256 (25600)
I0204 16:28:13.829200  3342 net.cpp:165] Memory required for data: 150954400
I0204 16:28:13.829206  3342 layer_factory.hpp:77] Creating layer drop6
I0204 16:28:13.829218  3342 net.cpp:106] Creating Layer drop6
I0204 16:28:13.829226  3342 net.cpp:454] drop6 <- fc6
I0204 16:28:13.829234  3342 net.cpp:397] drop6 -> fc6 (in-place)
I0204 16:28:13.829259  3342 net.cpp:150] Setting up drop6
I0204 16:28:13.829285  3342 net.cpp:157] Top shape: 100 256 (25600)
I0204 16:28:13.829293  3342 net.cpp:165] Memory required for data: 151056800
I0204 16:28:13.829299  3342 layer_factory.hpp:77] Creating layer fc7
I0204 16:28:13.829313  3342 net.cpp:106] Creating Layer fc7
I0204 16:28:13.829323  3342 net.cpp:454] fc7 <- fc6
I0204 16:28:13.829336  3342 net.cpp:411] fc7 -> fc7
I0204 16:28:13.830238  3342 net.cpp:150] Setting up fc7
I0204 16:28:13.830255  3342 net.cpp:157] Top shape: 100 256 (25600)
I0204 16:28:13.830260  3342 net.cpp:165] Memory required for data: 151159200
I0204 16:28:13.830286  3342 layer_factory.hpp:77] Creating layer relu7
I0204 16:28:13.830299  3342 net.cpp:106] Creating Layer relu7
I0204 16:28:13.830307  3342 net.cpp:454] relu7 <- fc7
I0204 16:28:13.830319  3342 net.cpp:397] relu7 -> fc7 (in-place)
I0204 16:28:13.830330  3342 net.cpp:150] Setting up relu7
I0204 16:28:13.830339  3342 net.cpp:157] Top shape: 100 256 (25600)
I0204 16:28:13.830345  3342 net.cpp:165] Memory required for data: 151261600
I0204 16:28:13.830353  3342 layer_factory.hpp:77] Creating layer drop7
I0204 16:28:13.830363  3342 net.cpp:106] Creating Layer drop7
I0204 16:28:13.830373  3342 net.cpp:454] drop7 <- fc7
I0204 16:28:13.830384  3342 net.cpp:397] drop7 -> fc7 (in-place)
I0204 16:28:13.830396  3342 net.cpp:150] Setting up drop7
I0204 16:28:13.830404  3342 net.cpp:157] Top shape: 100 256 (25600)
I0204 16:28:13.830411  3342 net.cpp:165] Memory required for data: 151364000
I0204 16:28:13.830418  3342 layer_factory.hpp:77] Creating layer fc8
I0204 16:28:13.830440  3342 net.cpp:106] Creating Layer fc8
I0204 16:28:13.830458  3342 net.cpp:454] fc8 <- fc7
I0204 16:28:13.830476  3342 net.cpp:411] fc8 -> fc8
I0204 16:28:13.830503  3342 net.cpp:150] Setting up fc8
I0204 16:28:13.830513  3342 net.cpp:157] Top shape: 100 2 (200)
I0204 16:28:13.830519  3342 net.cpp:165] Memory required for data: 151364800
I0204 16:28:13.830531  3342 layer_factory.hpp:77] Creating layer loss
I0204 16:28:13.830546  3342 net.cpp:106] Creating Layer loss
I0204 16:28:13.830554  3342 net.cpp:454] loss <- fc8
I0204 16:28:13.830561  3342 net.cpp:454] loss <- label
I0204 16:28:13.830574  3342 net.cpp:411] loss -> loss
I0204 16:28:13.830591  3342 layer_factory.hpp:77] Creating layer loss
…
I0204 16:28:13.832082  3342 net.cpp:322] The NetState phase (1) differed from the phase (0) specified by a rule in layer data
I0204 16:28:13.832489  3342 net.cpp:49] Initializing net from parameters: 
name: "CaffeNet"
state {
  phase: TEST
}
layer {
  name: "data"
  type: "Data"
  top: "data"
  top: "label"
  include {
    phase: TEST
  }
  transform_param {
    mirror: false
    crop_size: 227
    mean_file: "/home/pearlstl/proj_cv/master/lmdb/synth1_test_lum_db/mean_file.binaryproto"
  }
  data_param {
    source: "/home/pearlstl/proj_cv/master/lmdb/synth1_test_lum_db"
    batch_size: 100
    backend: LMDB
  }
}
layer {
  name: "conv1"
  type: "Convolution"
  bottom: "data"
  top: "conv1"
  param {
    lr_mult: 1
    decay_mult: 1
  }
  param {
    lr_mult: 2
    decay_mult: 0
  }
  convolution_param {
    num_output: 32
    kernel_size: 11
    stride: 4
    weight_filler {
      type: "xavier"
    }
    bias_filler {
      type: "constant"
      value: 0
    }
  }
}
layer {
  name: "relu1"
  type: "ReLU"
  bottom: "conv1"
  top: "conv1"
}
layer {
  name: "pool1"
  type: "Pooling"
  bottom: "conv1"
  top: "pool1"
  pooling_param {
    pool: MAX
    kernel_size: 3
    stride: 2
  }
}
layer {
  name: "norm1"
  type: "LRN"
  bottom: "pool1"
  top: "norm1"
  lrn_param {
    local_size: 5
    alpha: 0.0001
    beta: 0.75
  }
}
layer {
  name: "conv2"
  type: "Convolution"
  bottom: "norm1"
  top: "conv2"
  param {
    lr_mult: 1
    decay_mult: 1
  }
  param {
    lr_mult: 2
    decay_mult: 0
  }
  convolution_param {
    num_output: 32
    pad: 2
    kernel_size: 5
    group: 2
    weight_filler {
      type: "xavier"
    }
    bias_filler {
      type: "constant"
      value: 1
    }
  }
}
layer {
  name: "relu2"
  type: "ReLU"
  bottom: "conv2"
  top: "conv2"
}
layer {
  name: "pool2"
  type: "Pooling"
  bottom: "conv2"
  top: "pool2"
  pooling_param {
    pool: MAX
    kernel_size: 3
    stride: 2
  }
}
layer {
  name: "norm2"
  type: "LRN"
  bottom: "pool2"
  top: "norm2"
  lrn_param {
    local_size: 5
    alpha: 0.0001
    beta: 0.75
  }
}
layer {
  name: "conv3"
  type: "Convolution"
  bottom: "norm2"
  top: "conv3"
  param {
    lr_mult: 1
    decay_mult: 1
  }
  param {
    lr_mult: 2
    decay_mult: 0
  }
  convolution_param {
    num_output: 32
    pad: 1
    kernel_size: 3
    weight_filler {
      type: "xavier"
    }
    bias_filler {
      type: "constant"
      value: 0
    }
  }
}
layer {
  name: "relu3"
  type: "ReLU"
  bottom: "conv3"
  top: "conv3"
}
layer {
  name: "conv4"
  type: "Convolution"
  bottom: "conv3"
  top: "conv4"
  param {
    lr_mult: 1
    decay_mult: 1
  }
  param {
    lr_mult: 2
    decay_mult: 0
  }
  convolution_param {
    num_output: 32
    pad: 1
    kernel_size: 3
    group: 2
    weight_filler {
      type: "xavier"
    }
    bias_filler {
      type: "constant"
      value: 1
    }
  }
}
layer {
  name: "relu4"
  type: "ReLU"
  bottom: "conv4"
  top: "conv4"
}
layer {
  name: "conv5"
  type: "Convolution"
  bottom: "conv4"
  top: "conv5"
  param {
    lr_mult: 1
    decay_mult: 1
  }
  param {
    lr_mult: 2
    decay_mult: 0
  }
  convolution_param {
    num_output: 16
    pad: 1
    kernel_size: 3
    group: 2
    weight_filler {
      type: "xavier"
    }
    bias_filler {
      type: "constant"
      value: 1
    }
  }
}
layer {
  name: "relu5"
  type: "ReLU"
  bottom: "conv5"
  top: "conv5"
}
layer {
  name: "pool5"
  type: "Pooling"
  bottom: "conv5"
  top: "pool5"
  pooling_param {
    pool: MAX
    kernel_size: 3
    stride: 2
  }
}
layer {
  name: "fc6"
  type: "InnerProduct"
  bottom: "pool5"
  top: "fc6"
  param {
    lr_mult: 1
    decay_mult: 1
  }
  param {
    lr_mult: 2
    decay_mult: 0
  }
  inner_product_param {
    num_output: 256
    weight_filler {
      type: "xavier"
    }
    bias_filler {
      type: "constant"
      value: 1
    }
  }
}
layer {
  name: "relu6"
  type: "ReLU"
  bottom: "fc6"
  top: "fc6"
}
layer {
  name: "drop6"
  type: "Dropout"
  bottom: "fc6"
  top: "fc6"
  dropout_param {
    dropout_ratio: 0.5
  }
}
layer {
  name: "fc7"
  type: "InnerProduct"
  bottom: "fc6"
  top: "fc7"
  param {
    lr_mult: 1
    decay_mult: 1
  }
  param {
    lr_mult: 2
    decay_mult: 0
  }
  inner_product_param {
    num_output: 256
    weight_filler {
      type: "xavier"
    }
    bias_filler {
      type: "constant"
      value: 1
    }
  }
}
layer {
  name: "relu7"
  type: "ReLU"
  bottom: "fc7"
  top: "fc7"
}
layer {
  name: "drop7"
  type: "Dropout"
  bottom: "fc7"
  top: "fc7"
  dropout_param {
    dropout_ratio: 0.5
  }
}
layer {
  name: "fc8"
  type: "InnerProduct"
  bottom: "fc7"
  top: "fc8"
  param {
    lr_mult: 1
    decay_mult: 1
  }
  param {
    lr_mult: 2
    decay_mult: 0
  }
  inner_product_param {
    num_output: 2
    weight_filler {
      type: "xavier"
    }
    bias_filler {
      type: "constant"
      value: 0
    }
  }
}
layer {
  name: "accuracy"
  type: "Accuracy"
  bottom: "fc8"
  bottom: "label"
  top: "accuracy"
  include {
    phase: TEST
  }
}
layer {
  name: "loss"
  type: "SoftmaxWithLoss"
  bottom: "fc8"
  bottom: "label"
  top: "loss"
}
I0204 16:28:13.832731  3342 layer_factory.hpp:77] Creating layer data
I0204 16:28:13.832943  3342 net.cpp:106] Creating Layer data
I0204 16:28:13.832964  3342 net.cpp:411] data -> data
I0204 16:28:13.832983  3342 net.cpp:411] data -> label
I0204 16:28:13.832999  3342 data_transformer.cpp:25] Loading mean file from: /home/pearlstl/proj_cv/master/lmdb/synth1_test_lum_db/mean_file.binaryproto
I0204 16:28:13.834090  3349 db_lmdb.cpp:38] Opened lmdb /home/pearlstl/proj_cv/master/lmdb/synth1_test_lum_db
I0204 16:28:13.834352  3342 data_layer.cpp:41] output data size: 100,1,227,227
I0204 16:28:13.881198  3342 net.cpp:150] Setting up data
I0204 16:28:13.881243  3342 net.cpp:157] Top shape: 100 1 227 227 (5152900)
I0204 16:28:13.881253  3342 net.cpp:157] Top shape: 100 (100)
I0204 16:28:13.881258  3342 net.cpp:165] Memory required for data: 20612000
I0204 16:28:13.881269  3342 layer_factory.hpp:77] Creating layer label_data_1_split
I0204 16:28:13.881290  3342 net.cpp:106] Creating Layer label_data_1_split
I0204 16:28:13.881299  3342 net.cpp:454] label_data_1_split <- label
I0204 16:28:13.881309  3342 net.cpp:411] label_data_1_split -> label_data_1_split_0
I0204 16:28:13.881327  3342 net.cpp:411] label_data_1_split -> label_data_1_split_1
I0204 16:28:13.881340  3342 net.cpp:150] Setting up label_data_1_split
I0204 16:28:13.881348  3342 net.cpp:157] Top shape: 100 (100)
I0204 16:28:13.881356  3342 net.cpp:157] Top shape: 100 (100)
I0204 16:28:13.881361  3342 net.cpp:165] Memory required for data: 20612800
I0204 16:28:13.881366  3342 layer_factory.hpp:77] Creating layer conv1
I0204 16:28:13.881383  3342 net.cpp:106] Creating Layer conv1
I0204 16:28:13.881391  3342 net.cpp:454] conv1 <- data
I0204 16:28:13.881399  3342 net.cpp:411] conv1 -> conv1
I0204 16:28:13.881469  3342 net.cpp:150] Setting up conv1
I0204 16:28:13.881479  3342 net.cpp:157] Top shape: 100 32 55 55 (9680000)
I0204 16:28:13.881484  3342 net.cpp:165] Memory required for data: 59332800
I0204 16:28:13.881499  3342 layer_factory.hpp:77] Creating layer relu1
I0204 16:28:13.881508  3342 net.cpp:106] Creating Layer relu1
I0204 16:28:13.881515  3342 net.cpp:454] relu1 <- conv1
I0204 16:28:13.881523  3342 net.cpp:397] relu1 -> conv1 (in-place)
I0204 16:28:13.881532  3342 net.cpp:150] Setting up relu1
I0204 16:28:13.881541  3342 net.cpp:157] Top shape: 100 32 55 55 (9680000)
I0204 16:28:13.881546  3342 net.cpp:165] Memory required for data: 98052800
I0204 16:28:13.881551  3342 layer_factory.hpp:77] Creating layer pool1
I0204 16:28:13.881562  3342 net.cpp:106] Creating Layer pool1
I0204 16:28:13.881569  3342 net.cpp:454] pool1 <- conv1
I0204 16:28:13.881577  3342 net.cpp:411] pool1 -> pool1
I0204 16:28:13.881590  3342 net.cpp:150] Setting up pool1
I0204 16:28:13.881598  3342 net.cpp:157] Top shape: 100 32 27 27 (2332800)
I0204 16:28:13.881603  3342 net.cpp:165] Memory required for data: 107384000
I0204 16:28:13.881609  3342 layer_factory.hpp:77] Creating layer norm1
I0204 16:28:13.881621  3342 net.cpp:106] Creating Layer norm1
I0204 16:28:13.881628  3342 net.cpp:454] norm1 <- pool1
I0204 16:28:13.881635  3342 net.cpp:411] norm1 -> norm1
I0204 16:28:13.881646  3342 net.cpp:150] Setting up norm1
I0204 16:28:13.881654  3342 net.cpp:157] Top shape: 100 32 27 27 (2332800)
I0204 16:28:13.881659  3342 net.cpp:165] Memory required for data: 116715200
I0204 16:28:13.881664  3342 layer_factory.hpp:77] Creating layer conv2
I0204 16:28:13.881675  3342 net.cpp:106] Creating Layer conv2
I0204 16:28:13.881681  3342 net.cpp:454] conv2 <- norm1
I0204 16:28:13.881691  3342 net.cpp:411] conv2 -> conv2
I0204 16:28:13.881819  3342 net.cpp:150] Setting up conv2
I0204 16:28:13.881827  3342 net.cpp:157] Top shape: 100 32 27 27 (2332800)
I0204 16:28:13.881834  3342 net.cpp:165] Memory required for data: 126046400
I0204 16:28:13.881844  3342 layer_factory.hpp:77] Creating layer relu2
I0204 16:28:13.881853  3342 net.cpp:106] Creating Layer relu2
I0204 16:28:13.881860  3342 net.cpp:454] relu2 <- conv2
I0204 16:28:13.881877  3342 net.cpp:397] relu2 -> conv2 (in-place)
I0204 16:28:13.881897  3342 net.cpp:150] Setting up relu2
I0204 16:28:13.881906  3342 net.cpp:157] Top shape: 100 32 27 27 (2332800)
I0204 16:28:13.881911  3342 net.cpp:165] Memory required for data: 135377600
I0204 16:28:13.881916  3342 layer_factory.hpp:77] Creating layer pool2
I0204 16:28:13.881927  3342 net.cpp:106] Creating Layer pool2
I0204 16:28:13.881933  3342 net.cpp:454] pool2 <- conv2
I0204 16:28:13.881942  3342 net.cpp:411] pool2 -> pool2
I0204 16:28:13.881954  3342 net.cpp:150] Setting up pool2
I0204 16:28:13.881963  3342 net.cpp:157] Top shape: 100 32 13 13 (540800)
I0204 16:28:13.881968  3342 net.cpp:165] Memory required for data: 137540800
I0204 16:28:13.881973  3342 layer_factory.hpp:77] Creating layer norm2
I0204 16:28:13.881983  3342 net.cpp:106] Creating Layer norm2
I0204 16:28:13.881988  3342 net.cpp:454] norm2 <- pool2
I0204 16:28:13.881995  3342 net.cpp:411] norm2 -> norm2
I0204 16:28:13.882004  3342 net.cpp:150] Setting up norm2
I0204 16:28:13.882011  3342 net.cpp:157] Top shape: 100 32 13 13 (540800)
I0204 16:28:13.882016  3342 net.cpp:165] Memory required for data: 139704000
I0204 16:28:13.882022  3342 layer_factory.hpp:77] Creating layer conv3
I0204 16:28:13.882038  3342 net.cpp:106] Creating Layer conv3
I0204 16:28:13.882045  3342 net.cpp:454] conv3 <- norm2
I0204 16:28:13.882055  3342 net.cpp:411] conv3 -> conv3
I0204 16:28:13.882151  3342 net.cpp:150] Setting up conv3
I0204 16:28:13.882159  3342 net.cpp:157] Top shape: 100 32 13 13 (540800)
I0204 16:28:13.882164  3342 net.cpp:165] Memory required for data: 141867200
I0204 16:28:13.882174  3342 layer_factory.hpp:77] Creating layer relu3
I0204 16:28:13.882184  3342 net.cpp:106] Creating Layer relu3
I0204 16:28:13.882189  3342 net.cpp:454] relu3 <- conv3
I0204 16:28:13.882197  3342 net.cpp:397] relu3 -> conv3 (in-place)
I0204 16:28:13.882205  3342 net.cpp:150] Setting up relu3
I0204 16:28:13.882212  3342 net.cpp:157] Top shape: 100 32 13 13 (540800)
I0204 16:28:13.882217  3342 net.cpp:165] Memory required for data: 144030400
I0204 16:28:13.882222  3342 layer_factory.hpp:77] Creating layer conv4
I0204 16:28:13.882233  3342 net.cpp:106] Creating Layer conv4
I0204 16:28:13.882238  3342 net.cpp:454] conv4 <- conv3
I0204 16:28:13.882247  3342 net.cpp:411] conv4 -> conv4
I0204 16:28:13.882305  3342 net.cpp:150] Setting up conv4
I0204 16:28:13.882313  3342 net.cpp:157] Top shape: 100 32 13 13 (540800)
I0204 16:28:13.882318  3342 net.cpp:165] Memory required for data: 146193600
I0204 16:28:13.882325  3342 layer_factory.hpp:77] Creating layer relu4
I0204 16:28:13.882334  3342 net.cpp:106] Creating Layer relu4
I0204 16:28:13.882340  3342 net.cpp:454] relu4 <- conv4
I0204 16:28:13.882349  3342 net.cpp:397] relu4 -> conv4 (in-place)
I0204 16:28:13.882356  3342 net.cpp:150] Setting up relu4
I0204 16:28:13.882364  3342 net.cpp:157] Top shape: 100 32 13 13 (540800)
I0204 16:28:13.882369  3342 net.cpp:165] Memory required for data: 148356800
I0204 16:28:13.882375  3342 layer_factory.hpp:77] Creating layer conv5
I0204 16:28:13.882385  3342 net.cpp:106] Creating Layer conv5
I0204 16:28:13.882390  3342 net.cpp:454] conv5 <- conv4
I0204 16:28:13.882398  3342 net.cpp:411] conv5 -> conv5
I0204 16:28:13.882443  3342 net.cpp:150] Setting up conv5
I0204 16:28:13.882450  3342 net.cpp:157] Top shape: 100 16 13 13 (270400)
I0204 16:28:13.882455  3342 net.cpp:165] Memory required for data: 149438400
I0204 16:28:13.882467  3342 layer_factory.hpp:77] Creating layer relu5
I0204 16:28:13.882475  3342 net.cpp:106] Creating Layer relu5
I0204 16:28:13.882480  3342 net.cpp:454] relu5 <- conv5
I0204 16:28:13.882488  3342 net.cpp:397] relu5 -> conv5 (in-place)
I0204 16:28:13.882496  3342 net.cpp:150] Setting up relu5
I0204 16:28:13.882503  3342 net.cpp:157] Top shape: 100 16 13 13 (270400)
I0204 16:28:13.882508  3342 net.cpp:165] Memory required for data: 150520000
I0204 16:28:13.882513  3342 layer_factory.hpp:77] Creating layer pool5
I0204 16:28:13.882524  3342 net.cpp:106] Creating Layer pool5
I0204 16:28:13.882534  3342 net.cpp:454] pool5 <- conv5
I0204 16:28:13.882549  3342 net.cpp:411] pool5 -> pool5
I0204 16:28:13.882560  3342 net.cpp:150] Setting up pool5
I0204 16:28:13.882566  3342 net.cpp:157] Top shape: 100 16 6 6 (57600)
I0204 16:28:13.882571  3342 net.cpp:165] Memory required for data: 150750400
I0204 16:28:13.882577  3342 layer_factory.hpp:77] Creating layer fc6
I0204 16:28:13.882589  3342 net.cpp:106] Creating Layer fc6
I0204 16:28:13.882594  3342 net.cpp:454] fc6 <- pool5
I0204 16:28:13.882603  3342 net.cpp:411] fc6 -> fc6
I0204 16:28:13.884387  3342 net.cpp:150] Setting up fc6
I0204 16:28:13.884402  3342 net.cpp:157] Top shape: 100 256 (25600)
I0204 16:28:13.884407  3342 net.cpp:165] Memory required for data: 150852800
I0204 16:28:13.884416  3342 layer_factory.hpp:77] Creating layer relu6
I0204 16:28:13.884426  3342 net.cpp:106] Creating Layer relu6
I0204 16:28:13.884434  3342 net.cpp:454] relu6 <- fc6
I0204 16:28:13.884443  3342 net.cpp:397] relu6 -> fc6 (in-place)
I0204 16:28:13.884454  3342 net.cpp:150] Setting up relu6
I0204 16:28:13.884460  3342 net.cpp:157] Top shape: 100 256 (25600)
I0204 16:28:13.884465  3342 net.cpp:165] Memory required for data: 150955200
I0204 16:28:13.884470  3342 layer_factory.hpp:77] Creating layer drop6
I0204 16:28:13.884481  3342 net.cpp:106] Creating Layer drop6
I0204 16:28:13.884487  3342 net.cpp:454] drop6 <- fc6
I0204 16:28:13.884495  3342 net.cpp:397] drop6 -> fc6 (in-place)
I0204 16:28:13.884506  3342 net.cpp:150] Setting up drop6
I0204 16:28:13.884513  3342 net.cpp:157] Top shape: 100 256 (25600)
I0204 16:28:13.884519  3342 net.cpp:165] Memory required for data: 151057600
I0204 16:28:13.884526  3342 layer_factory.hpp:77] Creating layer fc7
I0204 16:28:13.884536  3342 net.cpp:106] Creating Layer fc7
I0204 16:28:13.884542  3342 net.cpp:454] fc7 <- fc6
I0204 16:28:13.884549  3342 net.cpp:411] fc7 -> fc7
I0204 16:28:13.885265  3342 net.cpp:150] Setting up fc7
I0204 16:28:13.885277  3342 net.cpp:157] Top shape: 100 256 (25600)
I0204 16:28:13.885283  3342 net.cpp:165] Memory required for data: 151160000
I0204 16:28:13.885292  3342 layer_factory.hpp:77] Creating layer relu7
I0204 16:28:13.885300  3342 net.cpp:106] Creating Layer relu7
I0204 16:28:13.885306  3342 net.cpp:454] relu7 <- fc7
I0204 16:28:13.885315  3342 net.cpp:397] relu7 -> fc7 (in-place)
I0204 16:28:13.885324  3342 net.cpp:150] Setting up relu7
I0204 16:28:13.885331  3342 net.cpp:157] Top shape: 100 256 (25600)
I0204 16:28:13.885336  3342 net.cpp:165] Memory required for data: 151262400
I0204 16:28:13.885342  3342 layer_factory.hpp:77] Creating layer drop7
I0204 16:28:13.885352  3342 net.cpp:106] Creating Layer drop7
I0204 16:28:13.885359  3342 net.cpp:454] drop7 <- fc7
I0204 16:28:13.885365  3342 net.cpp:397] drop7 -> fc7 (in-place)
I0204 16:28:13.885375  3342 net.cpp:150] Setting up drop7
I0204 16:28:13.885382  3342 net.cpp:157] Top shape: 100 256 (25600)
I0204 16:28:13.885387  3342 net.cpp:165] Memory required for data: 151364800
I0204 16:28:13.885393  3342 layer_factory.hpp:77] Creating layer fc8
I0204 16:28:13.885408  3342 net.cpp:106] Creating Layer fc8
I0204 16:28:13.885414  3342 net.cpp:454] fc8 <- fc7
I0204 16:28:13.885422  3342 net.cpp:411] fc8 -> fc8
I0204 16:28:13.885448  3342 net.cpp:150] Setting up fc8
I0204 16:28:13.885457  3342 net.cpp:157] Top shape: 100 2 (200)
I0204 16:28:13.885465  3342 net.cpp:165] Memory required for data: 151365600
I0204 16:28:13.885473  3342 layer_factory.hpp:77] Creating layer fc8_fc8_0_split
I0204 16:28:13.885484  3342 net.cpp:106] Creating Layer fc8_fc8_0_split
I0204 16:28:13.885490  3342 net.cpp:454] fc8_fc8_0_split <- fc8
I0204 16:28:13.885498  3342 net.cpp:411] fc8_fc8_0_split -> fc8_fc8_0_split_0
I0204 16:28:13.885506  3342 net.cpp:411] fc8_fc8_0_split -> fc8_fc8_0_split_1
I0204 16:28:13.885516  3342 net.cpp:150] Setting up fc8_fc8_0_split
I0204 16:28:13.885525  3342 net.cpp:157] Top shape: 100 2 (200)
I0204 16:28:13.885531  3342 net.cpp:157] Top shape: 100 2 (200)
I0204 16:28:13.885538  3342 net.cpp:165] Memory required for data: 151367200
I0204 16:28:13.885545  3342 layer_factory.hpp:77] Creating layer accuracy
I0204 16:28:13.885576  3342 net.cpp:106] Creating Layer accuracy
I0204 16:28:13.885582  3342 net.cpp:454] accuracy <- fc8_fc8_0_split_0
I0204 16:28:13.885589  3342 net.cpp:454] accuracy <- label_data_1_split_0
I0204 16:28:13.885601  3342 net.cpp:411] accuracy -> accuracy
…
