…
I0204 08:47:10.179527 31877 net.cpp:322] The NetState phase (0) differed from the phase (1) specified by a rule in layer accuracy
I0204 08:47:10.179771 31877 net.cpp:49] Initializing net from parameters: 
name: "CaffeNet"
state {
  phase: TRAIN
}
layer {
  name: "data"
  type: "Data"
  top: "data"
  top: "label"
  include {
    phase: TRAIN
  }
  transform_param {
    mirror: true
    crop_size: 227
    mean_file: "/home/pearlstl/proj_cv/master/lmdb/synth1_train_lum_db/mean_file.binaryproto"
  }
  data_param {
    source: "/home/pearlstl/proj_cv/master/lmdb/synth1_train_lum_db"
    batch_size: 100
    backend: LMDB
  }
}
layer {
  name: "conv1"
  type: "Convolution"
  bottom: "data"
  top: "conv1"
  param {
    lr_mult: 1
    decay_mult: 1
  }
  param {
    lr_mult: 2
    decay_mult: 0
  }
  convolution_param {
    num_output: 32
    kernel_size: 11
    stride: 4
    weight_filler {
      type: "xavier"
    }
    bias_filler {
      type: "constant"
      value: 0
    }
  }
}
layer {
  name: "relu1"
  type: "ReLU"
  bottom: "conv1"
  top: "conv1"
}
layer {
  name: "pool1"
  type: "Pooling"
  bottom: "conv1"
  top: "pool1"
  pooling_param {
    pool: MAX
    kernel_size: 3
    stride: 2
  }
}
layer {
  name: "norm1"
  type: "LRN"
  bottom: "pool1"
  top: "norm1"
  lrn_param {
    local_size: 5
    alpha: 0.0001
    beta: 0.75
  }
}
layer {
  name: "conv2"
  type: "Convolution"
  bottom: "norm1"
  top: "conv2"
  param {
    lr_mult: 1
    decay_mult: 1
  }
  param {
    lr_mult: 2
    decay_mult: 0
  }
  convolution_param {
    num_output: 32
    pad: 2
    kernel_size: 5
    group: 2
    weight_filler {
      type: "xavier"
    }
    bias_filler {
      type: "constant"
      value: 1
    }
  }
}
layer {
  name: "relu2"
  type: "ReLU"
  bottom: "conv2"
  top: "conv2"
}
layer {
  name: "pool2"
  type: "Pooling"
  bottom: "conv2"
  top: "pool2"
  pooling_param {
    pool: MAX
    kernel_size: 3
    stride: 2
  }
}
layer {
  name: "norm2"
  type: "LRN"
  bottom: "pool2"
  top: "norm2"
  lrn_param {
    local_size: 5
    alpha: 0.0001
    beta: 0.75
  }
}
layer {
  name: "conv3"
  type: "Convolution"
  bottom: "norm2"
  top: "conv3"
  param {
    lr_mult: 1
    decay_mult: 1
  }
  param {
    lr_mult: 2
    decay_mult: 0
  }
  convolution_param {
    num_output: 16
    pad: 1
    kernel_size: 3
    weight_filler {
      type: "xavier"
    }
    bias_filler {
      type: "constant"
      value: 0
    }
  }
}
layer {
  name: "relu3"
  type: "ReLU"
  bottom: "conv3"
  top: "conv3"
}
layer {
  name: "conv4"
  type: "Convolution"
  bottom: "conv3"
  top: "conv4"
  param {
    lr_mult: 1
    decay_mult: 1
  }
  param {
    lr_mult: 2
    decay_mult: 0
  }
  convolution_param {
    num_output: 16
    pad: 1
    kernel_size: 3
    group: 2
    weight_filler {
      type: "xavier"
    }
    bias_filler {
      type: "constant"
      value: 1
    }
  }
}
layer {
  name: "relu4"
  type: "ReLU"
  bottom: "conv4"
  top: "conv4"
}
layer {
  name: "conv5"
  type: "Convolution"
  bottom: "conv4"
  top: "conv5"
  param {
    lr_mult: 1
    decay_mult: 1
  }
  param {
    lr_mult: 2
    decay_mult: 0
  }
  convolution_param {
    num_output: 16
    pad: 1
    kernel_size: 3
    group: 2
    weight_filler {
      type: "xavier"
    }
    bias_filler {
      type: "constant"
      value: 1
    }
  }
}
layer {
  name: "relu5"
  type: "ReLU"
  bottom: "conv5"
  top: "conv5"
}
layer {
  name: "pool5"
  type: "Pooling"
  bottom: "conv5"
  top: "pool5"
  pooling_param {
    pool: MAX
    kernel_size: 3
    stride: 2
  }
}
layer {
  name: "fc6"
  type: "InnerProduct"
  bottom: "pool5"
  top: "fc6"
  param {
    lr_mult: 1
    decay_mult: 1
  }
  param {
    lr_mult: 2
    decay_mult: 0
  }
  inner_product_param {
    num_output: 256
    weight_filler {
      type: "xavier"
    }
    bias_filler {
      type: "constant"
      value: 1
    }
  }
}
layer {
  name: "relu6"
  type: "ReLU"
  bottom: "fc6"
  top: "fc6"
}
layer {
  name: "drop6"
  type: "Dropout"
  bottom: "fc6"
  top: "fc6"
  dropout_param {
    dropout_ratio: 0.5
  }
}
layer {
  name: "fc7"
  type: "InnerProduct"
  bottom: "fc6"
  top: "fc7"
  param {
    lr_mult: 1
    decay_mult: 1
  }
  param {
    lr_mult: 2
    decay_mult: 0
  }
  inner_product_param {
    num_output: 256
    weight_filler {
      type: "xavier"
    }
    bias_filler {
      type: "constant"
      value: 1
    }
  }
}
layer {
  name: "relu7"
  type: "ReLU"
  bottom: "fc7"
  top: "fc7"
}
layer {
  name: "drop7"
  type: "Dropout"
  bottom: "fc7"
  top: "fc7"
  dropout_param {
    dropout_ratio: 0.5
  }
}
layer {
  name: "fc8"
  type: "InnerProduct"
  bottom: "fc7"
  top: "fc8"
  param {
    lr_mult: 1
    decay_mult: 1
  }
  param {
    lr_mult: 2
    decay_mult: 0
  }
  inner_product_param {
    num_output: 2
    weight_filler {
      type: "xavier"
    }
    bias_filler {
      type: "constant"
      value: 0
    }
  }
}
layer {
  name: "loss"
  type: "SoftmaxWithLoss"
  bottom: "fc8"
  bottom: "label"
  top: "loss"
}
I0204 08:47:10.179901 31877 layer_factory.hpp:77] Creating layer data
I0204 08:47:10.180112 31877 net.cpp:106] Creating Layer data
I0204 08:47:10.180143 31877 net.cpp:411] data -> data
I0204 08:47:10.180213 31877 net.cpp:411] data -> label
I0204 08:47:10.180238 31877 data_transformer.cpp:25] Loading mean file from: /home/pearlstl/proj_cv/master/lmdb/synth1_train_lum_db/mean_file.binaryproto
I0204 08:47:10.180337 31882 db_lmdb.cpp:38] Opened lmdb /home/pearlstl/proj_cv/master/lmdb/synth1_train_lum_db
I0204 08:47:10.181334 31877 data_layer.cpp:41] output data size: 100,1,227,227
I0204 08:47:10.211645 31877 net.cpp:150] Setting up data
I0204 08:47:10.211725 31877 net.cpp:157] Top shape: 100 1 227 227 (5152900)
I0204 08:47:10.211736 31877 net.cpp:157] Top shape: 100 (100)
I0204 08:47:10.211742 31877 net.cpp:165] Memory required for data: 20612000
I0204 08:47:10.211765 31877 layer_factory.hpp:77] Creating layer conv1
I0204 08:47:10.211792 31877 net.cpp:106] Creating Layer conv1
I0204 08:47:10.211802 31877 net.cpp:454] conv1 <- data
I0204 08:47:10.211824 31877 net.cpp:411] conv1 -> conv1
I0204 08:47:10.211966 31877 net.cpp:150] Setting up conv1
I0204 08:47:10.211979 31877 net.cpp:157] Top shape: 100 32 55 55 (9680000)
I0204 08:47:10.211984 31877 net.cpp:165] Memory required for data: 59332000
I0204 08:47:10.212003 31877 layer_factory.hpp:77] Creating layer relu1
I0204 08:47:10.212015 31877 net.cpp:106] Creating Layer relu1
I0204 08:47:10.212023 31877 net.cpp:454] relu1 <- conv1
I0204 08:47:10.212033 31877 net.cpp:397] relu1 -> conv1 (in-place)
I0204 08:47:10.212046 31877 net.cpp:150] Setting up relu1
I0204 08:47:10.212054 31877 net.cpp:157] Top shape: 100 32 55 55 (9680000)
I0204 08:47:10.212060 31877 net.cpp:165] Memory required for data: 98052000
I0204 08:47:10.212066 31877 layer_factory.hpp:77] Creating layer pool1
I0204 08:47:10.212079 31877 net.cpp:106] Creating Layer pool1
I0204 08:47:10.212083 31877 net.cpp:454] pool1 <- conv1
I0204 08:47:10.212091 31877 net.cpp:411] pool1 -> pool1
I0204 08:47:10.212116 31877 net.cpp:150] Setting up pool1
I0204 08:47:10.212124 31877 net.cpp:157] Top shape: 100 32 27 27 (2332800)
I0204 08:47:10.212131 31877 net.cpp:165] Memory required for data: 107383200
I0204 08:47:10.212142 31877 layer_factory.hpp:77] Creating layer norm1
I0204 08:47:10.212167 31877 net.cpp:106] Creating Layer norm1
I0204 08:47:10.212183 31877 net.cpp:454] norm1 <- pool1
I0204 08:47:10.212193 31877 net.cpp:411] norm1 -> norm1
I0204 08:47:10.212213 31877 net.cpp:150] Setting up norm1
I0204 08:47:10.212220 31877 net.cpp:157] Top shape: 100 32 27 27 (2332800)
I0204 08:47:10.212226 31877 net.cpp:165] Memory required for data: 116714400
I0204 08:47:10.212232 31877 layer_factory.hpp:77] Creating layer conv2
I0204 08:47:10.212244 31877 net.cpp:106] Creating Layer conv2
I0204 08:47:10.212249 31877 net.cpp:454] conv2 <- norm1
I0204 08:47:10.212258 31877 net.cpp:411] conv2 -> conv2
I0204 08:47:10.212390 31877 net.cpp:150] Setting up conv2
I0204 08:47:10.212399 31877 net.cpp:157] Top shape: 100 32 27 27 (2332800)
I0204 08:47:10.212405 31877 net.cpp:165] Memory required for data: 126045600
I0204 08:47:10.212417 31877 layer_factory.hpp:77] Creating layer relu2
I0204 08:47:10.212427 31877 net.cpp:106] Creating Layer relu2
I0204 08:47:10.212433 31877 net.cpp:454] relu2 <- conv2
I0204 08:47:10.212460 31877 net.cpp:397] relu2 -> conv2 (in-place)
I0204 08:47:10.212471 31877 net.cpp:150] Setting up relu2
I0204 08:47:10.212478 31877 net.cpp:157] Top shape: 100 32 27 27 (2332800)
I0204 08:47:10.212483 31877 net.cpp:165] Memory required for data: 135376800
I0204 08:47:10.212489 31877 layer_factory.hpp:77] Creating layer pool2
I0204 08:47:10.212498 31877 net.cpp:106] Creating Layer pool2
I0204 08:47:10.212504 31877 net.cpp:454] pool2 <- conv2
I0204 08:47:10.212512 31877 net.cpp:411] pool2 -> pool2
I0204 08:47:10.212523 31877 net.cpp:150] Setting up pool2
I0204 08:47:10.212530 31877 net.cpp:157] Top shape: 100 32 13 13 (540800)
I0204 08:47:10.212535 31877 net.cpp:165] Memory required for data: 137540000
I0204 08:47:10.212541 31877 layer_factory.hpp:77] Creating layer norm2
I0204 08:47:10.212551 31877 net.cpp:106] Creating Layer norm2
I0204 08:47:10.212558 31877 net.cpp:454] norm2 <- pool2
I0204 08:47:10.212566 31877 net.cpp:411] norm2 -> norm2
I0204 08:47:10.212576 31877 net.cpp:150] Setting up norm2
I0204 08:47:10.212585 31877 net.cpp:157] Top shape: 100 32 13 13 (540800)
I0204 08:47:10.212591 31877 net.cpp:165] Memory required for data: 139703200
I0204 08:47:10.212596 31877 layer_factory.hpp:77] Creating layer conv3
I0204 08:47:10.212607 31877 net.cpp:106] Creating Layer conv3
I0204 08:47:10.212613 31877 net.cpp:454] conv3 <- norm2
I0204 08:47:10.212625 31877 net.cpp:411] conv3 -> conv3
I0204 08:47:10.212689 31877 net.cpp:150] Setting up conv3
I0204 08:47:10.212698 31877 net.cpp:157] Top shape: 100 16 13 13 (270400)
I0204 08:47:10.212704 31877 net.cpp:165] Memory required for data: 140784800
I0204 08:47:10.212716 31877 layer_factory.hpp:77] Creating layer relu3
I0204 08:47:10.212724 31877 net.cpp:106] Creating Layer relu3
I0204 08:47:10.212730 31877 net.cpp:454] relu3 <- conv3
I0204 08:47:10.212738 31877 net.cpp:397] relu3 -> conv3 (in-place)
I0204 08:47:10.212746 31877 net.cpp:150] Setting up relu3
I0204 08:47:10.212754 31877 net.cpp:157] Top shape: 100 16 13 13 (270400)
I0204 08:47:10.212759 31877 net.cpp:165] Memory required for data: 141866400
I0204 08:47:10.212764 31877 layer_factory.hpp:77] Creating layer conv4
I0204 08:47:10.212776 31877 net.cpp:106] Creating Layer conv4
I0204 08:47:10.212782 31877 net.cpp:454] conv4 <- conv3
I0204 08:47:10.212790 31877 net.cpp:411] conv4 -> conv4
I0204 08:47:10.212823 31877 net.cpp:150] Setting up conv4
I0204 08:47:10.212831 31877 net.cpp:157] Top shape: 100 16 13 13 (270400)
I0204 08:47:10.212838 31877 net.cpp:165] Memory required for data: 142948000
I0204 08:47:10.212847 31877 layer_factory.hpp:77] Creating layer relu4
I0204 08:47:10.212854 31877 net.cpp:106] Creating Layer relu4
I0204 08:47:10.212860 31877 net.cpp:454] relu4 <- conv4
I0204 08:47:10.212867 31877 net.cpp:397] relu4 -> conv4 (in-place)
I0204 08:47:10.212875 31877 net.cpp:150] Setting up relu4
I0204 08:47:10.212882 31877 net.cpp:157] Top shape: 100 16 13 13 (270400)
I0204 08:47:10.212887 31877 net.cpp:165] Memory required for data: 144029600
I0204 08:47:10.212893 31877 layer_factory.hpp:77] Creating layer conv5
I0204 08:47:10.212913 31877 net.cpp:106] Creating Layer conv5
I0204 08:47:10.212919 31877 net.cpp:454] conv5 <- conv4
I0204 08:47:10.212929 31877 net.cpp:411] conv5 -> conv5
I0204 08:47:10.212965 31877 net.cpp:150] Setting up conv5
I0204 08:47:10.212975 31877 net.cpp:157] Top shape: 100 16 13 13 (270400)
I0204 08:47:10.212980 31877 net.cpp:165] Memory required for data: 145111200
I0204 08:47:10.212991 31877 layer_factory.hpp:77] Creating layer relu5
I0204 08:47:10.213002 31877 net.cpp:106] Creating Layer relu5
I0204 08:47:10.213007 31877 net.cpp:454] relu5 <- conv5
I0204 08:47:10.213016 31877 net.cpp:397] relu5 -> conv5 (in-place)
I0204 08:47:10.213023 31877 net.cpp:150] Setting up relu5
I0204 08:47:10.213030 31877 net.cpp:157] Top shape: 100 16 13 13 (270400)
I0204 08:47:10.213035 31877 net.cpp:165] Memory required for data: 146192800
I0204 08:47:10.213042 31877 layer_factory.hpp:77] Creating layer pool5
I0204 08:47:10.213049 31877 net.cpp:106] Creating Layer pool5
I0204 08:47:10.213055 31877 net.cpp:454] pool5 <- conv5
I0204 08:47:10.213063 31877 net.cpp:411] pool5 -> pool5
I0204 08:47:10.213073 31877 net.cpp:150] Setting up pool5
I0204 08:47:10.213080 31877 net.cpp:157] Top shape: 100 16 6 6 (57600)
I0204 08:47:10.213085 31877 net.cpp:165] Memory required for data: 146423200
I0204 08:47:10.213091 31877 layer_factory.hpp:77] Creating layer fc6
I0204 08:47:10.213110 31877 net.cpp:106] Creating Layer fc6
I0204 08:47:10.213117 31877 net.cpp:454] fc6 <- pool5
I0204 08:47:10.213125 31877 net.cpp:411] fc6 -> fc6
I0204 08:47:10.214810 31877 net.cpp:150] Setting up fc6
I0204 08:47:10.214840 31877 net.cpp:157] Top shape: 100 256 (25600)
I0204 08:47:10.214846 31877 net.cpp:165] Memory required for data: 146525600
I0204 08:47:10.214857 31877 layer_factory.hpp:77] Creating layer relu6
I0204 08:47:10.214867 31877 net.cpp:106] Creating Layer relu6
I0204 08:47:10.214874 31877 net.cpp:454] relu6 <- fc6
I0204 08:47:10.214887 31877 net.cpp:397] relu6 -> fc6 (in-place)
I0204 08:47:10.214900 31877 net.cpp:150] Setting up relu6
I0204 08:47:10.214906 31877 net.cpp:157] Top shape: 100 256 (25600)
I0204 08:47:10.214913 31877 net.cpp:165] Memory required for data: 146628000
I0204 08:47:10.214920 31877 layer_factory.hpp:77] Creating layer drop6
I0204 08:47:10.214932 31877 net.cpp:106] Creating Layer drop6
I0204 08:47:10.214938 31877 net.cpp:454] drop6 <- fc6
I0204 08:47:10.214948 31877 net.cpp:397] drop6 -> fc6 (in-place)
I0204 08:47:10.214973 31877 net.cpp:150] Setting up drop6
I0204 08:47:10.214982 31877 net.cpp:157] Top shape: 100 256 (25600)
I0204 08:47:10.214987 31877 net.cpp:165] Memory required for data: 146730400
I0204 08:47:10.214994 31877 layer_factory.hpp:77] Creating layer fc7
I0204 08:47:10.215004 31877 net.cpp:106] Creating Layer fc7
I0204 08:47:10.215010 31877 net.cpp:454] fc7 <- fc6
I0204 08:47:10.215021 31877 net.cpp:411] fc7 -> fc7
I0204 08:47:10.215718 31877 net.cpp:150] Setting up fc7
I0204 08:47:10.215734 31877 net.cpp:157] Top shape: 100 256 (25600)
I0204 08:47:10.215739 31877 net.cpp:165] Memory required for data: 146832800
I0204 08:47:10.215749 31877 layer_factory.hpp:77] Creating layer relu7
I0204 08:47:10.215759 31877 net.cpp:106] Creating Layer relu7
I0204 08:47:10.215764 31877 net.cpp:454] relu7 <- fc7
I0204 08:47:10.215777 31877 net.cpp:397] relu7 -> fc7 (in-place)
I0204 08:47:10.215788 31877 net.cpp:150] Setting up relu7
I0204 08:47:10.215795 31877 net.cpp:157] Top shape: 100 256 (25600)
I0204 08:47:10.215801 31877 net.cpp:165] Memory required for data: 146935200
I0204 08:47:10.215809 31877 layer_factory.hpp:77] Creating layer drop7
I0204 08:47:10.215818 31877 net.cpp:106] Creating Layer drop7
I0204 08:47:10.215824 31877 net.cpp:454] drop7 <- fc7
I0204 08:47:10.215834 31877 net.cpp:397] drop7 -> fc7 (in-place)
I0204 08:47:10.215844 31877 net.cpp:150] Setting up drop7
I0204 08:47:10.215852 31877 net.cpp:157] Top shape: 100 256 (25600)
I0204 08:47:10.215857 31877 net.cpp:165] Memory required for data: 147037600
I0204 08:47:10.215863 31877 layer_factory.hpp:77] Creating layer fc8
I0204 08:47:10.215880 31877 net.cpp:106] Creating Layer fc8
I0204 08:47:10.215893 31877 net.cpp:454] fc8 <- fc7
I0204 08:47:10.215903 31877 net.cpp:411] fc8 -> fc8
I0204 08:47:10.215924 31877 net.cpp:150] Setting up fc8
I0204 08:47:10.215932 31877 net.cpp:157] Top shape: 100 2 (200)
I0204 08:47:10.215939 31877 net.cpp:165] Memory required for data: 147038400
I0204 08:47:10.215947 31877 layer_factory.hpp:77] Creating layer loss
I0204 08:47:10.215960 31877 net.cpp:106] Creating Layer loss
I0204 08:47:10.215965 31877 net.cpp:454] loss <- fc8
I0204 08:47:10.215972 31877 net.cpp:454] loss <- label
I0204 08:47:10.215981 31877 net.cpp:411] loss -> loss
I0204 08:47:10.215996 31877 layer_factory.hpp:77] Creating layer loss
…
I0204 08:47:10.217399 31877 net.cpp:322] The NetState phase (1) differed from the phase (0) specified by a rule in layer data
I0204 08:47:10.217792 31877 net.cpp:49] Initializing net from parameters: 
name: "CaffeNet"
state {
  phase: TEST
}
layer {
  name: "data"
  type: "Data"
  top: "data"
  top: "label"
  include {
    phase: TEST
  }
  transform_param {
    mirror: false
    crop_size: 227
    mean_file: "/home/pearlstl/proj_cv/master/lmdb/synth1_test_lum_db/mean_file.binaryproto"
  }
  data_param {
    source: "/home/pearlstl/proj_cv/master/lmdb/synth1_test_lum_db"
    batch_size: 100
    backend: LMDB
  }
}
layer {
  name: "conv1"
  type: "Convolution"
  bottom: "data"
  top: "conv1"
  param {
    lr_mult: 1
    decay_mult: 1
  }
  param {
    lr_mult: 2
    decay_mult: 0
  }
  convolution_param {
    num_output: 32
    kernel_size: 11
    stride: 4
    weight_filler {
      type: "xavier"
    }
    bias_filler {
      type: "constant"
      value: 0
    }
  }
}
layer {
  name: "relu1"
  type: "ReLU"
  bottom: "conv1"
  top: "conv1"
}
layer {
  name: "pool1"
  type: "Pooling"
  bottom: "conv1"
  top: "pool1"
  pooling_param {
    pool: MAX
    kernel_size: 3
    stride: 2
  }
}
layer {
  name: "norm1"
  type: "LRN"
  bottom: "pool1"
  top: "norm1"
  lrn_param {
    local_size: 5
    alpha: 0.0001
    beta: 0.75
  }
}
layer {
  name: "conv2"
  type: "Convolution"
  bottom: "norm1"
  top: "conv2"
  param {
    lr_mult: 1
    decay_mult: 1
  }
  param {
    lr_mult: 2
    decay_mult: 0
  }
  convolution_param {
    num_output: 32
    pad: 2
    kernel_size: 5
    group: 2
    weight_filler {
      type: "xavier"
    }
    bias_filler {
      type: "constant"
      value: 1
    }
  }
}
layer {
  name: "relu2"
  type: "ReLU"
  bottom: "conv2"
  top: "conv2"
}
layer {
  name: "pool2"
  type: "Pooling"
  bottom: "conv2"
  top: "pool2"
  pooling_param {
    pool: MAX
    kernel_size: 3
    stride: 2
  }
}
layer {
  name: "norm2"
  type: "LRN"
  bottom: "pool2"
  top: "norm2"
  lrn_param {
    local_size: 5
    alpha: 0.0001
    beta: 0.75
  }
}
layer {
  name: "conv3"
  type: "Convolution"
  bottom: "norm2"
  top: "conv3"
  param {
    lr_mult: 1
    decay_mult: 1
  }
  param {
    lr_mult: 2
    decay_mult: 0
  }
  convolution_param {
    num_output: 16
    pad: 1
    kernel_size: 3
    weight_filler {
      type: "xavier"
    }
    bias_filler {
      type: "constant"
      value: 0
    }
  }
}
layer {
  name: "relu3"
  type: "ReLU"
  bottom: "conv3"
  top: "conv3"
}
layer {
  name: "conv4"
  type: "Convolution"
  bottom: "conv3"
  top: "conv4"
  param {
    lr_mult: 1
    decay_mult: 1
  }
  param {
    lr_mult: 2
    decay_mult: 0
  }
  convolution_param {
    num_output: 16
    pad: 1
    kernel_size: 3
    group: 2
    weight_filler {
      type: "xavier"
    }
    bias_filler {
      type: "constant"
      value: 1
    }
  }
}
layer {
  name: "relu4"
  type: "ReLU"
  bottom: "conv4"
  top: "conv4"
}
layer {
  name: "conv5"
  type: "Convolution"
  bottom: "conv4"
  top: "conv5"
  param {
    lr_mult: 1
    decay_mult: 1
  }
  param {
    lr_mult: 2
    decay_mult: 0
  }
  convolution_param {
    num_output: 16
    pad: 1
    kernel_size: 3
    group: 2
    weight_filler {
      type: "xavier"
    }
    bias_filler {
      type: "constant"
      value: 1
    }
  }
}
layer {
  name: "relu5"
  type: "ReLU"
  bottom: "conv5"
  top: "conv5"
}
layer {
  name: "pool5"
  type: "Pooling"
  bottom: "conv5"
  top: "pool5"
  pooling_param {
    pool: MAX
    kernel_size: 3
    stride: 2
  }
}
layer {
  name: "fc6"
  type: "InnerProduct"
  bottom: "pool5"
  top: "fc6"
  param {
    lr_mult: 1
    decay_mult: 1
  }
  param {
    lr_mult: 2
    decay_mult: 0
  }
  inner_product_param {
    num_output: 256
    weight_filler {
      type: "xavier"
    }
    bias_filler {
      type: "constant"
      value: 1
    }
  }
}
layer {
  name: "relu6"
  type: "ReLU"
  bottom: "fc6"
  top: "fc6"
}
layer {
  name: "drop6"
  type: "Dropout"
  bottom: "fc6"
  top: "fc6"
  dropout_param {
    dropout_ratio: 0.5
  }
}
layer {
  name: "fc7"
  type: "InnerProduct"
  bottom: "fc6"
  top: "fc7"
  param {
    lr_mult: 1
    decay_mult: 1
  }
  param {
    lr_mult: 2
    decay_mult: 0
  }
  inner_product_param {
    num_output: 256
    weight_filler {
      type: "xavier"
    }
    bias_filler {
      type: "constant"
      value: 1
    }
  }
}
layer {
  name: "relu7"
  type: "ReLU"
  bottom: "fc7"
  top: "fc7"
}
layer {
  name: "drop7"
  type: "Dropout"
  bottom: "fc7"
  top: "fc7"
  dropout_param {
    dropout_ratio: 0.5
  }
}
layer {
  name: "fc8"
  type: "InnerProduct"
  bottom: "fc7"
  top: "fc8"
  param {
    lr_mult: 1
    decay_mult: 1
  }
  param {
    lr_mult: 2
    decay_mult: 0
  }
  inner_product_param {
    num_output: 2
    weight_filler {
      type: "xavier"
    }
    bias_filler {
      type: "constant"
      value: 0
    }
  }
}
layer {
  name: "accuracy"
  type: "Accuracy"
  bottom: "fc8"
  bottom: "label"
  top: "accuracy"
  include {
    phase: TEST
  }
}
layer {
  name: "loss"
  type: "SoftmaxWithLoss"
  bottom: "fc8"
  bottom: "label"
  top: "loss"
}
I0204 08:47:10.218013 31877 layer_factory.hpp:77] Creating layer data
I0204 08:47:10.218219 31877 net.cpp:106] Creating Layer data
I0204 08:47:10.218250 31877 net.cpp:411] data -> data
I0204 08:47:10.218271 31877 net.cpp:411] data -> label
I0204 08:47:10.218286 31877 data_transformer.cpp:25] Loading mean file from: /home/pearlstl/proj_cv/master/lmdb/synth1_test_lum_db/mean_file.binaryproto
I0204 08:47:10.218350 31895 db_lmdb.cpp:38] Opened lmdb /home/pearlstl/proj_cv/master/lmdb/synth1_test_lum_db
I0204 08:47:10.220867 31877 data_layer.cpp:41] output data size: 100,1,227,227
I0204 08:47:10.262984 31877 net.cpp:150] Setting up data
I0204 08:47:10.263036 31877 net.cpp:157] Top shape: 100 1 227 227 (5152900)
I0204 08:47:10.263051 31877 net.cpp:157] Top shape: 100 (100)
I0204 08:47:10.263059 31877 net.cpp:165] Memory required for data: 20612000
I0204 08:47:10.263075 31877 layer_factory.hpp:77] Creating layer label_data_1_split
I0204 08:47:10.263104 31877 net.cpp:106] Creating Layer label_data_1_split
I0204 08:47:10.263125 31877 net.cpp:454] label_data_1_split <- label
I0204 08:47:10.263144 31877 net.cpp:411] label_data_1_split -> label_data_1_split_0
I0204 08:47:10.263167 31877 net.cpp:411] label_data_1_split -> label_data_1_split_1
I0204 08:47:10.263188 31877 net.cpp:150] Setting up label_data_1_split
I0204 08:47:10.263202 31877 net.cpp:157] Top shape: 100 (100)
I0204 08:47:10.263212 31877 net.cpp:157] Top shape: 100 (100)
I0204 08:47:10.263221 31877 net.cpp:165] Memory required for data: 20612800
I0204 08:47:10.263229 31877 layer_factory.hpp:77] Creating layer conv1
I0204 08:47:10.263250 31877 net.cpp:106] Creating Layer conv1
I0204 08:47:10.263259 31877 net.cpp:454] conv1 <- data
I0204 08:47:10.263276 31877 net.cpp:411] conv1 -> conv1
I0204 08:47:10.263388 31877 net.cpp:150] Setting up conv1
I0204 08:47:10.263404 31877 net.cpp:157] Top shape: 100 32 55 55 (9680000)
I0204 08:47:10.263412 31877 net.cpp:165] Memory required for data: 59332800
I0204 08:47:10.263437 31877 layer_factory.hpp:77] Creating layer relu1
I0204 08:47:10.263450 31877 net.cpp:106] Creating Layer relu1
I0204 08:47:10.263459 31877 net.cpp:454] relu1 <- conv1
I0204 08:47:10.263471 31877 net.cpp:397] relu1 -> conv1 (in-place)
I0204 08:47:10.263486 31877 net.cpp:150] Setting up relu1
I0204 08:47:10.263497 31877 net.cpp:157] Top shape: 100 32 55 55 (9680000)
I0204 08:47:10.263509 31877 net.cpp:165] Memory required for data: 98052800
I0204 08:47:10.263516 31877 layer_factory.hpp:77] Creating layer pool1
I0204 08:47:10.263532 31877 net.cpp:106] Creating Layer pool1
I0204 08:47:10.263541 31877 net.cpp:454] pool1 <- conv1
I0204 08:47:10.263553 31877 net.cpp:411] pool1 -> pool1
I0204 08:47:10.263576 31877 net.cpp:150] Setting up pool1
I0204 08:47:10.263587 31877 net.cpp:157] Top shape: 100 32 27 27 (2332800)
I0204 08:47:10.263595 31877 net.cpp:165] Memory required for data: 107384000
I0204 08:47:10.263604 31877 layer_factory.hpp:77] Creating layer norm1
I0204 08:47:10.263619 31877 net.cpp:106] Creating Layer norm1
I0204 08:47:10.263628 31877 net.cpp:454] norm1 <- pool1
I0204 08:47:10.263639 31877 net.cpp:411] norm1 -> norm1
I0204 08:47:10.263658 31877 net.cpp:150] Setting up norm1
I0204 08:47:10.263669 31877 net.cpp:157] Top shape: 100 32 27 27 (2332800)
I0204 08:47:10.263676 31877 net.cpp:165] Memory required for data: 116715200
I0204 08:47:10.263684 31877 layer_factory.hpp:77] Creating layer conv2
I0204 08:47:10.263700 31877 net.cpp:106] Creating Layer conv2
I0204 08:47:10.263708 31877 net.cpp:454] conv2 <- norm1
I0204 08:47:10.263720 31877 net.cpp:411] conv2 -> conv2
I0204 08:47:10.263924 31877 net.cpp:150] Setting up conv2
I0204 08:47:10.263938 31877 net.cpp:157] Top shape: 100 32 27 27 (2332800)
I0204 08:47:10.263945 31877 net.cpp:165] Memory required for data: 126046400
I0204 08:47:10.263968 31877 layer_factory.hpp:77] Creating layer relu2
I0204 08:47:10.263983 31877 net.cpp:106] Creating Layer relu2
I0204 08:47:10.263990 31877 net.cpp:454] relu2 <- conv2
I0204 08:47:10.264003 31877 net.cpp:397] relu2 -> conv2 (in-place)
I0204 08:47:10.264035 31877 net.cpp:150] Setting up relu2
I0204 08:47:10.264050 31877 net.cpp:157] Top shape: 100 32 27 27 (2332800)
I0204 08:47:10.264057 31877 net.cpp:165] Memory required for data: 135377600
I0204 08:47:10.264065 31877 layer_factory.hpp:77] Creating layer pool2
I0204 08:47:10.264080 31877 net.cpp:106] Creating Layer pool2
I0204 08:47:10.264087 31877 net.cpp:454] pool2 <- conv2
I0204 08:47:10.264099 31877 net.cpp:411] pool2 -> pool2
I0204 08:47:10.264127 31877 net.cpp:150] Setting up pool2
I0204 08:47:10.264139 31877 net.cpp:157] Top shape: 100 32 13 13 (540800)
I0204 08:47:10.264147 31877 net.cpp:165] Memory required for data: 137540800
I0204 08:47:10.264155 31877 layer_factory.hpp:77] Creating layer norm2
I0204 08:47:10.264168 31877 net.cpp:106] Creating Layer norm2
I0204 08:47:10.264176 31877 net.cpp:454] norm2 <- pool2
I0204 08:47:10.264188 31877 net.cpp:411] norm2 -> norm2
I0204 08:47:10.264204 31877 net.cpp:150] Setting up norm2
I0204 08:47:10.264215 31877 net.cpp:157] Top shape: 100 32 13 13 (540800)
I0204 08:47:10.264222 31877 net.cpp:165] Memory required for data: 139704000
I0204 08:47:10.264231 31877 layer_factory.hpp:77] Creating layer conv3
I0204 08:47:10.264245 31877 net.cpp:106] Creating Layer conv3
I0204 08:47:10.264253 31877 net.cpp:454] conv3 <- norm2
I0204 08:47:10.264266 31877 net.cpp:411] conv3 -> conv3
I0204 08:47:10.264363 31877 net.cpp:150] Setting up conv3
I0204 08:47:10.264375 31877 net.cpp:157] Top shape: 100 16 13 13 (270400)
I0204 08:47:10.264382 31877 net.cpp:165] Memory required for data: 140785600
I0204 08:47:10.264399 31877 layer_factory.hpp:77] Creating layer relu3
I0204 08:47:10.264410 31877 net.cpp:106] Creating Layer relu3
I0204 08:47:10.264418 31877 net.cpp:454] relu3 <- conv3
I0204 08:47:10.264430 31877 net.cpp:397] relu3 -> conv3 (in-place)
I0204 08:47:10.264446 31877 net.cpp:150] Setting up relu3
I0204 08:47:10.264456 31877 net.cpp:157] Top shape: 100 16 13 13 (270400)
I0204 08:47:10.264464 31877 net.cpp:165] Memory required for data: 141867200
I0204 08:47:10.264472 31877 layer_factory.hpp:77] Creating layer conv4
I0204 08:47:10.264485 31877 net.cpp:106] Creating Layer conv4
I0204 08:47:10.264493 31877 net.cpp:454] conv4 <- conv3
I0204 08:47:10.264505 31877 net.cpp:411] conv4 -> conv4
I0204 08:47:10.264551 31877 net.cpp:150] Setting up conv4
I0204 08:47:10.264562 31877 net.cpp:157] Top shape: 100 16 13 13 (270400)
I0204 08:47:10.264570 31877 net.cpp:165] Memory required for data: 142948800
I0204 08:47:10.264581 31877 layer_factory.hpp:77] Creating layer relu4
I0204 08:47:10.264595 31877 net.cpp:106] Creating Layer relu4
I0204 08:47:10.264605 31877 net.cpp:454] relu4 <- conv4
I0204 08:47:10.264616 31877 net.cpp:397] relu4 -> conv4 (in-place)
I0204 08:47:10.264627 31877 net.cpp:150] Setting up relu4
I0204 08:47:10.264637 31877 net.cpp:157] Top shape: 100 16 13 13 (270400)
I0204 08:47:10.264646 31877 net.cpp:165] Memory required for data: 144030400
I0204 08:47:10.264653 31877 layer_factory.hpp:77] Creating layer conv5
I0204 08:47:10.264669 31877 net.cpp:106] Creating Layer conv5
I0204 08:47:10.264678 31877 net.cpp:454] conv5 <- conv4
I0204 08:47:10.264690 31877 net.cpp:411] conv5 -> conv5
I0204 08:47:10.264734 31877 net.cpp:150] Setting up conv5
I0204 08:47:10.264749 31877 net.cpp:157] Top shape: 100 16 13 13 (270400)
I0204 08:47:10.264756 31877 net.cpp:165] Memory required for data: 145112000
I0204 08:47:10.264772 31877 layer_factory.hpp:77] Creating layer relu5
I0204 08:47:10.264785 31877 net.cpp:106] Creating Layer relu5
I0204 08:47:10.264792 31877 net.cpp:454] relu5 <- conv5
I0204 08:47:10.264803 31877 net.cpp:397] relu5 -> conv5 (in-place)
I0204 08:47:10.264816 31877 net.cpp:150] Setting up relu5
I0204 08:47:10.264828 31877 net.cpp:157] Top shape: 100 16 13 13 (270400)
I0204 08:47:10.264837 31877 net.cpp:165] Memory required for data: 146193600
I0204 08:47:10.264844 31877 layer_factory.hpp:77] Creating layer pool5
I0204 08:47:10.264858 31877 net.cpp:106] Creating Layer pool5
I0204 08:47:10.264866 31877 net.cpp:454] pool5 <- conv5
I0204 08:47:10.264884 31877 net.cpp:411] pool5 -> pool5
I0204 08:47:10.264911 31877 net.cpp:150] Setting up pool5
I0204 08:47:10.264922 31877 net.cpp:157] Top shape: 100 16 6 6 (57600)
I0204 08:47:10.264930 31877 net.cpp:165] Memory required for data: 146424000
I0204 08:47:10.264938 31877 layer_factory.hpp:77] Creating layer fc6
I0204 08:47:10.264953 31877 net.cpp:106] Creating Layer fc6
I0204 08:47:10.264963 31877 net.cpp:454] fc6 <- pool5
I0204 08:47:10.264977 31877 net.cpp:411] fc6 -> fc6
I0204 08:47:10.267838 31877 net.cpp:150] Setting up fc6
I0204 08:47:10.267874 31877 net.cpp:157] Top shape: 100 256 (25600)
I0204 08:47:10.267882 31877 net.cpp:165] Memory required for data: 146526400
I0204 08:47:10.267900 31877 layer_factory.hpp:77] Creating layer relu6
I0204 08:47:10.267920 31877 net.cpp:106] Creating Layer relu6
I0204 08:47:10.267935 31877 net.cpp:454] relu6 <- fc6
I0204 08:47:10.267951 31877 net.cpp:397] relu6 -> fc6 (in-place)
I0204 08:47:10.267967 31877 net.cpp:150] Setting up relu6
I0204 08:47:10.267978 31877 net.cpp:157] Top shape: 100 256 (25600)
I0204 08:47:10.267987 31877 net.cpp:165] Memory required for data: 146628800
I0204 08:47:10.267997 31877 layer_factory.hpp:77] Creating layer drop6
I0204 08:47:10.268013 31877 net.cpp:106] Creating Layer drop6
I0204 08:47:10.268026 31877 net.cpp:454] drop6 <- fc6
I0204 08:47:10.268039 31877 net.cpp:397] drop6 -> fc6 (in-place)
I0204 08:47:10.268059 31877 net.cpp:150] Setting up drop6
I0204 08:47:10.268070 31877 net.cpp:157] Top shape: 100 256 (25600)
I0204 08:47:10.268079 31877 net.cpp:165] Memory required for data: 146731200
I0204 08:47:10.268091 31877 layer_factory.hpp:77] Creating layer fc7
I0204 08:47:10.268108 31877 net.cpp:106] Creating Layer fc7
I0204 08:47:10.268127 31877 net.cpp:454] fc7 <- fc6
I0204 08:47:10.268143 31877 net.cpp:411] fc7 -> fc7
I0204 08:47:10.269515 31877 net.cpp:150] Setting up fc7
I0204 08:47:10.269539 31877 net.cpp:157] Top shape: 100 256 (25600)
I0204 08:47:10.269548 31877 net.cpp:165] Memory required for data: 146833600
I0204 08:47:10.269563 31877 layer_factory.hpp:77] Creating layer relu7
I0204 08:47:10.269577 31877 net.cpp:106] Creating Layer relu7
I0204 08:47:10.269588 31877 net.cpp:454] relu7 <- fc7
I0204 08:47:10.269654 31877 net.cpp:397] relu7 -> fc7 (in-place)
I0204 08:47:10.269670 31877 net.cpp:150] Setting up relu7
I0204 08:47:10.269683 31877 net.cpp:157] Top shape: 100 256 (25600)
I0204 08:47:10.269691 31877 net.cpp:165] Memory required for data: 146936000
I0204 08:47:10.269701 31877 layer_factory.hpp:77] Creating layer drop7
I0204 08:47:10.269718 31877 net.cpp:106] Creating Layer drop7
I0204 08:47:10.269728 31877 net.cpp:454] drop7 <- fc7
I0204 08:47:10.269740 31877 net.cpp:397] drop7 -> fc7 (in-place)
I0204 08:47:10.269759 31877 net.cpp:150] Setting up drop7
I0204 08:47:10.269772 31877 net.cpp:157] Top shape: 100 256 (25600)
I0204 08:47:10.269780 31877 net.cpp:165] Memory required for data: 147038400
I0204 08:47:10.269789 31877 layer_factory.hpp:77] Creating layer fc8
I0204 08:47:10.269807 31877 net.cpp:106] Creating Layer fc8
I0204 08:47:10.269817 31877 net.cpp:454] fc8 <- fc7
I0204 08:47:10.269834 31877 net.cpp:411] fc8 -> fc8
I0204 08:47:10.269882 31877 net.cpp:150] Setting up fc8
I0204 08:47:10.269901 31877 net.cpp:157] Top shape: 100 2 (200)
I0204 08:47:10.269908 31877 net.cpp:165] Memory required for data: 147039200
I0204 08:47:10.269922 31877 layer_factory.hpp:77] Creating layer fc8_fc8_0_split
I0204 08:47:10.269937 31877 net.cpp:106] Creating Layer fc8_fc8_0_split
I0204 08:47:10.269948 31877 net.cpp:454] fc8_fc8_0_split <- fc8
I0204 08:47:10.269964 31877 net.cpp:411] fc8_fc8_0_split -> fc8_fc8_0_split_0
I0204 08:47:10.269979 31877 net.cpp:411] fc8_fc8_0_split -> fc8_fc8_0_split_1
I0204 08:47:10.269995 31877 net.cpp:150] Setting up fc8_fc8_0_split
I0204 08:47:10.270007 31877 net.cpp:157] Top shape: 100 2 (200)
I0204 08:47:10.270022 31877 net.cpp:157] Top shape: 100 2 (200)
I0204 08:47:10.270030 31877 net.cpp:165] Memory required for data: 147040800
I0204 08:47:10.270040 31877 layer_factory.hpp:77] Creating layer accuracy
I0204 08:47:10.270076 31877 net.cpp:106] Creating Layer accuracy
I0204 08:47:10.270102 31877 net.cpp:454] accuracy <- fc8_fc8_0_split_0
I0204 08:47:10.270122 31877 net.cpp:454] accuracy <- label_data_1_split_0
I0204 08:47:10.270143 31877 net.cpp:411] accuracy -> accuracy
…
