…
I0204 08:47:10.586177 31970 net.cpp:322] The NetState phase (0) differed from the phase (1) specified by a rule in layer accuracy
I0204 08:47:10.586422 31970 net.cpp:49] Initializing net from parameters: 
name: "CaffeNet"
state {
  phase: TRAIN
}
layer {
  name: "data"
  type: "Data"
  top: "data"
  top: "label"
  include {
    phase: TRAIN
  }
  transform_param {
    mirror: true
    crop_size: 227
    mean_file: "/home/pearlstl/proj_cv/master/lmdb/synth1_train_lum_db/mean_file.binaryproto"
  }
  data_param {
    source: "/home/pearlstl/proj_cv/master/lmdb/synth1_train_lum_db"
    batch_size: 100
    backend: LMDB
  }
}
layer {
  name: "conv1"
  type: "Convolution"
  bottom: "data"
  top: "conv1"
  param {
    lr_mult: 1
    decay_mult: 1
  }
  param {
    lr_mult: 2
    decay_mult: 0
  }
  convolution_param {
    num_output: 16
    kernel_size: 11
    stride: 4
    weight_filler {
      type: "xavier"
    }
    bias_filler {
      type: "constant"
      value: 0
    }
  }
}
layer {
  name: "relu1"
  type: "ReLU"
  bottom: "conv1"
  top: "conv1"
}
layer {
  name: "pool1"
  type: "Pooling"
  bottom: "conv1"
  top: "pool1"
  pooling_param {
    pool: MAX
    kernel_size: 3
    stride: 2
  }
}
layer {
  name: "norm1"
  type: "LRN"
  bottom: "pool1"
  top: "norm1"
  lrn_param {
    local_size: 5
    alpha: 0.0001
    beta: 0.75
  }
}
layer {
  name: "conv2"
  type: "Convolution"
  bottom: "norm1"
  top: "conv2"
  param {
    lr_mult: 1
    decay_mult: 1
  }
  param {
    lr_mult: 2
    decay_mult: 0
  }
  convolution_param {
    num_output: 8
    pad: 2
    kernel_size: 5
    group: 2
    weight_filler {
      type: "xavier"
    }
    bias_filler {
      type: "constant"
      value: 1
    }
  }
}
layer {
  name: "relu2"
  type: "ReLU"
  bottom: "conv2"
  top: "conv2"
}
layer {
  name: "pool2"
  type: "Pooling"
  bottom: "conv2"
  top: "pool2"
  pooling_param {
    pool: MAX
    kernel_size: 3
    stride: 2
  }
}
layer {
  name: "norm2"
  type: "LRN"
  bottom: "pool2"
  top: "norm2"
  lrn_param {
    local_size: 5
    alpha: 0.0001
    beta: 0.75
  }
}
layer {
  name: "conv3"
  type: "Convolution"
  bottom: "norm2"
  top: "conv3"
  param {
    lr_mult: 1
    decay_mult: 1
  }
  param {
    lr_mult: 2
    decay_mult: 0
  }
  convolution_param {
    num_output: 8
    pad: 1
    kernel_size: 3
    weight_filler {
      type: "xavier"
    }
    bias_filler {
      type: "constant"
      value: 0
    }
  }
}
layer {
  name: "relu3"
  type: "ReLU"
  bottom: "conv3"
  top: "conv3"
}
layer {
  name: "conv4"
  type: "Convolution"
  bottom: "conv3"
  top: "conv4"
  param {
    lr_mult: 1
    decay_mult: 1
  }
  param {
    lr_mult: 2
    decay_mult: 0
  }
  convolution_param {
    num_output: 8
    pad: 1
    kernel_size: 3
    group: 2
    weight_filler {
      type: "xavier"
    }
    bias_filler {
      type: "constant"
      value: 1
    }
  }
}
layer {
  name: "relu4"
  type: "ReLU"
  bottom: "conv4"
  top: "conv4"
}
layer {
  name: "conv5"
  type: "Convolution"
  bottom: "conv4"
  top: "conv5"
  param {
    lr_mult: 1
    decay_mult: 1
  }
  param {
    lr_mult: 2
    decay_mult: 0
  }
  convolution_param {
    num_output: 8
    pad: 1
    kernel_size: 3
    group: 2
    weight_filler {
      type: "xavier"
    }
    bias_filler {
      type: "constant"
      value: 1
    }
  }
}
layer {
  name: "relu5"
  type: "ReLU"
  bottom: "conv5"
  top: "conv5"
}
layer {
  name: "pool5"
  type: "Pooling"
  bottom: "conv5"
  top: "pool5"
  pooling_param {
    pool: MAX
    kernel_size: 3
    stride: 2
  }
}
layer {
  name: "fc6"
  type: "InnerProduct"
  bottom: "pool5"
  top: "fc6"
  param {
    lr_mult: 1
    decay_mult: 1
  }
  param {
    lr_mult: 2
    decay_mult: 0
  }
  inner_product_param {
    num_output: 256
    weight_filler {
      type: "xavier"
    }
    bias_filler {
      type: "constant"
      value: 1
    }
  }
}
layer {
  name: "relu6"
  type: "ReLU"
  bottom: "fc6"
  top: "fc6"
}
layer {
  name: "drop6"
  type: "Dropout"
  bottom: "fc6"
  top: "fc6"
  dropout_param {
    dropout_ratio: 0.5
  }
}
layer {
  name: "fc7"
  type: "InnerProduct"
  bottom: "fc6"
  top: "fc7"
  param {
    lr_mult: 1
    decay_mult: 1
  }
  param {
    lr_mult: 2
    decay_mult: 0
  }
  inner_product_param {
    num_output: 256
    weight_filler {
      type: "xavier"
    }
    bias_filler {
      type: "constant"
      value: 1
    }
  }
}
layer {
  name: "relu7"
  type: "ReLU"
  bottom: "fc7"
  top: "fc7"
}
layer {
  name: "drop7"
  type: "Dropout"
  bottom: "fc7"
  top: "fc7"
  dropout_param {
    dropout_ratio: 0.5
  }
}
layer {
  name: "fc8"
  type: "InnerProduct"
  bottom: "fc7"
  top: "fc8"
  param {
    lr_mult: 1
    decay_mult: 1
  }
  param {
    lr_mult: 2
    decay_mult: 0
  }
  inner_product_param {
    num_output: 2
    weight_filler {
      type: "xavier"
    }
    bias_filler {
      type: "constant"
      value: 0
    }
  }
}
layer {
  name: "loss"
  type: "SoftmaxWithLoss"
  bottom: "fc8"
  bottom: "label"
  top: "loss"
}
I0204 08:47:10.586555 31970 layer_factory.hpp:77] Creating layer data
I0204 08:47:10.586735 31970 net.cpp:106] Creating Layer data
I0204 08:47:10.592950 31970 net.cpp:411] data -> data
I0204 08:47:10.593056 31970 net.cpp:411] data -> label
I0204 08:47:10.593081 31970 data_transformer.cpp:25] Loading mean file from: /home/pearlstl/proj_cv/master/lmdb/synth1_train_lum_db/mean_file.binaryproto
I0204 08:47:10.593214 31983 db_lmdb.cpp:38] Opened lmdb /home/pearlstl/proj_cv/master/lmdb/synth1_train_lum_db
I0204 08:47:10.595990 31970 data_layer.cpp:41] output data size: 100,1,227,227
I0204 08:47:10.657943 31970 net.cpp:150] Setting up data
I0204 08:47:10.657996 31970 net.cpp:157] Top shape: 100 1 227 227 (5152900)
I0204 08:47:10.658004 31970 net.cpp:157] Top shape: 100 (100)
I0204 08:47:10.658010 31970 net.cpp:165] Memory required for data: 20612000
I0204 08:47:10.658030 31970 layer_factory.hpp:77] Creating layer conv1
I0204 08:47:10.658053 31970 net.cpp:106] Creating Layer conv1
I0204 08:47:10.658061 31970 net.cpp:454] conv1 <- data
I0204 08:47:10.658078 31970 net.cpp:411] conv1 -> conv1
I0204 08:47:10.658181 31970 net.cpp:150] Setting up conv1
I0204 08:47:10.658192 31970 net.cpp:157] Top shape: 100 16 55 55 (4840000)
I0204 08:47:10.658197 31970 net.cpp:165] Memory required for data: 39972000
I0204 08:47:10.658212 31970 layer_factory.hpp:77] Creating layer relu1
I0204 08:47:10.658222 31970 net.cpp:106] Creating Layer relu1
I0204 08:47:10.658228 31970 net.cpp:454] relu1 <- conv1
I0204 08:47:10.658236 31970 net.cpp:397] relu1 -> conv1 (in-place)
I0204 08:47:10.658249 31970 net.cpp:150] Setting up relu1
I0204 08:47:10.658257 31970 net.cpp:157] Top shape: 100 16 55 55 (4840000)
I0204 08:47:10.658262 31970 net.cpp:165] Memory required for data: 59332000
I0204 08:47:10.658267 31970 layer_factory.hpp:77] Creating layer pool1
I0204 08:47:10.658277 31970 net.cpp:106] Creating Layer pool1
I0204 08:47:10.658282 31970 net.cpp:454] pool1 <- conv1
I0204 08:47:10.658288 31970 net.cpp:411] pool1 -> pool1
I0204 08:47:10.658308 31970 net.cpp:150] Setting up pool1
I0204 08:47:10.658318 31970 net.cpp:157] Top shape: 100 16 27 27 (1166400)
I0204 08:47:10.658323 31970 net.cpp:165] Memory required for data: 63997600
I0204 08:47:10.658327 31970 layer_factory.hpp:77] Creating layer norm1
I0204 08:47:10.658346 31970 net.cpp:106] Creating Layer norm1
I0204 08:47:10.658360 31970 net.cpp:454] norm1 <- pool1
I0204 08:47:10.658382 31970 net.cpp:411] norm1 -> norm1
I0204 08:47:10.658398 31970 net.cpp:150] Setting up norm1
I0204 08:47:10.658406 31970 net.cpp:157] Top shape: 100 16 27 27 (1166400)
I0204 08:47:10.658411 31970 net.cpp:165] Memory required for data: 68663200
I0204 08:47:10.658416 31970 layer_factory.hpp:77] Creating layer conv2
I0204 08:47:10.658426 31970 net.cpp:106] Creating Layer conv2
I0204 08:47:10.658431 31970 net.cpp:454] conv2 <- norm1
I0204 08:47:10.658439 31970 net.cpp:411] conv2 -> conv2
I0204 08:47:10.658474 31970 net.cpp:150] Setting up conv2
I0204 08:47:10.658481 31970 net.cpp:157] Top shape: 100 8 27 27 (583200)
I0204 08:47:10.658486 31970 net.cpp:165] Memory required for data: 70996000
I0204 08:47:10.658495 31970 layer_factory.hpp:77] Creating layer relu2
I0204 08:47:10.658504 31970 net.cpp:106] Creating Layer relu2
I0204 08:47:10.658509 31970 net.cpp:454] relu2 <- conv2
I0204 08:47:10.658516 31970 net.cpp:397] relu2 -> conv2 (in-place)
I0204 08:47:10.658524 31970 net.cpp:150] Setting up relu2
I0204 08:47:10.658531 31970 net.cpp:157] Top shape: 100 8 27 27 (583200)
I0204 08:47:10.658536 31970 net.cpp:165] Memory required for data: 73328800
I0204 08:47:10.658541 31970 layer_factory.hpp:77] Creating layer pool2
I0204 08:47:10.658550 31970 net.cpp:106] Creating Layer pool2
I0204 08:47:10.658555 31970 net.cpp:454] pool2 <- conv2
I0204 08:47:10.658561 31970 net.cpp:411] pool2 -> pool2
I0204 08:47:10.658571 31970 net.cpp:150] Setting up pool2
I0204 08:47:10.658577 31970 net.cpp:157] Top shape: 100 8 13 13 (135200)
I0204 08:47:10.658581 31970 net.cpp:165] Memory required for data: 73869600
I0204 08:47:10.658586 31970 layer_factory.hpp:77] Creating layer norm2
I0204 08:47:10.658596 31970 net.cpp:106] Creating Layer norm2
I0204 08:47:10.658602 31970 net.cpp:454] norm2 <- pool2
I0204 08:47:10.658609 31970 net.cpp:411] norm2 -> norm2
I0204 08:47:10.658617 31970 net.cpp:150] Setting up norm2
I0204 08:47:10.658623 31970 net.cpp:157] Top shape: 100 8 13 13 (135200)
I0204 08:47:10.658627 31970 net.cpp:165] Memory required for data: 74410400
I0204 08:47:10.658632 31970 layer_factory.hpp:77] Creating layer conv3
I0204 08:47:10.658641 31970 net.cpp:106] Creating Layer conv3
I0204 08:47:10.658646 31970 net.cpp:454] conv3 <- norm2
I0204 08:47:10.658655 31970 net.cpp:411] conv3 -> conv3
I0204 08:47:10.658680 31970 net.cpp:150] Setting up conv3
I0204 08:47:10.658687 31970 net.cpp:157] Top shape: 100 8 13 13 (135200)
I0204 08:47:10.658692 31970 net.cpp:165] Memory required for data: 74951200
I0204 08:47:10.658704 31970 layer_factory.hpp:77] Creating layer relu3
I0204 08:47:10.658711 31970 net.cpp:106] Creating Layer relu3
I0204 08:47:10.658716 31970 net.cpp:454] relu3 <- conv3
I0204 08:47:10.658723 31970 net.cpp:397] relu3 -> conv3 (in-place)
I0204 08:47:10.658733 31970 net.cpp:150] Setting up relu3
I0204 08:47:10.658740 31970 net.cpp:157] Top shape: 100 8 13 13 (135200)
I0204 08:47:10.658746 31970 net.cpp:165] Memory required for data: 75492000
I0204 08:47:10.658751 31970 layer_factory.hpp:77] Creating layer conv4
I0204 08:47:10.658759 31970 net.cpp:106] Creating Layer conv4
I0204 08:47:10.658766 31970 net.cpp:454] conv4 <- conv3
I0204 08:47:10.658773 31970 net.cpp:411] conv4 -> conv4
I0204 08:47:10.658794 31970 net.cpp:150] Setting up conv4
I0204 08:47:10.658803 31970 net.cpp:157] Top shape: 100 8 13 13 (135200)
I0204 08:47:10.658807 31970 net.cpp:165] Memory required for data: 76032800
I0204 08:47:10.658815 31970 layer_factory.hpp:77] Creating layer relu4
I0204 08:47:10.658823 31970 net.cpp:106] Creating Layer relu4
I0204 08:47:10.658828 31970 net.cpp:454] relu4 <- conv4
I0204 08:47:10.658834 31970 net.cpp:397] relu4 -> conv4 (in-place)
I0204 08:47:10.658843 31970 net.cpp:150] Setting up relu4
I0204 08:47:10.658849 31970 net.cpp:157] Top shape: 100 8 13 13 (135200)
I0204 08:47:10.658854 31970 net.cpp:165] Memory required for data: 76573600
I0204 08:47:10.658859 31970 layer_factory.hpp:77] Creating layer conv5
I0204 08:47:10.658874 31970 net.cpp:106] Creating Layer conv5
I0204 08:47:10.658885 31970 net.cpp:454] conv5 <- conv4
I0204 08:47:10.658893 31970 net.cpp:411] conv5 -> conv5
I0204 08:47:10.658912 31970 net.cpp:150] Setting up conv5
I0204 08:47:10.658920 31970 net.cpp:157] Top shape: 100 8 13 13 (135200)
I0204 08:47:10.658923 31970 net.cpp:165] Memory required for data: 77114400
I0204 08:47:10.658936 31970 layer_factory.hpp:77] Creating layer relu5
I0204 08:47:10.658951 31970 net.cpp:106] Creating Layer relu5
I0204 08:47:10.658957 31970 net.cpp:454] relu5 <- conv5
I0204 08:47:10.658964 31970 net.cpp:397] relu5 -> conv5 (in-place)
I0204 08:47:10.658972 31970 net.cpp:150] Setting up relu5
I0204 08:47:10.658978 31970 net.cpp:157] Top shape: 100 8 13 13 (135200)
I0204 08:47:10.658983 31970 net.cpp:165] Memory required for data: 77655200
I0204 08:47:10.658988 31970 layer_factory.hpp:77] Creating layer pool5
I0204 08:47:10.658996 31970 net.cpp:106] Creating Layer pool5
I0204 08:47:10.659003 31970 net.cpp:454] pool5 <- conv5
I0204 08:47:10.659010 31970 net.cpp:411] pool5 -> pool5
I0204 08:47:10.659020 31970 net.cpp:150] Setting up pool5
I0204 08:47:10.659026 31970 net.cpp:157] Top shape: 100 8 6 6 (28800)
I0204 08:47:10.659031 31970 net.cpp:165] Memory required for data: 77770400
I0204 08:47:10.659035 31970 layer_factory.hpp:77] Creating layer fc6
I0204 08:47:10.659049 31970 net.cpp:106] Creating Layer fc6
I0204 08:47:10.659055 31970 net.cpp:454] fc6 <- pool5
I0204 08:47:10.659063 31970 net.cpp:411] fc6 -> fc6
I0204 08:47:10.674768 31970 net.cpp:150] Setting up fc6
I0204 08:47:10.674799 31970 net.cpp:157] Top shape: 100 256 (25600)
I0204 08:47:10.674805 31970 net.cpp:165] Memory required for data: 77872800
I0204 08:47:10.674818 31970 layer_factory.hpp:77] Creating layer relu6
I0204 08:47:10.674829 31970 net.cpp:106] Creating Layer relu6
I0204 08:47:10.674835 31970 net.cpp:454] relu6 <- fc6
I0204 08:47:10.674845 31970 net.cpp:397] relu6 -> fc6 (in-place)
I0204 08:47:10.674857 31970 net.cpp:150] Setting up relu6
I0204 08:47:10.674865 31970 net.cpp:157] Top shape: 100 256 (25600)
I0204 08:47:10.674870 31970 net.cpp:165] Memory required for data: 77975200
I0204 08:47:10.674875 31970 layer_factory.hpp:77] Creating layer drop6
I0204 08:47:10.674885 31970 net.cpp:106] Creating Layer drop6
I0204 08:47:10.674890 31970 net.cpp:454] drop6 <- fc6
I0204 08:47:10.674897 31970 net.cpp:397] drop6 -> fc6 (in-place)
I0204 08:47:10.674916 31970 net.cpp:150] Setting up drop6
I0204 08:47:10.674923 31970 net.cpp:157] Top shape: 100 256 (25600)
I0204 08:47:10.674928 31970 net.cpp:165] Memory required for data: 78077600
I0204 08:47:10.674933 31970 layer_factory.hpp:77] Creating layer fc7
I0204 08:47:10.674953 31970 net.cpp:106] Creating Layer fc7
I0204 08:47:10.674959 31970 net.cpp:454] fc7 <- fc6
I0204 08:47:10.674968 31970 net.cpp:411] fc7 -> fc7
I0204 08:47:10.675575 31970 net.cpp:150] Setting up fc7
I0204 08:47:10.675585 31970 net.cpp:157] Top shape: 100 256 (25600)
I0204 08:47:10.675592 31970 net.cpp:165] Memory required for data: 78180000
I0204 08:47:10.675601 31970 layer_factory.hpp:77] Creating layer relu7
I0204 08:47:10.675609 31970 net.cpp:106] Creating Layer relu7
I0204 08:47:10.675616 31970 net.cpp:454] relu7 <- fc7
I0204 08:47:10.675622 31970 net.cpp:397] relu7 -> fc7 (in-place)
I0204 08:47:10.675631 31970 net.cpp:150] Setting up relu7
I0204 08:47:10.675637 31970 net.cpp:157] Top shape: 100 256 (25600)
I0204 08:47:10.675642 31970 net.cpp:165] Memory required for data: 78282400
I0204 08:47:10.675653 31970 layer_factory.hpp:77] Creating layer drop7
I0204 08:47:10.675664 31970 net.cpp:106] Creating Layer drop7
I0204 08:47:10.675670 31970 net.cpp:454] drop7 <- fc7
I0204 08:47:10.675676 31970 net.cpp:397] drop7 -> fc7 (in-place)
I0204 08:47:10.675688 31970 net.cpp:150] Setting up drop7
I0204 08:47:10.675693 31970 net.cpp:157] Top shape: 100 256 (25600)
I0204 08:47:10.675699 31970 net.cpp:165] Memory required for data: 78384800
I0204 08:47:10.675704 31970 layer_factory.hpp:77] Creating layer fc8
I0204 08:47:10.675714 31970 net.cpp:106] Creating Layer fc8
I0204 08:47:10.675725 31970 net.cpp:454] fc8 <- fc7
I0204 08:47:10.675742 31970 net.cpp:411] fc8 -> fc8
I0204 08:47:10.675871 31970 net.cpp:150] Setting up fc8
I0204 08:47:10.675880 31970 net.cpp:157] Top shape: 100 2 (200)
I0204 08:47:10.675885 31970 net.cpp:165] Memory required for data: 78385600
I0204 08:47:10.675894 31970 layer_factory.hpp:77] Creating layer loss
I0204 08:47:10.675901 31970 net.cpp:106] Creating Layer loss
I0204 08:47:10.675907 31970 net.cpp:454] loss <- fc8
I0204 08:47:10.675914 31970 net.cpp:454] loss <- label
I0204 08:47:10.675923 31970 net.cpp:411] loss -> loss
I0204 08:47:10.675938 31970 layer_factory.hpp:77] Creating layer loss
…
I0204 08:47:10.676940 31970 net.cpp:322] The NetState phase (1) differed from the phase (0) specified by a rule in layer data
I0204 08:47:10.677220 31970 net.cpp:49] Initializing net from parameters: 
name: "CaffeNet"
state {
  phase: TEST
}
layer {
  name: "data"
  type: "Data"
  top: "data"
  top: "label"
  include {
    phase: TEST
  }
  transform_param {
    mirror: false
    crop_size: 227
    mean_file: "/home/pearlstl/proj_cv/master/lmdb/synth1_test_lum_db/mean_file.binaryproto"
  }
  data_param {
    source: "/home/pearlstl/proj_cv/master/lmdb/synth1_test_lum_db"
    batch_size: 100
    backend: LMDB
  }
}
layer {
  name: "conv1"
  type: "Convolution"
  bottom: "data"
  top: "conv1"
  param {
    lr_mult: 1
    decay_mult: 1
  }
  param {
    lr_mult: 2
    decay_mult: 0
  }
  convolution_param {
    num_output: 16
    kernel_size: 11
    stride: 4
    weight_filler {
      type: "xavier"
    }
    bias_filler {
      type: "constant"
      value: 0
    }
  }
}
layer {
  name: "relu1"
  type: "ReLU"
  bottom: "conv1"
  top: "conv1"
}
layer {
  name: "pool1"
  type: "Pooling"
  bottom: "conv1"
  top: "pool1"
  pooling_param {
    pool: MAX
    kernel_size: 3
    stride: 2
  }
}
layer {
  name: "norm1"
  type: "LRN"
  bottom: "pool1"
  top: "norm1"
  lrn_param {
    local_size: 5
    alpha: 0.0001
    beta: 0.75
  }
}
layer {
  name: "conv2"
  type: "Convolution"
  bottom: "norm1"
  top: "conv2"
  param {
    lr_mult: 1
    decay_mult: 1
  }
  param {
    lr_mult: 2
    decay_mult: 0
  }
  convolution_param {
    num_output: 8
    pad: 2
    kernel_size: 5
    group: 2
    weight_filler {
      type: "xavier"
    }
    bias_filler {
      type: "constant"
      value: 1
    }
  }
}
layer {
  name: "relu2"
  type: "ReLU"
  bottom: "conv2"
  top: "conv2"
}
layer {
  name: "pool2"
  type: "Pooling"
  bottom: "conv2"
  top: "pool2"
  pooling_param {
    pool: MAX
    kernel_size: 3
    stride: 2
  }
}
layer {
  name: "norm2"
  type: "LRN"
  bottom: "pool2"
  top: "norm2"
  lrn_param {
    local_size: 5
    alpha: 0.0001
    beta: 0.75
  }
}
layer {
  name: "conv3"
  type: "Convolution"
  bottom: "norm2"
  top: "conv3"
  param {
    lr_mult: 1
    decay_mult: 1
  }
  param {
    lr_mult: 2
    decay_mult: 0
  }
  convolution_param {
    num_output: 8
    pad: 1
    kernel_size: 3
    weight_filler {
      type: "xavier"
    }
    bias_filler {
      type: "constant"
      value: 0
    }
  }
}
layer {
  name: "relu3"
  type: "ReLU"
  bottom: "conv3"
  top: "conv3"
}
layer {
  name: "conv4"
  type: "Convolution"
  bottom: "conv3"
  top: "conv4"
  param {
    lr_mult: 1
    decay_mult: 1
  }
  param {
    lr_mult: 2
    decay_mult: 0
  }
  convolution_param {
    num_output: 8
    pad: 1
    kernel_size: 3
    group: 2
    weight_filler {
      type: "xavier"
    }
    bias_filler {
      type: "constant"
      value: 1
    }
  }
}
layer {
  name: "relu4"
  type: "ReLU"
  bottom: "conv4"
  top: "conv4"
}
layer {
  name: "conv5"
  type: "Convolution"
  bottom: "conv4"
  top: "conv5"
  param {
    lr_mult: 1
    decay_mult: 1
  }
  param {
    lr_mult: 2
    decay_mult: 0
  }
  convolution_param {
    num_output: 8
    pad: 1
    kernel_size: 3
    group: 2
    weight_filler {
      type: "xavier"
    }
    bias_filler {
      type: "constant"
      value: 1
    }
  }
}
layer {
  name: "relu5"
  type: "ReLU"
  bottom: "conv5"
  top: "conv5"
}
layer {
  name: "pool5"
  type: "Pooling"
  bottom: "conv5"
  top: "pool5"
  pooling_param {
    pool: MAX
    kernel_size: 3
    stride: 2
  }
}
layer {
  name: "fc6"
  type: "InnerProduct"
  bottom: "pool5"
  top: "fc6"
  param {
    lr_mult: 1
    decay_mult: 1
  }
  param {
    lr_mult: 2
    decay_mult: 0
  }
  inner_product_param {
    num_output: 256
    weight_filler {
      type: "xavier"
    }
    bias_filler {
      type: "constant"
      value: 1
    }
  }
}
layer {
  name: "relu6"
  type: "ReLU"
  bottom: "fc6"
  top: "fc6"
}
layer {
  name: "drop6"
  type: "Dropout"
  bottom: "fc6"
  top: "fc6"
  dropout_param {
    dropout_ratio: 0.5
  }
}
layer {
  name: "fc7"
  type: "InnerProduct"
  bottom: "fc6"
  top: "fc7"
  param {
    lr_mult: 1
    decay_mult: 1
  }
  param {
    lr_mult: 2
    decay_mult: 0
  }
  inner_product_param {
    num_output: 256
    weight_filler {
      type: "xavier"
    }
    bias_filler {
      type: "constant"
      value: 1
    }
  }
}
layer {
  name: "relu7"
  type: "ReLU"
  bottom: "fc7"
  top: "fc7"
}
layer {
  name: "drop7"
  type: "Dropout"
  bottom: "fc7"
  top: "fc7"
  dropout_param {
    dropout_ratio: 0.5
  }
}
layer {
  name: "fc8"
  type: "InnerProduct"
  bottom: "fc7"
  top: "fc8"
  param {
    lr_mult: 1
    decay_mult: 1
  }
  param {
    lr_mult: 2
    decay_mult: 0
  }
  inner_product_param {
    num_output: 2
    weight_filler {
      type: "xavier"
    }
    bias_filler {
      type: "constant"
      value: 0
    }
  }
}
layer {
  name: "accuracy"
  type: "Accuracy"
  bottom: "fc8"
  bottom: "label"
  top: "accuracy"
  include {
    phase: TEST
  }
}
layer {
  name: "loss"
  type: "SoftmaxWithLoss"
  bottom: "fc8"
  bottom: "label"
  top: "loss"
}
I0204 08:47:10.677366 31970 layer_factory.hpp:77] Creating layer data
I0204 08:47:10.677516 31970 net.cpp:106] Creating Layer data
I0204 08:47:10.677527 31970 net.cpp:411] data -> data
I0204 08:47:10.677541 31970 net.cpp:411] data -> label
I0204 08:47:10.677552 31970 data_transformer.cpp:25] Loading mean file from: /home/pearlstl/proj_cv/master/lmdb/synth1_test_lum_db/mean_file.binaryproto
I0204 08:47:10.685077 31988 db_lmdb.cpp:38] Opened lmdb /home/pearlstl/proj_cv/master/lmdb/synth1_test_lum_db
I0204 08:47:10.685266 31970 data_layer.cpp:41] output data size: 100,1,227,227
I0204 08:47:10.725667 31970 net.cpp:150] Setting up data
I0204 08:47:10.725708 31970 net.cpp:157] Top shape: 100 1 227 227 (5152900)
I0204 08:47:10.725718 31970 net.cpp:157] Top shape: 100 (100)
I0204 08:47:10.725723 31970 net.cpp:165] Memory required for data: 20612000
I0204 08:47:10.725733 31970 layer_factory.hpp:77] Creating layer label_data_1_split
I0204 08:47:10.725750 31970 net.cpp:106] Creating Layer label_data_1_split
I0204 08:47:10.725759 31970 net.cpp:454] label_data_1_split <- label
I0204 08:47:10.725769 31970 net.cpp:411] label_data_1_split -> label_data_1_split_0
I0204 08:47:10.725785 31970 net.cpp:411] label_data_1_split -> label_data_1_split_1
I0204 08:47:10.725797 31970 net.cpp:150] Setting up label_data_1_split
I0204 08:47:10.725805 31970 net.cpp:157] Top shape: 100 (100)
I0204 08:47:10.725811 31970 net.cpp:157] Top shape: 100 (100)
I0204 08:47:10.725816 31970 net.cpp:165] Memory required for data: 20612800
I0204 08:47:10.725821 31970 layer_factory.hpp:77] Creating layer conv1
I0204 08:47:10.725836 31970 net.cpp:106] Creating Layer conv1
I0204 08:47:10.725842 31970 net.cpp:454] conv1 <- data
I0204 08:47:10.725852 31970 net.cpp:411] conv1 -> conv1
I0204 08:47:10.725906 31970 net.cpp:150] Setting up conv1
I0204 08:47:10.725915 31970 net.cpp:157] Top shape: 100 16 55 55 (4840000)
I0204 08:47:10.725935 31970 net.cpp:165] Memory required for data: 39972800
I0204 08:47:10.725952 31970 layer_factory.hpp:77] Creating layer relu1
I0204 08:47:10.726009 31970 net.cpp:106] Creating Layer relu1
I0204 08:47:10.726019 31970 net.cpp:454] relu1 <- conv1
I0204 08:47:10.726027 31970 net.cpp:397] relu1 -> conv1 (in-place)
I0204 08:47:10.726038 31970 net.cpp:150] Setting up relu1
I0204 08:47:10.726047 31970 net.cpp:157] Top shape: 100 16 55 55 (4840000)
I0204 08:47:10.726052 31970 net.cpp:165] Memory required for data: 59332800
I0204 08:47:10.726058 31970 layer_factory.hpp:77] Creating layer pool1
I0204 08:47:10.726069 31970 net.cpp:106] Creating Layer pool1
I0204 08:47:10.726075 31970 net.cpp:454] pool1 <- conv1
I0204 08:47:10.726083 31970 net.cpp:411] pool1 -> pool1
I0204 08:47:10.726096 31970 net.cpp:150] Setting up pool1
I0204 08:47:10.726104 31970 net.cpp:157] Top shape: 100 16 27 27 (1166400)
I0204 08:47:10.726109 31970 net.cpp:165] Memory required for data: 63998400
I0204 08:47:10.726114 31970 layer_factory.hpp:77] Creating layer norm1
I0204 08:47:10.726125 31970 net.cpp:106] Creating Layer norm1
I0204 08:47:10.726131 31970 net.cpp:454] norm1 <- pool1
I0204 08:47:10.726140 31970 net.cpp:411] norm1 -> norm1
I0204 08:47:10.726150 31970 net.cpp:150] Setting up norm1
I0204 08:47:10.726156 31970 net.cpp:157] Top shape: 100 16 27 27 (1166400)
I0204 08:47:10.726161 31970 net.cpp:165] Memory required for data: 68664000
I0204 08:47:10.726167 31970 layer_factory.hpp:77] Creating layer conv2
I0204 08:47:10.726177 31970 net.cpp:106] Creating Layer conv2
I0204 08:47:10.726183 31970 net.cpp:454] conv2 <- norm1
I0204 08:47:10.726191 31970 net.cpp:411] conv2 -> conv2
I0204 08:47:10.726232 31970 net.cpp:150] Setting up conv2
I0204 08:47:10.726239 31970 net.cpp:157] Top shape: 100 8 27 27 (583200)
I0204 08:47:10.726249 31970 net.cpp:165] Memory required for data: 70996800
I0204 08:47:10.726260 31970 layer_factory.hpp:77] Creating layer relu2
I0204 08:47:10.726270 31970 net.cpp:106] Creating Layer relu2
I0204 08:47:10.726276 31970 net.cpp:454] relu2 <- conv2
I0204 08:47:10.726284 31970 net.cpp:397] relu2 -> conv2 (in-place)
I0204 08:47:10.726301 31970 net.cpp:150] Setting up relu2
I0204 08:47:10.726318 31970 net.cpp:157] Top shape: 100 8 27 27 (583200)
I0204 08:47:10.726323 31970 net.cpp:165] Memory required for data: 73329600
I0204 08:47:10.726330 31970 layer_factory.hpp:77] Creating layer pool2
I0204 08:47:10.726341 31970 net.cpp:106] Creating Layer pool2
I0204 08:47:10.726346 31970 net.cpp:454] pool2 <- conv2
I0204 08:47:10.726354 31970 net.cpp:411] pool2 -> pool2
I0204 08:47:10.726366 31970 net.cpp:150] Setting up pool2
I0204 08:47:10.726372 31970 net.cpp:157] Top shape: 100 8 13 13 (135200)
I0204 08:47:10.726377 31970 net.cpp:165] Memory required for data: 73870400
I0204 08:47:10.726383 31970 layer_factory.hpp:77] Creating layer norm2
I0204 08:47:10.726392 31970 net.cpp:106] Creating Layer norm2
I0204 08:47:10.726398 31970 net.cpp:454] norm2 <- pool2
I0204 08:47:10.726407 31970 net.cpp:411] norm2 -> norm2
I0204 08:47:10.726415 31970 net.cpp:150] Setting up norm2
I0204 08:47:10.726423 31970 net.cpp:157] Top shape: 100 8 13 13 (135200)
I0204 08:47:10.726428 31970 net.cpp:165] Memory required for data: 74411200
I0204 08:47:10.726433 31970 layer_factory.hpp:77] Creating layer conv3
I0204 08:47:10.726443 31970 net.cpp:106] Creating Layer conv3
I0204 08:47:10.726447 31970 net.cpp:454] conv3 <- norm2
I0204 08:47:10.726455 31970 net.cpp:411] conv3 -> conv3
I0204 08:47:10.726482 31970 net.cpp:150] Setting up conv3
I0204 08:47:10.726490 31970 net.cpp:157] Top shape: 100 8 13 13 (135200)
I0204 08:47:10.726495 31970 net.cpp:165] Memory required for data: 74952000
I0204 08:47:10.726505 31970 layer_factory.hpp:77] Creating layer relu3
I0204 08:47:10.726513 31970 net.cpp:106] Creating Layer relu3
I0204 08:47:10.726518 31970 net.cpp:454] relu3 <- conv3
I0204 08:47:10.726526 31970 net.cpp:397] relu3 -> conv3 (in-place)
I0204 08:47:10.726536 31970 net.cpp:150] Setting up relu3
I0204 08:47:10.726542 31970 net.cpp:157] Top shape: 100 8 13 13 (135200)
I0204 08:47:10.726547 31970 net.cpp:165] Memory required for data: 75492800
I0204 08:47:10.726552 31970 layer_factory.hpp:77] Creating layer conv4
I0204 08:47:10.726562 31970 net.cpp:106] Creating Layer conv4
I0204 08:47:10.726567 31970 net.cpp:454] conv4 <- conv3
I0204 08:47:10.726577 31970 net.cpp:411] conv4 -> conv4
I0204 08:47:10.726598 31970 net.cpp:150] Setting up conv4
I0204 08:47:10.726606 31970 net.cpp:157] Top shape: 100 8 13 13 (135200)
I0204 08:47:10.726611 31970 net.cpp:165] Memory required for data: 76033600
I0204 08:47:10.726619 31970 layer_factory.hpp:77] Creating layer relu4
I0204 08:47:10.726626 31970 net.cpp:106] Creating Layer relu4
I0204 08:47:10.726631 31970 net.cpp:454] relu4 <- conv4
I0204 08:47:10.726639 31970 net.cpp:397] relu4 -> conv4 (in-place)
I0204 08:47:10.726646 31970 net.cpp:150] Setting up relu4
I0204 08:47:10.726654 31970 net.cpp:157] Top shape: 100 8 13 13 (135200)
I0204 08:47:10.726658 31970 net.cpp:165] Memory required for data: 76574400
I0204 08:47:10.726663 31970 layer_factory.hpp:77] Creating layer conv5
I0204 08:47:10.726675 31970 net.cpp:106] Creating Layer conv5
I0204 08:47:10.726680 31970 net.cpp:454] conv5 <- conv4
I0204 08:47:10.726688 31970 net.cpp:411] conv5 -> conv5
I0204 08:47:10.726711 31970 net.cpp:150] Setting up conv5
I0204 08:47:10.726717 31970 net.cpp:157] Top shape: 100 8 13 13 (135200)
I0204 08:47:10.726722 31970 net.cpp:165] Memory required for data: 77115200
I0204 08:47:10.726732 31970 layer_factory.hpp:77] Creating layer relu5
I0204 08:47:10.726742 31970 net.cpp:106] Creating Layer relu5
I0204 08:47:10.726747 31970 net.cpp:454] relu5 <- conv5
I0204 08:47:10.726754 31970 net.cpp:397] relu5 -> conv5 (in-place)
I0204 08:47:10.726763 31970 net.cpp:150] Setting up relu5
I0204 08:47:10.726768 31970 net.cpp:157] Top shape: 100 8 13 13 (135200)
I0204 08:47:10.726773 31970 net.cpp:165] Memory required for data: 77656000
I0204 08:47:10.726778 31970 layer_factory.hpp:77] Creating layer pool5
I0204 08:47:10.726788 31970 net.cpp:106] Creating Layer pool5
I0204 08:47:10.726794 31970 net.cpp:454] pool5 <- conv5
I0204 08:47:10.726801 31970 net.cpp:411] pool5 -> pool5
I0204 08:47:10.726817 31970 net.cpp:150] Setting up pool5
I0204 08:47:10.726830 31970 net.cpp:157] Top shape: 100 8 6 6 (28800)
I0204 08:47:10.726835 31970 net.cpp:165] Memory required for data: 77771200
I0204 08:47:10.726840 31970 layer_factory.hpp:77] Creating layer fc6
I0204 08:47:10.726850 31970 net.cpp:106] Creating Layer fc6
I0204 08:47:10.726855 31970 net.cpp:454] fc6 <- pool5
I0204 08:47:10.726863 31970 net.cpp:411] fc6 -> fc6
I0204 08:47:10.727567 31970 net.cpp:150] Setting up fc6
I0204 08:47:10.727581 31970 net.cpp:157] Top shape: 100 256 (25600)
I0204 08:47:10.727586 31970 net.cpp:165] Memory required for data: 77873600
I0204 08:47:10.727594 31970 layer_factory.hpp:77] Creating layer relu6
I0204 08:47:10.727602 31970 net.cpp:106] Creating Layer relu6
I0204 08:47:10.727607 31970 net.cpp:454] relu6 <- fc6
I0204 08:47:10.727617 31970 net.cpp:397] relu6 -> fc6 (in-place)
I0204 08:47:10.727627 31970 net.cpp:150] Setting up relu6
I0204 08:47:10.727632 31970 net.cpp:157] Top shape: 100 256 (25600)
I0204 08:47:10.727638 31970 net.cpp:165] Memory required for data: 77976000
I0204 08:47:10.727643 31970 layer_factory.hpp:77] Creating layer drop6
I0204 08:47:10.727653 31970 net.cpp:106] Creating Layer drop6
I0204 08:47:10.727659 31970 net.cpp:454] drop6 <- fc6
I0204 08:47:10.727666 31970 net.cpp:397] drop6 -> fc6 (in-place)
I0204 08:47:10.727677 31970 net.cpp:150] Setting up drop6
I0204 08:47:10.727684 31970 net.cpp:157] Top shape: 100 256 (25600)
I0204 08:47:10.727689 31970 net.cpp:165] Memory required for data: 78078400
I0204 08:47:10.727694 31970 layer_factory.hpp:77] Creating layer fc7
I0204 08:47:10.727705 31970 net.cpp:106] Creating Layer fc7
I0204 08:47:10.727710 31970 net.cpp:454] fc7 <- fc6
I0204 08:47:10.727720 31970 net.cpp:411] fc7 -> fc7
I0204 08:47:10.728420 31970 net.cpp:150] Setting up fc7
I0204 08:47:10.728431 31970 net.cpp:157] Top shape: 100 256 (25600)
I0204 08:47:10.728437 31970 net.cpp:165] Memory required for data: 78180800
I0204 08:47:10.728446 31970 layer_factory.hpp:77] Creating layer relu7
I0204 08:47:10.728456 31970 net.cpp:106] Creating Layer relu7
I0204 08:47:10.728461 31970 net.cpp:454] relu7 <- fc7
I0204 08:47:10.728468 31970 net.cpp:397] relu7 -> fc7 (in-place)
I0204 08:47:10.728477 31970 net.cpp:150] Setting up relu7
I0204 08:47:10.728483 31970 net.cpp:157] Top shape: 100 256 (25600)
I0204 08:47:10.728488 31970 net.cpp:165] Memory required for data: 78283200
I0204 08:47:10.728495 31970 layer_factory.hpp:77] Creating layer drop7
I0204 08:47:10.728505 31970 net.cpp:106] Creating Layer drop7
I0204 08:47:10.728512 31970 net.cpp:454] drop7 <- fc7
I0204 08:47:10.728518 31970 net.cpp:397] drop7 -> fc7 (in-place)
I0204 08:47:10.728528 31970 net.cpp:150] Setting up drop7
I0204 08:47:10.728533 31970 net.cpp:157] Top shape: 100 256 (25600)
I0204 08:47:10.728538 31970 net.cpp:165] Memory required for data: 78385600
I0204 08:47:10.728543 31970 layer_factory.hpp:77] Creating layer fc8
I0204 08:47:10.728552 31970 net.cpp:106] Creating Layer fc8
I0204 08:47:10.728557 31970 net.cpp:454] fc8 <- fc7
I0204 08:47:10.728566 31970 net.cpp:411] fc8 -> fc8
I0204 08:47:10.728595 31970 net.cpp:150] Setting up fc8
I0204 08:47:10.728601 31970 net.cpp:157] Top shape: 100 2 (200)
I0204 08:47:10.728606 31970 net.cpp:165] Memory required for data: 78386400
I0204 08:47:10.728615 31970 layer_factory.hpp:77] Creating layer fc8_fc8_0_split
I0204 08:47:10.728624 31970 net.cpp:106] Creating Layer fc8_fc8_0_split
I0204 08:47:10.728629 31970 net.cpp:454] fc8_fc8_0_split <- fc8
I0204 08:47:10.728636 31970 net.cpp:411] fc8_fc8_0_split -> fc8_fc8_0_split_0
I0204 08:47:10.728646 31970 net.cpp:411] fc8_fc8_0_split -> fc8_fc8_0_split_1
I0204 08:47:10.728655 31970 net.cpp:150] Setting up fc8_fc8_0_split
I0204 08:47:10.728662 31970 net.cpp:157] Top shape: 100 2 (200)
I0204 08:47:10.728668 31970 net.cpp:157] Top shape: 100 2 (200)
I0204 08:47:10.728673 31970 net.cpp:165] Memory required for data: 78388000
I0204 08:47:10.728678 31970 layer_factory.hpp:77] Creating layer accuracy
I0204 08:47:10.728691 31970 net.cpp:106] Creating Layer accuracy
I0204 08:47:10.728701 31970 net.cpp:454] accuracy <- fc8_fc8_0_split_0
I0204 08:47:10.728715 31970 net.cpp:454] accuracy <- label_data_1_split_0
I0204 08:47:10.728724 31970 net.cpp:411] accuracy -> accuracy
…
