…
I0205 01:48:44.459808 11255 net.cpp:322] The NetState phase (0) differed from the phase (1) specified by a rule in layer accuracy
I0205 01:48:44.460067 11255 net.cpp:49] Initializing net from parameters: 
name: "CaffeNet"
state {
  phase: TRAIN
}
layer {
  name: "data"
  type: "Data"
  top: "data"
  top: "label"
  include {
    phase: TRAIN
  }
  transform_param {
    mirror: true
    crop_size: 227
    mean_file: "/home/pearlstl/proj_cv/master/lmdb/synth1_train_lum_db/mean_file.binaryproto"
  }
  data_param {
    source: "/home/pearlstl/proj_cv/master/lmdb/synth1_train_lum_db"
    batch_size: 100
    backend: LMDB
  }
}
layer {
  name: "conv1"
  type: "Convolution"
  bottom: "data"
  top: "conv1"
  param {
    lr_mult: 1
    decay_mult: 1
  }
  param {
    lr_mult: 2
    decay_mult: 0
  }
  convolution_param {
    num_output: 32
    kernel_size: 11
    stride: 4
    weight_filler {
      type: "xavier"
    }
    bias_filler {
      type: "constant"
      value: 0
    }
  }
}
layer {
  name: "relu1"
  type: "ReLU"
  bottom: "conv1"
  top: "conv1"
}
layer {
  name: "pool1"
  type: "Pooling"
  bottom: "conv1"
  top: "pool1"
  pooling_param {
    pool: MAX
    kernel_size: 3
    stride: 2
  }
}
layer {
  name: "norm1"
  type: "LRN"
  bottom: "pool1"
  top: "norm1"
  lrn_param {
    local_size: 5
    alpha: 0.0001
    beta: 0.75
  }
}
layer {
  name: "conv2"
  type: "Convolution"
  bottom: "norm1"
  top: "conv2"
  param {
    lr_mult: 1
    decay_mult: 1
  }
  param {
    lr_mult: 2
    decay_mult: 0
  }
  convolution_param {
    num_output: 32
    pad: 2
    kernel_size: 5
    group: 2
    weight_filler {
      type: "xavier"
    }
    bias_filler {
      type: "constant"
      value: 1
    }
  }
}
layer {
  name: "relu2"
  type: "ReLU"
  bottom: "conv2"
  top: "conv2"
}
layer {
  name: "pool2"
  type: "Pooling"
  bottom: "conv2"
  top: "pool2"
  pooling_param {
    pool: MAX
    kernel_size: 3
    stride: 2
  }
}
layer {
  name: "norm2"
  type: "LRN"
  bottom: "pool2"
  top: "norm2"
  lrn_param {
    local_size: 5
    alpha: 0.0001
    beta: 0.75
  }
}
layer {
  name: "conv3"
  type: "Convolution"
  bottom: "norm2"
  top: "conv3"
  param {
    lr_mult: 1
    decay_mult: 1
  }
  param {
    lr_mult: 2
    decay_mult: 0
  }
  convolution_param {
    num_output: 32
    pad: 1
    kernel_size: 3
    weight_filler {
      type: "xavier"
    }
    bias_filler {
      type: "constant"
      value: 0
    }
  }
}
layer {
  name: "relu3"
  type: "ReLU"
  bottom: "conv3"
  top: "conv3"
}
layer {
  name: "conv4"
  type: "Convolution"
  bottom: "conv3"
  top: "conv4"
  param {
    lr_mult: 1
    decay_mult: 1
  }
  param {
    lr_mult: 2
    decay_mult: 0
  }
  convolution_param {
    num_output: 32
    pad: 1
    kernel_size: 3
    group: 2
    weight_filler {
      type: "xavier"
    }
    bias_filler {
      type: "constant"
      value: 1
    }
  }
}
layer {
  name: "relu4"
  type: "ReLU"
  bottom: "conv4"
  top: "conv4"
}
layer {
  name: "conv5"
  type: "Convolution"
  bottom: "conv4"
  top: "conv5"
  param {
    lr_mult: 1
    decay_mult: 1
  }
  param {
    lr_mult: 2
    decay_mult: 0
  }
  convolution_param {
    num_output: 16
    pad: 1
    kernel_size: 3
    group: 2
    weight_filler {
      type: "xavier"
    }
    bias_filler {
      type: "constant"
      value: 1
    }
  }
}
layer {
  name: "relu5"
  type: "ReLU"
  bottom: "conv5"
  top: "conv5"
}
layer {
  name: "pool5"
  type: "Pooling"
  bottom: "conv5"
  top: "pool5"
  pooling_param {
    pool: MAX
    kernel_size: 3
    stride: 2
  }
}
layer {
  name: "fc6"
  type: "InnerProduct"
  bottom: "pool5"
  top: "fc6"
  param {
    lr_mult: 1
    decay_mult: 1
  }
  param {
    lr_mult: 2
    decay_mult: 0
  }
  inner_product_param {
    num_output: 256
    weight_filler {
      type: "xavier"
    }
    bias_filler {
      type: "constant"
      value: 1
    }
  }
}
layer {
  name: "relu6"
  type: "ReLU"
  bottom: "fc6"
  top: "fc6"
}
layer {
  name: "drop6"
  type: "Dropout"
  bottom: "fc6"
  top: "fc6"
  dropout_param {
    dropout_ratio: 0.5
  }
}
layer {
  name: "fc7"
  type: "InnerProduct"
  bottom: "fc6"
  top: "fc7"
  param {
    lr_mult: 1
    decay_mult: 1
  }
  param {
    lr_mult: 2
    decay_mult: 0
  }
  inner_product_param {
    num_output: 256
    weight_filler {
      type: "xavier"
    }
    bias_filler {
      type: "constant"
      value: 1
    }
  }
}
layer {
  name: "relu7"
  type: "ReLU"
  bottom: "fc7"
  top: "fc7"
}
layer {
  name: "drop7"
  type: "Dropout"
  bottom: "fc7"
  top: "fc7"
  dropout_param {
    dropout_ratio: 0.5
  }
}
layer {
  name: "fc8"
  type: "InnerProduct"
  bottom: "fc7"
  top: "fc8"
  param {
    lr_mult: 1
    decay_mult: 1
  }
  param {
    lr_mult: 2
    decay_mult: 0
  }
  inner_product_param {
    num_output: 2
    weight_filler {
      type: "xavier"
    }
    bias_filler {
      type: "constant"
      value: 0
    }
  }
}
layer {
  name: "loss"
  type: "SoftmaxWithLoss"
  bottom: "fc8"
  bottom: "label"
  top: "loss"
}
I0205 01:48:44.460209 11255 layer_factory.hpp:77] Creating layer data
I0205 01:48:44.460389 11255 net.cpp:106] Creating Layer data
I0205 01:48:44.460408 11255 net.cpp:411] data -> data
I0205 01:48:44.460500 11255 net.cpp:411] data -> label
I0205 01:48:44.460525 11255 data_transformer.cpp:25] Loading mean file from: /home/pearlstl/proj_cv/master/lmdb/synth1_train_lum_db/mean_file.binaryproto
I0205 01:48:44.460677 11256 db_lmdb.cpp:38] Opened lmdb /home/pearlstl/proj_cv/master/lmdb/synth1_train_lum_db
I0205 01:48:44.461578 11255 data_layer.cpp:41] output data size: 100,1,227,227
I0205 01:48:44.497599 11255 net.cpp:150] Setting up data
I0205 01:48:44.497678 11255 net.cpp:157] Top shape: 100 1 227 227 (5152900)
I0205 01:48:44.497689 11255 net.cpp:157] Top shape: 100 (100)
I0205 01:48:44.497697 11255 net.cpp:165] Memory required for data: 20612000
I0205 01:48:44.497715 11255 layer_factory.hpp:77] Creating layer conv1
I0205 01:48:44.497740 11255 net.cpp:106] Creating Layer conv1
I0205 01:48:44.497750 11255 net.cpp:454] conv1 <- data
I0205 01:48:44.497771 11255 net.cpp:411] conv1 -> conv1
I0205 01:48:44.497925 11255 net.cpp:150] Setting up conv1
I0205 01:48:44.497939 11255 net.cpp:157] Top shape: 100 32 55 55 (9680000)
I0205 01:48:44.497944 11255 net.cpp:165] Memory required for data: 59332000
I0205 01:48:44.497969 11255 layer_factory.hpp:77] Creating layer relu1
I0205 01:48:44.497983 11255 net.cpp:106] Creating Layer relu1
I0205 01:48:44.497989 11255 net.cpp:454] relu1 <- conv1
I0205 01:48:44.497997 11255 net.cpp:397] relu1 -> conv1 (in-place)
I0205 01:48:44.498010 11255 net.cpp:150] Setting up relu1
I0205 01:48:44.498018 11255 net.cpp:157] Top shape: 100 32 55 55 (9680000)
I0205 01:48:44.498023 11255 net.cpp:165] Memory required for data: 98052000
I0205 01:48:44.498029 11255 layer_factory.hpp:77] Creating layer pool1
I0205 01:48:44.498039 11255 net.cpp:106] Creating Layer pool1
I0205 01:48:44.498045 11255 net.cpp:454] pool1 <- conv1
I0205 01:48:44.498054 11255 net.cpp:411] pool1 -> pool1
I0205 01:48:44.498078 11255 net.cpp:150] Setting up pool1
I0205 01:48:44.498086 11255 net.cpp:157] Top shape: 100 32 27 27 (2332800)
I0205 01:48:44.498092 11255 net.cpp:165] Memory required for data: 107383200
I0205 01:48:44.498100 11255 layer_factory.hpp:77] Creating layer norm1
I0205 01:48:44.498131 11255 net.cpp:106] Creating Layer norm1
I0205 01:48:44.498137 11255 net.cpp:454] norm1 <- pool1
I0205 01:48:44.498147 11255 net.cpp:411] norm1 -> norm1
I0205 01:48:44.498163 11255 net.cpp:150] Setting up norm1
I0205 01:48:44.498172 11255 net.cpp:157] Top shape: 100 32 27 27 (2332800)
I0205 01:48:44.498178 11255 net.cpp:165] Memory required for data: 116714400
I0205 01:48:44.498183 11255 layer_factory.hpp:77] Creating layer conv2
I0205 01:48:44.498194 11255 net.cpp:106] Creating Layer conv2
I0205 01:48:44.498199 11255 net.cpp:454] conv2 <- norm1
I0205 01:48:44.498209 11255 net.cpp:411] conv2 -> conv2
I0205 01:48:44.498342 11255 net.cpp:150] Setting up conv2
I0205 01:48:44.498350 11255 net.cpp:157] Top shape: 100 32 27 27 (2332800)
I0205 01:48:44.498356 11255 net.cpp:165] Memory required for data: 126045600
I0205 01:48:44.498368 11255 layer_factory.hpp:77] Creating layer relu2
I0205 01:48:44.498378 11255 net.cpp:106] Creating Layer relu2
I0205 01:48:44.498384 11255 net.cpp:454] relu2 <- conv2
I0205 01:48:44.498392 11255 net.cpp:397] relu2 -> conv2 (in-place)
I0205 01:48:44.498401 11255 net.cpp:150] Setting up relu2
I0205 01:48:44.498407 11255 net.cpp:157] Top shape: 100 32 27 27 (2332800)
I0205 01:48:44.498412 11255 net.cpp:165] Memory required for data: 135376800
I0205 01:48:44.498419 11255 layer_factory.hpp:77] Creating layer pool2
I0205 01:48:44.498433 11255 net.cpp:106] Creating Layer pool2
I0205 01:48:44.498438 11255 net.cpp:454] pool2 <- conv2
I0205 01:48:44.498446 11255 net.cpp:411] pool2 -> pool2
I0205 01:48:44.498457 11255 net.cpp:150] Setting up pool2
I0205 01:48:44.498464 11255 net.cpp:157] Top shape: 100 32 13 13 (540800)
I0205 01:48:44.498469 11255 net.cpp:165] Memory required for data: 137540000
I0205 01:48:44.498476 11255 layer_factory.hpp:77] Creating layer norm2
I0205 01:48:44.498486 11255 net.cpp:106] Creating Layer norm2
I0205 01:48:44.498492 11255 net.cpp:454] norm2 <- pool2
I0205 01:48:44.498503 11255 net.cpp:411] norm2 -> norm2
I0205 01:48:44.498513 11255 net.cpp:150] Setting up norm2
I0205 01:48:44.498520 11255 net.cpp:157] Top shape: 100 32 13 13 (540800)
I0205 01:48:44.498525 11255 net.cpp:165] Memory required for data: 139703200
I0205 01:48:44.498530 11255 layer_factory.hpp:77] Creating layer conv3
I0205 01:48:44.498541 11255 net.cpp:106] Creating Layer conv3
I0205 01:48:44.498546 11255 net.cpp:454] conv3 <- norm2
I0205 01:48:44.498554 11255 net.cpp:411] conv3 -> conv3
I0205 01:48:44.498666 11255 net.cpp:150] Setting up conv3
I0205 01:48:44.498675 11255 net.cpp:157] Top shape: 100 32 13 13 (540800)
I0205 01:48:44.498680 11255 net.cpp:165] Memory required for data: 141866400
I0205 01:48:44.498692 11255 layer_factory.hpp:77] Creating layer relu3
I0205 01:48:44.498703 11255 net.cpp:106] Creating Layer relu3
I0205 01:48:44.498708 11255 net.cpp:454] relu3 <- conv3
I0205 01:48:44.498715 11255 net.cpp:397] relu3 -> conv3 (in-place)
I0205 01:48:44.498723 11255 net.cpp:150] Setting up relu3
I0205 01:48:44.498730 11255 net.cpp:157] Top shape: 100 32 13 13 (540800)
I0205 01:48:44.498735 11255 net.cpp:165] Memory required for data: 144029600
I0205 01:48:44.498740 11255 layer_factory.hpp:77] Creating layer conv4
I0205 01:48:44.498754 11255 net.cpp:106] Creating Layer conv4
I0205 01:48:44.498760 11255 net.cpp:454] conv4 <- conv3
I0205 01:48:44.498775 11255 net.cpp:411] conv4 -> conv4
I0205 01:48:44.498843 11255 net.cpp:150] Setting up conv4
I0205 01:48:44.498852 11255 net.cpp:157] Top shape: 100 32 13 13 (540800)
I0205 01:48:44.498857 11255 net.cpp:165] Memory required for data: 146192800
I0205 01:48:44.498864 11255 layer_factory.hpp:77] Creating layer relu4
I0205 01:48:44.498872 11255 net.cpp:106] Creating Layer relu4
I0205 01:48:44.498880 11255 net.cpp:454] relu4 <- conv4
I0205 01:48:44.498888 11255 net.cpp:397] relu4 -> conv4 (in-place)
I0205 01:48:44.498896 11255 net.cpp:150] Setting up relu4
I0205 01:48:44.498903 11255 net.cpp:157] Top shape: 100 32 13 13 (540800)
I0205 01:48:44.498908 11255 net.cpp:165] Memory required for data: 148356000
I0205 01:48:44.498917 11255 layer_factory.hpp:77] Creating layer conv5
I0205 01:48:44.498936 11255 net.cpp:106] Creating Layer conv5
I0205 01:48:44.498942 11255 net.cpp:454] conv5 <- conv4
I0205 01:48:44.498950 11255 net.cpp:411] conv5 -> conv5
I0205 01:48:44.499003 11255 net.cpp:150] Setting up conv5
I0205 01:48:44.499014 11255 net.cpp:157] Top shape: 100 16 13 13 (270400)
I0205 01:48:44.499019 11255 net.cpp:165] Memory required for data: 149437600
I0205 01:48:44.499030 11255 layer_factory.hpp:77] Creating layer relu5
I0205 01:48:44.499039 11255 net.cpp:106] Creating Layer relu5
I0205 01:48:44.499044 11255 net.cpp:454] relu5 <- conv5
I0205 01:48:44.499054 11255 net.cpp:397] relu5 -> conv5 (in-place)
I0205 01:48:44.499063 11255 net.cpp:150] Setting up relu5
I0205 01:48:44.499069 11255 net.cpp:157] Top shape: 100 16 13 13 (270400)
I0205 01:48:44.499076 11255 net.cpp:165] Memory required for data: 150519200
I0205 01:48:44.499083 11255 layer_factory.hpp:77] Creating layer pool5
I0205 01:48:44.499090 11255 net.cpp:106] Creating Layer pool5
I0205 01:48:44.499095 11255 net.cpp:454] pool5 <- conv5
I0205 01:48:44.499105 11255 net.cpp:411] pool5 -> pool5
I0205 01:48:44.499116 11255 net.cpp:150] Setting up pool5
I0205 01:48:44.499124 11255 net.cpp:157] Top shape: 100 16 6 6 (57600)
I0205 01:48:44.499128 11255 net.cpp:165] Memory required for data: 150749600
I0205 01:48:44.499133 11255 layer_factory.hpp:77] Creating layer fc6
I0205 01:48:44.499150 11255 net.cpp:106] Creating Layer fc6
I0205 01:48:44.499157 11255 net.cpp:454] fc6 <- pool5
I0205 01:48:44.499167 11255 net.cpp:411] fc6 -> fc6
I0205 01:48:44.500748 11255 net.cpp:150] Setting up fc6
I0205 01:48:44.500762 11255 net.cpp:157] Top shape: 100 256 (25600)
I0205 01:48:44.500767 11255 net.cpp:165] Memory required for data: 150852000
I0205 01:48:44.500777 11255 layer_factory.hpp:77] Creating layer relu6
I0205 01:48:44.500787 11255 net.cpp:106] Creating Layer relu6
I0205 01:48:44.500793 11255 net.cpp:454] relu6 <- fc6
I0205 01:48:44.500800 11255 net.cpp:397] relu6 -> fc6 (in-place)
I0205 01:48:44.500809 11255 net.cpp:150] Setting up relu6
I0205 01:48:44.500815 11255 net.cpp:157] Top shape: 100 256 (25600)
I0205 01:48:44.500821 11255 net.cpp:165] Memory required for data: 150954400
I0205 01:48:44.500826 11255 layer_factory.hpp:77] Creating layer drop6
I0205 01:48:44.500836 11255 net.cpp:106] Creating Layer drop6
I0205 01:48:44.500841 11255 net.cpp:454] drop6 <- fc6
I0205 01:48:44.500849 11255 net.cpp:397] drop6 -> fc6 (in-place)
I0205 01:48:44.500865 11255 net.cpp:150] Setting up drop6
I0205 01:48:44.500872 11255 net.cpp:157] Top shape: 100 256 (25600)
I0205 01:48:44.500877 11255 net.cpp:165] Memory required for data: 151056800
I0205 01:48:44.500885 11255 layer_factory.hpp:77] Creating layer fc7
I0205 01:48:44.500895 11255 net.cpp:106] Creating Layer fc7
I0205 01:48:44.500900 11255 net.cpp:454] fc7 <- fc6
I0205 01:48:44.500910 11255 net.cpp:411] fc7 -> fc7
I0205 01:48:44.501611 11255 net.cpp:150] Setting up fc7
I0205 01:48:44.501623 11255 net.cpp:157] Top shape: 100 256 (25600)
I0205 01:48:44.501628 11255 net.cpp:165] Memory required for data: 151159200
I0205 01:48:44.501637 11255 layer_factory.hpp:77] Creating layer relu7
I0205 01:48:44.501646 11255 net.cpp:106] Creating Layer relu7
I0205 01:48:44.501651 11255 net.cpp:454] relu7 <- fc7
I0205 01:48:44.501660 11255 net.cpp:397] relu7 -> fc7 (in-place)
I0205 01:48:44.501669 11255 net.cpp:150] Setting up relu7
I0205 01:48:44.501677 11255 net.cpp:157] Top shape: 100 256 (25600)
I0205 01:48:44.501682 11255 net.cpp:165] Memory required for data: 151261600
I0205 01:48:44.501688 11255 layer_factory.hpp:77] Creating layer drop7
I0205 01:48:44.501696 11255 net.cpp:106] Creating Layer drop7
I0205 01:48:44.501701 11255 net.cpp:454] drop7 <- fc7
I0205 01:48:44.501710 11255 net.cpp:397] drop7 -> fc7 (in-place)
I0205 01:48:44.501720 11255 net.cpp:150] Setting up drop7
I0205 01:48:44.501727 11255 net.cpp:157] Top shape: 100 256 (25600)
I0205 01:48:44.501732 11255 net.cpp:165] Memory required for data: 151364000
I0205 01:48:44.501737 11255 layer_factory.hpp:77] Creating layer fc8
I0205 01:48:44.501750 11255 net.cpp:106] Creating Layer fc8
I0205 01:48:44.501765 11255 net.cpp:454] fc8 <- fc7
I0205 01:48:44.501775 11255 net.cpp:411] fc8 -> fc8
I0205 01:48:44.501797 11255 net.cpp:150] Setting up fc8
I0205 01:48:44.501807 11255 net.cpp:157] Top shape: 100 2 (200)
I0205 01:48:44.501812 11255 net.cpp:165] Memory required for data: 151364800
I0205 01:48:44.501821 11255 layer_factory.hpp:77] Creating layer loss
I0205 01:48:44.501832 11255 net.cpp:106] Creating Layer loss
I0205 01:48:44.501837 11255 net.cpp:454] loss <- fc8
I0205 01:48:44.501843 11255 net.cpp:454] loss <- label
I0205 01:48:44.501852 11255 net.cpp:411] loss -> loss
I0205 01:48:44.501865 11255 layer_factory.hpp:77] Creating layer loss
…
I0205 01:48:44.502913 11255 net.cpp:322] The NetState phase (1) differed from the phase (0) specified by a rule in layer data
I0205 01:48:44.503214 11255 net.cpp:49] Initializing net from parameters: 
name: "CaffeNet"
state {
  phase: TEST
}
layer {
  name: "data"
  type: "Data"
  top: "data"
  top: "label"
  include {
    phase: TEST
  }
  transform_param {
    mirror: false
    crop_size: 227
    mean_file: "/home/pearlstl/proj_cv/master/lmdb/synth1_test_lum_db/mean_file.binaryproto"
  }
  data_param {
    source: "/home/pearlstl/proj_cv/master/lmdb/synth1_test_lum_db"
    batch_size: 100
    backend: LMDB
  }
}
layer {
  name: "conv1"
  type: "Convolution"
  bottom: "data"
  top: "conv1"
  param {
    lr_mult: 1
    decay_mult: 1
  }
  param {
    lr_mult: 2
    decay_mult: 0
  }
  convolution_param {
    num_output: 32
    kernel_size: 11
    stride: 4
    weight_filler {
      type: "xavier"
    }
    bias_filler {
      type: "constant"
      value: 0
    }
  }
}
layer {
  name: "relu1"
  type: "ReLU"
  bottom: "conv1"
  top: "conv1"
}
layer {
  name: "pool1"
  type: "Pooling"
  bottom: "conv1"
  top: "pool1"
  pooling_param {
    pool: MAX
    kernel_size: 3
    stride: 2
  }
}
layer {
  name: "norm1"
  type: "LRN"
  bottom: "pool1"
  top: "norm1"
  lrn_param {
    local_size: 5
    alpha: 0.0001
    beta: 0.75
  }
}
layer {
  name: "conv2"
  type: "Convolution"
  bottom: "norm1"
  top: "conv2"
  param {
    lr_mult: 1
    decay_mult: 1
  }
  param {
    lr_mult: 2
    decay_mult: 0
  }
  convolution_param {
    num_output: 32
    pad: 2
    kernel_size: 5
    group: 2
    weight_filler {
      type: "xavier"
    }
    bias_filler {
      type: "constant"
      value: 1
    }
  }
}
layer {
  name: "relu2"
  type: "ReLU"
  bottom: "conv2"
  top: "conv2"
}
layer {
  name: "pool2"
  type: "Pooling"
  bottom: "conv2"
  top: "pool2"
  pooling_param {
    pool: MAX
    kernel_size: 3
    stride: 2
  }
}
layer {
  name: "norm2"
  type: "LRN"
  bottom: "pool2"
  top: "norm2"
  lrn_param {
    local_size: 5
    alpha: 0.0001
    beta: 0.75
  }
}
layer {
  name: "conv3"
  type: "Convolution"
  bottom: "norm2"
  top: "conv3"
  param {
    lr_mult: 1
    decay_mult: 1
  }
  param {
    lr_mult: 2
    decay_mult: 0
  }
  convolution_param {
    num_output: 32
    pad: 1
    kernel_size: 3
    weight_filler {
      type: "xavier"
    }
    bias_filler {
      type: "constant"
      value: 0
    }
  }
}
layer {
  name: "relu3"
  type: "ReLU"
  bottom: "conv3"
  top: "conv3"
}
layer {
  name: "conv4"
  type: "Convolution"
  bottom: "conv3"
  top: "conv4"
  param {
    lr_mult: 1
    decay_mult: 1
  }
  param {
    lr_mult: 2
    decay_mult: 0
  }
  convolution_param {
    num_output: 32
    pad: 1
    kernel_size: 3
    group: 2
    weight_filler {
      type: "xavier"
    }
    bias_filler {
      type: "constant"
      value: 1
    }
  }
}
layer {
  name: "relu4"
  type: "ReLU"
  bottom: "conv4"
  top: "conv4"
}
layer {
  name: "conv5"
  type: "Convolution"
  bottom: "conv4"
  top: "conv5"
  param {
    lr_mult: 1
    decay_mult: 1
  }
  param {
    lr_mult: 2
    decay_mult: 0
  }
  convolution_param {
    num_output: 16
    pad: 1
    kernel_size: 3
    group: 2
    weight_filler {
      type: "xavier"
    }
    bias_filler {
      type: "constant"
      value: 1
    }
  }
}
layer {
  name: "relu5"
  type: "ReLU"
  bottom: "conv5"
  top: "conv5"
}
layer {
  name: "pool5"
  type: "Pooling"
  bottom: "conv5"
  top: "pool5"
  pooling_param {
    pool: MAX
    kernel_size: 3
    stride: 2
  }
}
layer {
  name: "fc6"
  type: "InnerProduct"
  bottom: "pool5"
  top: "fc6"
  param {
    lr_mult: 1
    decay_mult: 1
  }
  param {
    lr_mult: 2
    decay_mult: 0
  }
  inner_product_param {
    num_output: 256
    weight_filler {
      type: "xavier"
    }
    bias_filler {
      type: "constant"
      value: 1
    }
  }
}
layer {
  name: "relu6"
  type: "ReLU"
  bottom: "fc6"
  top: "fc6"
}
layer {
  name: "drop6"
  type: "Dropout"
  bottom: "fc6"
  top: "fc6"
  dropout_param {
    dropout_ratio: 0.5
  }
}
layer {
  name: "fc7"
  type: "InnerProduct"
  bottom: "fc6"
  top: "fc7"
  param {
    lr_mult: 1
    decay_mult: 1
  }
  param {
    lr_mult: 2
    decay_mult: 0
  }
  inner_product_param {
    num_output: 256
    weight_filler {
      type: "xavier"
    }
    bias_filler {
      type: "constant"
      value: 1
    }
  }
}
layer {
  name: "relu7"
  type: "ReLU"
  bottom: "fc7"
  top: "fc7"
}
layer {
  name: "drop7"
  type: "Dropout"
  bottom: "fc7"
  top: "fc7"
  dropout_param {
    dropout_ratio: 0.5
  }
}
layer {
  name: "fc8"
  type: "InnerProduct"
  bottom: "fc7"
  top: "fc8"
  param {
    lr_mult: 1
    decay_mult: 1
  }
  param {
    lr_mult: 2
    decay_mult: 0
  }
  inner_product_param {
    num_output: 2
    weight_filler {
      type: "xavier"
    }
    bias_filler {
      type: "constant"
      value: 0
    }
  }
}
layer {
  name: "accuracy"
  type: "Accuracy"
  bottom: "fc8"
  bottom: "label"
  top: "accuracy"
  include {
    phase: TEST
  }
}
layer {
  name: "loss"
  type: "SoftmaxWithLoss"
  bottom: "fc8"
  bottom: "label"
  top: "loss"
}
I0205 01:48:44.503386 11255 layer_factory.hpp:77] Creating layer data
I0205 01:48:44.503540 11255 net.cpp:106] Creating Layer data
I0205 01:48:44.503557 11255 net.cpp:411] data -> data
I0205 01:48:44.503571 11255 net.cpp:411] data -> label
I0205 01:48:44.503582 11255 data_transformer.cpp:25] Loading mean file from: /home/pearlstl/proj_cv/master/lmdb/synth1_test_lum_db/mean_file.binaryproto
I0205 01:48:44.503772 11259 db_lmdb.cpp:38] Opened lmdb /home/pearlstl/proj_cv/master/lmdb/synth1_test_lum_db
I0205 01:48:44.504461 11255 data_layer.cpp:41] output data size: 100,1,227,227
I0205 01:48:44.535851 11255 net.cpp:150] Setting up data
I0205 01:48:44.535884 11255 net.cpp:157] Top shape: 100 1 227 227 (5152900)
I0205 01:48:44.535892 11255 net.cpp:157] Top shape: 100 (100)
I0205 01:48:44.535897 11255 net.cpp:165] Memory required for data: 20612000
I0205 01:48:44.535907 11255 layer_factory.hpp:77] Creating layer label_data_1_split
I0205 01:48:44.535926 11255 net.cpp:106] Creating Layer label_data_1_split
I0205 01:48:44.535935 11255 net.cpp:454] label_data_1_split <- label
I0205 01:48:44.535948 11255 net.cpp:411] label_data_1_split -> label_data_1_split_0
I0205 01:48:44.535976 11255 net.cpp:411] label_data_1_split -> label_data_1_split_1
I0205 01:48:44.535990 11255 net.cpp:150] Setting up label_data_1_split
I0205 01:48:44.535998 11255 net.cpp:157] Top shape: 100 (100)
I0205 01:48:44.536005 11255 net.cpp:157] Top shape: 100 (100)
I0205 01:48:44.536010 11255 net.cpp:165] Memory required for data: 20612800
I0205 01:48:44.536016 11255 layer_factory.hpp:77] Creating layer conv1
I0205 01:48:44.536031 11255 net.cpp:106] Creating Layer conv1
I0205 01:48:44.536041 11255 net.cpp:454] conv1 <- data
I0205 01:48:44.536051 11255 net.cpp:411] conv1 -> conv1
I0205 01:48:44.536123 11255 net.cpp:150] Setting up conv1
I0205 01:48:44.536134 11255 net.cpp:157] Top shape: 100 32 55 55 (9680000)
I0205 01:48:44.536139 11255 net.cpp:165] Memory required for data: 59332800
I0205 01:48:44.536152 11255 layer_factory.hpp:77] Creating layer relu1
I0205 01:48:44.536162 11255 net.cpp:106] Creating Layer relu1
I0205 01:48:44.536169 11255 net.cpp:454] relu1 <- conv1
I0205 01:48:44.536177 11255 net.cpp:397] relu1 -> conv1 (in-place)
I0205 01:48:44.536188 11255 net.cpp:150] Setting up relu1
I0205 01:48:44.536195 11255 net.cpp:157] Top shape: 100 32 55 55 (9680000)
I0205 01:48:44.536201 11255 net.cpp:165] Memory required for data: 98052800
I0205 01:48:44.536206 11255 layer_factory.hpp:77] Creating layer pool1
I0205 01:48:44.536217 11255 net.cpp:106] Creating Layer pool1
I0205 01:48:44.536223 11255 net.cpp:454] pool1 <- conv1
I0205 01:48:44.536232 11255 net.cpp:411] pool1 -> pool1
I0205 01:48:44.536247 11255 net.cpp:150] Setting up pool1
I0205 01:48:44.536254 11255 net.cpp:157] Top shape: 100 32 27 27 (2332800)
I0205 01:48:44.536259 11255 net.cpp:165] Memory required for data: 107384000
I0205 01:48:44.536264 11255 layer_factory.hpp:77] Creating layer norm1
I0205 01:48:44.536276 11255 net.cpp:106] Creating Layer norm1
I0205 01:48:44.536281 11255 net.cpp:454] norm1 <- pool1
I0205 01:48:44.536290 11255 net.cpp:411] norm1 -> norm1
I0205 01:48:44.536300 11255 net.cpp:150] Setting up norm1
I0205 01:48:44.536306 11255 net.cpp:157] Top shape: 100 32 27 27 (2332800)
I0205 01:48:44.536311 11255 net.cpp:165] Memory required for data: 116715200
I0205 01:48:44.536317 11255 layer_factory.hpp:77] Creating layer conv2
I0205 01:48:44.536329 11255 net.cpp:106] Creating Layer conv2
I0205 01:48:44.536334 11255 net.cpp:454] conv2 <- norm1
I0205 01:48:44.536345 11255 net.cpp:411] conv2 -> conv2
I0205 01:48:44.536476 11255 net.cpp:150] Setting up conv2
I0205 01:48:44.536484 11255 net.cpp:157] Top shape: 100 32 27 27 (2332800)
I0205 01:48:44.536490 11255 net.cpp:165] Memory required for data: 126046400
I0205 01:48:44.536502 11255 layer_factory.hpp:77] Creating layer relu2
I0205 01:48:44.536512 11255 net.cpp:106] Creating Layer relu2
I0205 01:48:44.536519 11255 net.cpp:454] relu2 <- conv2
I0205 01:48:44.536535 11255 net.cpp:397] relu2 -> conv2 (in-place)
I0205 01:48:44.536555 11255 net.cpp:150] Setting up relu2
I0205 01:48:44.536562 11255 net.cpp:157] Top shape: 100 32 27 27 (2332800)
I0205 01:48:44.536567 11255 net.cpp:165] Memory required for data: 135377600
I0205 01:48:44.536572 11255 layer_factory.hpp:77] Creating layer pool2
I0205 01:48:44.536582 11255 net.cpp:106] Creating Layer pool2
I0205 01:48:44.536587 11255 net.cpp:454] pool2 <- conv2
I0205 01:48:44.536597 11255 net.cpp:411] pool2 -> pool2
I0205 01:48:44.536609 11255 net.cpp:150] Setting up pool2
I0205 01:48:44.536617 11255 net.cpp:157] Top shape: 100 32 13 13 (540800)
I0205 01:48:44.536622 11255 net.cpp:165] Memory required for data: 137540800
I0205 01:48:44.536626 11255 layer_factory.hpp:77] Creating layer norm2
I0205 01:48:44.536635 11255 net.cpp:106] Creating Layer norm2
I0205 01:48:44.536641 11255 net.cpp:454] norm2 <- pool2
I0205 01:48:44.536650 11255 net.cpp:411] norm2 -> norm2
I0205 01:48:44.536660 11255 net.cpp:150] Setting up norm2
I0205 01:48:44.536667 11255 net.cpp:157] Top shape: 100 32 13 13 (540800)
I0205 01:48:44.536672 11255 net.cpp:165] Memory required for data: 139704000
I0205 01:48:44.536677 11255 layer_factory.hpp:77] Creating layer conv3
I0205 01:48:44.536689 11255 net.cpp:106] Creating Layer conv3
I0205 01:48:44.536695 11255 net.cpp:454] conv3 <- norm2
I0205 01:48:44.536705 11255 net.cpp:411] conv3 -> conv3
I0205 01:48:44.536805 11255 net.cpp:150] Setting up conv3
I0205 01:48:44.536813 11255 net.cpp:157] Top shape: 100 32 13 13 (540800)
I0205 01:48:44.536818 11255 net.cpp:165] Memory required for data: 141867200
I0205 01:48:44.536830 11255 layer_factory.hpp:77] Creating layer relu3
I0205 01:48:44.536839 11255 net.cpp:106] Creating Layer relu3
I0205 01:48:44.536844 11255 net.cpp:454] relu3 <- conv3
I0205 01:48:44.536854 11255 net.cpp:397] relu3 -> conv3 (in-place)
I0205 01:48:44.536862 11255 net.cpp:150] Setting up relu3
I0205 01:48:44.536869 11255 net.cpp:157] Top shape: 100 32 13 13 (540800)
I0205 01:48:44.536873 11255 net.cpp:165] Memory required for data: 144030400
I0205 01:48:44.536878 11255 layer_factory.hpp:77] Creating layer conv4
I0205 01:48:44.536888 11255 net.cpp:106] Creating Layer conv4
I0205 01:48:44.536895 11255 net.cpp:454] conv4 <- conv3
I0205 01:48:44.536902 11255 net.cpp:411] conv4 -> conv4
I0205 01:48:44.536962 11255 net.cpp:150] Setting up conv4
I0205 01:48:44.536977 11255 net.cpp:157] Top shape: 100 32 13 13 (540800)
I0205 01:48:44.536983 11255 net.cpp:165] Memory required for data: 146193600
I0205 01:48:44.536993 11255 layer_factory.hpp:77] Creating layer relu4
I0205 01:48:44.537001 11255 net.cpp:106] Creating Layer relu4
I0205 01:48:44.537008 11255 net.cpp:454] relu4 <- conv4
I0205 01:48:44.537015 11255 net.cpp:397] relu4 -> conv4 (in-place)
I0205 01:48:44.537024 11255 net.cpp:150] Setting up relu4
I0205 01:48:44.537030 11255 net.cpp:157] Top shape: 100 32 13 13 (540800)
I0205 01:48:44.537035 11255 net.cpp:165] Memory required for data: 148356800
I0205 01:48:44.537041 11255 layer_factory.hpp:77] Creating layer conv5
I0205 01:48:44.537051 11255 net.cpp:106] Creating Layer conv5
I0205 01:48:44.537057 11255 net.cpp:454] conv5 <- conv4
I0205 01:48:44.537065 11255 net.cpp:411] conv5 -> conv5
I0205 01:48:44.537108 11255 net.cpp:150] Setting up conv5
I0205 01:48:44.537117 11255 net.cpp:157] Top shape: 100 16 13 13 (270400)
I0205 01:48:44.537122 11255 net.cpp:165] Memory required for data: 149438400
I0205 01:48:44.537133 11255 layer_factory.hpp:77] Creating layer relu5
I0205 01:48:44.537142 11255 net.cpp:106] Creating Layer relu5
I0205 01:48:44.537147 11255 net.cpp:454] relu5 <- conv5
I0205 01:48:44.537155 11255 net.cpp:397] relu5 -> conv5 (in-place)
I0205 01:48:44.537165 11255 net.cpp:150] Setting up relu5
I0205 01:48:44.537171 11255 net.cpp:157] Top shape: 100 16 13 13 (270400)
I0205 01:48:44.537176 11255 net.cpp:165] Memory required for data: 150520000
I0205 01:48:44.537183 11255 layer_factory.hpp:77] Creating layer pool5
I0205 01:48:44.537192 11255 net.cpp:106] Creating Layer pool5
I0205 01:48:44.537202 11255 net.cpp:454] pool5 <- conv5
I0205 01:48:44.537220 11255 net.cpp:411] pool5 -> pool5
I0205 01:48:44.537230 11255 net.cpp:150] Setting up pool5
I0205 01:48:44.537237 11255 net.cpp:157] Top shape: 100 16 6 6 (57600)
I0205 01:48:44.537245 11255 net.cpp:165] Memory required for data: 150750400
I0205 01:48:44.537250 11255 layer_factory.hpp:77] Creating layer fc6
I0205 01:48:44.537262 11255 net.cpp:106] Creating Layer fc6
I0205 01:48:44.537267 11255 net.cpp:454] fc6 <- pool5
I0205 01:48:44.537276 11255 net.cpp:411] fc6 -> fc6
I0205 01:48:44.538929 11255 net.cpp:150] Setting up fc6
I0205 01:48:44.538943 11255 net.cpp:157] Top shape: 100 256 (25600)
I0205 01:48:44.538949 11255 net.cpp:165] Memory required for data: 150852800
I0205 01:48:44.538956 11255 layer_factory.hpp:77] Creating layer relu6
I0205 01:48:44.538969 11255 net.cpp:106] Creating Layer relu6
I0205 01:48:44.538975 11255 net.cpp:454] relu6 <- fc6
I0205 01:48:44.538986 11255 net.cpp:397] relu6 -> fc6 (in-place)
I0205 01:48:44.538996 11255 net.cpp:150] Setting up relu6
I0205 01:48:44.539002 11255 net.cpp:157] Top shape: 100 256 (25600)
I0205 01:48:44.539007 11255 net.cpp:165] Memory required for data: 150955200
I0205 01:48:44.539013 11255 layer_factory.hpp:77] Creating layer drop6
I0205 01:48:44.539023 11255 net.cpp:106] Creating Layer drop6
I0205 01:48:44.539029 11255 net.cpp:454] drop6 <- fc6
I0205 01:48:44.539037 11255 net.cpp:397] drop6 -> fc6 (in-place)
I0205 01:48:44.539048 11255 net.cpp:150] Setting up drop6
I0205 01:48:44.539054 11255 net.cpp:157] Top shape: 100 256 (25600)
I0205 01:48:44.539059 11255 net.cpp:165] Memory required for data: 151057600
I0205 01:48:44.539064 11255 layer_factory.hpp:77] Creating layer fc7
I0205 01:48:44.539074 11255 net.cpp:106] Creating Layer fc7
I0205 01:48:44.539079 11255 net.cpp:454] fc7 <- fc6
I0205 01:48:44.539088 11255 net.cpp:411] fc7 -> fc7
I0205 01:48:44.539779 11255 net.cpp:150] Setting up fc7
I0205 01:48:44.539803 11255 net.cpp:157] Top shape: 100 256 (25600)
I0205 01:48:44.539808 11255 net.cpp:165] Memory required for data: 151160000
I0205 01:48:44.539815 11255 layer_factory.hpp:77] Creating layer relu7
I0205 01:48:44.539824 11255 net.cpp:106] Creating Layer relu7
I0205 01:48:44.539829 11255 net.cpp:454] relu7 <- fc7
I0205 01:48:44.539839 11255 net.cpp:397] relu7 -> fc7 (in-place)
I0205 01:48:44.539846 11255 net.cpp:150] Setting up relu7
I0205 01:48:44.539854 11255 net.cpp:157] Top shape: 100 256 (25600)
I0205 01:48:44.539858 11255 net.cpp:165] Memory required for data: 151262400
I0205 01:48:44.539865 11255 layer_factory.hpp:77] Creating layer drop7
I0205 01:48:44.539875 11255 net.cpp:106] Creating Layer drop7
I0205 01:48:44.539880 11255 net.cpp:454] drop7 <- fc7
I0205 01:48:44.539886 11255 net.cpp:397] drop7 -> fc7 (in-place)
I0205 01:48:44.539919 11255 net.cpp:150] Setting up drop7
I0205 01:48:44.539926 11255 net.cpp:157] Top shape: 100 256 (25600)
I0205 01:48:44.539930 11255 net.cpp:165] Memory required for data: 151364800
I0205 01:48:44.539935 11255 layer_factory.hpp:77] Creating layer fc8
I0205 01:48:44.539948 11255 net.cpp:106] Creating Layer fc8
I0205 01:48:44.539953 11255 net.cpp:454] fc8 <- fc7
I0205 01:48:44.539962 11255 net.cpp:411] fc8 -> fc8
I0205 01:48:44.539994 11255 net.cpp:150] Setting up fc8
I0205 01:48:44.540002 11255 net.cpp:157] Top shape: 100 2 (200)
I0205 01:48:44.540007 11255 net.cpp:165] Memory required for data: 151365600
I0205 01:48:44.540015 11255 layer_factory.hpp:77] Creating layer fc8_fc8_0_split
I0205 01:48:44.540026 11255 net.cpp:106] Creating Layer fc8_fc8_0_split
I0205 01:48:44.540031 11255 net.cpp:454] fc8_fc8_0_split <- fc8
I0205 01:48:44.540041 11255 net.cpp:411] fc8_fc8_0_split -> fc8_fc8_0_split_0
I0205 01:48:44.540052 11255 net.cpp:411] fc8_fc8_0_split -> fc8_fc8_0_split_1
I0205 01:48:44.540061 11255 net.cpp:150] Setting up fc8_fc8_0_split
I0205 01:48:44.540068 11255 net.cpp:157] Top shape: 100 2 (200)
I0205 01:48:44.540074 11255 net.cpp:157] Top shape: 100 2 (200)
I0205 01:48:44.540078 11255 net.cpp:165] Memory required for data: 151367200
I0205 01:48:44.540084 11255 layer_factory.hpp:77] Creating layer accuracy
I0205 01:48:44.540107 11255 net.cpp:106] Creating Layer accuracy
I0205 01:48:44.540114 11255 net.cpp:454] accuracy <- fc8_fc8_0_split_0
I0205 01:48:44.540122 11255 net.cpp:454] accuracy <- label_data_1_split_0
I0205 01:48:44.540129 11255 net.cpp:411] accuracy -> accuracy
…
