…
I0204 16:28:13.643225  3298 net.cpp:322] The NetState phase (0) differed from the phase (1) specified by a rule in layer accuracy
I0204 16:28:13.643468  3298 net.cpp:49] Initializing net from parameters: 
name: "CaffeNet"
state {
  phase: TRAIN
}
layer {
  name: "data"
  type: "Data"
  top: "data"
  top: "label"
  include {
    phase: TRAIN
  }
  transform_param {
    mirror: true
    crop_size: 227
    mean_file: "/home/pearlstl/proj_cv/master/lmdb/synth1_train_lum_db/mean_file.binaryproto"
  }
  data_param {
    source: "/home/pearlstl/proj_cv/master/lmdb/synth1_train_lum_db"
    batch_size: 100
    backend: LMDB
  }
}
layer {
  name: "conv1"
  type: "Convolution"
  bottom: "data"
  top: "conv1"
  param {
    lr_mult: 1
    decay_mult: 1
  }
  param {
    lr_mult: 2
    decay_mult: 0
  }
  convolution_param {
    num_output: 32
    kernel_size: 11
    stride: 4
    weight_filler {
      type: "xavier"
    }
    bias_filler {
      type: "constant"
      value: 0
    }
  }
}
layer {
  name: "relu1"
  type: "ReLU"
  bottom: "conv1"
  top: "conv1"
}
layer {
  name: "pool1"
  type: "Pooling"
  bottom: "conv1"
  top: "pool1"
  pooling_param {
    pool: MAX
    kernel_size: 3
    stride: 2
  }
}
layer {
  name: "norm1"
  type: "LRN"
  bottom: "pool1"
  top: "norm1"
  lrn_param {
    local_size: 5
    alpha: 0.0001
    beta: 0.75
  }
}
layer {
  name: "conv2"
  type: "Convolution"
  bottom: "norm1"
  top: "conv2"
  param {
    lr_mult: 1
    decay_mult: 1
  }
  param {
    lr_mult: 2
    decay_mult: 0
  }
  convolution_param {
    num_output: 32
    pad: 2
    kernel_size: 5
    group: 2
    weight_filler {
      type: "xavier"
    }
    bias_filler {
      type: "constant"
      value: 1
    }
  }
}
layer {
  name: "relu2"
  type: "ReLU"
  bottom: "conv2"
  top: "conv2"
}
layer {
  name: "pool2"
  type: "Pooling"
  bottom: "conv2"
  top: "pool2"
  pooling_param {
    pool: MAX
    kernel_size: 3
    stride: 2
  }
}
layer {
  name: "norm2"
  type: "LRN"
  bottom: "pool2"
  top: "norm2"
  lrn_param {
    local_size: 5
    alpha: 0.0001
    beta: 0.75
  }
}
layer {
  name: "conv3"
  type: "Convolution"
  bottom: "norm2"
  top: "conv3"
  param {
    lr_mult: 1
    decay_mult: 1
  }
  param {
    lr_mult: 2
    decay_mult: 0
  }
  convolution_param {
    num_output: 32
    pad: 1
    kernel_size: 3
    weight_filler {
      type: "xavier"
    }
    bias_filler {
      type: "constant"
      value: 0
    }
  }
}
layer {
  name: "relu3"
  type: "ReLU"
  bottom: "conv3"
  top: "conv3"
}
layer {
  name: "conv4"
  type: "Convolution"
  bottom: "conv3"
  top: "conv4"
  param {
    lr_mult: 1
    decay_mult: 1
  }
  param {
    lr_mult: 2
    decay_mult: 0
  }
  convolution_param {
    num_output: 32
    pad: 1
    kernel_size: 3
    group: 2
    weight_filler {
      type: "xavier"
    }
    bias_filler {
      type: "constant"
      value: 1
    }
  }
}
layer {
  name: "relu4"
  type: "ReLU"
  bottom: "conv4"
  top: "conv4"
}
layer {
  name: "conv5"
  type: "Convolution"
  bottom: "conv4"
  top: "conv5"
  param {
    lr_mult: 1
    decay_mult: 1
  }
  param {
    lr_mult: 2
    decay_mult: 0
  }
  convolution_param {
    num_output: 16
    pad: 1
    kernel_size: 3
    group: 2
    weight_filler {
      type: "xavier"
    }
    bias_filler {
      type: "constant"
      value: 1
    }
  }
}
layer {
  name: "relu5"
  type: "ReLU"
  bottom: "conv5"
  top: "conv5"
}
layer {
  name: "pool5"
  type: "Pooling"
  bottom: "conv5"
  top: "pool5"
  pooling_param {
    pool: MAX
    kernel_size: 3
    stride: 2
  }
}
layer {
  name: "fc6"
  type: "InnerProduct"
  bottom: "pool5"
  top: "fc6"
  param {
    lr_mult: 1
    decay_mult: 1
  }
  param {
    lr_mult: 2
    decay_mult: 0
  }
  inner_product_param {
    num_output: 256
    weight_filler {
      type: "xavier"
    }
    bias_filler {
      type: "constant"
      value: 1
    }
  }
}
layer {
  name: "relu6"
  type: "ReLU"
  bottom: "fc6"
  top: "fc6"
}
layer {
  name: "drop6"
  type: "Dropout"
  bottom: "fc6"
  top: "fc6"
  dropout_param {
    dropout_ratio: 0.5
  }
}
layer {
  name: "fc7"
  type: "InnerProduct"
  bottom: "fc6"
  top: "fc7"
  param {
    lr_mult: 1
    decay_mult: 1
  }
  param {
    lr_mult: 2
    decay_mult: 0
  }
  inner_product_param {
    num_output: 256
    weight_filler {
      type: "xavier"
    }
    bias_filler {
      type: "constant"
      value: 1
    }
  }
}
layer {
  name: "relu7"
  type: "ReLU"
  bottom: "fc7"
  top: "fc7"
}
layer {
  name: "drop7"
  type: "Dropout"
  bottom: "fc7"
  top: "fc7"
  dropout_param {
    dropout_ratio: 0.5
  }
}
layer {
  name: "fc8"
  type: "InnerProduct"
  bottom: "fc7"
  top: "fc8"
  param {
    lr_mult: 1
    decay_mult: 1
  }
  param {
    lr_mult: 2
    decay_mult: 0
  }
  inner_product_param {
    num_output: 2
    weight_filler {
      type: "xavier"
    }
    bias_filler {
      type: "constant"
      value: 0
    }
  }
}
layer {
  name: "loss"
  type: "SoftmaxWithLoss"
  bottom: "fc8"
  bottom: "label"
  top: "loss"
}
I0204 16:28:13.643613  3298 layer_factory.hpp:77] Creating layer data
I0204 16:28:13.643797  3298 net.cpp:106] Creating Layer data
I0204 16:28:13.643817  3298 net.cpp:411] data -> data
I0204 16:28:13.643896  3298 net.cpp:411] data -> label
I0204 16:28:13.643920  3298 data_transformer.cpp:25] Loading mean file from: /home/pearlstl/proj_cv/master/lmdb/synth1_train_lum_db/mean_file.binaryproto
I0204 16:28:13.644012  3302 db_lmdb.cpp:38] Opened lmdb /home/pearlstl/proj_cv/master/lmdb/synth1_train_lum_db
I0204 16:28:13.645067  3298 data_layer.cpp:41] output data size: 100,1,227,227
I0204 16:28:13.675799  3298 net.cpp:150] Setting up data
I0204 16:28:13.675923  3298 net.cpp:157] Top shape: 100 1 227 227 (5152900)
I0204 16:28:13.675935  3298 net.cpp:157] Top shape: 100 (100)
I0204 16:28:13.675966  3298 net.cpp:165] Memory required for data: 20612000
I0204 16:28:13.675988  3298 layer_factory.hpp:77] Creating layer conv1
I0204 16:28:13.676017  3298 net.cpp:106] Creating Layer conv1
I0204 16:28:13.676026  3298 net.cpp:454] conv1 <- data
I0204 16:28:13.676046  3298 net.cpp:411] conv1 -> conv1
I0204 16:28:13.676182  3298 net.cpp:150] Setting up conv1
I0204 16:28:13.676194  3298 net.cpp:157] Top shape: 100 32 55 55 (9680000)
I0204 16:28:13.676200  3298 net.cpp:165] Memory required for data: 59332000
I0204 16:28:13.676219  3298 layer_factory.hpp:77] Creating layer relu1
I0204 16:28:13.676234  3298 net.cpp:106] Creating Layer relu1
I0204 16:28:13.676239  3298 net.cpp:454] relu1 <- conv1
I0204 16:28:13.676249  3298 net.cpp:397] relu1 -> conv1 (in-place)
I0204 16:28:13.676262  3298 net.cpp:150] Setting up relu1
I0204 16:28:13.676270  3298 net.cpp:157] Top shape: 100 32 55 55 (9680000)
I0204 16:28:13.676275  3298 net.cpp:165] Memory required for data: 98052000
I0204 16:28:13.676280  3298 layer_factory.hpp:77] Creating layer pool1
I0204 16:28:13.676291  3298 net.cpp:106] Creating Layer pool1
I0204 16:28:13.676297  3298 net.cpp:454] pool1 <- conv1
I0204 16:28:13.676306  3298 net.cpp:411] pool1 -> pool1
I0204 16:28:13.676329  3298 net.cpp:150] Setting up pool1
I0204 16:28:13.676337  3298 net.cpp:157] Top shape: 100 32 27 27 (2332800)
I0204 16:28:13.676343  3298 net.cpp:165] Memory required for data: 107383200
I0204 16:28:13.676352  3298 layer_factory.hpp:77] Creating layer norm1
I0204 16:28:13.676383  3298 net.cpp:106] Creating Layer norm1
I0204 16:28:13.676389  3298 net.cpp:454] norm1 <- pool1
I0204 16:28:13.676398  3298 net.cpp:411] norm1 -> norm1
I0204 16:28:13.676416  3298 net.cpp:150] Setting up norm1
I0204 16:28:13.676424  3298 net.cpp:157] Top shape: 100 32 27 27 (2332800)
I0204 16:28:13.676429  3298 net.cpp:165] Memory required for data: 116714400
I0204 16:28:13.676434  3298 layer_factory.hpp:77] Creating layer conv2
I0204 16:28:13.676447  3298 net.cpp:106] Creating Layer conv2
I0204 16:28:13.676452  3298 net.cpp:454] conv2 <- norm1
I0204 16:28:13.676462  3298 net.cpp:411] conv2 -> conv2
I0204 16:28:13.676595  3298 net.cpp:150] Setting up conv2
I0204 16:28:13.676606  3298 net.cpp:157] Top shape: 100 32 27 27 (2332800)
I0204 16:28:13.676612  3298 net.cpp:165] Memory required for data: 126045600
I0204 16:28:13.676623  3298 layer_factory.hpp:77] Creating layer relu2
I0204 16:28:13.676652  3298 net.cpp:106] Creating Layer relu2
I0204 16:28:13.676661  3298 net.cpp:454] relu2 <- conv2
I0204 16:28:13.676668  3298 net.cpp:397] relu2 -> conv2 (in-place)
I0204 16:28:13.676679  3298 net.cpp:150] Setting up relu2
I0204 16:28:13.676687  3298 net.cpp:157] Top shape: 100 32 27 27 (2332800)
I0204 16:28:13.676692  3298 net.cpp:165] Memory required for data: 135376800
I0204 16:28:13.676697  3298 layer_factory.hpp:77] Creating layer pool2
I0204 16:28:13.676707  3298 net.cpp:106] Creating Layer pool2
I0204 16:28:13.676712  3298 net.cpp:454] pool2 <- conv2
I0204 16:28:13.676720  3298 net.cpp:411] pool2 -> pool2
I0204 16:28:13.676731  3298 net.cpp:150] Setting up pool2
I0204 16:28:13.676738  3298 net.cpp:157] Top shape: 100 32 13 13 (540800)
I0204 16:28:13.676743  3298 net.cpp:165] Memory required for data: 137540000
I0204 16:28:13.676749  3298 layer_factory.hpp:77] Creating layer norm2
I0204 16:28:13.676764  3298 net.cpp:106] Creating Layer norm2
I0204 16:28:13.676771  3298 net.cpp:454] norm2 <- pool2
I0204 16:28:13.676780  3298 net.cpp:411] norm2 -> norm2
I0204 16:28:13.676790  3298 net.cpp:150] Setting up norm2
I0204 16:28:13.676797  3298 net.cpp:157] Top shape: 100 32 13 13 (540800)
I0204 16:28:13.676803  3298 net.cpp:165] Memory required for data: 139703200
I0204 16:28:13.676810  3298 layer_factory.hpp:77] Creating layer conv3
I0204 16:28:13.676820  3298 net.cpp:106] Creating Layer conv3
I0204 16:28:13.676826  3298 net.cpp:454] conv3 <- norm2
I0204 16:28:13.676837  3298 net.cpp:411] conv3 -> conv3
I0204 16:28:13.676956  3298 net.cpp:150] Setting up conv3
I0204 16:28:13.676967  3298 net.cpp:157] Top shape: 100 32 13 13 (540800)
I0204 16:28:13.676972  3298 net.cpp:165] Memory required for data: 141866400
I0204 16:28:13.676983  3298 layer_factory.hpp:77] Creating layer relu3
I0204 16:28:13.676992  3298 net.cpp:106] Creating Layer relu3
I0204 16:28:13.676998  3298 net.cpp:454] relu3 <- conv3
I0204 16:28:13.677011  3298 net.cpp:397] relu3 -> conv3 (in-place)
I0204 16:28:13.677021  3298 net.cpp:150] Setting up relu3
I0204 16:28:13.677028  3298 net.cpp:157] Top shape: 100 32 13 13 (540800)
I0204 16:28:13.677033  3298 net.cpp:165] Memory required for data: 144029600
I0204 16:28:13.677039  3298 layer_factory.hpp:77] Creating layer conv4
I0204 16:28:13.677050  3298 net.cpp:106] Creating Layer conv4
I0204 16:28:13.677055  3298 net.cpp:454] conv4 <- conv3
I0204 16:28:13.677067  3298 net.cpp:411] conv4 -> conv4
I0204 16:28:13.677145  3298 net.cpp:150] Setting up conv4
I0204 16:28:13.677155  3298 net.cpp:157] Top shape: 100 32 13 13 (540800)
I0204 16:28:13.677161  3298 net.cpp:165] Memory required for data: 146192800
I0204 16:28:13.677170  3298 layer_factory.hpp:77] Creating layer relu4
I0204 16:28:13.677180  3298 net.cpp:106] Creating Layer relu4
I0204 16:28:13.677184  3298 net.cpp:454] relu4 <- conv4
I0204 16:28:13.677192  3298 net.cpp:397] relu4 -> conv4 (in-place)
I0204 16:28:13.677201  3298 net.cpp:150] Setting up relu4
I0204 16:28:13.677209  3298 net.cpp:157] Top shape: 100 32 13 13 (540800)
I0204 16:28:13.677216  3298 net.cpp:165] Memory required for data: 148356000
I0204 16:28:13.677227  3298 layer_factory.hpp:77] Creating layer conv5
I0204 16:28:13.677245  3298 net.cpp:106] Creating Layer conv5
I0204 16:28:13.677253  3298 net.cpp:454] conv5 <- conv4
I0204 16:28:13.677260  3298 net.cpp:411] conv5 -> conv5
I0204 16:28:13.677310  3298 net.cpp:150] Setting up conv5
I0204 16:28:13.677320  3298 net.cpp:157] Top shape: 100 16 13 13 (270400)
I0204 16:28:13.677325  3298 net.cpp:165] Memory required for data: 149437600
I0204 16:28:13.677336  3298 layer_factory.hpp:77] Creating layer relu5
I0204 16:28:13.677347  3298 net.cpp:106] Creating Layer relu5
I0204 16:28:13.677353  3298 net.cpp:454] relu5 <- conv5
I0204 16:28:13.677361  3298 net.cpp:397] relu5 -> conv5 (in-place)
I0204 16:28:13.677371  3298 net.cpp:150] Setting up relu5
I0204 16:28:13.677377  3298 net.cpp:157] Top shape: 100 16 13 13 (270400)
I0204 16:28:13.677383  3298 net.cpp:165] Memory required for data: 150519200
I0204 16:28:13.677388  3298 layer_factory.hpp:77] Creating layer pool5
I0204 16:28:13.677397  3298 net.cpp:106] Creating Layer pool5
I0204 16:28:13.677402  3298 net.cpp:454] pool5 <- conv5
I0204 16:28:13.677414  3298 net.cpp:411] pool5 -> pool5
I0204 16:28:13.677428  3298 net.cpp:150] Setting up pool5
I0204 16:28:13.677434  3298 net.cpp:157] Top shape: 100 16 6 6 (57600)
I0204 16:28:13.677439  3298 net.cpp:165] Memory required for data: 150749600
I0204 16:28:13.677444  3298 layer_factory.hpp:77] Creating layer fc6
I0204 16:28:13.677464  3298 net.cpp:106] Creating Layer fc6
I0204 16:28:13.677470  3298 net.cpp:454] fc6 <- pool5
I0204 16:28:13.677479  3298 net.cpp:411] fc6 -> fc6
I0204 16:28:13.679116  3298 net.cpp:150] Setting up fc6
I0204 16:28:13.679129  3298 net.cpp:157] Top shape: 100 256 (25600)
I0204 16:28:13.679134  3298 net.cpp:165] Memory required for data: 150852000
I0204 16:28:13.679143  3298 layer_factory.hpp:77] Creating layer relu6
I0204 16:28:13.679155  3298 net.cpp:106] Creating Layer relu6
I0204 16:28:13.679162  3298 net.cpp:454] relu6 <- fc6
I0204 16:28:13.679168  3298 net.cpp:397] relu6 -> fc6 (in-place)
I0204 16:28:13.679178  3298 net.cpp:150] Setting up relu6
I0204 16:28:13.679184  3298 net.cpp:157] Top shape: 100 256 (25600)
I0204 16:28:13.679190  3298 net.cpp:165] Memory required for data: 150954400
I0204 16:28:13.679195  3298 layer_factory.hpp:77] Creating layer drop6
I0204 16:28:13.679205  3298 net.cpp:106] Creating Layer drop6
I0204 16:28:13.679214  3298 net.cpp:454] drop6 <- fc6
I0204 16:28:13.679220  3298 net.cpp:397] drop6 -> fc6 (in-place)
I0204 16:28:13.679237  3298 net.cpp:150] Setting up drop6
I0204 16:28:13.679244  3298 net.cpp:157] Top shape: 100 256 (25600)
I0204 16:28:13.679250  3298 net.cpp:165] Memory required for data: 151056800
I0204 16:28:13.679255  3298 layer_factory.hpp:77] Creating layer fc7
I0204 16:28:13.679265  3298 net.cpp:106] Creating Layer fc7
I0204 16:28:13.679270  3298 net.cpp:454] fc7 <- fc6
I0204 16:28:13.679280  3298 net.cpp:411] fc7 -> fc7
I0204 16:28:13.680001  3298 net.cpp:150] Setting up fc7
I0204 16:28:13.680013  3298 net.cpp:157] Top shape: 100 256 (25600)
I0204 16:28:13.680018  3298 net.cpp:165] Memory required for data: 151159200
I0204 16:28:13.680029  3298 layer_factory.hpp:77] Creating layer relu7
I0204 16:28:13.680037  3298 net.cpp:106] Creating Layer relu7
I0204 16:28:13.680044  3298 net.cpp:454] relu7 <- fc7
I0204 16:28:13.680055  3298 net.cpp:397] relu7 -> fc7 (in-place)
I0204 16:28:13.680064  3298 net.cpp:150] Setting up relu7
I0204 16:28:13.680071  3298 net.cpp:157] Top shape: 100 256 (25600)
I0204 16:28:13.680078  3298 net.cpp:165] Memory required for data: 151261600
I0204 16:28:13.680083  3298 layer_factory.hpp:77] Creating layer drop7
I0204 16:28:13.680091  3298 net.cpp:106] Creating Layer drop7
I0204 16:28:13.680097  3298 net.cpp:454] drop7 <- fc7
I0204 16:28:13.680107  3298 net.cpp:397] drop7 -> fc7 (in-place)
I0204 16:28:13.680119  3298 net.cpp:150] Setting up drop7
I0204 16:28:13.680125  3298 net.cpp:157] Top shape: 100 256 (25600)
I0204 16:28:13.680130  3298 net.cpp:165] Memory required for data: 151364000
I0204 16:28:13.680136  3298 layer_factory.hpp:77] Creating layer fc8
I0204 16:28:13.680150  3298 net.cpp:106] Creating Layer fc8
I0204 16:28:13.680163  3298 net.cpp:454] fc8 <- fc7
I0204 16:28:13.680177  3298 net.cpp:411] fc8 -> fc8
I0204 16:28:13.680200  3298 net.cpp:150] Setting up fc8
I0204 16:28:13.680208  3298 net.cpp:157] Top shape: 100 2 (200)
I0204 16:28:13.680213  3298 net.cpp:165] Memory required for data: 151364800
I0204 16:28:13.680222  3298 layer_factory.hpp:77] Creating layer loss
I0204 16:28:13.680233  3298 net.cpp:106] Creating Layer loss
I0204 16:28:13.680239  3298 net.cpp:454] loss <- fc8
I0204 16:28:13.680245  3298 net.cpp:454] loss <- label
I0204 16:28:13.680254  3298 net.cpp:411] loss -> loss
I0204 16:28:13.680269  3298 layer_factory.hpp:77] Creating layer loss
…
I0204 16:28:13.681350  3298 net.cpp:322] The NetState phase (1) differed from the phase (0) specified by a rule in layer data
I0204 16:28:13.681646  3298 net.cpp:49] Initializing net from parameters: 
name: "CaffeNet"
state {
  phase: TEST
}
layer {
  name: "data"
  type: "Data"
  top: "data"
  top: "label"
  include {
    phase: TEST
  }
  transform_param {
    mirror: false
    crop_size: 227
    mean_file: "/home/pearlstl/proj_cv/master/lmdb/synth1_test_lum_db/mean_file.binaryproto"
  }
  data_param {
    source: "/home/pearlstl/proj_cv/master/lmdb/synth1_test_lum_db"
    batch_size: 100
    backend: LMDB
  }
}
layer {
  name: "conv1"
  type: "Convolution"
  bottom: "data"
  top: "conv1"
  param {
    lr_mult: 1
    decay_mult: 1
  }
  param {
    lr_mult: 2
    decay_mult: 0
  }
  convolution_param {
    num_output: 32
    kernel_size: 11
    stride: 4
    weight_filler {
      type: "xavier"
    }
    bias_filler {
      type: "constant"
      value: 0
    }
  }
}
layer {
  name: "relu1"
  type: "ReLU"
  bottom: "conv1"
  top: "conv1"
}
layer {
  name: "pool1"
  type: "Pooling"
  bottom: "conv1"
  top: "pool1"
  pooling_param {
    pool: MAX
    kernel_size: 3
    stride: 2
  }
}
layer {
  name: "norm1"
  type: "LRN"
  bottom: "pool1"
  top: "norm1"
  lrn_param {
    local_size: 5
    alpha: 0.0001
    beta: 0.75
  }
}
layer {
  name: "conv2"
  type: "Convolution"
  bottom: "norm1"
  top: "conv2"
  param {
    lr_mult: 1
    decay_mult: 1
  }
  param {
    lr_mult: 2
    decay_mult: 0
  }
  convolution_param {
    num_output: 32
    pad: 2
    kernel_size: 5
    group: 2
    weight_filler {
      type: "xavier"
    }
    bias_filler {
      type: "constant"
      value: 1
    }
  }
}
layer {
  name: "relu2"
  type: "ReLU"
  bottom: "conv2"
  top: "conv2"
}
layer {
  name: "pool2"
  type: "Pooling"
  bottom: "conv2"
  top: "pool2"
  pooling_param {
    pool: MAX
    kernel_size: 3
    stride: 2
  }
}
layer {
  name: "norm2"
  type: "LRN"
  bottom: "pool2"
  top: "norm2"
  lrn_param {
    local_size: 5
    alpha: 0.0001
    beta: 0.75
  }
}
layer {
  name: "conv3"
  type: "Convolution"
  bottom: "norm2"
  top: "conv3"
  param {
    lr_mult: 1
    decay_mult: 1
  }
  param {
    lr_mult: 2
    decay_mult: 0
  }
  convolution_param {
    num_output: 32
    pad: 1
    kernel_size: 3
    weight_filler {
      type: "xavier"
    }
    bias_filler {
      type: "constant"
      value: 0
    }
  }
}
layer {
  name: "relu3"
  type: "ReLU"
  bottom: "conv3"
  top: "conv3"
}
layer {
  name: "conv4"
  type: "Convolution"
  bottom: "conv3"
  top: "conv4"
  param {
    lr_mult: 1
    decay_mult: 1
  }
  param {
    lr_mult: 2
    decay_mult: 0
  }
  convolution_param {
    num_output: 32
    pad: 1
    kernel_size: 3
    group: 2
    weight_filler {
      type: "xavier"
    }
    bias_filler {
      type: "constant"
      value: 1
    }
  }
}
layer {
  name: "relu4"
  type: "ReLU"
  bottom: "conv4"
  top: "conv4"
}
layer {
  name: "conv5"
  type: "Convolution"
  bottom: "conv4"
  top: "conv5"
  param {
    lr_mult: 1
    decay_mult: 1
  }
  param {
    lr_mult: 2
    decay_mult: 0
  }
  convolution_param {
    num_output: 16
    pad: 1
    kernel_size: 3
    group: 2
    weight_filler {
      type: "xavier"
    }
    bias_filler {
      type: "constant"
      value: 1
    }
  }
}
layer {
  name: "relu5"
  type: "ReLU"
  bottom: "conv5"
  top: "conv5"
}
layer {
  name: "pool5"
  type: "Pooling"
  bottom: "conv5"
  top: "pool5"
  pooling_param {
    pool: MAX
    kernel_size: 3
    stride: 2
  }
}
layer {
  name: "fc6"
  type: "InnerProduct"
  bottom: "pool5"
  top: "fc6"
  param {
    lr_mult: 1
    decay_mult: 1
  }
  param {
    lr_mult: 2
    decay_mult: 0
  }
  inner_product_param {
    num_output: 256
    weight_filler {
      type: "xavier"
    }
    bias_filler {
      type: "constant"
      value: 1
    }
  }
}
layer {
  name: "relu6"
  type: "ReLU"
  bottom: "fc6"
  top: "fc6"
}
layer {
  name: "drop6"
  type: "Dropout"
  bottom: "fc6"
  top: "fc6"
  dropout_param {
    dropout_ratio: 0.5
  }
}
layer {
  name: "fc7"
  type: "InnerProduct"
  bottom: "fc6"
  top: "fc7"
  param {
    lr_mult: 1
    decay_mult: 1
  }
  param {
    lr_mult: 2
    decay_mult: 0
  }
  inner_product_param {
    num_output: 256
    weight_filler {
      type: "xavier"
    }
    bias_filler {
      type: "constant"
      value: 1
    }
  }
}
layer {
  name: "relu7"
  type: "ReLU"
  bottom: "fc7"
  top: "fc7"
}
layer {
  name: "drop7"
  type: "Dropout"
  bottom: "fc7"
  top: "fc7"
  dropout_param {
    dropout_ratio: 0.5
  }
}
layer {
  name: "fc8"
  type: "InnerProduct"
  bottom: "fc7"
  top: "fc8"
  param {
    lr_mult: 1
    decay_mult: 1
  }
  param {
    lr_mult: 2
    decay_mult: 0
  }
  inner_product_param {
    num_output: 2
    weight_filler {
      type: "xavier"
    }
    bias_filler {
      type: "constant"
      value: 0
    }
  }
}
layer {
  name: "accuracy"
  type: "Accuracy"
  bottom: "fc8"
  bottom: "label"
  top: "accuracy"
  include {
    phase: TEST
  }
}
layer {
  name: "loss"
  type: "SoftmaxWithLoss"
  bottom: "fc8"
  bottom: "label"
  top: "loss"
}
I0204 16:28:13.681818  3298 layer_factory.hpp:77] Creating layer data
I0204 16:28:13.681983  3298 net.cpp:106] Creating Layer data
I0204 16:28:13.682016  3298 net.cpp:411] data -> data
I0204 16:28:13.682031  3298 net.cpp:411] data -> label
I0204 16:28:13.682042  3298 data_transformer.cpp:25] Loading mean file from: /home/pearlstl/proj_cv/master/lmdb/synth1_test_lum_db/mean_file.binaryproto
I0204 16:28:13.682184  3316 db_lmdb.cpp:38] Opened lmdb /home/pearlstl/proj_cv/master/lmdb/synth1_test_lum_db
I0204 16:28:13.682968  3298 data_layer.cpp:41] output data size: 100,1,227,227
I0204 16:28:13.729454  3298 net.cpp:150] Setting up data
I0204 16:28:13.729490  3298 net.cpp:157] Top shape: 100 1 227 227 (5152900)
I0204 16:28:13.729501  3298 net.cpp:157] Top shape: 100 (100)
I0204 16:28:13.729507  3298 net.cpp:165] Memory required for data: 20612000
I0204 16:28:13.729528  3298 layer_factory.hpp:77] Creating layer label_data_1_split
I0204 16:28:13.729549  3298 net.cpp:106] Creating Layer label_data_1_split
I0204 16:28:13.729558  3298 net.cpp:454] label_data_1_split <- label
I0204 16:28:13.729570  3298 net.cpp:411] label_data_1_split -> label_data_1_split_0
I0204 16:28:13.729588  3298 net.cpp:411] label_data_1_split -> label_data_1_split_1
I0204 16:28:13.729604  3298 net.cpp:150] Setting up label_data_1_split
I0204 16:28:13.729614  3298 net.cpp:157] Top shape: 100 (100)
I0204 16:28:13.729621  3298 net.cpp:157] Top shape: 100 (100)
I0204 16:28:13.729629  3298 net.cpp:165] Memory required for data: 20612800
I0204 16:28:13.729636  3298 layer_factory.hpp:77] Creating layer conv1
I0204 16:28:13.729655  3298 net.cpp:106] Creating Layer conv1
I0204 16:28:13.729663  3298 net.cpp:454] conv1 <- data
I0204 16:28:13.729673  3298 net.cpp:411] conv1 -> conv1
I0204 16:28:13.729751  3298 net.cpp:150] Setting up conv1
I0204 16:28:13.729765  3298 net.cpp:157] Top shape: 100 32 55 55 (9680000)
I0204 16:28:13.730132  3298 net.cpp:165] Memory required for data: 59332800
I0204 16:28:13.730154  3298 layer_factory.hpp:77] Creating layer relu1
I0204 16:28:13.730167  3298 net.cpp:106] Creating Layer relu1
I0204 16:28:13.730176  3298 net.cpp:454] relu1 <- conv1
I0204 16:28:13.730187  3298 net.cpp:397] relu1 -> conv1 (in-place)
I0204 16:28:13.730200  3298 net.cpp:150] Setting up relu1
I0204 16:28:13.730208  3298 net.cpp:157] Top shape: 100 32 55 55 (9680000)
I0204 16:28:13.730216  3298 net.cpp:165] Memory required for data: 98052800
I0204 16:28:13.730222  3298 layer_factory.hpp:77] Creating layer pool1
I0204 16:28:13.730234  3298 net.cpp:106] Creating Layer pool1
I0204 16:28:13.730240  3298 net.cpp:454] pool1 <- conv1
I0204 16:28:13.730249  3298 net.cpp:411] pool1 -> pool1
I0204 16:28:13.730265  3298 net.cpp:150] Setting up pool1
I0204 16:28:13.730275  3298 net.cpp:157] Top shape: 100 32 27 27 (2332800)
I0204 16:28:13.730281  3298 net.cpp:165] Memory required for data: 107384000
I0204 16:28:13.730288  3298 layer_factory.hpp:77] Creating layer norm1
I0204 16:28:13.730300  3298 net.cpp:106] Creating Layer norm1
I0204 16:28:13.730307  3298 net.cpp:454] norm1 <- pool1
I0204 16:28:13.730316  3298 net.cpp:411] norm1 -> norm1
I0204 16:28:13.730329  3298 net.cpp:150] Setting up norm1
I0204 16:28:13.730336  3298 net.cpp:157] Top shape: 100 32 27 27 (2332800)
I0204 16:28:13.730341  3298 net.cpp:165] Memory required for data: 116715200
I0204 16:28:13.730348  3298 layer_factory.hpp:77] Creating layer conv2
I0204 16:28:13.730360  3298 net.cpp:106] Creating Layer conv2
I0204 16:28:13.730367  3298 net.cpp:454] conv2 <- norm1
I0204 16:28:13.730377  3298 net.cpp:411] conv2 -> conv2
I0204 16:28:13.730525  3298 net.cpp:150] Setting up conv2
I0204 16:28:13.730535  3298 net.cpp:157] Top shape: 100 32 27 27 (2332800)
I0204 16:28:13.730541  3298 net.cpp:165] Memory required for data: 126046400
I0204 16:28:13.730553  3298 layer_factory.hpp:77] Creating layer relu2
I0204 16:28:13.730563  3298 net.cpp:106] Creating Layer relu2
I0204 16:28:13.730571  3298 net.cpp:454] relu2 <- conv2
I0204 16:28:13.730587  3298 net.cpp:397] relu2 -> conv2 (in-place)
I0204 16:28:13.730608  3298 net.cpp:150] Setting up relu2
I0204 16:28:13.741447  3298 net.cpp:157] Top shape: 100 32 27 27 (2332800)
I0204 16:28:13.741504  3298 net.cpp:165] Memory required for data: 135377600
I0204 16:28:13.741520  3298 layer_factory.hpp:77] Creating layer pool2
I0204 16:28:13.741554  3298 net.cpp:106] Creating Layer pool2
I0204 16:28:13.741564  3298 net.cpp:454] pool2 <- conv2
I0204 16:28:13.741580  3298 net.cpp:411] pool2 -> pool2
I0204 16:28:13.741608  3298 net.cpp:150] Setting up pool2
I0204 16:28:13.741618  3298 net.cpp:157] Top shape: 100 32 13 13 (540800)
I0204 16:28:13.741623  3298 net.cpp:165] Memory required for data: 137540800
I0204 16:28:13.741629  3298 layer_factory.hpp:77] Creating layer norm2
I0204 16:28:13.741641  3298 net.cpp:106] Creating Layer norm2
I0204 16:28:13.741647  3298 net.cpp:454] norm2 <- pool2
I0204 16:28:13.741657  3298 net.cpp:411] norm2 -> norm2
I0204 16:28:13.741668  3298 net.cpp:150] Setting up norm2
I0204 16:28:13.741677  3298 net.cpp:157] Top shape: 100 32 13 13 (540800)
I0204 16:28:13.741682  3298 net.cpp:165] Memory required for data: 139704000
I0204 16:28:13.741688  3298 layer_factory.hpp:77] Creating layer conv3
I0204 16:28:13.741714  3298 net.cpp:106] Creating Layer conv3
I0204 16:28:13.741722  3298 net.cpp:454] conv3 <- norm2
I0204 16:28:13.741734  3298 net.cpp:411] conv3 -> conv3
I0204 16:28:13.741848  3298 net.cpp:150] Setting up conv3
I0204 16:28:13.741859  3298 net.cpp:157] Top shape: 100 32 13 13 (540800)
I0204 16:28:13.741864  3298 net.cpp:165] Memory required for data: 141867200
I0204 16:28:13.741878  3298 layer_factory.hpp:77] Creating layer relu3
I0204 16:28:13.741889  3298 net.cpp:106] Creating Layer relu3
I0204 16:28:13.741896  3298 net.cpp:454] relu3 <- conv3
I0204 16:28:13.741904  3298 net.cpp:397] relu3 -> conv3 (in-place)
I0204 16:28:13.741915  3298 net.cpp:150] Setting up relu3
I0204 16:28:13.741931  3298 net.cpp:157] Top shape: 100 32 13 13 (540800)
I0204 16:28:13.741936  3298 net.cpp:165] Memory required for data: 144030400
I0204 16:28:13.741943  3298 layer_factory.hpp:77] Creating layer conv4
I0204 16:28:13.741955  3298 net.cpp:106] Creating Layer conv4
I0204 16:28:13.741961  3298 net.cpp:454] conv4 <- conv3
I0204 16:28:13.741971  3298 net.cpp:411] conv4 -> conv4
I0204 16:28:13.742033  3298 net.cpp:150] Setting up conv4
I0204 16:28:13.742043  3298 net.cpp:157] Top shape: 100 32 13 13 (540800)
I0204 16:28:13.742048  3298 net.cpp:165] Memory required for data: 146193600
I0204 16:28:13.742058  3298 layer_factory.hpp:77] Creating layer relu4
I0204 16:28:13.742066  3298 net.cpp:106] Creating Layer relu4
I0204 16:28:13.742074  3298 net.cpp:454] relu4 <- conv4
I0204 16:28:13.742081  3298 net.cpp:397] relu4 -> conv4 (in-place)
I0204 16:28:13.742090  3298 net.cpp:150] Setting up relu4
I0204 16:28:13.742099  3298 net.cpp:157] Top shape: 100 32 13 13 (540800)
I0204 16:28:13.742103  3298 net.cpp:165] Memory required for data: 148356800
I0204 16:28:13.742110  3298 layer_factory.hpp:77] Creating layer conv5
I0204 16:28:13.742121  3298 net.cpp:106] Creating Layer conv5
I0204 16:28:13.742127  3298 net.cpp:454] conv5 <- conv4
I0204 16:28:13.742137  3298 net.cpp:411] conv5 -> conv5
I0204 16:28:13.742178  3298 net.cpp:150] Setting up conv5
I0204 16:28:13.742188  3298 net.cpp:157] Top shape: 100 16 13 13 (270400)
I0204 16:28:13.742193  3298 net.cpp:165] Memory required for data: 149438400
I0204 16:28:13.742233  3298 layer_factory.hpp:77] Creating layer relu5
I0204 16:28:13.742245  3298 net.cpp:106] Creating Layer relu5
I0204 16:28:13.742252  3298 net.cpp:454] relu5 <- conv5
I0204 16:28:13.742260  3298 net.cpp:397] relu5 -> conv5 (in-place)
I0204 16:28:13.742270  3298 net.cpp:150] Setting up relu5
I0204 16:28:13.742277  3298 net.cpp:157] Top shape: 100 16 13 13 (270400)
I0204 16:28:13.742283  3298 net.cpp:165] Memory required for data: 150520000
I0204 16:28:13.742288  3298 layer_factory.hpp:77] Creating layer pool5
I0204 16:28:13.742300  3298 net.cpp:106] Creating Layer pool5
I0204 16:28:13.742306  3298 net.cpp:454] pool5 <- conv5
I0204 16:28:13.742336  3298 net.cpp:411] pool5 -> pool5
I0204 16:28:13.742349  3298 net.cpp:150] Setting up pool5
I0204 16:28:13.742357  3298 net.cpp:157] Top shape: 100 16 6 6 (57600)
I0204 16:28:13.742362  3298 net.cpp:165] Memory required for data: 150750400
I0204 16:28:13.742367  3298 layer_factory.hpp:77] Creating layer fc6
I0204 16:28:13.742380  3298 net.cpp:106] Creating Layer fc6
I0204 16:28:13.742386  3298 net.cpp:454] fc6 <- pool5
I0204 16:28:13.742403  3298 net.cpp:411] fc6 -> fc6
I0204 16:28:13.744403  3298 net.cpp:150] Setting up fc6
I0204 16:28:13.744431  3298 net.cpp:157] Top shape: 100 256 (25600)
I0204 16:28:13.744437  3298 net.cpp:165] Memory required for data: 150852800
I0204 16:28:13.744449  3298 layer_factory.hpp:77] Creating layer relu6
I0204 16:28:13.744463  3298 net.cpp:106] Creating Layer relu6
I0204 16:28:13.744472  3298 net.cpp:454] relu6 <- fc6
I0204 16:28:13.744482  3298 net.cpp:397] relu6 -> fc6 (in-place)
I0204 16:28:13.744493  3298 net.cpp:150] Setting up relu6
I0204 16:28:13.744500  3298 net.cpp:157] Top shape: 100 256 (25600)
I0204 16:28:13.744506  3298 net.cpp:165] Memory required for data: 150955200
I0204 16:28:13.744514  3298 layer_factory.hpp:77] Creating layer drop6
I0204 16:28:13.744525  3298 net.cpp:106] Creating Layer drop6
I0204 16:28:13.744531  3298 net.cpp:454] drop6 <- fc6
I0204 16:28:13.744540  3298 net.cpp:397] drop6 -> fc6 (in-place)
I0204 16:28:13.744552  3298 net.cpp:150] Setting up drop6
I0204 16:28:13.744560  3298 net.cpp:157] Top shape: 100 256 (25600)
I0204 16:28:13.744565  3298 net.cpp:165] Memory required for data: 151057600
I0204 16:28:13.744572  3298 layer_factory.hpp:77] Creating layer fc7
I0204 16:28:13.744585  3298 net.cpp:106] Creating Layer fc7
I0204 16:28:13.744592  3298 net.cpp:454] fc7 <- fc6
I0204 16:28:13.744601  3298 net.cpp:411] fc7 -> fc7
I0204 16:28:13.745920  3298 net.cpp:150] Setting up fc7
I0204 16:28:13.745939  3298 net.cpp:157] Top shape: 100 256 (25600)
I0204 16:28:13.745960  3298 net.cpp:165] Memory required for data: 151160000
I0204 16:28:13.745971  3298 layer_factory.hpp:77] Creating layer relu7
I0204 16:28:13.745986  3298 net.cpp:106] Creating Layer relu7
I0204 16:28:13.745993  3298 net.cpp:454] relu7 <- fc7
I0204 16:28:13.746001  3298 net.cpp:397] relu7 -> fc7 (in-place)
I0204 16:28:13.746012  3298 net.cpp:150] Setting up relu7
I0204 16:28:13.746021  3298 net.cpp:157] Top shape: 100 256 (25600)
I0204 16:28:13.746026  3298 net.cpp:165] Memory required for data: 151262400
I0204 16:28:13.746031  3298 layer_factory.hpp:77] Creating layer drop7
I0204 16:28:13.746040  3298 net.cpp:106] Creating Layer drop7
I0204 16:28:13.746047  3298 net.cpp:454] drop7 <- fc7
I0204 16:28:13.746057  3298 net.cpp:397] drop7 -> fc7 (in-place)
I0204 16:28:13.746073  3298 net.cpp:150] Setting up drop7
I0204 16:28:13.746079  3298 net.cpp:157] Top shape: 100 256 (25600)
I0204 16:28:13.746084  3298 net.cpp:165] Memory required for data: 151364800
I0204 16:28:13.746091  3298 layer_factory.hpp:77] Creating layer fc8
I0204 16:28:13.746103  3298 net.cpp:106] Creating Layer fc8
I0204 16:28:13.746109  3298 net.cpp:454] fc8 <- fc7
I0204 16:28:13.746119  3298 net.cpp:411] fc8 -> fc8
I0204 16:28:13.746148  3298 net.cpp:150] Setting up fc8
I0204 16:28:13.746160  3298 net.cpp:157] Top shape: 100 2 (200)
I0204 16:28:13.746167  3298 net.cpp:165] Memory required for data: 151365600
I0204 16:28:13.746176  3298 layer_factory.hpp:77] Creating layer fc8_fc8_0_split
I0204 16:28:13.746186  3298 net.cpp:106] Creating Layer fc8_fc8_0_split
I0204 16:28:13.746191  3298 net.cpp:454] fc8_fc8_0_split <- fc8
I0204 16:28:13.746198  3298 net.cpp:411] fc8_fc8_0_split -> fc8_fc8_0_split_0
I0204 16:28:13.746207  3298 net.cpp:411] fc8_fc8_0_split -> fc8_fc8_0_split_1
I0204 16:28:13.746220  3298 net.cpp:150] Setting up fc8_fc8_0_split
I0204 16:28:13.746227  3298 net.cpp:157] Top shape: 100 2 (200)
I0204 16:28:13.746234  3298 net.cpp:157] Top shape: 100 2 (200)
I0204 16:28:13.746239  3298 net.cpp:165] Memory required for data: 151367200
I0204 16:28:13.746244  3298 layer_factory.hpp:77] Creating layer accuracy
I0204 16:28:13.746280  3298 net.cpp:106] Creating Layer accuracy
I0204 16:28:13.746287  3298 net.cpp:454] accuracy <- fc8_fc8_0_split_0
I0204 16:28:13.746295  3298 net.cpp:454] accuracy <- label_data_1_split_0
I0204 16:28:13.746305  3298 net.cpp:411] accuracy -> accuracy
…
