…
I0205 03:46:44.429291 12024 net.cpp:322] The NetState phase (0) differed from the phase (1) specified by a rule in layer accuracy
I0205 03:46:44.429543 12024 net.cpp:49] Initializing net from parameters: 
name: "CaffeNet"
state {
  phase: TRAIN
}
layer {
  name: "data"
  type: "Data"
  top: "data"
  top: "label"
  include {
    phase: TRAIN
  }
  transform_param {
    mirror: true
    crop_size: 227
    mean_file: "/home/pearlstl/proj_cv/master/lmdb/synth1_train_lum_db/mean_file.binaryproto"
  }
  data_param {
    source: "/home/pearlstl/proj_cv/master/lmdb/synth1_train_lum_db"
    batch_size: 100
    backend: LMDB
  }
}
layer {
  name: "conv1"
  type: "Convolution"
  bottom: "data"
  top: "conv1"
  param {
    lr_mult: 1
    decay_mult: 1
  }
  param {
    lr_mult: 2
    decay_mult: 0
  }
  convolution_param {
    num_output: 32
    kernel_size: 11
    stride: 4
    weight_filler {
      type: "xavier"
    }
    bias_filler {
      type: "constant"
      value: 0
    }
  }
}
layer {
  name: "relu1"
  type: "ReLU"
  bottom: "conv1"
  top: "conv1"
}
layer {
  name: "pool1"
  type: "Pooling"
  bottom: "conv1"
  top: "pool1"
  pooling_param {
    pool: MAX
    kernel_size: 3
    stride: 2
  }
}
layer {
  name: "norm1"
  type: "LRN"
  bottom: "pool1"
  top: "norm1"
  lrn_param {
    local_size: 5
    alpha: 0.0001
    beta: 0.75
  }
}
layer {
  name: "conv2"
  type: "Convolution"
  bottom: "norm1"
  top: "conv2"
  param {
    lr_mult: 1
    decay_mult: 1
  }
  param {
    lr_mult: 2
    decay_mult: 0
  }
  convolution_param {
    num_output: 32
    pad: 2
    kernel_size: 5
    group: 2
    weight_filler {
      type: "xavier"
    }
    bias_filler {
      type: "constant"
      value: 1
    }
  }
}
layer {
  name: "relu2"
  type: "ReLU"
  bottom: "conv2"
  top: "conv2"
}
layer {
  name: "pool2"
  type: "Pooling"
  bottom: "conv2"
  top: "pool2"
  pooling_param {
    pool: MAX
    kernel_size: 3
    stride: 2
  }
}
layer {
  name: "norm2"
  type: "LRN"
  bottom: "pool2"
  top: "norm2"
  lrn_param {
    local_size: 5
    alpha: 0.0001
    beta: 0.75
  }
}
layer {
  name: "conv3"
  type: "Convolution"
  bottom: "norm2"
  top: "conv3"
  param {
    lr_mult: 1
    decay_mult: 1
  }
  param {
    lr_mult: 2
    decay_mult: 0
  }
  convolution_param {
    num_output: 32
    pad: 1
    kernel_size: 3
    weight_filler {
      type: "xavier"
    }
    bias_filler {
      type: "constant"
      value: 0
    }
  }
}
layer {
  name: "relu3"
  type: "ReLU"
  bottom: "conv3"
  top: "conv3"
}
layer {
  name: "conv4"
  type: "Convolution"
  bottom: "conv3"
  top: "conv4"
  param {
    lr_mult: 1
    decay_mult: 1
  }
  param {
    lr_mult: 2
    decay_mult: 0
  }
  convolution_param {
    num_output: 32
    pad: 1
    kernel_size: 3
    group: 2
    weight_filler {
      type: "xavier"
    }
    bias_filler {
      type: "constant"
      value: 1
    }
  }
}
layer {
  name: "relu4"
  type: "ReLU"
  bottom: "conv4"
  top: "conv4"
}
layer {
  name: "conv5"
  type: "Convolution"
  bottom: "conv4"
  top: "conv5"
  param {
    lr_mult: 1
    decay_mult: 1
  }
  param {
    lr_mult: 2
    decay_mult: 0
  }
  convolution_param {
    num_output: 16
    pad: 1
    kernel_size: 3
    group: 2
    weight_filler {
      type: "xavier"
    }
    bias_filler {
      type: "constant"
      value: 1
    }
  }
}
layer {
  name: "relu5"
  type: "ReLU"
  bottom: "conv5"
  top: "conv5"
}
layer {
  name: "pool5"
  type: "Pooling"
  bottom: "conv5"
  top: "pool5"
  pooling_param {
    pool: MAX
    kernel_size: 3
    stride: 2
  }
}
layer {
  name: "fc6"
  type: "InnerProduct"
  bottom: "pool5"
  top: "fc6"
  param {
    lr_mult: 1
    decay_mult: 1
  }
  param {
    lr_mult: 2
    decay_mult: 0
  }
  inner_product_param {
    num_output: 256
    weight_filler {
      type: "xavier"
    }
    bias_filler {
      type: "constant"
      value: 1
    }
  }
}
layer {
  name: "relu6"
  type: "ReLU"
  bottom: "fc6"
  top: "fc6"
}
layer {
  name: "drop6"
  type: "Dropout"
  bottom: "fc6"
  top: "fc6"
  dropout_param {
    dropout_ratio: 0.5
  }
}
layer {
  name: "fc7"
  type: "InnerProduct"
  bottom: "fc6"
  top: "fc7"
  param {
    lr_mult: 1
    decay_mult: 1
  }
  param {
    lr_mult: 2
    decay_mult: 0
  }
  inner_product_param {
    num_output: 256
    weight_filler {
      type: "xavier"
    }
    bias_filler {
      type: "constant"
      value: 1
    }
  }
}
layer {
  name: "relu7"
  type: "ReLU"
  bottom: "fc7"
  top: "fc7"
}
layer {
  name: "drop7"
  type: "Dropout"
  bottom: "fc7"
  top: "fc7"
  dropout_param {
    dropout_ratio: 0.5
  }
}
layer {
  name: "fc8"
  type: "InnerProduct"
  bottom: "fc7"
  top: "fc8"
  param {
    lr_mult: 1
    decay_mult: 1
  }
  param {
    lr_mult: 2
    decay_mult: 0
  }
  inner_product_param {
    num_output: 2
    weight_filler {
      type: "xavier"
    }
    bias_filler {
      type: "constant"
      value: 0
    }
  }
}
layer {
  name: "loss"
  type: "SoftmaxWithLoss"
  bottom: "fc8"
  bottom: "label"
  top: "loss"
}
I0205 03:46:44.429687 12024 layer_factory.hpp:77] Creating layer data
I0205 03:46:44.429877 12024 net.cpp:106] Creating Layer data
I0205 03:46:44.429898 12024 net.cpp:411] data -> data
I0205 03:46:44.430011 12024 net.cpp:411] data -> label
I0205 03:46:44.430039 12024 data_transformer.cpp:25] Loading mean file from: /home/pearlstl/proj_cv/master/lmdb/synth1_train_lum_db/mean_file.binaryproto
I0205 03:46:44.430214 12025 db_lmdb.cpp:38] Opened lmdb /home/pearlstl/proj_cv/master/lmdb/synth1_train_lum_db
I0205 03:46:44.431233 12024 data_layer.cpp:41] output data size: 100,1,227,227
I0205 03:46:44.462872 12024 net.cpp:150] Setting up data
I0205 03:46:44.462954 12024 net.cpp:157] Top shape: 100 1 227 227 (5152900)
I0205 03:46:44.462965 12024 net.cpp:157] Top shape: 100 (100)
I0205 03:46:44.462970 12024 net.cpp:165] Memory required for data: 20612000
I0205 03:46:44.462993 12024 layer_factory.hpp:77] Creating layer conv1
I0205 03:46:44.463021 12024 net.cpp:106] Creating Layer conv1
I0205 03:46:44.463030 12024 net.cpp:454] conv1 <- data
I0205 03:46:44.463052 12024 net.cpp:411] conv1 -> conv1
I0205 03:46:44.463194 12024 net.cpp:150] Setting up conv1
I0205 03:46:44.463207 12024 net.cpp:157] Top shape: 100 32 55 55 (9680000)
I0205 03:46:44.463213 12024 net.cpp:165] Memory required for data: 59332000
I0205 03:46:44.463232 12024 layer_factory.hpp:77] Creating layer relu1
I0205 03:46:44.463244 12024 net.cpp:106] Creating Layer relu1
I0205 03:46:44.463250 12024 net.cpp:454] relu1 <- conv1
I0205 03:46:44.463260 12024 net.cpp:397] relu1 -> conv1 (in-place)
I0205 03:46:44.463274 12024 net.cpp:150] Setting up relu1
I0205 03:46:44.463280 12024 net.cpp:157] Top shape: 100 32 55 55 (9680000)
I0205 03:46:44.463289 12024 net.cpp:165] Memory required for data: 98052000
I0205 03:46:44.463295 12024 layer_factory.hpp:77] Creating layer pool1
I0205 03:46:44.463306 12024 net.cpp:106] Creating Layer pool1
I0205 03:46:44.463312 12024 net.cpp:454] pool1 <- conv1
I0205 03:46:44.463320 12024 net.cpp:411] pool1 -> pool1
I0205 03:46:44.463346 12024 net.cpp:150] Setting up pool1
I0205 03:46:44.463356 12024 net.cpp:157] Top shape: 100 32 27 27 (2332800)
I0205 03:46:44.463361 12024 net.cpp:165] Memory required for data: 107383200
I0205 03:46:44.463367 12024 layer_factory.hpp:77] Creating layer norm1
I0205 03:46:44.463400 12024 net.cpp:106] Creating Layer norm1
I0205 03:46:44.463407 12024 net.cpp:454] norm1 <- pool1
I0205 03:46:44.463417 12024 net.cpp:411] norm1 -> norm1
I0205 03:46:44.463435 12024 net.cpp:150] Setting up norm1
I0205 03:46:44.463444 12024 net.cpp:157] Top shape: 100 32 27 27 (2332800)
I0205 03:46:44.463450 12024 net.cpp:165] Memory required for data: 116714400
I0205 03:46:44.463455 12024 layer_factory.hpp:77] Creating layer conv2
I0205 03:46:44.463469 12024 net.cpp:106] Creating Layer conv2
I0205 03:46:44.463474 12024 net.cpp:454] conv2 <- norm1
I0205 03:46:44.463484 12024 net.cpp:411] conv2 -> conv2
I0205 03:46:44.463616 12024 net.cpp:150] Setting up conv2
I0205 03:46:44.463626 12024 net.cpp:157] Top shape: 100 32 27 27 (2332800)
I0205 03:46:44.463631 12024 net.cpp:165] Memory required for data: 126045600
I0205 03:46:44.463644 12024 layer_factory.hpp:77] Creating layer relu2
I0205 03:46:44.463652 12024 net.cpp:106] Creating Layer relu2
I0205 03:46:44.463660 12024 net.cpp:454] relu2 <- conv2
I0205 03:46:44.463667 12024 net.cpp:397] relu2 -> conv2 (in-place)
I0205 03:46:44.463676 12024 net.cpp:150] Setting up relu2
I0205 03:46:44.463683 12024 net.cpp:157] Top shape: 100 32 27 27 (2332800)
I0205 03:46:44.463690 12024 net.cpp:165] Memory required for data: 135376800
I0205 03:46:44.463695 12024 layer_factory.hpp:77] Creating layer pool2
I0205 03:46:44.463711 12024 net.cpp:106] Creating Layer pool2
I0205 03:46:44.463718 12024 net.cpp:454] pool2 <- conv2
I0205 03:46:44.463726 12024 net.cpp:411] pool2 -> pool2
I0205 03:46:44.463740 12024 net.cpp:150] Setting up pool2
I0205 03:46:44.463748 12024 net.cpp:157] Top shape: 100 32 13 13 (540800)
I0205 03:46:44.463753 12024 net.cpp:165] Memory required for data: 137540000
I0205 03:46:44.463759 12024 layer_factory.hpp:77] Creating layer norm2
I0205 03:46:44.463770 12024 net.cpp:106] Creating Layer norm2
I0205 03:46:44.463776 12024 net.cpp:454] norm2 <- pool2
I0205 03:46:44.463786 12024 net.cpp:411] norm2 -> norm2
I0205 03:46:44.463796 12024 net.cpp:150] Setting up norm2
I0205 03:46:44.463804 12024 net.cpp:157] Top shape: 100 32 13 13 (540800)
I0205 03:46:44.463809 12024 net.cpp:165] Memory required for data: 139703200
I0205 03:46:44.463815 12024 layer_factory.hpp:77] Creating layer conv3
I0205 03:46:44.463825 12024 net.cpp:106] Creating Layer conv3
I0205 03:46:44.463831 12024 net.cpp:454] conv3 <- norm2
I0205 03:46:44.463840 12024 net.cpp:411] conv3 -> conv3
I0205 03:46:44.463953 12024 net.cpp:150] Setting up conv3
I0205 03:46:44.463965 12024 net.cpp:157] Top shape: 100 32 13 13 (540800)
I0205 03:46:44.463970 12024 net.cpp:165] Memory required for data: 141866400
I0205 03:46:44.463981 12024 layer_factory.hpp:77] Creating layer relu3
I0205 03:46:44.463994 12024 net.cpp:106] Creating Layer relu3
I0205 03:46:44.463999 12024 net.cpp:454] relu3 <- conv3
I0205 03:46:44.464007 12024 net.cpp:397] relu3 -> conv3 (in-place)
I0205 03:46:44.464016 12024 net.cpp:150] Setting up relu3
I0205 03:46:44.464023 12024 net.cpp:157] Top shape: 100 32 13 13 (540800)
I0205 03:46:44.464028 12024 net.cpp:165] Memory required for data: 144029600
I0205 03:46:44.464033 12024 layer_factory.hpp:77] Creating layer conv4
I0205 03:46:44.464046 12024 net.cpp:106] Creating Layer conv4
I0205 03:46:44.464053 12024 net.cpp:454] conv4 <- conv3
I0205 03:46:44.464064 12024 net.cpp:411] conv4 -> conv4
I0205 03:46:44.464155 12024 net.cpp:150] Setting up conv4
I0205 03:46:44.464166 12024 net.cpp:157] Top shape: 100 32 13 13 (540800)
I0205 03:46:44.464171 12024 net.cpp:165] Memory required for data: 146192800
I0205 03:46:44.464179 12024 layer_factory.hpp:77] Creating layer relu4
I0205 03:46:44.464189 12024 net.cpp:106] Creating Layer relu4
I0205 03:46:44.464195 12024 net.cpp:454] relu4 <- conv4
I0205 03:46:44.464203 12024 net.cpp:397] relu4 -> conv4 (in-place)
I0205 03:46:44.464212 12024 net.cpp:150] Setting up relu4
I0205 03:46:44.464220 12024 net.cpp:157] Top shape: 100 32 13 13 (540800)
I0205 03:46:44.464224 12024 net.cpp:165] Memory required for data: 148356000
I0205 03:46:44.464236 12024 layer_factory.hpp:77] Creating layer conv5
I0205 03:46:44.464254 12024 net.cpp:106] Creating Layer conv5
I0205 03:46:44.464262 12024 net.cpp:454] conv5 <- conv4
I0205 03:46:44.464269 12024 net.cpp:411] conv5 -> conv5
I0205 03:46:44.464318 12024 net.cpp:150] Setting up conv5
I0205 03:46:44.464328 12024 net.cpp:157] Top shape: 100 16 13 13 (270400)
I0205 03:46:44.464332 12024 net.cpp:165] Memory required for data: 149437600
I0205 03:46:44.464344 12024 layer_factory.hpp:77] Creating layer relu5
I0205 03:46:44.464351 12024 net.cpp:106] Creating Layer relu5
I0205 03:46:44.464357 12024 net.cpp:454] relu5 <- conv5
I0205 03:46:44.464367 12024 net.cpp:397] relu5 -> conv5 (in-place)
I0205 03:46:44.464376 12024 net.cpp:150] Setting up relu5
I0205 03:46:44.464383 12024 net.cpp:157] Top shape: 100 16 13 13 (270400)
I0205 03:46:44.464388 12024 net.cpp:165] Memory required for data: 150519200
I0205 03:46:44.464395 12024 layer_factory.hpp:77] Creating layer pool5
I0205 03:46:44.464402 12024 net.cpp:106] Creating Layer pool5
I0205 03:46:44.464408 12024 net.cpp:454] pool5 <- conv5
I0205 03:46:44.464418 12024 net.cpp:411] pool5 -> pool5
I0205 03:46:44.464432 12024 net.cpp:150] Setting up pool5
I0205 03:46:44.464439 12024 net.cpp:157] Top shape: 100 16 6 6 (57600)
I0205 03:46:44.464445 12024 net.cpp:165] Memory required for data: 150749600
I0205 03:46:44.464450 12024 layer_factory.hpp:77] Creating layer fc6
I0205 03:46:44.464467 12024 net.cpp:106] Creating Layer fc6
I0205 03:46:44.464473 12024 net.cpp:454] fc6 <- pool5
I0205 03:46:44.464484 12024 net.cpp:411] fc6 -> fc6
I0205 03:46:44.466083 12024 net.cpp:150] Setting up fc6
I0205 03:46:44.466104 12024 net.cpp:157] Top shape: 100 256 (25600)
I0205 03:46:44.466109 12024 net.cpp:165] Memory required for data: 150852000
I0205 03:46:44.466119 12024 layer_factory.hpp:77] Creating layer relu6
I0205 03:46:44.466130 12024 net.cpp:106] Creating Layer relu6
I0205 03:46:44.466137 12024 net.cpp:454] relu6 <- fc6
I0205 03:46:44.466145 12024 net.cpp:397] relu6 -> fc6 (in-place)
I0205 03:46:44.466155 12024 net.cpp:150] Setting up relu6
I0205 03:46:44.466161 12024 net.cpp:157] Top shape: 100 256 (25600)
I0205 03:46:44.466166 12024 net.cpp:165] Memory required for data: 150954400
I0205 03:46:44.466172 12024 layer_factory.hpp:77] Creating layer drop6
I0205 03:46:44.466183 12024 net.cpp:106] Creating Layer drop6
I0205 03:46:44.466189 12024 net.cpp:454] drop6 <- fc6
I0205 03:46:44.466197 12024 net.cpp:397] drop6 -> fc6 (in-place)
I0205 03:46:44.466217 12024 net.cpp:150] Setting up drop6
I0205 03:46:44.466224 12024 net.cpp:157] Top shape: 100 256 (25600)
I0205 03:46:44.466230 12024 net.cpp:165] Memory required for data: 151056800
I0205 03:46:44.466235 12024 layer_factory.hpp:77] Creating layer fc7
I0205 03:46:44.466246 12024 net.cpp:106] Creating Layer fc7
I0205 03:46:44.466253 12024 net.cpp:454] fc7 <- fc6
I0205 03:46:44.466262 12024 net.cpp:411] fc7 -> fc7
I0205 03:46:44.466959 12024 net.cpp:150] Setting up fc7
I0205 03:46:44.466972 12024 net.cpp:157] Top shape: 100 256 (25600)
I0205 03:46:44.466977 12024 net.cpp:165] Memory required for data: 151159200
I0205 03:46:44.466986 12024 layer_factory.hpp:77] Creating layer relu7
I0205 03:46:44.466995 12024 net.cpp:106] Creating Layer relu7
I0205 03:46:44.467000 12024 net.cpp:454] relu7 <- fc7
I0205 03:46:44.467012 12024 net.cpp:397] relu7 -> fc7 (in-place)
I0205 03:46:44.467022 12024 net.cpp:150] Setting up relu7
I0205 03:46:44.467030 12024 net.cpp:157] Top shape: 100 256 (25600)
I0205 03:46:44.467034 12024 net.cpp:165] Memory required for data: 151261600
I0205 03:46:44.467041 12024 layer_factory.hpp:77] Creating layer drop7
I0205 03:46:44.467048 12024 net.cpp:106] Creating Layer drop7
I0205 03:46:44.467054 12024 net.cpp:454] drop7 <- fc7
I0205 03:46:44.467064 12024 net.cpp:397] drop7 -> fc7 (in-place)
I0205 03:46:44.467074 12024 net.cpp:150] Setting up drop7
I0205 03:46:44.467080 12024 net.cpp:157] Top shape: 100 256 (25600)
I0205 03:46:44.467087 12024 net.cpp:165] Memory required for data: 151364000
I0205 03:46:44.467099 12024 layer_factory.hpp:77] Creating layer fc8
I0205 03:46:44.467114 12024 net.cpp:106] Creating Layer fc8
I0205 03:46:44.467128 12024 net.cpp:454] fc8 <- fc7
I0205 03:46:44.467139 12024 net.cpp:411] fc8 -> fc8
I0205 03:46:44.467164 12024 net.cpp:150] Setting up fc8
I0205 03:46:44.467172 12024 net.cpp:157] Top shape: 100 2 (200)
I0205 03:46:44.467178 12024 net.cpp:165] Memory required for data: 151364800
I0205 03:46:44.467186 12024 layer_factory.hpp:77] Creating layer loss
I0205 03:46:44.467197 12024 net.cpp:106] Creating Layer loss
I0205 03:46:44.467203 12024 net.cpp:454] loss <- fc8
I0205 03:46:44.467211 12024 net.cpp:454] loss <- label
I0205 03:46:44.467226 12024 net.cpp:411] loss -> loss
I0205 03:46:44.467241 12024 layer_factory.hpp:77] Creating layer loss
…
I0205 03:46:44.468360 12024 net.cpp:322] The NetState phase (1) differed from the phase (0) specified by a rule in layer data
I0205 03:46:44.468660 12024 net.cpp:49] Initializing net from parameters: 
name: "CaffeNet"
state {
  phase: TEST
}
layer {
  name: "data"
  type: "Data"
  top: "data"
  top: "label"
  include {
    phase: TEST
  }
  transform_param {
    mirror: false
    crop_size: 227
    mean_file: "/home/pearlstl/proj_cv/master/lmdb/synth1_test_lum_db/mean_file.binaryproto"
  }
  data_param {
    source: "/home/pearlstl/proj_cv/master/lmdb/synth1_test_lum_db"
    batch_size: 100
    backend: LMDB
  }
}
layer {
  name: "conv1"
  type: "Convolution"
  bottom: "data"
  top: "conv1"
  param {
    lr_mult: 1
    decay_mult: 1
  }
  param {
    lr_mult: 2
    decay_mult: 0
  }
  convolution_param {
    num_output: 32
    kernel_size: 11
    stride: 4
    weight_filler {
      type: "xavier"
    }
    bias_filler {
      type: "constant"
      value: 0
    }
  }
}
layer {
  name: "relu1"
  type: "ReLU"
  bottom: "conv1"
  top: "conv1"
}
layer {
  name: "pool1"
  type: "Pooling"
  bottom: "conv1"
  top: "pool1"
  pooling_param {
    pool: MAX
    kernel_size: 3
    stride: 2
  }
}
layer {
  name: "norm1"
  type: "LRN"
  bottom: "pool1"
  top: "norm1"
  lrn_param {
    local_size: 5
    alpha: 0.0001
    beta: 0.75
  }
}
layer {
  name: "conv2"
  type: "Convolution"
  bottom: "norm1"
  top: "conv2"
  param {
    lr_mult: 1
    decay_mult: 1
  }
  param {
    lr_mult: 2
    decay_mult: 0
  }
  convolution_param {
    num_output: 32
    pad: 2
    kernel_size: 5
    group: 2
    weight_filler {
      type: "xavier"
    }
    bias_filler {
      type: "constant"
      value: 1
    }
  }
}
layer {
  name: "relu2"
  type: "ReLU"
  bottom: "conv2"
  top: "conv2"
}
layer {
  name: "pool2"
  type: "Pooling"
  bottom: "conv2"
  top: "pool2"
  pooling_param {
    pool: MAX
    kernel_size: 3
    stride: 2
  }
}
layer {
  name: "norm2"
  type: "LRN"
  bottom: "pool2"
  top: "norm2"
  lrn_param {
    local_size: 5
    alpha: 0.0001
    beta: 0.75
  }
}
layer {
  name: "conv3"
  type: "Convolution"
  bottom: "norm2"
  top: "conv3"
  param {
    lr_mult: 1
    decay_mult: 1
  }
  param {
    lr_mult: 2
    decay_mult: 0
  }
  convolution_param {
    num_output: 32
    pad: 1
    kernel_size: 3
    weight_filler {
      type: "xavier"
    }
    bias_filler {
      type: "constant"
      value: 0
    }
  }
}
layer {
  name: "relu3"
  type: "ReLU"
  bottom: "conv3"
  top: "conv3"
}
layer {
  name: "conv4"
  type: "Convolution"
  bottom: "conv3"
  top: "conv4"
  param {
    lr_mult: 1
    decay_mult: 1
  }
  param {
    lr_mult: 2
    decay_mult: 0
  }
  convolution_param {
    num_output: 32
    pad: 1
    kernel_size: 3
    group: 2
    weight_filler {
      type: "xavier"
    }
    bias_filler {
      type: "constant"
      value: 1
    }
  }
}
layer {
  name: "relu4"
  type: "ReLU"
  bottom: "conv4"
  top: "conv4"
}
layer {
  name: "conv5"
  type: "Convolution"
  bottom: "conv4"
  top: "conv5"
  param {
    lr_mult: 1
    decay_mult: 1
  }
  param {
    lr_mult: 2
    decay_mult: 0
  }
  convolution_param {
    num_output: 16
    pad: 1
    kernel_size: 3
    group: 2
    weight_filler {
      type: "xavier"
    }
    bias_filler {
      type: "constant"
      value: 1
    }
  }
}
layer {
  name: "relu5"
  type: "ReLU"
  bottom: "conv5"
  top: "conv5"
}
layer {
  name: "pool5"
  type: "Pooling"
  bottom: "conv5"
  top: "pool5"
  pooling_param {
    pool: MAX
    kernel_size: 3
    stride: 2
  }
}
layer {
  name: "fc6"
  type: "InnerProduct"
  bottom: "pool5"
  top: "fc6"
  param {
    lr_mult: 1
    decay_mult: 1
  }
  param {
    lr_mult: 2
    decay_mult: 0
  }
  inner_product_param {
    num_output: 256
    weight_filler {
      type: "xavier"
    }
    bias_filler {
      type: "constant"
      value: 1
    }
  }
}
layer {
  name: "relu6"
  type: "ReLU"
  bottom: "fc6"
  top: "fc6"
}
layer {
  name: "drop6"
  type: "Dropout"
  bottom: "fc6"
  top: "fc6"
  dropout_param {
    dropout_ratio: 0.5
  }
}
layer {
  name: "fc7"
  type: "InnerProduct"
  bottom: "fc6"
  top: "fc7"
  param {
    lr_mult: 1
    decay_mult: 1
  }
  param {
    lr_mult: 2
    decay_mult: 0
  }
  inner_product_param {
    num_output: 256
    weight_filler {
      type: "xavier"
    }
    bias_filler {
      type: "constant"
      value: 1
    }
  }
}
layer {
  name: "relu7"
  type: "ReLU"
  bottom: "fc7"
  top: "fc7"
}
layer {
  name: "drop7"
  type: "Dropout"
  bottom: "fc7"
  top: "fc7"
  dropout_param {
    dropout_ratio: 0.5
  }
}
layer {
  name: "fc8"
  type: "InnerProduct"
  bottom: "fc7"
  top: "fc8"
  param {
    lr_mult: 1
    decay_mult: 1
  }
  param {
    lr_mult: 2
    decay_mult: 0
  }
  inner_product_param {
    num_output: 2
    weight_filler {
      type: "xavier"
    }
    bias_filler {
      type: "constant"
      value: 0
    }
  }
}
layer {
  name: "accuracy"
  type: "Accuracy"
  bottom: "fc8"
  bottom: "label"
  top: "accuracy"
  include {
    phase: TEST
  }
}
layer {
  name: "loss"
  type: "SoftmaxWithLoss"
  bottom: "fc8"
  bottom: "label"
  top: "loss"
}
I0205 03:46:44.468849 12024 layer_factory.hpp:77] Creating layer data
I0205 03:46:44.468996 12024 net.cpp:106] Creating Layer data
I0205 03:46:44.469012 12024 net.cpp:411] data -> data
I0205 03:46:44.469027 12024 net.cpp:411] data -> label
I0205 03:46:44.469039 12024 data_transformer.cpp:25] Loading mean file from: /home/pearlstl/proj_cv/master/lmdb/synth1_test_lum_db/mean_file.binaryproto
I0205 03:46:44.469283 12029 db_lmdb.cpp:38] Opened lmdb /home/pearlstl/proj_cv/master/lmdb/synth1_test_lum_db
I0205 03:46:44.470021 12024 data_layer.cpp:41] output data size: 100,1,227,227
I0205 03:46:44.501448 12024 net.cpp:150] Setting up data
I0205 03:46:44.501489 12024 net.cpp:157] Top shape: 100 1 227 227 (5152900)
I0205 03:46:44.501497 12024 net.cpp:157] Top shape: 100 (100)
I0205 03:46:44.501503 12024 net.cpp:165] Memory required for data: 20612000
I0205 03:46:44.501515 12024 layer_factory.hpp:77] Creating layer label_data_1_split
I0205 03:46:44.501538 12024 net.cpp:106] Creating Layer label_data_1_split
I0205 03:46:44.501548 12024 net.cpp:454] label_data_1_split <- label
I0205 03:46:44.501560 12024 net.cpp:411] label_data_1_split -> label_data_1_split_0
I0205 03:46:44.501577 12024 net.cpp:411] label_data_1_split -> label_data_1_split_1
I0205 03:46:44.501596 12024 net.cpp:150] Setting up label_data_1_split
I0205 03:46:44.501605 12024 net.cpp:157] Top shape: 100 (100)
I0205 03:46:44.501611 12024 net.cpp:157] Top shape: 100 (100)
I0205 03:46:44.501617 12024 net.cpp:165] Memory required for data: 20612800
I0205 03:46:44.501623 12024 layer_factory.hpp:77] Creating layer conv1
I0205 03:46:44.501642 12024 net.cpp:106] Creating Layer conv1
I0205 03:46:44.501649 12024 net.cpp:454] conv1 <- data
I0205 03:46:44.501658 12024 net.cpp:411] conv1 -> conv1
I0205 03:46:44.501736 12024 net.cpp:150] Setting up conv1
I0205 03:46:44.501746 12024 net.cpp:157] Top shape: 100 32 55 55 (9680000)
I0205 03:46:44.501752 12024 net.cpp:165] Memory required for data: 59332800
I0205 03:46:44.501768 12024 layer_factory.hpp:77] Creating layer relu1
I0205 03:46:44.501780 12024 net.cpp:106] Creating Layer relu1
I0205 03:46:44.501786 12024 net.cpp:454] relu1 <- conv1
I0205 03:46:44.501796 12024 net.cpp:397] relu1 -> conv1 (in-place)
I0205 03:46:44.501807 12024 net.cpp:150] Setting up relu1
I0205 03:46:44.501816 12024 net.cpp:157] Top shape: 100 32 55 55 (9680000)
I0205 03:46:44.501821 12024 net.cpp:165] Memory required for data: 98052800
I0205 03:46:44.501827 12024 layer_factory.hpp:77] Creating layer pool1
I0205 03:46:44.501838 12024 net.cpp:106] Creating Layer pool1
I0205 03:46:44.501844 12024 net.cpp:454] pool1 <- conv1
I0205 03:46:44.501853 12024 net.cpp:411] pool1 -> pool1
I0205 03:46:44.501868 12024 net.cpp:150] Setting up pool1
I0205 03:46:44.501875 12024 net.cpp:157] Top shape: 100 32 27 27 (2332800)
I0205 03:46:44.501880 12024 net.cpp:165] Memory required for data: 107384000
I0205 03:46:44.501886 12024 layer_factory.hpp:77] Creating layer norm1
I0205 03:46:44.501899 12024 net.cpp:106] Creating Layer norm1
I0205 03:46:44.501904 12024 net.cpp:454] norm1 <- pool1
I0205 03:46:44.501914 12024 net.cpp:411] norm1 -> norm1
I0205 03:46:44.501926 12024 net.cpp:150] Setting up norm1
I0205 03:46:44.501937 12024 net.cpp:157] Top shape: 100 32 27 27 (2332800)
I0205 03:46:44.501942 12024 net.cpp:165] Memory required for data: 116715200
I0205 03:46:44.501948 12024 layer_factory.hpp:77] Creating layer conv2
I0205 03:46:44.501960 12024 net.cpp:106] Creating Layer conv2
I0205 03:46:44.501966 12024 net.cpp:454] conv2 <- norm1
I0205 03:46:44.501977 12024 net.cpp:411] conv2 -> conv2
I0205 03:46:44.502121 12024 net.cpp:150] Setting up conv2
I0205 03:46:44.502131 12024 net.cpp:157] Top shape: 100 32 27 27 (2332800)
I0205 03:46:44.502137 12024 net.cpp:165] Memory required for data: 126046400
I0205 03:46:44.502148 12024 layer_factory.hpp:77] Creating layer relu2
I0205 03:46:44.502158 12024 net.cpp:106] Creating Layer relu2
I0205 03:46:44.502167 12024 net.cpp:454] relu2 <- conv2
I0205 03:46:44.502188 12024 net.cpp:397] relu2 -> conv2 (in-place)
I0205 03:46:44.502207 12024 net.cpp:150] Setting up relu2
I0205 03:46:44.502214 12024 net.cpp:157] Top shape: 100 32 27 27 (2332800)
I0205 03:46:44.502220 12024 net.cpp:165] Memory required for data: 135377600
I0205 03:46:44.502226 12024 layer_factory.hpp:77] Creating layer pool2
I0205 03:46:44.502236 12024 net.cpp:106] Creating Layer pool2
I0205 03:46:44.502243 12024 net.cpp:454] pool2 <- conv2
I0205 03:46:44.502251 12024 net.cpp:411] pool2 -> pool2
I0205 03:46:44.502264 12024 net.cpp:150] Setting up pool2
I0205 03:46:44.502271 12024 net.cpp:157] Top shape: 100 32 13 13 (540800)
I0205 03:46:44.502276 12024 net.cpp:165] Memory required for data: 137540800
I0205 03:46:44.502281 12024 layer_factory.hpp:77] Creating layer norm2
I0205 03:46:44.502295 12024 net.cpp:106] Creating Layer norm2
I0205 03:46:44.502300 12024 net.cpp:454] norm2 <- pool2
I0205 03:46:44.502310 12024 net.cpp:411] norm2 -> norm2
I0205 03:46:44.502320 12024 net.cpp:150] Setting up norm2
I0205 03:46:44.502329 12024 net.cpp:157] Top shape: 100 32 13 13 (540800)
I0205 03:46:44.502336 12024 net.cpp:165] Memory required for data: 139704000
I0205 03:46:44.502341 12024 layer_factory.hpp:77] Creating layer conv3
I0205 03:46:44.502352 12024 net.cpp:106] Creating Layer conv3
I0205 03:46:44.502358 12024 net.cpp:454] conv3 <- norm2
I0205 03:46:44.502367 12024 net.cpp:411] conv3 -> conv3
I0205 03:46:44.502472 12024 net.cpp:150] Setting up conv3
I0205 03:46:44.502480 12024 net.cpp:157] Top shape: 100 32 13 13 (540800)
I0205 03:46:44.502486 12024 net.cpp:165] Memory required for data: 141867200
I0205 03:46:44.502496 12024 layer_factory.hpp:77] Creating layer relu3
I0205 03:46:44.502507 12024 net.cpp:106] Creating Layer relu3
I0205 03:46:44.502514 12024 net.cpp:454] relu3 <- conv3
I0205 03:46:44.502522 12024 net.cpp:397] relu3 -> conv3 (in-place)
I0205 03:46:44.502532 12024 net.cpp:150] Setting up relu3
I0205 03:46:44.502538 12024 net.cpp:157] Top shape: 100 32 13 13 (540800)
I0205 03:46:44.502543 12024 net.cpp:165] Memory required for data: 144030400
I0205 03:46:44.502549 12024 layer_factory.hpp:77] Creating layer conv4
I0205 03:46:44.502560 12024 net.cpp:106] Creating Layer conv4
I0205 03:46:44.502565 12024 net.cpp:454] conv4 <- conv3
I0205 03:46:44.502575 12024 net.cpp:411] conv4 -> conv4
I0205 03:46:44.502635 12024 net.cpp:150] Setting up conv4
I0205 03:46:44.502643 12024 net.cpp:157] Top shape: 100 32 13 13 (540800)
I0205 03:46:44.502650 12024 net.cpp:165] Memory required for data: 146193600
I0205 03:46:44.502658 12024 layer_factory.hpp:77] Creating layer relu4
I0205 03:46:44.502668 12024 net.cpp:106] Creating Layer relu4
I0205 03:46:44.502674 12024 net.cpp:454] relu4 <- conv4
I0205 03:46:44.502686 12024 net.cpp:397] relu4 -> conv4 (in-place)
I0205 03:46:44.502694 12024 net.cpp:150] Setting up relu4
I0205 03:46:44.502701 12024 net.cpp:157] Top shape: 100 32 13 13 (540800)
I0205 03:46:44.502707 12024 net.cpp:165] Memory required for data: 148356800
I0205 03:46:44.502712 12024 layer_factory.hpp:77] Creating layer conv5
I0205 03:46:44.502723 12024 net.cpp:106] Creating Layer conv5
I0205 03:46:44.502729 12024 net.cpp:454] conv5 <- conv4
I0205 03:46:44.502739 12024 net.cpp:411] conv5 -> conv5
I0205 03:46:44.502780 12024 net.cpp:150] Setting up conv5
I0205 03:46:44.502789 12024 net.cpp:157] Top shape: 100 16 13 13 (270400)
I0205 03:46:44.502794 12024 net.cpp:165] Memory required for data: 149438400
I0205 03:46:44.502804 12024 layer_factory.hpp:77] Creating layer relu5
I0205 03:46:44.502816 12024 net.cpp:106] Creating Layer relu5
I0205 03:46:44.502822 12024 net.cpp:454] relu5 <- conv5
I0205 03:46:44.502831 12024 net.cpp:397] relu5 -> conv5 (in-place)
I0205 03:46:44.502840 12024 net.cpp:150] Setting up relu5
I0205 03:46:44.502848 12024 net.cpp:157] Top shape: 100 16 13 13 (270400)
I0205 03:46:44.502854 12024 net.cpp:165] Memory required for data: 150520000
I0205 03:46:44.502861 12024 layer_factory.hpp:77] Creating layer pool5
I0205 03:46:44.502871 12024 net.cpp:106] Creating Layer pool5
I0205 03:46:44.502882 12024 net.cpp:454] pool5 <- conv5
I0205 03:46:44.502900 12024 net.cpp:411] pool5 -> pool5
I0205 03:46:44.502912 12024 net.cpp:150] Setting up pool5
I0205 03:46:44.502919 12024 net.cpp:157] Top shape: 100 16 6 6 (57600)
I0205 03:46:44.502924 12024 net.cpp:165] Memory required for data: 150750400
I0205 03:46:44.502930 12024 layer_factory.hpp:77] Creating layer fc6
I0205 03:46:44.502943 12024 net.cpp:106] Creating Layer fc6
I0205 03:46:44.502948 12024 net.cpp:454] fc6 <- pool5
I0205 03:46:44.502959 12024 net.cpp:411] fc6 -> fc6
I0205 03:46:44.504715 12024 net.cpp:150] Setting up fc6
I0205 03:46:44.504729 12024 net.cpp:157] Top shape: 100 256 (25600)
I0205 03:46:44.504734 12024 net.cpp:165] Memory required for data: 150852800
I0205 03:46:44.504744 12024 layer_factory.hpp:77] Creating layer relu6
I0205 03:46:44.504751 12024 net.cpp:106] Creating Layer relu6
I0205 03:46:44.504758 12024 net.cpp:454] relu6 <- fc6
I0205 03:46:44.504767 12024 net.cpp:397] relu6 -> fc6 (in-place)
I0205 03:46:44.504776 12024 net.cpp:150] Setting up relu6
I0205 03:46:44.504783 12024 net.cpp:157] Top shape: 100 256 (25600)
I0205 03:46:44.504788 12024 net.cpp:165] Memory required for data: 150955200
I0205 03:46:44.504794 12024 layer_factory.hpp:77] Creating layer drop6
I0205 03:46:44.504806 12024 net.cpp:106] Creating Layer drop6
I0205 03:46:44.504812 12024 net.cpp:454] drop6 <- fc6
I0205 03:46:44.504820 12024 net.cpp:397] drop6 -> fc6 (in-place)
I0205 03:46:44.504834 12024 net.cpp:150] Setting up drop6
I0205 03:46:44.504843 12024 net.cpp:157] Top shape: 100 256 (25600)
I0205 03:46:44.504849 12024 net.cpp:165] Memory required for data: 151057600
I0205 03:46:44.504854 12024 layer_factory.hpp:77] Creating layer fc7
I0205 03:46:44.504865 12024 net.cpp:106] Creating Layer fc7
I0205 03:46:44.504871 12024 net.cpp:454] fc7 <- fc6
I0205 03:46:44.504879 12024 net.cpp:411] fc7 -> fc7
I0205 03:46:44.505648 12024 net.cpp:150] Setting up fc7
I0205 03:46:44.505661 12024 net.cpp:157] Top shape: 100 256 (25600)
I0205 03:46:44.505667 12024 net.cpp:165] Memory required for data: 151160000
I0205 03:46:44.505676 12024 layer_factory.hpp:77] Creating layer relu7
I0205 03:46:44.505684 12024 net.cpp:106] Creating Layer relu7
I0205 03:46:44.505691 12024 net.cpp:454] relu7 <- fc7
I0205 03:46:44.505702 12024 net.cpp:397] relu7 -> fc7 (in-place)
I0205 03:46:44.505712 12024 net.cpp:150] Setting up relu7
I0205 03:46:44.505720 12024 net.cpp:157] Top shape: 100 256 (25600)
I0205 03:46:44.505725 12024 net.cpp:165] Memory required for data: 151262400
I0205 03:46:44.505733 12024 layer_factory.hpp:77] Creating layer drop7
I0205 03:46:44.505741 12024 net.cpp:106] Creating Layer drop7
I0205 03:46:44.505748 12024 net.cpp:454] drop7 <- fc7
I0205 03:46:44.505755 12024 net.cpp:397] drop7 -> fc7 (in-place)
I0205 03:46:44.505769 12024 net.cpp:150] Setting up drop7
I0205 03:46:44.505774 12024 net.cpp:157] Top shape: 100 256 (25600)
I0205 03:46:44.505780 12024 net.cpp:165] Memory required for data: 151364800
I0205 03:46:44.505785 12024 layer_factory.hpp:77] Creating layer fc8
I0205 03:46:44.505795 12024 net.cpp:106] Creating Layer fc8
I0205 03:46:44.505800 12024 net.cpp:454] fc8 <- fc7
I0205 03:46:44.505808 12024 net.cpp:411] fc8 -> fc8
I0205 03:46:44.505836 12024 net.cpp:150] Setting up fc8
I0205 03:46:44.505846 12024 net.cpp:157] Top shape: 100 2 (200)
I0205 03:46:44.505851 12024 net.cpp:165] Memory required for data: 151365600
I0205 03:46:44.505858 12024 layer_factory.hpp:77] Creating layer fc8_fc8_0_split
I0205 03:46:44.505868 12024 net.cpp:106] Creating Layer fc8_fc8_0_split
I0205 03:46:44.505877 12024 net.cpp:454] fc8_fc8_0_split <- fc8
I0205 03:46:44.505885 12024 net.cpp:411] fc8_fc8_0_split -> fc8_fc8_0_split_0
I0205 03:46:44.505914 12024 net.cpp:411] fc8_fc8_0_split -> fc8_fc8_0_split_1
I0205 03:46:44.505926 12024 net.cpp:150] Setting up fc8_fc8_0_split
I0205 03:46:44.505934 12024 net.cpp:157] Top shape: 100 2 (200)
I0205 03:46:44.505940 12024 net.cpp:157] Top shape: 100 2 (200)
I0205 03:46:44.505945 12024 net.cpp:165] Memory required for data: 151367200
I0205 03:46:44.505951 12024 layer_factory.hpp:77] Creating layer accuracy
I0205 03:46:44.505976 12024 net.cpp:106] Creating Layer accuracy
I0205 03:46:44.505982 12024 net.cpp:454] accuracy <- fc8_fc8_0_split_0
I0205 03:46:44.505990 12024 net.cpp:454] accuracy <- label_data_1_split_0
I0205 03:46:44.505997 12024 net.cpp:411] accuracy -> accuracy
…
