…
I0204 21:47:44.406886  9913 net.cpp:322] The NetState phase (0) differed from the phase (1) specified by a rule in layer accuracy
I0204 21:47:44.407142  9913 net.cpp:49] Initializing net from parameters: 
name: "CaffeNet"
state {
  phase: TRAIN
}
layer {
  name: "data"
  type: "Data"
  top: "data"
  top: "label"
  include {
    phase: TRAIN
  }
  transform_param {
    mirror: true
    crop_size: 227
    mean_file: "/home/pearlstl/proj_cv/master/lmdb/synth1_train_lum_db/mean_file.binaryproto"
  }
  data_param {
    source: "/home/pearlstl/proj_cv/master/lmdb/synth1_train_lum_db"
    batch_size: 100
    backend: LMDB
  }
}
layer {
  name: "conv1"
  type: "Convolution"
  bottom: "data"
  top: "conv1"
  param {
    lr_mult: 1
    decay_mult: 1
  }
  param {
    lr_mult: 2
    decay_mult: 0
  }
  convolution_param {
    num_output: 32
    kernel_size: 11
    stride: 4
    weight_filler {
      type: "xavier"
    }
    bias_filler {
      type: "constant"
      value: 0
    }
  }
}
layer {
  name: "relu1"
  type: "ReLU"
  bottom: "conv1"
  top: "conv1"
}
layer {
  name: "pool1"
  type: "Pooling"
  bottom: "conv1"
  top: "pool1"
  pooling_param {
    pool: MAX
    kernel_size: 3
    stride: 2
  }
}
layer {
  name: "norm1"
  type: "LRN"
  bottom: "pool1"
  top: "norm1"
  lrn_param {
    local_size: 5
    alpha: 0.0001
    beta: 0.75
  }
}
layer {
  name: "conv2"
  type: "Convolution"
  bottom: "norm1"
  top: "conv2"
  param {
    lr_mult: 1
    decay_mult: 1
  }
  param {
    lr_mult: 2
    decay_mult: 0
  }
  convolution_param {
    num_output: 32
    pad: 2
    kernel_size: 5
    group: 2
    weight_filler {
      type: "xavier"
    }
    bias_filler {
      type: "constant"
      value: 1
    }
  }
}
layer {
  name: "relu2"
  type: "ReLU"
  bottom: "conv2"
  top: "conv2"
}
layer {
  name: "pool2"
  type: "Pooling"
  bottom: "conv2"
  top: "pool2"
  pooling_param {
    pool: MAX
    kernel_size: 3
    stride: 2
  }
}
layer {
  name: "norm2"
  type: "LRN"
  bottom: "pool2"
  top: "norm2"
  lrn_param {
    local_size: 5
    alpha: 0.0001
    beta: 0.75
  }
}
layer {
  name: "conv3"
  type: "Convolution"
  bottom: "norm2"
  top: "conv3"
  param {
    lr_mult: 1
    decay_mult: 1
  }
  param {
    lr_mult: 2
    decay_mult: 0
  }
  convolution_param {
    num_output: 32
    pad: 1
    kernel_size: 3
    weight_filler {
      type: "xavier"
    }
    bias_filler {
      type: "constant"
      value: 0
    }
  }
}
layer {
  name: "relu3"
  type: "ReLU"
  bottom: "conv3"
  top: "conv3"
}
layer {
  name: "conv4"
  type: "Convolution"
  bottom: "conv3"
  top: "conv4"
  param {
    lr_mult: 1
    decay_mult: 1
  }
  param {
    lr_mult: 2
    decay_mult: 0
  }
  convolution_param {
    num_output: 32
    pad: 1
    kernel_size: 3
    group: 2
    weight_filler {
      type: "xavier"
    }
    bias_filler {
      type: "constant"
      value: 1
    }
  }
}
layer {
  name: "relu4"
  type: "ReLU"
  bottom: "conv4"
  top: "conv4"
}
layer {
  name: "conv5"
  type: "Convolution"
  bottom: "conv4"
  top: "conv5"
  param {
    lr_mult: 1
    decay_mult: 1
  }
  param {
    lr_mult: 2
    decay_mult: 0
  }
  convolution_param {
    num_output: 16
    pad: 1
    kernel_size: 3
    group: 2
    weight_filler {
      type: "xavier"
    }
    bias_filler {
      type: "constant"
      value: 1
    }
  }
}
layer {
  name: "relu5"
  type: "ReLU"
  bottom: "conv5"
  top: "conv5"
}
layer {
  name: "pool5"
  type: "Pooling"
  bottom: "conv5"
  top: "pool5"
  pooling_param {
    pool: MAX
    kernel_size: 3
    stride: 2
  }
}
layer {
  name: "fc6"
  type: "InnerProduct"
  bottom: "pool5"
  top: "fc6"
  param {
    lr_mult: 1
    decay_mult: 1
  }
  param {
    lr_mult: 2
    decay_mult: 0
  }
  inner_product_param {
    num_output: 256
    weight_filler {
      type: "xavier"
    }
    bias_filler {
      type: "constant"
      value: 1
    }
  }
}
layer {
  name: "relu6"
  type: "ReLU"
  bottom: "fc6"
  top: "fc6"
}
layer {
  name: "drop6"
  type: "Dropout"
  bottom: "fc6"
  top: "fc6"
  dropout_param {
    dropout_ratio: 0.5
  }
}
layer {
  name: "fc7"
  type: "InnerProduct"
  bottom: "fc6"
  top: "fc7"
  param {
    lr_mult: 1
    decay_mult: 1
  }
  param {
    lr_mult: 2
    decay_mult: 0
  }
  inner_product_param {
    num_output: 256
    weight_filler {
      type: "xavier"
    }
    bias_filler {
      type: "constant"
      value: 1
    }
  }
}
layer {
  name: "relu7"
  type: "ReLU"
  bottom: "fc7"
  top: "fc7"
}
layer {
  name: "drop7"
  type: "Dropout"
  bottom: "fc7"
  top: "fc7"
  dropout_param {
    dropout_ratio: 0.5
  }
}
layer {
  name: "fc8"
  type: "InnerProduct"
  bottom: "fc7"
  top: "fc8"
  param {
    lr_mult: 1
    decay_mult: 1
  }
  param {
    lr_mult: 2
    decay_mult: 0
  }
  inner_product_param {
    num_output: 2
    weight_filler {
      type: "xavier"
    }
    bias_filler {
      type: "constant"
      value: 0
    }
  }
}
layer {
  name: "loss"
  type: "SoftmaxWithLoss"
  bottom: "fc8"
  bottom: "label"
  top: "loss"
}
I0204 21:47:44.407280  9913 layer_factory.hpp:77] Creating layer data
I0204 21:47:44.407454  9913 net.cpp:106] Creating Layer data
I0204 21:47:44.407472  9913 net.cpp:411] data -> data
I0204 21:47:44.407557  9913 net.cpp:411] data -> label
I0204 21:47:44.407580  9913 data_transformer.cpp:25] Loading mean file from: /home/pearlstl/proj_cv/master/lmdb/synth1_train_lum_db/mean_file.binaryproto
I0204 21:47:44.407737  9914 db_lmdb.cpp:38] Opened lmdb /home/pearlstl/proj_cv/master/lmdb/synth1_train_lum_db
I0204 21:47:44.408586  9913 data_layer.cpp:41] output data size: 100,1,227,227
I0204 21:47:44.440847  9913 net.cpp:150] Setting up data
I0204 21:47:44.440877  9913 net.cpp:157] Top shape: 100 1 227 227 (5152900)
I0204 21:47:44.440886  9913 net.cpp:157] Top shape: 100 (100)
I0204 21:47:44.440893  9913 net.cpp:165] Memory required for data: 20612000
I0204 21:47:44.440908  9913 layer_factory.hpp:77] Creating layer conv1
I0204 21:47:44.440954  9913 net.cpp:106] Creating Layer conv1
I0204 21:47:44.440973  9913 net.cpp:454] conv1 <- data
I0204 21:47:44.440991  9913 net.cpp:411] conv1 -> conv1
I0204 21:47:44.441115  9913 net.cpp:150] Setting up conv1
I0204 21:47:44.441126  9913 net.cpp:157] Top shape: 100 32 55 55 (9680000)
I0204 21:47:44.441133  9913 net.cpp:165] Memory required for data: 59332000
I0204 21:47:44.441149  9913 layer_factory.hpp:77] Creating layer relu1
I0204 21:47:44.441161  9913 net.cpp:106] Creating Layer relu1
I0204 21:47:44.441167  9913 net.cpp:454] relu1 <- conv1
I0204 21:47:44.441176  9913 net.cpp:397] relu1 -> conv1 (in-place)
I0204 21:47:44.441191  9913 net.cpp:150] Setting up relu1
I0204 21:47:44.441200  9913 net.cpp:157] Top shape: 100 32 55 55 (9680000)
I0204 21:47:44.441205  9913 net.cpp:165] Memory required for data: 98052000
I0204 21:47:44.441210  9913 layer_factory.hpp:77] Creating layer pool1
I0204 21:47:44.441221  9913 net.cpp:106] Creating Layer pool1
I0204 21:47:44.441227  9913 net.cpp:454] pool1 <- conv1
I0204 21:47:44.441236  9913 net.cpp:411] pool1 -> pool1
I0204 21:47:44.441259  9913 net.cpp:150] Setting up pool1
I0204 21:47:44.441267  9913 net.cpp:157] Top shape: 100 32 27 27 (2332800)
I0204 21:47:44.441273  9913 net.cpp:165] Memory required for data: 107383200
I0204 21:47:44.441279  9913 layer_factory.hpp:77] Creating layer norm1
I0204 21:47:44.441309  9913 net.cpp:106] Creating Layer norm1
I0204 21:47:44.441318  9913 net.cpp:454] norm1 <- pool1
I0204 21:47:44.441326  9913 net.cpp:411] norm1 -> norm1
I0204 21:47:44.441344  9913 net.cpp:150] Setting up norm1
I0204 21:47:44.441352  9913 net.cpp:157] Top shape: 100 32 27 27 (2332800)
I0204 21:47:44.441357  9913 net.cpp:165] Memory required for data: 116714400
I0204 21:47:44.441364  9913 layer_factory.hpp:77] Creating layer conv2
I0204 21:47:44.441375  9913 net.cpp:106] Creating Layer conv2
I0204 21:47:44.441380  9913 net.cpp:454] conv2 <- norm1
I0204 21:47:44.441390  9913 net.cpp:411] conv2 -> conv2
I0204 21:47:44.441519  9913 net.cpp:150] Setting up conv2
I0204 21:47:44.441529  9913 net.cpp:157] Top shape: 100 32 27 27 (2332800)
I0204 21:47:44.441534  9913 net.cpp:165] Memory required for data: 126045600
I0204 21:47:44.441545  9913 layer_factory.hpp:77] Creating layer relu2
I0204 21:47:44.441553  9913 net.cpp:106] Creating Layer relu2
I0204 21:47:44.441560  9913 net.cpp:454] relu2 <- conv2
I0204 21:47:44.441578  9913 net.cpp:397] relu2 -> conv2 (in-place)
I0204 21:47:44.441589  9913 net.cpp:150] Setting up relu2
I0204 21:47:44.441596  9913 net.cpp:157] Top shape: 100 32 27 27 (2332800)
I0204 21:47:44.441601  9913 net.cpp:165] Memory required for data: 135376800
I0204 21:47:44.441607  9913 layer_factory.hpp:77] Creating layer pool2
I0204 21:47:44.441615  9913 net.cpp:106] Creating Layer pool2
I0204 21:47:44.441622  9913 net.cpp:454] pool2 <- conv2
I0204 21:47:44.441628  9913 net.cpp:411] pool2 -> pool2
I0204 21:47:44.441639  9913 net.cpp:150] Setting up pool2
I0204 21:47:44.441647  9913 net.cpp:157] Top shape: 100 32 13 13 (540800)
I0204 21:47:44.441651  9913 net.cpp:165] Memory required for data: 137540000
I0204 21:47:44.441656  9913 layer_factory.hpp:77] Creating layer norm2
I0204 21:47:44.441666  9913 net.cpp:106] Creating Layer norm2
I0204 21:47:44.441673  9913 net.cpp:454] norm2 <- pool2
I0204 21:47:44.441682  9913 net.cpp:411] norm2 -> norm2
I0204 21:47:44.441692  9913 net.cpp:150] Setting up norm2
I0204 21:47:44.441701  9913 net.cpp:157] Top shape: 100 32 13 13 (540800)
I0204 21:47:44.441706  9913 net.cpp:165] Memory required for data: 139703200
I0204 21:47:44.441712  9913 layer_factory.hpp:77] Creating layer conv3
I0204 21:47:44.441722  9913 net.cpp:106] Creating Layer conv3
I0204 21:47:44.441728  9913 net.cpp:454] conv3 <- norm2
I0204 21:47:44.441740  9913 net.cpp:411] conv3 -> conv3
I0204 21:47:44.441848  9913 net.cpp:150] Setting up conv3
I0204 21:47:44.441859  9913 net.cpp:157] Top shape: 100 32 13 13 (540800)
I0204 21:47:44.441864  9913 net.cpp:165] Memory required for data: 141866400
I0204 21:47:44.441874  9913 layer_factory.hpp:77] Creating layer relu3
I0204 21:47:44.441882  9913 net.cpp:106] Creating Layer relu3
I0204 21:47:44.441889  9913 net.cpp:454] relu3 <- conv3
I0204 21:47:44.441898  9913 net.cpp:397] relu3 -> conv3 (in-place)
I0204 21:47:44.441906  9913 net.cpp:150] Setting up relu3
I0204 21:47:44.441913  9913 net.cpp:157] Top shape: 100 32 13 13 (540800)
I0204 21:47:44.441918  9913 net.cpp:165] Memory required for data: 144029600
I0204 21:47:44.441923  9913 layer_factory.hpp:77] Creating layer conv4
I0204 21:47:44.441933  9913 net.cpp:106] Creating Layer conv4
I0204 21:47:44.441939  9913 net.cpp:454] conv4 <- conv3
I0204 21:47:44.441948  9913 net.cpp:411] conv4 -> conv4
I0204 21:47:44.442030  9913 net.cpp:150] Setting up conv4
I0204 21:47:44.442040  9913 net.cpp:157] Top shape: 100 32 13 13 (540800)
I0204 21:47:44.442045  9913 net.cpp:165] Memory required for data: 146192800
I0204 21:47:44.442054  9913 layer_factory.hpp:77] Creating layer relu4
I0204 21:47:44.442061  9913 net.cpp:106] Creating Layer relu4
I0204 21:47:44.442067  9913 net.cpp:454] relu4 <- conv4
I0204 21:47:44.442075  9913 net.cpp:397] relu4 -> conv4 (in-place)
I0204 21:47:44.442083  9913 net.cpp:150] Setting up relu4
I0204 21:47:44.442092  9913 net.cpp:157] Top shape: 100 32 13 13 (540800)
I0204 21:47:44.442098  9913 net.cpp:165] Memory required for data: 148356000
I0204 21:47:44.442109  9913 layer_factory.hpp:77] Creating layer conv5
I0204 21:47:44.442129  9913 net.cpp:106] Creating Layer conv5
I0204 21:47:44.442136  9913 net.cpp:454] conv5 <- conv4
I0204 21:47:44.442143  9913 net.cpp:411] conv5 -> conv5
I0204 21:47:44.442189  9913 net.cpp:150] Setting up conv5
I0204 21:47:44.442198  9913 net.cpp:157] Top shape: 100 16 13 13 (270400)
I0204 21:47:44.442203  9913 net.cpp:165] Memory required for data: 149437600
I0204 21:47:44.442215  9913 layer_factory.hpp:77] Creating layer relu5
I0204 21:47:44.442226  9913 net.cpp:106] Creating Layer relu5
I0204 21:47:44.442232  9913 net.cpp:454] relu5 <- conv5
I0204 21:47:44.442240  9913 net.cpp:397] relu5 -> conv5 (in-place)
I0204 21:47:44.442248  9913 net.cpp:150] Setting up relu5
I0204 21:47:44.442255  9913 net.cpp:157] Top shape: 100 16 13 13 (270400)
I0204 21:47:44.442260  9913 net.cpp:165] Memory required for data: 150519200
I0204 21:47:44.442266  9913 layer_factory.hpp:77] Creating layer pool5
I0204 21:47:44.442275  9913 net.cpp:106] Creating Layer pool5
I0204 21:47:44.442281  9913 net.cpp:454] pool5 <- conv5
I0204 21:47:44.442291  9913 net.cpp:411] pool5 -> pool5
I0204 21:47:44.442301  9913 net.cpp:150] Setting up pool5
I0204 21:47:44.442308  9913 net.cpp:157] Top shape: 100 16 6 6 (57600)
I0204 21:47:44.442313  9913 net.cpp:165] Memory required for data: 150749600
I0204 21:47:44.442318  9913 layer_factory.hpp:77] Creating layer fc6
I0204 21:47:44.442337  9913 net.cpp:106] Creating Layer fc6
I0204 21:47:44.442345  9913 net.cpp:454] fc6 <- pool5
I0204 21:47:44.442354  9913 net.cpp:411] fc6 -> fc6
I0204 21:47:44.443919  9913 net.cpp:150] Setting up fc6
I0204 21:47:44.443933  9913 net.cpp:157] Top shape: 100 256 (25600)
I0204 21:47:44.443938  9913 net.cpp:165] Memory required for data: 150852000
I0204 21:47:44.443946  9913 layer_factory.hpp:77] Creating layer relu6
I0204 21:47:44.443958  9913 net.cpp:106] Creating Layer relu6
I0204 21:47:44.443974  9913 net.cpp:454] relu6 <- fc6
I0204 21:47:44.443981  9913 net.cpp:397] relu6 -> fc6 (in-place)
I0204 21:47:44.443991  9913 net.cpp:150] Setting up relu6
I0204 21:47:44.443997  9913 net.cpp:157] Top shape: 100 256 (25600)
I0204 21:47:44.444003  9913 net.cpp:165] Memory required for data: 150954400
I0204 21:47:44.444008  9913 layer_factory.hpp:77] Creating layer drop6
I0204 21:47:44.444018  9913 net.cpp:106] Creating Layer drop6
I0204 21:47:44.444025  9913 net.cpp:454] drop6 <- fc6
I0204 21:47:44.444031  9913 net.cpp:397] drop6 -> fc6 (in-place)
I0204 21:47:44.444051  9913 net.cpp:150] Setting up drop6
I0204 21:47:44.444058  9913 net.cpp:157] Top shape: 100 256 (25600)
I0204 21:47:44.444063  9913 net.cpp:165] Memory required for data: 151056800
I0204 21:47:44.444068  9913 layer_factory.hpp:77] Creating layer fc7
I0204 21:47:44.444079  9913 net.cpp:106] Creating Layer fc7
I0204 21:47:44.444084  9913 net.cpp:454] fc7 <- fc6
I0204 21:47:44.444094  9913 net.cpp:411] fc7 -> fc7
I0204 21:47:44.444795  9913 net.cpp:150] Setting up fc7
I0204 21:47:44.444808  9913 net.cpp:157] Top shape: 100 256 (25600)
I0204 21:47:44.444813  9913 net.cpp:165] Memory required for data: 151159200
I0204 21:47:44.444823  9913 layer_factory.hpp:77] Creating layer relu7
I0204 21:47:44.444830  9913 net.cpp:106] Creating Layer relu7
I0204 21:47:44.444836  9913 net.cpp:454] relu7 <- fc7
I0204 21:47:44.444846  9913 net.cpp:397] relu7 -> fc7 (in-place)
I0204 21:47:44.444855  9913 net.cpp:150] Setting up relu7
I0204 21:47:44.444861  9913 net.cpp:157] Top shape: 100 256 (25600)
I0204 21:47:44.444867  9913 net.cpp:165] Memory required for data: 151261600
I0204 21:47:44.444872  9913 layer_factory.hpp:77] Creating layer drop7
I0204 21:47:44.444880  9913 net.cpp:106] Creating Layer drop7
I0204 21:47:44.444886  9913 net.cpp:454] drop7 <- fc7
I0204 21:47:44.444896  9913 net.cpp:397] drop7 -> fc7 (in-place)
I0204 21:47:44.444905  9913 net.cpp:150] Setting up drop7
I0204 21:47:44.444912  9913 net.cpp:157] Top shape: 100 256 (25600)
I0204 21:47:44.444917  9913 net.cpp:165] Memory required for data: 151364000
I0204 21:47:44.444923  9913 layer_factory.hpp:77] Creating layer fc8
I0204 21:47:44.444939  9913 net.cpp:106] Creating Layer fc8
I0204 21:47:44.444952  9913 net.cpp:454] fc8 <- fc7
I0204 21:47:44.444978  9913 net.cpp:411] fc8 -> fc8
I0204 21:47:44.445005  9913 net.cpp:150] Setting up fc8
I0204 21:47:44.445013  9913 net.cpp:157] Top shape: 100 2 (200)
I0204 21:47:44.445019  9913 net.cpp:165] Memory required for data: 151364800
I0204 21:47:44.445027  9913 layer_factory.hpp:77] Creating layer loss
I0204 21:47:44.445039  9913 net.cpp:106] Creating Layer loss
I0204 21:47:44.445045  9913 net.cpp:454] loss <- fc8
I0204 21:47:44.445051  9913 net.cpp:454] loss <- label
I0204 21:47:44.445060  9913 net.cpp:411] loss -> loss
I0204 21:47:44.445076  9913 layer_factory.hpp:77] Creating layer loss
…
I0204 21:47:44.446143  9913 net.cpp:322] The NetState phase (1) differed from the phase (0) specified by a rule in layer data
I0204 21:47:44.446436  9913 net.cpp:49] Initializing net from parameters: 
name: "CaffeNet"
state {
  phase: TEST
}
layer {
  name: "data"
  type: "Data"
  top: "data"
  top: "label"
  include {
    phase: TEST
  }
  transform_param {
    mirror: false
    crop_size: 227
    mean_file: "/home/pearlstl/proj_cv/master/lmdb/synth1_test_lum_db/mean_file.binaryproto"
  }
  data_param {
    source: "/home/pearlstl/proj_cv/master/lmdb/synth1_test_lum_db"
    batch_size: 100
    backend: LMDB
  }
}
layer {
  name: "conv1"
  type: "Convolution"
  bottom: "data"
  top: "conv1"
  param {
    lr_mult: 1
    decay_mult: 1
  }
  param {
    lr_mult: 2
    decay_mult: 0
  }
  convolution_param {
    num_output: 32
    kernel_size: 11
    stride: 4
    weight_filler {
      type: "xavier"
    }
    bias_filler {
      type: "constant"
      value: 0
    }
  }
}
layer {
  name: "relu1"
  type: "ReLU"
  bottom: "conv1"
  top: "conv1"
}
layer {
  name: "pool1"
  type: "Pooling"
  bottom: "conv1"
  top: "pool1"
  pooling_param {
    pool: MAX
    kernel_size: 3
    stride: 2
  }
}
layer {
  name: "norm1"
  type: "LRN"
  bottom: "pool1"
  top: "norm1"
  lrn_param {
    local_size: 5
    alpha: 0.0001
    beta: 0.75
  }
}
layer {
  name: "conv2"
  type: "Convolution"
  bottom: "norm1"
  top: "conv2"
  param {
    lr_mult: 1
    decay_mult: 1
  }
  param {
    lr_mult: 2
    decay_mult: 0
  }
  convolution_param {
    num_output: 32
    pad: 2
    kernel_size: 5
    group: 2
    weight_filler {
      type: "xavier"
    }
    bias_filler {
      type: "constant"
      value: 1
    }
  }
}
layer {
  name: "relu2"
  type: "ReLU"
  bottom: "conv2"
  top: "conv2"
}
layer {
  name: "pool2"
  type: "Pooling"
  bottom: "conv2"
  top: "pool2"
  pooling_param {
    pool: MAX
    kernel_size: 3
    stride: 2
  }
}
layer {
  name: "norm2"
  type: "LRN"
  bottom: "pool2"
  top: "norm2"
  lrn_param {
    local_size: 5
    alpha: 0.0001
    beta: 0.75
  }
}
layer {
  name: "conv3"
  type: "Convolution"
  bottom: "norm2"
  top: "conv3"
  param {
    lr_mult: 1
    decay_mult: 1
  }
  param {
    lr_mult: 2
    decay_mult: 0
  }
  convolution_param {
    num_output: 32
    pad: 1
    kernel_size: 3
    weight_filler {
      type: "xavier"
    }
    bias_filler {
      type: "constant"
      value: 0
    }
  }
}
layer {
  name: "relu3"
  type: "ReLU"
  bottom: "conv3"
  top: "conv3"
}
layer {
  name: "conv4"
  type: "Convolution"
  bottom: "conv3"
  top: "conv4"
  param {
    lr_mult: 1
    decay_mult: 1
  }
  param {
    lr_mult: 2
    decay_mult: 0
  }
  convolution_param {
    num_output: 32
    pad: 1
    kernel_size: 3
    group: 2
    weight_filler {
      type: "xavier"
    }
    bias_filler {
      type: "constant"
      value: 1
    }
  }
}
layer {
  name: "relu4"
  type: "ReLU"
  bottom: "conv4"
  top: "conv4"
}
layer {
  name: "conv5"
  type: "Convolution"
  bottom: "conv4"
  top: "conv5"
  param {
    lr_mult: 1
    decay_mult: 1
  }
  param {
    lr_mult: 2
    decay_mult: 0
  }
  convolution_param {
    num_output: 16
    pad: 1
    kernel_size: 3
    group: 2
    weight_filler {
      type: "xavier"
    }
    bias_filler {
      type: "constant"
      value: 1
    }
  }
}
layer {
  name: "relu5"
  type: "ReLU"
  bottom: "conv5"
  top: "conv5"
}
layer {
  name: "pool5"
  type: "Pooling"
  bottom: "conv5"
  top: "pool5"
  pooling_param {
    pool: MAX
    kernel_size: 3
    stride: 2
  }
}
layer {
  name: "fc6"
  type: "InnerProduct"
  bottom: "pool5"
  top: "fc6"
  param {
    lr_mult: 1
    decay_mult: 1
  }
  param {
    lr_mult: 2
    decay_mult: 0
  }
  inner_product_param {
    num_output: 256
    weight_filler {
      type: "xavier"
    }
    bias_filler {
      type: "constant"
      value: 1
    }
  }
}
layer {
  name: "relu6"
  type: "ReLU"
  bottom: "fc6"
  top: "fc6"
}
layer {
  name: "drop6"
  type: "Dropout"
  bottom: "fc6"
  top: "fc6"
  dropout_param {
    dropout_ratio: 0.5
  }
}
layer {
  name: "fc7"
  type: "InnerProduct"
  bottom: "fc6"
  top: "fc7"
  param {
    lr_mult: 1
    decay_mult: 1
  }
  param {
    lr_mult: 2
    decay_mult: 0
  }
  inner_product_param {
    num_output: 256
    weight_filler {
      type: "xavier"
    }
    bias_filler {
      type: "constant"
      value: 1
    }
  }
}
layer {
  name: "relu7"
  type: "ReLU"
  bottom: "fc7"
  top: "fc7"
}
layer {
  name: "drop7"
  type: "Dropout"
  bottom: "fc7"
  top: "fc7"
  dropout_param {
    dropout_ratio: 0.5
  }
}
layer {
  name: "fc8"
  type: "InnerProduct"
  bottom: "fc7"
  top: "fc8"
  param {
    lr_mult: 1
    decay_mult: 1
  }
  param {
    lr_mult: 2
    decay_mult: 0
  }
  inner_product_param {
    num_output: 2
    weight_filler {
      type: "xavier"
    }
    bias_filler {
      type: "constant"
      value: 0
    }
  }
}
layer {
  name: "accuracy"
  type: "Accuracy"
  bottom: "fc8"
  bottom: "label"
  top: "accuracy"
  include {
    phase: TEST
  }
}
layer {
  name: "loss"
  type: "SoftmaxWithLoss"
  bottom: "fc8"
  bottom: "label"
  top: "loss"
}
I0204 21:47:44.446625  9913 layer_factory.hpp:77] Creating layer data
I0204 21:47:44.446765  9913 net.cpp:106] Creating Layer data
I0204 21:47:44.446781  9913 net.cpp:411] data -> data
I0204 21:47:44.446794  9913 net.cpp:411] data -> label
I0204 21:47:44.446805  9913 data_transformer.cpp:25] Loading mean file from: /home/pearlstl/proj_cv/master/lmdb/synth1_test_lum_db/mean_file.binaryproto
I0204 21:47:44.446992  9918 db_lmdb.cpp:38] Opened lmdb /home/pearlstl/proj_cv/master/lmdb/synth1_test_lum_db
I0204 21:47:44.447679  9913 data_layer.cpp:41] output data size: 100,1,227,227
I0204 21:47:44.482775  9913 net.cpp:150] Setting up data
I0204 21:47:44.482812  9913 net.cpp:157] Top shape: 100 1 227 227 (5152900)
I0204 21:47:44.482821  9913 net.cpp:157] Top shape: 100 (100)
I0204 21:47:44.482826  9913 net.cpp:165] Memory required for data: 20612000
I0204 21:47:44.482837  9913 layer_factory.hpp:77] Creating layer label_data_1_split
I0204 21:47:44.482857  9913 net.cpp:106] Creating Layer label_data_1_split
I0204 21:47:44.482866  9913 net.cpp:454] label_data_1_split <- label
I0204 21:47:44.482877  9913 net.cpp:411] label_data_1_split -> label_data_1_split_0
I0204 21:47:44.482900  9913 net.cpp:411] label_data_1_split -> label_data_1_split_1
I0204 21:47:44.482913  9913 net.cpp:150] Setting up label_data_1_split
I0204 21:47:44.482921  9913 net.cpp:157] Top shape: 100 (100)
I0204 21:47:44.482928  9913 net.cpp:157] Top shape: 100 (100)
I0204 21:47:44.482934  9913 net.cpp:165] Memory required for data: 20612800
I0204 21:47:44.482940  9913 layer_factory.hpp:77] Creating layer conv1
I0204 21:47:44.482959  9913 net.cpp:106] Creating Layer conv1
I0204 21:47:44.482972  9913 net.cpp:454] conv1 <- data
I0204 21:47:44.482986  9913 net.cpp:411] conv1 -> conv1
I0204 21:47:44.483060  9913 net.cpp:150] Setting up conv1
I0204 21:47:44.483073  9913 net.cpp:157] Top shape: 100 32 55 55 (9680000)
I0204 21:47:44.483078  9913 net.cpp:165] Memory required for data: 59332800
I0204 21:47:44.483093  9913 layer_factory.hpp:77] Creating layer relu1
I0204 21:47:44.483103  9913 net.cpp:106] Creating Layer relu1
I0204 21:47:44.483109  9913 net.cpp:454] relu1 <- conv1
I0204 21:47:44.483117  9913 net.cpp:397] relu1 -> conv1 (in-place)
I0204 21:47:44.483129  9913 net.cpp:150] Setting up relu1
I0204 21:47:44.483136  9913 net.cpp:157] Top shape: 100 32 55 55 (9680000)
I0204 21:47:44.483142  9913 net.cpp:165] Memory required for data: 98052800
I0204 21:47:44.483149  9913 layer_factory.hpp:77] Creating layer pool1
I0204 21:47:44.483160  9913 net.cpp:106] Creating Layer pool1
I0204 21:47:44.483165  9913 net.cpp:454] pool1 <- conv1
I0204 21:47:44.483173  9913 net.cpp:411] pool1 -> pool1
I0204 21:47:44.483187  9913 net.cpp:150] Setting up pool1
I0204 21:47:44.483196  9913 net.cpp:157] Top shape: 100 32 27 27 (2332800)
I0204 21:47:44.483201  9913 net.cpp:165] Memory required for data: 107384000
I0204 21:47:44.483206  9913 layer_factory.hpp:77] Creating layer norm1
I0204 21:47:44.483218  9913 net.cpp:106] Creating Layer norm1
I0204 21:47:44.483225  9913 net.cpp:454] norm1 <- pool1
I0204 21:47:44.483234  9913 net.cpp:411] norm1 -> norm1
I0204 21:47:44.483247  9913 net.cpp:150] Setting up norm1
I0204 21:47:44.483253  9913 net.cpp:157] Top shape: 100 32 27 27 (2332800)
I0204 21:47:44.483259  9913 net.cpp:165] Memory required for data: 116715200
I0204 21:47:44.483264  9913 layer_factory.hpp:77] Creating layer conv2
I0204 21:47:44.483278  9913 net.cpp:106] Creating Layer conv2
I0204 21:47:44.483284  9913 net.cpp:454] conv2 <- norm1
I0204 21:47:44.483294  9913 net.cpp:411] conv2 -> conv2
I0204 21:47:44.483425  9913 net.cpp:150] Setting up conv2
I0204 21:47:44.483435  9913 net.cpp:157] Top shape: 100 32 27 27 (2332800)
I0204 21:47:44.483441  9913 net.cpp:165] Memory required for data: 126046400
I0204 21:47:44.483451  9913 layer_factory.hpp:77] Creating layer relu2
I0204 21:47:44.483461  9913 net.cpp:106] Creating Layer relu2
I0204 21:47:44.483467  9913 net.cpp:454] relu2 <- conv2
I0204 21:47:44.483485  9913 net.cpp:397] relu2 -> conv2 (in-place)
I0204 21:47:44.483503  9913 net.cpp:150] Setting up relu2
I0204 21:47:44.483510  9913 net.cpp:157] Top shape: 100 32 27 27 (2332800)
I0204 21:47:44.483516  9913 net.cpp:165] Memory required for data: 135377600
I0204 21:47:44.483521  9913 layer_factory.hpp:77] Creating layer pool2
I0204 21:47:44.483533  9913 net.cpp:106] Creating Layer pool2
I0204 21:47:44.483541  9913 net.cpp:454] pool2 <- conv2
I0204 21:47:44.483548  9913 net.cpp:411] pool2 -> pool2
I0204 21:47:44.483561  9913 net.cpp:150] Setting up pool2
I0204 21:47:44.483568  9913 net.cpp:157] Top shape: 100 32 13 13 (540800)
I0204 21:47:44.483574  9913 net.cpp:165] Memory required for data: 137540800
I0204 21:47:44.483582  9913 layer_factory.hpp:77] Creating layer norm2
I0204 21:47:44.483592  9913 net.cpp:106] Creating Layer norm2
I0204 21:47:44.483597  9913 net.cpp:454] norm2 <- pool2
I0204 21:47:44.483606  9913 net.cpp:411] norm2 -> norm2
I0204 21:47:44.483616  9913 net.cpp:150] Setting up norm2
I0204 21:47:44.483623  9913 net.cpp:157] Top shape: 100 32 13 13 (540800)
I0204 21:47:44.483628  9913 net.cpp:165] Memory required for data: 139704000
I0204 21:47:44.483634  9913 layer_factory.hpp:77] Creating layer conv3
I0204 21:47:44.483646  9913 net.cpp:106] Creating Layer conv3
I0204 21:47:44.483652  9913 net.cpp:454] conv3 <- norm2
I0204 21:47:44.483660  9913 net.cpp:411] conv3 -> conv3
I0204 21:47:44.483760  9913 net.cpp:150] Setting up conv3
I0204 21:47:44.483769  9913 net.cpp:157] Top shape: 100 32 13 13 (540800)
I0204 21:47:44.483774  9913 net.cpp:165] Memory required for data: 141867200
I0204 21:47:44.483785  9913 layer_factory.hpp:77] Creating layer relu3
I0204 21:47:44.483793  9913 net.cpp:106] Creating Layer relu3
I0204 21:47:44.483799  9913 net.cpp:454] relu3 <- conv3
I0204 21:47:44.483808  9913 net.cpp:397] relu3 -> conv3 (in-place)
I0204 21:47:44.483817  9913 net.cpp:150] Setting up relu3
I0204 21:47:44.483824  9913 net.cpp:157] Top shape: 100 32 13 13 (540800)
I0204 21:47:44.483829  9913 net.cpp:165] Memory required for data: 144030400
I0204 21:47:44.483834  9913 layer_factory.hpp:77] Creating layer conv4
I0204 21:47:44.483845  9913 net.cpp:106] Creating Layer conv4
I0204 21:47:44.483850  9913 net.cpp:454] conv4 <- conv3
I0204 21:47:44.483860  9913 net.cpp:411] conv4 -> conv4
I0204 21:47:44.483922  9913 net.cpp:150] Setting up conv4
I0204 21:47:44.483929  9913 net.cpp:157] Top shape: 100 32 13 13 (540800)
I0204 21:47:44.483934  9913 net.cpp:165] Memory required for data: 146193600
I0204 21:47:44.483942  9913 layer_factory.hpp:77] Creating layer relu4
I0204 21:47:44.483952  9913 net.cpp:106] Creating Layer relu4
I0204 21:47:44.483958  9913 net.cpp:454] relu4 <- conv4
I0204 21:47:44.483970  9913 net.cpp:397] relu4 -> conv4 (in-place)
I0204 21:47:44.483978  9913 net.cpp:150] Setting up relu4
I0204 21:47:44.483986  9913 net.cpp:157] Top shape: 100 32 13 13 (540800)
I0204 21:47:44.483991  9913 net.cpp:165] Memory required for data: 148356800
I0204 21:47:44.483997  9913 layer_factory.hpp:77] Creating layer conv5
I0204 21:47:44.484010  9913 net.cpp:106] Creating Layer conv5
I0204 21:47:44.484019  9913 net.cpp:454] conv5 <- conv4
I0204 21:47:44.484027  9913 net.cpp:411] conv5 -> conv5
I0204 21:47:44.484071  9913 net.cpp:150] Setting up conv5
I0204 21:47:44.484079  9913 net.cpp:157] Top shape: 100 16 13 13 (270400)
I0204 21:47:44.484084  9913 net.cpp:165] Memory required for data: 149438400
I0204 21:47:44.484097  9913 layer_factory.hpp:77] Creating layer relu5
I0204 21:47:44.484105  9913 net.cpp:106] Creating Layer relu5
I0204 21:47:44.484112  9913 net.cpp:454] relu5 <- conv5
I0204 21:47:44.484118  9913 net.cpp:397] relu5 -> conv5 (in-place)
I0204 21:47:44.484127  9913 net.cpp:150] Setting up relu5
I0204 21:47:44.484134  9913 net.cpp:157] Top shape: 100 16 13 13 (270400)
I0204 21:47:44.484139  9913 net.cpp:165] Memory required for data: 150520000
I0204 21:47:44.484144  9913 layer_factory.hpp:77] Creating layer pool5
I0204 21:47:44.484155  9913 net.cpp:106] Creating Layer pool5
I0204 21:47:44.484168  9913 net.cpp:454] pool5 <- conv5
I0204 21:47:44.484187  9913 net.cpp:411] pool5 -> pool5
I0204 21:47:44.484201  9913 net.cpp:150] Setting up pool5
I0204 21:47:44.484210  9913 net.cpp:157] Top shape: 100 16 6 6 (57600)
I0204 21:47:44.484215  9913 net.cpp:165] Memory required for data: 150750400
I0204 21:47:44.484220  9913 layer_factory.hpp:77] Creating layer fc6
I0204 21:47:44.484232  9913 net.cpp:106] Creating Layer fc6
I0204 21:47:44.484237  9913 net.cpp:454] fc6 <- pool5
I0204 21:47:44.484246  9913 net.cpp:411] fc6 -> fc6
I0204 21:47:44.485878  9913 net.cpp:150] Setting up fc6
I0204 21:47:44.485891  9913 net.cpp:157] Top shape: 100 256 (25600)
I0204 21:47:44.485898  9913 net.cpp:165] Memory required for data: 150852800
I0204 21:47:44.485908  9913 layer_factory.hpp:77] Creating layer relu6
I0204 21:47:44.485916  9913 net.cpp:106] Creating Layer relu6
I0204 21:47:44.485924  9913 net.cpp:454] relu6 <- fc6
I0204 21:47:44.485936  9913 net.cpp:397] relu6 -> fc6 (in-place)
I0204 21:47:44.485945  9913 net.cpp:150] Setting up relu6
I0204 21:47:44.485952  9913 net.cpp:157] Top shape: 100 256 (25600)
I0204 21:47:44.485959  9913 net.cpp:165] Memory required for data: 150955200
I0204 21:47:44.485963  9913 layer_factory.hpp:77] Creating layer drop6
I0204 21:47:44.485988  9913 net.cpp:106] Creating Layer drop6
I0204 21:47:44.485994  9913 net.cpp:454] drop6 <- fc6
I0204 21:47:44.486003  9913 net.cpp:397] drop6 -> fc6 (in-place)
I0204 21:47:44.486016  9913 net.cpp:150] Setting up drop6
I0204 21:47:44.486021  9913 net.cpp:157] Top shape: 100 256 (25600)
I0204 21:47:44.486027  9913 net.cpp:165] Memory required for data: 151057600
I0204 21:47:44.486032  9913 layer_factory.hpp:77] Creating layer fc7
I0204 21:47:44.486042  9913 net.cpp:106] Creating Layer fc7
I0204 21:47:44.486048  9913 net.cpp:454] fc7 <- fc6
I0204 21:47:44.486057  9913 net.cpp:411] fc7 -> fc7
I0204 21:47:44.486760  9913 net.cpp:150] Setting up fc7
I0204 21:47:44.486771  9913 net.cpp:157] Top shape: 100 256 (25600)
I0204 21:47:44.486776  9913 net.cpp:165] Memory required for data: 151160000
I0204 21:47:44.486785  9913 layer_factory.hpp:77] Creating layer relu7
I0204 21:47:44.486793  9913 net.cpp:106] Creating Layer relu7
I0204 21:47:44.486799  9913 net.cpp:454] relu7 <- fc7
I0204 21:47:44.486807  9913 net.cpp:397] relu7 -> fc7 (in-place)
I0204 21:47:44.486815  9913 net.cpp:150] Setting up relu7
I0204 21:47:44.486822  9913 net.cpp:157] Top shape: 100 256 (25600)
I0204 21:47:44.486827  9913 net.cpp:165] Memory required for data: 151262400
I0204 21:47:44.486834  9913 layer_factory.hpp:77] Creating layer drop7
I0204 21:47:44.486845  9913 net.cpp:106] Creating Layer drop7
I0204 21:47:44.486850  9913 net.cpp:454] drop7 <- fc7
I0204 21:47:44.486857  9913 net.cpp:397] drop7 -> fc7 (in-place)
I0204 21:47:44.486868  9913 net.cpp:150] Setting up drop7
I0204 21:47:44.486876  9913 net.cpp:157] Top shape: 100 256 (25600)
I0204 21:47:44.486881  9913 net.cpp:165] Memory required for data: 151364800
I0204 21:47:44.486886  9913 layer_factory.hpp:77] Creating layer fc8
I0204 21:47:44.486899  9913 net.cpp:106] Creating Layer fc8
I0204 21:47:44.486907  9913 net.cpp:454] fc8 <- fc7
I0204 21:47:44.486913  9913 net.cpp:411] fc8 -> fc8
I0204 21:47:44.486940  9913 net.cpp:150] Setting up fc8
I0204 21:47:44.486948  9913 net.cpp:157] Top shape: 100 2 (200)
I0204 21:47:44.486953  9913 net.cpp:165] Memory required for data: 151365600
I0204 21:47:44.486961  9913 layer_factory.hpp:77] Creating layer fc8_fc8_0_split
I0204 21:47:44.486979  9913 net.cpp:106] Creating Layer fc8_fc8_0_split
I0204 21:47:44.486984  9913 net.cpp:454] fc8_fc8_0_split <- fc8
I0204 21:47:44.486991  9913 net.cpp:411] fc8_fc8_0_split -> fc8_fc8_0_split_0
I0204 21:47:44.487000  9913 net.cpp:411] fc8_fc8_0_split -> fc8_fc8_0_split_1
I0204 21:47:44.487010  9913 net.cpp:150] Setting up fc8_fc8_0_split
I0204 21:47:44.487021  9913 net.cpp:157] Top shape: 100 2 (200)
I0204 21:47:44.487028  9913 net.cpp:157] Top shape: 100 2 (200)
I0204 21:47:44.487033  9913 net.cpp:165] Memory required for data: 151367200
I0204 21:47:44.487040  9913 layer_factory.hpp:77] Creating layer accuracy
I0204 21:47:44.487066  9913 net.cpp:106] Creating Layer accuracy
I0204 21:47:44.487072  9913 net.cpp:454] accuracy <- fc8_fc8_0_split_0
I0204 21:47:44.487079  9913 net.cpp:454] accuracy <- label_data_1_split_0
I0204 21:47:44.487087  9913 net.cpp:411] accuracy -> accuracy
…
