…
I0204 16:30:48.890110  3498 net.cpp:322] The NetState phase (0) differed from the phase (1) specified by a rule in layer accuracy
I0204 16:30:48.890369  3498 net.cpp:49] Initializing net from parameters: 
name: "CaffeNet"
state {
  phase: TRAIN
}
layer {
  name: "data"
  type: "Data"
  top: "data"
  top: "label"
  include {
    phase: TRAIN
  }
  transform_param {
    mirror: true
    crop_size: 227
    mean_file: "/home/pearlstl/proj_cv/master/lmdb/synth1_train_lum_db/mean_file.binaryproto"
  }
  data_param {
    source: "/home/pearlstl/proj_cv/master/lmdb/synth1_train_lum_db"
    batch_size: 100
    backend: LMDB
  }
}
layer {
  name: "conv1"
  type: "Convolution"
  bottom: "data"
  top: "conv1"
  param {
    lr_mult: 1
    decay_mult: 1
  }
  param {
    lr_mult: 2
    decay_mult: 0
  }
  convolution_param {
    num_output: 8
    kernel_size: 11
    stride: 4
    weight_filler {
      type: "xavier"
    }
    bias_filler {
      type: "constant"
      value: 0
    }
  }
}
layer {
  name: "relu1"
  type: "ReLU"
  bottom: "conv1"
  top: "conv1"
}
layer {
  name: "pool1"
  type: "Pooling"
  bottom: "conv1"
  top: "pool1"
  pooling_param {
    pool: MAX
    kernel_size: 3
    stride: 2
  }
}
layer {
  name: "norm1"
  type: "LRN"
  bottom: "pool1"
  top: "norm1"
  lrn_param {
    local_size: 5
    alpha: 0.0001
    beta: 0.75
  }
}
layer {
  name: "conv2"
  type: "Convolution"
  bottom: "norm1"
  top: "conv2"
  param {
    lr_mult: 1
    decay_mult: 1
  }
  param {
    lr_mult: 2
    decay_mult: 0
  }
  convolution_param {
    num_output: 8
    pad: 2
    kernel_size: 5
    group: 2
    weight_filler {
      type: "xavier"
    }
    bias_filler {
      type: "constant"
      value: 1
    }
  }
}
layer {
  name: "relu2"
  type: "ReLU"
  bottom: "conv2"
  top: "conv2"
}
layer {
  name: "pool2"
  type: "Pooling"
  bottom: "conv2"
  top: "pool2"
  pooling_param {
    pool: MAX
    kernel_size: 3
    stride: 2
  }
}
layer {
  name: "norm2"
  type: "LRN"
  bottom: "pool2"
  top: "norm2"
  lrn_param {
    local_size: 5
    alpha: 0.0001
    beta: 0.75
  }
}
layer {
  name: "conv3"
  type: "Convolution"
  bottom: "norm2"
  top: "conv3"
  param {
    lr_mult: 1
    decay_mult: 1
  }
  param {
    lr_mult: 2
    decay_mult: 0
  }
  convolution_param {
    num_output: 8
    pad: 1
    kernel_size: 3
    weight_filler {
      type: "xavier"
    }
    bias_filler {
      type: "constant"
      value: 0
    }
  }
}
layer {
  name: "relu3"
  type: "ReLU"
  bottom: "conv3"
  top: "conv3"
}
layer {
  name: "conv4"
  type: "Convolution"
  bottom: "conv3"
  top: "conv4"
  param {
    lr_mult: 1
    decay_mult: 1
  }
  param {
    lr_mult: 2
    decay_mult: 0
  }
  convolution_param {
    num_output: 8
    pad: 1
    kernel_size: 3
    group: 2
    weight_filler {
      type: "xavier"
    }
    bias_filler {
      type: "constant"
      value: 1
    }
  }
}
layer {
  name: "relu4"
  type: "ReLU"
  bottom: "conv4"
  top: "conv4"
}
layer {
  name: "conv5"
  type: "Convolution"
  bottom: "conv4"
  top: "conv5"
  param {
    lr_mult: 1
    decay_mult: 1
  }
  param {
    lr_mult: 2
    decay_mult: 0
  }
  convolution_param {
    num_output: 8
    pad: 1
    kernel_size: 3
    group: 2
    weight_filler {
      type: "xavier"
    }
    bias_filler {
      type: "constant"
      value: 1
    }
  }
}
layer {
  name: "relu5"
  type: "ReLU"
  bottom: "conv5"
  top: "conv5"
}
layer {
  name: "pool5"
  type: "Pooling"
  bottom: "conv5"
  top: "pool5"
  pooling_param {
    pool: MAX
    kernel_size: 3
    stride: 2
  }
}
layer {
  name: "fc6"
  type: "InnerProduct"
  bottom: "pool5"
  top: "fc6"
  param {
    lr_mult: 1
    decay_mult: 1
  }
  param {
    lr_mult: 2
    decay_mult: 0
  }
  inner_product_param {
    num_output: 256
    weight_filler {
      type: "xavier"
    }
    bias_filler {
      type: "constant"
      value: 1
    }
  }
}
layer {
  name: "relu6"
  type: "ReLU"
  bottom: "fc6"
  top: "fc6"
}
layer {
  name: "drop6"
  type: "Dropout"
  bottom: "fc6"
  top: "fc6"
  dropout_param {
    dropout_ratio: 0.5
  }
}
layer {
  name: "fc7"
  type: "InnerProduct"
  bottom: "fc6"
  top: "fc7"
  param {
    lr_mult: 1
    decay_mult: 1
  }
  param {
    lr_mult: 2
    decay_mult: 0
  }
  inner_product_param {
    num_output: 256
    weight_filler {
      type: "xavier"
    }
    bias_filler {
      type: "constant"
      value: 1
    }
  }
}
layer {
  name: "relu7"
  type: "ReLU"
  bottom: "fc7"
  top: "fc7"
}
layer {
  name: "drop7"
  type: "Dropout"
  bottom: "fc7"
  top: "fc7"
  dropout_param {
    dropout_ratio: 0.5
  }
}
layer {
  name: "fc8"
  type: "InnerProduct"
  bottom: "fc7"
  top: "fc8"
  param {
    lr_mult: 1
    decay_mult: 1
  }
  param {
    lr_mult: 2
    decay_mult: 0
  }
  inner_product_param {
    num_output: 2
    weight_filler {
      type: "xavier"
    }
    bias_filler {
      type: "constant"
      value: 0
    }
  }
}
layer {
  name: "loss"
  type: "SoftmaxWithLoss"
  bottom: "fc8"
  bottom: "label"
  top: "loss"
}
I0204 16:30:48.890502  3498 layer_factory.hpp:77] Creating layer data
I0204 16:30:48.890689  3498 net.cpp:106] Creating Layer data
I0204 16:30:48.890704  3498 net.cpp:411] data -> data
I0204 16:30:48.890749  3498 net.cpp:411] data -> label
I0204 16:30:48.890770  3498 data_transformer.cpp:25] Loading mean file from: /home/pearlstl/proj_cv/master/lmdb/synth1_train_lum_db/mean_file.binaryproto
I0204 16:30:48.891670  3502 db_lmdb.cpp:38] Opened lmdb /home/pearlstl/proj_cv/master/lmdb/synth1_train_lum_db
I0204 16:30:48.891830  3498 data_layer.cpp:41] output data size: 100,1,227,227
I0204 16:30:48.925190  3498 net.cpp:150] Setting up data
I0204 16:30:48.925232  3498 net.cpp:157] Top shape: 100 1 227 227 (5152900)
I0204 16:30:48.925240  3498 net.cpp:157] Top shape: 100 (100)
I0204 16:30:48.925246  3498 net.cpp:165] Memory required for data: 20612000
I0204 16:30:48.925266  3498 layer_factory.hpp:77] Creating layer conv1
I0204 16:30:48.925292  3498 net.cpp:106] Creating Layer conv1
I0204 16:30:48.925299  3498 net.cpp:454] conv1 <- data
I0204 16:30:48.925319  3498 net.cpp:411] conv1 -> conv1
I0204 16:30:48.925415  3498 net.cpp:150] Setting up conv1
I0204 16:30:48.925426  3498 net.cpp:157] Top shape: 100 8 55 55 (2420000)
I0204 16:30:48.925432  3498 net.cpp:165] Memory required for data: 30292000
I0204 16:30:48.925448  3498 layer_factory.hpp:77] Creating layer relu1
I0204 16:30:48.925459  3498 net.cpp:106] Creating Layer relu1
I0204 16:30:48.925467  3498 net.cpp:454] relu1 <- conv1
I0204 16:30:48.925474  3498 net.cpp:397] relu1 -> conv1 (in-place)
I0204 16:30:48.925487  3498 net.cpp:150] Setting up relu1
I0204 16:30:48.925494  3498 net.cpp:157] Top shape: 100 8 55 55 (2420000)
I0204 16:30:48.925499  3498 net.cpp:165] Memory required for data: 39972000
I0204 16:30:48.925505  3498 layer_factory.hpp:77] Creating layer pool1
I0204 16:30:48.925515  3498 net.cpp:106] Creating Layer pool1
I0204 16:30:48.925521  3498 net.cpp:454] pool1 <- conv1
I0204 16:30:48.925529  3498 net.cpp:411] pool1 -> pool1
I0204 16:30:48.925552  3498 net.cpp:150] Setting up pool1
I0204 16:30:48.925560  3498 net.cpp:157] Top shape: 100 8 27 27 (583200)
I0204 16:30:48.925566  3498 net.cpp:165] Memory required for data: 42304800
I0204 16:30:48.925572  3498 layer_factory.hpp:77] Creating layer norm1
I0204 16:30:48.925600  3498 net.cpp:106] Creating Layer norm1
I0204 16:30:48.925613  3498 net.cpp:454] norm1 <- pool1
I0204 16:30:48.925621  3498 net.cpp:411] norm1 -> norm1
I0204 16:30:48.925638  3498 net.cpp:150] Setting up norm1
I0204 16:30:48.925647  3498 net.cpp:157] Top shape: 100 8 27 27 (583200)
I0204 16:30:48.925652  3498 net.cpp:165] Memory required for data: 44637600
I0204 16:30:48.925658  3498 layer_factory.hpp:77] Creating layer conv2
I0204 16:30:48.925669  3498 net.cpp:106] Creating Layer conv2
I0204 16:30:48.925675  3498 net.cpp:454] conv2 <- norm1
I0204 16:30:48.925683  3498 net.cpp:411] conv2 -> conv2
I0204 16:30:48.925714  3498 net.cpp:150] Setting up conv2
I0204 16:30:48.925724  3498 net.cpp:157] Top shape: 100 8 27 27 (583200)
I0204 16:30:48.925729  3498 net.cpp:165] Memory required for data: 46970400
I0204 16:30:48.925740  3498 layer_factory.hpp:77] Creating layer relu2
I0204 16:30:48.925747  3498 net.cpp:106] Creating Layer relu2
I0204 16:30:48.925753  3498 net.cpp:454] relu2 <- conv2
I0204 16:30:48.925761  3498 net.cpp:397] relu2 -> conv2 (in-place)
I0204 16:30:48.925770  3498 net.cpp:150] Setting up relu2
I0204 16:30:48.925776  3498 net.cpp:157] Top shape: 100 8 27 27 (583200)
I0204 16:30:48.925781  3498 net.cpp:165] Memory required for data: 49303200
I0204 16:30:48.925787  3498 layer_factory.hpp:77] Creating layer pool2
I0204 16:30:48.925796  3498 net.cpp:106] Creating Layer pool2
I0204 16:30:48.925801  3498 net.cpp:454] pool2 <- conv2
I0204 16:30:48.925808  3498 net.cpp:411] pool2 -> pool2
I0204 16:30:48.925818  3498 net.cpp:150] Setting up pool2
I0204 16:30:48.925825  3498 net.cpp:157] Top shape: 100 8 13 13 (135200)
I0204 16:30:48.925830  3498 net.cpp:165] Memory required for data: 49844000
I0204 16:30:48.925835  3498 layer_factory.hpp:77] Creating layer norm2
I0204 16:30:48.925845  3498 net.cpp:106] Creating Layer norm2
I0204 16:30:48.925850  3498 net.cpp:454] norm2 <- pool2
I0204 16:30:48.925858  3498 net.cpp:411] norm2 -> norm2
I0204 16:30:48.925868  3498 net.cpp:150] Setting up norm2
I0204 16:30:48.925874  3498 net.cpp:157] Top shape: 100 8 13 13 (135200)
I0204 16:30:48.925879  3498 net.cpp:165] Memory required for data: 50384800
I0204 16:30:48.925885  3498 layer_factory.hpp:77] Creating layer conv3
I0204 16:30:48.925895  3498 net.cpp:106] Creating Layer conv3
I0204 16:30:48.925900  3498 net.cpp:454] conv3 <- norm2
I0204 16:30:48.925909  3498 net.cpp:411] conv3 -> conv3
I0204 16:30:48.925936  3498 net.cpp:150] Setting up conv3
I0204 16:30:48.925945  3498 net.cpp:157] Top shape: 100 8 13 13 (135200)
I0204 16:30:48.925951  3498 net.cpp:165] Memory required for data: 50925600
I0204 16:30:48.925961  3498 layer_factory.hpp:77] Creating layer relu3
I0204 16:30:48.925968  3498 net.cpp:106] Creating Layer relu3
I0204 16:30:48.925974  3498 net.cpp:454] relu3 <- conv3
I0204 16:30:48.925982  3498 net.cpp:397] relu3 -> conv3 (in-place)
I0204 16:30:48.925990  3498 net.cpp:150] Setting up relu3
I0204 16:30:48.925997  3498 net.cpp:157] Top shape: 100 8 13 13 (135200)
I0204 16:30:48.926003  3498 net.cpp:165] Memory required for data: 51466400
I0204 16:30:48.926008  3498 layer_factory.hpp:77] Creating layer conv4
I0204 16:30:48.926017  3498 net.cpp:106] Creating Layer conv4
I0204 16:30:48.926023  3498 net.cpp:454] conv4 <- conv3
I0204 16:30:48.926030  3498 net.cpp:411] conv4 -> conv4
I0204 16:30:48.926053  3498 net.cpp:150] Setting up conv4
I0204 16:30:48.926059  3498 net.cpp:157] Top shape: 100 8 13 13 (135200)
I0204 16:30:48.926065  3498 net.cpp:165] Memory required for data: 52007200
I0204 16:30:48.926072  3498 layer_factory.hpp:77] Creating layer relu4
I0204 16:30:48.926080  3498 net.cpp:106] Creating Layer relu4
I0204 16:30:48.926085  3498 net.cpp:454] relu4 <- conv4
I0204 16:30:48.926093  3498 net.cpp:397] relu4 -> conv4 (in-place)
I0204 16:30:48.926100  3498 net.cpp:150] Setting up relu4
I0204 16:30:48.926107  3498 net.cpp:157] Top shape: 100 8 13 13 (135200)
I0204 16:30:48.926122  3498 net.cpp:165] Memory required for data: 52548000
I0204 16:30:48.926128  3498 layer_factory.hpp:77] Creating layer conv5
I0204 16:30:48.926142  3498 net.cpp:106] Creating Layer conv5
I0204 16:30:48.926156  3498 net.cpp:454] conv5 <- conv4
I0204 16:30:48.926164  3498 net.cpp:411] conv5 -> conv5
I0204 16:30:48.926185  3498 net.cpp:150] Setting up conv5
I0204 16:30:48.926193  3498 net.cpp:157] Top shape: 100 8 13 13 (135200)
I0204 16:30:48.926199  3498 net.cpp:165] Memory required for data: 53088800
I0204 16:30:48.926209  3498 layer_factory.hpp:77] Creating layer relu5
I0204 16:30:48.926218  3498 net.cpp:106] Creating Layer relu5
I0204 16:30:48.926223  3498 net.cpp:454] relu5 <- conv5
I0204 16:30:48.926231  3498 net.cpp:397] relu5 -> conv5 (in-place)
I0204 16:30:48.926239  3498 net.cpp:150] Setting up relu5
I0204 16:30:48.926245  3498 net.cpp:157] Top shape: 100 8 13 13 (135200)
I0204 16:30:48.926250  3498 net.cpp:165] Memory required for data: 53629600
I0204 16:30:48.926256  3498 layer_factory.hpp:77] Creating layer pool5
I0204 16:30:48.926265  3498 net.cpp:106] Creating Layer pool5
I0204 16:30:48.926270  3498 net.cpp:454] pool5 <- conv5
I0204 16:30:48.926277  3498 net.cpp:411] pool5 -> pool5
I0204 16:30:48.926287  3498 net.cpp:150] Setting up pool5
I0204 16:30:48.926295  3498 net.cpp:157] Top shape: 100 8 6 6 (28800)
I0204 16:30:48.926301  3498 net.cpp:165] Memory required for data: 53744800
I0204 16:30:48.926306  3498 layer_factory.hpp:77] Creating layer fc6
I0204 16:30:48.926319  3498 net.cpp:106] Creating Layer fc6
I0204 16:30:48.926326  3498 net.cpp:454] fc6 <- pool5
I0204 16:30:48.926333  3498 net.cpp:411] fc6 -> fc6
I0204 16:30:48.927078  3498 net.cpp:150] Setting up fc6
I0204 16:30:48.927090  3498 net.cpp:157] Top shape: 100 256 (25600)
I0204 16:30:48.927095  3498 net.cpp:165] Memory required for data: 53847200
I0204 16:30:48.927103  3498 layer_factory.hpp:77] Creating layer relu6
I0204 16:30:48.927117  3498 net.cpp:106] Creating Layer relu6
I0204 16:30:48.927124  3498 net.cpp:454] relu6 <- fc6
I0204 16:30:48.927131  3498 net.cpp:397] relu6 -> fc6 (in-place)
I0204 16:30:48.927140  3498 net.cpp:150] Setting up relu6
I0204 16:30:48.927147  3498 net.cpp:157] Top shape: 100 256 (25600)
I0204 16:30:48.927152  3498 net.cpp:165] Memory required for data: 53949600
I0204 16:30:48.927158  3498 layer_factory.hpp:77] Creating layer drop6
I0204 16:30:48.927168  3498 net.cpp:106] Creating Layer drop6
I0204 16:30:48.927175  3498 net.cpp:454] drop6 <- fc6
I0204 16:30:48.927181  3498 net.cpp:397] drop6 -> fc6 (in-place)
I0204 16:30:48.927196  3498 net.cpp:150] Setting up drop6
I0204 16:30:48.927203  3498 net.cpp:157] Top shape: 100 256 (25600)
I0204 16:30:48.927209  3498 net.cpp:165] Memory required for data: 54052000
I0204 16:30:48.927214  3498 layer_factory.hpp:77] Creating layer fc7
I0204 16:30:48.927224  3498 net.cpp:106] Creating Layer fc7
I0204 16:30:48.927229  3498 net.cpp:454] fc7 <- fc6
I0204 16:30:48.927237  3498 net.cpp:411] fc7 -> fc7
I0204 16:30:48.927877  3498 net.cpp:150] Setting up fc7
I0204 16:30:48.927887  3498 net.cpp:157] Top shape: 100 256 (25600)
I0204 16:30:48.927892  3498 net.cpp:165] Memory required for data: 54154400
I0204 16:30:48.927901  3498 layer_factory.hpp:77] Creating layer relu7
I0204 16:30:48.927908  3498 net.cpp:106] Creating Layer relu7
I0204 16:30:48.927913  3498 net.cpp:454] relu7 <- fc7
I0204 16:30:48.927920  3498 net.cpp:397] relu7 -> fc7 (in-place)
I0204 16:30:48.927928  3498 net.cpp:150] Setting up relu7
I0204 16:30:48.927935  3498 net.cpp:157] Top shape: 100 256 (25600)
I0204 16:30:48.927940  3498 net.cpp:165] Memory required for data: 54256800
I0204 16:30:48.927945  3498 layer_factory.hpp:77] Creating layer drop7
I0204 16:30:48.927955  3498 net.cpp:106] Creating Layer drop7
I0204 16:30:48.927960  3498 net.cpp:454] drop7 <- fc7
I0204 16:30:48.927968  3498 net.cpp:397] drop7 -> fc7 (in-place)
I0204 16:30:48.927976  3498 net.cpp:150] Setting up drop7
I0204 16:30:48.927983  3498 net.cpp:157] Top shape: 100 256 (25600)
I0204 16:30:48.927989  3498 net.cpp:165] Memory required for data: 54359200
I0204 16:30:48.927995  3498 layer_factory.hpp:77] Creating layer fc8
I0204 16:30:48.928005  3498 net.cpp:106] Creating Layer fc8
I0204 16:30:48.928015  3498 net.cpp:454] fc8 <- fc7
I0204 16:30:48.928030  3498 net.cpp:411] fc8 -> fc8
I0204 16:30:48.928051  3498 net.cpp:150] Setting up fc8
I0204 16:30:48.928059  3498 net.cpp:157] Top shape: 100 2 (200)
I0204 16:30:48.928064  3498 net.cpp:165] Memory required for data: 54360000
I0204 16:30:48.928072  3498 layer_factory.hpp:77] Creating layer loss
I0204 16:30:48.928081  3498 net.cpp:106] Creating Layer loss
I0204 16:30:48.928086  3498 net.cpp:454] loss <- fc8
I0204 16:30:48.928092  3498 net.cpp:454] loss <- label
I0204 16:30:48.928102  3498 net.cpp:411] loss -> loss
I0204 16:30:48.928122  3498 layer_factory.hpp:77] Creating layer loss
…
I0204 16:30:48.929105  3498 net.cpp:322] The NetState phase (1) differed from the phase (0) specified by a rule in layer data
I0204 16:30:48.929391  3498 net.cpp:49] Initializing net from parameters: 
name: "CaffeNet"
state {
  phase: TEST
}
layer {
  name: "data"
  type: "Data"
  top: "data"
  top: "label"
  include {
    phase: TEST
  }
  transform_param {
    mirror: false
    crop_size: 227
    mean_file: "/home/pearlstl/proj_cv/master/lmdb/synth1_test_lum_db/mean_file.binaryproto"
  }
  data_param {
    source: "/home/pearlstl/proj_cv/master/lmdb/synth1_test_lum_db"
    batch_size: 100
    backend: LMDB
  }
}
layer {
  name: "conv1"
  type: "Convolution"
  bottom: "data"
  top: "conv1"
  param {
    lr_mult: 1
    decay_mult: 1
  }
  param {
    lr_mult: 2
    decay_mult: 0
  }
  convolution_param {
    num_output: 8
    kernel_size: 11
    stride: 4
    weight_filler {
      type: "xavier"
    }
    bias_filler {
      type: "constant"
      value: 0
    }
  }
}
layer {
  name: "relu1"
  type: "ReLU"
  bottom: "conv1"
  top: "conv1"
}
layer {
  name: "pool1"
  type: "Pooling"
  bottom: "conv1"
  top: "pool1"
  pooling_param {
    pool: MAX
    kernel_size: 3
    stride: 2
  }
}
layer {
  name: "norm1"
  type: "LRN"
  bottom: "pool1"
  top: "norm1"
  lrn_param {
    local_size: 5
    alpha: 0.0001
    beta: 0.75
  }
}
layer {
  name: "conv2"
  type: "Convolution"
  bottom: "norm1"
  top: "conv2"
  param {
    lr_mult: 1
    decay_mult: 1
  }
  param {
    lr_mult: 2
    decay_mult: 0
  }
  convolution_param {
    num_output: 8
    pad: 2
    kernel_size: 5
    group: 2
    weight_filler {
      type: "xavier"
    }
    bias_filler {
      type: "constant"
      value: 1
    }
  }
}
layer {
  name: "relu2"
  type: "ReLU"
  bottom: "conv2"
  top: "conv2"
}
layer {
  name: "pool2"
  type: "Pooling"
  bottom: "conv2"
  top: "pool2"
  pooling_param {
    pool: MAX
    kernel_size: 3
    stride: 2
  }
}
layer {
  name: "norm2"
  type: "LRN"
  bottom: "pool2"
  top: "norm2"
  lrn_param {
    local_size: 5
    alpha: 0.0001
    beta: 0.75
  }
}
layer {
  name: "conv3"
  type: "Convolution"
  bottom: "norm2"
  top: "conv3"
  param {
    lr_mult: 1
    decay_mult: 1
  }
  param {
    lr_mult: 2
    decay_mult: 0
  }
  convolution_param {
    num_output: 8
    pad: 1
    kernel_size: 3
    weight_filler {
      type: "xavier"
    }
    bias_filler {
      type: "constant"
      value: 0
    }
  }
}
layer {
  name: "relu3"
  type: "ReLU"
  bottom: "conv3"
  top: "conv3"
}
layer {
  name: "conv4"
  type: "Convolution"
  bottom: "conv3"
  top: "conv4"
  param {
    lr_mult: 1
    decay_mult: 1
  }
  param {
    lr_mult: 2
    decay_mult: 0
  }
  convolution_param {
    num_output: 8
    pad: 1
    kernel_size: 3
    group: 2
    weight_filler {
      type: "xavier"
    }
    bias_filler {
      type: "constant"
      value: 1
    }
  }
}
layer {
  name: "relu4"
  type: "ReLU"
  bottom: "conv4"
  top: "conv4"
}
layer {
  name: "conv5"
  type: "Convolution"
  bottom: "conv4"
  top: "conv5"
  param {
    lr_mult: 1
    decay_mult: 1
  }
  param {
    lr_mult: 2
    decay_mult: 0
  }
  convolution_param {
    num_output: 8
    pad: 1
    kernel_size: 3
    group: 2
    weight_filler {
      type: "xavier"
    }
    bias_filler {
      type: "constant"
      value: 1
    }
  }
}
layer {
  name: "relu5"
  type: "ReLU"
  bottom: "conv5"
  top: "conv5"
}
layer {
  name: "pool5"
  type: "Pooling"
  bottom: "conv5"
  top: "pool5"
  pooling_param {
    pool: MAX
    kernel_size: 3
    stride: 2
  }
}
layer {
  name: "fc6"
  type: "InnerProduct"
  bottom: "pool5"
  top: "fc6"
  param {
    lr_mult: 1
    decay_mult: 1
  }
  param {
    lr_mult: 2
    decay_mult: 0
  }
  inner_product_param {
    num_output: 256
    weight_filler {
      type: "xavier"
    }
    bias_filler {
      type: "constant"
      value: 1
    }
  }
}
layer {
  name: "relu6"
  type: "ReLU"
  bottom: "fc6"
  top: "fc6"
}
layer {
  name: "drop6"
  type: "Dropout"
  bottom: "fc6"
  top: "fc6"
  dropout_param {
    dropout_ratio: 0.5
  }
}
layer {
  name: "fc7"
  type: "InnerProduct"
  bottom: "fc6"
  top: "fc7"
  param {
    lr_mult: 1
    decay_mult: 1
  }
  param {
    lr_mult: 2
    decay_mult: 0
  }
  inner_product_param {
    num_output: 256
    weight_filler {
      type: "xavier"
    }
    bias_filler {
      type: "constant"
      value: 1
    }
  }
}
layer {
  name: "relu7"
  type: "ReLU"
  bottom: "fc7"
  top: "fc7"
}
layer {
  name: "drop7"
  type: "Dropout"
  bottom: "fc7"
  top: "fc7"
  dropout_param {
    dropout_ratio: 0.5
  }
}
layer {
  name: "fc8"
  type: "InnerProduct"
  bottom: "fc7"
  top: "fc8"
  param {
    lr_mult: 1
    decay_mult: 1
  }
  param {
    lr_mult: 2
    decay_mult: 0
  }
  inner_product_param {
    num_output: 2
    weight_filler {
      type: "xavier"
    }
    bias_filler {
      type: "constant"
      value: 0
    }
  }
}
layer {
  name: "accuracy"
  type: "Accuracy"
  bottom: "fc8"
  bottom: "label"
  top: "accuracy"
  include {
    phase: TEST
  }
}
layer {
  name: "loss"
  type: "SoftmaxWithLoss"
  bottom: "fc8"
  bottom: "label"
  top: "loss"
}
I0204 16:30:48.929548  3498 layer_factory.hpp:77] Creating layer data
I0204 16:30:48.930518  3498 net.cpp:106] Creating Layer data
I0204 16:30:48.930562  3498 net.cpp:411] data -> data
I0204 16:30:48.930584  3498 net.cpp:411] data -> label
I0204 16:30:48.930598  3498 data_transformer.cpp:25] Loading mean file from: /home/pearlstl/proj_cv/master/lmdb/synth1_test_lum_db/mean_file.binaryproto
I0204 16:30:48.945127  3509 db_lmdb.cpp:38] Opened lmdb /home/pearlstl/proj_cv/master/lmdb/synth1_test_lum_db
I0204 16:30:48.951037  3498 data_layer.cpp:41] output data size: 100,1,227,227
I0204 16:30:49.006386  3498 net.cpp:150] Setting up data
I0204 16:30:49.006423  3498 net.cpp:157] Top shape: 100 1 227 227 (5152900)
I0204 16:30:49.006433  3498 net.cpp:157] Top shape: 100 (100)
I0204 16:30:49.006438  3498 net.cpp:165] Memory required for data: 20612000
I0204 16:30:49.006448  3498 layer_factory.hpp:77] Creating layer label_data_1_split
I0204 16:30:49.006469  3498 net.cpp:106] Creating Layer label_data_1_split
I0204 16:30:49.006475  3498 net.cpp:454] label_data_1_split <- label
I0204 16:30:49.006486  3498 net.cpp:411] label_data_1_split -> label_data_1_split_0
I0204 16:30:49.006503  3498 net.cpp:411] label_data_1_split -> label_data_1_split_1
I0204 16:30:49.006517  3498 net.cpp:150] Setting up label_data_1_split
I0204 16:30:49.006526  3498 net.cpp:157] Top shape: 100 (100)
I0204 16:30:49.006532  3498 net.cpp:157] Top shape: 100 (100)
I0204 16:30:49.006537  3498 net.cpp:165] Memory required for data: 20612800
I0204 16:30:49.006543  3498 layer_factory.hpp:77] Creating layer conv1
I0204 16:30:49.006561  3498 net.cpp:106] Creating Layer conv1
I0204 16:30:49.006567  3498 net.cpp:454] conv1 <- data
I0204 16:30:49.006575  3498 net.cpp:411] conv1 -> conv1
I0204 16:30:49.006624  3498 net.cpp:150] Setting up conv1
I0204 16:30:49.006634  3498 net.cpp:157] Top shape: 100 8 55 55 (2420000)
I0204 16:30:49.006640  3498 net.cpp:165] Memory required for data: 30292800
I0204 16:30:49.006654  3498 layer_factory.hpp:77] Creating layer relu1
I0204 16:30:49.006664  3498 net.cpp:106] Creating Layer relu1
I0204 16:30:49.006670  3498 net.cpp:454] relu1 <- conv1
I0204 16:30:49.006678  3498 net.cpp:397] relu1 -> conv1 (in-place)
I0204 16:30:49.006687  3498 net.cpp:150] Setting up relu1
I0204 16:30:49.006695  3498 net.cpp:157] Top shape: 100 8 55 55 (2420000)
I0204 16:30:49.006700  3498 net.cpp:165] Memory required for data: 39972800
I0204 16:30:49.006705  3498 layer_factory.hpp:77] Creating layer pool1
I0204 16:30:49.006716  3498 net.cpp:106] Creating Layer pool1
I0204 16:30:49.006721  3498 net.cpp:454] pool1 <- conv1
I0204 16:30:49.006729  3498 net.cpp:411] pool1 -> pool1
I0204 16:30:49.006742  3498 net.cpp:150] Setting up pool1
I0204 16:30:49.006750  3498 net.cpp:157] Top shape: 100 8 27 27 (583200)
I0204 16:30:49.006757  3498 net.cpp:165] Memory required for data: 42305600
I0204 16:30:49.006762  3498 layer_factory.hpp:77] Creating layer norm1
I0204 16:30:49.006772  3498 net.cpp:106] Creating Layer norm1
I0204 16:30:49.006778  3498 net.cpp:454] norm1 <- pool1
I0204 16:30:49.006785  3498 net.cpp:411] norm1 -> norm1
I0204 16:30:49.006796  3498 net.cpp:150] Setting up norm1
I0204 16:30:49.006804  3498 net.cpp:157] Top shape: 100 8 27 27 (583200)
I0204 16:30:49.006809  3498 net.cpp:165] Memory required for data: 44638400
I0204 16:30:49.006814  3498 layer_factory.hpp:77] Creating layer conv2
I0204 16:30:49.006825  3498 net.cpp:106] Creating Layer conv2
I0204 16:30:49.006831  3498 net.cpp:454] conv2 <- norm1
I0204 16:30:49.006840  3498 net.cpp:411] conv2 -> conv2
I0204 16:30:49.006870  3498 net.cpp:150] Setting up conv2
I0204 16:30:49.006878  3498 net.cpp:157] Top shape: 100 8 27 27 (583200)
I0204 16:30:49.006883  3498 net.cpp:165] Memory required for data: 46971200
I0204 16:30:49.006894  3498 layer_factory.hpp:77] Creating layer relu2
I0204 16:30:49.006902  3498 net.cpp:106] Creating Layer relu2
I0204 16:30:49.006908  3498 net.cpp:454] relu2 <- conv2
I0204 16:30:49.006916  3498 net.cpp:397] relu2 -> conv2 (in-place)
I0204 16:30:49.006933  3498 net.cpp:150] Setting up relu2
I0204 16:30:49.006949  3498 net.cpp:157] Top shape: 100 8 27 27 (583200)
I0204 16:30:49.006954  3498 net.cpp:165] Memory required for data: 49304000
I0204 16:30:49.006959  3498 layer_factory.hpp:77] Creating layer pool2
I0204 16:30:49.006969  3498 net.cpp:106] Creating Layer pool2
I0204 16:30:49.006974  3498 net.cpp:454] pool2 <- conv2
I0204 16:30:49.006983  3498 net.cpp:411] pool2 -> pool2
I0204 16:30:49.006994  3498 net.cpp:150] Setting up pool2
I0204 16:30:49.007001  3498 net.cpp:157] Top shape: 100 8 13 13 (135200)
I0204 16:30:49.007012  3498 net.cpp:165] Memory required for data: 49844800
I0204 16:30:49.007019  3498 layer_factory.hpp:77] Creating layer norm2
I0204 16:30:49.007027  3498 net.cpp:106] Creating Layer norm2
I0204 16:30:49.007033  3498 net.cpp:454] norm2 <- pool2
I0204 16:30:49.007040  3498 net.cpp:411] norm2 -> norm2
I0204 16:30:49.007050  3498 net.cpp:150] Setting up norm2
I0204 16:30:49.007057  3498 net.cpp:157] Top shape: 100 8 13 13 (135200)
I0204 16:30:49.007062  3498 net.cpp:165] Memory required for data: 50385600
I0204 16:30:49.007067  3498 layer_factory.hpp:77] Creating layer conv3
I0204 16:30:49.007078  3498 net.cpp:106] Creating Layer conv3
I0204 16:30:49.007083  3498 net.cpp:454] conv3 <- norm2
I0204 16:30:49.007092  3498 net.cpp:411] conv3 -> conv3
I0204 16:30:49.007118  3498 net.cpp:150] Setting up conv3
I0204 16:30:49.007127  3498 net.cpp:157] Top shape: 100 8 13 13 (135200)
I0204 16:30:49.007132  3498 net.cpp:165] Memory required for data: 50926400
I0204 16:30:49.007143  3498 layer_factory.hpp:77] Creating layer relu3
I0204 16:30:49.007150  3498 net.cpp:106] Creating Layer relu3
I0204 16:30:49.007156  3498 net.cpp:454] relu3 <- conv3
I0204 16:30:49.007164  3498 net.cpp:397] relu3 -> conv3 (in-place)
I0204 16:30:49.007171  3498 net.cpp:150] Setting up relu3
I0204 16:30:49.007179  3498 net.cpp:157] Top shape: 100 8 13 13 (135200)
I0204 16:30:49.007184  3498 net.cpp:165] Memory required for data: 51467200
I0204 16:30:49.007189  3498 layer_factory.hpp:77] Creating layer conv4
I0204 16:30:49.007199  3498 net.cpp:106] Creating Layer conv4
I0204 16:30:49.007205  3498 net.cpp:454] conv4 <- conv3
I0204 16:30:49.007212  3498 net.cpp:411] conv4 -> conv4
I0204 16:30:49.007232  3498 net.cpp:150] Setting up conv4
I0204 16:30:49.007241  3498 net.cpp:157] Top shape: 100 8 13 13 (135200)
I0204 16:30:49.007246  3498 net.cpp:165] Memory required for data: 52008000
I0204 16:30:49.007253  3498 layer_factory.hpp:77] Creating layer relu4
I0204 16:30:49.007261  3498 net.cpp:106] Creating Layer relu4
I0204 16:30:49.007267  3498 net.cpp:454] relu4 <- conv4
I0204 16:30:49.007274  3498 net.cpp:397] relu4 -> conv4 (in-place)
I0204 16:30:49.007282  3498 net.cpp:150] Setting up relu4
I0204 16:30:49.007289  3498 net.cpp:157] Top shape: 100 8 13 13 (135200)
I0204 16:30:49.007294  3498 net.cpp:165] Memory required for data: 52548800
I0204 16:30:49.007299  3498 layer_factory.hpp:77] Creating layer conv5
I0204 16:30:49.007310  3498 net.cpp:106] Creating Layer conv5
I0204 16:30:49.007315  3498 net.cpp:454] conv5 <- conv4
I0204 16:30:49.007323  3498 net.cpp:411] conv5 -> conv5
I0204 16:30:49.007345  3498 net.cpp:150] Setting up conv5
I0204 16:30:49.007352  3498 net.cpp:157] Top shape: 100 8 13 13 (135200)
I0204 16:30:49.007357  3498 net.cpp:165] Memory required for data: 53089600
I0204 16:30:49.007367  3498 layer_factory.hpp:77] Creating layer relu5
I0204 16:30:49.007375  3498 net.cpp:106] Creating Layer relu5
I0204 16:30:49.007380  3498 net.cpp:454] relu5 <- conv5
I0204 16:30:49.007387  3498 net.cpp:397] relu5 -> conv5 (in-place)
I0204 16:30:49.007395  3498 net.cpp:150] Setting up relu5
I0204 16:30:49.007401  3498 net.cpp:157] Top shape: 100 8 13 13 (135200)
I0204 16:30:49.007406  3498 net.cpp:165] Memory required for data: 53630400
I0204 16:30:49.007412  3498 layer_factory.hpp:77] Creating layer pool5
I0204 16:30:49.007421  3498 net.cpp:106] Creating Layer pool5
I0204 16:30:49.007427  3498 net.cpp:454] pool5 <- conv5
I0204 16:30:49.007434  3498 net.cpp:411] pool5 -> pool5
I0204 16:30:49.007449  3498 net.cpp:150] Setting up pool5
I0204 16:30:49.007462  3498 net.cpp:157] Top shape: 100 8 6 6 (28800)
I0204 16:30:49.007467  3498 net.cpp:165] Memory required for data: 53745600
I0204 16:30:49.007472  3498 layer_factory.hpp:77] Creating layer fc6
I0204 16:30:49.007484  3498 net.cpp:106] Creating Layer fc6
I0204 16:30:49.007489  3498 net.cpp:454] fc6 <- pool5
I0204 16:30:49.007498  3498 net.cpp:411] fc6 -> fc6
I0204 16:30:49.008184  3498 net.cpp:150] Setting up fc6
I0204 16:30:49.008195  3498 net.cpp:157] Top shape: 100 256 (25600)
I0204 16:30:49.008201  3498 net.cpp:165] Memory required for data: 53848000
I0204 16:30:49.008209  3498 layer_factory.hpp:77] Creating layer relu6
I0204 16:30:49.008220  3498 net.cpp:106] Creating Layer relu6
I0204 16:30:49.008226  3498 net.cpp:454] relu6 <- fc6
I0204 16:30:49.008234  3498 net.cpp:397] relu6 -> fc6 (in-place)
I0204 16:30:49.008241  3498 net.cpp:150] Setting up relu6
I0204 16:30:49.008249  3498 net.cpp:157] Top shape: 100 256 (25600)
I0204 16:30:49.008254  3498 net.cpp:165] Memory required for data: 53950400
I0204 16:30:49.008258  3498 layer_factory.hpp:77] Creating layer drop6
I0204 16:30:49.008267  3498 net.cpp:106] Creating Layer drop6
I0204 16:30:49.008273  3498 net.cpp:454] drop6 <- fc6
I0204 16:30:49.008282  3498 net.cpp:397] drop6 -> fc6 (in-place)
I0204 16:30:49.008293  3498 net.cpp:150] Setting up drop6
I0204 16:30:49.008299  3498 net.cpp:157] Top shape: 100 256 (25600)
I0204 16:30:49.008304  3498 net.cpp:165] Memory required for data: 54052800
I0204 16:30:49.008309  3498 layer_factory.hpp:77] Creating layer fc7
I0204 16:30:49.008319  3498 net.cpp:106] Creating Layer fc7
I0204 16:30:49.008324  3498 net.cpp:454] fc7 <- fc6
I0204 16:30:49.008334  3498 net.cpp:411] fc7 -> fc7
I0204 16:30:49.008983  3498 net.cpp:150] Setting up fc7
I0204 16:30:49.008994  3498 net.cpp:157] Top shape: 100 256 (25600)
I0204 16:30:49.008999  3498 net.cpp:165] Memory required for data: 54155200
I0204 16:30:49.009012  3498 layer_factory.hpp:77] Creating layer relu7
I0204 16:30:49.009021  3498 net.cpp:106] Creating Layer relu7
I0204 16:30:49.009027  3498 net.cpp:454] relu7 <- fc7
I0204 16:30:49.009037  3498 net.cpp:397] relu7 -> fc7 (in-place)
I0204 16:30:49.009044  3498 net.cpp:150] Setting up relu7
I0204 16:30:49.009052  3498 net.cpp:157] Top shape: 100 256 (25600)
I0204 16:30:49.009057  3498 net.cpp:165] Memory required for data: 54257600
I0204 16:30:49.009063  3498 layer_factory.hpp:77] Creating layer drop7
I0204 16:30:49.009070  3498 net.cpp:106] Creating Layer drop7
I0204 16:30:49.009075  3498 net.cpp:454] drop7 <- fc7
I0204 16:30:49.009083  3498 net.cpp:397] drop7 -> fc7 (in-place)
I0204 16:30:49.009093  3498 net.cpp:150] Setting up drop7
I0204 16:30:49.009099  3498 net.cpp:157] Top shape: 100 256 (25600)
I0204 16:30:49.009104  3498 net.cpp:165] Memory required for data: 54360000
I0204 16:30:49.009109  3498 layer_factory.hpp:77] Creating layer fc8
I0204 16:30:49.009120  3498 net.cpp:106] Creating Layer fc8
I0204 16:30:49.009126  3498 net.cpp:454] fc8 <- fc7
I0204 16:30:49.009135  3498 net.cpp:411] fc8 -> fc8
I0204 16:30:49.009160  3498 net.cpp:150] Setting up fc8
I0204 16:30:49.009169  3498 net.cpp:157] Top shape: 100 2 (200)
I0204 16:30:49.009174  3498 net.cpp:165] Memory required for data: 54360800
I0204 16:30:49.009181  3498 layer_factory.hpp:77] Creating layer fc8_fc8_0_split
I0204 16:30:49.009191  3498 net.cpp:106] Creating Layer fc8_fc8_0_split
I0204 16:30:49.009196  3498 net.cpp:454] fc8_fc8_0_split <- fc8
I0204 16:30:49.009203  3498 net.cpp:411] fc8_fc8_0_split -> fc8_fc8_0_split_0
I0204 16:30:49.009212  3498 net.cpp:411] fc8_fc8_0_split -> fc8_fc8_0_split_1
I0204 16:30:49.009222  3498 net.cpp:150] Setting up fc8_fc8_0_split
I0204 16:30:49.009232  3498 net.cpp:157] Top shape: 100 2 (200)
I0204 16:30:49.009238  3498 net.cpp:157] Top shape: 100 2 (200)
I0204 16:30:49.009243  3498 net.cpp:165] Memory required for data: 54362400
I0204 16:30:49.009248  3498 layer_factory.hpp:77] Creating layer accuracy
I0204 16:30:49.009260  3498 net.cpp:106] Creating Layer accuracy
I0204 16:30:49.009270  3498 net.cpp:454] accuracy <- fc8_fc8_0_split_0
I0204 16:30:49.009284  3498 net.cpp:454] accuracy <- label_data_1_split_0
I0204 16:30:49.009294  3498 net.cpp:411] accuracy -> accuracy
…
