…
I0204 08:47:10.422397 31939 net.cpp:322] The NetState phase (0) differed from the phase (1) specified by a rule in layer accuracy
I0204 08:47:10.422647 31939 net.cpp:49] Initializing net from parameters: 
name: "CaffeNet"
state {
  phase: TRAIN
}
layer {
  name: "data"
  type: "Data"
  top: "data"
  top: "label"
  include {
    phase: TRAIN
  }
  transform_param {
    mirror: true
    crop_size: 227
    mean_file: "/home/pearlstl/proj_cv/master/lmdb/synth1_train_lum_db/mean_file.binaryproto"
  }
  data_param {
    source: "/home/pearlstl/proj_cv/master/lmdb/synth1_train_lum_db"
    batch_size: 100
    backend: LMDB
  }
}
layer {
  name: "conv1"
  type: "Convolution"
  bottom: "data"
  top: "conv1"
  param {
    lr_mult: 1
    decay_mult: 1
  }
  param {
    lr_mult: 2
    decay_mult: 0
  }
  convolution_param {
    num_output: 16
    kernel_size: 11
    stride: 4
    weight_filler {
      type: "xavier"
    }
    bias_filler {
      type: "constant"
      value: 0
    }
  }
}
layer {
  name: "relu1"
  type: "ReLU"
  bottom: "conv1"
  top: "conv1"
}
layer {
  name: "pool1"
  type: "Pooling"
  bottom: "conv1"
  top: "pool1"
  pooling_param {
    pool: MAX
    kernel_size: 3
    stride: 2
  }
}
layer {
  name: "norm1"
  type: "LRN"
  bottom: "pool1"
  top: "norm1"
  lrn_param {
    local_size: 5
    alpha: 0.0001
    beta: 0.75
  }
}
layer {
  name: "conv2"
  type: "Convolution"
  bottom: "norm1"
  top: "conv2"
  param {
    lr_mult: 1
    decay_mult: 1
  }
  param {
    lr_mult: 2
    decay_mult: 0
  }
  convolution_param {
    num_output: 16
    pad: 2
    kernel_size: 5
    group: 2
    weight_filler {
      type: "xavier"
    }
    bias_filler {
      type: "constant"
      value: 1
    }
  }
}
layer {
  name: "relu2"
  type: "ReLU"
  bottom: "conv2"
  top: "conv2"
}
layer {
  name: "pool2"
  type: "Pooling"
  bottom: "conv2"
  top: "pool2"
  pooling_param {
    pool: MAX
    kernel_size: 3
    stride: 2
  }
}
layer {
  name: "norm2"
  type: "LRN"
  bottom: "pool2"
  top: "norm2"
  lrn_param {
    local_size: 5
    alpha: 0.0001
    beta: 0.75
  }
}
layer {
  name: "conv3"
  type: "Convolution"
  bottom: "norm2"
  top: "conv3"
  param {
    lr_mult: 1
    decay_mult: 1
  }
  param {
    lr_mult: 2
    decay_mult: 0
  }
  convolution_param {
    num_output: 16
    pad: 1
    kernel_size: 3
    weight_filler {
      type: "xavier"
    }
    bias_filler {
      type: "constant"
      value: 0
    }
  }
}
layer {
  name: "relu3"
  type: "ReLU"
  bottom: "conv3"
  top: "conv3"
}
layer {
  name: "conv4"
  type: "Convolution"
  bottom: "conv3"
  top: "conv4"
  param {
    lr_mult: 1
    decay_mult: 1
  }
  param {
    lr_mult: 2
    decay_mult: 0
  }
  convolution_param {
    num_output: 8
    pad: 1
    kernel_size: 3
    group: 2
    weight_filler {
      type: "xavier"
    }
    bias_filler {
      type: "constant"
      value: 1
    }
  }
}
layer {
  name: "relu4"
  type: "ReLU"
  bottom: "conv4"
  top: "conv4"
}
layer {
  name: "conv5"
  type: "Convolution"
  bottom: "conv4"
  top: "conv5"
  param {
    lr_mult: 1
    decay_mult: 1
  }
  param {
    lr_mult: 2
    decay_mult: 0
  }
  convolution_param {
    num_output: 8
    pad: 1
    kernel_size: 3
    group: 2
    weight_filler {
      type: "xavier"
    }
    bias_filler {
      type: "constant"
      value: 1
    }
  }
}
layer {
  name: "relu5"
  type: "ReLU"
  bottom: "conv5"
  top: "conv5"
}
layer {
  name: "pool5"
  type: "Pooling"
  bottom: "conv5"
  top: "pool5"
  pooling_param {
    pool: MAX
    kernel_size: 3
    stride: 2
  }
}
layer {
  name: "fc6"
  type: "InnerProduct"
  bottom: "pool5"
  top: "fc6"
  param {
    lr_mult: 1
    decay_mult: 1
  }
  param {
    lr_mult: 2
    decay_mult: 0
  }
  inner_product_param {
    num_output: 256
    weight_filler {
      type: "xavier"
    }
    bias_filler {
      type: "constant"
      value: 1
    }
  }
}
layer {
  name: "relu6"
  type: "ReLU"
  bottom: "fc6"
  top: "fc6"
}
layer {
  name: "drop6"
  type: "Dropout"
  bottom: "fc6"
  top: "fc6"
  dropout_param {
    dropout_ratio: 0.5
  }
}
layer {
  name: "fc7"
  type: "InnerProduct"
  bottom: "fc6"
  top: "fc7"
  param {
    lr_mult: 1
    decay_mult: 1
  }
  param {
    lr_mult: 2
    decay_mult: 0
  }
  inner_product_param {
    num_output: 256
    weight_filler {
      type: "xavier"
    }
    bias_filler {
      type: "constant"
      value: 1
    }
  }
}
layer {
  name: "relu7"
  type: "ReLU"
  bottom: "fc7"
  top: "fc7"
}
layer {
  name: "drop7"
  type: "Dropout"
  bottom: "fc7"
  top: "fc7"
  dropout_param {
    dropout_ratio: 0.5
  }
}
layer {
  name: "fc8"
  type: "InnerProduct"
  bottom: "fc7"
  top: "fc8"
  param {
    lr_mult: 1
    decay_mult: 1
  }
  param {
    lr_mult: 2
    decay_mult: 0
  }
  inner_product_param {
    num_output: 2
    weight_filler {
      type: "xavier"
    }
    bias_filler {
      type: "constant"
      value: 0
    }
  }
}
layer {
  name: "loss"
  type: "SoftmaxWithLoss"
  bottom: "fc8"
  bottom: "label"
  top: "loss"
}
I0204 08:47:10.422783 31939 layer_factory.hpp:77] Creating layer data
I0204 08:47:10.422981 31939 net.cpp:106] Creating Layer data
I0204 08:47:10.422999 31939 net.cpp:411] data -> data
I0204 08:47:10.423076 31939 net.cpp:411] data -> label
I0204 08:47:10.423101 31939 data_transformer.cpp:25] Loading mean file from: /home/pearlstl/proj_cv/master/lmdb/synth1_train_lum_db/mean_file.binaryproto
I0204 08:47:10.423228 31949 db_lmdb.cpp:38] Opened lmdb /home/pearlstl/proj_cv/master/lmdb/synth1_train_lum_db
I0204 08:47:10.424032 31939 data_layer.cpp:41] output data size: 100,1,227,227
I0204 08:47:10.465131 31939 net.cpp:150] Setting up data
I0204 08:47:10.465816 31939 net.cpp:157] Top shape: 100 1 227 227 (5152900)
I0204 08:47:10.465852 31939 net.cpp:157] Top shape: 100 (100)
I0204 08:47:10.465864 31939 net.cpp:165] Memory required for data: 20612000
I0204 08:47:10.465890 31939 layer_factory.hpp:77] Creating layer conv1
I0204 08:47:10.466066 31939 net.cpp:106] Creating Layer conv1
I0204 08:47:10.466086 31939 net.cpp:454] conv1 <- data
I0204 08:47:10.466120 31939 net.cpp:411] conv1 -> conv1
I0204 08:47:10.467836 31939 net.cpp:150] Setting up conv1
I0204 08:47:10.467875 31939 net.cpp:157] Top shape: 100 16 55 55 (4840000)
I0204 08:47:10.467885 31939 net.cpp:165] Memory required for data: 39972000
I0204 08:47:10.467921 31939 layer_factory.hpp:77] Creating layer relu1
I0204 08:47:10.467947 31939 net.cpp:106] Creating Layer relu1
I0204 08:47:10.467959 31939 net.cpp:454] relu1 <- conv1
I0204 08:47:10.467975 31939 net.cpp:397] relu1 -> conv1 (in-place)
I0204 08:47:10.468163 31939 net.cpp:150] Setting up relu1
I0204 08:47:10.468181 31939 net.cpp:157] Top shape: 100 16 55 55 (4840000)
I0204 08:47:10.468191 31939 net.cpp:165] Memory required for data: 59332000
I0204 08:47:10.468202 31939 layer_factory.hpp:77] Creating layer pool1
I0204 08:47:10.468220 31939 net.cpp:106] Creating Layer pool1
I0204 08:47:10.468230 31939 net.cpp:454] pool1 <- conv1
I0204 08:47:10.468245 31939 net.cpp:411] pool1 -> pool1
I0204 08:47:10.468583 31939 net.cpp:150] Setting up pool1
I0204 08:47:10.468608 31939 net.cpp:157] Top shape: 100 16 27 27 (1166400)
I0204 08:47:10.468618 31939 net.cpp:165] Memory required for data: 63997600
I0204 08:47:10.468632 31939 layer_factory.hpp:77] Creating layer norm1
I0204 08:47:10.468675 31939 net.cpp:106] Creating Layer norm1
I0204 08:47:10.468706 31939 net.cpp:454] norm1 <- pool1
I0204 08:47:10.468724 31939 net.cpp:411] norm1 -> norm1
I0204 08:47:10.469027 31939 net.cpp:150] Setting up norm1
I0204 08:47:10.469048 31939 net.cpp:157] Top shape: 100 16 27 27 (1166400)
I0204 08:47:10.469056 31939 net.cpp:165] Memory required for data: 68663200
I0204 08:47:10.469066 31939 layer_factory.hpp:77] Creating layer conv2
I0204 08:47:10.469089 31939 net.cpp:106] Creating Layer conv2
I0204 08:47:10.469099 31939 net.cpp:454] conv2 <- norm1
I0204 08:47:10.469115 31939 net.cpp:411] conv2 -> conv2
I0204 08:47:10.469228 31939 net.cpp:150] Setting up conv2
I0204 08:47:10.469244 31939 net.cpp:157] Top shape: 100 16 27 27 (1166400)
I0204 08:47:10.469252 31939 net.cpp:165] Memory required for data: 73328800
I0204 08:47:10.469274 31939 layer_factory.hpp:77] Creating layer relu2
I0204 08:47:10.469288 31939 net.cpp:106] Creating Layer relu2
I0204 08:47:10.469300 31939 net.cpp:454] relu2 <- conv2
I0204 08:47:10.469316 31939 net.cpp:397] relu2 -> conv2 (in-place)
I0204 08:47:10.469333 31939 net.cpp:150] Setting up relu2
I0204 08:47:10.469347 31939 net.cpp:157] Top shape: 100 16 27 27 (1166400)
I0204 08:47:10.469357 31939 net.cpp:165] Memory required for data: 77994400
I0204 08:47:10.469367 31939 layer_factory.hpp:77] Creating layer pool2
I0204 08:47:10.469385 31939 net.cpp:106] Creating Layer pool2
I0204 08:47:10.469395 31939 net.cpp:454] pool2 <- conv2
I0204 08:47:10.469409 31939 net.cpp:411] pool2 -> pool2
I0204 08:47:10.469429 31939 net.cpp:150] Setting up pool2
I0204 08:47:10.469442 31939 net.cpp:157] Top shape: 100 16 13 13 (270400)
I0204 08:47:10.469451 31939 net.cpp:165] Memory required for data: 79076000
I0204 08:47:10.469461 31939 layer_factory.hpp:77] Creating layer norm2
I0204 08:47:10.469480 31939 net.cpp:106] Creating Layer norm2
I0204 08:47:10.469491 31939 net.cpp:454] norm2 <- pool2
I0204 08:47:10.469504 31939 net.cpp:411] norm2 -> norm2
I0204 08:47:10.469521 31939 net.cpp:150] Setting up norm2
I0204 08:47:10.469533 31939 net.cpp:157] Top shape: 100 16 13 13 (270400)
I0204 08:47:10.469543 31939 net.cpp:165] Memory required for data: 80157600
I0204 08:47:10.469552 31939 layer_factory.hpp:77] Creating layer conv3
I0204 08:47:10.469570 31939 net.cpp:106] Creating Layer conv3
I0204 08:47:10.469581 31939 net.cpp:454] conv3 <- norm2
I0204 08:47:10.469595 31939 net.cpp:411] conv3 -> conv3
I0204 08:47:10.469669 31939 net.cpp:150] Setting up conv3
I0204 08:47:10.469683 31939 net.cpp:157] Top shape: 100 16 13 13 (270400)
I0204 08:47:10.469692 31939 net.cpp:165] Memory required for data: 81239200
I0204 08:47:10.469712 31939 layer_factory.hpp:77] Creating layer relu3
I0204 08:47:10.469724 31939 net.cpp:106] Creating Layer relu3
I0204 08:47:10.469734 31939 net.cpp:454] relu3 <- conv3
I0204 08:47:10.469748 31939 net.cpp:397] relu3 -> conv3 (in-place)
I0204 08:47:10.469763 31939 net.cpp:150] Setting up relu3
I0204 08:47:10.469774 31939 net.cpp:157] Top shape: 100 16 13 13 (270400)
I0204 08:47:10.469782 31939 net.cpp:165] Memory required for data: 82320800
I0204 08:47:10.469792 31939 layer_factory.hpp:77] Creating layer conv4
I0204 08:47:10.469807 31939 net.cpp:106] Creating Layer conv4
I0204 08:47:10.469817 31939 net.cpp:454] conv4 <- conv3
I0204 08:47:10.469830 31939 net.cpp:411] conv4 -> conv4
I0204 08:47:10.469874 31939 net.cpp:150] Setting up conv4
I0204 08:47:10.469887 31939 net.cpp:157] Top shape: 100 8 13 13 (135200)
I0204 08:47:10.469897 31939 net.cpp:165] Memory required for data: 82861600
I0204 08:47:10.469910 31939 layer_factory.hpp:77] Creating layer relu4
I0204 08:47:10.469923 31939 net.cpp:106] Creating Layer relu4
I0204 08:47:10.469933 31939 net.cpp:454] relu4 <- conv4
I0204 08:47:10.469948 31939 net.cpp:397] relu4 -> conv4 (in-place)
I0204 08:47:10.469962 31939 net.cpp:150] Setting up relu4
I0204 08:47:10.469974 31939 net.cpp:157] Top shape: 100 8 13 13 (135200)
I0204 08:47:10.469983 31939 net.cpp:165] Memory required for data: 83402400
I0204 08:47:10.469993 31939 layer_factory.hpp:77] Creating layer conv5
I0204 08:47:10.470016 31939 net.cpp:106] Creating Layer conv5
I0204 08:47:10.470038 31939 net.cpp:454] conv5 <- conv4
I0204 08:47:10.470053 31939 net.cpp:411] conv5 -> conv5
I0204 08:47:10.470093 31939 net.cpp:150] Setting up conv5
I0204 08:47:10.470106 31939 net.cpp:157] Top shape: 100 8 13 13 (135200)
I0204 08:47:10.470115 31939 net.cpp:165] Memory required for data: 83943200
I0204 08:47:10.470141 31939 layer_factory.hpp:77] Creating layer relu5
I0204 08:47:10.470155 31939 net.cpp:106] Creating Layer relu5
I0204 08:47:10.470165 31939 net.cpp:454] relu5 <- conv5
I0204 08:47:10.470180 31939 net.cpp:397] relu5 -> conv5 (in-place)
I0204 08:47:10.470193 31939 net.cpp:150] Setting up relu5
I0204 08:47:10.470204 31939 net.cpp:157] Top shape: 100 8 13 13 (135200)
I0204 08:47:10.470213 31939 net.cpp:165] Memory required for data: 84484000
I0204 08:47:10.470223 31939 layer_factory.hpp:77] Creating layer pool5
I0204 08:47:10.470237 31939 net.cpp:106] Creating Layer pool5
I0204 08:47:10.470247 31939 net.cpp:454] pool5 <- conv5
I0204 08:47:10.470260 31939 net.cpp:411] pool5 -> pool5
I0204 08:47:10.470278 31939 net.cpp:150] Setting up pool5
I0204 08:47:10.470291 31939 net.cpp:157] Top shape: 100 8 6 6 (28800)
I0204 08:47:10.470299 31939 net.cpp:165] Memory required for data: 84599200
I0204 08:47:10.470309 31939 layer_factory.hpp:77] Creating layer fc6
I0204 08:47:10.470481 31939 net.cpp:106] Creating Layer fc6
I0204 08:47:10.470496 31939 net.cpp:454] fc6 <- pool5
I0204 08:47:10.470531 31939 net.cpp:411] fc6 -> fc6
I0204 08:47:10.471962 31939 net.cpp:150] Setting up fc6
I0204 08:47:10.471989 31939 net.cpp:157] Top shape: 100 256 (25600)
I0204 08:47:10.471999 31939 net.cpp:165] Memory required for data: 84701600
I0204 08:47:10.472014 31939 layer_factory.hpp:77] Creating layer relu6
I0204 08:47:10.472031 31939 net.cpp:106] Creating Layer relu6
I0204 08:47:10.472041 31939 net.cpp:454] relu6 <- fc6
I0204 08:47:10.472060 31939 net.cpp:397] relu6 -> fc6 (in-place)
I0204 08:47:10.472076 31939 net.cpp:150] Setting up relu6
I0204 08:47:10.472089 31939 net.cpp:157] Top shape: 100 256 (25600)
I0204 08:47:10.472097 31939 net.cpp:165] Memory required for data: 84804000
I0204 08:47:10.472107 31939 layer_factory.hpp:77] Creating layer drop6
I0204 08:47:10.472124 31939 net.cpp:106] Creating Layer drop6
I0204 08:47:10.472146 31939 net.cpp:454] drop6 <- fc6
I0204 08:47:10.472159 31939 net.cpp:397] drop6 -> fc6 (in-place)
I0204 08:47:10.472188 31939 net.cpp:150] Setting up drop6
I0204 08:47:10.472200 31939 net.cpp:157] Top shape: 100 256 (25600)
I0204 08:47:10.472210 31939 net.cpp:165] Memory required for data: 84906400
I0204 08:47:10.472219 31939 layer_factory.hpp:77] Creating layer fc7
I0204 08:47:10.472235 31939 net.cpp:106] Creating Layer fc7
I0204 08:47:10.472245 31939 net.cpp:454] fc7 <- fc6
I0204 08:47:10.472259 31939 net.cpp:411] fc7 -> fc7
I0204 08:47:10.472990 31939 net.cpp:150] Setting up fc7
I0204 08:47:10.473016 31939 net.cpp:157] Top shape: 100 256 (25600)
I0204 08:47:10.473023 31939 net.cpp:165] Memory required for data: 85008800
I0204 08:47:10.473034 31939 layer_factory.hpp:77] Creating layer relu7
I0204 08:47:10.473045 31939 net.cpp:106] Creating Layer relu7
I0204 08:47:10.473053 31939 net.cpp:454] relu7 <- fc7
I0204 08:47:10.473062 31939 net.cpp:397] relu7 -> fc7 (in-place)
I0204 08:47:10.473075 31939 net.cpp:150] Setting up relu7
I0204 08:47:10.473083 31939 net.cpp:157] Top shape: 100 256 (25600)
I0204 08:47:10.473094 31939 net.cpp:165] Memory required for data: 85111200
I0204 08:47:10.473101 31939 layer_factory.hpp:77] Creating layer drop7
I0204 08:47:10.473114 31939 net.cpp:106] Creating Layer drop7
I0204 08:47:10.473120 31939 net.cpp:454] drop7 <- fc7
I0204 08:47:10.473129 31939 net.cpp:397] drop7 -> fc7 (in-place)
I0204 08:47:10.473140 31939 net.cpp:150] Setting up drop7
I0204 08:47:10.473146 31939 net.cpp:157] Top shape: 100 256 (25600)
I0204 08:47:10.473151 31939 net.cpp:165] Memory required for data: 85213600
I0204 08:47:10.473175 31939 layer_factory.hpp:77] Creating layer fc8
I0204 08:47:10.473187 31939 net.cpp:106] Creating Layer fc8
I0204 08:47:10.473202 31939 net.cpp:454] fc8 <- fc7
I0204 08:47:10.473219 31939 net.cpp:411] fc8 -> fc8
I0204 08:47:10.473248 31939 net.cpp:150] Setting up fc8
I0204 08:47:10.473255 31939 net.cpp:157] Top shape: 100 2 (200)
I0204 08:47:10.473261 31939 net.cpp:165] Memory required for data: 85214400
I0204 08:47:10.473269 31939 layer_factory.hpp:77] Creating layer loss
I0204 08:47:10.473279 31939 net.cpp:106] Creating Layer loss
I0204 08:47:10.473289 31939 net.cpp:454] loss <- fc8
I0204 08:47:10.473301 31939 net.cpp:454] loss <- label
I0204 08:47:10.473311 31939 net.cpp:411] loss -> loss
I0204 08:47:10.473325 31939 layer_factory.hpp:77] Creating layer loss
…
I0204 08:47:10.474442 31939 net.cpp:322] The NetState phase (1) differed from the phase (0) specified by a rule in layer data
I0204 08:47:10.474756 31939 net.cpp:49] Initializing net from parameters: 
name: "CaffeNet"
state {
  phase: TEST
}
layer {
  name: "data"
  type: "Data"
  top: "data"
  top: "label"
  include {
    phase: TEST
  }
  transform_param {
    mirror: false
    crop_size: 227
    mean_file: "/home/pearlstl/proj_cv/master/lmdb/synth1_test_lum_db/mean_file.binaryproto"
  }
  data_param {
    source: "/home/pearlstl/proj_cv/master/lmdb/synth1_test_lum_db"
    batch_size: 100
    backend: LMDB
  }
}
layer {
  name: "conv1"
  type: "Convolution"
  bottom: "data"
  top: "conv1"
  param {
    lr_mult: 1
    decay_mult: 1
  }
  param {
    lr_mult: 2
    decay_mult: 0
  }
  convolution_param {
    num_output: 16
    kernel_size: 11
    stride: 4
    weight_filler {
      type: "xavier"
    }
    bias_filler {
      type: "constant"
      value: 0
    }
  }
}
layer {
  name: "relu1"
  type: "ReLU"
  bottom: "conv1"
  top: "conv1"
}
layer {
  name: "pool1"
  type: "Pooling"
  bottom: "conv1"
  top: "pool1"
  pooling_param {
    pool: MAX
    kernel_size: 3
    stride: 2
  }
}
layer {
  name: "norm1"
  type: "LRN"
  bottom: "pool1"
  top: "norm1"
  lrn_param {
    local_size: 5
    alpha: 0.0001
    beta: 0.75
  }
}
layer {
  name: "conv2"
  type: "Convolution"
  bottom: "norm1"
  top: "conv2"
  param {
    lr_mult: 1
    decay_mult: 1
  }
  param {
    lr_mult: 2
    decay_mult: 0
  }
  convolution_param {
    num_output: 16
    pad: 2
    kernel_size: 5
    group: 2
    weight_filler {
      type: "xavier"
    }
    bias_filler {
      type: "constant"
      value: 1
    }
  }
}
layer {
  name: "relu2"
  type: "ReLU"
  bottom: "conv2"
  top: "conv2"
}
layer {
  name: "pool2"
  type: "Pooling"
  bottom: "conv2"
  top: "pool2"
  pooling_param {
    pool: MAX
    kernel_size: 3
    stride: 2
  }
}
layer {
  name: "norm2"
  type: "LRN"
  bottom: "pool2"
  top: "norm2"
  lrn_param {
    local_size: 5
    alpha: 0.0001
    beta: 0.75
  }
}
layer {
  name: "conv3"
  type: "Convolution"
  bottom: "norm2"
  top: "conv3"
  param {
    lr_mult: 1
    decay_mult: 1
  }
  param {
    lr_mult: 2
    decay_mult: 0
  }
  convolution_param {
    num_output: 16
    pad: 1
    kernel_size: 3
    weight_filler {
      type: "xavier"
    }
    bias_filler {
      type: "constant"
      value: 0
    }
  }
}
layer {
  name: "relu3"
  type: "ReLU"
  bottom: "conv3"
  top: "conv3"
}
layer {
  name: "conv4"
  type: "Convolution"
  bottom: "conv3"
  top: "conv4"
  param {
    lr_mult: 1
    decay_mult: 1
  }
  param {
    lr_mult: 2
    decay_mult: 0
  }
  convolution_param {
    num_output: 8
    pad: 1
    kernel_size: 3
    group: 2
    weight_filler {
      type: "xavier"
    }
    bias_filler {
      type: "constant"
      value: 1
    }
  }
}
layer {
  name: "relu4"
  type: "ReLU"
  bottom: "conv4"
  top: "conv4"
}
layer {
  name: "conv5"
  type: "Convolution"
  bottom: "conv4"
  top: "conv5"
  param {
    lr_mult: 1
    decay_mult: 1
  }
  param {
    lr_mult: 2
    decay_mult: 0
  }
  convolution_param {
    num_output: 8
    pad: 1
    kernel_size: 3
    group: 2
    weight_filler {
      type: "xavier"
    }
    bias_filler {
      type: "constant"
      value: 1
    }
  }
}
layer {
  name: "relu5"
  type: "ReLU"
  bottom: "conv5"
  top: "conv5"
}
layer {
  name: "pool5"
  type: "Pooling"
  bottom: "conv5"
  top: "pool5"
  pooling_param {
    pool: MAX
    kernel_size: 3
    stride: 2
  }
}
layer {
  name: "fc6"
  type: "InnerProduct"
  bottom: "pool5"
  top: "fc6"
  param {
    lr_mult: 1
    decay_mult: 1
  }
  param {
    lr_mult: 2
    decay_mult: 0
  }
  inner_product_param {
    num_output: 256
    weight_filler {
      type: "xavier"
    }
    bias_filler {
      type: "constant"
      value: 1
    }
  }
}
layer {
  name: "relu6"
  type: "ReLU"
  bottom: "fc6"
  top: "fc6"
}
layer {
  name: "drop6"
  type: "Dropout"
  bottom: "fc6"
  top: "fc6"
  dropout_param {
    dropout_ratio: 0.5
  }
}
layer {
  name: "fc7"
  type: "InnerProduct"
  bottom: "fc6"
  top: "fc7"
  param {
    lr_mult: 1
    decay_mult: 1
  }
  param {
    lr_mult: 2
    decay_mult: 0
  }
  inner_product_param {
    num_output: 256
    weight_filler {
      type: "xavier"
    }
    bias_filler {
      type: "constant"
      value: 1
    }
  }
}
layer {
  name: "relu7"
  type: "ReLU"
  bottom: "fc7"
  top: "fc7"
}
layer {
  name: "drop7"
  type: "Dropout"
  bottom: "fc7"
  top: "fc7"
  dropout_param {
    dropout_ratio: 0.5
  }
}
layer {
  name: "fc8"
  type: "InnerProduct"
  bottom: "fc7"
  top: "fc8"
  param {
    lr_mult: 1
    decay_mult: 1
  }
  param {
    lr_mult: 2
    decay_mult: 0
  }
  inner_product_param {
    num_output: 2
    weight_filler {
      type: "xavier"
    }
    bias_filler {
      type: "constant"
      value: 0
    }
  }
}
layer {
  name: "accuracy"
  type: "Accuracy"
  bottom: "fc8"
  bottom: "label"
  top: "accuracy"
  include {
    phase: TEST
  }
}
layer {
  name: "loss"
  type: "SoftmaxWithLoss"
  bottom: "fc8"
  bottom: "label"
  top: "loss"
}
I0204 08:47:10.474931 31939 layer_factory.hpp:77] Creating layer data
I0204 08:47:10.479774 31939 net.cpp:106] Creating Layer data
I0204 08:47:10.479820 31939 net.cpp:411] data -> data
I0204 08:47:10.479848 31939 net.cpp:411] data -> label
I0204 08:47:10.479864 31939 data_transformer.cpp:25] Loading mean file from: /home/pearlstl/proj_cv/master/lmdb/synth1_test_lum_db/mean_file.binaryproto
I0204 08:47:10.480474 31957 db_lmdb.cpp:38] Opened lmdb /home/pearlstl/proj_cv/master/lmdb/synth1_test_lum_db
I0204 08:47:10.481341 31939 data_layer.cpp:41] output data size: 100,1,227,227
I0204 08:47:10.534235 31939 net.cpp:150] Setting up data
I0204 08:47:10.534289 31939 net.cpp:157] Top shape: 100 1 227 227 (5152900)
I0204 08:47:10.534304 31939 net.cpp:157] Top shape: 100 (100)
I0204 08:47:10.534314 31939 net.cpp:165] Memory required for data: 20612000
I0204 08:47:10.534328 31939 layer_factory.hpp:77] Creating layer label_data_1_split
I0204 08:47:10.534353 31939 net.cpp:106] Creating Layer label_data_1_split
I0204 08:47:10.534364 31939 net.cpp:454] label_data_1_split <- label
I0204 08:47:10.534382 31939 net.cpp:411] label_data_1_split -> label_data_1_split_0
I0204 08:47:10.534407 31939 net.cpp:411] label_data_1_split -> label_data_1_split_1
I0204 08:47:10.534428 31939 net.cpp:150] Setting up label_data_1_split
I0204 08:47:10.534441 31939 net.cpp:157] Top shape: 100 (100)
I0204 08:47:10.534452 31939 net.cpp:157] Top shape: 100 (100)
I0204 08:47:10.534461 31939 net.cpp:165] Memory required for data: 20612800
I0204 08:47:10.534471 31939 layer_factory.hpp:77] Creating layer conv1
I0204 08:47:10.534493 31939 net.cpp:106] Creating Layer conv1
I0204 08:47:10.534503 31939 net.cpp:454] conv1 <- data
I0204 08:47:10.534519 31939 net.cpp:411] conv1 -> conv1
I0204 08:47:10.534610 31939 net.cpp:150] Setting up conv1
I0204 08:47:10.534626 31939 net.cpp:157] Top shape: 100 16 55 55 (4840000)
I0204 08:47:10.534634 31939 net.cpp:165] Memory required for data: 39972800
I0204 08:47:10.534658 31939 layer_factory.hpp:77] Creating layer relu1
I0204 08:47:10.534673 31939 net.cpp:106] Creating Layer relu1
I0204 08:47:10.534693 31939 net.cpp:454] relu1 <- conv1
I0204 08:47:10.534700 31939 net.cpp:397] relu1 -> conv1 (in-place)
I0204 08:47:10.534709 31939 net.cpp:150] Setting up relu1
I0204 08:47:10.534716 31939 net.cpp:157] Top shape: 100 16 55 55 (4840000)
I0204 08:47:10.534721 31939 net.cpp:165] Memory required for data: 59332800
I0204 08:47:10.534728 31939 layer_factory.hpp:77] Creating layer pool1
I0204 08:47:10.534737 31939 net.cpp:106] Creating Layer pool1
I0204 08:47:10.534744 31939 net.cpp:454] pool1 <- conv1
I0204 08:47:10.534752 31939 net.cpp:411] pool1 -> pool1
I0204 08:47:10.534766 31939 net.cpp:150] Setting up pool1
I0204 08:47:10.534773 31939 net.cpp:157] Top shape: 100 16 27 27 (1166400)
I0204 08:47:10.534778 31939 net.cpp:165] Memory required for data: 63998400
I0204 08:47:10.534783 31939 layer_factory.hpp:77] Creating layer norm1
I0204 08:47:10.534795 31939 net.cpp:106] Creating Layer norm1
I0204 08:47:10.534800 31939 net.cpp:454] norm1 <- pool1
I0204 08:47:10.534807 31939 net.cpp:411] norm1 -> norm1
I0204 08:47:10.534818 31939 net.cpp:150] Setting up norm1
I0204 08:47:10.534826 31939 net.cpp:157] Top shape: 100 16 27 27 (1166400)
I0204 08:47:10.534831 31939 net.cpp:165] Memory required for data: 68664000
I0204 08:47:10.534837 31939 layer_factory.hpp:77] Creating layer conv2
I0204 08:47:10.534847 31939 net.cpp:106] Creating Layer conv2
I0204 08:47:10.534852 31939 net.cpp:454] conv2 <- norm1
I0204 08:47:10.534860 31939 net.cpp:411] conv2 -> conv2
I0204 08:47:10.534909 31939 net.cpp:150] Setting up conv2
I0204 08:47:10.534916 31939 net.cpp:157] Top shape: 100 16 27 27 (1166400)
I0204 08:47:10.534922 31939 net.cpp:165] Memory required for data: 73329600
I0204 08:47:10.534934 31939 layer_factory.hpp:77] Creating layer relu2
I0204 08:47:10.534942 31939 net.cpp:106] Creating Layer relu2
I0204 08:47:10.534948 31939 net.cpp:454] relu2 <- conv2
I0204 08:47:10.534960 31939 net.cpp:397] relu2 -> conv2 (in-place)
I0204 08:47:10.534982 31939 net.cpp:150] Setting up relu2
I0204 08:47:10.535002 31939 net.cpp:157] Top shape: 100 16 27 27 (1166400)
I0204 08:47:10.535008 31939 net.cpp:165] Memory required for data: 77995200
I0204 08:47:10.535013 31939 layer_factory.hpp:77] Creating layer pool2
I0204 08:47:10.535023 31939 net.cpp:106] Creating Layer pool2
I0204 08:47:10.535029 31939 net.cpp:454] pool2 <- conv2
I0204 08:47:10.535038 31939 net.cpp:411] pool2 -> pool2
I0204 08:47:10.535050 31939 net.cpp:150] Setting up pool2
I0204 08:47:10.535059 31939 net.cpp:157] Top shape: 100 16 13 13 (270400)
I0204 08:47:10.535065 31939 net.cpp:165] Memory required for data: 79076800
I0204 08:47:10.535070 31939 layer_factory.hpp:77] Creating layer norm2
I0204 08:47:10.535080 31939 net.cpp:106] Creating Layer norm2
I0204 08:47:10.535086 31939 net.cpp:454] norm2 <- pool2
I0204 08:47:10.535125 31939 net.cpp:411] norm2 -> norm2
I0204 08:47:10.535135 31939 net.cpp:150] Setting up norm2
I0204 08:47:10.535145 31939 net.cpp:157] Top shape: 100 16 13 13 (270400)
I0204 08:47:10.535150 31939 net.cpp:165] Memory required for data: 80158400
I0204 08:47:10.535156 31939 layer_factory.hpp:77] Creating layer conv3
I0204 08:47:10.535166 31939 net.cpp:106] Creating Layer conv3
I0204 08:47:10.535172 31939 net.cpp:454] conv3 <- norm2
I0204 08:47:10.535181 31939 net.cpp:411] conv3 -> conv3
I0204 08:47:10.535221 31939 net.cpp:150] Setting up conv3
I0204 08:47:10.535230 31939 net.cpp:157] Top shape: 100 16 13 13 (270400)
I0204 08:47:10.535239 31939 net.cpp:165] Memory required for data: 81240000
I0204 08:47:10.535264 31939 layer_factory.hpp:77] Creating layer relu3
I0204 08:47:10.535274 31939 net.cpp:106] Creating Layer relu3
I0204 08:47:10.535282 31939 net.cpp:454] relu3 <- conv3
I0204 08:47:10.535291 31939 net.cpp:397] relu3 -> conv3 (in-place)
I0204 08:47:10.535303 31939 net.cpp:150] Setting up relu3
I0204 08:47:10.535312 31939 net.cpp:157] Top shape: 100 16 13 13 (270400)
I0204 08:47:10.535320 31939 net.cpp:165] Memory required for data: 82321600
I0204 08:47:10.535327 31939 layer_factory.hpp:77] Creating layer conv4
I0204 08:47:10.535341 31939 net.cpp:106] Creating Layer conv4
I0204 08:47:10.535348 31939 net.cpp:454] conv4 <- conv3
I0204 08:47:10.535362 31939 net.cpp:411] conv4 -> conv4
I0204 08:47:10.535397 31939 net.cpp:150] Setting up conv4
I0204 08:47:10.535406 31939 net.cpp:157] Top shape: 100 8 13 13 (135200)
I0204 08:47:10.535414 31939 net.cpp:165] Memory required for data: 82862400
I0204 08:47:10.535425 31939 layer_factory.hpp:77] Creating layer relu4
I0204 08:47:10.535435 31939 net.cpp:106] Creating Layer relu4
I0204 08:47:10.535444 31939 net.cpp:454] relu4 <- conv4
I0204 08:47:10.535455 31939 net.cpp:397] relu4 -> conv4 (in-place)
I0204 08:47:10.535465 31939 net.cpp:150] Setting up relu4
I0204 08:47:10.535475 31939 net.cpp:157] Top shape: 100 8 13 13 (135200)
I0204 08:47:10.535480 31939 net.cpp:165] Memory required for data: 83403200
I0204 08:47:10.535487 31939 layer_factory.hpp:77] Creating layer conv5
I0204 08:47:10.535501 31939 net.cpp:106] Creating Layer conv5
I0204 08:47:10.535507 31939 net.cpp:454] conv5 <- conv4
I0204 08:47:10.535517 31939 net.cpp:411] conv5 -> conv5
I0204 08:47:10.535542 31939 net.cpp:150] Setting up conv5
I0204 08:47:10.535552 31939 net.cpp:157] Top shape: 100 8 13 13 (135200)
I0204 08:47:10.535557 31939 net.cpp:165] Memory required for data: 83944000
I0204 08:47:10.535570 31939 layer_factory.hpp:77] Creating layer relu5
I0204 08:47:10.535579 31939 net.cpp:106] Creating Layer relu5
I0204 08:47:10.535586 31939 net.cpp:454] relu5 <- conv5
I0204 08:47:10.535595 31939 net.cpp:397] relu5 -> conv5 (in-place)
I0204 08:47:10.535605 31939 net.cpp:150] Setting up relu5
I0204 08:47:10.535614 31939 net.cpp:157] Top shape: 100 8 13 13 (135200)
I0204 08:47:10.535620 31939 net.cpp:165] Memory required for data: 84484800
I0204 08:47:10.535627 31939 layer_factory.hpp:77] Creating layer pool5
I0204 08:47:10.535640 31939 net.cpp:106] Creating Layer pool5
I0204 08:47:10.535647 31939 net.cpp:454] pool5 <- conv5
I0204 08:47:10.535657 31939 net.cpp:411] pool5 -> pool5
I0204 08:47:10.535676 31939 net.cpp:150] Setting up pool5
I0204 08:47:10.535692 31939 net.cpp:157] Top shape: 100 8 6 6 (28800)
I0204 08:47:10.535699 31939 net.cpp:165] Memory required for data: 84600000
I0204 08:47:10.535706 31939 layer_factory.hpp:77] Creating layer fc6
I0204 08:47:10.535718 31939 net.cpp:106] Creating Layer fc6
I0204 08:47:10.535725 31939 net.cpp:454] fc6 <- pool5
I0204 08:47:10.535737 31939 net.cpp:411] fc6 -> fc6
I0204 08:47:10.544733 31939 net.cpp:150] Setting up fc6
I0204 08:47:10.544775 31939 net.cpp:157] Top shape: 100 256 (25600)
I0204 08:47:10.544781 31939 net.cpp:165] Memory required for data: 84702400
I0204 08:47:10.544797 31939 layer_factory.hpp:77] Creating layer relu6
I0204 08:47:10.544816 31939 net.cpp:106] Creating Layer relu6
I0204 08:47:10.544826 31939 net.cpp:454] relu6 <- fc6
I0204 08:47:10.544837 31939 net.cpp:397] relu6 -> fc6 (in-place)
I0204 08:47:10.544853 31939 net.cpp:150] Setting up relu6
I0204 08:47:10.544862 31939 net.cpp:157] Top shape: 100 256 (25600)
I0204 08:47:10.544870 31939 net.cpp:165] Memory required for data: 84804800
I0204 08:47:10.544878 31939 layer_factory.hpp:77] Creating layer drop6
I0204 08:47:10.544891 31939 net.cpp:106] Creating Layer drop6
I0204 08:47:10.544898 31939 net.cpp:454] drop6 <- fc6
I0204 08:47:10.544910 31939 net.cpp:397] drop6 -> fc6 (in-place)
I0204 08:47:10.544924 31939 net.cpp:150] Setting up drop6
I0204 08:47:10.544934 31939 net.cpp:157] Top shape: 100 256 (25600)
I0204 08:47:10.544941 31939 net.cpp:165] Memory required for data: 84907200
I0204 08:47:10.544950 31939 layer_factory.hpp:77] Creating layer fc7
I0204 08:47:10.544963 31939 net.cpp:106] Creating Layer fc7
I0204 08:47:10.544971 31939 net.cpp:454] fc7 <- fc6
I0204 08:47:10.544983 31939 net.cpp:411] fc7 -> fc7
I0204 08:47:10.548467 31939 net.cpp:150] Setting up fc7
I0204 08:47:10.548517 31939 net.cpp:157] Top shape: 100 256 (25600)
I0204 08:47:10.548523 31939 net.cpp:165] Memory required for data: 85009600
I0204 08:47:10.548538 31939 layer_factory.hpp:77] Creating layer relu7
I0204 08:47:10.548554 31939 net.cpp:106] Creating Layer relu7
I0204 08:47:10.548563 31939 net.cpp:454] relu7 <- fc7
I0204 08:47:10.548663 31939 net.cpp:397] relu7 -> fc7 (in-place)
I0204 08:47:10.548683 31939 net.cpp:150] Setting up relu7
I0204 08:47:10.548691 31939 net.cpp:157] Top shape: 100 256 (25600)
I0204 08:47:10.548697 31939 net.cpp:165] Memory required for data: 85112000
I0204 08:47:10.548703 31939 layer_factory.hpp:77] Creating layer drop7
I0204 08:47:10.548714 31939 net.cpp:106] Creating Layer drop7
I0204 08:47:10.548720 31939 net.cpp:454] drop7 <- fc7
I0204 08:47:10.548728 31939 net.cpp:397] drop7 -> fc7 (in-place)
I0204 08:47:10.548739 31939 net.cpp:150] Setting up drop7
I0204 08:47:10.548746 31939 net.cpp:157] Top shape: 100 256 (25600)
I0204 08:47:10.548753 31939 net.cpp:165] Memory required for data: 85214400
I0204 08:47:10.548758 31939 layer_factory.hpp:77] Creating layer fc8
I0204 08:47:10.548863 31939 net.cpp:106] Creating Layer fc8
I0204 08:47:10.548872 31939 net.cpp:454] fc8 <- fc7
I0204 08:47:10.548965 31939 net.cpp:411] fc8 -> fc8
I0204 08:47:10.549089 31939 net.cpp:150] Setting up fc8
I0204 08:47:10.549193 31939 net.cpp:157] Top shape: 100 2 (200)
I0204 08:47:10.549201 31939 net.cpp:165] Memory required for data: 85215200
I0204 08:47:10.549211 31939 layer_factory.hpp:77] Creating layer fc8_fc8_0_split
I0204 08:47:10.549221 31939 net.cpp:106] Creating Layer fc8_fc8_0_split
I0204 08:47:10.549226 31939 net.cpp:454] fc8_fc8_0_split <- fc8
I0204 08:47:10.549234 31939 net.cpp:411] fc8_fc8_0_split -> fc8_fc8_0_split_0
I0204 08:47:10.549243 31939 net.cpp:411] fc8_fc8_0_split -> fc8_fc8_0_split_1
I0204 08:47:10.549253 31939 net.cpp:150] Setting up fc8_fc8_0_split
I0204 08:47:10.549262 31939 net.cpp:157] Top shape: 100 2 (200)
I0204 08:47:10.549268 31939 net.cpp:157] Top shape: 100 2 (200)
I0204 08:47:10.549273 31939 net.cpp:165] Memory required for data: 85216800
I0204 08:47:10.549278 31939 layer_factory.hpp:77] Creating layer accuracy
I0204 08:47:10.549489 31939 net.cpp:106] Creating Layer accuracy
I0204 08:47:10.549507 31939 net.cpp:454] accuracy <- fc8_fc8_0_split_0
I0204 08:47:10.549523 31939 net.cpp:454] accuracy <- label_data_1_split_0
I0204 08:47:10.549617 31939 net.cpp:411] accuracy -> accuracy
…
