…
I0204 08:47:10.630982 31982 net.cpp:322] The NetState phase (0) differed from the phase (1) specified by a rule in layer accuracy
I0204 08:47:10.631228 31982 net.cpp:49] Initializing net from parameters: 
name: "CaffeNet"
state {
  phase: TRAIN
}
layer {
  name: "data"
  type: "Data"
  top: "data"
  top: "label"
  include {
    phase: TRAIN
  }
  transform_param {
    mirror: true
    crop_size: 227
    mean_file: "/home/pearlstl/proj_cv/master/lmdb/synth1_train_lum_db/mean_file.binaryproto"
  }
  data_param {
    source: "/home/pearlstl/proj_cv/master/lmdb/synth1_train_lum_db"
    batch_size: 100
    backend: LMDB
  }
}
layer {
  name: "conv1"
  type: "Convolution"
  bottom: "data"
  top: "conv1"
  param {
    lr_mult: 1
    decay_mult: 1
  }
  param {
    lr_mult: 2
    decay_mult: 0
  }
  convolution_param {
    num_output: 8
    kernel_size: 11
    stride: 4
    weight_filler {
      type: "xavier"
    }
    bias_filler {
      type: "constant"
      value: 0
    }
  }
}
layer {
  name: "relu1"
  type: "ReLU"
  bottom: "conv1"
  top: "conv1"
}
layer {
  name: "pool1"
  type: "Pooling"
  bottom: "conv1"
  top: "pool1"
  pooling_param {
    pool: MAX
    kernel_size: 3
    stride: 2
  }
}
layer {
  name: "norm1"
  type: "LRN"
  bottom: "pool1"
  top: "norm1"
  lrn_param {
    local_size: 5
    alpha: 0.0001
    beta: 0.75
  }
}
layer {
  name: "conv2"
  type: "Convolution"
  bottom: "norm1"
  top: "conv2"
  param {
    lr_mult: 1
    decay_mult: 1
  }
  param {
    lr_mult: 2
    decay_mult: 0
  }
  convolution_param {
    num_output: 8
    pad: 2
    kernel_size: 5
    group: 2
    weight_filler {
      type: "xavier"
    }
    bias_filler {
      type: "constant"
      value: 1
    }
  }
}
layer {
  name: "relu2"
  type: "ReLU"
  bottom: "conv2"
  top: "conv2"
}
layer {
  name: "pool2"
  type: "Pooling"
  bottom: "conv2"
  top: "pool2"
  pooling_param {
    pool: MAX
    kernel_size: 3
    stride: 2
  }
}
layer {
  name: "norm2"
  type: "LRN"
  bottom: "pool2"
  top: "norm2"
  lrn_param {
    local_size: 5
    alpha: 0.0001
    beta: 0.75
  }
}
layer {
  name: "conv3"
  type: "Convolution"
  bottom: "norm2"
  top: "conv3"
  param {
    lr_mult: 1
    decay_mult: 1
  }
  param {
    lr_mult: 2
    decay_mult: 0
  }
  convolution_param {
    num_output: 8
    pad: 1
    kernel_size: 3
    weight_filler {
      type: "xavier"
    }
    bias_filler {
      type: "constant"
      value: 0
    }
  }
}
layer {
  name: "relu3"
  type: "ReLU"
  bottom: "conv3"
  top: "conv3"
}
layer {
  name: "conv4"
  type: "Convolution"
  bottom: "conv3"
  top: "conv4"
  param {
    lr_mult: 1
    decay_mult: 1
  }
  param {
    lr_mult: 2
    decay_mult: 0
  }
  convolution_param {
    num_output: 8
    pad: 1
    kernel_size: 3
    group: 2
    weight_filler {
      type: "xavier"
    }
    bias_filler {
      type: "constant"
      value: 1
    }
  }
}
layer {
  name: "relu4"
  type: "ReLU"
  bottom: "conv4"
  top: "conv4"
}
layer {
  name: "conv5"
  type: "Convolution"
  bottom: "conv4"
  top: "conv5"
  param {
    lr_mult: 1
    decay_mult: 1
  }
  param {
    lr_mult: 2
    decay_mult: 0
  }
  convolution_param {
    num_output: 8
    pad: 1
    kernel_size: 3
    group: 2
    weight_filler {
      type: "xavier"
    }
    bias_filler {
      type: "constant"
      value: 1
    }
  }
}
layer {
  name: "relu5"
  type: "ReLU"
  bottom: "conv5"
  top: "conv5"
}
layer {
  name: "pool5"
  type: "Pooling"
  bottom: "conv5"
  top: "pool5"
  pooling_param {
    pool: MAX
    kernel_size: 3
    stride: 2
  }
}
layer {
  name: "fc6"
  type: "InnerProduct"
  bottom: "pool5"
  top: "fc6"
  param {
    lr_mult: 1
    decay_mult: 1
  }
  param {
    lr_mult: 2
    decay_mult: 0
  }
  inner_product_param {
    num_output: 256
    weight_filler {
      type: "xavier"
    }
    bias_filler {
      type: "constant"
      value: 1
    }
  }
}
layer {
  name: "relu6"
  type: "ReLU"
  bottom: "fc6"
  top: "fc6"
}
layer {
  name: "drop6"
  type: "Dropout"
  bottom: "fc6"
  top: "fc6"
  dropout_param {
    dropout_ratio: 0.5
  }
}
layer {
  name: "fc7"
  type: "InnerProduct"
  bottom: "fc6"
  top: "fc7"
  param {
    lr_mult: 1
    decay_mult: 1
  }
  param {
    lr_mult: 2
    decay_mult: 0
  }
  inner_product_param {
    num_output: 256
    weight_filler {
      type: "xavier"
    }
    bias_filler {
      type: "constant"
      value: 1
    }
  }
}
layer {
  name: "relu7"
  type: "ReLU"
  bottom: "fc7"
  top: "fc7"
}
layer {
  name: "drop7"
  type: "Dropout"
  bottom: "fc7"
  top: "fc7"
  dropout_param {
    dropout_ratio: 0.5
  }
}
layer {
  name: "fc8"
  type: "InnerProduct"
  bottom: "fc7"
  top: "fc8"
  param {
    lr_mult: 1
    decay_mult: 1
  }
  param {
    lr_mult: 2
    decay_mult: 0
  }
  inner_product_param {
    num_output: 2
    weight_filler {
      type: "xavier"
    }
    bias_filler {
      type: "constant"
      value: 0
    }
  }
}
layer {
  name: "loss"
  type: "SoftmaxWithLoss"
  bottom: "fc8"
  bottom: "label"
  top: "loss"
}
I0204 08:47:10.631355 31982 layer_factory.hpp:77] Creating layer data
I0204 08:47:10.631539 31982 net.cpp:106] Creating Layer data
I0204 08:47:10.631556 31982 net.cpp:411] data -> data
I0204 08:47:10.631625 31982 net.cpp:411] data -> label
I0204 08:47:10.631646 31982 data_transformer.cpp:25] Loading mean file from: /home/pearlstl/proj_cv/master/lmdb/synth1_train_lum_db/mean_file.binaryproto
I0204 08:47:10.631691 31984 db_lmdb.cpp:38] Opened lmdb /home/pearlstl/proj_cv/master/lmdb/synth1_train_lum_db
I0204 08:47:10.632545 31982 data_layer.cpp:41] output data size: 100,1,227,227
I0204 08:47:10.656726 31982 net.cpp:150] Setting up data
I0204 08:47:10.656774 31982 net.cpp:157] Top shape: 100 1 227 227 (5152900)
I0204 08:47:10.656782 31982 net.cpp:157] Top shape: 100 (100)
I0204 08:47:10.656788 31982 net.cpp:165] Memory required for data: 20612000
I0204 08:47:10.656807 31982 layer_factory.hpp:77] Creating layer conv1
I0204 08:47:10.656832 31982 net.cpp:106] Creating Layer conv1
I0204 08:47:10.656841 31982 net.cpp:454] conv1 <- data
I0204 08:47:10.656862 31982 net.cpp:411] conv1 -> conv1
I0204 08:47:10.656962 31982 net.cpp:150] Setting up conv1
I0204 08:47:10.656973 31982 net.cpp:157] Top shape: 100 8 55 55 (2420000)
I0204 08:47:10.656980 31982 net.cpp:165] Memory required for data: 30292000
I0204 08:47:10.656996 31982 layer_factory.hpp:77] Creating layer relu1
I0204 08:47:10.657007 31982 net.cpp:106] Creating Layer relu1
I0204 08:47:10.657013 31982 net.cpp:454] relu1 <- conv1
I0204 08:47:10.657021 31982 net.cpp:397] relu1 -> conv1 (in-place)
I0204 08:47:10.657034 31982 net.cpp:150] Setting up relu1
I0204 08:47:10.657042 31982 net.cpp:157] Top shape: 100 8 55 55 (2420000)
I0204 08:47:10.657047 31982 net.cpp:165] Memory required for data: 39972000
I0204 08:47:10.657053 31982 layer_factory.hpp:77] Creating layer pool1
I0204 08:47:10.657063 31982 net.cpp:106] Creating Layer pool1
I0204 08:47:10.657075 31982 net.cpp:454] pool1 <- conv1
I0204 08:47:10.657083 31982 net.cpp:411] pool1 -> pool1
I0204 08:47:10.657107 31982 net.cpp:150] Setting up pool1
I0204 08:47:10.657119 31982 net.cpp:157] Top shape: 100 8 27 27 (583200)
I0204 08:47:10.657124 31982 net.cpp:165] Memory required for data: 42304800
I0204 08:47:10.657130 31982 layer_factory.hpp:77] Creating layer norm1
I0204 08:47:10.657155 31982 net.cpp:106] Creating Layer norm1
I0204 08:47:10.657168 31982 net.cpp:454] norm1 <- pool1
I0204 08:47:10.657177 31982 net.cpp:411] norm1 -> norm1
I0204 08:47:10.657193 31982 net.cpp:150] Setting up norm1
I0204 08:47:10.657202 31982 net.cpp:157] Top shape: 100 8 27 27 (583200)
I0204 08:47:10.657207 31982 net.cpp:165] Memory required for data: 44637600
I0204 08:47:10.657212 31982 layer_factory.hpp:77] Creating layer conv2
I0204 08:47:10.657222 31982 net.cpp:106] Creating Layer conv2
I0204 08:47:10.657228 31982 net.cpp:454] conv2 <- norm1
I0204 08:47:10.657237 31982 net.cpp:411] conv2 -> conv2
I0204 08:47:10.657265 31982 net.cpp:150] Setting up conv2
I0204 08:47:10.657272 31982 net.cpp:157] Top shape: 100 8 27 27 (583200)
I0204 08:47:10.657277 31982 net.cpp:165] Memory required for data: 46970400
I0204 08:47:10.657287 31982 layer_factory.hpp:77] Creating layer relu2
I0204 08:47:10.657296 31982 net.cpp:106] Creating Layer relu2
I0204 08:47:10.657301 31982 net.cpp:454] relu2 <- conv2
I0204 08:47:10.657310 31982 net.cpp:397] relu2 -> conv2 (in-place)
I0204 08:47:10.657317 31982 net.cpp:150] Setting up relu2
I0204 08:47:10.657325 31982 net.cpp:157] Top shape: 100 8 27 27 (583200)
I0204 08:47:10.657330 31982 net.cpp:165] Memory required for data: 49303200
I0204 08:47:10.657335 31982 layer_factory.hpp:77] Creating layer pool2
I0204 08:47:10.657342 31982 net.cpp:106] Creating Layer pool2
I0204 08:47:10.657351 31982 net.cpp:454] pool2 <- conv2
I0204 08:47:10.657358 31982 net.cpp:411] pool2 -> pool2
I0204 08:47:10.657368 31982 net.cpp:150] Setting up pool2
I0204 08:47:10.657376 31982 net.cpp:157] Top shape: 100 8 13 13 (135200)
I0204 08:47:10.657380 31982 net.cpp:165] Memory required for data: 49844000
I0204 08:47:10.657385 31982 layer_factory.hpp:77] Creating layer norm2
I0204 08:47:10.657394 31982 net.cpp:106] Creating Layer norm2
I0204 08:47:10.657400 31982 net.cpp:454] norm2 <- pool2
I0204 08:47:10.657408 31982 net.cpp:411] norm2 -> norm2
I0204 08:47:10.657418 31982 net.cpp:150] Setting up norm2
I0204 08:47:10.657424 31982 net.cpp:157] Top shape: 100 8 13 13 (135200)
I0204 08:47:10.657429 31982 net.cpp:165] Memory required for data: 50384800
I0204 08:47:10.657434 31982 layer_factory.hpp:77] Creating layer conv3
I0204 08:47:10.657444 31982 net.cpp:106] Creating Layer conv3
I0204 08:47:10.657450 31982 net.cpp:454] conv3 <- norm2
I0204 08:47:10.657459 31982 net.cpp:411] conv3 -> conv3
I0204 08:47:10.657486 31982 net.cpp:150] Setting up conv3
I0204 08:47:10.657495 31982 net.cpp:157] Top shape: 100 8 13 13 (135200)
I0204 08:47:10.657500 31982 net.cpp:165] Memory required for data: 50925600
I0204 08:47:10.657510 31982 layer_factory.hpp:77] Creating layer relu3
I0204 08:47:10.657517 31982 net.cpp:106] Creating Layer relu3
I0204 08:47:10.657523 31982 net.cpp:454] relu3 <- conv3
I0204 08:47:10.657531 31982 net.cpp:397] relu3 -> conv3 (in-place)
I0204 08:47:10.657539 31982 net.cpp:150] Setting up relu3
I0204 08:47:10.657546 31982 net.cpp:157] Top shape: 100 8 13 13 (135200)
I0204 08:47:10.657551 31982 net.cpp:165] Memory required for data: 51466400
I0204 08:47:10.657555 31982 layer_factory.hpp:77] Creating layer conv4
I0204 08:47:10.657568 31982 net.cpp:106] Creating Layer conv4
I0204 08:47:10.657573 31982 net.cpp:454] conv4 <- conv3
I0204 08:47:10.657582 31982 net.cpp:411] conv4 -> conv4
I0204 08:47:10.657601 31982 net.cpp:150] Setting up conv4
I0204 08:47:10.657608 31982 net.cpp:157] Top shape: 100 8 13 13 (135200)
I0204 08:47:10.657614 31982 net.cpp:165] Memory required for data: 52007200
I0204 08:47:10.657621 31982 layer_factory.hpp:77] Creating layer relu4
I0204 08:47:10.657629 31982 net.cpp:106] Creating Layer relu4
I0204 08:47:10.657634 31982 net.cpp:454] relu4 <- conv4
I0204 08:47:10.657640 31982 net.cpp:397] relu4 -> conv4 (in-place)
I0204 08:47:10.657649 31982 net.cpp:150] Setting up relu4
I0204 08:47:10.657655 31982 net.cpp:157] Top shape: 100 8 13 13 (135200)
I0204 08:47:10.657661 31982 net.cpp:165] Memory required for data: 52548000
I0204 08:47:10.657667 31982 layer_factory.hpp:77] Creating layer conv5
I0204 08:47:10.657680 31982 net.cpp:106] Creating Layer conv5
I0204 08:47:10.657692 31982 net.cpp:454] conv5 <- conv4
I0204 08:47:10.657701 31982 net.cpp:411] conv5 -> conv5
I0204 08:47:10.657719 31982 net.cpp:150] Setting up conv5
I0204 08:47:10.657727 31982 net.cpp:157] Top shape: 100 8 13 13 (135200)
I0204 08:47:10.657732 31982 net.cpp:165] Memory required for data: 53088800
I0204 08:47:10.657742 31982 layer_factory.hpp:77] Creating layer relu5
I0204 08:47:10.657750 31982 net.cpp:106] Creating Layer relu5
I0204 08:47:10.657757 31982 net.cpp:454] relu5 <- conv5
I0204 08:47:10.657763 31982 net.cpp:397] relu5 -> conv5 (in-place)
I0204 08:47:10.657770 31982 net.cpp:150] Setting up relu5
I0204 08:47:10.657776 31982 net.cpp:157] Top shape: 100 8 13 13 (135200)
I0204 08:47:10.657781 31982 net.cpp:165] Memory required for data: 53629600
I0204 08:47:10.657788 31982 layer_factory.hpp:77] Creating layer pool5
I0204 08:47:10.657794 31982 net.cpp:106] Creating Layer pool5
I0204 08:47:10.657799 31982 net.cpp:454] pool5 <- conv5
I0204 08:47:10.657807 31982 net.cpp:411] pool5 -> pool5
I0204 08:47:10.657816 31982 net.cpp:150] Setting up pool5
I0204 08:47:10.657824 31982 net.cpp:157] Top shape: 100 8 6 6 (28800)
I0204 08:47:10.657829 31982 net.cpp:165] Memory required for data: 53744800
I0204 08:47:10.657834 31982 layer_factory.hpp:77] Creating layer fc6
I0204 08:47:10.657848 31982 net.cpp:106] Creating Layer fc6
I0204 08:47:10.657853 31982 net.cpp:454] fc6 <- pool5
I0204 08:47:10.657863 31982 net.cpp:411] fc6 -> fc6
I0204 08:47:10.658634 31982 net.cpp:150] Setting up fc6
I0204 08:47:10.658646 31982 net.cpp:157] Top shape: 100 256 (25600)
I0204 08:47:10.658651 31982 net.cpp:165] Memory required for data: 53847200
I0204 08:47:10.658660 31982 layer_factory.hpp:77] Creating layer relu6
I0204 08:47:10.658668 31982 net.cpp:106] Creating Layer relu6
I0204 08:47:10.658674 31982 net.cpp:454] relu6 <- fc6
I0204 08:47:10.658684 31982 net.cpp:397] relu6 -> fc6 (in-place)
I0204 08:47:10.658691 31982 net.cpp:150] Setting up relu6
I0204 08:47:10.658699 31982 net.cpp:157] Top shape: 100 256 (25600)
I0204 08:47:10.658704 31982 net.cpp:165] Memory required for data: 53949600
I0204 08:47:10.658710 31982 layer_factory.hpp:77] Creating layer drop6
I0204 08:47:10.658720 31982 net.cpp:106] Creating Layer drop6
I0204 08:47:10.658725 31982 net.cpp:454] drop6 <- fc6
I0204 08:47:10.658735 31982 net.cpp:397] drop6 -> fc6 (in-place)
I0204 08:47:10.658751 31982 net.cpp:150] Setting up drop6
I0204 08:47:10.658758 31982 net.cpp:157] Top shape: 100 256 (25600)
I0204 08:47:10.658763 31982 net.cpp:165] Memory required for data: 54052000
I0204 08:47:10.658769 31982 layer_factory.hpp:77] Creating layer fc7
I0204 08:47:10.658778 31982 net.cpp:106] Creating Layer fc7
I0204 08:47:10.658784 31982 net.cpp:454] fc7 <- fc6
I0204 08:47:10.658792 31982 net.cpp:411] fc7 -> fc7
I0204 08:47:10.659449 31982 net.cpp:150] Setting up fc7
I0204 08:47:10.659461 31982 net.cpp:157] Top shape: 100 256 (25600)
I0204 08:47:10.659466 31982 net.cpp:165] Memory required for data: 54154400
I0204 08:47:10.659473 31982 layer_factory.hpp:77] Creating layer relu7
I0204 08:47:10.659482 31982 net.cpp:106] Creating Layer relu7
I0204 08:47:10.659487 31982 net.cpp:454] relu7 <- fc7
I0204 08:47:10.659493 31982 net.cpp:397] relu7 -> fc7 (in-place)
I0204 08:47:10.659502 31982 net.cpp:150] Setting up relu7
I0204 08:47:10.659508 31982 net.cpp:157] Top shape: 100 256 (25600)
I0204 08:47:10.659513 31982 net.cpp:165] Memory required for data: 54256800
I0204 08:47:10.659518 31982 layer_factory.hpp:77] Creating layer drop7
I0204 08:47:10.659569 31982 net.cpp:106] Creating Layer drop7
I0204 08:47:10.659576 31982 net.cpp:454] drop7 <- fc7
I0204 08:47:10.659584 31982 net.cpp:397] drop7 -> fc7 (in-place)
I0204 08:47:10.659595 31982 net.cpp:150] Setting up drop7
I0204 08:47:10.659600 31982 net.cpp:157] Top shape: 100 256 (25600)
I0204 08:47:10.659605 31982 net.cpp:165] Memory required for data: 54359200
I0204 08:47:10.659611 31982 layer_factory.hpp:77] Creating layer fc8
I0204 08:47:10.659627 31982 net.cpp:106] Creating Layer fc8
I0204 08:47:10.659636 31982 net.cpp:454] fc8 <- fc7
I0204 08:47:10.659651 31982 net.cpp:411] fc8 -> fc8
I0204 08:47:10.659673 31982 net.cpp:150] Setting up fc8
I0204 08:47:10.659682 31982 net.cpp:157] Top shape: 100 2 (200)
I0204 08:47:10.659688 31982 net.cpp:165] Memory required for data: 54360000
I0204 08:47:10.659695 31982 layer_factory.hpp:77] Creating layer loss
I0204 08:47:10.659703 31982 net.cpp:106] Creating Layer loss
I0204 08:47:10.659709 31982 net.cpp:454] loss <- fc8
I0204 08:47:10.659715 31982 net.cpp:454] loss <- label
I0204 08:47:10.659725 31982 net.cpp:411] loss -> loss
I0204 08:47:10.659739 31982 layer_factory.hpp:77] Creating layer loss
…
I0204 08:47:10.660786 31982 net.cpp:322] The NetState phase (1) differed from the phase (0) specified by a rule in layer data
I0204 08:47:10.661080 31982 net.cpp:49] Initializing net from parameters: 
name: "CaffeNet"
state {
  phase: TEST
}
layer {
  name: "data"
  type: "Data"
  top: "data"
  top: "label"
  include {
    phase: TEST
  }
  transform_param {
    mirror: false
    crop_size: 227
    mean_file: "/home/pearlstl/proj_cv/master/lmdb/synth1_test_lum_db/mean_file.binaryproto"
  }
  data_param {
    source: "/home/pearlstl/proj_cv/master/lmdb/synth1_test_lum_db"
    batch_size: 100
    backend: LMDB
  }
}
layer {
  name: "conv1"
  type: "Convolution"
  bottom: "data"
  top: "conv1"
  param {
    lr_mult: 1
    decay_mult: 1
  }
  param {
    lr_mult: 2
    decay_mult: 0
  }
  convolution_param {
    num_output: 8
    kernel_size: 11
    stride: 4
    weight_filler {
      type: "xavier"
    }
    bias_filler {
      type: "constant"
      value: 0
    }
  }
}
layer {
  name: "relu1"
  type: "ReLU"
  bottom: "conv1"
  top: "conv1"
}
layer {
  name: "pool1"
  type: "Pooling"
  bottom: "conv1"
  top: "pool1"
  pooling_param {
    pool: MAX
    kernel_size: 3
    stride: 2
  }
}
layer {
  name: "norm1"
  type: "LRN"
  bottom: "pool1"
  top: "norm1"
  lrn_param {
    local_size: 5
    alpha: 0.0001
    beta: 0.75
  }
}
layer {
  name: "conv2"
  type: "Convolution"
  bottom: "norm1"
  top: "conv2"
  param {
    lr_mult: 1
    decay_mult: 1
  }
  param {
    lr_mult: 2
    decay_mult: 0
  }
  convolution_param {
    num_output: 8
    pad: 2
    kernel_size: 5
    group: 2
    weight_filler {
      type: "xavier"
    }
    bias_filler {
      type: "constant"
      value: 1
    }
  }
}
layer {
  name: "relu2"
  type: "ReLU"
  bottom: "conv2"
  top: "conv2"
}
layer {
  name: "pool2"
  type: "Pooling"
  bottom: "conv2"
  top: "pool2"
  pooling_param {
    pool: MAX
    kernel_size: 3
    stride: 2
  }
}
layer {
  name: "norm2"
  type: "LRN"
  bottom: "pool2"
  top: "norm2"
  lrn_param {
    local_size: 5
    alpha: 0.0001
    beta: 0.75
  }
}
layer {
  name: "conv3"
  type: "Convolution"
  bottom: "norm2"
  top: "conv3"
  param {
    lr_mult: 1
    decay_mult: 1
  }
  param {
    lr_mult: 2
    decay_mult: 0
  }
  convolution_param {
    num_output: 8
    pad: 1
    kernel_size: 3
    weight_filler {
      type: "xavier"
    }
    bias_filler {
      type: "constant"
      value: 0
    }
  }
}
layer {
  name: "relu3"
  type: "ReLU"
  bottom: "conv3"
  top: "conv3"
}
layer {
  name: "conv4"
  type: "Convolution"
  bottom: "conv3"
  top: "conv4"
  param {
    lr_mult: 1
    decay_mult: 1
  }
  param {
    lr_mult: 2
    decay_mult: 0
  }
  convolution_param {
    num_output: 8
    pad: 1
    kernel_size: 3
    group: 2
    weight_filler {
      type: "xavier"
    }
    bias_filler {
      type: "constant"
      value: 1
    }
  }
}
layer {
  name: "relu4"
  type: "ReLU"
  bottom: "conv4"
  top: "conv4"
}
layer {
  name: "conv5"
  type: "Convolution"
  bottom: "conv4"
  top: "conv5"
  param {
    lr_mult: 1
    decay_mult: 1
  }
  param {
    lr_mult: 2
    decay_mult: 0
  }
  convolution_param {
    num_output: 8
    pad: 1
    kernel_size: 3
    group: 2
    weight_filler {
      type: "xavier"
    }
    bias_filler {
      type: "constant"
      value: 1
    }
  }
}
layer {
  name: "relu5"
  type: "ReLU"
  bottom: "conv5"
  top: "conv5"
}
layer {
  name: "pool5"
  type: "Pooling"
  bottom: "conv5"
  top: "pool5"
  pooling_param {
    pool: MAX
    kernel_size: 3
    stride: 2
  }
}
layer {
  name: "fc6"
  type: "InnerProduct"
  bottom: "pool5"
  top: "fc6"
  param {
    lr_mult: 1
    decay_mult: 1
  }
  param {
    lr_mult: 2
    decay_mult: 0
  }
  inner_product_param {
    num_output: 256
    weight_filler {
      type: "xavier"
    }
    bias_filler {
      type: "constant"
      value: 1
    }
  }
}
layer {
  name: "relu6"
  type: "ReLU"
  bottom: "fc6"
  top: "fc6"
}
layer {
  name: "drop6"
  type: "Dropout"
  bottom: "fc6"
  top: "fc6"
  dropout_param {
    dropout_ratio: 0.5
  }
}
layer {
  name: "fc7"
  type: "InnerProduct"
  bottom: "fc6"
  top: "fc7"
  param {
    lr_mult: 1
    decay_mult: 1
  }
  param {
    lr_mult: 2
    decay_mult: 0
  }
  inner_product_param {
    num_output: 256
    weight_filler {
      type: "xavier"
    }
    bias_filler {
      type: "constant"
      value: 1
    }
  }
}
layer {
  name: "relu7"
  type: "ReLU"
  bottom: "fc7"
  top: "fc7"
}
layer {
  name: "drop7"
  type: "Dropout"
  bottom: "fc7"
  top: "fc7"
  dropout_param {
    dropout_ratio: 0.5
  }
}
layer {
  name: "fc8"
  type: "InnerProduct"
  bottom: "fc7"
  top: "fc8"
  param {
    lr_mult: 1
    decay_mult: 1
  }
  param {
    lr_mult: 2
    decay_mult: 0
  }
  inner_product_param {
    num_output: 2
    weight_filler {
      type: "xavier"
    }
    bias_filler {
      type: "constant"
      value: 0
    }
  }
}
layer {
  name: "accuracy"
  type: "Accuracy"
  bottom: "fc8"
  bottom: "label"
  top: "accuracy"
  include {
    phase: TEST
  }
}
layer {
  name: "loss"
  type: "SoftmaxWithLoss"
  bottom: "fc8"
  bottom: "label"
  top: "loss"
}
I0204 08:47:10.661244 31982 layer_factory.hpp:77] Creating layer data
I0204 08:47:10.661396 31982 net.cpp:106] Creating Layer data
I0204 08:47:10.661407 31982 net.cpp:411] data -> data
I0204 08:47:10.661424 31982 net.cpp:411] data -> label
I0204 08:47:10.661437 31982 data_transformer.cpp:25] Loading mean file from: /home/pearlstl/proj_cv/master/lmdb/synth1_test_lum_db/mean_file.binaryproto
I0204 08:47:10.675277 31987 db_lmdb.cpp:38] Opened lmdb /home/pearlstl/proj_cv/master/lmdb/synth1_test_lum_db
I0204 08:47:10.675460 31982 data_layer.cpp:41] output data size: 100,1,227,227
I0204 08:47:10.733000 31982 net.cpp:150] Setting up data
I0204 08:47:10.733036 31982 net.cpp:157] Top shape: 100 1 227 227 (5152900)
I0204 08:47:10.733044 31982 net.cpp:157] Top shape: 100 (100)
I0204 08:47:10.733050 31982 net.cpp:165] Memory required for data: 20612000
I0204 08:47:10.733060 31982 layer_factory.hpp:77] Creating layer label_data_1_split
I0204 08:47:10.733083 31982 net.cpp:106] Creating Layer label_data_1_split
I0204 08:47:10.733091 31982 net.cpp:454] label_data_1_split <- label
I0204 08:47:10.733103 31982 net.cpp:411] label_data_1_split -> label_data_1_split_0
I0204 08:47:10.733117 31982 net.cpp:411] label_data_1_split -> label_data_1_split_1
I0204 08:47:10.733129 31982 net.cpp:150] Setting up label_data_1_split
I0204 08:47:10.733137 31982 net.cpp:157] Top shape: 100 (100)
I0204 08:47:10.733144 31982 net.cpp:157] Top shape: 100 (100)
I0204 08:47:10.733150 31982 net.cpp:165] Memory required for data: 20612800
I0204 08:47:10.733155 31982 layer_factory.hpp:77] Creating layer conv1
I0204 08:47:10.733170 31982 net.cpp:106] Creating Layer conv1
I0204 08:47:10.733175 31982 net.cpp:454] conv1 <- data
I0204 08:47:10.733185 31982 net.cpp:411] conv1 -> conv1
I0204 08:47:10.733230 31982 net.cpp:150] Setting up conv1
I0204 08:47:10.733239 31982 net.cpp:157] Top shape: 100 8 55 55 (2420000)
I0204 08:47:10.733245 31982 net.cpp:165] Memory required for data: 30292800
I0204 08:47:10.733258 31982 layer_factory.hpp:77] Creating layer relu1
I0204 08:47:10.733268 31982 net.cpp:106] Creating Layer relu1
I0204 08:47:10.733273 31982 net.cpp:454] relu1 <- conv1
I0204 08:47:10.733281 31982 net.cpp:397] relu1 -> conv1 (in-place)
I0204 08:47:10.733290 31982 net.cpp:150] Setting up relu1
I0204 08:47:10.733297 31982 net.cpp:157] Top shape: 100 8 55 55 (2420000)
I0204 08:47:10.733304 31982 net.cpp:165] Memory required for data: 39972800
I0204 08:47:10.733309 31982 layer_factory.hpp:77] Creating layer pool1
I0204 08:47:10.733319 31982 net.cpp:106] Creating Layer pool1
I0204 08:47:10.733325 31982 net.cpp:454] pool1 <- conv1
I0204 08:47:10.733332 31982 net.cpp:411] pool1 -> pool1
I0204 08:47:10.733345 31982 net.cpp:150] Setting up pool1
I0204 08:47:10.733352 31982 net.cpp:157] Top shape: 100 8 27 27 (583200)
I0204 08:47:10.733358 31982 net.cpp:165] Memory required for data: 42305600
I0204 08:47:10.733363 31982 layer_factory.hpp:77] Creating layer norm1
I0204 08:47:10.733373 31982 net.cpp:106] Creating Layer norm1
I0204 08:47:10.733378 31982 net.cpp:454] norm1 <- pool1
I0204 08:47:10.733386 31982 net.cpp:411] norm1 -> norm1
I0204 08:47:10.733397 31982 net.cpp:150] Setting up norm1
I0204 08:47:10.733403 31982 net.cpp:157] Top shape: 100 8 27 27 (583200)
I0204 08:47:10.733408 31982 net.cpp:165] Memory required for data: 44638400
I0204 08:47:10.733414 31982 layer_factory.hpp:77] Creating layer conv2
I0204 08:47:10.733424 31982 net.cpp:106] Creating Layer conv2
I0204 08:47:10.733430 31982 net.cpp:454] conv2 <- norm1
I0204 08:47:10.733438 31982 net.cpp:411] conv2 -> conv2
I0204 08:47:10.733465 31982 net.cpp:150] Setting up conv2
I0204 08:47:10.733472 31982 net.cpp:157] Top shape: 100 8 27 27 (583200)
I0204 08:47:10.733477 31982 net.cpp:165] Memory required for data: 46971200
I0204 08:47:10.733487 31982 layer_factory.hpp:77] Creating layer relu2
I0204 08:47:10.733495 31982 net.cpp:106] Creating Layer relu2
I0204 08:47:10.733501 31982 net.cpp:454] relu2 <- conv2
I0204 08:47:10.733508 31982 net.cpp:397] relu2 -> conv2 (in-place)
I0204 08:47:10.733517 31982 net.cpp:150] Setting up relu2
I0204 08:47:10.733532 31982 net.cpp:157] Top shape: 100 8 27 27 (583200)
I0204 08:47:10.733546 31982 net.cpp:165] Memory required for data: 49304000
I0204 08:47:10.733551 31982 layer_factory.hpp:77] Creating layer pool2
I0204 08:47:10.733561 31982 net.cpp:106] Creating Layer pool2
I0204 08:47:10.733566 31982 net.cpp:454] pool2 <- conv2
I0204 08:47:10.733574 31982 net.cpp:411] pool2 -> pool2
I0204 08:47:10.733585 31982 net.cpp:150] Setting up pool2
I0204 08:47:10.733592 31982 net.cpp:157] Top shape: 100 8 13 13 (135200)
I0204 08:47:10.733597 31982 net.cpp:165] Memory required for data: 49844800
I0204 08:47:10.733603 31982 layer_factory.hpp:77] Creating layer norm2
I0204 08:47:10.733610 31982 net.cpp:106] Creating Layer norm2
I0204 08:47:10.733616 31982 net.cpp:454] norm2 <- pool2
I0204 08:47:10.733623 31982 net.cpp:411] norm2 -> norm2
I0204 08:47:10.733633 31982 net.cpp:150] Setting up norm2
I0204 08:47:10.733639 31982 net.cpp:157] Top shape: 100 8 13 13 (135200)
I0204 08:47:10.733644 31982 net.cpp:165] Memory required for data: 50385600
I0204 08:47:10.733649 31982 layer_factory.hpp:77] Creating layer conv3
I0204 08:47:10.733659 31982 net.cpp:106] Creating Layer conv3
I0204 08:47:10.733664 31982 net.cpp:454] conv3 <- norm2
I0204 08:47:10.733672 31982 net.cpp:411] conv3 -> conv3
I0204 08:47:10.733696 31982 net.cpp:150] Setting up conv3
I0204 08:47:10.733703 31982 net.cpp:157] Top shape: 100 8 13 13 (135200)
I0204 08:47:10.733708 31982 net.cpp:165] Memory required for data: 50926400
I0204 08:47:10.733718 31982 layer_factory.hpp:77] Creating layer relu3
I0204 08:47:10.733726 31982 net.cpp:106] Creating Layer relu3
I0204 08:47:10.733732 31982 net.cpp:454] relu3 <- conv3
I0204 08:47:10.733739 31982 net.cpp:397] relu3 -> conv3 (in-place)
I0204 08:47:10.733747 31982 net.cpp:150] Setting up relu3
I0204 08:47:10.733753 31982 net.cpp:157] Top shape: 100 8 13 13 (135200)
I0204 08:47:10.733758 31982 net.cpp:165] Memory required for data: 51467200
I0204 08:47:10.733763 31982 layer_factory.hpp:77] Creating layer conv4
I0204 08:47:10.733773 31982 net.cpp:106] Creating Layer conv4
I0204 08:47:10.733779 31982 net.cpp:454] conv4 <- conv3
I0204 08:47:10.733786 31982 net.cpp:411] conv4 -> conv4
I0204 08:47:10.733806 31982 net.cpp:150] Setting up conv4
I0204 08:47:10.733814 31982 net.cpp:157] Top shape: 100 8 13 13 (135200)
I0204 08:47:10.733819 31982 net.cpp:165] Memory required for data: 52008000
I0204 08:47:10.733825 31982 layer_factory.hpp:77] Creating layer relu4
I0204 08:47:10.733834 31982 net.cpp:106] Creating Layer relu4
I0204 08:47:10.733839 31982 net.cpp:454] relu4 <- conv4
I0204 08:47:10.733845 31982 net.cpp:397] relu4 -> conv4 (in-place)
I0204 08:47:10.733853 31982 net.cpp:150] Setting up relu4
I0204 08:47:10.733860 31982 net.cpp:157] Top shape: 100 8 13 13 (135200)
I0204 08:47:10.733865 31982 net.cpp:165] Memory required for data: 52548800
I0204 08:47:10.733870 31982 layer_factory.hpp:77] Creating layer conv5
I0204 08:47:10.733885 31982 net.cpp:106] Creating Layer conv5
I0204 08:47:10.733891 31982 net.cpp:454] conv5 <- conv4
I0204 08:47:10.733897 31982 net.cpp:411] conv5 -> conv5
I0204 08:47:10.733917 31982 net.cpp:150] Setting up conv5
I0204 08:47:10.733925 31982 net.cpp:157] Top shape: 100 8 13 13 (135200)
I0204 08:47:10.733930 31982 net.cpp:165] Memory required for data: 53089600
I0204 08:47:10.733940 31982 layer_factory.hpp:77] Creating layer relu5
I0204 08:47:10.733948 31982 net.cpp:106] Creating Layer relu5
I0204 08:47:10.733954 31982 net.cpp:454] relu5 <- conv5
I0204 08:47:10.733961 31982 net.cpp:397] relu5 -> conv5 (in-place)
I0204 08:47:10.733968 31982 net.cpp:150] Setting up relu5
I0204 08:47:10.733975 31982 net.cpp:157] Top shape: 100 8 13 13 (135200)
I0204 08:47:10.733980 31982 net.cpp:165] Memory required for data: 53630400
I0204 08:47:10.733985 31982 layer_factory.hpp:77] Creating layer pool5
I0204 08:47:10.733994 31982 net.cpp:106] Creating Layer pool5
I0204 08:47:10.733999 31982 net.cpp:454] pool5 <- conv5
I0204 08:47:10.734007 31982 net.cpp:411] pool5 -> pool5
I0204 08:47:10.734016 31982 net.cpp:150] Setting up pool5
I0204 08:47:10.734027 31982 net.cpp:157] Top shape: 100 8 6 6 (28800)
I0204 08:47:10.734040 31982 net.cpp:165] Memory required for data: 53745600
I0204 08:47:10.734046 31982 layer_factory.hpp:77] Creating layer fc6
I0204 08:47:10.734056 31982 net.cpp:106] Creating Layer fc6
I0204 08:47:10.734061 31982 net.cpp:454] fc6 <- pool5
I0204 08:47:10.734076 31982 net.cpp:411] fc6 -> fc6
I0204 08:47:10.734735 31982 net.cpp:150] Setting up fc6
I0204 08:47:10.734745 31982 net.cpp:157] Top shape: 100 256 (25600)
I0204 08:47:10.734750 31982 net.cpp:165] Memory required for data: 53848000
I0204 08:47:10.734757 31982 layer_factory.hpp:77] Creating layer relu6
I0204 08:47:10.734767 31982 net.cpp:106] Creating Layer relu6
I0204 08:47:10.734773 31982 net.cpp:454] relu6 <- fc6
I0204 08:47:10.734781 31982 net.cpp:397] relu6 -> fc6 (in-place)
I0204 08:47:10.734787 31982 net.cpp:150] Setting up relu6
I0204 08:47:10.734794 31982 net.cpp:157] Top shape: 100 256 (25600)
I0204 08:47:10.734799 31982 net.cpp:165] Memory required for data: 53950400
I0204 08:47:10.734804 31982 layer_factory.hpp:77] Creating layer drop6
I0204 08:47:10.734813 31982 net.cpp:106] Creating Layer drop6
I0204 08:47:10.734819 31982 net.cpp:454] drop6 <- fc6
I0204 08:47:10.734827 31982 net.cpp:397] drop6 -> fc6 (in-place)
I0204 08:47:10.734836 31982 net.cpp:150] Setting up drop6
I0204 08:47:10.734843 31982 net.cpp:157] Top shape: 100 256 (25600)
I0204 08:47:10.734848 31982 net.cpp:165] Memory required for data: 54052800
I0204 08:47:10.734853 31982 layer_factory.hpp:77] Creating layer fc7
I0204 08:47:10.734863 31982 net.cpp:106] Creating Layer fc7
I0204 08:47:10.734869 31982 net.cpp:454] fc7 <- fc6
I0204 08:47:10.734877 31982 net.cpp:411] fc7 -> fc7
I0204 08:47:10.739348 31982 net.cpp:150] Setting up fc7
I0204 08:47:10.739378 31982 net.cpp:157] Top shape: 100 256 (25600)
I0204 08:47:10.739384 31982 net.cpp:165] Memory required for data: 54155200
I0204 08:47:10.739395 31982 layer_factory.hpp:77] Creating layer relu7
I0204 08:47:10.739408 31982 net.cpp:106] Creating Layer relu7
I0204 08:47:10.739416 31982 net.cpp:454] relu7 <- fc7
I0204 08:47:10.739426 31982 net.cpp:397] relu7 -> fc7 (in-place)
I0204 08:47:10.739439 31982 net.cpp:150] Setting up relu7
I0204 08:47:10.739445 31982 net.cpp:157] Top shape: 100 256 (25600)
I0204 08:47:10.739450 31982 net.cpp:165] Memory required for data: 54257600
I0204 08:47:10.739456 31982 layer_factory.hpp:77] Creating layer drop7
I0204 08:47:10.739466 31982 net.cpp:106] Creating Layer drop7
I0204 08:47:10.739472 31982 net.cpp:454] drop7 <- fc7
I0204 08:47:10.739480 31982 net.cpp:397] drop7 -> fc7 (in-place)
I0204 08:47:10.739490 31982 net.cpp:150] Setting up drop7
I0204 08:47:10.739496 31982 net.cpp:157] Top shape: 100 256 (25600)
I0204 08:47:10.739502 31982 net.cpp:165] Memory required for data: 54360000
I0204 08:47:10.739507 31982 layer_factory.hpp:77] Creating layer fc8
I0204 08:47:10.739519 31982 net.cpp:106] Creating Layer fc8
I0204 08:47:10.739526 31982 net.cpp:454] fc8 <- fc7
I0204 08:47:10.739532 31982 net.cpp:411] fc8 -> fc8
I0204 08:47:10.739562 31982 net.cpp:150] Setting up fc8
I0204 08:47:10.739569 31982 net.cpp:157] Top shape: 100 2 (200)
I0204 08:47:10.739574 31982 net.cpp:165] Memory required for data: 54360800
I0204 08:47:10.739583 31982 layer_factory.hpp:77] Creating layer fc8_fc8_0_split
I0204 08:47:10.739593 31982 net.cpp:106] Creating Layer fc8_fc8_0_split
I0204 08:47:10.739598 31982 net.cpp:454] fc8_fc8_0_split <- fc8
I0204 08:47:10.739605 31982 net.cpp:411] fc8_fc8_0_split -> fc8_fc8_0_split_0
I0204 08:47:10.739614 31982 net.cpp:411] fc8_fc8_0_split -> fc8_fc8_0_split_1
I0204 08:47:10.739624 31982 net.cpp:150] Setting up fc8_fc8_0_split
I0204 08:47:10.739630 31982 net.cpp:157] Top shape: 100 2 (200)
I0204 08:47:10.739636 31982 net.cpp:157] Top shape: 100 2 (200)
I0204 08:47:10.739641 31982 net.cpp:165] Memory required for data: 54362400
I0204 08:47:10.739647 31982 layer_factory.hpp:77] Creating layer accuracy
I0204 08:47:10.739661 31982 net.cpp:106] Creating Layer accuracy
I0204 08:47:10.739667 31982 net.cpp:454] accuracy <- fc8_fc8_0_split_0
I0204 08:47:10.739691 31982 net.cpp:454] accuracy <- label_data_1_split_0
I0204 08:47:10.739699 31982 net.cpp:411] accuracy -> accuracy
…
