…
I0205 00:23:43.817159 10768 net.cpp:322] The NetState phase (0) differed from the phase (1) specified by a rule in layer accuracy
I0205 00:23:43.817415 10768 net.cpp:49] Initializing net from parameters: 
name: "CaffeNet"
state {
  phase: TRAIN
}
layer {
  name: "data"
  type: "Data"
  top: "data"
  top: "label"
  include {
    phase: TRAIN
  }
  transform_param {
    mirror: true
    crop_size: 227
    mean_file: "/home/pearlstl/proj_cv/master/lmdb/synth1_train_lum_db/mean_file.binaryproto"
  }
  data_param {
    source: "/home/pearlstl/proj_cv/master/lmdb/synth1_train_lum_db"
    batch_size: 100
    backend: LMDB
  }
}
layer {
  name: "conv1"
  type: "Convolution"
  bottom: "data"
  top: "conv1"
  param {
    lr_mult: 1
    decay_mult: 1
  }
  param {
    lr_mult: 2
    decay_mult: 0
  }
  convolution_param {
    num_output: 8
    kernel_size: 11
    stride: 4
    weight_filler {
      type: "xavier"
    }
    bias_filler {
      type: "constant"
      value: 0
    }
  }
}
layer {
  name: "relu1"
  type: "ReLU"
  bottom: "conv1"
  top: "conv1"
}
layer {
  name: "pool1"
  type: "Pooling"
  bottom: "conv1"
  top: "pool1"
  pooling_param {
    pool: MAX
    kernel_size: 3
    stride: 2
  }
}
layer {
  name: "norm1"
  type: "LRN"
  bottom: "pool1"
  top: "norm1"
  lrn_param {
    local_size: 5
    alpha: 0.0001
    beta: 0.75
  }
}
layer {
  name: "conv2"
  type: "Convolution"
  bottom: "norm1"
  top: "conv2"
  param {
    lr_mult: 1
    decay_mult: 1
  }
  param {
    lr_mult: 2
    decay_mult: 0
  }
  convolution_param {
    num_output: 8
    pad: 2
    kernel_size: 5
    group: 2
    weight_filler {
      type: "xavier"
    }
    bias_filler {
      type: "constant"
      value: 1
    }
  }
}
layer {
  name: "relu2"
  type: "ReLU"
  bottom: "conv2"
  top: "conv2"
}
layer {
  name: "pool2"
  type: "Pooling"
  bottom: "conv2"
  top: "pool2"
  pooling_param {
    pool: MAX
    kernel_size: 3
    stride: 2
  }
}
layer {
  name: "norm2"
  type: "LRN"
  bottom: "pool2"
  top: "norm2"
  lrn_param {
    local_size: 5
    alpha: 0.0001
    beta: 0.75
  }
}
layer {
  name: "conv3"
  type: "Convolution"
  bottom: "norm2"
  top: "conv3"
  param {
    lr_mult: 1
    decay_mult: 1
  }
  param {
    lr_mult: 2
    decay_mult: 0
  }
  convolution_param {
    num_output: 8
    pad: 1
    kernel_size: 3
    weight_filler {
      type: "xavier"
    }
    bias_filler {
      type: "constant"
      value: 0
    }
  }
}
layer {
  name: "relu3"
  type: "ReLU"
  bottom: "conv3"
  top: "conv3"
}
layer {
  name: "conv4"
  type: "Convolution"
  bottom: "conv3"
  top: "conv4"
  param {
    lr_mult: 1
    decay_mult: 1
  }
  param {
    lr_mult: 2
    decay_mult: 0
  }
  convolution_param {
    num_output: 8
    pad: 1
    kernel_size: 3
    group: 2
    weight_filler {
      type: "xavier"
    }
    bias_filler {
      type: "constant"
      value: 1
    }
  }
}
layer {
  name: "relu4"
  type: "ReLU"
  bottom: "conv4"
  top: "conv4"
}
layer {
  name: "conv5"
  type: "Convolution"
  bottom: "conv4"
  top: "conv5"
  param {
    lr_mult: 1
    decay_mult: 1
  }
  param {
    lr_mult: 2
    decay_mult: 0
  }
  convolution_param {
    num_output: 8
    pad: 1
    kernel_size: 3
    group: 2
    weight_filler {
      type: "xavier"
    }
    bias_filler {
      type: "constant"
      value: 1
    }
  }
}
layer {
  name: "relu5"
  type: "ReLU"
  bottom: "conv5"
  top: "conv5"
}
layer {
  name: "pool5"
  type: "Pooling"
  bottom: "conv5"
  top: "pool5"
  pooling_param {
    pool: MAX
    kernel_size: 3
    stride: 2
  }
}
layer {
  name: "fc6"
  type: "InnerProduct"
  bottom: "pool5"
  top: "fc6"
  param {
    lr_mult: 1
    decay_mult: 1
  }
  param {
    lr_mult: 2
    decay_mult: 0
  }
  inner_product_param {
    num_output: 256
    weight_filler {
      type: "xavier"
    }
    bias_filler {
      type: "constant"
      value: 1
    }
  }
}
layer {
  name: "relu6"
  type: "ReLU"
  bottom: "fc6"
  top: "fc6"
}
layer {
  name: "drop6"
  type: "Dropout"
  bottom: "fc6"
  top: "fc6"
  dropout_param {
    dropout_ratio: 0.5
  }
}
layer {
  name: "fc7"
  type: "InnerProduct"
  bottom: "fc6"
  top: "fc7"
  param {
    lr_mult: 1
    decay_mult: 1
  }
  param {
    lr_mult: 2
    decay_mult: 0
  }
  inner_product_param {
    num_output: 256
    weight_filler {
      type: "xavier"
    }
    bias_filler {
      type: "constant"
      value: 1
    }
  }
}
layer {
  name: "relu7"
  type: "ReLU"
  bottom: "fc7"
  top: "fc7"
}
layer {
  name: "drop7"
  type: "Dropout"
  bottom: "fc7"
  top: "fc7"
  dropout_param {
    dropout_ratio: 0.5
  }
}
layer {
  name: "fc8"
  type: "InnerProduct"
  bottom: "fc7"
  top: "fc8"
  param {
    lr_mult: 1
    decay_mult: 1
  }
  param {
    lr_mult: 2
    decay_mult: 0
  }
  inner_product_param {
    num_output: 2
    weight_filler {
      type: "xavier"
    }
    bias_filler {
      type: "constant"
      value: 0
    }
  }
}
layer {
  name: "loss"
  type: "SoftmaxWithLoss"
  bottom: "fc8"
  bottom: "label"
  top: "loss"
}
I0205 00:23:43.817558 10768 layer_factory.hpp:77] Creating layer data
I0205 00:23:43.817752 10768 net.cpp:106] Creating Layer data
I0205 00:23:43.817772 10768 net.cpp:411] data -> data
I0205 00:23:43.817858 10768 net.cpp:411] data -> label
I0205 00:23:43.817884 10768 data_transformer.cpp:25] Loading mean file from: /home/pearlstl/proj_cv/master/lmdb/synth1_train_lum_db/mean_file.binaryproto
I0205 00:23:43.818084 10769 db_lmdb.cpp:38] Opened lmdb /home/pearlstl/proj_cv/master/lmdb/synth1_train_lum_db
I0205 00:23:43.819020 10768 data_layer.cpp:41] output data size: 100,1,227,227
I0205 00:23:43.853785 10768 net.cpp:150] Setting up data
I0205 00:23:43.853857 10768 net.cpp:157] Top shape: 100 1 227 227 (5152900)
I0205 00:23:43.853868 10768 net.cpp:157] Top shape: 100 (100)
I0205 00:23:43.853873 10768 net.cpp:165] Memory required for data: 20612000
I0205 00:23:43.853895 10768 layer_factory.hpp:77] Creating layer conv1
I0205 00:23:43.853924 10768 net.cpp:106] Creating Layer conv1
I0205 00:23:43.853934 10768 net.cpp:454] conv1 <- data
I0205 00:23:43.853955 10768 net.cpp:411] conv1 -> conv1
I0205 00:23:43.854064 10768 net.cpp:150] Setting up conv1
I0205 00:23:43.854079 10768 net.cpp:157] Top shape: 100 8 55 55 (2420000)
I0205 00:23:43.854086 10768 net.cpp:165] Memory required for data: 30292000
I0205 00:23:43.854105 10768 layer_factory.hpp:77] Creating layer relu1
I0205 00:23:43.854117 10768 net.cpp:106] Creating Layer relu1
I0205 00:23:43.854123 10768 net.cpp:454] relu1 <- conv1
I0205 00:23:43.854133 10768 net.cpp:397] relu1 -> conv1 (in-place)
I0205 00:23:43.854146 10768 net.cpp:150] Setting up relu1
I0205 00:23:43.854153 10768 net.cpp:157] Top shape: 100 8 55 55 (2420000)
I0205 00:23:43.854158 10768 net.cpp:165] Memory required for data: 39972000
I0205 00:23:43.854164 10768 layer_factory.hpp:77] Creating layer pool1
I0205 00:23:43.854176 10768 net.cpp:106] Creating Layer pool1
I0205 00:23:43.854182 10768 net.cpp:454] pool1 <- conv1
I0205 00:23:43.854190 10768 net.cpp:411] pool1 -> pool1
I0205 00:23:43.854228 10768 net.cpp:150] Setting up pool1
I0205 00:23:43.854238 10768 net.cpp:157] Top shape: 100 8 27 27 (583200)
I0205 00:23:43.854243 10768 net.cpp:165] Memory required for data: 42304800
I0205 00:23:43.854249 10768 layer_factory.hpp:77] Creating layer norm1
I0205 00:23:43.854272 10768 net.cpp:106] Creating Layer norm1
I0205 00:23:43.854288 10768 net.cpp:454] norm1 <- pool1
I0205 00:23:43.854297 10768 net.cpp:411] norm1 -> norm1
I0205 00:23:43.854315 10768 net.cpp:150] Setting up norm1
I0205 00:23:43.854324 10768 net.cpp:157] Top shape: 100 8 27 27 (583200)
I0205 00:23:43.854329 10768 net.cpp:165] Memory required for data: 44637600
I0205 00:23:43.854336 10768 layer_factory.hpp:77] Creating layer conv2
I0205 00:23:43.854349 10768 net.cpp:106] Creating Layer conv2
I0205 00:23:43.854354 10768 net.cpp:454] conv2 <- norm1
I0205 00:23:43.854362 10768 net.cpp:411] conv2 -> conv2
I0205 00:23:43.854394 10768 net.cpp:150] Setting up conv2
I0205 00:23:43.854403 10768 net.cpp:157] Top shape: 100 8 27 27 (583200)
I0205 00:23:43.854408 10768 net.cpp:165] Memory required for data: 46970400
I0205 00:23:43.854418 10768 layer_factory.hpp:77] Creating layer relu2
I0205 00:23:43.854426 10768 net.cpp:106] Creating Layer relu2
I0205 00:23:43.854432 10768 net.cpp:454] relu2 <- conv2
I0205 00:23:43.854440 10768 net.cpp:397] relu2 -> conv2 (in-place)
I0205 00:23:43.854449 10768 net.cpp:150] Setting up relu2
I0205 00:23:43.854455 10768 net.cpp:157] Top shape: 100 8 27 27 (583200)
I0205 00:23:43.854460 10768 net.cpp:165] Memory required for data: 49303200
I0205 00:23:43.854468 10768 layer_factory.hpp:77] Creating layer pool2
I0205 00:23:43.854477 10768 net.cpp:106] Creating Layer pool2
I0205 00:23:43.854482 10768 net.cpp:454] pool2 <- conv2
I0205 00:23:43.854490 10768 net.cpp:411] pool2 -> pool2
I0205 00:23:43.854501 10768 net.cpp:150] Setting up pool2
I0205 00:23:43.854507 10768 net.cpp:157] Top shape: 100 8 13 13 (135200)
I0205 00:23:43.854512 10768 net.cpp:165] Memory required for data: 49844000
I0205 00:23:43.854518 10768 layer_factory.hpp:77] Creating layer norm2
I0205 00:23:43.854528 10768 net.cpp:106] Creating Layer norm2
I0205 00:23:43.854533 10768 net.cpp:454] norm2 <- pool2
I0205 00:23:43.854542 10768 net.cpp:411] norm2 -> norm2
I0205 00:23:43.854552 10768 net.cpp:150] Setting up norm2
I0205 00:23:43.854557 10768 net.cpp:157] Top shape: 100 8 13 13 (135200)
I0205 00:23:43.854562 10768 net.cpp:165] Memory required for data: 50384800
I0205 00:23:43.854568 10768 layer_factory.hpp:77] Creating layer conv3
I0205 00:23:43.854578 10768 net.cpp:106] Creating Layer conv3
I0205 00:23:43.854583 10768 net.cpp:454] conv3 <- norm2
I0205 00:23:43.854594 10768 net.cpp:411] conv3 -> conv3
I0205 00:23:43.854622 10768 net.cpp:150] Setting up conv3
I0205 00:23:43.854630 10768 net.cpp:157] Top shape: 100 8 13 13 (135200)
I0205 00:23:43.854635 10768 net.cpp:165] Memory required for data: 50925600
I0205 00:23:43.854645 10768 layer_factory.hpp:77] Creating layer relu3
I0205 00:23:43.854655 10768 net.cpp:106] Creating Layer relu3
I0205 00:23:43.854660 10768 net.cpp:454] relu3 <- conv3
I0205 00:23:43.854667 10768 net.cpp:397] relu3 -> conv3 (in-place)
I0205 00:23:43.854676 10768 net.cpp:150] Setting up relu3
I0205 00:23:43.854682 10768 net.cpp:157] Top shape: 100 8 13 13 (135200)
I0205 00:23:43.854687 10768 net.cpp:165] Memory required for data: 51466400
I0205 00:23:43.854692 10768 layer_factory.hpp:77] Creating layer conv4
I0205 00:23:43.854702 10768 net.cpp:106] Creating Layer conv4
I0205 00:23:43.854708 10768 net.cpp:454] conv4 <- conv3
I0205 00:23:43.854718 10768 net.cpp:411] conv4 -> conv4
I0205 00:23:43.854743 10768 net.cpp:150] Setting up conv4
I0205 00:23:43.854750 10768 net.cpp:157] Top shape: 100 8 13 13 (135200)
I0205 00:23:43.854755 10768 net.cpp:165] Memory required for data: 52007200
I0205 00:23:43.854763 10768 layer_factory.hpp:77] Creating layer relu4
I0205 00:23:43.854770 10768 net.cpp:106] Creating Layer relu4
I0205 00:23:43.854775 10768 net.cpp:454] relu4 <- conv4
I0205 00:23:43.854784 10768 net.cpp:397] relu4 -> conv4 (in-place)
I0205 00:23:43.854791 10768 net.cpp:150] Setting up relu4
I0205 00:23:43.854799 10768 net.cpp:157] Top shape: 100 8 13 13 (135200)
I0205 00:23:43.854804 10768 net.cpp:165] Memory required for data: 52548000
I0205 00:23:43.854809 10768 layer_factory.hpp:77] Creating layer conv5
I0205 00:23:43.854825 10768 net.cpp:106] Creating Layer conv5
I0205 00:23:43.854836 10768 net.cpp:454] conv5 <- conv4
I0205 00:23:43.854848 10768 net.cpp:411] conv5 -> conv5
I0205 00:23:43.854871 10768 net.cpp:150] Setting up conv5
I0205 00:23:43.854878 10768 net.cpp:157] Top shape: 100 8 13 13 (135200)
I0205 00:23:43.854883 10768 net.cpp:165] Memory required for data: 53088800
I0205 00:23:43.854894 10768 layer_factory.hpp:77] Creating layer relu5
I0205 00:23:43.854903 10768 net.cpp:106] Creating Layer relu5
I0205 00:23:43.854908 10768 net.cpp:454] relu5 <- conv5
I0205 00:23:43.854915 10768 net.cpp:397] relu5 -> conv5 (in-place)
I0205 00:23:43.854923 10768 net.cpp:150] Setting up relu5
I0205 00:23:43.854930 10768 net.cpp:157] Top shape: 100 8 13 13 (135200)
I0205 00:23:43.854935 10768 net.cpp:165] Memory required for data: 53629600
I0205 00:23:43.854940 10768 layer_factory.hpp:77] Creating layer pool5
I0205 00:23:43.854948 10768 net.cpp:106] Creating Layer pool5
I0205 00:23:43.854954 10768 net.cpp:454] pool5 <- conv5
I0205 00:23:43.854961 10768 net.cpp:411] pool5 -> pool5
I0205 00:23:43.854981 10768 net.cpp:150] Setting up pool5
I0205 00:23:43.854989 10768 net.cpp:157] Top shape: 100 8 6 6 (28800)
I0205 00:23:43.854993 10768 net.cpp:165] Memory required for data: 53744800
I0205 00:23:43.855000 10768 layer_factory.hpp:77] Creating layer fc6
I0205 00:23:43.855015 10768 net.cpp:106] Creating Layer fc6
I0205 00:23:43.855021 10768 net.cpp:454] fc6 <- pool5
I0205 00:23:43.855031 10768 net.cpp:411] fc6 -> fc6
I0205 00:23:43.855837 10768 net.cpp:150] Setting up fc6
I0205 00:23:43.855851 10768 net.cpp:157] Top shape: 100 256 (25600)
I0205 00:23:43.855856 10768 net.cpp:165] Memory required for data: 53847200
I0205 00:23:43.855865 10768 layer_factory.hpp:77] Creating layer relu6
I0205 00:23:43.855873 10768 net.cpp:106] Creating Layer relu6
I0205 00:23:43.855880 10768 net.cpp:454] relu6 <- fc6
I0205 00:23:43.855890 10768 net.cpp:397] relu6 -> fc6 (in-place)
I0205 00:23:43.855898 10768 net.cpp:150] Setting up relu6
I0205 00:23:43.855906 10768 net.cpp:157] Top shape: 100 256 (25600)
I0205 00:23:43.855912 10768 net.cpp:165] Memory required for data: 53949600
I0205 00:23:43.855917 10768 layer_factory.hpp:77] Creating layer drop6
I0205 00:23:43.855928 10768 net.cpp:106] Creating Layer drop6
I0205 00:23:43.855934 10768 net.cpp:454] drop6 <- fc6
I0205 00:23:43.855942 10768 net.cpp:397] drop6 -> fc6 (in-place)
I0205 00:23:43.855960 10768 net.cpp:150] Setting up drop6
I0205 00:23:43.855983 10768 net.cpp:157] Top shape: 100 256 (25600)
I0205 00:23:43.855989 10768 net.cpp:165] Memory required for data: 54052000
I0205 00:23:43.855995 10768 layer_factory.hpp:77] Creating layer fc7
I0205 00:23:43.856008 10768 net.cpp:106] Creating Layer fc7
I0205 00:23:43.856014 10768 net.cpp:454] fc7 <- fc6
I0205 00:23:43.856024 10768 net.cpp:411] fc7 -> fc7
I0205 00:23:43.856732 10768 net.cpp:150] Setting up fc7
I0205 00:23:43.856745 10768 net.cpp:157] Top shape: 100 256 (25600)
I0205 00:23:43.856751 10768 net.cpp:165] Memory required for data: 54154400
I0205 00:23:43.856760 10768 layer_factory.hpp:77] Creating layer relu7
I0205 00:23:43.856768 10768 net.cpp:106] Creating Layer relu7
I0205 00:23:43.856773 10768 net.cpp:454] relu7 <- fc7
I0205 00:23:43.856781 10768 net.cpp:397] relu7 -> fc7 (in-place)
I0205 00:23:43.856789 10768 net.cpp:150] Setting up relu7
I0205 00:23:43.856796 10768 net.cpp:157] Top shape: 100 256 (25600)
I0205 00:23:43.856801 10768 net.cpp:165] Memory required for data: 54256800
I0205 00:23:43.856806 10768 layer_factory.hpp:77] Creating layer drop7
I0205 00:23:43.856817 10768 net.cpp:106] Creating Layer drop7
I0205 00:23:43.856822 10768 net.cpp:454] drop7 <- fc7
I0205 00:23:43.856829 10768 net.cpp:397] drop7 -> fc7 (in-place)
I0205 00:23:43.856842 10768 net.cpp:150] Setting up drop7
I0205 00:23:43.856849 10768 net.cpp:157] Top shape: 100 256 (25600)
I0205 00:23:43.856854 10768 net.cpp:165] Memory required for data: 54359200
I0205 00:23:43.856860 10768 layer_factory.hpp:77] Creating layer fc8
I0205 00:23:43.856873 10768 net.cpp:106] Creating Layer fc8
I0205 00:23:43.856884 10768 net.cpp:454] fc8 <- fc7
I0205 00:23:43.856897 10768 net.cpp:411] fc8 -> fc8
I0205 00:23:43.856923 10768 net.cpp:150] Setting up fc8
I0205 00:23:43.856931 10768 net.cpp:157] Top shape: 100 2 (200)
I0205 00:23:43.856936 10768 net.cpp:165] Memory required for data: 54360000
I0205 00:23:43.856950 10768 layer_factory.hpp:77] Creating layer loss
I0205 00:23:43.856957 10768 net.cpp:106] Creating Layer loss
I0205 00:23:43.856971 10768 net.cpp:454] loss <- fc8
I0205 00:23:43.856979 10768 net.cpp:454] loss <- label
I0205 00:23:43.856991 10768 net.cpp:411] loss -> loss
I0205 00:23:43.857005 10768 layer_factory.hpp:77] Creating layer loss
…
I0205 00:23:43.858085 10768 net.cpp:322] The NetState phase (1) differed from the phase (0) specified by a rule in layer data
I0205 00:23:43.858387 10768 net.cpp:49] Initializing net from parameters: 
name: "CaffeNet"
state {
  phase: TEST
}
layer {
  name: "data"
  type: "Data"
  top: "data"
  top: "label"
  include {
    phase: TEST
  }
  transform_param {
    mirror: false
    crop_size: 227
    mean_file: "/home/pearlstl/proj_cv/master/lmdb/synth1_test_lum_db/mean_file.binaryproto"
  }
  data_param {
    source: "/home/pearlstl/proj_cv/master/lmdb/synth1_test_lum_db"
    batch_size: 100
    backend: LMDB
  }
}
layer {
  name: "conv1"
  type: "Convolution"
  bottom: "data"
  top: "conv1"
  param {
    lr_mult: 1
    decay_mult: 1
  }
  param {
    lr_mult: 2
    decay_mult: 0
  }
  convolution_param {
    num_output: 8
    kernel_size: 11
    stride: 4
    weight_filler {
      type: "xavier"
    }
    bias_filler {
      type: "constant"
      value: 0
    }
  }
}
layer {
  name: "relu1"
  type: "ReLU"
  bottom: "conv1"
  top: "conv1"
}
layer {
  name: "pool1"
  type: "Pooling"
  bottom: "conv1"
  top: "pool1"
  pooling_param {
    pool: MAX
    kernel_size: 3
    stride: 2
  }
}
layer {
  name: "norm1"
  type: "LRN"
  bottom: "pool1"
  top: "norm1"
  lrn_param {
    local_size: 5
    alpha: 0.0001
    beta: 0.75
  }
}
layer {
  name: "conv2"
  type: "Convolution"
  bottom: "norm1"
  top: "conv2"
  param {
    lr_mult: 1
    decay_mult: 1
  }
  param {
    lr_mult: 2
    decay_mult: 0
  }
  convolution_param {
    num_output: 8
    pad: 2
    kernel_size: 5
    group: 2
    weight_filler {
      type: "xavier"
    }
    bias_filler {
      type: "constant"
      value: 1
    }
  }
}
layer {
  name: "relu2"
  type: "ReLU"
  bottom: "conv2"
  top: "conv2"
}
layer {
  name: "pool2"
  type: "Pooling"
  bottom: "conv2"
  top: "pool2"
  pooling_param {
    pool: MAX
    kernel_size: 3
    stride: 2
  }
}
layer {
  name: "norm2"
  type: "LRN"
  bottom: "pool2"
  top: "norm2"
  lrn_param {
    local_size: 5
    alpha: 0.0001
    beta: 0.75
  }
}
layer {
  name: "conv3"
  type: "Convolution"
  bottom: "norm2"
  top: "conv3"
  param {
    lr_mult: 1
    decay_mult: 1
  }
  param {
    lr_mult: 2
    decay_mult: 0
  }
  convolution_param {
    num_output: 8
    pad: 1
    kernel_size: 3
    weight_filler {
      type: "xavier"
    }
    bias_filler {
      type: "constant"
      value: 0
    }
  }
}
layer {
  name: "relu3"
  type: "ReLU"
  bottom: "conv3"
  top: "conv3"
}
layer {
  name: "conv4"
  type: "Convolution"
  bottom: "conv3"
  top: "conv4"
  param {
    lr_mult: 1
    decay_mult: 1
  }
  param {
    lr_mult: 2
    decay_mult: 0
  }
  convolution_param {
    num_output: 8
    pad: 1
    kernel_size: 3
    group: 2
    weight_filler {
      type: "xavier"
    }
    bias_filler {
      type: "constant"
      value: 1
    }
  }
}
layer {
  name: "relu4"
  type: "ReLU"
  bottom: "conv4"
  top: "conv4"
}
layer {
  name: "conv5"
  type: "Convolution"
  bottom: "conv4"
  top: "conv5"
  param {
    lr_mult: 1
    decay_mult: 1
  }
  param {
    lr_mult: 2
    decay_mult: 0
  }
  convolution_param {
    num_output: 8
    pad: 1
    kernel_size: 3
    group: 2
    weight_filler {
      type: "xavier"
    }
    bias_filler {
      type: "constant"
      value: 1
    }
  }
}
layer {
  name: "relu5"
  type: "ReLU"
  bottom: "conv5"
  top: "conv5"
}
layer {
  name: "pool5"
  type: "Pooling"
  bottom: "conv5"
  top: "pool5"
  pooling_param {
    pool: MAX
    kernel_size: 3
    stride: 2
  }
}
layer {
  name: "fc6"
  type: "InnerProduct"
  bottom: "pool5"
  top: "fc6"
  param {
    lr_mult: 1
    decay_mult: 1
  }
  param {
    lr_mult: 2
    decay_mult: 0
  }
  inner_product_param {
    num_output: 256
    weight_filler {
      type: "xavier"
    }
    bias_filler {
      type: "constant"
      value: 1
    }
  }
}
layer {
  name: "relu6"
  type: "ReLU"
  bottom: "fc6"
  top: "fc6"
}
layer {
  name: "drop6"
  type: "Dropout"
  bottom: "fc6"
  top: "fc6"
  dropout_param {
    dropout_ratio: 0.5
  }
}
layer {
  name: "fc7"
  type: "InnerProduct"
  bottom: "fc6"
  top: "fc7"
  param {
    lr_mult: 1
    decay_mult: 1
  }
  param {
    lr_mult: 2
    decay_mult: 0
  }
  inner_product_param {
    num_output: 256
    weight_filler {
      type: "xavier"
    }
    bias_filler {
      type: "constant"
      value: 1
    }
  }
}
layer {
  name: "relu7"
  type: "ReLU"
  bottom: "fc7"
  top: "fc7"
}
layer {
  name: "drop7"
  type: "Dropout"
  bottom: "fc7"
  top: "fc7"
  dropout_param {
    dropout_ratio: 0.5
  }
}
layer {
  name: "fc8"
  type: "InnerProduct"
  bottom: "fc7"
  top: "fc8"
  param {
    lr_mult: 1
    decay_mult: 1
  }
  param {
    lr_mult: 2
    decay_mult: 0
  }
  inner_product_param {
    num_output: 2
    weight_filler {
      type: "xavier"
    }
    bias_filler {
      type: "constant"
      value: 0
    }
  }
}
layer {
  name: "accuracy"
  type: "Accuracy"
  bottom: "fc8"
  bottom: "label"
  top: "accuracy"
  include {
    phase: TEST
  }
}
layer {
  name: "loss"
  type: "SoftmaxWithLoss"
  bottom: "fc8"
  bottom: "label"
  top: "loss"
}
I0205 00:23:43.858562 10768 layer_factory.hpp:77] Creating layer data
I0205 00:23:43.858729 10768 net.cpp:106] Creating Layer data
I0205 00:23:43.858743 10768 net.cpp:411] data -> data
I0205 00:23:43.858757 10768 net.cpp:411] data -> label
I0205 00:23:43.858768 10768 data_transformer.cpp:25] Loading mean file from: /home/pearlstl/proj_cv/master/lmdb/synth1_test_lum_db/mean_file.binaryproto
I0205 00:23:43.859015 10773 db_lmdb.cpp:38] Opened lmdb /home/pearlstl/proj_cv/master/lmdb/synth1_test_lum_db
I0205 00:23:43.859748 10768 data_layer.cpp:41] output data size: 100,1,227,227
I0205 00:23:43.892722 10768 net.cpp:150] Setting up data
I0205 00:23:43.892760 10768 net.cpp:157] Top shape: 100 1 227 227 (5152900)
I0205 00:23:43.892767 10768 net.cpp:157] Top shape: 100 (100)
I0205 00:23:43.892773 10768 net.cpp:165] Memory required for data: 20612000
I0205 00:23:43.892784 10768 layer_factory.hpp:77] Creating layer label_data_1_split
I0205 00:23:43.892804 10768 net.cpp:106] Creating Layer label_data_1_split
I0205 00:23:43.892812 10768 net.cpp:454] label_data_1_split <- label
I0205 00:23:43.892824 10768 net.cpp:411] label_data_1_split -> label_data_1_split_0
I0205 00:23:43.892840 10768 net.cpp:411] label_data_1_split -> label_data_1_split_1
I0205 00:23:43.892853 10768 net.cpp:150] Setting up label_data_1_split
I0205 00:23:43.892860 10768 net.cpp:157] Top shape: 100 (100)
I0205 00:23:43.892866 10768 net.cpp:157] Top shape: 100 (100)
I0205 00:23:43.892873 10768 net.cpp:165] Memory required for data: 20612800
I0205 00:23:43.892880 10768 layer_factory.hpp:77] Creating layer conv1
I0205 00:23:43.892896 10768 net.cpp:106] Creating Layer conv1
I0205 00:23:43.892902 10768 net.cpp:454] conv1 <- data
I0205 00:23:43.892915 10768 net.cpp:411] conv1 -> conv1
I0205 00:23:43.892971 10768 net.cpp:150] Setting up conv1
I0205 00:23:43.892982 10768 net.cpp:157] Top shape: 100 8 55 55 (2420000)
I0205 00:23:43.892987 10768 net.cpp:165] Memory required for data: 30292800
I0205 00:23:43.893002 10768 layer_factory.hpp:77] Creating layer relu1
I0205 00:23:43.893012 10768 net.cpp:106] Creating Layer relu1
I0205 00:23:43.893018 10768 net.cpp:454] relu1 <- conv1
I0205 00:23:43.893025 10768 net.cpp:397] relu1 -> conv1 (in-place)
I0205 00:23:43.893035 10768 net.cpp:150] Setting up relu1
I0205 00:23:43.893043 10768 net.cpp:157] Top shape: 100 8 55 55 (2420000)
I0205 00:23:43.893050 10768 net.cpp:165] Memory required for data: 39972800
I0205 00:23:43.893059 10768 layer_factory.hpp:77] Creating layer pool1
I0205 00:23:43.893069 10768 net.cpp:106] Creating Layer pool1
I0205 00:23:43.893075 10768 net.cpp:454] pool1 <- conv1
I0205 00:23:43.893085 10768 net.cpp:411] pool1 -> pool1
I0205 00:23:43.893098 10768 net.cpp:150] Setting up pool1
I0205 00:23:43.893107 10768 net.cpp:157] Top shape: 100 8 27 27 (583200)
I0205 00:23:43.893113 10768 net.cpp:165] Memory required for data: 42305600
I0205 00:23:43.893118 10768 layer_factory.hpp:77] Creating layer norm1
I0205 00:23:43.893131 10768 net.cpp:106] Creating Layer norm1
I0205 00:23:43.893136 10768 net.cpp:454] norm1 <- pool1
I0205 00:23:43.893143 10768 net.cpp:411] norm1 -> norm1
I0205 00:23:43.893154 10768 net.cpp:150] Setting up norm1
I0205 00:23:43.893162 10768 net.cpp:157] Top shape: 100 8 27 27 (583200)
I0205 00:23:43.893167 10768 net.cpp:165] Memory required for data: 44638400
I0205 00:23:43.893172 10768 layer_factory.hpp:77] Creating layer conv2
I0205 00:23:43.893182 10768 net.cpp:106] Creating Layer conv2
I0205 00:23:43.893187 10768 net.cpp:454] conv2 <- norm1
I0205 00:23:43.893200 10768 net.cpp:411] conv2 -> conv2
I0205 00:23:43.893234 10768 net.cpp:150] Setting up conv2
I0205 00:23:43.893242 10768 net.cpp:157] Top shape: 100 8 27 27 (583200)
I0205 00:23:43.893247 10768 net.cpp:165] Memory required for data: 46971200
I0205 00:23:43.893259 10768 layer_factory.hpp:77] Creating layer relu2
I0205 00:23:43.893267 10768 net.cpp:106] Creating Layer relu2
I0205 00:23:43.893273 10768 net.cpp:454] relu2 <- conv2
I0205 00:23:43.893283 10768 net.cpp:397] relu2 -> conv2 (in-place)
I0205 00:23:43.893301 10768 net.cpp:150] Setting up relu2
I0205 00:23:43.893321 10768 net.cpp:157] Top shape: 100 8 27 27 (583200)
I0205 00:23:43.893326 10768 net.cpp:165] Memory required for data: 49304000
I0205 00:23:43.893332 10768 layer_factory.hpp:77] Creating layer pool2
I0205 00:23:43.893342 10768 net.cpp:106] Creating Layer pool2
I0205 00:23:43.893347 10768 net.cpp:454] pool2 <- conv2
I0205 00:23:43.893357 10768 net.cpp:411] pool2 -> pool2
I0205 00:23:43.893368 10768 net.cpp:150] Setting up pool2
I0205 00:23:43.893374 10768 net.cpp:157] Top shape: 100 8 13 13 (135200)
I0205 00:23:43.893379 10768 net.cpp:165] Memory required for data: 49844800
I0205 00:23:43.893384 10768 layer_factory.hpp:77] Creating layer norm2
I0205 00:23:43.893393 10768 net.cpp:106] Creating Layer norm2
I0205 00:23:43.893399 10768 net.cpp:454] norm2 <- pool2
I0205 00:23:43.893406 10768 net.cpp:411] norm2 -> norm2
I0205 00:23:43.893419 10768 net.cpp:150] Setting up norm2
I0205 00:23:43.893426 10768 net.cpp:157] Top shape: 100 8 13 13 (135200)
I0205 00:23:43.893431 10768 net.cpp:165] Memory required for data: 50385600
I0205 00:23:43.893436 10768 layer_factory.hpp:77] Creating layer conv3
I0205 00:23:43.893447 10768 net.cpp:106] Creating Layer conv3
I0205 00:23:43.893452 10768 net.cpp:454] conv3 <- norm2
I0205 00:23:43.893463 10768 net.cpp:411] conv3 -> conv3
I0205 00:23:43.893491 10768 net.cpp:150] Setting up conv3
I0205 00:23:43.893497 10768 net.cpp:157] Top shape: 100 8 13 13 (135200)
I0205 00:23:43.893502 10768 net.cpp:165] Memory required for data: 50926400
I0205 00:23:43.893512 10768 layer_factory.hpp:77] Creating layer relu3
I0205 00:23:43.893522 10768 net.cpp:106] Creating Layer relu3
I0205 00:23:43.893527 10768 net.cpp:454] relu3 <- conv3
I0205 00:23:43.893534 10768 net.cpp:397] relu3 -> conv3 (in-place)
I0205 00:23:43.893543 10768 net.cpp:150] Setting up relu3
I0205 00:23:43.893549 10768 net.cpp:157] Top shape: 100 8 13 13 (135200)
I0205 00:23:43.893554 10768 net.cpp:165] Memory required for data: 51467200
I0205 00:23:43.893559 10768 layer_factory.hpp:77] Creating layer conv4
I0205 00:23:43.893569 10768 net.cpp:106] Creating Layer conv4
I0205 00:23:43.893576 10768 net.cpp:454] conv4 <- conv3
I0205 00:23:43.893587 10768 net.cpp:411] conv4 -> conv4
I0205 00:23:43.893610 10768 net.cpp:150] Setting up conv4
I0205 00:23:43.893617 10768 net.cpp:157] Top shape: 100 8 13 13 (135200)
I0205 00:23:43.893622 10768 net.cpp:165] Memory required for data: 52008000
I0205 00:23:43.893632 10768 layer_factory.hpp:77] Creating layer relu4
I0205 00:23:43.893641 10768 net.cpp:106] Creating Layer relu4
I0205 00:23:43.893646 10768 net.cpp:454] relu4 <- conv4
I0205 00:23:43.893654 10768 net.cpp:397] relu4 -> conv4 (in-place)
I0205 00:23:43.893661 10768 net.cpp:150] Setting up relu4
I0205 00:23:43.893668 10768 net.cpp:157] Top shape: 100 8 13 13 (135200)
I0205 00:23:43.893673 10768 net.cpp:165] Memory required for data: 52548800
I0205 00:23:43.893678 10768 layer_factory.hpp:77] Creating layer conv5
I0205 00:23:43.893690 10768 net.cpp:106] Creating Layer conv5
I0205 00:23:43.893695 10768 net.cpp:454] conv5 <- conv4
I0205 00:23:43.893704 10768 net.cpp:411] conv5 -> conv5
I0205 00:23:43.893726 10768 net.cpp:150] Setting up conv5
I0205 00:23:43.893733 10768 net.cpp:157] Top shape: 100 8 13 13 (135200)
I0205 00:23:43.893738 10768 net.cpp:165] Memory required for data: 53089600
I0205 00:23:43.893750 10768 layer_factory.hpp:77] Creating layer relu5
I0205 00:23:43.893759 10768 net.cpp:106] Creating Layer relu5
I0205 00:23:43.893764 10768 net.cpp:454] relu5 <- conv5
I0205 00:23:43.893771 10768 net.cpp:397] relu5 -> conv5 (in-place)
I0205 00:23:43.893779 10768 net.cpp:150] Setting up relu5
I0205 00:23:43.893786 10768 net.cpp:157] Top shape: 100 8 13 13 (135200)
I0205 00:23:43.893792 10768 net.cpp:165] Memory required for data: 53630400
I0205 00:23:43.893797 10768 layer_factory.hpp:77] Creating layer pool5
I0205 00:23:43.893807 10768 net.cpp:106] Creating Layer pool5
I0205 00:23:43.893812 10768 net.cpp:454] pool5 <- conv5
I0205 00:23:43.893821 10768 net.cpp:411] pool5 -> pool5
I0205 00:23:43.893836 10768 net.cpp:150] Setting up pool5
I0205 00:23:43.893852 10768 net.cpp:157] Top shape: 100 8 6 6 (28800)
I0205 00:23:43.893857 10768 net.cpp:165] Memory required for data: 53745600
I0205 00:23:43.893862 10768 layer_factory.hpp:77] Creating layer fc6
I0205 00:23:43.893874 10768 net.cpp:106] Creating Layer fc6
I0205 00:23:43.893879 10768 net.cpp:454] fc6 <- pool5
I0205 00:23:43.893888 10768 net.cpp:411] fc6 -> fc6
I0205 00:23:43.894625 10768 net.cpp:150] Setting up fc6
I0205 00:23:43.894639 10768 net.cpp:157] Top shape: 100 256 (25600)
I0205 00:23:43.894645 10768 net.cpp:165] Memory required for data: 53848000
I0205 00:23:43.894654 10768 layer_factory.hpp:77] Creating layer relu6
I0205 00:23:43.894662 10768 net.cpp:106] Creating Layer relu6
I0205 00:23:43.894671 10768 net.cpp:454] relu6 <- fc6
I0205 00:23:43.894680 10768 net.cpp:397] relu6 -> fc6 (in-place)
I0205 00:23:43.894688 10768 net.cpp:150] Setting up relu6
I0205 00:23:43.894695 10768 net.cpp:157] Top shape: 100 256 (25600)
I0205 00:23:43.894700 10768 net.cpp:165] Memory required for data: 53950400
I0205 00:23:43.894706 10768 layer_factory.hpp:77] Creating layer drop6
I0205 00:23:43.894716 10768 net.cpp:106] Creating Layer drop6
I0205 00:23:43.894721 10768 net.cpp:454] drop6 <- fc6
I0205 00:23:43.894728 10768 net.cpp:397] drop6 -> fc6 (in-place)
I0205 00:23:43.894739 10768 net.cpp:150] Setting up drop6
I0205 00:23:43.894745 10768 net.cpp:157] Top shape: 100 256 (25600)
I0205 00:23:43.894750 10768 net.cpp:165] Memory required for data: 54052800
I0205 00:23:43.894755 10768 layer_factory.hpp:77] Creating layer fc7
I0205 00:23:43.894769 10768 net.cpp:106] Creating Layer fc7
I0205 00:23:43.894775 10768 net.cpp:454] fc7 <- fc6
I0205 00:23:43.894786 10768 net.cpp:411] fc7 -> fc7
I0205 00:23:43.895551 10768 net.cpp:150] Setting up fc7
I0205 00:23:43.895565 10768 net.cpp:157] Top shape: 100 256 (25600)
I0205 00:23:43.895570 10768 net.cpp:165] Memory required for data: 54155200
I0205 00:23:43.895578 10768 layer_factory.hpp:77] Creating layer relu7
I0205 00:23:43.895587 10768 net.cpp:106] Creating Layer relu7
I0205 00:23:43.895593 10768 net.cpp:454] relu7 <- fc7
I0205 00:23:43.895603 10768 net.cpp:397] relu7 -> fc7 (in-place)
I0205 00:23:43.895612 10768 net.cpp:150] Setting up relu7
I0205 00:23:43.895618 10768 net.cpp:157] Top shape: 100 256 (25600)
I0205 00:23:43.895624 10768 net.cpp:165] Memory required for data: 54257600
I0205 00:23:43.895629 10768 layer_factory.hpp:77] Creating layer drop7
I0205 00:23:43.895637 10768 net.cpp:106] Creating Layer drop7
I0205 00:23:43.895645 10768 net.cpp:454] drop7 <- fc7
I0205 00:23:43.895653 10768 net.cpp:397] drop7 -> fc7 (in-place)
I0205 00:23:43.895664 10768 net.cpp:150] Setting up drop7
I0205 00:23:43.895670 10768 net.cpp:157] Top shape: 100 256 (25600)
I0205 00:23:43.895675 10768 net.cpp:165] Memory required for data: 54360000
I0205 00:23:43.895681 10768 layer_factory.hpp:77] Creating layer fc8
I0205 00:23:43.895694 10768 net.cpp:106] Creating Layer fc8
I0205 00:23:43.895699 10768 net.cpp:454] fc8 <- fc7
I0205 00:23:43.895709 10768 net.cpp:411] fc8 -> fc8
I0205 00:23:43.895735 10768 net.cpp:150] Setting up fc8
I0205 00:23:43.895745 10768 net.cpp:157] Top shape: 100 2 (200)
I0205 00:23:43.895750 10768 net.cpp:165] Memory required for data: 54360800
I0205 00:23:43.895758 10768 layer_factory.hpp:77] Creating layer fc8_fc8_0_split
I0205 00:23:43.895766 10768 net.cpp:106] Creating Layer fc8_fc8_0_split
I0205 00:23:43.895771 10768 net.cpp:454] fc8_fc8_0_split <- fc8
I0205 00:23:43.895779 10768 net.cpp:411] fc8_fc8_0_split -> fc8_fc8_0_split_0
I0205 00:23:43.895787 10768 net.cpp:411] fc8_fc8_0_split -> fc8_fc8_0_split_1
I0205 00:23:43.895797 10768 net.cpp:150] Setting up fc8_fc8_0_split
I0205 00:23:43.895803 10768 net.cpp:157] Top shape: 100 2 (200)
I0205 00:23:43.895812 10768 net.cpp:157] Top shape: 100 2 (200)
I0205 00:23:43.895817 10768 net.cpp:165] Memory required for data: 54362400
I0205 00:23:43.895824 10768 layer_factory.hpp:77] Creating layer accuracy
I0205 00:23:43.895839 10768 net.cpp:106] Creating Layer accuracy
I0205 00:23:43.895850 10768 net.cpp:454] accuracy <- fc8_fc8_0_split_0
I0205 00:23:43.895864 10768 net.cpp:454] accuracy <- label_data_1_split_0
I0205 00:23:43.895874 10768 net.cpp:411] accuracy -> accuracy
…
