…
I0204 08:47:10.475713 31953 net.cpp:322] The NetState phase (0) differed from the phase (1) specified by a rule in layer accuracy
I0204 08:47:10.475970 31953 net.cpp:49] Initializing net from parameters: 
name: "CaffeNet"
state {
  phase: TRAIN
}
layer {
  name: "data"
  type: "Data"
  top: "data"
  top: "label"
  include {
    phase: TRAIN
  }
  transform_param {
    mirror: true
    crop_size: 227
    mean_file: "/home/pearlstl/proj_cv/master/lmdb/synth1_train_lum_db/mean_file.binaryproto"
  }
  data_param {
    source: "/home/pearlstl/proj_cv/master/lmdb/synth1_train_lum_db"
    batch_size: 100
    backend: LMDB
  }
}
layer {
  name: "conv1"
  type: "Convolution"
  bottom: "data"
  top: "conv1"
  param {
    lr_mult: 1
    decay_mult: 1
  }
  param {
    lr_mult: 2
    decay_mult: 0
  }
  convolution_param {
    num_output: 16
    kernel_size: 11
    stride: 4
    weight_filler {
      type: "xavier"
    }
    bias_filler {
      type: "constant"
      value: 0
    }
  }
}
layer {
  name: "relu1"
  type: "ReLU"
  bottom: "conv1"
  top: "conv1"
}
layer {
  name: "pool1"
  type: "Pooling"
  bottom: "conv1"
  top: "pool1"
  pooling_param {
    pool: MAX
    kernel_size: 3
    stride: 2
  }
}
layer {
  name: "norm1"
  type: "LRN"
  bottom: "pool1"
  top: "norm1"
  lrn_param {
    local_size: 5
    alpha: 0.0001
    beta: 0.75
  }
}
layer {
  name: "conv2"
  type: "Convolution"
  bottom: "norm1"
  top: "conv2"
  param {
    lr_mult: 1
    decay_mult: 1
  }
  param {
    lr_mult: 2
    decay_mult: 0
  }
  convolution_param {
    num_output: 16
    pad: 2
    kernel_size: 5
    group: 2
    weight_filler {
      type: "xavier"
    }
    bias_filler {
      type: "constant"
      value: 1
    }
  }
}
layer {
  name: "relu2"
  type: "ReLU"
  bottom: "conv2"
  top: "conv2"
}
layer {
  name: "pool2"
  type: "Pooling"
  bottom: "conv2"
  top: "pool2"
  pooling_param {
    pool: MAX
    kernel_size: 3
    stride: 2
  }
}
layer {
  name: "norm2"
  type: "LRN"
  bottom: "pool2"
  top: "norm2"
  lrn_param {
    local_size: 5
    alpha: 0.0001
    beta: 0.75
  }
}
layer {
  name: "conv3"
  type: "Convolution"
  bottom: "norm2"
  top: "conv3"
  param {
    lr_mult: 1
    decay_mult: 1
  }
  param {
    lr_mult: 2
    decay_mult: 0
  }
  convolution_param {
    num_output: 8
    pad: 1
    kernel_size: 3
    weight_filler {
      type: "xavier"
    }
    bias_filler {
      type: "constant"
      value: 0
    }
  }
}
layer {
  name: "relu3"
  type: "ReLU"
  bottom: "conv3"
  top: "conv3"
}
layer {
  name: "conv4"
  type: "Convolution"
  bottom: "conv3"
  top: "conv4"
  param {
    lr_mult: 1
    decay_mult: 1
  }
  param {
    lr_mult: 2
    decay_mult: 0
  }
  convolution_param {
    num_output: 8
    pad: 1
    kernel_size: 3
    group: 2
    weight_filler {
      type: "xavier"
    }
    bias_filler {
      type: "constant"
      value: 1
    }
  }
}
layer {
  name: "relu4"
  type: "ReLU"
  bottom: "conv4"
  top: "conv4"
}
layer {
  name: "conv5"
  type: "Convolution"
  bottom: "conv4"
  top: "conv5"
  param {
    lr_mult: 1
    decay_mult: 1
  }
  param {
    lr_mult: 2
    decay_mult: 0
  }
  convolution_param {
    num_output: 8
    pad: 1
    kernel_size: 3
    group: 2
    weight_filler {
      type: "xavier"
    }
    bias_filler {
      type: "constant"
      value: 1
    }
  }
}
layer {
  name: "relu5"
  type: "ReLU"
  bottom: "conv5"
  top: "conv5"
}
layer {
  name: "pool5"
  type: "Pooling"
  bottom: "conv5"
  top: "pool5"
  pooling_param {
    pool: MAX
    kernel_size: 3
    stride: 2
  }
}
layer {
  name: "fc6"
  type: "InnerProduct"
  bottom: "pool5"
  top: "fc6"
  param {
    lr_mult: 1
    decay_mult: 1
  }
  param {
    lr_mult: 2
    decay_mult: 0
  }
  inner_product_param {
    num_output: 256
    weight_filler {
      type: "xavier"
    }
    bias_filler {
      type: "constant"
      value: 1
    }
  }
}
layer {
  name: "relu6"
  type: "ReLU"
  bottom: "fc6"
  top: "fc6"
}
layer {
  name: "drop6"
  type: "Dropout"
  bottom: "fc6"
  top: "fc6"
  dropout_param {
    dropout_ratio: 0.5
  }
}
layer {
  name: "fc7"
  type: "InnerProduct"
  bottom: "fc6"
  top: "fc7"
  param {
    lr_mult: 1
    decay_mult: 1
  }
  param {
    lr_mult: 2
    decay_mult: 0
  }
  inner_product_param {
    num_output: 256
    weight_filler {
      type: "xavier"
    }
    bias_filler {
      type: "constant"
      value: 1
    }
  }
}
layer {
  name: "relu7"
  type: "ReLU"
  bottom: "fc7"
  top: "fc7"
}
layer {
  name: "drop7"
  type: "Dropout"
  bottom: "fc7"
  top: "fc7"
  dropout_param {
    dropout_ratio: 0.5
  }
}
layer {
  name: "fc8"
  type: "InnerProduct"
  bottom: "fc7"
  top: "fc8"
  param {
    lr_mult: 1
    decay_mult: 1
  }
  param {
    lr_mult: 2
    decay_mult: 0
  }
  inner_product_param {
    num_output: 2
    weight_filler {
      type: "xavier"
    }
    bias_filler {
      type: "constant"
      value: 0
    }
  }
}
layer {
  name: "loss"
  type: "SoftmaxWithLoss"
  bottom: "fc8"
  bottom: "label"
  top: "loss"
}
I0204 08:47:10.476114 31953 layer_factory.hpp:77] Creating layer data
I0204 08:47:10.476305 31953 net.cpp:106] Creating Layer data
I0204 08:47:10.476325 31953 net.cpp:411] data -> data
I0204 08:47:10.476398 31953 net.cpp:411] data -> label
I0204 08:47:10.476423 31953 data_transformer.cpp:25] Loading mean file from: /home/pearlstl/proj_cv/master/lmdb/synth1_train_lum_db/mean_file.binaryproto
I0204 08:47:10.476536 31956 db_lmdb.cpp:38] Opened lmdb /home/pearlstl/proj_cv/master/lmdb/synth1_train_lum_db
I0204 08:47:10.477473 31953 data_layer.cpp:41] output data size: 100,1,227,227
I0204 08:47:10.530798 31953 net.cpp:150] Setting up data
I0204 08:47:10.531044 31953 net.cpp:157] Top shape: 100 1 227 227 (5152900)
I0204 08:47:10.531059 31953 net.cpp:157] Top shape: 100 (100)
I0204 08:47:10.531065 31953 net.cpp:165] Memory required for data: 20612000
I0204 08:47:10.531085 31953 layer_factory.hpp:77] Creating layer conv1
I0204 08:47:10.531278 31953 net.cpp:106] Creating Layer conv1
I0204 08:47:10.531291 31953 net.cpp:454] conv1 <- data
I0204 08:47:10.531311 31953 net.cpp:411] conv1 -> conv1
I0204 08:47:10.531451 31953 net.cpp:150] Setting up conv1
I0204 08:47:10.531464 31953 net.cpp:157] Top shape: 100 16 55 55 (4840000)
I0204 08:47:10.531471 31953 net.cpp:165] Memory required for data: 39972000
I0204 08:47:10.531489 31953 layer_factory.hpp:77] Creating layer relu1
I0204 08:47:10.531502 31953 net.cpp:106] Creating Layer relu1
I0204 08:47:10.531510 31953 net.cpp:454] relu1 <- conv1
I0204 08:47:10.531520 31953 net.cpp:397] relu1 -> conv1 (in-place)
I0204 08:47:10.531533 31953 net.cpp:150] Setting up relu1
I0204 08:47:10.531541 31953 net.cpp:157] Top shape: 100 16 55 55 (4840000)
I0204 08:47:10.531548 31953 net.cpp:165] Memory required for data: 59332000
I0204 08:47:10.531553 31953 layer_factory.hpp:77] Creating layer pool1
I0204 08:47:10.531564 31953 net.cpp:106] Creating Layer pool1
I0204 08:47:10.531570 31953 net.cpp:454] pool1 <- conv1
I0204 08:47:10.531581 31953 net.cpp:411] pool1 -> pool1
I0204 08:47:10.531605 31953 net.cpp:150] Setting up pool1
I0204 08:47:10.531613 31953 net.cpp:157] Top shape: 100 16 27 27 (1166400)
I0204 08:47:10.531620 31953 net.cpp:165] Memory required for data: 63997600
I0204 08:47:10.531625 31953 layer_factory.hpp:77] Creating layer norm1
I0204 08:47:10.531647 31953 net.cpp:106] Creating Layer norm1
I0204 08:47:10.531666 31953 net.cpp:454] norm1 <- pool1
I0204 08:47:10.531675 31953 net.cpp:411] norm1 -> norm1
I0204 08:47:10.531693 31953 net.cpp:150] Setting up norm1
I0204 08:47:10.531702 31953 net.cpp:157] Top shape: 100 16 27 27 (1166400)
I0204 08:47:10.531708 31953 net.cpp:165] Memory required for data: 68663200
I0204 08:47:10.531713 31953 layer_factory.hpp:77] Creating layer conv2
I0204 08:47:10.531724 31953 net.cpp:106] Creating Layer conv2
I0204 08:47:10.531733 31953 net.cpp:454] conv2 <- norm1
I0204 08:47:10.531744 31953 net.cpp:411] conv2 -> conv2
I0204 08:47:10.531796 31953 net.cpp:150] Setting up conv2
I0204 08:47:10.531807 31953 net.cpp:157] Top shape: 100 16 27 27 (1166400)
I0204 08:47:10.531812 31953 net.cpp:165] Memory required for data: 73328800
I0204 08:47:10.531823 31953 layer_factory.hpp:77] Creating layer relu2
I0204 08:47:10.531832 31953 net.cpp:106] Creating Layer relu2
I0204 08:47:10.531838 31953 net.cpp:454] relu2 <- conv2
I0204 08:47:10.531847 31953 net.cpp:397] relu2 -> conv2 (in-place)
I0204 08:47:10.531857 31953 net.cpp:150] Setting up relu2
I0204 08:47:10.531863 31953 net.cpp:157] Top shape: 100 16 27 27 (1166400)
I0204 08:47:10.531868 31953 net.cpp:165] Memory required for data: 77994400
I0204 08:47:10.531877 31953 layer_factory.hpp:77] Creating layer pool2
I0204 08:47:10.531885 31953 net.cpp:106] Creating Layer pool2
I0204 08:47:10.531891 31953 net.cpp:454] pool2 <- conv2
I0204 08:47:10.531899 31953 net.cpp:411] pool2 -> pool2
I0204 08:47:10.531910 31953 net.cpp:150] Setting up pool2
I0204 08:47:10.531918 31953 net.cpp:157] Top shape: 100 16 13 13 (270400)
I0204 08:47:10.531929 31953 net.cpp:165] Memory required for data: 79076000
I0204 08:47:10.531935 31953 layer_factory.hpp:77] Creating layer norm2
I0204 08:47:10.531949 31953 net.cpp:106] Creating Layer norm2
I0204 08:47:10.531955 31953 net.cpp:454] norm2 <- pool2
I0204 08:47:10.531965 31953 net.cpp:411] norm2 -> norm2
I0204 08:47:10.531975 31953 net.cpp:150] Setting up norm2
I0204 08:47:10.531982 31953 net.cpp:157] Top shape: 100 16 13 13 (270400)
I0204 08:47:10.531988 31953 net.cpp:165] Memory required for data: 80157600
I0204 08:47:10.531994 31953 layer_factory.hpp:77] Creating layer conv3
I0204 08:47:10.532006 31953 net.cpp:106] Creating Layer conv3
I0204 08:47:10.532011 31953 net.cpp:454] conv3 <- norm2
I0204 08:47:10.532022 31953 net.cpp:411] conv3 -> conv3
I0204 08:47:10.532057 31953 net.cpp:150] Setting up conv3
I0204 08:47:10.532065 31953 net.cpp:157] Top shape: 100 8 13 13 (135200)
I0204 08:47:10.532071 31953 net.cpp:165] Memory required for data: 80698400
I0204 08:47:10.532083 31953 layer_factory.hpp:77] Creating layer relu3
I0204 08:47:10.532094 31953 net.cpp:106] Creating Layer relu3
I0204 08:47:10.532100 31953 net.cpp:454] relu3 <- conv3
I0204 08:47:10.532109 31953 net.cpp:397] relu3 -> conv3 (in-place)
I0204 08:47:10.532116 31953 net.cpp:150] Setting up relu3
I0204 08:47:10.532124 31953 net.cpp:157] Top shape: 100 8 13 13 (135200)
I0204 08:47:10.532130 31953 net.cpp:165] Memory required for data: 81239200
I0204 08:47:10.532135 31953 layer_factory.hpp:77] Creating layer conv4
I0204 08:47:10.532146 31953 net.cpp:106] Creating Layer conv4
I0204 08:47:10.532152 31953 net.cpp:454] conv4 <- conv3
I0204 08:47:10.532162 31953 net.cpp:411] conv4 -> conv4
I0204 08:47:10.532186 31953 net.cpp:150] Setting up conv4
I0204 08:47:10.532194 31953 net.cpp:157] Top shape: 100 8 13 13 (135200)
I0204 08:47:10.532199 31953 net.cpp:165] Memory required for data: 81780000
I0204 08:47:10.532208 31953 layer_factory.hpp:77] Creating layer relu4
I0204 08:47:10.532217 31953 net.cpp:106] Creating Layer relu4
I0204 08:47:10.532222 31953 net.cpp:454] relu4 <- conv4
I0204 08:47:10.532229 31953 net.cpp:397] relu4 -> conv4 (in-place)
I0204 08:47:10.532238 31953 net.cpp:150] Setting up relu4
I0204 08:47:10.532248 31953 net.cpp:157] Top shape: 100 8 13 13 (135200)
I0204 08:47:10.532253 31953 net.cpp:165] Memory required for data: 82320800
I0204 08:47:10.532258 31953 layer_factory.hpp:77] Creating layer conv5
I0204 08:47:10.532274 31953 net.cpp:106] Creating Layer conv5
I0204 08:47:10.532287 31953 net.cpp:454] conv5 <- conv4
I0204 08:47:10.532296 31953 net.cpp:411] conv5 -> conv5
I0204 08:47:10.532322 31953 net.cpp:150] Setting up conv5
I0204 08:47:10.532331 31953 net.cpp:157] Top shape: 100 8 13 13 (135200)
I0204 08:47:10.532336 31953 net.cpp:165] Memory required for data: 82861600
I0204 08:47:10.532347 31953 layer_factory.hpp:77] Creating layer relu5
I0204 08:47:10.532356 31953 net.cpp:106] Creating Layer relu5
I0204 08:47:10.532362 31953 net.cpp:454] relu5 <- conv5
I0204 08:47:10.532371 31953 net.cpp:397] relu5 -> conv5 (in-place)
I0204 08:47:10.532379 31953 net.cpp:150] Setting up relu5
I0204 08:47:10.532388 31953 net.cpp:157] Top shape: 100 8 13 13 (135200)
I0204 08:47:10.532394 31953 net.cpp:165] Memory required for data: 83402400
I0204 08:47:10.532400 31953 layer_factory.hpp:77] Creating layer pool5
I0204 08:47:10.532409 31953 net.cpp:106] Creating Layer pool5
I0204 08:47:10.532415 31953 net.cpp:454] pool5 <- conv5
I0204 08:47:10.532424 31953 net.cpp:411] pool5 -> pool5
I0204 08:47:10.532435 31953 net.cpp:150] Setting up pool5
I0204 08:47:10.532443 31953 net.cpp:157] Top shape: 100 8 6 6 (28800)
I0204 08:47:10.532449 31953 net.cpp:165] Memory required for data: 83517600
I0204 08:47:10.532454 31953 layer_factory.hpp:77] Creating layer fc6
I0204 08:47:10.532472 31953 net.cpp:106] Creating Layer fc6
I0204 08:47:10.532480 31953 net.cpp:454] fc6 <- pool5
I0204 08:47:10.532488 31953 net.cpp:411] fc6 -> fc6
I0204 08:47:10.533260 31953 net.cpp:150] Setting up fc6
I0204 08:47:10.533272 31953 net.cpp:157] Top shape: 100 256 (25600)
I0204 08:47:10.533278 31953 net.cpp:165] Memory required for data: 83620000
I0204 08:47:10.533288 31953 layer_factory.hpp:77] Creating layer relu6
I0204 08:47:10.533296 31953 net.cpp:106] Creating Layer relu6
I0204 08:47:10.533303 31953 net.cpp:454] relu6 <- fc6
I0204 08:47:10.533310 31953 net.cpp:397] relu6 -> fc6 (in-place)
I0204 08:47:10.533319 31953 net.cpp:150] Setting up relu6
I0204 08:47:10.533329 31953 net.cpp:157] Top shape: 100 256 (25600)
I0204 08:47:10.533334 31953 net.cpp:165] Memory required for data: 83722400
I0204 08:47:10.533339 31953 layer_factory.hpp:77] Creating layer drop6
I0204 08:47:10.533350 31953 net.cpp:106] Creating Layer drop6
I0204 08:47:10.533356 31953 net.cpp:454] drop6 <- fc6
I0204 08:47:10.533365 31953 net.cpp:397] drop6 -> fc6 (in-place)
I0204 08:47:10.533381 31953 net.cpp:150] Setting up drop6
I0204 08:47:10.533390 31953 net.cpp:157] Top shape: 100 256 (25600)
I0204 08:47:10.533395 31953 net.cpp:165] Memory required for data: 83824800
I0204 08:47:10.533401 31953 layer_factory.hpp:77] Creating layer fc7
I0204 08:47:10.534181 31953 net.cpp:106] Creating Layer fc7
I0204 08:47:10.534204 31953 net.cpp:454] fc7 <- fc6
I0204 08:47:10.534217 31953 net.cpp:411] fc7 -> fc7
I0204 08:47:10.534901 31953 net.cpp:150] Setting up fc7
I0204 08:47:10.534914 31953 net.cpp:157] Top shape: 100 256 (25600)
I0204 08:47:10.534920 31953 net.cpp:165] Memory required for data: 83927200
I0204 08:47:10.534936 31953 layer_factory.hpp:77] Creating layer relu7
I0204 08:47:10.534946 31953 net.cpp:106] Creating Layer relu7
I0204 08:47:10.534958 31953 net.cpp:454] relu7 <- fc7
I0204 08:47:10.534968 31953 net.cpp:397] relu7 -> fc7 (in-place)
I0204 08:47:10.534978 31953 net.cpp:150] Setting up relu7
I0204 08:47:10.534986 31953 net.cpp:157] Top shape: 100 256 (25600)
I0204 08:47:10.534993 31953 net.cpp:165] Memory required for data: 84029600
I0204 08:47:10.535001 31953 layer_factory.hpp:77] Creating layer drop7
I0204 08:47:10.535011 31953 net.cpp:106] Creating Layer drop7
I0204 08:47:10.535017 31953 net.cpp:454] drop7 <- fc7
I0204 08:47:10.535024 31953 net.cpp:397] drop7 -> fc7 (in-place)
I0204 08:47:10.535037 31953 net.cpp:150] Setting up drop7
I0204 08:47:10.535044 31953 net.cpp:157] Top shape: 100 256 (25600)
I0204 08:47:10.535050 31953 net.cpp:165] Memory required for data: 84132000
I0204 08:47:10.535058 31953 layer_factory.hpp:77] Creating layer fc8
I0204 08:47:10.535070 31953 net.cpp:106] Creating Layer fc8
I0204 08:47:10.535084 31953 net.cpp:454] fc8 <- fc7
I0204 08:47:10.535101 31953 net.cpp:411] fc8 -> fc8
I0204 08:47:10.535126 31953 net.cpp:150] Setting up fc8
I0204 08:47:10.535135 31953 net.cpp:157] Top shape: 100 2 (200)
I0204 08:47:10.535141 31953 net.cpp:165] Memory required for data: 84132800
I0204 08:47:10.535151 31953 layer_factory.hpp:77] Creating layer loss
I0204 08:47:10.535162 31953 net.cpp:106] Creating Layer loss
I0204 08:47:10.535169 31953 net.cpp:454] loss <- fc8
I0204 08:47:10.535176 31953 net.cpp:454] loss <- label
I0204 08:47:10.535187 31953 net.cpp:411] loss -> loss
I0204 08:47:10.535202 31953 layer_factory.hpp:77] Creating layer loss
…
I0204 08:47:10.541566 31953 net.cpp:322] The NetState phase (1) differed from the phase (0) specified by a rule in layer data
I0204 08:47:10.541872 31953 net.cpp:49] Initializing net from parameters: 
name: "CaffeNet"
state {
  phase: TEST
}
layer {
  name: "data"
  type: "Data"
  top: "data"
  top: "label"
  include {
    phase: TEST
  }
  transform_param {
    mirror: false
    crop_size: 227
    mean_file: "/home/pearlstl/proj_cv/master/lmdb/synth1_test_lum_db/mean_file.binaryproto"
  }
  data_param {
    source: "/home/pearlstl/proj_cv/master/lmdb/synth1_test_lum_db"
    batch_size: 100
    backend: LMDB
  }
}
layer {
  name: "conv1"
  type: "Convolution"
  bottom: "data"
  top: "conv1"
  param {
    lr_mult: 1
    decay_mult: 1
  }
  param {
    lr_mult: 2
    decay_mult: 0
  }
  convolution_param {
    num_output: 16
    kernel_size: 11
    stride: 4
    weight_filler {
      type: "xavier"
    }
    bias_filler {
      type: "constant"
      value: 0
    }
  }
}
layer {
  name: "relu1"
  type: "ReLU"
  bottom: "conv1"
  top: "conv1"
}
layer {
  name: "pool1"
  type: "Pooling"
  bottom: "conv1"
  top: "pool1"
  pooling_param {
    pool: MAX
    kernel_size: 3
    stride: 2
  }
}
layer {
  name: "norm1"
  type: "LRN"
  bottom: "pool1"
  top: "norm1"
  lrn_param {
    local_size: 5
    alpha: 0.0001
    beta: 0.75
  }
}
layer {
  name: "conv2"
  type: "Convolution"
  bottom: "norm1"
  top: "conv2"
  param {
    lr_mult: 1
    decay_mult: 1
  }
  param {
    lr_mult: 2
    decay_mult: 0
  }
  convolution_param {
    num_output: 16
    pad: 2
    kernel_size: 5
    group: 2
    weight_filler {
      type: "xavier"
    }
    bias_filler {
      type: "constant"
      value: 1
    }
  }
}
layer {
  name: "relu2"
  type: "ReLU"
  bottom: "conv2"
  top: "conv2"
}
layer {
  name: "pool2"
  type: "Pooling"
  bottom: "conv2"
  top: "pool2"
  pooling_param {
    pool: MAX
    kernel_size: 3
    stride: 2
  }
}
layer {
  name: "norm2"
  type: "LRN"
  bottom: "pool2"
  top: "norm2"
  lrn_param {
    local_size: 5
    alpha: 0.0001
    beta: 0.75
  }
}
layer {
  name: "conv3"
  type: "Convolution"
  bottom: "norm2"
  top: "conv3"
  param {
    lr_mult: 1
    decay_mult: 1
  }
  param {
    lr_mult: 2
    decay_mult: 0
  }
  convolution_param {
    num_output: 8
    pad: 1
    kernel_size: 3
    weight_filler {
      type: "xavier"
    }
    bias_filler {
      type: "constant"
      value: 0
    }
  }
}
layer {
  name: "relu3"
  type: "ReLU"
  bottom: "conv3"
  top: "conv3"
}
layer {
  name: "conv4"
  type: "Convolution"
  bottom: "conv3"
  top: "conv4"
  param {
    lr_mult: 1
    decay_mult: 1
  }
  param {
    lr_mult: 2
    decay_mult: 0
  }
  convolution_param {
    num_output: 8
    pad: 1
    kernel_size: 3
    group: 2
    weight_filler {
      type: "xavier"
    }
    bias_filler {
      type: "constant"
      value: 1
    }
  }
}
layer {
  name: "relu4"
  type: "ReLU"
  bottom: "conv4"
  top: "conv4"
}
layer {
  name: "conv5"
  type: "Convolution"
  bottom: "conv4"
  top: "conv5"
  param {
    lr_mult: 1
    decay_mult: 1
  }
  param {
    lr_mult: 2
    decay_mult: 0
  }
  convolution_param {
    num_output: 8
    pad: 1
    kernel_size: 3
    group: 2
    weight_filler {
      type: "xavier"
    }
    bias_filler {
      type: "constant"
      value: 1
    }
  }
}
layer {
  name: "relu5"
  type: "ReLU"
  bottom: "conv5"
  top: "conv5"
}
layer {
  name: "pool5"
  type: "Pooling"
  bottom: "conv5"
  top: "pool5"
  pooling_param {
    pool: MAX
    kernel_size: 3
    stride: 2
  }
}
layer {
  name: "fc6"
  type: "InnerProduct"
  bottom: "pool5"
  top: "fc6"
  param {
    lr_mult: 1
    decay_mult: 1
  }
  param {
    lr_mult: 2
    decay_mult: 0
  }
  inner_product_param {
    num_output: 256
    weight_filler {
      type: "xavier"
    }
    bias_filler {
      type: "constant"
      value: 1
    }
  }
}
layer {
  name: "relu6"
  type: "ReLU"
  bottom: "fc6"
  top: "fc6"
}
layer {
  name: "drop6"
  type: "Dropout"
  bottom: "fc6"
  top: "fc6"
  dropout_param {
    dropout_ratio: 0.5
  }
}
layer {
  name: "fc7"
  type: "InnerProduct"
  bottom: "fc6"
  top: "fc7"
  param {
    lr_mult: 1
    decay_mult: 1
  }
  param {
    lr_mult: 2
    decay_mult: 0
  }
  inner_product_param {
    num_output: 256
    weight_filler {
      type: "xavier"
    }
    bias_filler {
      type: "constant"
      value: 1
    }
  }
}
layer {
  name: "relu7"
  type: "ReLU"
  bottom: "fc7"
  top: "fc7"
}
layer {
  name: "drop7"
  type: "Dropout"
  bottom: "fc7"
  top: "fc7"
  dropout_param {
    dropout_ratio: 0.5
  }
}
layer {
  name: "fc8"
  type: "InnerProduct"
  bottom: "fc7"
  top: "fc8"
  param {
    lr_mult: 1
    decay_mult: 1
  }
  param {
    lr_mult: 2
    decay_mult: 0
  }
  inner_product_param {
    num_output: 2
    weight_filler {
      type: "xavier"
    }
    bias_filler {
      type: "constant"
      value: 0
    }
  }
}
layer {
  name: "accuracy"
  type: "Accuracy"
  bottom: "fc8"
  bottom: "label"
  top: "accuracy"
  include {
    phase: TEST
  }
}
layer {
  name: "loss"
  type: "SoftmaxWithLoss"
  bottom: "fc8"
  bottom: "label"
  top: "loss"
}
I0204 08:47:10.542059 31953 layer_factory.hpp:77] Creating layer data
I0204 08:47:10.542209 31953 net.cpp:106] Creating Layer data
I0204 08:47:10.542222 31953 net.cpp:411] data -> data
I0204 08:47:10.542239 31953 net.cpp:411] data -> label
I0204 08:47:10.542251 31953 data_transformer.cpp:25] Loading mean file from: /home/pearlstl/proj_cv/master/lmdb/synth1_test_lum_db/mean_file.binaryproto
I0204 08:47:10.549382 31969 db_lmdb.cpp:38] Opened lmdb /home/pearlstl/proj_cv/master/lmdb/synth1_test_lum_db
I0204 08:47:10.551306 31953 data_layer.cpp:41] output data size: 100,1,227,227
I0204 08:47:10.584388 31953 net.cpp:150] Setting up data
I0204 08:47:10.584420 31953 net.cpp:157] Top shape: 100 1 227 227 (5152900)
I0204 08:47:10.584429 31953 net.cpp:157] Top shape: 100 (100)
I0204 08:47:10.584436 31953 net.cpp:165] Memory required for data: 20612000
I0204 08:47:10.584445 31953 layer_factory.hpp:77] Creating layer label_data_1_split
I0204 08:47:10.584465 31953 net.cpp:106] Creating Layer label_data_1_split
I0204 08:47:10.584472 31953 net.cpp:454] label_data_1_split <- label
I0204 08:47:10.584483 31953 net.cpp:411] label_data_1_split -> label_data_1_split_0
I0204 08:47:10.584498 31953 net.cpp:411] label_data_1_split -> label_data_1_split_1
I0204 08:47:10.584512 31953 net.cpp:150] Setting up label_data_1_split
I0204 08:47:10.584520 31953 net.cpp:157] Top shape: 100 (100)
I0204 08:47:10.584527 31953 net.cpp:157] Top shape: 100 (100)
I0204 08:47:10.584532 31953 net.cpp:165] Memory required for data: 20612800
I0204 08:47:10.584538 31953 layer_factory.hpp:77] Creating layer conv1
I0204 08:47:10.584554 31953 net.cpp:106] Creating Layer conv1
I0204 08:47:10.584561 31953 net.cpp:454] conv1 <- data
I0204 08:47:10.584571 31953 net.cpp:411] conv1 -> conv1
I0204 08:47:10.584624 31953 net.cpp:150] Setting up conv1
I0204 08:47:10.584635 31953 net.cpp:157] Top shape: 100 16 55 55 (4840000)
I0204 08:47:10.584640 31953 net.cpp:165] Memory required for data: 39972800
I0204 08:47:10.584655 31953 layer_factory.hpp:77] Creating layer relu1
I0204 08:47:10.584666 31953 net.cpp:106] Creating Layer relu1
I0204 08:47:10.584671 31953 net.cpp:454] relu1 <- conv1
I0204 08:47:10.584681 31953 net.cpp:397] relu1 -> conv1 (in-place)
I0204 08:47:10.584691 31953 net.cpp:150] Setting up relu1
I0204 08:47:10.584697 31953 net.cpp:157] Top shape: 100 16 55 55 (4840000)
I0204 08:47:10.584703 31953 net.cpp:165] Memory required for data: 59332800
I0204 08:47:10.584709 31953 layer_factory.hpp:77] Creating layer pool1
I0204 08:47:10.584720 31953 net.cpp:106] Creating Layer pool1
I0204 08:47:10.584728 31953 net.cpp:454] pool1 <- conv1
I0204 08:47:10.584736 31953 net.cpp:411] pool1 -> pool1
I0204 08:47:10.584749 31953 net.cpp:150] Setting up pool1
I0204 08:47:10.584758 31953 net.cpp:157] Top shape: 100 16 27 27 (1166400)
I0204 08:47:10.584764 31953 net.cpp:165] Memory required for data: 63998400
I0204 08:47:10.584769 31953 layer_factory.hpp:77] Creating layer norm1
I0204 08:47:10.584780 31953 net.cpp:106] Creating Layer norm1
I0204 08:47:10.584786 31953 net.cpp:454] norm1 <- pool1
I0204 08:47:10.584794 31953 net.cpp:411] norm1 -> norm1
I0204 08:47:10.584805 31953 net.cpp:150] Setting up norm1
I0204 08:47:10.584812 31953 net.cpp:157] Top shape: 100 16 27 27 (1166400)
I0204 08:47:10.584818 31953 net.cpp:165] Memory required for data: 68664000
I0204 08:47:10.584825 31953 layer_factory.hpp:77] Creating layer conv2
I0204 08:47:10.584836 31953 net.cpp:106] Creating Layer conv2
I0204 08:47:10.584842 31953 net.cpp:454] conv2 <- norm1
I0204 08:47:10.584851 31953 net.cpp:411] conv2 -> conv2
I0204 08:47:10.584902 31953 net.cpp:150] Setting up conv2
I0204 08:47:10.584910 31953 net.cpp:157] Top shape: 100 16 27 27 (1166400)
I0204 08:47:10.584915 31953 net.cpp:165] Memory required for data: 73329600
I0204 08:47:10.584926 31953 layer_factory.hpp:77] Creating layer relu2
I0204 08:47:10.584936 31953 net.cpp:106] Creating Layer relu2
I0204 08:47:10.584942 31953 net.cpp:454] relu2 <- conv2
I0204 08:47:10.584954 31953 net.cpp:397] relu2 -> conv2 (in-place)
I0204 08:47:10.584969 31953 net.cpp:150] Setting up relu2
I0204 08:47:10.584986 31953 net.cpp:157] Top shape: 100 16 27 27 (1166400)
I0204 08:47:10.584991 31953 net.cpp:165] Memory required for data: 77995200
I0204 08:47:10.584997 31953 layer_factory.hpp:77] Creating layer pool2
I0204 08:47:10.585007 31953 net.cpp:106] Creating Layer pool2
I0204 08:47:10.585013 31953 net.cpp:454] pool2 <- conv2
I0204 08:47:10.585022 31953 net.cpp:411] pool2 -> pool2
I0204 08:47:10.585050 31953 net.cpp:150] Setting up pool2
I0204 08:47:10.585060 31953 net.cpp:157] Top shape: 100 16 13 13 (270400)
I0204 08:47:10.585065 31953 net.cpp:165] Memory required for data: 79076800
I0204 08:47:10.585072 31953 layer_factory.hpp:77] Creating layer norm2
I0204 08:47:10.585081 31953 net.cpp:106] Creating Layer norm2
I0204 08:47:10.585088 31953 net.cpp:454] norm2 <- pool2
I0204 08:47:10.585100 31953 net.cpp:411] norm2 -> norm2
I0204 08:47:10.585110 31953 net.cpp:150] Setting up norm2
I0204 08:47:10.585117 31953 net.cpp:157] Top shape: 100 16 13 13 (270400)
I0204 08:47:10.585124 31953 net.cpp:165] Memory required for data: 80158400
I0204 08:47:10.585129 31953 layer_factory.hpp:77] Creating layer conv3
I0204 08:47:10.585139 31953 net.cpp:106] Creating Layer conv3
I0204 08:47:10.585145 31953 net.cpp:454] conv3 <- norm2
I0204 08:47:10.585155 31953 net.cpp:411] conv3 -> conv3
I0204 08:47:10.585186 31953 net.cpp:150] Setting up conv3
I0204 08:47:10.585194 31953 net.cpp:157] Top shape: 100 8 13 13 (135200)
I0204 08:47:10.585201 31953 net.cpp:165] Memory required for data: 80699200
I0204 08:47:10.585211 31953 layer_factory.hpp:77] Creating layer relu3
I0204 08:47:10.585221 31953 net.cpp:106] Creating Layer relu3
I0204 08:47:10.585227 31953 net.cpp:454] relu3 <- conv3
I0204 08:47:10.585234 31953 net.cpp:397] relu3 -> conv3 (in-place)
I0204 08:47:10.585243 31953 net.cpp:150] Setting up relu3
I0204 08:47:10.585250 31953 net.cpp:157] Top shape: 100 8 13 13 (135200)
I0204 08:47:10.585257 31953 net.cpp:165] Memory required for data: 81240000
I0204 08:47:10.585263 31953 layer_factory.hpp:77] Creating layer conv4
I0204 08:47:10.585273 31953 net.cpp:106] Creating Layer conv4
I0204 08:47:10.585278 31953 net.cpp:454] conv4 <- conv3
I0204 08:47:10.585286 31953 net.cpp:411] conv4 -> conv4
I0204 08:47:10.585309 31953 net.cpp:150] Setting up conv4
I0204 08:47:10.585316 31953 net.cpp:157] Top shape: 100 8 13 13 (135200)
I0204 08:47:10.585321 31953 net.cpp:165] Memory required for data: 81780800
I0204 08:47:10.585330 31953 layer_factory.hpp:77] Creating layer relu4
I0204 08:47:10.585338 31953 net.cpp:106] Creating Layer relu4
I0204 08:47:10.585345 31953 net.cpp:454] relu4 <- conv4
I0204 08:47:10.585352 31953 net.cpp:397] relu4 -> conv4 (in-place)
I0204 08:47:10.585361 31953 net.cpp:150] Setting up relu4
I0204 08:47:10.585368 31953 net.cpp:157] Top shape: 100 8 13 13 (135200)
I0204 08:47:10.585374 31953 net.cpp:165] Memory required for data: 82321600
I0204 08:47:10.585381 31953 layer_factory.hpp:77] Creating layer conv5
I0204 08:47:10.585391 31953 net.cpp:106] Creating Layer conv5
I0204 08:47:10.585397 31953 net.cpp:454] conv5 <- conv4
I0204 08:47:10.585405 31953 net.cpp:411] conv5 -> conv5
I0204 08:47:10.585433 31953 net.cpp:150] Setting up conv5
I0204 08:47:10.585441 31953 net.cpp:157] Top shape: 100 8 13 13 (135200)
I0204 08:47:10.585446 31953 net.cpp:165] Memory required for data: 82862400
I0204 08:47:10.585458 31953 layer_factory.hpp:77] Creating layer relu5
I0204 08:47:10.585466 31953 net.cpp:106] Creating Layer relu5
I0204 08:47:10.585472 31953 net.cpp:454] relu5 <- conv5
I0204 08:47:10.585480 31953 net.cpp:397] relu5 -> conv5 (in-place)
I0204 08:47:10.585489 31953 net.cpp:150] Setting up relu5
I0204 08:47:10.585495 31953 net.cpp:157] Top shape: 100 8 13 13 (135200)
I0204 08:47:10.585501 31953 net.cpp:165] Memory required for data: 83403200
I0204 08:47:10.585507 31953 layer_factory.hpp:77] Creating layer pool5
I0204 08:47:10.585518 31953 net.cpp:106] Creating Layer pool5
I0204 08:47:10.585525 31953 net.cpp:454] pool5 <- conv5
I0204 08:47:10.585532 31953 net.cpp:411] pool5 -> pool5
I0204 08:47:10.585551 31953 net.cpp:150] Setting up pool5
I0204 08:47:10.585564 31953 net.cpp:157] Top shape: 100 8 6 6 (28800)
I0204 08:47:10.585569 31953 net.cpp:165] Memory required for data: 83518400
I0204 08:47:10.585575 31953 layer_factory.hpp:77] Creating layer fc6
I0204 08:47:10.585587 31953 net.cpp:106] Creating Layer fc6
I0204 08:47:10.585593 31953 net.cpp:454] fc6 <- pool5
I0204 08:47:10.585602 31953 net.cpp:411] fc6 -> fc6
I0204 08:47:10.593580 31953 net.cpp:150] Setting up fc6
I0204 08:47:10.593618 31953 net.cpp:157] Top shape: 100 256 (25600)
I0204 08:47:10.593626 31953 net.cpp:165] Memory required for data: 83620800
I0204 08:47:10.593641 31953 layer_factory.hpp:77] Creating layer relu6
I0204 08:47:10.593654 31953 net.cpp:106] Creating Layer relu6
I0204 08:47:10.593663 31953 net.cpp:454] relu6 <- fc6
I0204 08:47:10.593675 31953 net.cpp:397] relu6 -> fc6 (in-place)
I0204 08:47:10.593689 31953 net.cpp:150] Setting up relu6
I0204 08:47:10.593698 31953 net.cpp:157] Top shape: 100 256 (25600)
I0204 08:47:10.593704 31953 net.cpp:165] Memory required for data: 83723200
I0204 08:47:10.593711 31953 layer_factory.hpp:77] Creating layer drop6
I0204 08:47:10.593722 31953 net.cpp:106] Creating Layer drop6
I0204 08:47:10.593729 31953 net.cpp:454] drop6 <- fc6
I0204 08:47:10.593740 31953 net.cpp:397] drop6 -> fc6 (in-place)
I0204 08:47:10.593755 31953 net.cpp:150] Setting up drop6
I0204 08:47:10.593763 31953 net.cpp:157] Top shape: 100 256 (25600)
I0204 08:47:10.593770 31953 net.cpp:165] Memory required for data: 83825600
I0204 08:47:10.593775 31953 layer_factory.hpp:77] Creating layer fc7
I0204 08:47:10.593788 31953 net.cpp:106] Creating Layer fc7
I0204 08:47:10.593794 31953 net.cpp:454] fc7 <- fc6
I0204 08:47:10.593806 31953 net.cpp:411] fc7 -> fc7
I0204 08:47:10.594565 31953 net.cpp:150] Setting up fc7
I0204 08:47:10.594579 31953 net.cpp:157] Top shape: 100 256 (25600)
I0204 08:47:10.594585 31953 net.cpp:165] Memory required for data: 83928000
I0204 08:47:10.594595 31953 layer_factory.hpp:77] Creating layer relu7
I0204 08:47:10.594609 31953 net.cpp:106] Creating Layer relu7
I0204 08:47:10.594616 31953 net.cpp:454] relu7 <- fc7
I0204 08:47:10.594625 31953 net.cpp:397] relu7 -> fc7 (in-place)
I0204 08:47:10.594635 31953 net.cpp:150] Setting up relu7
I0204 08:47:10.594643 31953 net.cpp:157] Top shape: 100 256 (25600)
I0204 08:47:10.594650 31953 net.cpp:165] Memory required for data: 84030400
I0204 08:47:10.594655 31953 layer_factory.hpp:77] Creating layer drop7
I0204 08:47:10.594666 31953 net.cpp:106] Creating Layer drop7
I0204 08:47:10.594671 31953 net.cpp:454] drop7 <- fc7
I0204 08:47:10.594683 31953 net.cpp:397] drop7 -> fc7 (in-place)
I0204 08:47:10.594696 31953 net.cpp:150] Setting up drop7
I0204 08:47:10.594702 31953 net.cpp:157] Top shape: 100 256 (25600)
I0204 08:47:10.594709 31953 net.cpp:165] Memory required for data: 84132800
I0204 08:47:10.594715 31953 layer_factory.hpp:77] Creating layer fc8
I0204 08:47:10.594725 31953 net.cpp:106] Creating Layer fc8
I0204 08:47:10.594732 31953 net.cpp:454] fc8 <- fc7
I0204 08:47:10.594743 31953 net.cpp:411] fc8 -> fc8
I0204 08:47:10.594774 31953 net.cpp:150] Setting up fc8
I0204 08:47:10.594784 31953 net.cpp:157] Top shape: 100 2 (200)
I0204 08:47:10.594790 31953 net.cpp:165] Memory required for data: 84133600
I0204 08:47:10.594799 31953 layer_factory.hpp:77] Creating layer fc8_fc8_0_split
I0204 08:47:10.594808 31953 net.cpp:106] Creating Layer fc8_fc8_0_split
I0204 08:47:10.594815 31953 net.cpp:454] fc8_fc8_0_split <- fc8
I0204 08:47:10.594826 31953 net.cpp:411] fc8_fc8_0_split -> fc8_fc8_0_split_0
I0204 08:47:10.594840 31953 net.cpp:411] fc8_fc8_0_split -> fc8_fc8_0_split_1
I0204 08:47:10.594851 31953 net.cpp:150] Setting up fc8_fc8_0_split
I0204 08:47:10.594858 31953 net.cpp:157] Top shape: 100 2 (200)
I0204 08:47:10.594866 31953 net.cpp:157] Top shape: 100 2 (200)
I0204 08:47:10.594871 31953 net.cpp:165] Memory required for data: 84135200
I0204 08:47:10.594877 31953 layer_factory.hpp:77] Creating layer accuracy
I0204 08:47:10.594890 31953 net.cpp:106] Creating Layer accuracy
I0204 08:47:10.594907 31953 net.cpp:454] accuracy <- fc8_fc8_0_split_0
I0204 08:47:10.594925 31953 net.cpp:454] accuracy <- label_data_1_split_0
I0204 08:47:10.594938 31953 net.cpp:411] accuracy -> accuracy
…
