…
I0205 00:09:44.547418 10652 net.cpp:322] The NetState phase (0) differed from the phase (1) specified by a rule in layer accuracy
I0205 00:09:44.547678 10652 net.cpp:49] Initializing net from parameters: 
name: "CaffeNet"
state {
  phase: TRAIN
}
layer {
  name: "data"
  type: "Data"
  top: "data"
  top: "label"
  include {
    phase: TRAIN
  }
  transform_param {
    mirror: true
    crop_size: 227
    mean_file: "/home/pearlstl/proj_cv/master/lmdb/synth1_train_lum_db/mean_file.binaryproto"
  }
  data_param {
    source: "/home/pearlstl/proj_cv/master/lmdb/synth1_train_lum_db"
    batch_size: 100
    backend: LMDB
  }
}
layer {
  name: "conv1"
  type: "Convolution"
  bottom: "data"
  top: "conv1"
  param {
    lr_mult: 1
    decay_mult: 1
  }
  param {
    lr_mult: 2
    decay_mult: 0
  }
  convolution_param {
    num_output: 8
    kernel_size: 11
    stride: 4
    weight_filler {
      type: "xavier"
    }
    bias_filler {
      type: "constant"
      value: 0
    }
  }
}
layer {
  name: "relu1"
  type: "ReLU"
  bottom: "conv1"
  top: "conv1"
}
layer {
  name: "pool1"
  type: "Pooling"
  bottom: "conv1"
  top: "pool1"
  pooling_param {
    pool: MAX
    kernel_size: 3
    stride: 2
  }
}
layer {
  name: "norm1"
  type: "LRN"
  bottom: "pool1"
  top: "norm1"
  lrn_param {
    local_size: 5
    alpha: 0.0001
    beta: 0.75
  }
}
layer {
  name: "conv2"
  type: "Convolution"
  bottom: "norm1"
  top: "conv2"
  param {
    lr_mult: 1
    decay_mult: 1
  }
  param {
    lr_mult: 2
    decay_mult: 0
  }
  convolution_param {
    num_output: 8
    pad: 2
    kernel_size: 5
    group: 2
    weight_filler {
      type: "xavier"
    }
    bias_filler {
      type: "constant"
      value: 1
    }
  }
}
layer {
  name: "relu2"
  type: "ReLU"
  bottom: "conv2"
  top: "conv2"
}
layer {
  name: "pool2"
  type: "Pooling"
  bottom: "conv2"
  top: "pool2"
  pooling_param {
    pool: MAX
    kernel_size: 3
    stride: 2
  }
}
layer {
  name: "norm2"
  type: "LRN"
  bottom: "pool2"
  top: "norm2"
  lrn_param {
    local_size: 5
    alpha: 0.0001
    beta: 0.75
  }
}
layer {
  name: "conv3"
  type: "Convolution"
  bottom: "norm2"
  top: "conv3"
  param {
    lr_mult: 1
    decay_mult: 1
  }
  param {
    lr_mult: 2
    decay_mult: 0
  }
  convolution_param {
    num_output: 8
    pad: 1
    kernel_size: 3
    weight_filler {
      type: "xavier"
    }
    bias_filler {
      type: "constant"
      value: 0
    }
  }
}
layer {
  name: "relu3"
  type: "ReLU"
  bottom: "conv3"
  top: "conv3"
}
layer {
  name: "conv4"
  type: "Convolution"
  bottom: "conv3"
  top: "conv4"
  param {
    lr_mult: 1
    decay_mult: 1
  }
  param {
    lr_mult: 2
    decay_mult: 0
  }
  convolution_param {
    num_output: 8
    pad: 1
    kernel_size: 3
    group: 2
    weight_filler {
      type: "xavier"
    }
    bias_filler {
      type: "constant"
      value: 1
    }
  }
}
layer {
  name: "relu4"
  type: "ReLU"
  bottom: "conv4"
  top: "conv4"
}
layer {
  name: "conv5"
  type: "Convolution"
  bottom: "conv4"
  top: "conv5"
  param {
    lr_mult: 1
    decay_mult: 1
  }
  param {
    lr_mult: 2
    decay_mult: 0
  }
  convolution_param {
    num_output: 8
    pad: 1
    kernel_size: 3
    group: 2
    weight_filler {
      type: "xavier"
    }
    bias_filler {
      type: "constant"
      value: 1
    }
  }
}
layer {
  name: "relu5"
  type: "ReLU"
  bottom: "conv5"
  top: "conv5"
}
layer {
  name: "pool5"
  type: "Pooling"
  bottom: "conv5"
  top: "pool5"
  pooling_param {
    pool: MAX
    kernel_size: 3
    stride: 2
  }
}
layer {
  name: "fc6"
  type: "InnerProduct"
  bottom: "pool5"
  top: "fc6"
  param {
    lr_mult: 1
    decay_mult: 1
  }
  param {
    lr_mult: 2
    decay_mult: 0
  }
  inner_product_param {
    num_output: 256
    weight_filler {
      type: "xavier"
    }
    bias_filler {
      type: "constant"
      value: 1
    }
  }
}
layer {
  name: "relu6"
  type: "ReLU"
  bottom: "fc6"
  top: "fc6"
}
layer {
  name: "drop6"
  type: "Dropout"
  bottom: "fc6"
  top: "fc6"
  dropout_param {
    dropout_ratio: 0.5
  }
}
layer {
  name: "fc7"
  type: "InnerProduct"
  bottom: "fc6"
  top: "fc7"
  param {
    lr_mult: 1
    decay_mult: 1
  }
  param {
    lr_mult: 2
    decay_mult: 0
  }
  inner_product_param {
    num_output: 256
    weight_filler {
      type: "xavier"
    }
    bias_filler {
      type: "constant"
      value: 1
    }
  }
}
layer {
  name: "relu7"
  type: "ReLU"
  bottom: "fc7"
  top: "fc7"
}
layer {
  name: "drop7"
  type: "Dropout"
  bottom: "fc7"
  top: "fc7"
  dropout_param {
    dropout_ratio: 0.5
  }
}
layer {
  name: "fc8"
  type: "InnerProduct"
  bottom: "fc7"
  top: "fc8"
  param {
    lr_mult: 1
    decay_mult: 1
  }
  param {
    lr_mult: 2
    decay_mult: 0
  }
  inner_product_param {
    num_output: 2
    weight_filler {
      type: "xavier"
    }
    bias_filler {
      type: "constant"
      value: 0
    }
  }
}
layer {
  name: "loss"
  type: "SoftmaxWithLoss"
  bottom: "fc8"
  bottom: "label"
  top: "loss"
}
I0205 00:09:44.547824 10652 layer_factory.hpp:77] Creating layer data
I0205 00:09:44.548028 10652 net.cpp:106] Creating Layer data
I0205 00:09:44.548048 10652 net.cpp:411] data -> data
I0205 00:09:44.548167 10652 net.cpp:411] data -> label
I0205 00:09:44.548194 10652 data_transformer.cpp:25] Loading mean file from: /home/pearlstl/proj_cv/master/lmdb/synth1_train_lum_db/mean_file.binaryproto
I0205 00:09:44.548403 10653 db_lmdb.cpp:38] Opened lmdb /home/pearlstl/proj_cv/master/lmdb/synth1_train_lum_db
I0205 00:09:44.549476 10652 data_layer.cpp:41] output data size: 100,1,227,227
I0205 00:09:44.585942 10652 net.cpp:150] Setting up data
I0205 00:09:44.586005 10652 net.cpp:157] Top shape: 100 1 227 227 (5152900)
I0205 00:09:44.586015 10652 net.cpp:157] Top shape: 100 (100)
I0205 00:09:44.586021 10652 net.cpp:165] Memory required for data: 20612000
I0205 00:09:44.586035 10652 layer_factory.hpp:77] Creating layer conv1
I0205 00:09:44.586067 10652 net.cpp:106] Creating Layer conv1
I0205 00:09:44.586076 10652 net.cpp:454] conv1 <- data
I0205 00:09:44.586092 10652 net.cpp:411] conv1 -> conv1
I0205 00:09:44.586192 10652 net.cpp:150] Setting up conv1
I0205 00:09:44.586205 10652 net.cpp:157] Top shape: 100 8 55 55 (2420000)
I0205 00:09:44.586210 10652 net.cpp:165] Memory required for data: 30292000
I0205 00:09:44.586236 10652 layer_factory.hpp:77] Creating layer relu1
I0205 00:09:44.586246 10652 net.cpp:106] Creating Layer relu1
I0205 00:09:44.586252 10652 net.cpp:454] relu1 <- conv1
I0205 00:09:44.586261 10652 net.cpp:397] relu1 -> conv1 (in-place)
I0205 00:09:44.586273 10652 net.cpp:150] Setting up relu1
I0205 00:09:44.586280 10652 net.cpp:157] Top shape: 100 8 55 55 (2420000)
I0205 00:09:44.586287 10652 net.cpp:165] Memory required for data: 39972000
I0205 00:09:44.586293 10652 layer_factory.hpp:77] Creating layer pool1
I0205 00:09:44.586302 10652 net.cpp:106] Creating Layer pool1
I0205 00:09:44.586308 10652 net.cpp:454] pool1 <- conv1
I0205 00:09:44.586315 10652 net.cpp:411] pool1 -> pool1
I0205 00:09:44.586338 10652 net.cpp:150] Setting up pool1
I0205 00:09:44.586346 10652 net.cpp:157] Top shape: 100 8 27 27 (583200)
I0205 00:09:44.586351 10652 net.cpp:165] Memory required for data: 42304800
I0205 00:09:44.586356 10652 layer_factory.hpp:77] Creating layer norm1
I0205 00:09:44.586377 10652 net.cpp:106] Creating Layer norm1
I0205 00:09:44.586391 10652 net.cpp:454] norm1 <- pool1
I0205 00:09:44.586400 10652 net.cpp:411] norm1 -> norm1
I0205 00:09:44.586416 10652 net.cpp:150] Setting up norm1
I0205 00:09:44.586424 10652 net.cpp:157] Top shape: 100 8 27 27 (583200)
I0205 00:09:44.586431 10652 net.cpp:165] Memory required for data: 44637600
I0205 00:09:44.586437 10652 layer_factory.hpp:77] Creating layer conv2
I0205 00:09:44.586447 10652 net.cpp:106] Creating Layer conv2
I0205 00:09:44.586453 10652 net.cpp:454] conv2 <- norm1
I0205 00:09:44.586462 10652 net.cpp:411] conv2 -> conv2
I0205 00:09:44.586491 10652 net.cpp:150] Setting up conv2
I0205 00:09:44.586499 10652 net.cpp:157] Top shape: 100 8 27 27 (583200)
I0205 00:09:44.586504 10652 net.cpp:165] Memory required for data: 46970400
I0205 00:09:44.586514 10652 layer_factory.hpp:77] Creating layer relu2
I0205 00:09:44.586522 10652 net.cpp:106] Creating Layer relu2
I0205 00:09:44.586527 10652 net.cpp:454] relu2 <- conv2
I0205 00:09:44.586535 10652 net.cpp:397] relu2 -> conv2 (in-place)
I0205 00:09:44.586544 10652 net.cpp:150] Setting up relu2
I0205 00:09:44.586550 10652 net.cpp:157] Top shape: 100 8 27 27 (583200)
I0205 00:09:44.586555 10652 net.cpp:165] Memory required for data: 49303200
I0205 00:09:44.586563 10652 layer_factory.hpp:77] Creating layer pool2
I0205 00:09:44.586571 10652 net.cpp:106] Creating Layer pool2
I0205 00:09:44.586576 10652 net.cpp:454] pool2 <- conv2
I0205 00:09:44.586585 10652 net.cpp:411] pool2 -> pool2
I0205 00:09:44.586594 10652 net.cpp:150] Setting up pool2
I0205 00:09:44.586601 10652 net.cpp:157] Top shape: 100 8 13 13 (135200)
I0205 00:09:44.586606 10652 net.cpp:165] Memory required for data: 49844000
I0205 00:09:44.586611 10652 layer_factory.hpp:77] Creating layer norm2
I0205 00:09:44.586619 10652 net.cpp:106] Creating Layer norm2
I0205 00:09:44.586626 10652 net.cpp:454] norm2 <- pool2
I0205 00:09:44.586632 10652 net.cpp:411] norm2 -> norm2
I0205 00:09:44.586642 10652 net.cpp:150] Setting up norm2
I0205 00:09:44.586647 10652 net.cpp:157] Top shape: 100 8 13 13 (135200)
I0205 00:09:44.586653 10652 net.cpp:165] Memory required for data: 50384800
I0205 00:09:44.586659 10652 layer_factory.hpp:77] Creating layer conv3
I0205 00:09:44.586668 10652 net.cpp:106] Creating Layer conv3
I0205 00:09:44.586673 10652 net.cpp:454] conv3 <- norm2
I0205 00:09:44.586681 10652 net.cpp:411] conv3 -> conv3
I0205 00:09:44.586710 10652 net.cpp:150] Setting up conv3
I0205 00:09:44.586719 10652 net.cpp:157] Top shape: 100 8 13 13 (135200)
I0205 00:09:44.586724 10652 net.cpp:165] Memory required for data: 50925600
I0205 00:09:44.586735 10652 layer_factory.hpp:77] Creating layer relu3
I0205 00:09:44.586746 10652 net.cpp:106] Creating Layer relu3
I0205 00:09:44.586751 10652 net.cpp:454] relu3 <- conv3
I0205 00:09:44.586760 10652 net.cpp:397] relu3 -> conv3 (in-place)
I0205 00:09:44.586767 10652 net.cpp:150] Setting up relu3
I0205 00:09:44.586773 10652 net.cpp:157] Top shape: 100 8 13 13 (135200)
I0205 00:09:44.586778 10652 net.cpp:165] Memory required for data: 51466400
I0205 00:09:44.586783 10652 layer_factory.hpp:77] Creating layer conv4
I0205 00:09:44.586793 10652 net.cpp:106] Creating Layer conv4
I0205 00:09:44.586798 10652 net.cpp:454] conv4 <- conv3
I0205 00:09:44.586807 10652 net.cpp:411] conv4 -> conv4
I0205 00:09:44.586828 10652 net.cpp:150] Setting up conv4
I0205 00:09:44.586835 10652 net.cpp:157] Top shape: 100 8 13 13 (135200)
I0205 00:09:44.586840 10652 net.cpp:165] Memory required for data: 52007200
I0205 00:09:44.586849 10652 layer_factory.hpp:77] Creating layer relu4
I0205 00:09:44.586858 10652 net.cpp:106] Creating Layer relu4
I0205 00:09:44.586863 10652 net.cpp:454] relu4 <- conv4
I0205 00:09:44.586870 10652 net.cpp:397] relu4 -> conv4 (in-place)
I0205 00:09:44.586879 10652 net.cpp:150] Setting up relu4
I0205 00:09:44.586885 10652 net.cpp:157] Top shape: 100 8 13 13 (135200)
I0205 00:09:44.586890 10652 net.cpp:165] Memory required for data: 52548000
I0205 00:09:44.586895 10652 layer_factory.hpp:77] Creating layer conv5
I0205 00:09:44.586910 10652 net.cpp:106] Creating Layer conv5
I0205 00:09:44.586921 10652 net.cpp:454] conv5 <- conv4
I0205 00:09:44.586930 10652 net.cpp:411] conv5 -> conv5
I0205 00:09:44.586951 10652 net.cpp:150] Setting up conv5
I0205 00:09:44.586958 10652 net.cpp:157] Top shape: 100 8 13 13 (135200)
I0205 00:09:44.586963 10652 net.cpp:165] Memory required for data: 53088800
I0205 00:09:44.586982 10652 layer_factory.hpp:77] Creating layer relu5
I0205 00:09:44.586990 10652 net.cpp:106] Creating Layer relu5
I0205 00:09:44.586997 10652 net.cpp:454] relu5 <- conv5
I0205 00:09:44.587004 10652 net.cpp:397] relu5 -> conv5 (in-place)
I0205 00:09:44.587013 10652 net.cpp:150] Setting up relu5
I0205 00:09:44.587018 10652 net.cpp:157] Top shape: 100 8 13 13 (135200)
I0205 00:09:44.587023 10652 net.cpp:165] Memory required for data: 53629600
I0205 00:09:44.587029 10652 layer_factory.hpp:77] Creating layer pool5
I0205 00:09:44.587036 10652 net.cpp:106] Creating Layer pool5
I0205 00:09:44.587041 10652 net.cpp:454] pool5 <- conv5
I0205 00:09:44.587049 10652 net.cpp:411] pool5 -> pool5
I0205 00:09:44.587059 10652 net.cpp:150] Setting up pool5
I0205 00:09:44.587065 10652 net.cpp:157] Top shape: 100 8 6 6 (28800)
I0205 00:09:44.587071 10652 net.cpp:165] Memory required for data: 53744800
I0205 00:09:44.587080 10652 layer_factory.hpp:77] Creating layer fc6
I0205 00:09:44.587095 10652 net.cpp:106] Creating Layer fc6
I0205 00:09:44.587100 10652 net.cpp:454] fc6 <- pool5
I0205 00:09:44.587108 10652 net.cpp:411] fc6 -> fc6
I0205 00:09:44.587939 10652 net.cpp:150] Setting up fc6
I0205 00:09:44.587951 10652 net.cpp:157] Top shape: 100 256 (25600)
I0205 00:09:44.587956 10652 net.cpp:165] Memory required for data: 53847200
I0205 00:09:44.587970 10652 layer_factory.hpp:77] Creating layer relu6
I0205 00:09:44.587981 10652 net.cpp:106] Creating Layer relu6
I0205 00:09:44.587987 10652 net.cpp:454] relu6 <- fc6
I0205 00:09:44.587995 10652 net.cpp:397] relu6 -> fc6 (in-place)
I0205 00:09:44.588003 10652 net.cpp:150] Setting up relu6
I0205 00:09:44.588011 10652 net.cpp:157] Top shape: 100 256 (25600)
I0205 00:09:44.588016 10652 net.cpp:165] Memory required for data: 53949600
I0205 00:09:44.588021 10652 layer_factory.hpp:77] Creating layer drop6
I0205 00:09:44.588028 10652 net.cpp:106] Creating Layer drop6
I0205 00:09:44.588034 10652 net.cpp:454] drop6 <- fc6
I0205 00:09:44.588042 10652 net.cpp:397] drop6 -> fc6 (in-place)
I0205 00:09:44.588057 10652 net.cpp:150] Setting up drop6
I0205 00:09:44.588064 10652 net.cpp:157] Top shape: 100 256 (25600)
I0205 00:09:44.588069 10652 net.cpp:165] Memory required for data: 54052000
I0205 00:09:44.588078 10652 layer_factory.hpp:77] Creating layer fc7
I0205 00:09:44.588086 10652 net.cpp:106] Creating Layer fc7
I0205 00:09:44.588093 10652 net.cpp:454] fc7 <- fc6
I0205 00:09:44.588099 10652 net.cpp:411] fc7 -> fc7
I0205 00:09:44.588830 10652 net.cpp:150] Setting up fc7
I0205 00:09:44.588845 10652 net.cpp:157] Top shape: 100 256 (25600)
I0205 00:09:44.588850 10652 net.cpp:165] Memory required for data: 54154400
I0205 00:09:44.588858 10652 layer_factory.hpp:77] Creating layer relu7
I0205 00:09:44.588865 10652 net.cpp:106] Creating Layer relu7
I0205 00:09:44.588871 10652 net.cpp:454] relu7 <- fc7
I0205 00:09:44.588878 10652 net.cpp:397] relu7 -> fc7 (in-place)
I0205 00:09:44.588887 10652 net.cpp:150] Setting up relu7
I0205 00:09:44.588893 10652 net.cpp:157] Top shape: 100 256 (25600)
I0205 00:09:44.588898 10652 net.cpp:165] Memory required for data: 54256800
I0205 00:09:44.588903 10652 layer_factory.hpp:77] Creating layer drop7
I0205 00:09:44.588914 10652 net.cpp:106] Creating Layer drop7
I0205 00:09:44.588919 10652 net.cpp:454] drop7 <- fc7
I0205 00:09:44.588927 10652 net.cpp:397] drop7 -> fc7 (in-place)
I0205 00:09:44.588937 10652 net.cpp:150] Setting up drop7
I0205 00:09:44.588943 10652 net.cpp:157] Top shape: 100 256 (25600)
I0205 00:09:44.588948 10652 net.cpp:165] Memory required for data: 54359200
I0205 00:09:44.588953 10652 layer_factory.hpp:77] Creating layer fc8
I0205 00:09:44.588971 10652 net.cpp:106] Creating Layer fc8
I0205 00:09:44.588984 10652 net.cpp:454] fc8 <- fc7
I0205 00:09:44.589000 10652 net.cpp:411] fc8 -> fc8
I0205 00:09:44.589026 10652 net.cpp:150] Setting up fc8
I0205 00:09:44.589033 10652 net.cpp:157] Top shape: 100 2 (200)
I0205 00:09:44.589038 10652 net.cpp:165] Memory required for data: 54360000
I0205 00:09:44.589046 10652 layer_factory.hpp:77] Creating layer loss
I0205 00:09:44.589056 10652 net.cpp:106] Creating Layer loss
I0205 00:09:44.589062 10652 net.cpp:454] loss <- fc8
I0205 00:09:44.589068 10652 net.cpp:454] loss <- label
I0205 00:09:44.589081 10652 net.cpp:411] loss -> loss
I0205 00:09:44.589094 10652 layer_factory.hpp:77] Creating layer loss
…
I0205 00:09:44.591125 10652 net.cpp:322] The NetState phase (1) differed from the phase (0) specified by a rule in layer data
I0205 00:09:44.591411 10652 net.cpp:49] Initializing net from parameters: 
name: "CaffeNet"
state {
  phase: TEST
}
layer {
  name: "data"
  type: "Data"
  top: "data"
  top: "label"
  include {
    phase: TEST
  }
  transform_param {
    mirror: false
    crop_size: 227
    mean_file: "/home/pearlstl/proj_cv/master/lmdb/synth1_test_lum_db/mean_file.binaryproto"
  }
  data_param {
    source: "/home/pearlstl/proj_cv/master/lmdb/synth1_test_lum_db"
    batch_size: 100
    backend: LMDB
  }
}
layer {
  name: "conv1"
  type: "Convolution"
  bottom: "data"
  top: "conv1"
  param {
    lr_mult: 1
    decay_mult: 1
  }
  param {
    lr_mult: 2
    decay_mult: 0
  }
  convolution_param {
    num_output: 8
    kernel_size: 11
    stride: 4
    weight_filler {
      type: "xavier"
    }
    bias_filler {
      type: "constant"
      value: 0
    }
  }
}
layer {
  name: "relu1"
  type: "ReLU"
  bottom: "conv1"
  top: "conv1"
}
layer {
  name: "pool1"
  type: "Pooling"
  bottom: "conv1"
  top: "pool1"
  pooling_param {
    pool: MAX
    kernel_size: 3
    stride: 2
  }
}
layer {
  name: "norm1"
  type: "LRN"
  bottom: "pool1"
  top: "norm1"
  lrn_param {
    local_size: 5
    alpha: 0.0001
    beta: 0.75
  }
}
layer {
  name: "conv2"
  type: "Convolution"
  bottom: "norm1"
  top: "conv2"
  param {
    lr_mult: 1
    decay_mult: 1
  }
  param {
    lr_mult: 2
    decay_mult: 0
  }
  convolution_param {
    num_output: 8
    pad: 2
    kernel_size: 5
    group: 2
    weight_filler {
      type: "xavier"
    }
    bias_filler {
      type: "constant"
      value: 1
    }
  }
}
layer {
  name: "relu2"
  type: "ReLU"
  bottom: "conv2"
  top: "conv2"
}
layer {
  name: "pool2"
  type: "Pooling"
  bottom: "conv2"
  top: "pool2"
  pooling_param {
    pool: MAX
    kernel_size: 3
    stride: 2
  }
}
layer {
  name: "norm2"
  type: "LRN"
  bottom: "pool2"
  top: "norm2"
  lrn_param {
    local_size: 5
    alpha: 0.0001
    beta: 0.75
  }
}
layer {
  name: "conv3"
  type: "Convolution"
  bottom: "norm2"
  top: "conv3"
  param {
    lr_mult: 1
    decay_mult: 1
  }
  param {
    lr_mult: 2
    decay_mult: 0
  }
  convolution_param {
    num_output: 8
    pad: 1
    kernel_size: 3
    weight_filler {
      type: "xavier"
    }
    bias_filler {
      type: "constant"
      value: 0
    }
  }
}
layer {
  name: "relu3"
  type: "ReLU"
  bottom: "conv3"
  top: "conv3"
}
layer {
  name: "conv4"
  type: "Convolution"
  bottom: "conv3"
  top: "conv4"
  param {
    lr_mult: 1
    decay_mult: 1
  }
  param {
    lr_mult: 2
    decay_mult: 0
  }
  convolution_param {
    num_output: 8
    pad: 1
    kernel_size: 3
    group: 2
    weight_filler {
      type: "xavier"
    }
    bias_filler {
      type: "constant"
      value: 1
    }
  }
}
layer {
  name: "relu4"
  type: "ReLU"
  bottom: "conv4"
  top: "conv4"
}
layer {
  name: "conv5"
  type: "Convolution"
  bottom: "conv4"
  top: "conv5"
  param {
    lr_mult: 1
    decay_mult: 1
  }
  param {
    lr_mult: 2
    decay_mult: 0
  }
  convolution_param {
    num_output: 8
    pad: 1
    kernel_size: 3
    group: 2
    weight_filler {
      type: "xavier"
    }
    bias_filler {
      type: "constant"
      value: 1
    }
  }
}
layer {
  name: "relu5"
  type: "ReLU"
  bottom: "conv5"
  top: "conv5"
}
layer {
  name: "pool5"
  type: "Pooling"
  bottom: "conv5"
  top: "pool5"
  pooling_param {
    pool: MAX
    kernel_size: 3
    stride: 2
  }
}
layer {
  name: "fc6"
  type: "InnerProduct"
  bottom: "pool5"
  top: "fc6"
  param {
    lr_mult: 1
    decay_mult: 1
  }
  param {
    lr_mult: 2
    decay_mult: 0
  }
  inner_product_param {
    num_output: 256
    weight_filler {
      type: "xavier"
    }
    bias_filler {
      type: "constant"
      value: 1
    }
  }
}
layer {
  name: "relu6"
  type: "ReLU"
  bottom: "fc6"
  top: "fc6"
}
layer {
  name: "drop6"
  type: "Dropout"
  bottom: "fc6"
  top: "fc6"
  dropout_param {
    dropout_ratio: 0.5
  }
}
layer {
  name: "fc7"
  type: "InnerProduct"
  bottom: "fc6"
  top: "fc7"
  param {
    lr_mult: 1
    decay_mult: 1
  }
  param {
    lr_mult: 2
    decay_mult: 0
  }
  inner_product_param {
    num_output: 256
    weight_filler {
      type: "xavier"
    }
    bias_filler {
      type: "constant"
      value: 1
    }
  }
}
layer {
  name: "relu7"
  type: "ReLU"
  bottom: "fc7"
  top: "fc7"
}
layer {
  name: "drop7"
  type: "Dropout"
  bottom: "fc7"
  top: "fc7"
  dropout_param {
    dropout_ratio: 0.5
  }
}
layer {
  name: "fc8"
  type: "InnerProduct"
  bottom: "fc7"
  top: "fc8"
  param {
    lr_mult: 1
    decay_mult: 1
  }
  param {
    lr_mult: 2
    decay_mult: 0
  }
  inner_product_param {
    num_output: 2
    weight_filler {
      type: "xavier"
    }
    bias_filler {
      type: "constant"
      value: 0
    }
  }
}
layer {
  name: "accuracy"
  type: "Accuracy"
  bottom: "fc8"
  bottom: "label"
  top: "accuracy"
  include {
    phase: TEST
  }
}
layer {
  name: "loss"
  type: "SoftmaxWithLoss"
  bottom: "fc8"
  bottom: "label"
  top: "loss"
}
I0205 00:09:44.591588 10652 layer_factory.hpp:77] Creating layer data
I0205 00:09:44.591760 10652 net.cpp:106] Creating Layer data
I0205 00:09:44.591774 10652 net.cpp:411] data -> data
I0205 00:09:44.591789 10652 net.cpp:411] data -> label
I0205 00:09:44.591799 10652 data_transformer.cpp:25] Loading mean file from: /home/pearlstl/proj_cv/master/lmdb/synth1_test_lum_db/mean_file.binaryproto
I0205 00:09:44.592038 10657 db_lmdb.cpp:38] Opened lmdb /home/pearlstl/proj_cv/master/lmdb/synth1_test_lum_db
I0205 00:09:44.592754 10652 data_layer.cpp:41] output data size: 100,1,227,227
I0205 00:09:44.626653 10652 net.cpp:150] Setting up data
I0205 00:09:44.626693 10652 net.cpp:157] Top shape: 100 1 227 227 (5152900)
I0205 00:09:44.626700 10652 net.cpp:157] Top shape: 100 (100)
I0205 00:09:44.626705 10652 net.cpp:165] Memory required for data: 20612000
I0205 00:09:44.626716 10652 layer_factory.hpp:77] Creating layer label_data_1_split
I0205 00:09:44.626736 10652 net.cpp:106] Creating Layer label_data_1_split
I0205 00:09:44.626745 10652 net.cpp:454] label_data_1_split <- label
I0205 00:09:44.626757 10652 net.cpp:411] label_data_1_split -> label_data_1_split_0
I0205 00:09:44.626771 10652 net.cpp:411] label_data_1_split -> label_data_1_split_1
I0205 00:09:44.626785 10652 net.cpp:150] Setting up label_data_1_split
I0205 00:09:44.626792 10652 net.cpp:157] Top shape: 100 (100)
I0205 00:09:44.626801 10652 net.cpp:157] Top shape: 100 (100)
I0205 00:09:44.626806 10652 net.cpp:165] Memory required for data: 20612800
I0205 00:09:44.626811 10652 layer_factory.hpp:77] Creating layer conv1
I0205 00:09:44.626828 10652 net.cpp:106] Creating Layer conv1
I0205 00:09:44.626834 10652 net.cpp:454] conv1 <- data
I0205 00:09:44.626844 10652 net.cpp:411] conv1 -> conv1
I0205 00:09:44.626898 10652 net.cpp:150] Setting up conv1
I0205 00:09:44.626907 10652 net.cpp:157] Top shape: 100 8 55 55 (2420000)
I0205 00:09:44.626912 10652 net.cpp:165] Memory required for data: 30292800
I0205 00:09:44.626925 10652 layer_factory.hpp:77] Creating layer relu1
I0205 00:09:44.626935 10652 net.cpp:106] Creating Layer relu1
I0205 00:09:44.626941 10652 net.cpp:454] relu1 <- conv1
I0205 00:09:44.626950 10652 net.cpp:397] relu1 -> conv1 (in-place)
I0205 00:09:44.626960 10652 net.cpp:150] Setting up relu1
I0205 00:09:44.626978 10652 net.cpp:157] Top shape: 100 8 55 55 (2420000)
I0205 00:09:44.626983 10652 net.cpp:165] Memory required for data: 39972800
I0205 00:09:44.626991 10652 layer_factory.hpp:77] Creating layer pool1
I0205 00:09:44.627002 10652 net.cpp:106] Creating Layer pool1
I0205 00:09:44.627007 10652 net.cpp:454] pool1 <- conv1
I0205 00:09:44.627015 10652 net.cpp:411] pool1 -> pool1
I0205 00:09:44.627029 10652 net.cpp:150] Setting up pool1
I0205 00:09:44.627037 10652 net.cpp:157] Top shape: 100 8 27 27 (583200)
I0205 00:09:44.627041 10652 net.cpp:165] Memory required for data: 42305600
I0205 00:09:44.627048 10652 layer_factory.hpp:77] Creating layer norm1
I0205 00:09:44.627058 10652 net.cpp:106] Creating Layer norm1
I0205 00:09:44.627063 10652 net.cpp:454] norm1 <- pool1
I0205 00:09:44.627071 10652 net.cpp:411] norm1 -> norm1
I0205 00:09:44.627085 10652 net.cpp:150] Setting up norm1
I0205 00:09:44.627091 10652 net.cpp:157] Top shape: 100 8 27 27 (583200)
I0205 00:09:44.627096 10652 net.cpp:165] Memory required for data: 44638400
I0205 00:09:44.627102 10652 layer_factory.hpp:77] Creating layer conv2
I0205 00:09:44.627113 10652 net.cpp:106] Creating Layer conv2
I0205 00:09:44.627120 10652 net.cpp:454] conv2 <- norm1
I0205 00:09:44.627130 10652 net.cpp:411] conv2 -> conv2
I0205 00:09:44.627161 10652 net.cpp:150] Setting up conv2
I0205 00:09:44.627169 10652 net.cpp:157] Top shape: 100 8 27 27 (583200)
I0205 00:09:44.627176 10652 net.cpp:165] Memory required for data: 46971200
I0205 00:09:44.627185 10652 layer_factory.hpp:77] Creating layer relu2
I0205 00:09:44.627194 10652 net.cpp:106] Creating Layer relu2
I0205 00:09:44.627200 10652 net.cpp:454] relu2 <- conv2
I0205 00:09:44.627208 10652 net.cpp:397] relu2 -> conv2 (in-place)
I0205 00:09:44.627226 10652 net.cpp:150] Setting up relu2
I0205 00:09:44.627245 10652 net.cpp:157] Top shape: 100 8 27 27 (583200)
I0205 00:09:44.627250 10652 net.cpp:165] Memory required for data: 49304000
I0205 00:09:44.627256 10652 layer_factory.hpp:77] Creating layer pool2
I0205 00:09:44.627266 10652 net.cpp:106] Creating Layer pool2
I0205 00:09:44.627272 10652 net.cpp:454] pool2 <- conv2
I0205 00:09:44.627281 10652 net.cpp:411] pool2 -> pool2
I0205 00:09:44.627292 10652 net.cpp:150] Setting up pool2
I0205 00:09:44.627300 10652 net.cpp:157] Top shape: 100 8 13 13 (135200)
I0205 00:09:44.627305 10652 net.cpp:165] Memory required for data: 49844800
I0205 00:09:44.627312 10652 layer_factory.hpp:77] Creating layer norm2
I0205 00:09:44.627321 10652 net.cpp:106] Creating Layer norm2
I0205 00:09:44.627327 10652 net.cpp:454] norm2 <- pool2
I0205 00:09:44.627336 10652 net.cpp:411] norm2 -> norm2
I0205 00:09:44.627346 10652 net.cpp:150] Setting up norm2
I0205 00:09:44.627351 10652 net.cpp:157] Top shape: 100 8 13 13 (135200)
I0205 00:09:44.627357 10652 net.cpp:165] Memory required for data: 50385600
I0205 00:09:44.627362 10652 layer_factory.hpp:77] Creating layer conv3
I0205 00:09:44.627373 10652 net.cpp:106] Creating Layer conv3
I0205 00:09:44.627379 10652 net.cpp:454] conv3 <- norm2
I0205 00:09:44.627390 10652 net.cpp:411] conv3 -> conv3
I0205 00:09:44.627418 10652 net.cpp:150] Setting up conv3
I0205 00:09:44.627424 10652 net.cpp:157] Top shape: 100 8 13 13 (135200)
I0205 00:09:44.627429 10652 net.cpp:165] Memory required for data: 50926400
I0205 00:09:44.627440 10652 layer_factory.hpp:77] Creating layer relu3
I0205 00:09:44.627449 10652 net.cpp:106] Creating Layer relu3
I0205 00:09:44.627454 10652 net.cpp:454] relu3 <- conv3
I0205 00:09:44.627462 10652 net.cpp:397] relu3 -> conv3 (in-place)
I0205 00:09:44.627470 10652 net.cpp:150] Setting up relu3
I0205 00:09:44.627476 10652 net.cpp:157] Top shape: 100 8 13 13 (135200)
I0205 00:09:44.627481 10652 net.cpp:165] Memory required for data: 51467200
I0205 00:09:44.627487 10652 layer_factory.hpp:77] Creating layer conv4
I0205 00:09:44.627501 10652 net.cpp:106] Creating Layer conv4
I0205 00:09:44.627506 10652 net.cpp:454] conv4 <- conv3
I0205 00:09:44.627516 10652 net.cpp:411] conv4 -> conv4
I0205 00:09:44.627537 10652 net.cpp:150] Setting up conv4
I0205 00:09:44.627544 10652 net.cpp:157] Top shape: 100 8 13 13 (135200)
I0205 00:09:44.627549 10652 net.cpp:165] Memory required for data: 52008000
I0205 00:09:44.627559 10652 layer_factory.hpp:77] Creating layer relu4
I0205 00:09:44.627568 10652 net.cpp:106] Creating Layer relu4
I0205 00:09:44.627573 10652 net.cpp:454] relu4 <- conv4
I0205 00:09:44.627581 10652 net.cpp:397] relu4 -> conv4 (in-place)
I0205 00:09:44.627589 10652 net.cpp:150] Setting up relu4
I0205 00:09:44.627595 10652 net.cpp:157] Top shape: 100 8 13 13 (135200)
I0205 00:09:44.627600 10652 net.cpp:165] Memory required for data: 52548800
I0205 00:09:44.627606 10652 layer_factory.hpp:77] Creating layer conv5
I0205 00:09:44.627616 10652 net.cpp:106] Creating Layer conv5
I0205 00:09:44.627622 10652 net.cpp:454] conv5 <- conv4
I0205 00:09:44.627631 10652 net.cpp:411] conv5 -> conv5
I0205 00:09:44.627655 10652 net.cpp:150] Setting up conv5
I0205 00:09:44.627662 10652 net.cpp:157] Top shape: 100 8 13 13 (135200)
I0205 00:09:44.627667 10652 net.cpp:165] Memory required for data: 53089600
I0205 00:09:44.627677 10652 layer_factory.hpp:77] Creating layer relu5
I0205 00:09:44.627686 10652 net.cpp:106] Creating Layer relu5
I0205 00:09:44.627691 10652 net.cpp:454] relu5 <- conv5
I0205 00:09:44.627699 10652 net.cpp:397] relu5 -> conv5 (in-place)
I0205 00:09:44.627707 10652 net.cpp:150] Setting up relu5
I0205 00:09:44.627717 10652 net.cpp:157] Top shape: 100 8 13 13 (135200)
I0205 00:09:44.627722 10652 net.cpp:165] Memory required for data: 53630400
I0205 00:09:44.627727 10652 layer_factory.hpp:77] Creating layer pool5
I0205 00:09:44.627737 10652 net.cpp:106] Creating Layer pool5
I0205 00:09:44.627743 10652 net.cpp:454] pool5 <- conv5
I0205 00:09:44.627751 10652 net.cpp:411] pool5 -> pool5
I0205 00:09:44.627766 10652 net.cpp:150] Setting up pool5
I0205 00:09:44.627781 10652 net.cpp:157] Top shape: 100 8 6 6 (28800)
I0205 00:09:44.627786 10652 net.cpp:165] Memory required for data: 53745600
I0205 00:09:44.627791 10652 layer_factory.hpp:77] Creating layer fc6
I0205 00:09:44.627804 10652 net.cpp:106] Creating Layer fc6
I0205 00:09:44.627809 10652 net.cpp:454] fc6 <- pool5
I0205 00:09:44.627817 10652 net.cpp:411] fc6 -> fc6
I0205 00:09:44.628576 10652 net.cpp:150] Setting up fc6
I0205 00:09:44.628587 10652 net.cpp:157] Top shape: 100 256 (25600)
I0205 00:09:44.628592 10652 net.cpp:165] Memory required for data: 53848000
I0205 00:09:44.628600 10652 layer_factory.hpp:77] Creating layer relu6
I0205 00:09:44.628609 10652 net.cpp:106] Creating Layer relu6
I0205 00:09:44.628614 10652 net.cpp:454] relu6 <- fc6
I0205 00:09:44.628624 10652 net.cpp:397] relu6 -> fc6 (in-place)
I0205 00:09:44.628633 10652 net.cpp:150] Setting up relu6
I0205 00:09:44.628640 10652 net.cpp:157] Top shape: 100 256 (25600)
I0205 00:09:44.628645 10652 net.cpp:165] Memory required for data: 53950400
I0205 00:09:44.628650 10652 layer_factory.hpp:77] Creating layer drop6
I0205 00:09:44.628660 10652 net.cpp:106] Creating Layer drop6
I0205 00:09:44.628666 10652 net.cpp:454] drop6 <- fc6
I0205 00:09:44.628674 10652 net.cpp:397] drop6 -> fc6 (in-place)
I0205 00:09:44.628684 10652 net.cpp:150] Setting up drop6
I0205 00:09:44.628692 10652 net.cpp:157] Top shape: 100 256 (25600)
I0205 00:09:44.628698 10652 net.cpp:165] Memory required for data: 54052800
I0205 00:09:44.628703 10652 layer_factory.hpp:77] Creating layer fc7
I0205 00:09:44.628716 10652 net.cpp:106] Creating Layer fc7
I0205 00:09:44.628722 10652 net.cpp:454] fc7 <- fc6
I0205 00:09:44.628749 10652 net.cpp:411] fc7 -> fc7
I0205 00:09:44.629501 10652 net.cpp:150] Setting up fc7
I0205 00:09:44.629513 10652 net.cpp:157] Top shape: 100 256 (25600)
I0205 00:09:44.629518 10652 net.cpp:165] Memory required for data: 54155200
I0205 00:09:44.629526 10652 layer_factory.hpp:77] Creating layer relu7
I0205 00:09:44.629537 10652 net.cpp:106] Creating Layer relu7
I0205 00:09:44.629544 10652 net.cpp:454] relu7 <- fc7
I0205 00:09:44.629550 10652 net.cpp:397] relu7 -> fc7 (in-place)
I0205 00:09:44.629561 10652 net.cpp:150] Setting up relu7
I0205 00:09:44.629568 10652 net.cpp:157] Top shape: 100 256 (25600)
I0205 00:09:44.629573 10652 net.cpp:165] Memory required for data: 54257600
I0205 00:09:44.629578 10652 layer_factory.hpp:77] Creating layer drop7
I0205 00:09:44.629591 10652 net.cpp:106] Creating Layer drop7
I0205 00:09:44.629597 10652 net.cpp:454] drop7 <- fc7
I0205 00:09:44.629604 10652 net.cpp:397] drop7 -> fc7 (in-place)
I0205 00:09:44.629613 10652 net.cpp:150] Setting up drop7
I0205 00:09:44.629619 10652 net.cpp:157] Top shape: 100 256 (25600)
I0205 00:09:44.629624 10652 net.cpp:165] Memory required for data: 54360000
I0205 00:09:44.629631 10652 layer_factory.hpp:77] Creating layer fc8
I0205 00:09:44.629639 10652 net.cpp:106] Creating Layer fc8
I0205 00:09:44.629644 10652 net.cpp:454] fc8 <- fc7
I0205 00:09:44.629655 10652 net.cpp:411] fc8 -> fc8
I0205 00:09:44.629681 10652 net.cpp:150] Setting up fc8
I0205 00:09:44.629688 10652 net.cpp:157] Top shape: 100 2 (200)
I0205 00:09:44.629693 10652 net.cpp:165] Memory required for data: 54360800
I0205 00:09:44.629701 10652 layer_factory.hpp:77] Creating layer fc8_fc8_0_split
I0205 00:09:44.629711 10652 net.cpp:106] Creating Layer fc8_fc8_0_split
I0205 00:09:44.629717 10652 net.cpp:454] fc8_fc8_0_split <- fc8
I0205 00:09:44.629726 10652 net.cpp:411] fc8_fc8_0_split -> fc8_fc8_0_split_0
I0205 00:09:44.629735 10652 net.cpp:411] fc8_fc8_0_split -> fc8_fc8_0_split_1
I0205 00:09:44.629745 10652 net.cpp:150] Setting up fc8_fc8_0_split
I0205 00:09:44.629751 10652 net.cpp:157] Top shape: 100 2 (200)
I0205 00:09:44.629757 10652 net.cpp:157] Top shape: 100 2 (200)
I0205 00:09:44.629765 10652 net.cpp:165] Memory required for data: 54362400
I0205 00:09:44.629770 10652 layer_factory.hpp:77] Creating layer accuracy
I0205 00:09:44.629786 10652 net.cpp:106] Creating Layer accuracy
I0205 00:09:44.629796 10652 net.cpp:454] accuracy <- fc8_fc8_0_split_0
I0205 00:09:44.629809 10652 net.cpp:454] accuracy <- label_data_1_split_0
I0205 00:09:44.629817 10652 net.cpp:411] accuracy -> accuracy
…
