…
I0205 00:52:44.455052 11020 net.cpp:322] The NetState phase (0) differed from the phase (1) specified by a rule in layer accuracy
I0205 00:52:44.455329 11020 net.cpp:49] Initializing net from parameters: 
name: "CaffeNet"
state {
  phase: TRAIN
}
layer {
  name: "data"
  type: "Data"
  top: "data"
  top: "label"
  include {
    phase: TRAIN
  }
  transform_param {
    mirror: true
    crop_size: 227
    mean_file: "/home/pearlstl/proj_cv/master/lmdb/synth1_train_lum_db/mean_file.binaryproto"
  }
  data_param {
    source: "/home/pearlstl/proj_cv/master/lmdb/synth1_train_lum_db"
    batch_size: 100
    backend: LMDB
  }
}
layer {
  name: "conv1"
  type: "Convolution"
  bottom: "data"
  top: "conv1"
  param {
    lr_mult: 1
    decay_mult: 1
  }
  param {
    lr_mult: 2
    decay_mult: 0
  }
  convolution_param {
    num_output: 32
    kernel_size: 11
    stride: 4
    weight_filler {
      type: "xavier"
    }
    bias_filler {
      type: "constant"
      value: 0
    }
  }
}
layer {
  name: "relu1"
  type: "ReLU"
  bottom: "conv1"
  top: "conv1"
}
layer {
  name: "pool1"
  type: "Pooling"
  bottom: "conv1"
  top: "pool1"
  pooling_param {
    pool: MAX
    kernel_size: 3
    stride: 2
  }
}
layer {
  name: "norm1"
  type: "LRN"
  bottom: "pool1"
  top: "norm1"
  lrn_param {
    local_size: 5
    alpha: 0.0001
    beta: 0.75
  }
}
layer {
  name: "conv2"
  type: "Convolution"
  bottom: "norm1"
  top: "conv2"
  param {
    lr_mult: 1
    decay_mult: 1
  }
  param {
    lr_mult: 2
    decay_mult: 0
  }
  convolution_param {
    num_output: 32
    pad: 2
    kernel_size: 5
    group: 2
    weight_filler {
      type: "xavier"
    }
    bias_filler {
      type: "constant"
      value: 1
    }
  }
}
layer {
  name: "relu2"
  type: "ReLU"
  bottom: "conv2"
  top: "conv2"
}
layer {
  name: "pool2"
  type: "Pooling"
  bottom: "conv2"
  top: "pool2"
  pooling_param {
    pool: MAX
    kernel_size: 3
    stride: 2
  }
}
layer {
  name: "norm2"
  type: "LRN"
  bottom: "pool2"
  top: "norm2"
  lrn_param {
    local_size: 5
    alpha: 0.0001
    beta: 0.75
  }
}
layer {
  name: "conv3"
  type: "Convolution"
  bottom: "norm2"
  top: "conv3"
  param {
    lr_mult: 1
    decay_mult: 1
  }
  param {
    lr_mult: 2
    decay_mult: 0
  }
  convolution_param {
    num_output: 32
    pad: 1
    kernel_size: 3
    weight_filler {
      type: "xavier"
    }
    bias_filler {
      type: "constant"
      value: 0
    }
  }
}
layer {
  name: "relu3"
  type: "ReLU"
  bottom: "conv3"
  top: "conv3"
}
layer {
  name: "conv4"
  type: "Convolution"
  bottom: "conv3"
  top: "conv4"
  param {
    lr_mult: 1
    decay_mult: 1
  }
  param {
    lr_mult: 2
    decay_mult: 0
  }
  convolution_param {
    num_output: 32
    pad: 1
    kernel_size: 3
    group: 2
    weight_filler {
      type: "xavier"
    }
    bias_filler {
      type: "constant"
      value: 1
    }
  }
}
layer {
  name: "relu4"
  type: "ReLU"
  bottom: "conv4"
  top: "conv4"
}
layer {
  name: "conv5"
  type: "Convolution"
  bottom: "conv4"
  top: "conv5"
  param {
    lr_mult: 1
    decay_mult: 1
  }
  param {
    lr_mult: 2
    decay_mult: 0
  }
  convolution_param {
    num_output: 16
    pad: 1
    kernel_size: 3
    group: 2
    weight_filler {
      type: "xavier"
    }
    bias_filler {
      type: "constant"
      value: 1
    }
  }
}
layer {
  name: "relu5"
  type: "ReLU"
  bottom: "conv5"
  top: "conv5"
}
layer {
  name: "pool5"
  type: "Pooling"
  bottom: "conv5"
  top: "pool5"
  pooling_param {
    pool: MAX
    kernel_size: 3
    stride: 2
  }
}
layer {
  name: "fc6"
  type: "InnerProduct"
  bottom: "pool5"
  top: "fc6"
  param {
    lr_mult: 1
    decay_mult: 1
  }
  param {
    lr_mult: 2
    decay_mult: 0
  }
  inner_product_param {
    num_output: 256
    weight_filler {
      type: "xavier"
    }
    bias_filler {
      type: "constant"
      value: 1
    }
  }
}
layer {
  name: "relu6"
  type: "ReLU"
  bottom: "fc6"
  top: "fc6"
}
layer {
  name: "drop6"
  type: "Dropout"
  bottom: "fc6"
  top: "fc6"
  dropout_param {
    dropout_ratio: 0.5
  }
}
layer {
  name: "fc7"
  type: "InnerProduct"
  bottom: "fc6"
  top: "fc7"
  param {
    lr_mult: 1
    decay_mult: 1
  }
  param {
    lr_mult: 2
    decay_mult: 0
  }
  inner_product_param {
    num_output: 256
    weight_filler {
      type: "xavier"
    }
    bias_filler {
      type: "constant"
      value: 1
    }
  }
}
layer {
  name: "relu7"
  type: "ReLU"
  bottom: "fc7"
  top: "fc7"
}
layer {
  name: "drop7"
  type: "Dropout"
  bottom: "fc7"
  top: "fc7"
  dropout_param {
    dropout_ratio: 0.5
  }
}
layer {
  name: "fc8"
  type: "InnerProduct"
  bottom: "fc7"
  top: "fc8"
  param {
    lr_mult: 1
    decay_mult: 1
  }
  param {
    lr_mult: 2
    decay_mult: 0
  }
  inner_product_param {
    num_output: 2
    weight_filler {
      type: "xavier"
    }
    bias_filler {
      type: "constant"
      value: 0
    }
  }
}
layer {
  name: "loss"
  type: "SoftmaxWithLoss"
  bottom: "fc8"
  bottom: "label"
  top: "loss"
}
I0205 00:52:44.455479 11020 layer_factory.hpp:77] Creating layer data
I0205 00:52:44.455679 11020 net.cpp:106] Creating Layer data
I0205 00:52:44.455699 11020 net.cpp:411] data -> data
I0205 00:52:44.455798 11020 net.cpp:411] data -> label
I0205 00:52:44.455826 11020 data_transformer.cpp:25] Loading mean file from: /home/pearlstl/proj_cv/master/lmdb/synth1_train_lum_db/mean_file.binaryproto
I0205 00:52:44.456042 11021 db_lmdb.cpp:38] Opened lmdb /home/pearlstl/proj_cv/master/lmdb/synth1_train_lum_db
I0205 00:52:44.457064 11020 data_layer.cpp:41] output data size: 100,1,227,227
I0205 00:52:44.490916 11020 net.cpp:150] Setting up data
I0205 00:52:44.490957 11020 net.cpp:157] Top shape: 100 1 227 227 (5152900)
I0205 00:52:44.490965 11020 net.cpp:157] Top shape: 100 (100)
I0205 00:52:44.490972 11020 net.cpp:165] Memory required for data: 20612000
I0205 00:52:44.490989 11020 layer_factory.hpp:77] Creating layer conv1
I0205 00:52:44.491032 11020 net.cpp:106] Creating Layer conv1
I0205 00:52:44.491042 11020 net.cpp:454] conv1 <- data
I0205 00:52:44.491065 11020 net.cpp:411] conv1 -> conv1
I0205 00:52:44.491212 11020 net.cpp:150] Setting up conv1
I0205 00:52:44.491225 11020 net.cpp:157] Top shape: 100 32 55 55 (9680000)
I0205 00:52:44.491232 11020 net.cpp:165] Memory required for data: 59332000
I0205 00:52:44.491253 11020 layer_factory.hpp:77] Creating layer relu1
I0205 00:52:44.491266 11020 net.cpp:106] Creating Layer relu1
I0205 00:52:44.491272 11020 net.cpp:454] relu1 <- conv1
I0205 00:52:44.491281 11020 net.cpp:397] relu1 -> conv1 (in-place)
I0205 00:52:44.491294 11020 net.cpp:150] Setting up relu1
I0205 00:52:44.491302 11020 net.cpp:157] Top shape: 100 32 55 55 (9680000)
I0205 00:52:44.491307 11020 net.cpp:165] Memory required for data: 98052000
I0205 00:52:44.491313 11020 layer_factory.hpp:77] Creating layer pool1
I0205 00:52:44.491324 11020 net.cpp:106] Creating Layer pool1
I0205 00:52:44.491330 11020 net.cpp:454] pool1 <- conv1
I0205 00:52:44.491338 11020 net.cpp:411] pool1 -> pool1
I0205 00:52:44.491364 11020 net.cpp:150] Setting up pool1
I0205 00:52:44.491374 11020 net.cpp:157] Top shape: 100 32 27 27 (2332800)
I0205 00:52:44.491380 11020 net.cpp:165] Memory required for data: 107383200
I0205 00:52:44.491387 11020 layer_factory.hpp:77] Creating layer norm1
I0205 00:52:44.491418 11020 net.cpp:106] Creating Layer norm1
I0205 00:52:44.491425 11020 net.cpp:454] norm1 <- pool1
I0205 00:52:44.491435 11020 net.cpp:411] norm1 -> norm1
I0205 00:52:44.491453 11020 net.cpp:150] Setting up norm1
I0205 00:52:44.491462 11020 net.cpp:157] Top shape: 100 32 27 27 (2332800)
I0205 00:52:44.491467 11020 net.cpp:165] Memory required for data: 116714400
I0205 00:52:44.491472 11020 layer_factory.hpp:77] Creating layer conv2
I0205 00:52:44.491483 11020 net.cpp:106] Creating Layer conv2
I0205 00:52:44.491489 11020 net.cpp:454] conv2 <- norm1
I0205 00:52:44.491497 11020 net.cpp:411] conv2 -> conv2
I0205 00:52:44.491628 11020 net.cpp:150] Setting up conv2
I0205 00:52:44.491637 11020 net.cpp:157] Top shape: 100 32 27 27 (2332800)
I0205 00:52:44.491646 11020 net.cpp:165] Memory required for data: 126045600
I0205 00:52:44.491657 11020 layer_factory.hpp:77] Creating layer relu2
I0205 00:52:44.491665 11020 net.cpp:106] Creating Layer relu2
I0205 00:52:44.491672 11020 net.cpp:454] relu2 <- conv2
I0205 00:52:44.491679 11020 net.cpp:397] relu2 -> conv2 (in-place)
I0205 00:52:44.491689 11020 net.cpp:150] Setting up relu2
I0205 00:52:44.491696 11020 net.cpp:157] Top shape: 100 32 27 27 (2332800)
I0205 00:52:44.491701 11020 net.cpp:165] Memory required for data: 135376800
I0205 00:52:44.491708 11020 layer_factory.hpp:77] Creating layer pool2
I0205 00:52:44.491722 11020 net.cpp:106] Creating Layer pool2
I0205 00:52:44.491729 11020 net.cpp:454] pool2 <- conv2
I0205 00:52:44.491735 11020 net.cpp:411] pool2 -> pool2
I0205 00:52:44.491746 11020 net.cpp:150] Setting up pool2
I0205 00:52:44.491753 11020 net.cpp:157] Top shape: 100 32 13 13 (540800)
I0205 00:52:44.491761 11020 net.cpp:165] Memory required for data: 137540000
I0205 00:52:44.491767 11020 layer_factory.hpp:77] Creating layer norm2
I0205 00:52:44.491780 11020 net.cpp:106] Creating Layer norm2
I0205 00:52:44.491786 11020 net.cpp:454] norm2 <- pool2
I0205 00:52:44.491796 11020 net.cpp:411] norm2 -> norm2
I0205 00:52:44.491807 11020 net.cpp:150] Setting up norm2
I0205 00:52:44.491814 11020 net.cpp:157] Top shape: 100 32 13 13 (540800)
I0205 00:52:44.491819 11020 net.cpp:165] Memory required for data: 139703200
I0205 00:52:44.491825 11020 layer_factory.hpp:77] Creating layer conv3
I0205 00:52:44.491834 11020 net.cpp:106] Creating Layer conv3
I0205 00:52:44.491840 11020 net.cpp:454] conv3 <- norm2
I0205 00:52:44.491847 11020 net.cpp:411] conv3 -> conv3
I0205 00:52:44.491967 11020 net.cpp:150] Setting up conv3
I0205 00:52:44.491977 11020 net.cpp:157] Top shape: 100 32 13 13 (540800)
I0205 00:52:44.491982 11020 net.cpp:165] Memory required for data: 141866400
I0205 00:52:44.491993 11020 layer_factory.hpp:77] Creating layer relu3
I0205 00:52:44.492005 11020 net.cpp:106] Creating Layer relu3
I0205 00:52:44.492012 11020 net.cpp:454] relu3 <- conv3
I0205 00:52:44.492019 11020 net.cpp:397] relu3 -> conv3 (in-place)
I0205 00:52:44.492028 11020 net.cpp:150] Setting up relu3
I0205 00:52:44.492034 11020 net.cpp:157] Top shape: 100 32 13 13 (540800)
I0205 00:52:44.492040 11020 net.cpp:165] Memory required for data: 144029600
I0205 00:52:44.492045 11020 layer_factory.hpp:77] Creating layer conv4
I0205 00:52:44.492074 11020 net.cpp:106] Creating Layer conv4
I0205 00:52:44.492084 11020 net.cpp:454] conv4 <- conv3
I0205 00:52:44.492102 11020 net.cpp:411] conv4 -> conv4
I0205 00:52:44.492182 11020 net.cpp:150] Setting up conv4
I0205 00:52:44.492190 11020 net.cpp:157] Top shape: 100 32 13 13 (540800)
I0205 00:52:44.492195 11020 net.cpp:165] Memory required for data: 146192800
I0205 00:52:44.492207 11020 layer_factory.hpp:77] Creating layer relu4
I0205 00:52:44.492215 11020 net.cpp:106] Creating Layer relu4
I0205 00:52:44.492221 11020 net.cpp:454] relu4 <- conv4
I0205 00:52:44.492228 11020 net.cpp:397] relu4 -> conv4 (in-place)
I0205 00:52:44.492236 11020 net.cpp:150] Setting up relu4
I0205 00:52:44.492244 11020 net.cpp:157] Top shape: 100 32 13 13 (540800)
I0205 00:52:44.492249 11020 net.cpp:165] Memory required for data: 148356000
I0205 00:52:44.492260 11020 layer_factory.hpp:77] Creating layer conv5
I0205 00:52:44.492280 11020 net.cpp:106] Creating Layer conv5
I0205 00:52:44.492286 11020 net.cpp:454] conv5 <- conv4
I0205 00:52:44.492295 11020 net.cpp:411] conv5 -> conv5
I0205 00:52:44.492346 11020 net.cpp:150] Setting up conv5
I0205 00:52:44.492354 11020 net.cpp:157] Top shape: 100 16 13 13 (270400)
I0205 00:52:44.492359 11020 net.cpp:165] Memory required for data: 149437600
I0205 00:52:44.492370 11020 layer_factory.hpp:77] Creating layer relu5
I0205 00:52:44.492379 11020 net.cpp:106] Creating Layer relu5
I0205 00:52:44.492385 11020 net.cpp:454] relu5 <- conv5
I0205 00:52:44.492395 11020 net.cpp:397] relu5 -> conv5 (in-place)
I0205 00:52:44.492404 11020 net.cpp:150] Setting up relu5
I0205 00:52:44.492411 11020 net.cpp:157] Top shape: 100 16 13 13 (270400)
I0205 00:52:44.492416 11020 net.cpp:165] Memory required for data: 150519200
I0205 00:52:44.492422 11020 layer_factory.hpp:77] Creating layer pool5
I0205 00:52:44.492430 11020 net.cpp:106] Creating Layer pool5
I0205 00:52:44.492436 11020 net.cpp:454] pool5 <- conv5
I0205 00:52:44.492447 11020 net.cpp:411] pool5 -> pool5
I0205 00:52:44.492458 11020 net.cpp:150] Setting up pool5
I0205 00:52:44.492465 11020 net.cpp:157] Top shape: 100 16 6 6 (57600)
I0205 00:52:44.492470 11020 net.cpp:165] Memory required for data: 150749600
I0205 00:52:44.492478 11020 layer_factory.hpp:77] Creating layer fc6
I0205 00:52:44.492494 11020 net.cpp:106] Creating Layer fc6
I0205 00:52:44.492501 11020 net.cpp:454] fc6 <- pool5
I0205 00:52:44.492512 11020 net.cpp:411] fc6 -> fc6
I0205 00:52:44.494329 11020 net.cpp:150] Setting up fc6
I0205 00:52:44.494343 11020 net.cpp:157] Top shape: 100 256 (25600)
I0205 00:52:44.494349 11020 net.cpp:165] Memory required for data: 150852000
I0205 00:52:44.494359 11020 layer_factory.hpp:77] Creating layer relu6
I0205 00:52:44.494369 11020 net.cpp:106] Creating Layer relu6
I0205 00:52:44.494379 11020 net.cpp:454] relu6 <- fc6
I0205 00:52:44.494386 11020 net.cpp:397] relu6 -> fc6 (in-place)
I0205 00:52:44.494395 11020 net.cpp:150] Setting up relu6
I0205 00:52:44.494402 11020 net.cpp:157] Top shape: 100 256 (25600)
I0205 00:52:44.494408 11020 net.cpp:165] Memory required for data: 150954400
I0205 00:52:44.494413 11020 layer_factory.hpp:77] Creating layer drop6
I0205 00:52:44.494423 11020 net.cpp:106] Creating Layer drop6
I0205 00:52:44.494429 11020 net.cpp:454] drop6 <- fc6
I0205 00:52:44.494437 11020 net.cpp:397] drop6 -> fc6 (in-place)
I0205 00:52:44.494454 11020 net.cpp:150] Setting up drop6
I0205 00:52:44.494462 11020 net.cpp:157] Top shape: 100 256 (25600)
I0205 00:52:44.494467 11020 net.cpp:165] Memory required for data: 151056800
I0205 00:52:44.494472 11020 layer_factory.hpp:77] Creating layer fc7
I0205 00:52:44.494482 11020 net.cpp:106] Creating Layer fc7
I0205 00:52:44.494488 11020 net.cpp:454] fc7 <- fc6
I0205 00:52:44.494498 11020 net.cpp:411] fc7 -> fc7
I0205 00:52:44.495321 11020 net.cpp:150] Setting up fc7
I0205 00:52:44.495335 11020 net.cpp:157] Top shape: 100 256 (25600)
I0205 00:52:44.495342 11020 net.cpp:165] Memory required for data: 151159200
I0205 00:52:44.495350 11020 layer_factory.hpp:77] Creating layer relu7
I0205 00:52:44.495358 11020 net.cpp:106] Creating Layer relu7
I0205 00:52:44.495364 11020 net.cpp:454] relu7 <- fc7
I0205 00:52:44.495374 11020 net.cpp:397] relu7 -> fc7 (in-place)
I0205 00:52:44.495383 11020 net.cpp:150] Setting up relu7
I0205 00:52:44.495393 11020 net.cpp:157] Top shape: 100 256 (25600)
I0205 00:52:44.495398 11020 net.cpp:165] Memory required for data: 151261600
I0205 00:52:44.495404 11020 layer_factory.hpp:77] Creating layer drop7
I0205 00:52:44.495412 11020 net.cpp:106] Creating Layer drop7
I0205 00:52:44.495419 11020 net.cpp:454] drop7 <- fc7
I0205 00:52:44.495429 11020 net.cpp:397] drop7 -> fc7 (in-place)
I0205 00:52:44.495440 11020 net.cpp:150] Setting up drop7
I0205 00:52:44.495446 11020 net.cpp:157] Top shape: 100 256 (25600)
I0205 00:52:44.495451 11020 net.cpp:165] Memory required for data: 151364000
I0205 00:52:44.495457 11020 layer_factory.hpp:77] Creating layer fc8
I0205 00:52:44.495472 11020 net.cpp:106] Creating Layer fc8
I0205 00:52:44.495484 11020 net.cpp:454] fc8 <- fc7
I0205 00:52:44.495496 11020 net.cpp:411] fc8 -> fc8
I0205 00:52:44.495520 11020 net.cpp:150] Setting up fc8
I0205 00:52:44.495532 11020 net.cpp:157] Top shape: 100 2 (200)
I0205 00:52:44.495537 11020 net.cpp:165] Memory required for data: 151364800
I0205 00:52:44.495544 11020 layer_factory.hpp:77] Creating layer loss
I0205 00:52:44.495556 11020 net.cpp:106] Creating Layer loss
I0205 00:52:44.495563 11020 net.cpp:454] loss <- fc8
I0205 00:52:44.495568 11020 net.cpp:454] loss <- label
I0205 00:52:44.495578 11020 net.cpp:411] loss -> loss
I0205 00:52:44.495594 11020 layer_factory.hpp:77] Creating layer loss
…
I0205 00:52:44.497733 11020 net.cpp:322] The NetState phase (1) differed from the phase (0) specified by a rule in layer data
I0205 00:52:44.498039 11020 net.cpp:49] Initializing net from parameters: 
name: "CaffeNet"
state {
  phase: TEST
}
layer {
  name: "data"
  type: "Data"
  top: "data"
  top: "label"
  include {
    phase: TEST
  }
  transform_param {
    mirror: false
    crop_size: 227
    mean_file: "/home/pearlstl/proj_cv/master/lmdb/synth1_test_lum_db/mean_file.binaryproto"
  }
  data_param {
    source: "/home/pearlstl/proj_cv/master/lmdb/synth1_test_lum_db"
    batch_size: 100
    backend: LMDB
  }
}
layer {
  name: "conv1"
  type: "Convolution"
  bottom: "data"
  top: "conv1"
  param {
    lr_mult: 1
    decay_mult: 1
  }
  param {
    lr_mult: 2
    decay_mult: 0
  }
  convolution_param {
    num_output: 32
    kernel_size: 11
    stride: 4
    weight_filler {
      type: "xavier"
    }
    bias_filler {
      type: "constant"
      value: 0
    }
  }
}
layer {
  name: "relu1"
  type: "ReLU"
  bottom: "conv1"
  top: "conv1"
}
layer {
  name: "pool1"
  type: "Pooling"
  bottom: "conv1"
  top: "pool1"
  pooling_param {
    pool: MAX
    kernel_size: 3
    stride: 2
  }
}
layer {
  name: "norm1"
  type: "LRN"
  bottom: "pool1"
  top: "norm1"
  lrn_param {
    local_size: 5
    alpha: 0.0001
    beta: 0.75
  }
}
layer {
  name: "conv2"
  type: "Convolution"
  bottom: "norm1"
  top: "conv2"
  param {
    lr_mult: 1
    decay_mult: 1
  }
  param {
    lr_mult: 2
    decay_mult: 0
  }
  convolution_param {
    num_output: 32
    pad: 2
    kernel_size: 5
    group: 2
    weight_filler {
      type: "xavier"
    }
    bias_filler {
      type: "constant"
      value: 1
    }
  }
}
layer {
  name: "relu2"
  type: "ReLU"
  bottom: "conv2"
  top: "conv2"
}
layer {
  name: "pool2"
  type: "Pooling"
  bottom: "conv2"
  top: "pool2"
  pooling_param {
    pool: MAX
    kernel_size: 3
    stride: 2
  }
}
layer {
  name: "norm2"
  type: "LRN"
  bottom: "pool2"
  top: "norm2"
  lrn_param {
    local_size: 5
    alpha: 0.0001
    beta: 0.75
  }
}
layer {
  name: "conv3"
  type: "Convolution"
  bottom: "norm2"
  top: "conv3"
  param {
    lr_mult: 1
    decay_mult: 1
  }
  param {
    lr_mult: 2
    decay_mult: 0
  }
  convolution_param {
    num_output: 32
    pad: 1
    kernel_size: 3
    weight_filler {
      type: "xavier"
    }
    bias_filler {
      type: "constant"
      value: 0
    }
  }
}
layer {
  name: "relu3"
  type: "ReLU"
  bottom: "conv3"
  top: "conv3"
}
layer {
  name: "conv4"
  type: "Convolution"
  bottom: "conv3"
  top: "conv4"
  param {
    lr_mult: 1
    decay_mult: 1
  }
  param {
    lr_mult: 2
    decay_mult: 0
  }
  convolution_param {
    num_output: 32
    pad: 1
    kernel_size: 3
    group: 2
    weight_filler {
      type: "xavier"
    }
    bias_filler {
      type: "constant"
      value: 1
    }
  }
}
layer {
  name: "relu4"
  type: "ReLU"
  bottom: "conv4"
  top: "conv4"
}
layer {
  name: "conv5"
  type: "Convolution"
  bottom: "conv4"
  top: "conv5"
  param {
    lr_mult: 1
    decay_mult: 1
  }
  param {
    lr_mult: 2
    decay_mult: 0
  }
  convolution_param {
    num_output: 16
    pad: 1
    kernel_size: 3
    group: 2
    weight_filler {
      type: "xavier"
    }
    bias_filler {
      type: "constant"
      value: 1
    }
  }
}
layer {
  name: "relu5"
  type: "ReLU"
  bottom: "conv5"
  top: "conv5"
}
layer {
  name: "pool5"
  type: "Pooling"
  bottom: "conv5"
  top: "pool5"
  pooling_param {
    pool: MAX
    kernel_size: 3
    stride: 2
  }
}
layer {
  name: "fc6"
  type: "InnerProduct"
  bottom: "pool5"
  top: "fc6"
  param {
    lr_mult: 1
    decay_mult: 1
  }
  param {
    lr_mult: 2
    decay_mult: 0
  }
  inner_product_param {
    num_output: 256
    weight_filler {
      type: "xavier"
    }
    bias_filler {
      type: "constant"
      value: 1
    }
  }
}
layer {
  name: "relu6"
  type: "ReLU"
  bottom: "fc6"
  top: "fc6"
}
layer {
  name: "drop6"
  type: "Dropout"
  bottom: "fc6"
  top: "fc6"
  dropout_param {
    dropout_ratio: 0.5
  }
}
layer {
  name: "fc7"
  type: "InnerProduct"
  bottom: "fc6"
  top: "fc7"
  param {
    lr_mult: 1
    decay_mult: 1
  }
  param {
    lr_mult: 2
    decay_mult: 0
  }
  inner_product_param {
    num_output: 256
    weight_filler {
      type: "xavier"
    }
    bias_filler {
      type: "constant"
      value: 1
    }
  }
}
layer {
  name: "relu7"
  type: "ReLU"
  bottom: "fc7"
  top: "fc7"
}
layer {
  name: "drop7"
  type: "Dropout"
  bottom: "fc7"
  top: "fc7"
  dropout_param {
    dropout_ratio: 0.5
  }
}
layer {
  name: "fc8"
  type: "InnerProduct"
  bottom: "fc7"
  top: "fc8"
  param {
    lr_mult: 1
    decay_mult: 1
  }
  param {
    lr_mult: 2
    decay_mult: 0
  }
  inner_product_param {
    num_output: 2
    weight_filler {
      type: "xavier"
    }
    bias_filler {
      type: "constant"
      value: 0
    }
  }
}
layer {
  name: "accuracy"
  type: "Accuracy"
  bottom: "fc8"
  bottom: "label"
  top: "accuracy"
  include {
    phase: TEST
  }
}
layer {
  name: "loss"
  type: "SoftmaxWithLoss"
  bottom: "fc8"
  bottom: "label"
  top: "loss"
}
I0205 00:52:44.498232 11020 layer_factory.hpp:77] Creating layer data
I0205 00:52:44.498431 11020 net.cpp:106] Creating Layer data
I0205 00:52:44.498450 11020 net.cpp:411] data -> data
I0205 00:52:44.498462 11020 net.cpp:411] data -> label
I0205 00:52:44.498473 11020 data_transformer.cpp:25] Loading mean file from: /home/pearlstl/proj_cv/master/lmdb/synth1_test_lum_db/mean_file.binaryproto
I0205 00:52:44.498692 11025 db_lmdb.cpp:38] Opened lmdb /home/pearlstl/proj_cv/master/lmdb/synth1_test_lum_db
I0205 00:52:44.499487 11020 data_layer.cpp:41] output data size: 100,1,227,227
I0205 00:52:44.528522 11020 net.cpp:150] Setting up data
I0205 00:52:44.528548 11020 net.cpp:157] Top shape: 100 1 227 227 (5152900)
I0205 00:52:44.528555 11020 net.cpp:157] Top shape: 100 (100)
I0205 00:52:44.528563 11020 net.cpp:165] Memory required for data: 20612000
I0205 00:52:44.528571 11020 layer_factory.hpp:77] Creating layer label_data_1_split
I0205 00:52:44.528587 11020 net.cpp:106] Creating Layer label_data_1_split
I0205 00:52:44.528596 11020 net.cpp:454] label_data_1_split <- label
I0205 00:52:44.528609 11020 net.cpp:411] label_data_1_split -> label_data_1_split_0
I0205 00:52:44.528622 11020 net.cpp:411] label_data_1_split -> label_data_1_split_1
I0205 00:52:44.528635 11020 net.cpp:150] Setting up label_data_1_split
I0205 00:52:44.528642 11020 net.cpp:157] Top shape: 100 (100)
I0205 00:52:44.528648 11020 net.cpp:157] Top shape: 100 (100)
I0205 00:52:44.528656 11020 net.cpp:165] Memory required for data: 20612800
I0205 00:52:44.528662 11020 layer_factory.hpp:77] Creating layer conv1
I0205 00:52:44.528676 11020 net.cpp:106] Creating Layer conv1
I0205 00:52:44.528682 11020 net.cpp:454] conv1 <- data
I0205 00:52:44.528690 11020 net.cpp:411] conv1 -> conv1
I0205 00:52:44.528759 11020 net.cpp:150] Setting up conv1
I0205 00:52:44.528769 11020 net.cpp:157] Top shape: 100 32 55 55 (9680000)
I0205 00:52:44.528774 11020 net.cpp:165] Memory required for data: 59332800
I0205 00:52:44.528789 11020 layer_factory.hpp:77] Creating layer relu1
I0205 00:52:44.528797 11020 net.cpp:106] Creating Layer relu1
I0205 00:52:44.528803 11020 net.cpp:454] relu1 <- conv1
I0205 00:52:44.528811 11020 net.cpp:397] relu1 -> conv1 (in-place)
I0205 00:52:44.528820 11020 net.cpp:150] Setting up relu1
I0205 00:52:44.528827 11020 net.cpp:157] Top shape: 100 32 55 55 (9680000)
I0205 00:52:44.528836 11020 net.cpp:165] Memory required for data: 98052800
I0205 00:52:44.528841 11020 layer_factory.hpp:77] Creating layer pool1
I0205 00:52:44.528851 11020 net.cpp:106] Creating Layer pool1
I0205 00:52:44.528857 11020 net.cpp:454] pool1 <- conv1
I0205 00:52:44.528864 11020 net.cpp:411] pool1 -> pool1
I0205 00:52:44.528877 11020 net.cpp:150] Setting up pool1
I0205 00:52:44.528884 11020 net.cpp:157] Top shape: 100 32 27 27 (2332800)
I0205 00:52:44.528890 11020 net.cpp:165] Memory required for data: 107384000
I0205 00:52:44.528898 11020 layer_factory.hpp:77] Creating layer norm1
I0205 00:52:44.528908 11020 net.cpp:106] Creating Layer norm1
I0205 00:52:44.528913 11020 net.cpp:454] norm1 <- pool1
I0205 00:52:44.528920 11020 net.cpp:411] norm1 -> norm1
I0205 00:52:44.528931 11020 net.cpp:150] Setting up norm1
I0205 00:52:44.528939 11020 net.cpp:157] Top shape: 100 32 27 27 (2332800)
I0205 00:52:44.528944 11020 net.cpp:165] Memory required for data: 116715200
I0205 00:52:44.528949 11020 layer_factory.hpp:77] Creating layer conv2
I0205 00:52:44.528959 11020 net.cpp:106] Creating Layer conv2
I0205 00:52:44.528965 11020 net.cpp:454] conv2 <- norm1
I0205 00:52:44.528973 11020 net.cpp:411] conv2 -> conv2
I0205 00:52:44.529114 11020 net.cpp:150] Setting up conv2
I0205 00:52:44.529122 11020 net.cpp:157] Top shape: 100 32 27 27 (2332800)
I0205 00:52:44.529129 11020 net.cpp:165] Memory required for data: 126046400
I0205 00:52:44.529139 11020 layer_factory.hpp:77] Creating layer relu2
I0205 00:52:44.529147 11020 net.cpp:106] Creating Layer relu2
I0205 00:52:44.529153 11020 net.cpp:454] relu2 <- conv2
I0205 00:52:44.529171 11020 net.cpp:397] relu2 -> conv2 (in-place)
I0205 00:52:44.529192 11020 net.cpp:150] Setting up relu2
I0205 00:52:44.529201 11020 net.cpp:157] Top shape: 100 32 27 27 (2332800)
I0205 00:52:44.529206 11020 net.cpp:165] Memory required for data: 135377600
I0205 00:52:44.529211 11020 layer_factory.hpp:77] Creating layer pool2
I0205 00:52:44.529220 11020 net.cpp:106] Creating Layer pool2
I0205 00:52:44.529225 11020 net.cpp:454] pool2 <- conv2
I0205 00:52:44.529233 11020 net.cpp:411] pool2 -> pool2
I0205 00:52:44.529245 11020 net.cpp:150] Setting up pool2
I0205 00:52:44.529254 11020 net.cpp:157] Top shape: 100 32 13 13 (540800)
I0205 00:52:44.529260 11020 net.cpp:165] Memory required for data: 137540800
I0205 00:52:44.529266 11020 layer_factory.hpp:77] Creating layer norm2
I0205 00:52:44.529274 11020 net.cpp:106] Creating Layer norm2
I0205 00:52:44.529280 11020 net.cpp:454] norm2 <- pool2
I0205 00:52:44.529287 11020 net.cpp:411] norm2 -> norm2
I0205 00:52:44.529296 11020 net.cpp:150] Setting up norm2
I0205 00:52:44.529304 11020 net.cpp:157] Top shape: 100 32 13 13 (540800)
I0205 00:52:44.529309 11020 net.cpp:165] Memory required for data: 139704000
I0205 00:52:44.529314 11020 layer_factory.hpp:77] Creating layer conv3
I0205 00:52:44.529325 11020 net.cpp:106] Creating Layer conv3
I0205 00:52:44.529330 11020 net.cpp:454] conv3 <- norm2
I0205 00:52:44.529338 11020 net.cpp:411] conv3 -> conv3
I0205 00:52:44.529436 11020 net.cpp:150] Setting up conv3
I0205 00:52:44.529445 11020 net.cpp:157] Top shape: 100 32 13 13 (540800)
I0205 00:52:44.529453 11020 net.cpp:165] Memory required for data: 141867200
I0205 00:52:44.529464 11020 layer_factory.hpp:77] Creating layer relu3
I0205 00:52:44.529471 11020 net.cpp:106] Creating Layer relu3
I0205 00:52:44.529477 11020 net.cpp:454] relu3 <- conv3
I0205 00:52:44.529484 11020 net.cpp:397] relu3 -> conv3 (in-place)
I0205 00:52:44.529492 11020 net.cpp:150] Setting up relu3
I0205 00:52:44.529500 11020 net.cpp:157] Top shape: 100 32 13 13 (540800)
I0205 00:52:44.529505 11020 net.cpp:165] Memory required for data: 144030400
I0205 00:52:44.529510 11020 layer_factory.hpp:77] Creating layer conv4
I0205 00:52:44.529520 11020 net.cpp:106] Creating Layer conv4
I0205 00:52:44.529525 11020 net.cpp:454] conv4 <- conv3
I0205 00:52:44.529536 11020 net.cpp:411] conv4 -> conv4
I0205 00:52:44.529593 11020 net.cpp:150] Setting up conv4
I0205 00:52:44.529602 11020 net.cpp:157] Top shape: 100 32 13 13 (540800)
I0205 00:52:44.529606 11020 net.cpp:165] Memory required for data: 146193600
I0205 00:52:44.529614 11020 layer_factory.hpp:77] Creating layer relu4
I0205 00:52:44.529623 11020 net.cpp:106] Creating Layer relu4
I0205 00:52:44.529628 11020 net.cpp:454] relu4 <- conv4
I0205 00:52:44.529639 11020 net.cpp:397] relu4 -> conv4 (in-place)
I0205 00:52:44.529646 11020 net.cpp:150] Setting up relu4
I0205 00:52:44.529652 11020 net.cpp:157] Top shape: 100 32 13 13 (540800)
I0205 00:52:44.529659 11020 net.cpp:165] Memory required for data: 148356800
I0205 00:52:44.529664 11020 layer_factory.hpp:77] Creating layer conv5
I0205 00:52:44.529674 11020 net.cpp:106] Creating Layer conv5
I0205 00:52:44.529678 11020 net.cpp:454] conv5 <- conv4
I0205 00:52:44.529686 11020 net.cpp:411] conv5 -> conv5
I0205 00:52:44.529727 11020 net.cpp:150] Setting up conv5
I0205 00:52:44.529736 11020 net.cpp:157] Top shape: 100 16 13 13 (270400)
I0205 00:52:44.529741 11020 net.cpp:165] Memory required for data: 149438400
I0205 00:52:44.529752 11020 layer_factory.hpp:77] Creating layer relu5
I0205 00:52:44.529759 11020 net.cpp:106] Creating Layer relu5
I0205 00:52:44.529764 11020 net.cpp:454] relu5 <- conv5
I0205 00:52:44.529772 11020 net.cpp:397] relu5 -> conv5 (in-place)
I0205 00:52:44.529779 11020 net.cpp:150] Setting up relu5
I0205 00:52:44.529786 11020 net.cpp:157] Top shape: 100 16 13 13 (270400)
I0205 00:52:44.529791 11020 net.cpp:165] Memory required for data: 150520000
I0205 00:52:44.529798 11020 layer_factory.hpp:77] Creating layer pool5
I0205 00:52:44.529809 11020 net.cpp:106] Creating Layer pool5
I0205 00:52:44.529819 11020 net.cpp:454] pool5 <- conv5
I0205 00:52:44.529836 11020 net.cpp:411] pool5 -> pool5
I0205 00:52:44.529847 11020 net.cpp:150] Setting up pool5
I0205 00:52:44.529855 11020 net.cpp:157] Top shape: 100 16 6 6 (57600)
I0205 00:52:44.529860 11020 net.cpp:165] Memory required for data: 150750400
I0205 00:52:44.529865 11020 layer_factory.hpp:77] Creating layer fc6
I0205 00:52:44.529877 11020 net.cpp:106] Creating Layer fc6
I0205 00:52:44.529883 11020 net.cpp:454] fc6 <- pool5
I0205 00:52:44.529891 11020 net.cpp:411] fc6 -> fc6
I0205 00:52:44.531605 11020 net.cpp:150] Setting up fc6
I0205 00:52:44.531620 11020 net.cpp:157] Top shape: 100 256 (25600)
I0205 00:52:44.531625 11020 net.cpp:165] Memory required for data: 150852800
I0205 00:52:44.531633 11020 layer_factory.hpp:77] Creating layer relu6
I0205 00:52:44.531643 11020 net.cpp:106] Creating Layer relu6
I0205 00:52:44.531651 11020 net.cpp:454] relu6 <- fc6
I0205 00:52:44.531659 11020 net.cpp:397] relu6 -> fc6 (in-place)
I0205 00:52:44.531667 11020 net.cpp:150] Setting up relu6
I0205 00:52:44.531674 11020 net.cpp:157] Top shape: 100 256 (25600)
I0205 00:52:44.531679 11020 net.cpp:165] Memory required for data: 150955200
I0205 00:52:44.531685 11020 layer_factory.hpp:77] Creating layer drop6
I0205 00:52:44.531694 11020 net.cpp:106] Creating Layer drop6
I0205 00:52:44.531700 11020 net.cpp:454] drop6 <- fc6
I0205 00:52:44.531708 11020 net.cpp:397] drop6 -> fc6 (in-place)
I0205 00:52:44.531719 11020 net.cpp:150] Setting up drop6
I0205 00:52:44.531725 11020 net.cpp:157] Top shape: 100 256 (25600)
I0205 00:52:44.531731 11020 net.cpp:165] Memory required for data: 151057600
I0205 00:52:44.531736 11020 layer_factory.hpp:77] Creating layer fc7
I0205 00:52:44.531745 11020 net.cpp:106] Creating Layer fc7
I0205 00:52:44.531751 11020 net.cpp:454] fc7 <- fc6
I0205 00:52:44.531759 11020 net.cpp:411] fc7 -> fc7
I0205 00:52:44.532476 11020 net.cpp:150] Setting up fc7
I0205 00:52:44.532490 11020 net.cpp:157] Top shape: 100 256 (25600)
I0205 00:52:44.532495 11020 net.cpp:165] Memory required for data: 151160000
I0205 00:52:44.532505 11020 layer_factory.hpp:77] Creating layer relu7
I0205 00:52:44.532512 11020 net.cpp:106] Creating Layer relu7
I0205 00:52:44.532518 11020 net.cpp:454] relu7 <- fc7
I0205 00:52:44.532531 11020 net.cpp:397] relu7 -> fc7 (in-place)
I0205 00:52:44.532539 11020 net.cpp:150] Setting up relu7
I0205 00:52:44.532546 11020 net.cpp:157] Top shape: 100 256 (25600)
I0205 00:52:44.532552 11020 net.cpp:165] Memory required for data: 151262400
I0205 00:52:44.532557 11020 layer_factory.hpp:77] Creating layer drop7
I0205 00:52:44.532565 11020 net.cpp:106] Creating Layer drop7
I0205 00:52:44.532570 11020 net.cpp:454] drop7 <- fc7
I0205 00:52:44.532577 11020 net.cpp:397] drop7 -> fc7 (in-place)
I0205 00:52:44.532590 11020 net.cpp:150] Setting up drop7
I0205 00:52:44.532598 11020 net.cpp:157] Top shape: 100 256 (25600)
I0205 00:52:44.532603 11020 net.cpp:165] Memory required for data: 151364800
I0205 00:52:44.532608 11020 layer_factory.hpp:77] Creating layer fc8
I0205 00:52:44.532618 11020 net.cpp:106] Creating Layer fc8
I0205 00:52:44.532624 11020 net.cpp:454] fc8 <- fc7
I0205 00:52:44.532630 11020 net.cpp:411] fc8 -> fc8
I0205 00:52:44.532660 11020 net.cpp:150] Setting up fc8
I0205 00:52:44.532668 11020 net.cpp:157] Top shape: 100 2 (200)
I0205 00:52:44.532673 11020 net.cpp:165] Memory required for data: 151365600
I0205 00:52:44.532681 11020 layer_factory.hpp:77] Creating layer fc8_fc8_0_split
I0205 00:52:44.532693 11020 net.cpp:106] Creating Layer fc8_fc8_0_split
I0205 00:52:44.532701 11020 net.cpp:454] fc8_fc8_0_split <- fc8
I0205 00:52:44.532707 11020 net.cpp:411] fc8_fc8_0_split -> fc8_fc8_0_split_0
I0205 00:52:44.532719 11020 net.cpp:411] fc8_fc8_0_split -> fc8_fc8_0_split_1
I0205 00:52:44.532728 11020 net.cpp:150] Setting up fc8_fc8_0_split
I0205 00:52:44.532735 11020 net.cpp:157] Top shape: 100 2 (200)
I0205 00:52:44.532742 11020 net.cpp:157] Top shape: 100 2 (200)
I0205 00:52:44.532747 11020 net.cpp:165] Memory required for data: 151367200
I0205 00:52:44.532752 11020 layer_factory.hpp:77] Creating layer accuracy
I0205 00:52:44.532776 11020 net.cpp:106] Creating Layer accuracy
I0205 00:52:44.532783 11020 net.cpp:454] accuracy <- fc8_fc8_0_split_0
I0205 00:52:44.532789 11020 net.cpp:454] accuracy <- label_data_1_split_0
I0205 00:52:44.532798 11020 net.cpp:411] accuracy -> accuracy
…
