…
I0204 19:41:44.095580  5898 net.cpp:322] The NetState phase (0) differed from the phase (1) specified by a rule in layer accuracy
I0204 19:41:44.095836  5898 net.cpp:49] Initializing net from parameters: 
name: "CaffeNet"
state {
  phase: TRAIN
}
layer {
  name: "data"
  type: "Data"
  top: "data"
  top: "label"
  include {
    phase: TRAIN
  }
  transform_param {
    mirror: true
    crop_size: 227
    mean_file: "/home/pearlstl/proj_cv/master/lmdb/synth1_train_lum_db/mean_file.binaryproto"
  }
  data_param {
    source: "/home/pearlstl/proj_cv/master/lmdb/synth1_train_lum_db"
    batch_size: 100
    backend: LMDB
  }
}
layer {
  name: "conv1"
  type: "Convolution"
  bottom: "data"
  top: "conv1"
  param {
    lr_mult: 1
    decay_mult: 1
  }
  param {
    lr_mult: 2
    decay_mult: 0
  }
  convolution_param {
    num_output: 32
    kernel_size: 11
    stride: 4
    weight_filler {
      type: "xavier"
    }
    bias_filler {
      type: "constant"
      value: 0
    }
  }
}
layer {
  name: "relu1"
  type: "ReLU"
  bottom: "conv1"
  top: "conv1"
}
layer {
  name: "pool1"
  type: "Pooling"
  bottom: "conv1"
  top: "pool1"
  pooling_param {
    pool: MAX
    kernel_size: 3
    stride: 2
  }
}
layer {
  name: "norm1"
  type: "LRN"
  bottom: "pool1"
  top: "norm1"
  lrn_param {
    local_size: 5
    alpha: 0.0001
    beta: 0.75
  }
}
layer {
  name: "conv2"
  type: "Convolution"
  bottom: "norm1"
  top: "conv2"
  param {
    lr_mult: 1
    decay_mult: 1
  }
  param {
    lr_mult: 2
    decay_mult: 0
  }
  convolution_param {
    num_output: 32
    pad: 2
    kernel_size: 5
    group: 2
    weight_filler {
      type: "xavier"
    }
    bias_filler {
      type: "constant"
      value: 1
    }
  }
}
layer {
  name: "relu2"
  type: "ReLU"
  bottom: "conv2"
  top: "conv2"
}
layer {
  name: "pool2"
  type: "Pooling"
  bottom: "conv2"
  top: "pool2"
  pooling_param {
    pool: MAX
    kernel_size: 3
    stride: 2
  }
}
layer {
  name: "norm2"
  type: "LRN"
  bottom: "pool2"
  top: "norm2"
  lrn_param {
    local_size: 5
    alpha: 0.0001
    beta: 0.75
  }
}
layer {
  name: "conv3"
  type: "Convolution"
  bottom: "norm2"
  top: "conv3"
  param {
    lr_mult: 1
    decay_mult: 1
  }
  param {
    lr_mult: 2
    decay_mult: 0
  }
  convolution_param {
    num_output: 32
    pad: 1
    kernel_size: 3
    weight_filler {
      type: "xavier"
    }
    bias_filler {
      type: "constant"
      value: 0
    }
  }
}
layer {
  name: "relu3"
  type: "ReLU"
  bottom: "conv3"
  top: "conv3"
}
layer {
  name: "conv4"
  type: "Convolution"
  bottom: "conv3"
  top: "conv4"
  param {
    lr_mult: 1
    decay_mult: 1
  }
  param {
    lr_mult: 2
    decay_mult: 0
  }
  convolution_param {
    num_output: 32
    pad: 1
    kernel_size: 3
    group: 2
    weight_filler {
      type: "xavier"
    }
    bias_filler {
      type: "constant"
      value: 1
    }
  }
}
layer {
  name: "relu4"
  type: "ReLU"
  bottom: "conv4"
  top: "conv4"
}
layer {
  name: "conv5"
  type: "Convolution"
  bottom: "conv4"
  top: "conv5"
  param {
    lr_mult: 1
    decay_mult: 1
  }
  param {
    lr_mult: 2
    decay_mult: 0
  }
  convolution_param {
    num_output: 16
    pad: 1
    kernel_size: 3
    group: 2
    weight_filler {
      type: "xavier"
    }
    bias_filler {
      type: "constant"
      value: 1
    }
  }
}
layer {
  name: "relu5"
  type: "ReLU"
  bottom: "conv5"
  top: "conv5"
}
layer {
  name: "pool5"
  type: "Pooling"
  bottom: "conv5"
  top: "pool5"
  pooling_param {
    pool: MAX
    kernel_size: 3
    stride: 2
  }
}
layer {
  name: "fc6"
  type: "InnerProduct"
  bottom: "pool5"
  top: "fc6"
  param {
    lr_mult: 1
    decay_mult: 1
  }
  param {
    lr_mult: 2
    decay_mult: 0
  }
  inner_product_param {
    num_output: 256
    weight_filler {
      type: "xavier"
    }
    bias_filler {
      type: "constant"
      value: 1
    }
  }
}
layer {
  name: "relu6"
  type: "ReLU"
  bottom: "fc6"
  top: "fc6"
}
layer {
  name: "drop6"
  type: "Dropout"
  bottom: "fc6"
  top: "fc6"
  dropout_param {
    dropout_ratio: 0.5
  }
}
layer {
  name: "fc7"
  type: "InnerProduct"
  bottom: "fc6"
  top: "fc7"
  param {
    lr_mult: 1
    decay_mult: 1
  }
  param {
    lr_mult: 2
    decay_mult: 0
  }
  inner_product_param {
    num_output: 256
    weight_filler {
      type: "xavier"
    }
    bias_filler {
      type: "constant"
      value: 1
    }
  }
}
layer {
  name: "relu7"
  type: "ReLU"
  bottom: "fc7"
  top: "fc7"
}
layer {
  name: "drop7"
  type: "Dropout"
  bottom: "fc7"
  top: "fc7"
  dropout_param {
    dropout_ratio: 0.5
  }
}
layer {
  name: "fc8"
  type: "InnerProduct"
  bottom: "fc7"
  top: "fc8"
  param {
    lr_mult: 1
    decay_mult: 1
  }
  param {
    lr_mult: 2
    decay_mult: 0
  }
  inner_product_param {
    num_output: 2
    weight_filler {
      type: "xavier"
    }
    bias_filler {
      type: "constant"
      value: 0
    }
  }
}
layer {
  name: "loss"
  type: "SoftmaxWithLoss"
  bottom: "fc8"
  bottom: "label"
  top: "loss"
}
I0204 19:41:44.095988  5898 layer_factory.hpp:77] Creating layer data
I0204 19:41:44.096202  5898 net.cpp:106] Creating Layer data
I0204 19:41:44.096227  5898 net.cpp:411] data -> data
I0204 19:41:44.096312  5898 net.cpp:411] data -> label
I0204 19:41:44.096338  5898 data_transformer.cpp:25] Loading mean file from: /home/pearlstl/proj_cv/master/lmdb/synth1_train_lum_db/mean_file.binaryproto
I0204 19:41:44.096493  5899 db_lmdb.cpp:38] Opened lmdb /home/pearlstl/proj_cv/master/lmdb/synth1_train_lum_db
I0204 19:41:44.097628  5898 data_layer.cpp:41] output data size: 100,1,227,227
I0204 19:41:44.131878  5898 net.cpp:150] Setting up data
I0204 19:41:44.131976  5898 net.cpp:157] Top shape: 100 1 227 227 (5152900)
I0204 19:41:44.131988  5898 net.cpp:157] Top shape: 100 (100)
I0204 19:41:44.131994  5898 net.cpp:165] Memory required for data: 20612000
I0204 19:41:44.132016  5898 layer_factory.hpp:77] Creating layer conv1
I0204 19:41:44.132047  5898 net.cpp:106] Creating Layer conv1
I0204 19:41:44.132057  5898 net.cpp:454] conv1 <- data
I0204 19:41:44.132081  5898 net.cpp:411] conv1 -> conv1
I0204 19:41:44.132236  5898 net.cpp:150] Setting up conv1
I0204 19:41:44.132249  5898 net.cpp:157] Top shape: 100 32 55 55 (9680000)
I0204 19:41:44.132256  5898 net.cpp:165] Memory required for data: 59332000
I0204 19:41:44.132275  5898 layer_factory.hpp:77] Creating layer relu1
I0204 19:41:44.132288  5898 net.cpp:106] Creating Layer relu1
I0204 19:41:44.132294  5898 net.cpp:454] relu1 <- conv1
I0204 19:41:44.132304  5898 net.cpp:397] relu1 -> conv1 (in-place)
I0204 19:41:44.132318  5898 net.cpp:150] Setting up relu1
I0204 19:41:44.132326  5898 net.cpp:157] Top shape: 100 32 55 55 (9680000)
I0204 19:41:44.132331  5898 net.cpp:165] Memory required for data: 98052000
I0204 19:41:44.132338  5898 layer_factory.hpp:77] Creating layer pool1
I0204 19:41:44.132349  5898 net.cpp:106] Creating Layer pool1
I0204 19:41:44.132355  5898 net.cpp:454] pool1 <- conv1
I0204 19:41:44.132364  5898 net.cpp:411] pool1 -> pool1
I0204 19:41:44.132395  5898 net.cpp:150] Setting up pool1
I0204 19:41:44.132403  5898 net.cpp:157] Top shape: 100 32 27 27 (2332800)
I0204 19:41:44.132410  5898 net.cpp:165] Memory required for data: 107383200
I0204 19:41:44.132416  5898 layer_factory.hpp:77] Creating layer norm1
I0204 19:41:44.132447  5898 net.cpp:106] Creating Layer norm1
I0204 19:41:44.132454  5898 net.cpp:454] norm1 <- pool1
I0204 19:41:44.132462  5898 net.cpp:411] norm1 -> norm1
I0204 19:41:44.132482  5898 net.cpp:150] Setting up norm1
I0204 19:41:44.132490  5898 net.cpp:157] Top shape: 100 32 27 27 (2332800)
I0204 19:41:44.132496  5898 net.cpp:165] Memory required for data: 116714400
I0204 19:41:44.132504  5898 layer_factory.hpp:77] Creating layer conv2
I0204 19:41:44.132516  5898 net.cpp:106] Creating Layer conv2
I0204 19:41:44.132522  5898 net.cpp:454] conv2 <- norm1
I0204 19:41:44.132531  5898 net.cpp:411] conv2 -> conv2
I0204 19:41:44.132665  5898 net.cpp:150] Setting up conv2
I0204 19:41:44.132675  5898 net.cpp:157] Top shape: 100 32 27 27 (2332800)
I0204 19:41:44.132680  5898 net.cpp:165] Memory required for data: 126045600
I0204 19:41:44.132691  5898 layer_factory.hpp:77] Creating layer relu2
I0204 19:41:44.132701  5898 net.cpp:106] Creating Layer relu2
I0204 19:41:44.132707  5898 net.cpp:454] relu2 <- conv2
I0204 19:41:44.132715  5898 net.cpp:397] relu2 -> conv2 (in-place)
I0204 19:41:44.132725  5898 net.cpp:150] Setting up relu2
I0204 19:41:44.132732  5898 net.cpp:157] Top shape: 100 32 27 27 (2332800)
I0204 19:41:44.132737  5898 net.cpp:165] Memory required for data: 135376800
I0204 19:41:44.132743  5898 layer_factory.hpp:77] Creating layer pool2
I0204 19:41:44.132761  5898 net.cpp:106] Creating Layer pool2
I0204 19:41:44.132769  5898 net.cpp:454] pool2 <- conv2
I0204 19:41:44.132779  5898 net.cpp:411] pool2 -> pool2
I0204 19:41:44.132791  5898 net.cpp:150] Setting up pool2
I0204 19:41:44.132798  5898 net.cpp:157] Top shape: 100 32 13 13 (540800)
I0204 19:41:44.132804  5898 net.cpp:165] Memory required for data: 137540000
I0204 19:41:44.132809  5898 layer_factory.hpp:77] Creating layer norm2
I0204 19:41:44.132820  5898 net.cpp:106] Creating Layer norm2
I0204 19:41:44.132825  5898 net.cpp:454] norm2 <- pool2
I0204 19:41:44.132838  5898 net.cpp:411] norm2 -> norm2
I0204 19:41:44.132848  5898 net.cpp:150] Setting up norm2
I0204 19:41:44.132854  5898 net.cpp:157] Top shape: 100 32 13 13 (540800)
I0204 19:41:44.132859  5898 net.cpp:165] Memory required for data: 139703200
I0204 19:41:44.132865  5898 layer_factory.hpp:77] Creating layer conv3
I0204 19:41:44.132876  5898 net.cpp:106] Creating Layer conv3
I0204 19:41:44.132882  5898 net.cpp:454] conv3 <- norm2
I0204 19:41:44.132891  5898 net.cpp:411] conv3 -> conv3
I0204 19:41:44.133008  5898 net.cpp:150] Setting up conv3
I0204 19:41:44.133018  5898 net.cpp:157] Top shape: 100 32 13 13 (540800)
I0204 19:41:44.133023  5898 net.cpp:165] Memory required for data: 141866400
I0204 19:41:44.133036  5898 layer_factory.hpp:77] Creating layer relu3
I0204 19:41:44.133049  5898 net.cpp:106] Creating Layer relu3
I0204 19:41:44.133056  5898 net.cpp:454] relu3 <- conv3
I0204 19:41:44.133064  5898 net.cpp:397] relu3 -> conv3 (in-place)
I0204 19:41:44.133074  5898 net.cpp:150] Setting up relu3
I0204 19:41:44.133080  5898 net.cpp:157] Top shape: 100 32 13 13 (540800)
I0204 19:41:44.133085  5898 net.cpp:165] Memory required for data: 144029600
I0204 19:41:44.133097  5898 layer_factory.hpp:77] Creating layer conv4
I0204 19:41:44.133111  5898 net.cpp:106] Creating Layer conv4
I0204 19:41:44.133117  5898 net.cpp:454] conv4 <- conv3
I0204 19:41:44.133128  5898 net.cpp:411] conv4 -> conv4
I0204 19:41:44.133203  5898 net.cpp:150] Setting up conv4
I0204 19:41:44.133213  5898 net.cpp:157] Top shape: 100 32 13 13 (540800)
I0204 19:41:44.133219  5898 net.cpp:165] Memory required for data: 146192800
I0204 19:41:44.133226  5898 layer_factory.hpp:77] Creating layer relu4
I0204 19:41:44.133235  5898 net.cpp:106] Creating Layer relu4
I0204 19:41:44.133241  5898 net.cpp:454] relu4 <- conv4
I0204 19:41:44.133249  5898 net.cpp:397] relu4 -> conv4 (in-place)
I0204 19:41:44.133257  5898 net.cpp:150] Setting up relu4
I0204 19:41:44.133265  5898 net.cpp:157] Top shape: 100 32 13 13 (540800)
I0204 19:41:44.133270  5898 net.cpp:165] Memory required for data: 148356000
I0204 19:41:44.133280  5898 layer_factory.hpp:77] Creating layer conv5
I0204 19:41:44.133303  5898 net.cpp:106] Creating Layer conv5
I0204 19:41:44.133311  5898 net.cpp:454] conv5 <- conv4
I0204 19:41:44.133322  5898 net.cpp:411] conv5 -> conv5
I0204 19:41:44.133369  5898 net.cpp:150] Setting up conv5
I0204 19:41:44.133378  5898 net.cpp:157] Top shape: 100 16 13 13 (270400)
I0204 19:41:44.133384  5898 net.cpp:165] Memory required for data: 149437600
I0204 19:41:44.133394  5898 layer_factory.hpp:77] Creating layer relu5
I0204 19:41:44.133404  5898 net.cpp:106] Creating Layer relu5
I0204 19:41:44.133409  5898 net.cpp:454] relu5 <- conv5
I0204 19:41:44.133419  5898 net.cpp:397] relu5 -> conv5 (in-place)
I0204 19:41:44.133429  5898 net.cpp:150] Setting up relu5
I0204 19:41:44.133435  5898 net.cpp:157] Top shape: 100 16 13 13 (270400)
I0204 19:41:44.133440  5898 net.cpp:165] Memory required for data: 150519200
I0204 19:41:44.133448  5898 layer_factory.hpp:77] Creating layer pool5
I0204 19:41:44.133457  5898 net.cpp:106] Creating Layer pool5
I0204 19:41:44.133463  5898 net.cpp:454] pool5 <- conv5
I0204 19:41:44.133474  5898 net.cpp:411] pool5 -> pool5
I0204 19:41:44.133486  5898 net.cpp:150] Setting up pool5
I0204 19:41:44.133492  5898 net.cpp:157] Top shape: 100 16 6 6 (57600)
I0204 19:41:44.133498  5898 net.cpp:165] Memory required for data: 150749600
I0204 19:41:44.133503  5898 layer_factory.hpp:77] Creating layer fc6
I0204 19:41:44.133520  5898 net.cpp:106] Creating Layer fc6
I0204 19:41:44.133527  5898 net.cpp:454] fc6 <- pool5
I0204 19:41:44.133538  5898 net.cpp:411] fc6 -> fc6
I0204 19:41:44.135138  5898 net.cpp:150] Setting up fc6
I0204 19:41:44.135152  5898 net.cpp:157] Top shape: 100 256 (25600)
I0204 19:41:44.135159  5898 net.cpp:165] Memory required for data: 150852000
I0204 19:41:44.135169  5898 layer_factory.hpp:77] Creating layer relu6
I0204 19:41:44.135180  5898 net.cpp:106] Creating Layer relu6
I0204 19:41:44.135186  5898 net.cpp:454] relu6 <- fc6
I0204 19:41:44.135193  5898 net.cpp:397] relu6 -> fc6 (in-place)
I0204 19:41:44.135203  5898 net.cpp:150] Setting up relu6
I0204 19:41:44.135212  5898 net.cpp:157] Top shape: 100 256 (25600)
I0204 19:41:44.135218  5898 net.cpp:165] Memory required for data: 150954400
I0204 19:41:44.135224  5898 layer_factory.hpp:77] Creating layer drop6
I0204 19:41:44.135234  5898 net.cpp:106] Creating Layer drop6
I0204 19:41:44.135241  5898 net.cpp:454] drop6 <- fc6
I0204 19:41:44.135248  5898 net.cpp:397] drop6 -> fc6 (in-place)
I0204 19:41:44.135267  5898 net.cpp:150] Setting up drop6
I0204 19:41:44.135275  5898 net.cpp:157] Top shape: 100 256 (25600)
I0204 19:41:44.135280  5898 net.cpp:165] Memory required for data: 151056800
I0204 19:41:44.135287  5898 layer_factory.hpp:77] Creating layer fc7
I0204 19:41:44.135295  5898 net.cpp:106] Creating Layer fc7
I0204 19:41:44.135301  5898 net.cpp:454] fc7 <- fc6
I0204 19:41:44.135313  5898 net.cpp:411] fc7 -> fc7
I0204 19:41:44.136003  5898 net.cpp:150] Setting up fc7
I0204 19:41:44.136018  5898 net.cpp:157] Top shape: 100 256 (25600)
I0204 19:41:44.136023  5898 net.cpp:165] Memory required for data: 151159200
I0204 19:41:44.136031  5898 layer_factory.hpp:77] Creating layer relu7
I0204 19:41:44.136039  5898 net.cpp:106] Creating Layer relu7
I0204 19:41:44.136045  5898 net.cpp:454] relu7 <- fc7
I0204 19:41:44.136056  5898 net.cpp:397] relu7 -> fc7 (in-place)
I0204 19:41:44.136065  5898 net.cpp:150] Setting up relu7
I0204 19:41:44.136072  5898 net.cpp:157] Top shape: 100 256 (25600)
I0204 19:41:44.136077  5898 net.cpp:165] Memory required for data: 151261600
I0204 19:41:44.136083  5898 layer_factory.hpp:77] Creating layer drop7
I0204 19:41:44.136098  5898 net.cpp:106] Creating Layer drop7
I0204 19:41:44.136104  5898 net.cpp:454] drop7 <- fc7
I0204 19:41:44.136114  5898 net.cpp:397] drop7 -> fc7 (in-place)
I0204 19:41:44.136126  5898 net.cpp:150] Setting up drop7
I0204 19:41:44.136132  5898 net.cpp:157] Top shape: 100 256 (25600)
I0204 19:41:44.136137  5898 net.cpp:165] Memory required for data: 151364000
I0204 19:41:44.136145  5898 layer_factory.hpp:77] Creating layer fc8
I0204 19:41:44.136160  5898 net.cpp:106] Creating Layer fc8
I0204 19:41:44.136175  5898 net.cpp:454] fc8 <- fc7
I0204 19:41:44.136186  5898 net.cpp:411] fc8 -> fc8
I0204 19:41:44.136211  5898 net.cpp:150] Setting up fc8
I0204 19:41:44.136219  5898 net.cpp:157] Top shape: 100 2 (200)
I0204 19:41:44.136224  5898 net.cpp:165] Memory required for data: 151364800
I0204 19:41:44.136232  5898 layer_factory.hpp:77] Creating layer loss
I0204 19:41:44.136245  5898 net.cpp:106] Creating Layer loss
I0204 19:41:44.136250  5898 net.cpp:454] loss <- fc8
I0204 19:41:44.136260  5898 net.cpp:454] loss <- label
I0204 19:41:44.136270  5898 net.cpp:411] loss -> loss
I0204 19:41:44.136286  5898 layer_factory.hpp:77] Creating layer loss
…
I0204 19:41:44.137423  5898 net.cpp:322] The NetState phase (1) differed from the phase (0) specified by a rule in layer data
I0204 19:41:44.137732  5898 net.cpp:49] Initializing net from parameters: 
name: "CaffeNet"
state {
  phase: TEST
}
layer {
  name: "data"
  type: "Data"
  top: "data"
  top: "label"
  include {
    phase: TEST
  }
  transform_param {
    mirror: false
    crop_size: 227
    mean_file: "/home/pearlstl/proj_cv/master/lmdb/synth1_test_lum_db/mean_file.binaryproto"
  }
  data_param {
    source: "/home/pearlstl/proj_cv/master/lmdb/synth1_test_lum_db"
    batch_size: 100
    backend: LMDB
  }
}
layer {
  name: "conv1"
  type: "Convolution"
  bottom: "data"
  top: "conv1"
  param {
    lr_mult: 1
    decay_mult: 1
  }
  param {
    lr_mult: 2
    decay_mult: 0
  }
  convolution_param {
    num_output: 32
    kernel_size: 11
    stride: 4
    weight_filler {
      type: "xavier"
    }
    bias_filler {
      type: "constant"
      value: 0
    }
  }
}
layer {
  name: "relu1"
  type: "ReLU"
  bottom: "conv1"
  top: "conv1"
}
layer {
  name: "pool1"
  type: "Pooling"
  bottom: "conv1"
  top: "pool1"
  pooling_param {
    pool: MAX
    kernel_size: 3
    stride: 2
  }
}
layer {
  name: "norm1"
  type: "LRN"
  bottom: "pool1"
  top: "norm1"
  lrn_param {
    local_size: 5
    alpha: 0.0001
    beta: 0.75
  }
}
layer {
  name: "conv2"
  type: "Convolution"
  bottom: "norm1"
  top: "conv2"
  param {
    lr_mult: 1
    decay_mult: 1
  }
  param {
    lr_mult: 2
    decay_mult: 0
  }
  convolution_param {
    num_output: 32
    pad: 2
    kernel_size: 5
    group: 2
    weight_filler {
      type: "xavier"
    }
    bias_filler {
      type: "constant"
      value: 1
    }
  }
}
layer {
  name: "relu2"
  type: "ReLU"
  bottom: "conv2"
  top: "conv2"
}
layer {
  name: "pool2"
  type: "Pooling"
  bottom: "conv2"
  top: "pool2"
  pooling_param {
    pool: MAX
    kernel_size: 3
    stride: 2
  }
}
layer {
  name: "norm2"
  type: "LRN"
  bottom: "pool2"
  top: "norm2"
  lrn_param {
    local_size: 5
    alpha: 0.0001
    beta: 0.75
  }
}
layer {
  name: "conv3"
  type: "Convolution"
  bottom: "norm2"
  top: "conv3"
  param {
    lr_mult: 1
    decay_mult: 1
  }
  param {
    lr_mult: 2
    decay_mult: 0
  }
  convolution_param {
    num_output: 32
    pad: 1
    kernel_size: 3
    weight_filler {
      type: "xavier"
    }
    bias_filler {
      type: "constant"
      value: 0
    }
  }
}
layer {
  name: "relu3"
  type: "ReLU"
  bottom: "conv3"
  top: "conv3"
}
layer {
  name: "conv4"
  type: "Convolution"
  bottom: "conv3"
  top: "conv4"
  param {
    lr_mult: 1
    decay_mult: 1
  }
  param {
    lr_mult: 2
    decay_mult: 0
  }
  convolution_param {
    num_output: 32
    pad: 1
    kernel_size: 3
    group: 2
    weight_filler {
      type: "xavier"
    }
    bias_filler {
      type: "constant"
      value: 1
    }
  }
}
layer {
  name: "relu4"
  type: "ReLU"
  bottom: "conv4"
  top: "conv4"
}
layer {
  name: "conv5"
  type: "Convolution"
  bottom: "conv4"
  top: "conv5"
  param {
    lr_mult: 1
    decay_mult: 1
  }
  param {
    lr_mult: 2
    decay_mult: 0
  }
  convolution_param {
    num_output: 16
    pad: 1
    kernel_size: 3
    group: 2
    weight_filler {
      type: "xavier"
    }
    bias_filler {
      type: "constant"
      value: 1
    }
  }
}
layer {
  name: "relu5"
  type: "ReLU"
  bottom: "conv5"
  top: "conv5"
}
layer {
  name: "pool5"
  type: "Pooling"
  bottom: "conv5"
  top: "pool5"
  pooling_param {
    pool: MAX
    kernel_size: 3
    stride: 2
  }
}
layer {
  name: "fc6"
  type: "InnerProduct"
  bottom: "pool5"
  top: "fc6"
  param {
    lr_mult: 1
    decay_mult: 1
  }
  param {
    lr_mult: 2
    decay_mult: 0
  }
  inner_product_param {
    num_output: 256
    weight_filler {
      type: "xavier"
    }
    bias_filler {
      type: "constant"
      value: 1
    }
  }
}
layer {
  name: "relu6"
  type: "ReLU"
  bottom: "fc6"
  top: "fc6"
}
layer {
  name: "drop6"
  type: "Dropout"
  bottom: "fc6"
  top: "fc6"
  dropout_param {
    dropout_ratio: 0.5
  }
}
layer {
  name: "fc7"
  type: "InnerProduct"
  bottom: "fc6"
  top: "fc7"
  param {
    lr_mult: 1
    decay_mult: 1
  }
  param {
    lr_mult: 2
    decay_mult: 0
  }
  inner_product_param {
    num_output: 256
    weight_filler {
      type: "xavier"
    }
    bias_filler {
      type: "constant"
      value: 1
    }
  }
}
layer {
  name: "relu7"
  type: "ReLU"
  bottom: "fc7"
  top: "fc7"
}
layer {
  name: "drop7"
  type: "Dropout"
  bottom: "fc7"
  top: "fc7"
  dropout_param {
    dropout_ratio: 0.5
  }
}
layer {
  name: "fc8"
  type: "InnerProduct"
  bottom: "fc7"
  top: "fc8"
  param {
    lr_mult: 1
    decay_mult: 1
  }
  param {
    lr_mult: 2
    decay_mult: 0
  }
  inner_product_param {
    num_output: 2
    weight_filler {
      type: "xavier"
    }
    bias_filler {
      type: "constant"
      value: 0
    }
  }
}
layer {
  name: "accuracy"
  type: "Accuracy"
  bottom: "fc8"
  bottom: "label"
  top: "accuracy"
  include {
    phase: TEST
  }
}
layer {
  name: "loss"
  type: "SoftmaxWithLoss"
  bottom: "fc8"
  bottom: "label"
  top: "loss"
}
I0204 19:41:44.137918  5898 layer_factory.hpp:77] Creating layer data
I0204 19:41:44.138074  5898 net.cpp:106] Creating Layer data
I0204 19:41:44.138099  5898 net.cpp:411] data -> data
I0204 19:41:44.138114  5898 net.cpp:411] data -> label
I0204 19:41:44.138126  5898 data_transformer.cpp:25] Loading mean file from: /home/pearlstl/proj_cv/master/lmdb/synth1_test_lum_db/mean_file.binaryproto
I0204 19:41:44.138314  5903 db_lmdb.cpp:38] Opened lmdb /home/pearlstl/proj_cv/master/lmdb/synth1_test_lum_db
I0204 19:41:44.139063  5898 data_layer.cpp:41] output data size: 100,1,227,227
I0204 19:41:44.169361  5898 net.cpp:150] Setting up data
I0204 19:41:44.169402  5898 net.cpp:157] Top shape: 100 1 227 227 (5152900)
I0204 19:41:44.169411  5898 net.cpp:157] Top shape: 100 (100)
I0204 19:41:44.169417  5898 net.cpp:165] Memory required for data: 20612000
I0204 19:41:44.169428  5898 layer_factory.hpp:77] Creating layer label_data_1_split
I0204 19:41:44.169450  5898 net.cpp:106] Creating Layer label_data_1_split
I0204 19:41:44.169457  5898 net.cpp:454] label_data_1_split <- label
I0204 19:41:44.169471  5898 net.cpp:411] label_data_1_split -> label_data_1_split_0
I0204 19:41:44.169500  5898 net.cpp:411] label_data_1_split -> label_data_1_split_1
I0204 19:41:44.169513  5898 net.cpp:150] Setting up label_data_1_split
I0204 19:41:44.169522  5898 net.cpp:157] Top shape: 100 (100)
I0204 19:41:44.169528  5898 net.cpp:157] Top shape: 100 (100)
I0204 19:41:44.169533  5898 net.cpp:165] Memory required for data: 20612800
I0204 19:41:44.169539  5898 layer_factory.hpp:77] Creating layer conv1
I0204 19:41:44.169558  5898 net.cpp:106] Creating Layer conv1
I0204 19:41:44.169564  5898 net.cpp:454] conv1 <- data
I0204 19:41:44.169574  5898 net.cpp:411] conv1 -> conv1
I0204 19:41:44.169651  5898 net.cpp:150] Setting up conv1
I0204 19:41:44.169662  5898 net.cpp:157] Top shape: 100 32 55 55 (9680000)
I0204 19:41:44.169667  5898 net.cpp:165] Memory required for data: 59332800
I0204 19:41:44.169682  5898 layer_factory.hpp:77] Creating layer relu1
I0204 19:41:44.169694  5898 net.cpp:106] Creating Layer relu1
I0204 19:41:44.169702  5898 net.cpp:454] relu1 <- conv1
I0204 19:41:44.169710  5898 net.cpp:397] relu1 -> conv1 (in-place)
I0204 19:41:44.169720  5898 net.cpp:150] Setting up relu1
I0204 19:41:44.169728  5898 net.cpp:157] Top shape: 100 32 55 55 (9680000)
I0204 19:41:44.169734  5898 net.cpp:165] Memory required for data: 98052800
I0204 19:41:44.169739  5898 layer_factory.hpp:77] Creating layer pool1
I0204 19:41:44.169750  5898 net.cpp:106] Creating Layer pool1
I0204 19:41:44.169759  5898 net.cpp:454] pool1 <- conv1
I0204 19:41:44.169767  5898 net.cpp:411] pool1 -> pool1
I0204 19:41:44.169782  5898 net.cpp:150] Setting up pool1
I0204 19:41:44.169790  5898 net.cpp:157] Top shape: 100 32 27 27 (2332800)
I0204 19:41:44.169795  5898 net.cpp:165] Memory required for data: 107384000
I0204 19:41:44.169801  5898 layer_factory.hpp:77] Creating layer norm1
I0204 19:41:44.169812  5898 net.cpp:106] Creating Layer norm1
I0204 19:41:44.169818  5898 net.cpp:454] norm1 <- pool1
I0204 19:41:44.169828  5898 net.cpp:411] norm1 -> norm1
I0204 19:41:44.169841  5898 net.cpp:150] Setting up norm1
I0204 19:41:44.169847  5898 net.cpp:157] Top shape: 100 32 27 27 (2332800)
I0204 19:41:44.169853  5898 net.cpp:165] Memory required for data: 116715200
I0204 19:41:44.169859  5898 layer_factory.hpp:77] Creating layer conv2
I0204 19:41:44.169870  5898 net.cpp:106] Creating Layer conv2
I0204 19:41:44.169877  5898 net.cpp:454] conv2 <- norm1
I0204 19:41:44.169886  5898 net.cpp:411] conv2 -> conv2
I0204 19:41:44.170019  5898 net.cpp:150] Setting up conv2
I0204 19:41:44.170029  5898 net.cpp:157] Top shape: 100 32 27 27 (2332800)
I0204 19:41:44.170035  5898 net.cpp:165] Memory required for data: 126046400
I0204 19:41:44.170047  5898 layer_factory.hpp:77] Creating layer relu2
I0204 19:41:44.170058  5898 net.cpp:106] Creating Layer relu2
I0204 19:41:44.170063  5898 net.cpp:454] relu2 <- conv2
I0204 19:41:44.170083  5898 net.cpp:397] relu2 -> conv2 (in-place)
I0204 19:41:44.170109  5898 net.cpp:150] Setting up relu2
I0204 19:41:44.170116  5898 net.cpp:157] Top shape: 100 32 27 27 (2332800)
I0204 19:41:44.170122  5898 net.cpp:165] Memory required for data: 135377600
I0204 19:41:44.170130  5898 layer_factory.hpp:77] Creating layer pool2
I0204 19:41:44.170140  5898 net.cpp:106] Creating Layer pool2
I0204 19:41:44.170146  5898 net.cpp:454] pool2 <- conv2
I0204 19:41:44.170156  5898 net.cpp:411] pool2 -> pool2
I0204 19:41:44.170168  5898 net.cpp:150] Setting up pool2
I0204 19:41:44.170176  5898 net.cpp:157] Top shape: 100 32 13 13 (540800)
I0204 19:41:44.170181  5898 net.cpp:165] Memory required for data: 137540800
I0204 19:41:44.170186  5898 layer_factory.hpp:77] Creating layer norm2
I0204 19:41:44.170197  5898 net.cpp:106] Creating Layer norm2
I0204 19:41:44.170203  5898 net.cpp:454] norm2 <- pool2
I0204 19:41:44.170212  5898 net.cpp:411] norm2 -> norm2
I0204 19:41:44.170222  5898 net.cpp:150] Setting up norm2
I0204 19:41:44.170229  5898 net.cpp:157] Top shape: 100 32 13 13 (540800)
I0204 19:41:44.170235  5898 net.cpp:165] Memory required for data: 139704000
I0204 19:41:44.170240  5898 layer_factory.hpp:77] Creating layer conv3
I0204 19:41:44.170253  5898 net.cpp:106] Creating Layer conv3
I0204 19:41:44.170258  5898 net.cpp:454] conv3 <- norm2
I0204 19:41:44.170269  5898 net.cpp:411] conv3 -> conv3
I0204 19:41:44.170369  5898 net.cpp:150] Setting up conv3
I0204 19:41:44.170378  5898 net.cpp:157] Top shape: 100 32 13 13 (540800)
I0204 19:41:44.170383  5898 net.cpp:165] Memory required for data: 141867200
I0204 19:41:44.170394  5898 layer_factory.hpp:77] Creating layer relu3
I0204 19:41:44.170404  5898 net.cpp:106] Creating Layer relu3
I0204 19:41:44.170411  5898 net.cpp:454] relu3 <- conv3
I0204 19:41:44.170420  5898 net.cpp:397] relu3 -> conv3 (in-place)
I0204 19:41:44.170429  5898 net.cpp:150] Setting up relu3
I0204 19:41:44.170436  5898 net.cpp:157] Top shape: 100 32 13 13 (540800)
I0204 19:41:44.170441  5898 net.cpp:165] Memory required for data: 144030400
I0204 19:41:44.170447  5898 layer_factory.hpp:77] Creating layer conv4
I0204 19:41:44.170459  5898 net.cpp:106] Creating Layer conv4
I0204 19:41:44.170464  5898 net.cpp:454] conv4 <- conv3
I0204 19:41:44.170475  5898 net.cpp:411] conv4 -> conv4
I0204 19:41:44.170536  5898 net.cpp:150] Setting up conv4
I0204 19:41:44.170547  5898 net.cpp:157] Top shape: 100 32 13 13 (540800)
I0204 19:41:44.170552  5898 net.cpp:165] Memory required for data: 146193600
I0204 19:41:44.170560  5898 layer_factory.hpp:77] Creating layer relu4
I0204 19:41:44.170568  5898 net.cpp:106] Creating Layer relu4
I0204 19:41:44.170574  5898 net.cpp:454] relu4 <- conv4
I0204 19:41:44.170583  5898 net.cpp:397] relu4 -> conv4 (in-place)
I0204 19:41:44.170591  5898 net.cpp:150] Setting up relu4
I0204 19:41:44.170598  5898 net.cpp:157] Top shape: 100 32 13 13 (540800)
I0204 19:41:44.170603  5898 net.cpp:165] Memory required for data: 148356800
I0204 19:41:44.170611  5898 layer_factory.hpp:77] Creating layer conv5
I0204 19:41:44.170622  5898 net.cpp:106] Creating Layer conv5
I0204 19:41:44.170629  5898 net.cpp:454] conv5 <- conv4
I0204 19:41:44.170637  5898 net.cpp:411] conv5 -> conv5
I0204 19:41:44.170680  5898 net.cpp:150] Setting up conv5
I0204 19:41:44.170687  5898 net.cpp:157] Top shape: 100 16 13 13 (270400)
I0204 19:41:44.170692  5898 net.cpp:165] Memory required for data: 149438400
I0204 19:41:44.170704  5898 layer_factory.hpp:77] Creating layer relu5
I0204 19:41:44.170713  5898 net.cpp:106] Creating Layer relu5
I0204 19:41:44.170718  5898 net.cpp:454] relu5 <- conv5
I0204 19:41:44.170727  5898 net.cpp:397] relu5 -> conv5 (in-place)
I0204 19:41:44.170735  5898 net.cpp:150] Setting up relu5
I0204 19:41:44.170742  5898 net.cpp:157] Top shape: 100 16 13 13 (270400)
I0204 19:41:44.170749  5898 net.cpp:165] Memory required for data: 150520000
I0204 19:41:44.170755  5898 layer_factory.hpp:77] Creating layer pool5
I0204 19:41:44.170766  5898 net.cpp:106] Creating Layer pool5
I0204 19:41:44.170776  5898 net.cpp:454] pool5 <- conv5
I0204 19:41:44.170794  5898 net.cpp:411] pool5 -> pool5
I0204 19:41:44.170806  5898 net.cpp:150] Setting up pool5
I0204 19:41:44.170815  5898 net.cpp:157] Top shape: 100 16 6 6 (57600)
I0204 19:41:44.170821  5898 net.cpp:165] Memory required for data: 150750400
I0204 19:41:44.170826  5898 layer_factory.hpp:77] Creating layer fc6
I0204 19:41:44.170840  5898 net.cpp:106] Creating Layer fc6
I0204 19:41:44.170845  5898 net.cpp:454] fc6 <- pool5
I0204 19:41:44.170853  5898 net.cpp:411] fc6 -> fc6
I0204 19:41:44.172502  5898 net.cpp:150] Setting up fc6
I0204 19:41:44.172515  5898 net.cpp:157] Top shape: 100 256 (25600)
I0204 19:41:44.172523  5898 net.cpp:165] Memory required for data: 150852800
I0204 19:41:44.172533  5898 layer_factory.hpp:77] Creating layer relu6
I0204 19:41:44.172543  5898 net.cpp:106] Creating Layer relu6
I0204 19:41:44.172549  5898 net.cpp:454] relu6 <- fc6
I0204 19:41:44.172559  5898 net.cpp:397] relu6 -> fc6 (in-place)
I0204 19:41:44.172569  5898 net.cpp:150] Setting up relu6
I0204 19:41:44.172575  5898 net.cpp:157] Top shape: 100 256 (25600)
I0204 19:41:44.172580  5898 net.cpp:165] Memory required for data: 150955200
I0204 19:41:44.172586  5898 layer_factory.hpp:77] Creating layer drop6
I0204 19:41:44.172597  5898 net.cpp:106] Creating Layer drop6
I0204 19:41:44.172603  5898 net.cpp:454] drop6 <- fc6
I0204 19:41:44.172611  5898 net.cpp:397] drop6 -> fc6 (in-place)
I0204 19:41:44.172623  5898 net.cpp:150] Setting up drop6
I0204 19:41:44.172629  5898 net.cpp:157] Top shape: 100 256 (25600)
I0204 19:41:44.172634  5898 net.cpp:165] Memory required for data: 151057600
I0204 19:41:44.172641  5898 layer_factory.hpp:77] Creating layer fc7
I0204 19:41:44.172651  5898 net.cpp:106] Creating Layer fc7
I0204 19:41:44.172657  5898 net.cpp:454] fc7 <- fc6
I0204 19:41:44.172664  5898 net.cpp:411] fc7 -> fc7
I0204 19:41:44.173373  5898 net.cpp:150] Setting up fc7
I0204 19:41:44.173387  5898 net.cpp:157] Top shape: 100 256 (25600)
I0204 19:41:44.173391  5898 net.cpp:165] Memory required for data: 151160000
I0204 19:41:44.173400  5898 layer_factory.hpp:77] Creating layer relu7
I0204 19:41:44.173408  5898 net.cpp:106] Creating Layer relu7
I0204 19:41:44.173414  5898 net.cpp:454] relu7 <- fc7
I0204 19:41:44.173421  5898 net.cpp:397] relu7 -> fc7 (in-place)
I0204 19:41:44.173430  5898 net.cpp:150] Setting up relu7
I0204 19:41:44.173437  5898 net.cpp:157] Top shape: 100 256 (25600)
I0204 19:41:44.173442  5898 net.cpp:165] Memory required for data: 151262400
I0204 19:41:44.173449  5898 layer_factory.hpp:77] Creating layer drop7
I0204 19:41:44.173459  5898 net.cpp:106] Creating Layer drop7
I0204 19:41:44.173465  5898 net.cpp:454] drop7 <- fc7
I0204 19:41:44.173472  5898 net.cpp:397] drop7 -> fc7 (in-place)
I0204 19:41:44.173482  5898 net.cpp:150] Setting up drop7
I0204 19:41:44.173491  5898 net.cpp:157] Top shape: 100 256 (25600)
I0204 19:41:44.173497  5898 net.cpp:165] Memory required for data: 151364800
I0204 19:41:44.173503  5898 layer_factory.hpp:77] Creating layer fc8
I0204 19:41:44.173516  5898 net.cpp:106] Creating Layer fc8
I0204 19:41:44.173521  5898 net.cpp:454] fc8 <- fc7
I0204 19:41:44.173529  5898 net.cpp:411] fc8 -> fc8
I0204 19:41:44.173555  5898 net.cpp:150] Setting up fc8
I0204 19:41:44.173564  5898 net.cpp:157] Top shape: 100 2 (200)
I0204 19:41:44.173569  5898 net.cpp:165] Memory required for data: 151365600
I0204 19:41:44.173578  5898 layer_factory.hpp:77] Creating layer fc8_fc8_0_split
I0204 19:41:44.173586  5898 net.cpp:106] Creating Layer fc8_fc8_0_split
I0204 19:41:44.173591  5898 net.cpp:454] fc8_fc8_0_split <- fc8
I0204 19:41:44.173601  5898 net.cpp:411] fc8_fc8_0_split -> fc8_fc8_0_split_0
I0204 19:41:44.173610  5898 net.cpp:411] fc8_fc8_0_split -> fc8_fc8_0_split_1
I0204 19:41:44.173619  5898 net.cpp:150] Setting up fc8_fc8_0_split
I0204 19:41:44.173635  5898 net.cpp:157] Top shape: 100 2 (200)
I0204 19:41:44.173642  5898 net.cpp:157] Top shape: 100 2 (200)
I0204 19:41:44.173648  5898 net.cpp:165] Memory required for data: 151367200
I0204 19:41:44.173653  5898 layer_factory.hpp:77] Creating layer accuracy
I0204 19:41:44.173678  5898 net.cpp:106] Creating Layer accuracy
I0204 19:41:44.173686  5898 net.cpp:454] accuracy <- fc8_fc8_0_split_0
I0204 19:41:44.173692  5898 net.cpp:454] accuracy <- label_data_1_split_0
I0204 19:41:44.173702  5898 net.cpp:411] accuracy -> accuracy
…
