…
I0204 08:47:10.346398 31922 net.cpp:322] The NetState phase (0) differed from the phase (1) specified by a rule in layer accuracy
I0204 08:47:10.346673 31922 net.cpp:49] Initializing net from parameters: 
name: "CaffeNet"
state {
  phase: TRAIN
}
layer {
  name: "data"
  type: "Data"
  top: "data"
  top: "label"
  include {
    phase: TRAIN
  }
  transform_param {
    mirror: true
    crop_size: 227
    mean_file: "/home/pearlstl/proj_cv/master/lmdb/synth1_train_lum_db/mean_file.binaryproto"
  }
  data_param {
    source: "/home/pearlstl/proj_cv/master/lmdb/synth1_train_lum_db"
    batch_size: 100
    backend: LMDB
  }
}
layer {
  name: "conv1"
  type: "Convolution"
  bottom: "data"
  top: "conv1"
  param {
    lr_mult: 1
    decay_mult: 1
  }
  param {
    lr_mult: 2
    decay_mult: 0
  }
  convolution_param {
    num_output: 16
    kernel_size: 11
    stride: 4
    weight_filler {
      type: "xavier"
    }
    bias_filler {
      type: "constant"
      value: 0
    }
  }
}
layer {
  name: "relu1"
  type: "ReLU"
  bottom: "conv1"
  top: "conv1"
}
layer {
  name: "pool1"
  type: "Pooling"
  bottom: "conv1"
  top: "pool1"
  pooling_param {
    pool: MAX
    kernel_size: 3
    stride: 2
  }
}
layer {
  name: "norm1"
  type: "LRN"
  bottom: "pool1"
  top: "norm1"
  lrn_param {
    local_size: 5
    alpha: 0.0001
    beta: 0.75
  }
}
layer {
  name: "conv2"
  type: "Convolution"
  bottom: "norm1"
  top: "conv2"
  param {
    lr_mult: 1
    decay_mult: 1
  }
  param {
    lr_mult: 2
    decay_mult: 0
  }
  convolution_param {
    num_output: 16
    pad: 2
    kernel_size: 5
    group: 2
    weight_filler {
      type: "xavier"
    }
    bias_filler {
      type: "constant"
      value: 1
    }
  }
}
layer {
  name: "relu2"
  type: "ReLU"
  bottom: "conv2"
  top: "conv2"
}
layer {
  name: "pool2"
  type: "Pooling"
  bottom: "conv2"
  top: "pool2"
  pooling_param {
    pool: MAX
    kernel_size: 3
    stride: 2
  }
}
layer {
  name: "norm2"
  type: "LRN"
  bottom: "pool2"
  top: "norm2"
  lrn_param {
    local_size: 5
    alpha: 0.0001
    beta: 0.75
  }
}
layer {
  name: "conv3"
  type: "Convolution"
  bottom: "norm2"
  top: "conv3"
  param {
    lr_mult: 1
    decay_mult: 1
  }
  param {
    lr_mult: 2
    decay_mult: 0
  }
  convolution_param {
    num_output: 16
    pad: 1
    kernel_size: 3
    weight_filler {
      type: "xavier"
    }
    bias_filler {
      type: "constant"
      value: 0
    }
  }
}
layer {
  name: "relu3"
  type: "ReLU"
  bottom: "conv3"
  top: "conv3"
}
layer {
  name: "conv4"
  type: "Convolution"
  bottom: "conv3"
  top: "conv4"
  param {
    lr_mult: 1
    decay_mult: 1
  }
  param {
    lr_mult: 2
    decay_mult: 0
  }
  convolution_param {
    num_output: 16
    pad: 1
    kernel_size: 3
    group: 2
    weight_filler {
      type: "xavier"
    }
    bias_filler {
      type: "constant"
      value: 1
    }
  }
}
layer {
  name: "relu4"
  type: "ReLU"
  bottom: "conv4"
  top: "conv4"
}
layer {
  name: "conv5"
  type: "Convolution"
  bottom: "conv4"
  top: "conv5"
  param {
    lr_mult: 1
    decay_mult: 1
  }
  param {
    lr_mult: 2
    decay_mult: 0
  }
  convolution_param {
    num_output: 8
    pad: 1
    kernel_size: 3
    group: 2
    weight_filler {
      type: "xavier"
    }
    bias_filler {
      type: "constant"
      value: 1
    }
  }
}
layer {
  name: "relu5"
  type: "ReLU"
  bottom: "conv5"
  top: "conv5"
}
layer {
  name: "pool5"
  type: "Pooling"
  bottom: "conv5"
  top: "pool5"
  pooling_param {
    pool: MAX
    kernel_size: 3
    stride: 2
  }
}
layer {
  name: "fc6"
  type: "InnerProduct"
  bottom: "pool5"
  top: "fc6"
  param {
    lr_mult: 1
    decay_mult: 1
  }
  param {
    lr_mult: 2
    decay_mult: 0
  }
  inner_product_param {
    num_output: 256
    weight_filler {
      type: "xavier"
    }
    bias_filler {
      type: "constant"
      value: 1
    }
  }
}
layer {
  name: "relu6"
  type: "ReLU"
  bottom: "fc6"
  top: "fc6"
}
layer {
  name: "drop6"
  type: "Dropout"
  bottom: "fc6"
  top: "fc6"
  dropout_param {
    dropout_ratio: 0.5
  }
}
layer {
  name: "fc7"
  type: "InnerProduct"
  bottom: "fc6"
  top: "fc7"
  param {
    lr_mult: 1
    decay_mult: 1
  }
  param {
    lr_mult: 2
    decay_mult: 0
  }
  inner_product_param {
    num_output: 256
    weight_filler {
      type: "xavier"
    }
    bias_filler {
      type: "constant"
      value: 1
    }
  }
}
layer {
  name: "relu7"
  type: "ReLU"
  bottom: "fc7"
  top: "fc7"
}
layer {
  name: "drop7"
  type: "Dropout"
  bottom: "fc7"
  top: "fc7"
  dropout_param {
    dropout_ratio: 0.5
  }
}
layer {
  name: "fc8"
  type: "InnerProduct"
  bottom: "fc7"
  top: "fc8"
  param {
    lr_mult: 1
    decay_mult: 1
  }
  param {
    lr_mult: 2
    decay_mult: 0
  }
  inner_product_param {
    num_output: 2
    weight_filler {
      type: "xavier"
    }
    bias_filler {
      type: "constant"
      value: 0
    }
  }
}
layer {
  name: "loss"
  type: "SoftmaxWithLoss"
  bottom: "fc8"
  bottom: "label"
  top: "loss"
}
I0204 08:47:10.346828 31922 layer_factory.hpp:77] Creating layer data
I0204 08:47:10.347049 31922 net.cpp:106] Creating Layer data
I0204 08:47:10.347067 31922 net.cpp:411] data -> data
I0204 08:47:10.347167 31922 net.cpp:411] data -> label
I0204 08:47:10.347192 31922 data_transformer.cpp:25] Loading mean file from: /home/pearlstl/proj_cv/master/lmdb/synth1_train_lum_db/mean_file.binaryproto
I0204 08:47:10.347383 31928 db_lmdb.cpp:38] Opened lmdb /home/pearlstl/proj_cv/master/lmdb/synth1_train_lum_db
I0204 08:47:10.348165 31922 data_layer.cpp:41] output data size: 100,1,227,227
I0204 08:47:10.377708 31922 net.cpp:150] Setting up data
I0204 08:47:10.377791 31922 net.cpp:157] Top shape: 100 1 227 227 (5152900)
I0204 08:47:10.377802 31922 net.cpp:157] Top shape: 100 (100)
I0204 08:47:10.377810 31922 net.cpp:165] Memory required for data: 20612000
I0204 08:47:10.377835 31922 layer_factory.hpp:77] Creating layer conv1
I0204 08:47:10.377866 31922 net.cpp:106] Creating Layer conv1
I0204 08:47:10.377876 31922 net.cpp:454] conv1 <- data
I0204 08:47:10.377899 31922 net.cpp:411] conv1 -> conv1
I0204 08:47:10.378028 31922 net.cpp:150] Setting up conv1
I0204 08:47:10.378042 31922 net.cpp:157] Top shape: 100 16 55 55 (4840000)
I0204 08:47:10.378049 31922 net.cpp:165] Memory required for data: 39972000
I0204 08:47:10.378070 31922 layer_factory.hpp:77] Creating layer relu1
I0204 08:47:10.378084 31922 net.cpp:106] Creating Layer relu1
I0204 08:47:10.378100 31922 net.cpp:454] relu1 <- conv1
I0204 08:47:10.378111 31922 net.cpp:397] relu1 -> conv1 (in-place)
I0204 08:47:10.378126 31922 net.cpp:150] Setting up relu1
I0204 08:47:10.378134 31922 net.cpp:157] Top shape: 100 16 55 55 (4840000)
I0204 08:47:10.378141 31922 net.cpp:165] Memory required for data: 59332000
I0204 08:47:10.378147 31922 layer_factory.hpp:77] Creating layer pool1
I0204 08:47:10.378160 31922 net.cpp:106] Creating Layer pool1
I0204 08:47:10.378167 31922 net.cpp:454] pool1 <- conv1
I0204 08:47:10.378176 31922 net.cpp:411] pool1 -> pool1
I0204 08:47:10.378207 31922 net.cpp:150] Setting up pool1
I0204 08:47:10.378216 31922 net.cpp:157] Top shape: 100 16 27 27 (1166400)
I0204 08:47:10.378222 31922 net.cpp:165] Memory required for data: 63997600
I0204 08:47:10.378229 31922 layer_factory.hpp:77] Creating layer norm1
I0204 08:47:10.378253 31922 net.cpp:106] Creating Layer norm1
I0204 08:47:10.378271 31922 net.cpp:454] norm1 <- pool1
I0204 08:47:10.378283 31922 net.cpp:411] norm1 -> norm1
I0204 08:47:10.378303 31922 net.cpp:150] Setting up norm1
I0204 08:47:10.378312 31922 net.cpp:157] Top shape: 100 16 27 27 (1166400)
I0204 08:47:10.378319 31922 net.cpp:165] Memory required for data: 68663200
I0204 08:47:10.378324 31922 layer_factory.hpp:77] Creating layer conv2
I0204 08:47:10.378336 31922 net.cpp:106] Creating Layer conv2
I0204 08:47:10.378342 31922 net.cpp:454] conv2 <- norm1
I0204 08:47:10.378352 31922 net.cpp:411] conv2 -> conv2
I0204 08:47:10.378414 31922 net.cpp:150] Setting up conv2
I0204 08:47:10.378424 31922 net.cpp:157] Top shape: 100 16 27 27 (1166400)
I0204 08:47:10.378430 31922 net.cpp:165] Memory required for data: 73328800
I0204 08:47:10.378443 31922 layer_factory.hpp:77] Creating layer relu2
I0204 08:47:10.378453 31922 net.cpp:106] Creating Layer relu2
I0204 08:47:10.378461 31922 net.cpp:454] relu2 <- conv2
I0204 08:47:10.378471 31922 net.cpp:397] relu2 -> conv2 (in-place)
I0204 08:47:10.378481 31922 net.cpp:150] Setting up relu2
I0204 08:47:10.378489 31922 net.cpp:157] Top shape: 100 16 27 27 (1166400)
I0204 08:47:10.378494 31922 net.cpp:165] Memory required for data: 77994400
I0204 08:47:10.378501 31922 layer_factory.hpp:77] Creating layer pool2
I0204 08:47:10.378510 31922 net.cpp:106] Creating Layer pool2
I0204 08:47:10.378516 31922 net.cpp:454] pool2 <- conv2
I0204 08:47:10.378525 31922 net.cpp:411] pool2 -> pool2
I0204 08:47:10.378537 31922 net.cpp:150] Setting up pool2
I0204 08:47:10.378545 31922 net.cpp:157] Top shape: 100 16 13 13 (270400)
I0204 08:47:10.378553 31922 net.cpp:165] Memory required for data: 79076000
I0204 08:47:10.378561 31922 layer_factory.hpp:77] Creating layer norm2
I0204 08:47:10.378571 31922 net.cpp:106] Creating Layer norm2
I0204 08:47:10.378577 31922 net.cpp:454] norm2 <- pool2
I0204 08:47:10.378585 31922 net.cpp:411] norm2 -> norm2
I0204 08:47:10.378597 31922 net.cpp:150] Setting up norm2
I0204 08:47:10.378604 31922 net.cpp:157] Top shape: 100 16 13 13 (270400)
I0204 08:47:10.378609 31922 net.cpp:165] Memory required for data: 80157600
I0204 08:47:10.378615 31922 layer_factory.hpp:77] Creating layer conv3
I0204 08:47:10.378628 31922 net.cpp:106] Creating Layer conv3
I0204 08:47:10.378633 31922 net.cpp:454] conv3 <- norm2
I0204 08:47:10.378645 31922 net.cpp:411] conv3 -> conv3
I0204 08:47:10.378692 31922 net.cpp:150] Setting up conv3
I0204 08:47:10.378701 31922 net.cpp:157] Top shape: 100 16 13 13 (270400)
I0204 08:47:10.378707 31922 net.cpp:165] Memory required for data: 81239200
I0204 08:47:10.378720 31922 layer_factory.hpp:77] Creating layer relu3
I0204 08:47:10.378729 31922 net.cpp:106] Creating Layer relu3
I0204 08:47:10.378738 31922 net.cpp:454] relu3 <- conv3
I0204 08:47:10.378747 31922 net.cpp:397] relu3 -> conv3 (in-place)
I0204 08:47:10.378756 31922 net.cpp:150] Setting up relu3
I0204 08:47:10.378763 31922 net.cpp:157] Top shape: 100 16 13 13 (270400)
I0204 08:47:10.378769 31922 net.cpp:165] Memory required for data: 82320800
I0204 08:47:10.378775 31922 layer_factory.hpp:77] Creating layer conv4
I0204 08:47:10.378787 31922 net.cpp:106] Creating Layer conv4
I0204 08:47:10.378793 31922 net.cpp:454] conv4 <- conv3
I0204 08:47:10.378803 31922 net.cpp:411] conv4 -> conv4
I0204 08:47:10.378839 31922 net.cpp:150] Setting up conv4
I0204 08:47:10.378847 31922 net.cpp:157] Top shape: 100 16 13 13 (270400)
I0204 08:47:10.378854 31922 net.cpp:165] Memory required for data: 83402400
I0204 08:47:10.378865 31922 layer_factory.hpp:77] Creating layer relu4
I0204 08:47:10.378873 31922 net.cpp:106] Creating Layer relu4
I0204 08:47:10.378880 31922 net.cpp:454] relu4 <- conv4
I0204 08:47:10.378887 31922 net.cpp:397] relu4 -> conv4 (in-place)
I0204 08:47:10.378896 31922 net.cpp:150] Setting up relu4
I0204 08:47:10.378904 31922 net.cpp:157] Top shape: 100 16 13 13 (270400)
I0204 08:47:10.378912 31922 net.cpp:165] Memory required for data: 84484000
I0204 08:47:10.378919 31922 layer_factory.hpp:77] Creating layer conv5
I0204 08:47:10.378937 31922 net.cpp:106] Creating Layer conv5
I0204 08:47:10.378954 31922 net.cpp:454] conv5 <- conv4
I0204 08:47:10.378964 31922 net.cpp:411] conv5 -> conv5
I0204 08:47:10.378993 31922 net.cpp:150] Setting up conv5
I0204 08:47:10.379004 31922 net.cpp:157] Top shape: 100 8 13 13 (135200)
I0204 08:47:10.379010 31922 net.cpp:165] Memory required for data: 85024800
I0204 08:47:10.379024 31922 layer_factory.hpp:77] Creating layer relu5
I0204 08:47:10.379034 31922 net.cpp:106] Creating Layer relu5
I0204 08:47:10.379040 31922 net.cpp:454] relu5 <- conv5
I0204 08:47:10.379057 31922 net.cpp:397] relu5 -> conv5 (in-place)
I0204 08:47:10.379068 31922 net.cpp:150] Setting up relu5
I0204 08:47:10.379076 31922 net.cpp:157] Top shape: 100 8 13 13 (135200)
I0204 08:47:10.379083 31922 net.cpp:165] Memory required for data: 85565600
I0204 08:47:10.379096 31922 layer_factory.hpp:77] Creating layer pool5
I0204 08:47:10.379106 31922 net.cpp:106] Creating Layer pool5
I0204 08:47:10.379115 31922 net.cpp:454] pool5 <- conv5
I0204 08:47:10.379124 31922 net.cpp:411] pool5 -> pool5
I0204 08:47:10.379137 31922 net.cpp:150] Setting up pool5
I0204 08:47:10.379145 31922 net.cpp:157] Top shape: 100 8 6 6 (28800)
I0204 08:47:10.379151 31922 net.cpp:165] Memory required for data: 85680800
I0204 08:47:10.379158 31922 layer_factory.hpp:77] Creating layer fc6
I0204 08:47:10.379174 31922 net.cpp:106] Creating Layer fc6
I0204 08:47:10.379181 31922 net.cpp:454] fc6 <- pool5
I0204 08:47:10.379194 31922 net.cpp:411] fc6 -> fc6
I0204 08:47:10.380144 31922 net.cpp:150] Setting up fc6
I0204 08:47:10.380161 31922 net.cpp:157] Top shape: 100 256 (25600)
I0204 08:47:10.380167 31922 net.cpp:165] Memory required for data: 85783200
I0204 08:47:10.380178 31922 layer_factory.hpp:77] Creating layer relu6
I0204 08:47:10.380188 31922 net.cpp:106] Creating Layer relu6
I0204 08:47:10.380195 31922 net.cpp:454] relu6 <- fc6
I0204 08:47:10.380208 31922 net.cpp:397] relu6 -> fc6 (in-place)
I0204 08:47:10.380218 31922 net.cpp:150] Setting up relu6
I0204 08:47:10.380225 31922 net.cpp:157] Top shape: 100 256 (25600)
I0204 08:47:10.380231 31922 net.cpp:165] Memory required for data: 85885600
I0204 08:47:10.380237 31922 layer_factory.hpp:77] Creating layer drop6
I0204 08:47:10.380249 31922 net.cpp:106] Creating Layer drop6
I0204 08:47:10.380255 31922 net.cpp:454] drop6 <- fc6
I0204 08:47:10.380264 31922 net.cpp:397] drop6 -> fc6 (in-place)
I0204 08:47:10.380286 31922 net.cpp:150] Setting up drop6
I0204 08:47:10.380295 31922 net.cpp:157] Top shape: 100 256 (25600)
I0204 08:47:10.380300 31922 net.cpp:165] Memory required for data: 85988000
I0204 08:47:10.380306 31922 layer_factory.hpp:77] Creating layer fc7
I0204 08:47:10.380317 31922 net.cpp:106] Creating Layer fc7
I0204 08:47:10.380323 31922 net.cpp:454] fc7 <- fc6
I0204 08:47:10.380332 31922 net.cpp:411] fc7 -> fc7
I0204 08:47:10.381171 31922 net.cpp:150] Setting up fc7
I0204 08:47:10.381186 31922 net.cpp:157] Top shape: 100 256 (25600)
I0204 08:47:10.381191 31922 net.cpp:165] Memory required for data: 86090400
I0204 08:47:10.381201 31922 layer_factory.hpp:77] Creating layer relu7
I0204 08:47:10.381211 31922 net.cpp:106] Creating Layer relu7
I0204 08:47:10.381217 31922 net.cpp:454] relu7 <- fc7
I0204 08:47:10.381227 31922 net.cpp:397] relu7 -> fc7 (in-place)
I0204 08:47:10.381237 31922 net.cpp:150] Setting up relu7
I0204 08:47:10.381245 31922 net.cpp:157] Top shape: 100 256 (25600)
I0204 08:47:10.381250 31922 net.cpp:165] Memory required for data: 86192800
I0204 08:47:10.381258 31922 layer_factory.hpp:77] Creating layer drop7
I0204 08:47:10.381269 31922 net.cpp:106] Creating Layer drop7
I0204 08:47:10.381276 31922 net.cpp:454] drop7 <- fc7
I0204 08:47:10.381284 31922 net.cpp:397] drop7 -> fc7 (in-place)
I0204 08:47:10.381297 31922 net.cpp:150] Setting up drop7
I0204 08:47:10.381305 31922 net.cpp:157] Top shape: 100 256 (25600)
I0204 08:47:10.381311 31922 net.cpp:165] Memory required for data: 86295200
I0204 08:47:10.381317 31922 layer_factory.hpp:77] Creating layer fc8
I0204 08:47:10.381335 31922 net.cpp:106] Creating Layer fc8
I0204 08:47:10.381361 31922 net.cpp:454] fc8 <- fc7
I0204 08:47:10.381371 31922 net.cpp:411] fc8 -> fc8
I0204 08:47:10.381399 31922 net.cpp:150] Setting up fc8
I0204 08:47:10.381409 31922 net.cpp:157] Top shape: 100 2 (200)
I0204 08:47:10.381415 31922 net.cpp:165] Memory required for data: 86296000
I0204 08:47:10.381427 31922 layer_factory.hpp:77] Creating layer loss
I0204 08:47:10.381439 31922 net.cpp:106] Creating Layer loss
I0204 08:47:10.381446 31922 net.cpp:454] loss <- fc8
I0204 08:47:10.381454 31922 net.cpp:454] loss <- label
I0204 08:47:10.381467 31922 net.cpp:411] loss -> loss
I0204 08:47:10.381484 31922 layer_factory.hpp:77] Creating layer loss
…
I0204 08:47:10.382768 31922 net.cpp:322] The NetState phase (1) differed from the phase (0) specified by a rule in layer data
I0204 08:47:10.383131 31922 net.cpp:49] Initializing net from parameters: 
name: "CaffeNet"
state {
  phase: TEST
}
layer {
  name: "data"
  type: "Data"
  top: "data"
  top: "label"
  include {
    phase: TEST
  }
  transform_param {
    mirror: false
    crop_size: 227
    mean_file: "/home/pearlstl/proj_cv/master/lmdb/synth1_test_lum_db/mean_file.binaryproto"
  }
  data_param {
    source: "/home/pearlstl/proj_cv/master/lmdb/synth1_test_lum_db"
    batch_size: 100
    backend: LMDB
  }
}
layer {
  name: "conv1"
  type: "Convolution"
  bottom: "data"
  top: "conv1"
  param {
    lr_mult: 1
    decay_mult: 1
  }
  param {
    lr_mult: 2
    decay_mult: 0
  }
  convolution_param {
    num_output: 16
    kernel_size: 11
    stride: 4
    weight_filler {
      type: "xavier"
    }
    bias_filler {
      type: "constant"
      value: 0
    }
  }
}
layer {
  name: "relu1"
  type: "ReLU"
  bottom: "conv1"
  top: "conv1"
}
layer {
  name: "pool1"
  type: "Pooling"
  bottom: "conv1"
  top: "pool1"
  pooling_param {
    pool: MAX
    kernel_size: 3
    stride: 2
  }
}
layer {
  name: "norm1"
  type: "LRN"
  bottom: "pool1"
  top: "norm1"
  lrn_param {
    local_size: 5
    alpha: 0.0001
    beta: 0.75
  }
}
layer {
  name: "conv2"
  type: "Convolution"
  bottom: "norm1"
  top: "conv2"
  param {
    lr_mult: 1
    decay_mult: 1
  }
  param {
    lr_mult: 2
    decay_mult: 0
  }
  convolution_param {
    num_output: 16
    pad: 2
    kernel_size: 5
    group: 2
    weight_filler {
      type: "xavier"
    }
    bias_filler {
      type: "constant"
      value: 1
    }
  }
}
layer {
  name: "relu2"
  type: "ReLU"
  bottom: "conv2"
  top: "conv2"
}
layer {
  name: "pool2"
  type: "Pooling"
  bottom: "conv2"
  top: "pool2"
  pooling_param {
    pool: MAX
    kernel_size: 3
    stride: 2
  }
}
layer {
  name: "norm2"
  type: "LRN"
  bottom: "pool2"
  top: "norm2"
  lrn_param {
    local_size: 5
    alpha: 0.0001
    beta: 0.75
  }
}
layer {
  name: "conv3"
  type: "Convolution"
  bottom: "norm2"
  top: "conv3"
  param {
    lr_mult: 1
    decay_mult: 1
  }
  param {
    lr_mult: 2
    decay_mult: 0
  }
  convolution_param {
    num_output: 16
    pad: 1
    kernel_size: 3
    weight_filler {
      type: "xavier"
    }
    bias_filler {
      type: "constant"
      value: 0
    }
  }
}
layer {
  name: "relu3"
  type: "ReLU"
  bottom: "conv3"
  top: "conv3"
}
layer {
  name: "conv4"
  type: "Convolution"
  bottom: "conv3"
  top: "conv4"
  param {
    lr_mult: 1
    decay_mult: 1
  }
  param {
    lr_mult: 2
    decay_mult: 0
  }
  convolution_param {
    num_output: 16
    pad: 1
    kernel_size: 3
    group: 2
    weight_filler {
      type: "xavier"
    }
    bias_filler {
      type: "constant"
      value: 1
    }
  }
}
layer {
  name: "relu4"
  type: "ReLU"
  bottom: "conv4"
  top: "conv4"
}
layer {
  name: "conv5"
  type: "Convolution"
  bottom: "conv4"
  top: "conv5"
  param {
    lr_mult: 1
    decay_mult: 1
  }
  param {
    lr_mult: 2
    decay_mult: 0
  }
  convolution_param {
    num_output: 8
    pad: 1
    kernel_size: 3
    group: 2
    weight_filler {
      type: "xavier"
    }
    bias_filler {
      type: "constant"
      value: 1
    }
  }
}
layer {
  name: "relu5"
  type: "ReLU"
  bottom: "conv5"
  top: "conv5"
}
layer {
  name: "pool5"
  type: "Pooling"
  bottom: "conv5"
  top: "pool5"
  pooling_param {
    pool: MAX
    kernel_size: 3
    stride: 2
  }
}
layer {
  name: "fc6"
  type: "InnerProduct"
  bottom: "pool5"
  top: "fc6"
  param {
    lr_mult: 1
    decay_mult: 1
  }
  param {
    lr_mult: 2
    decay_mult: 0
  }
  inner_product_param {
    num_output: 256
    weight_filler {
      type: "xavier"
    }
    bias_filler {
      type: "constant"
      value: 1
    }
  }
}
layer {
  name: "relu6"
  type: "ReLU"
  bottom: "fc6"
  top: "fc6"
}
layer {
  name: "drop6"
  type: "Dropout"
  bottom: "fc6"
  top: "fc6"
  dropout_param {
    dropout_ratio: 0.5
  }
}
layer {
  name: "fc7"
  type: "InnerProduct"
  bottom: "fc6"
  top: "fc7"
  param {
    lr_mult: 1
    decay_mult: 1
  }
  param {
    lr_mult: 2
    decay_mult: 0
  }
  inner_product_param {
    num_output: 256
    weight_filler {
      type: "xavier"
    }
    bias_filler {
      type: "constant"
      value: 1
    }
  }
}
layer {
  name: "relu7"
  type: "ReLU"
  bottom: "fc7"
  top: "fc7"
}
layer {
  name: "drop7"
  type: "Dropout"
  bottom: "fc7"
  top: "fc7"
  dropout_param {
    dropout_ratio: 0.5
  }
}
layer {
  name: "fc8"
  type: "InnerProduct"
  bottom: "fc7"
  top: "fc8"
  param {
    lr_mult: 1
    decay_mult: 1
  }
  param {
    lr_mult: 2
    decay_mult: 0
  }
  inner_product_param {
    num_output: 2
    weight_filler {
      type: "xavier"
    }
    bias_filler {
      type: "constant"
      value: 0
    }
  }
}
layer {
  name: "accuracy"
  type: "Accuracy"
  bottom: "fc8"
  bottom: "label"
  top: "accuracy"
  include {
    phase: TEST
  }
}
layer {
  name: "loss"
  type: "SoftmaxWithLoss"
  bottom: "fc8"
  bottom: "label"
  top: "loss"
}
I0204 08:47:10.383381 31922 layer_factory.hpp:77] Creating layer data
I0204 08:47:10.383570 31922 net.cpp:106] Creating Layer data
I0204 08:47:10.383587 31922 net.cpp:411] data -> data
I0204 08:47:10.383605 31922 net.cpp:411] data -> label
I0204 08:47:10.383618 31922 data_transformer.cpp:25] Loading mean file from: /home/pearlstl/proj_cv/master/lmdb/synth1_test_lum_db/mean_file.binaryproto
I0204 08:47:10.383896 31938 db_lmdb.cpp:38] Opened lmdb /home/pearlstl/proj_cv/master/lmdb/synth1_test_lum_db
I0204 08:47:10.389816 31922 data_layer.cpp:41] output data size: 100,1,227,227
I0204 08:47:10.447734 31922 net.cpp:150] Setting up data
I0204 08:47:10.447796 31922 net.cpp:157] Top shape: 100 1 227 227 (5152900)
I0204 08:47:10.447811 31922 net.cpp:157] Top shape: 100 (100)
I0204 08:47:10.447821 31922 net.cpp:165] Memory required for data: 20612000
I0204 08:47:10.447837 31922 layer_factory.hpp:77] Creating layer label_data_1_split
I0204 08:47:10.447868 31922 net.cpp:106] Creating Layer label_data_1_split
I0204 08:47:10.447881 31922 net.cpp:454] label_data_1_split <- label
I0204 08:47:10.447901 31922 net.cpp:411] label_data_1_split -> label_data_1_split_0
I0204 08:47:10.447929 31922 net.cpp:411] label_data_1_split -> label_data_1_split_1
I0204 08:47:10.447952 31922 net.cpp:150] Setting up label_data_1_split
I0204 08:47:10.447967 31922 net.cpp:157] Top shape: 100 (100)
I0204 08:47:10.447981 31922 net.cpp:157] Top shape: 100 (100)
I0204 08:47:10.447991 31922 net.cpp:165] Memory required for data: 20612800
I0204 08:47:10.448004 31922 layer_factory.hpp:77] Creating layer conv1
I0204 08:47:10.448030 31922 net.cpp:106] Creating Layer conv1
I0204 08:47:10.448040 31922 net.cpp:454] conv1 <- data
I0204 08:47:10.448057 31922 net.cpp:411] conv1 -> conv1
I0204 08:47:10.448166 31922 net.cpp:150] Setting up conv1
I0204 08:47:10.448186 31922 net.cpp:157] Top shape: 100 16 55 55 (4840000)
I0204 08:47:10.448196 31922 net.cpp:165] Memory required for data: 39972800
I0204 08:47:10.448221 31922 layer_factory.hpp:77] Creating layer relu1
I0204 08:47:10.448237 31922 net.cpp:106] Creating Layer relu1
I0204 08:47:10.448248 31922 net.cpp:454] relu1 <- conv1
I0204 08:47:10.448268 31922 net.cpp:397] relu1 -> conv1 (in-place)
I0204 08:47:10.448285 31922 net.cpp:150] Setting up relu1
I0204 08:47:10.448298 31922 net.cpp:157] Top shape: 100 16 55 55 (4840000)
I0204 08:47:10.448307 31922 net.cpp:165] Memory required for data: 59332800
I0204 08:47:10.448318 31922 layer_factory.hpp:77] Creating layer pool1
I0204 08:47:10.448335 31922 net.cpp:106] Creating Layer pool1
I0204 08:47:10.448344 31922 net.cpp:454] pool1 <- conv1
I0204 08:47:10.448364 31922 net.cpp:411] pool1 -> pool1
I0204 08:47:10.448390 31922 net.cpp:150] Setting up pool1
I0204 08:47:10.448403 31922 net.cpp:157] Top shape: 100 16 27 27 (1166400)
I0204 08:47:10.448412 31922 net.cpp:165] Memory required for data: 63998400
I0204 08:47:10.448421 31922 layer_factory.hpp:77] Creating layer norm1
I0204 08:47:10.448438 31922 net.cpp:106] Creating Layer norm1
I0204 08:47:10.448451 31922 net.cpp:454] norm1 <- pool1
I0204 08:47:10.448465 31922 net.cpp:411] norm1 -> norm1
I0204 08:47:10.448483 31922 net.cpp:150] Setting up norm1
I0204 08:47:10.448498 31922 net.cpp:157] Top shape: 100 16 27 27 (1166400)
I0204 08:47:10.448508 31922 net.cpp:165] Memory required for data: 68664000
I0204 08:47:10.448518 31922 layer_factory.hpp:77] Creating layer conv2
I0204 08:47:10.448536 31922 net.cpp:106] Creating Layer conv2
I0204 08:47:10.448545 31922 net.cpp:454] conv2 <- norm1
I0204 08:47:10.448560 31922 net.cpp:411] conv2 -> conv2
I0204 08:47:10.448658 31922 net.cpp:150] Setting up conv2
I0204 08:47:10.448676 31922 net.cpp:157] Top shape: 100 16 27 27 (1166400)
I0204 08:47:10.448686 31922 net.cpp:165] Memory required for data: 73329600
I0204 08:47:10.448705 31922 layer_factory.hpp:77] Creating layer relu2
I0204 08:47:10.448719 31922 net.cpp:106] Creating Layer relu2
I0204 08:47:10.448734 31922 net.cpp:454] relu2 <- conv2
I0204 08:47:10.448746 31922 net.cpp:397] relu2 -> conv2 (in-place)
I0204 08:47:10.448778 31922 net.cpp:150] Setting up relu2
I0204 08:47:10.448807 31922 net.cpp:157] Top shape: 100 16 27 27 (1166400)
I0204 08:47:10.448817 31922 net.cpp:165] Memory required for data: 77995200
I0204 08:47:10.448828 31922 layer_factory.hpp:77] Creating layer pool2
I0204 08:47:10.448845 31922 net.cpp:106] Creating Layer pool2
I0204 08:47:10.448856 31922 net.cpp:454] pool2 <- conv2
I0204 08:47:10.448873 31922 net.cpp:411] pool2 -> pool2
I0204 08:47:10.448894 31922 net.cpp:150] Setting up pool2
I0204 08:47:10.448907 31922 net.cpp:157] Top shape: 100 16 13 13 (270400)
I0204 08:47:10.448916 31922 net.cpp:165] Memory required for data: 79076800
I0204 08:47:10.448925 31922 layer_factory.hpp:77] Creating layer norm2
I0204 08:47:10.448940 31922 net.cpp:106] Creating Layer norm2
I0204 08:47:10.448950 31922 net.cpp:454] norm2 <- pool2
I0204 08:47:10.448963 31922 net.cpp:411] norm2 -> norm2
I0204 08:47:10.448979 31922 net.cpp:150] Setting up norm2
I0204 08:47:10.448992 31922 net.cpp:157] Top shape: 100 16 13 13 (270400)
I0204 08:47:10.449000 31922 net.cpp:165] Memory required for data: 80158400
I0204 08:47:10.449010 31922 layer_factory.hpp:77] Creating layer conv3
I0204 08:47:10.449026 31922 net.cpp:106] Creating Layer conv3
I0204 08:47:10.449036 31922 net.cpp:454] conv3 <- norm2
I0204 08:47:10.449051 31922 net.cpp:411] conv3 -> conv3
I0204 08:47:10.449127 31922 net.cpp:150] Setting up conv3
I0204 08:47:10.449149 31922 net.cpp:157] Top shape: 100 16 13 13 (270400)
I0204 08:47:10.449158 31922 net.cpp:165] Memory required for data: 81240000
I0204 08:47:10.449178 31922 layer_factory.hpp:77] Creating layer relu3
I0204 08:47:10.449193 31922 net.cpp:106] Creating Layer relu3
I0204 08:47:10.449203 31922 net.cpp:454] relu3 <- conv3
I0204 08:47:10.449215 31922 net.cpp:397] relu3 -> conv3 (in-place)
I0204 08:47:10.449230 31922 net.cpp:150] Setting up relu3
I0204 08:47:10.449242 31922 net.cpp:157] Top shape: 100 16 13 13 (270400)
I0204 08:47:10.449250 31922 net.cpp:165] Memory required for data: 82321600
I0204 08:47:10.449260 31922 layer_factory.hpp:77] Creating layer conv4
I0204 08:47:10.449276 31922 net.cpp:106] Creating Layer conv4
I0204 08:47:10.449286 31922 net.cpp:454] conv4 <- conv3
I0204 08:47:10.449306 31922 net.cpp:411] conv4 -> conv4
I0204 08:47:10.449362 31922 net.cpp:150] Setting up conv4
I0204 08:47:10.449375 31922 net.cpp:157] Top shape: 100 16 13 13 (270400)
I0204 08:47:10.449384 31922 net.cpp:165] Memory required for data: 83403200
I0204 08:47:10.449398 31922 layer_factory.hpp:77] Creating layer relu4
I0204 08:47:10.449411 31922 net.cpp:106] Creating Layer relu4
I0204 08:47:10.449421 31922 net.cpp:454] relu4 <- conv4
I0204 08:47:10.449434 31922 net.cpp:397] relu4 -> conv4 (in-place)
I0204 08:47:10.449448 31922 net.cpp:150] Setting up relu4
I0204 08:47:10.449460 31922 net.cpp:157] Top shape: 100 16 13 13 (270400)
I0204 08:47:10.449470 31922 net.cpp:165] Memory required for data: 84484800
I0204 08:47:10.449479 31922 layer_factory.hpp:77] Creating layer conv5
I0204 08:47:10.449496 31922 net.cpp:106] Creating Layer conv5
I0204 08:47:10.449506 31922 net.cpp:454] conv5 <- conv4
I0204 08:47:10.449519 31922 net.cpp:411] conv5 -> conv5
I0204 08:47:10.449563 31922 net.cpp:150] Setting up conv5
I0204 08:47:10.449575 31922 net.cpp:157] Top shape: 100 8 13 13 (135200)
I0204 08:47:10.449584 31922 net.cpp:165] Memory required for data: 85025600
I0204 08:47:10.449604 31922 layer_factory.hpp:77] Creating layer relu5
I0204 08:47:10.449617 31922 net.cpp:106] Creating Layer relu5
I0204 08:47:10.449627 31922 net.cpp:454] relu5 <- conv5
I0204 08:47:10.449640 31922 net.cpp:397] relu5 -> conv5 (in-place)
I0204 08:47:10.449653 31922 net.cpp:150] Setting up relu5
I0204 08:47:10.449666 31922 net.cpp:157] Top shape: 100 8 13 13 (135200)
I0204 08:47:10.449674 31922 net.cpp:165] Memory required for data: 85566400
I0204 08:47:10.449683 31922 layer_factory.hpp:77] Creating layer pool5
I0204 08:47:10.449700 31922 net.cpp:106] Creating Layer pool5
I0204 08:47:10.449710 31922 net.cpp:454] pool5 <- conv5
I0204 08:47:10.449723 31922 net.cpp:411] pool5 -> pool5
I0204 08:47:10.449748 31922 net.cpp:150] Setting up pool5
I0204 08:47:10.449772 31922 net.cpp:157] Top shape: 100 8 6 6 (28800)
I0204 08:47:10.449781 31922 net.cpp:165] Memory required for data: 85681600
I0204 08:47:10.449791 31922 layer_factory.hpp:77] Creating layer fc6
I0204 08:47:10.449808 31922 net.cpp:106] Creating Layer fc6
I0204 08:47:10.449818 31922 net.cpp:454] fc6 <- pool5
I0204 08:47:10.449832 31922 net.cpp:411] fc6 -> fc6
I0204 08:47:10.452955 31922 net.cpp:150] Setting up fc6
I0204 08:47:10.453002 31922 net.cpp:157] Top shape: 100 256 (25600)
I0204 08:47:10.453012 31922 net.cpp:165] Memory required for data: 85784000
I0204 08:47:10.453030 31922 layer_factory.hpp:77] Creating layer relu6
I0204 08:47:10.453049 31922 net.cpp:106] Creating Layer relu6
I0204 08:47:10.453061 31922 net.cpp:454] relu6 <- fc6
I0204 08:47:10.453078 31922 net.cpp:397] relu6 -> fc6 (in-place)
I0204 08:47:10.453097 31922 net.cpp:150] Setting up relu6
I0204 08:47:10.453110 31922 net.cpp:157] Top shape: 100 256 (25600)
I0204 08:47:10.453119 31922 net.cpp:165] Memory required for data: 85886400
I0204 08:47:10.453130 31922 layer_factory.hpp:77] Creating layer drop6
I0204 08:47:10.453155 31922 net.cpp:106] Creating Layer drop6
I0204 08:47:10.453168 31922 net.cpp:454] drop6 <- fc6
I0204 08:47:10.453186 31922 net.cpp:397] drop6 -> fc6 (in-place)
I0204 08:47:10.453208 31922 net.cpp:150] Setting up drop6
I0204 08:47:10.453222 31922 net.cpp:157] Top shape: 100 256 (25600)
I0204 08:47:10.453232 31922 net.cpp:165] Memory required for data: 85988800
I0204 08:47:10.453244 31922 layer_factory.hpp:77] Creating layer fc7
I0204 08:47:10.453268 31922 net.cpp:106] Creating Layer fc7
I0204 08:47:10.453279 31922 net.cpp:454] fc7 <- fc6
I0204 08:47:10.453297 31922 net.cpp:411] fc7 -> fc7
I0204 08:47:10.454571 31922 net.cpp:150] Setting up fc7
I0204 08:47:10.454592 31922 net.cpp:157] Top shape: 100 256 (25600)
I0204 08:47:10.454602 31922 net.cpp:165] Memory required for data: 86091200
I0204 08:47:10.454617 31922 layer_factory.hpp:77] Creating layer relu7
I0204 08:47:10.454630 31922 net.cpp:106] Creating Layer relu7
I0204 08:47:10.454641 31922 net.cpp:454] relu7 <- fc7
I0204 08:47:10.454658 31922 net.cpp:397] relu7 -> fc7 (in-place)
I0204 08:47:10.454674 31922 net.cpp:150] Setting up relu7
I0204 08:47:10.454685 31922 net.cpp:157] Top shape: 100 256 (25600)
I0204 08:47:10.454695 31922 net.cpp:165] Memory required for data: 86193600
I0204 08:47:10.454704 31922 layer_factory.hpp:77] Creating layer drop7
I0204 08:47:10.454717 31922 net.cpp:106] Creating Layer drop7
I0204 08:47:10.454728 31922 net.cpp:454] drop7 <- fc7
I0204 08:47:10.454741 31922 net.cpp:397] drop7 -> fc7 (in-place)
I0204 08:47:10.454758 31922 net.cpp:150] Setting up drop7
I0204 08:47:10.454771 31922 net.cpp:157] Top shape: 100 256 (25600)
I0204 08:47:10.454780 31922 net.cpp:165] Memory required for data: 86296000
I0204 08:47:10.454792 31922 layer_factory.hpp:77] Creating layer fc8
I0204 08:47:10.454813 31922 net.cpp:106] Creating Layer fc8
I0204 08:47:10.454823 31922 net.cpp:454] fc8 <- fc7
I0204 08:47:10.454843 31922 net.cpp:411] fc8 -> fc8
I0204 08:47:10.454893 31922 net.cpp:150] Setting up fc8
I0204 08:47:10.454913 31922 net.cpp:157] Top shape: 100 2 (200)
I0204 08:47:10.454923 31922 net.cpp:165] Memory required for data: 86296800
I0204 08:47:10.454937 31922 layer_factory.hpp:77] Creating layer fc8_fc8_0_split
I0204 08:47:10.454953 31922 net.cpp:106] Creating Layer fc8_fc8_0_split
I0204 08:47:10.454964 31922 net.cpp:454] fc8_fc8_0_split <- fc8
I0204 08:47:10.454978 31922 net.cpp:411] fc8_fc8_0_split -> fc8_fc8_0_split_0
I0204 08:47:10.454994 31922 net.cpp:411] fc8_fc8_0_split -> fc8_fc8_0_split_1
I0204 08:47:10.455011 31922 net.cpp:150] Setting up fc8_fc8_0_split
I0204 08:47:10.455024 31922 net.cpp:157] Top shape: 100 2 (200)
I0204 08:47:10.455035 31922 net.cpp:157] Top shape: 100 2 (200)
I0204 08:47:10.455044 31922 net.cpp:165] Memory required for data: 86298400
I0204 08:47:10.455054 31922 layer_factory.hpp:77] Creating layer accuracy
I0204 08:47:10.455129 31922 net.cpp:106] Creating Layer accuracy
I0204 08:47:10.455174 31922 net.cpp:454] accuracy <- fc8_fc8_0_split_0
I0204 08:47:10.455201 31922 net.cpp:454] accuracy <- label_data_1_split_0
I0204 08:47:10.455220 31922 net.cpp:411] accuracy -> accuracy
…
