…
I0204 16:28:13.732359  3327 net.cpp:322] The NetState phase (0) differed from the phase (1) specified by a rule in layer accuracy
I0204 16:28:13.732616  3327 net.cpp:49] Initializing net from parameters: 
name: "CaffeNet"
state {
  phase: TRAIN
}
layer {
  name: "data"
  type: "Data"
  top: "data"
  top: "label"
  include {
    phase: TRAIN
  }
  transform_param {
    mirror: true
    crop_size: 227
    mean_file: "/home/pearlstl/proj_cv/master/lmdb/synth1_train_lum_db/mean_file.binaryproto"
  }
  data_param {
    source: "/home/pearlstl/proj_cv/master/lmdb/synth1_train_lum_db"
    batch_size: 100
    backend: LMDB
  }
}
layer {
  name: "conv1"
  type: "Convolution"
  bottom: "data"
  top: "conv1"
  param {
    lr_mult: 1
    decay_mult: 1
  }
  param {
    lr_mult: 2
    decay_mult: 0
  }
  convolution_param {
    num_output: 32
    kernel_size: 11
    stride: 4
    weight_filler {
      type: "xavier"
    }
    bias_filler {
      type: "constant"
      value: 0
    }
  }
}
layer {
  name: "relu1"
  type: "ReLU"
  bottom: "conv1"
  top: "conv1"
}
layer {
  name: "pool1"
  type: "Pooling"
  bottom: "conv1"
  top: "pool1"
  pooling_param {
    pool: MAX
    kernel_size: 3
    stride: 2
  }
}
layer {
  name: "norm1"
  type: "LRN"
  bottom: "pool1"
  top: "norm1"
  lrn_param {
    local_size: 5
    alpha: 0.0001
    beta: 0.75
  }
}
layer {
  name: "conv2"
  type: "Convolution"
  bottom: "norm1"
  top: "conv2"
  param {
    lr_mult: 1
    decay_mult: 1
  }
  param {
    lr_mult: 2
    decay_mult: 0
  }
  convolution_param {
    num_output: 32
    pad: 2
    kernel_size: 5
    group: 2
    weight_filler {
      type: "xavier"
    }
    bias_filler {
      type: "constant"
      value: 1
    }
  }
}
layer {
  name: "relu2"
  type: "ReLU"
  bottom: "conv2"
  top: "conv2"
}
layer {
  name: "pool2"
  type: "Pooling"
  bottom: "conv2"
  top: "pool2"
  pooling_param {
    pool: MAX
    kernel_size: 3
    stride: 2
  }
}
layer {
  name: "norm2"
  type: "LRN"
  bottom: "pool2"
  top: "norm2"
  lrn_param {
    local_size: 5
    alpha: 0.0001
    beta: 0.75
  }
}
layer {
  name: "conv3"
  type: "Convolution"
  bottom: "norm2"
  top: "conv3"
  param {
    lr_mult: 1
    decay_mult: 1
  }
  param {
    lr_mult: 2
    decay_mult: 0
  }
  convolution_param {
    num_output: 32
    pad: 1
    kernel_size: 3
    weight_filler {
      type: "xavier"
    }
    bias_filler {
      type: "constant"
      value: 0
    }
  }
}
layer {
  name: "relu3"
  type: "ReLU"
  bottom: "conv3"
  top: "conv3"
}
layer {
  name: "conv4"
  type: "Convolution"
  bottom: "conv3"
  top: "conv4"
  param {
    lr_mult: 1
    decay_mult: 1
  }
  param {
    lr_mult: 2
    decay_mult: 0
  }
  convolution_param {
    num_output: 32
    pad: 1
    kernel_size: 3
    group: 2
    weight_filler {
      type: "xavier"
    }
    bias_filler {
      type: "constant"
      value: 1
    }
  }
}
layer {
  name: "relu4"
  type: "ReLU"
  bottom: "conv4"
  top: "conv4"
}
layer {
  name: "conv5"
  type: "Convolution"
  bottom: "conv4"
  top: "conv5"
  param {
    lr_mult: 1
    decay_mult: 1
  }
  param {
    lr_mult: 2
    decay_mult: 0
  }
  convolution_param {
    num_output: 16
    pad: 1
    kernel_size: 3
    group: 2
    weight_filler {
      type: "xavier"
    }
    bias_filler {
      type: "constant"
      value: 1
    }
  }
}
layer {
  name: "relu5"
  type: "ReLU"
  bottom: "conv5"
  top: "conv5"
}
layer {
  name: "pool5"
  type: "Pooling"
  bottom: "conv5"
  top: "pool5"
  pooling_param {
    pool: MAX
    kernel_size: 3
    stride: 2
  }
}
layer {
  name: "fc6"
  type: "InnerProduct"
  bottom: "pool5"
  top: "fc6"
  param {
    lr_mult: 1
    decay_mult: 1
  }
  param {
    lr_mult: 2
    decay_mult: 0
  }
  inner_product_param {
    num_output: 256
    weight_filler {
      type: "xavier"
    }
    bias_filler {
      type: "constant"
      value: 1
    }
  }
}
layer {
  name: "relu6"
  type: "ReLU"
  bottom: "fc6"
  top: "fc6"
}
layer {
  name: "drop6"
  type: "Dropout"
  bottom: "fc6"
  top: "fc6"
  dropout_param {
    dropout_ratio: 0.5
  }
}
layer {
  name: "fc7"
  type: "InnerProduct"
  bottom: "fc6"
  top: "fc7"
  param {
    lr_mult: 1
    decay_mult: 1
  }
  param {
    lr_mult: 2
    decay_mult: 0
  }
  inner_product_param {
    num_output: 256
    weight_filler {
      type: "xavier"
    }
    bias_filler {
      type: "constant"
      value: 1
    }
  }
}
layer {
  name: "relu7"
  type: "ReLU"
  bottom: "fc7"
  top: "fc7"
}
layer {
  name: "drop7"
  type: "Dropout"
  bottom: "fc7"
  top: "fc7"
  dropout_param {
    dropout_ratio: 0.5
  }
}
layer {
  name: "fc8"
  type: "InnerProduct"
  bottom: "fc7"
  top: "fc8"
  param {
    lr_mult: 1
    decay_mult: 1
  }
  param {
    lr_mult: 2
    decay_mult: 0
  }
  inner_product_param {
    num_output: 2
    weight_filler {
      type: "xavier"
    }
    bias_filler {
      type: "constant"
      value: 0
    }
  }
}
layer {
  name: "loss"
  type: "SoftmaxWithLoss"
  bottom: "fc8"
  bottom: "label"
  top: "loss"
}
I0204 16:28:13.732755  3327 layer_factory.hpp:77] Creating layer data
I0204 16:28:13.732956  3327 net.cpp:106] Creating Layer data
I0204 16:28:13.732976  3327 net.cpp:411] data -> data
I0204 16:28:13.733026  3327 net.cpp:411] data -> label
I0204 16:28:13.733047  3327 data_transformer.cpp:25] Loading mean file from: /home/pearlstl/proj_cv/master/lmdb/synth1_train_lum_db/mean_file.binaryproto
I0204 16:28:13.733108  3334 db_lmdb.cpp:38] Opened lmdb /home/pearlstl/proj_cv/master/lmdb/synth1_train_lum_db
I0204 16:28:13.734040  3327 data_layer.cpp:41] output data size: 100,1,227,227
I0204 16:28:13.771431  3327 net.cpp:150] Setting up data
I0204 16:28:13.771697  3327 net.cpp:157] Top shape: 100 1 227 227 (5152900)
I0204 16:28:13.771731  3327 net.cpp:157] Top shape: 100 (100)
I0204 16:28:13.771742  3327 net.cpp:165] Memory required for data: 20612000
I0204 16:28:13.771770  3327 layer_factory.hpp:77] Creating layer conv1
I0204 16:28:13.771811  3327 net.cpp:106] Creating Layer conv1
I0204 16:28:13.771826  3327 net.cpp:454] conv1 <- data
I0204 16:28:13.771853  3327 net.cpp:411] conv1 -> conv1
I0204 16:28:13.772081  3327 net.cpp:150] Setting up conv1
I0204 16:28:13.772107  3327 net.cpp:157] Top shape: 100 32 55 55 (9680000)
I0204 16:28:13.772117  3327 net.cpp:165] Memory required for data: 59332000
I0204 16:28:13.772148  3327 layer_factory.hpp:77] Creating layer relu1
I0204 16:28:13.772173  3327 net.cpp:106] Creating Layer relu1
I0204 16:28:13.772186  3327 net.cpp:454] relu1 <- conv1
I0204 16:28:13.772202  3327 net.cpp:397] relu1 -> conv1 (in-place)
I0204 16:28:13.772223  3327 net.cpp:150] Setting up relu1
I0204 16:28:13.772238  3327 net.cpp:157] Top shape: 100 32 55 55 (9680000)
I0204 16:28:13.772246  3327 net.cpp:165] Memory required for data: 98052000
I0204 16:28:13.772256  3327 layer_factory.hpp:77] Creating layer pool1
I0204 16:28:13.772279  3327 net.cpp:106] Creating Layer pool1
I0204 16:28:13.772289  3327 net.cpp:454] pool1 <- conv1
I0204 16:28:13.772305  3327 net.cpp:411] pool1 -> pool1
I0204 16:28:13.772351  3327 net.cpp:150] Setting up pool1
I0204 16:28:13.772367  3327 net.cpp:157] Top shape: 100 32 27 27 (2332800)
I0204 16:28:13.772377  3327 net.cpp:165] Memory required for data: 107383200
I0204 16:28:13.772387  3327 layer_factory.hpp:77] Creating layer norm1
I0204 16:28:13.772434  3327 net.cpp:106] Creating Layer norm1
I0204 16:28:13.772445  3327 net.cpp:454] norm1 <- pool1
I0204 16:28:13.772459  3327 net.cpp:411] norm1 -> norm1
I0204 16:28:13.772486  3327 net.cpp:150] Setting up norm1
I0204 16:28:13.772502  3327 net.cpp:157] Top shape: 100 32 27 27 (2332800)
I0204 16:28:13.772511  3327 net.cpp:165] Memory required for data: 116714400
I0204 16:28:13.772521  3327 layer_factory.hpp:77] Creating layer conv2
I0204 16:28:13.772538  3327 net.cpp:106] Creating Layer conv2
I0204 16:28:13.772547  3327 net.cpp:454] conv2 <- norm1
I0204 16:28:13.772562  3327 net.cpp:411] conv2 -> conv2
I0204 16:28:13.772799  3327 net.cpp:150] Setting up conv2
I0204 16:28:13.772814  3327 net.cpp:157] Top shape: 100 32 27 27 (2332800)
I0204 16:28:13.772824  3327 net.cpp:165] Memory required for data: 126045600
I0204 16:28:13.772842  3327 layer_factory.hpp:77] Creating layer relu2
I0204 16:28:13.772856  3327 net.cpp:106] Creating Layer relu2
I0204 16:28:13.772866  3327 net.cpp:454] relu2 <- conv2
I0204 16:28:13.772908  3327 net.cpp:397] relu2 -> conv2 (in-place)
I0204 16:28:13.772930  3327 net.cpp:150] Setting up relu2
I0204 16:28:13.772943  3327 net.cpp:157] Top shape: 100 32 27 27 (2332800)
I0204 16:28:13.772951  3327 net.cpp:165] Memory required for data: 135376800
I0204 16:28:13.772960  3327 layer_factory.hpp:77] Creating layer pool2
I0204 16:28:13.772974  3327 net.cpp:106] Creating Layer pool2
I0204 16:28:13.772987  3327 net.cpp:454] pool2 <- conv2
I0204 16:28:13.773000  3327 net.cpp:411] pool2 -> pool2
I0204 16:28:13.773020  3327 net.cpp:150] Setting up pool2
I0204 16:28:13.773031  3327 net.cpp:157] Top shape: 100 32 13 13 (540800)
I0204 16:28:13.773041  3327 net.cpp:165] Memory required for data: 137540000
I0204 16:28:13.773049  3327 layer_factory.hpp:77] Creating layer norm2
I0204 16:28:13.773066  3327 net.cpp:106] Creating Layer norm2
I0204 16:28:13.773088  3327 net.cpp:454] norm2 <- pool2
I0204 16:28:13.773107  3327 net.cpp:411] norm2 -> norm2
I0204 16:28:13.773123  3327 net.cpp:150] Setting up norm2
I0204 16:28:13.773135  3327 net.cpp:157] Top shape: 100 32 13 13 (540800)
I0204 16:28:13.773144  3327 net.cpp:165] Memory required for data: 139703200
I0204 16:28:13.773157  3327 layer_factory.hpp:77] Creating layer conv3
I0204 16:28:13.773175  3327 net.cpp:106] Creating Layer conv3
I0204 16:28:13.773185  3327 net.cpp:454] conv3 <- norm2
I0204 16:28:13.773198  3327 net.cpp:411] conv3 -> conv3
I0204 16:28:13.773391  3327 net.cpp:150] Setting up conv3
I0204 16:28:13.773408  3327 net.cpp:157] Top shape: 100 32 13 13 (540800)
I0204 16:28:13.773416  3327 net.cpp:165] Memory required for data: 141866400
I0204 16:28:13.773434  3327 layer_factory.hpp:77] Creating layer relu3
I0204 16:28:13.773455  3327 net.cpp:106] Creating Layer relu3
I0204 16:28:13.773465  3327 net.cpp:454] relu3 <- conv3
I0204 16:28:13.773480  3327 net.cpp:397] relu3 -> conv3 (in-place)
I0204 16:28:13.773495  3327 net.cpp:150] Setting up relu3
I0204 16:28:13.773506  3327 net.cpp:157] Top shape: 100 32 13 13 (540800)
I0204 16:28:13.773515  3327 net.cpp:165] Memory required for data: 144029600
I0204 16:28:13.773524  3327 layer_factory.hpp:77] Creating layer conv4
I0204 16:28:13.773545  3327 net.cpp:106] Creating Layer conv4
I0204 16:28:13.773555  3327 net.cpp:454] conv4 <- conv3
I0204 16:28:13.773574  3327 net.cpp:411] conv4 -> conv4
I0204 16:28:13.773695  3327 net.cpp:150] Setting up conv4
I0204 16:28:13.773708  3327 net.cpp:157] Top shape: 100 32 13 13 (540800)
I0204 16:28:13.773717  3327 net.cpp:165] Memory required for data: 146192800
I0204 16:28:13.773733  3327 layer_factory.hpp:77] Creating layer relu4
I0204 16:28:13.773746  3327 net.cpp:106] Creating Layer relu4
I0204 16:28:13.773756  3327 net.cpp:454] relu4 <- conv4
I0204 16:28:13.773767  3327 net.cpp:397] relu4 -> conv4 (in-place)
I0204 16:28:13.773782  3327 net.cpp:150] Setting up relu4
I0204 16:28:13.773793  3327 net.cpp:157] Top shape: 100 32 13 13 (540800)
I0204 16:28:13.773802  3327 net.cpp:165] Memory required for data: 148356000
I0204 16:28:13.773823  3327 layer_factory.hpp:77] Creating layer conv5
I0204 16:28:13.773852  3327 net.cpp:106] Creating Layer conv5
I0204 16:28:13.773862  3327 net.cpp:454] conv5 <- conv4
I0204 16:28:13.773875  3327 net.cpp:411] conv5 -> conv5
I0204 16:28:13.773955  3327 net.cpp:150] Setting up conv5
I0204 16:28:13.773972  3327 net.cpp:157] Top shape: 100 16 13 13 (270400)
I0204 16:28:13.773982  3327 net.cpp:165] Memory required for data: 149437600
I0204 16:28:13.773999  3327 layer_factory.hpp:77] Creating layer relu5
I0204 16:28:13.774013  3327 net.cpp:106] Creating Layer relu5
I0204 16:28:13.774021  3327 net.cpp:454] relu5 <- conv5
I0204 16:28:13.774037  3327 net.cpp:397] relu5 -> conv5 (in-place)
I0204 16:28:13.774055  3327 net.cpp:150] Setting up relu5
I0204 16:28:13.774066  3327 net.cpp:157] Top shape: 100 16 13 13 (270400)
I0204 16:28:13.774082  3327 net.cpp:165] Memory required for data: 150519200
I0204 16:28:13.774091  3327 layer_factory.hpp:77] Creating layer pool5
I0204 16:28:13.774106  3327 net.cpp:106] Creating Layer pool5
I0204 16:28:13.774116  3327 net.cpp:454] pool5 <- conv5
I0204 16:28:13.774132  3327 net.cpp:411] pool5 -> pool5
I0204 16:28:13.774153  3327 net.cpp:150] Setting up pool5
I0204 16:28:13.774166  3327 net.cpp:157] Top shape: 100 16 6 6 (57600)
I0204 16:28:13.774174  3327 net.cpp:165] Memory required for data: 150749600
I0204 16:28:13.774183  3327 layer_factory.hpp:77] Creating layer fc6
I0204 16:28:13.774206  3327 net.cpp:106] Creating Layer fc6
I0204 16:28:13.774216  3327 net.cpp:454] fc6 <- pool5
I0204 16:28:13.774238  3327 net.cpp:411] fc6 -> fc6
I0204 16:28:13.776587  3327 net.cpp:150] Setting up fc6
I0204 16:28:13.776620  3327 net.cpp:157] Top shape: 100 256 (25600)
I0204 16:28:13.776629  3327 net.cpp:165] Memory required for data: 150852000
I0204 16:28:13.776645  3327 layer_factory.hpp:77] Creating layer relu6
I0204 16:28:13.776660  3327 net.cpp:106] Creating Layer relu6
I0204 16:28:13.776670  3327 net.cpp:454] relu6 <- fc6
I0204 16:28:13.776690  3327 net.cpp:397] relu6 -> fc6 (in-place)
I0204 16:28:13.776707  3327 net.cpp:150] Setting up relu6
I0204 16:28:13.776718  3327 net.cpp:157] Top shape: 100 256 (25600)
I0204 16:28:13.776726  3327 net.cpp:165] Memory required for data: 150954400
I0204 16:28:13.776736  3327 layer_factory.hpp:77] Creating layer drop6
I0204 16:28:13.776749  3327 net.cpp:106] Creating Layer drop6
I0204 16:28:13.776757  3327 net.cpp:454] drop6 <- fc6
I0204 16:28:13.776772  3327 net.cpp:397] drop6 -> fc6 (in-place)
I0204 16:28:13.776796  3327 net.cpp:150] Setting up drop6
I0204 16:28:13.776808  3327 net.cpp:157] Top shape: 100 256 (25600)
I0204 16:28:13.776815  3327 net.cpp:165] Memory required for data: 151056800
I0204 16:28:13.776823  3327 layer_factory.hpp:77] Creating layer fc7
I0204 16:28:13.776840  3327 net.cpp:106] Creating Layer fc7
I0204 16:28:13.776849  3327 net.cpp:454] fc7 <- fc6
I0204 16:28:13.776865  3327 net.cpp:411] fc7 -> fc7
I0204 16:28:13.777945  3327 net.cpp:150] Setting up fc7
I0204 16:28:13.777963  3327 net.cpp:157] Top shape: 100 256 (25600)
I0204 16:28:13.777971  3327 net.cpp:165] Memory required for data: 151159200
I0204 16:28:13.777986  3327 layer_factory.hpp:77] Creating layer relu7
I0204 16:28:13.777998  3327 net.cpp:106] Creating Layer relu7
I0204 16:28:13.778007  3327 net.cpp:454] relu7 <- fc7
I0204 16:28:13.778022  3327 net.cpp:397] relu7 -> fc7 (in-place)
I0204 16:28:13.778035  3327 net.cpp:150] Setting up relu7
I0204 16:28:13.778045  3327 net.cpp:157] Top shape: 100 256 (25600)
I0204 16:28:13.778053  3327 net.cpp:165] Memory required for data: 151261600
I0204 16:28:13.778061  3327 layer_factory.hpp:77] Creating layer drop7
I0204 16:28:13.778077  3327 net.cpp:106] Creating Layer drop7
I0204 16:28:13.778085  3327 net.cpp:454] drop7 <- fc7
I0204 16:28:13.778096  3327 net.cpp:397] drop7 -> fc7 (in-place)
I0204 16:28:13.778120  3327 net.cpp:150] Setting up drop7
I0204 16:28:13.778132  3327 net.cpp:157] Top shape: 100 256 (25600)
I0204 16:28:13.778141  3327 net.cpp:165] Memory required for data: 151364000
I0204 16:28:13.778147  3327 layer_factory.hpp:77] Creating layer fc8
I0204 16:28:13.778179  3327 net.cpp:106] Creating Layer fc8
I0204 16:28:13.778203  3327 net.cpp:454] fc8 <- fc7
I0204 16:28:13.778215  3327 net.cpp:411] fc8 -> fc8
I0204 16:28:13.778254  3327 net.cpp:150] Setting up fc8
I0204 16:28:13.778269  3327 net.cpp:157] Top shape: 100 2 (200)
I0204 16:28:13.778276  3327 net.cpp:165] Memory required for data: 151364800
I0204 16:28:13.778288  3327 layer_factory.hpp:77] Creating layer loss
I0204 16:28:13.778303  3327 net.cpp:106] Creating Layer loss
I0204 16:28:13.778312  3327 net.cpp:454] loss <- fc8
I0204 16:28:13.778322  3327 net.cpp:454] loss <- label
I0204 16:28:13.778336  3327 net.cpp:411] loss -> loss
I0204 16:28:13.778358  3327 layer_factory.hpp:77] Creating layer loss
…
I0204 16:28:13.779938  3327 net.cpp:322] The NetState phase (1) differed from the phase (0) specified by a rule in layer data
I0204 16:28:13.780393  3327 net.cpp:49] Initializing net from parameters: 
name: "CaffeNet"
state {
  phase: TEST
}
layer {
  name: "data"
  type: "Data"
  top: "data"
  top: "label"
  include {
    phase: TEST
  }
  transform_param {
    mirror: false
    crop_size: 227
    mean_file: "/home/pearlstl/proj_cv/master/lmdb/synth1_test_lum_db/mean_file.binaryproto"
  }
  data_param {
    source: "/home/pearlstl/proj_cv/master/lmdb/synth1_test_lum_db"
    batch_size: 100
    backend: LMDB
  }
}
layer {
  name: "conv1"
  type: "Convolution"
  bottom: "data"
  top: "conv1"
  param {
    lr_mult: 1
    decay_mult: 1
  }
  param {
    lr_mult: 2
    decay_mult: 0
  }
  convolution_param {
    num_output: 32
    kernel_size: 11
    stride: 4
    weight_filler {
      type: "xavier"
    }
    bias_filler {
      type: "constant"
      value: 0
    }
  }
}
layer {
  name: "relu1"
  type: "ReLU"
  bottom: "conv1"
  top: "conv1"
}
layer {
  name: "pool1"
  type: "Pooling"
  bottom: "conv1"
  top: "pool1"
  pooling_param {
    pool: MAX
    kernel_size: 3
    stride: 2
  }
}
layer {
  name: "norm1"
  type: "LRN"
  bottom: "pool1"
  top: "norm1"
  lrn_param {
    local_size: 5
    alpha: 0.0001
    beta: 0.75
  }
}
layer {
  name: "conv2"
  type: "Convolution"
  bottom: "norm1"
  top: "conv2"
  param {
    lr_mult: 1
    decay_mult: 1
  }
  param {
    lr_mult: 2
    decay_mult: 0
  }
  convolution_param {
    num_output: 32
    pad: 2
    kernel_size: 5
    group: 2
    weight_filler {
      type: "xavier"
    }
    bias_filler {
      type: "constant"
      value: 1
    }
  }
}
layer {
  name: "relu2"
  type: "ReLU"
  bottom: "conv2"
  top: "conv2"
}
layer {
  name: "pool2"
  type: "Pooling"
  bottom: "conv2"
  top: "pool2"
  pooling_param {
    pool: MAX
    kernel_size: 3
    stride: 2
  }
}
layer {
  name: "norm2"
  type: "LRN"
  bottom: "pool2"
  top: "norm2"
  lrn_param {
    local_size: 5
    alpha: 0.0001
    beta: 0.75
  }
}
layer {
  name: "conv3"
  type: "Convolution"
  bottom: "norm2"
  top: "conv3"
  param {
    lr_mult: 1
    decay_mult: 1
  }
  param {
    lr_mult: 2
    decay_mult: 0
  }
  convolution_param {
    num_output: 32
    pad: 1
    kernel_size: 3
    weight_filler {
      type: "xavier"
    }
    bias_filler {
      type: "constant"
      value: 0
    }
  }
}
layer {
  name: "relu3"
  type: "ReLU"
  bottom: "conv3"
  top: "conv3"
}
layer {
  name: "conv4"
  type: "Convolution"
  bottom: "conv3"
  top: "conv4"
  param {
    lr_mult: 1
    decay_mult: 1
  }
  param {
    lr_mult: 2
    decay_mult: 0
  }
  convolution_param {
    num_output: 32
    pad: 1
    kernel_size: 3
    group: 2
    weight_filler {
      type: "xavier"
    }
    bias_filler {
      type: "constant"
      value: 1
    }
  }
}
layer {
  name: "relu4"
  type: "ReLU"
  bottom: "conv4"
  top: "conv4"
}
layer {
  name: "conv5"
  type: "Convolution"
  bottom: "conv4"
  top: "conv5"
  param {
    lr_mult: 1
    decay_mult: 1
  }
  param {
    lr_mult: 2
    decay_mult: 0
  }
  convolution_param {
    num_output: 16
    pad: 1
    kernel_size: 3
    group: 2
    weight_filler {
      type: "xavier"
    }
    bias_filler {
      type: "constant"
      value: 1
    }
  }
}
layer {
  name: "relu5"
  type: "ReLU"
  bottom: "conv5"
  top: "conv5"
}
layer {
  name: "pool5"
  type: "Pooling"
  bottom: "conv5"
  top: "pool5"
  pooling_param {
    pool: MAX
    kernel_size: 3
    stride: 2
  }
}
layer {
  name: "fc6"
  type: "InnerProduct"
  bottom: "pool5"
  top: "fc6"
  param {
    lr_mult: 1
    decay_mult: 1
  }
  param {
    lr_mult: 2
    decay_mult: 0
  }
  inner_product_param {
    num_output: 256
    weight_filler {
      type: "xavier"
    }
    bias_filler {
      type: "constant"
      value: 1
    }
  }
}
layer {
  name: "relu6"
  type: "ReLU"
  bottom: "fc6"
  top: "fc6"
}
layer {
  name: "drop6"
  type: "Dropout"
  bottom: "fc6"
  top: "fc6"
  dropout_param {
    dropout_ratio: 0.5
  }
}
layer {
  name: "fc7"
  type: "InnerProduct"
  bottom: "fc6"
  top: "fc7"
  param {
    lr_mult: 1
    decay_mult: 1
  }
  param {
    lr_mult: 2
    decay_mult: 0
  }
  inner_product_param {
    num_output: 256
    weight_filler {
      type: "xavier"
    }
    bias_filler {
      type: "constant"
      value: 1
    }
  }
}
layer {
  name: "relu7"
  type: "ReLU"
  bottom: "fc7"
  top: "fc7"
}
layer {
  name: "drop7"
  type: "Dropout"
  bottom: "fc7"
  top: "fc7"
  dropout_param {
    dropout_ratio: 0.5
  }
}
layer {
  name: "fc8"
  type: "InnerProduct"
  bottom: "fc7"
  top: "fc8"
  param {
    lr_mult: 1
    decay_mult: 1
  }
  param {
    lr_mult: 2
    decay_mult: 0
  }
  inner_product_param {
    num_output: 2
    weight_filler {
      type: "xavier"
    }
    bias_filler {
      type: "constant"
      value: 0
    }
  }
}
layer {
  name: "accuracy"
  type: "Accuracy"
  bottom: "fc8"
  bottom: "label"
  top: "accuracy"
  include {
    phase: TEST
  }
}
layer {
  name: "loss"
  type: "SoftmaxWithLoss"
  bottom: "fc8"
  bottom: "label"
  top: "loss"
}
I0204 16:28:13.780645  3327 layer_factory.hpp:77] Creating layer data
I0204 16:28:13.780848  3327 net.cpp:106] Creating Layer data
I0204 16:28:13.780865  3327 net.cpp:411] data -> data
I0204 16:28:13.780884  3327 net.cpp:411] data -> label
I0204 16:28:13.780900  3327 data_transformer.cpp:25] Loading mean file from: /home/pearlstl/proj_cv/master/lmdb/synth1_test_lum_db/mean_file.binaryproto
I0204 16:28:13.781049  3345 db_lmdb.cpp:38] Opened lmdb /home/pearlstl/proj_cv/master/lmdb/synth1_test_lum_db
I0204 16:28:13.782222  3327 data_layer.cpp:41] output data size: 100,1,227,227
I0204 16:28:13.824697  3327 net.cpp:150] Setting up data
I0204 16:28:13.824739  3327 net.cpp:157] Top shape: 100 1 227 227 (5152900)
I0204 16:28:13.824748  3327 net.cpp:157] Top shape: 100 (100)
I0204 16:28:13.824753  3327 net.cpp:165] Memory required for data: 20612000
I0204 16:28:13.824766  3327 layer_factory.hpp:77] Creating layer label_data_1_split
I0204 16:28:13.824791  3327 net.cpp:106] Creating Layer label_data_1_split
I0204 16:28:13.824800  3327 net.cpp:454] label_data_1_split <- label
I0204 16:28:13.824812  3327 net.cpp:411] label_data_1_split -> label_data_1_split_0
I0204 16:28:13.824829  3327 net.cpp:411] label_data_1_split -> label_data_1_split_1
I0204 16:28:13.824843  3327 net.cpp:150] Setting up label_data_1_split
I0204 16:28:13.824851  3327 net.cpp:157] Top shape: 100 (100)
I0204 16:28:13.824861  3327 net.cpp:157] Top shape: 100 (100)
I0204 16:28:13.824865  3327 net.cpp:165] Memory required for data: 20612800
I0204 16:28:13.824872  3327 layer_factory.hpp:77] Creating layer conv1
I0204 16:28:13.824887  3327 net.cpp:106] Creating Layer conv1
I0204 16:28:13.824892  3327 net.cpp:454] conv1 <- data
I0204 16:28:13.824905  3327 net.cpp:411] conv1 -> conv1
I0204 16:28:13.824981  3327 net.cpp:150] Setting up conv1
I0204 16:28:13.824992  3327 net.cpp:157] Top shape: 100 32 55 55 (9680000)
I0204 16:28:13.824997  3327 net.cpp:165] Memory required for data: 59332800
I0204 16:28:13.825014  3327 layer_factory.hpp:77] Creating layer relu1
I0204 16:28:13.825024  3327 net.cpp:106] Creating Layer relu1
I0204 16:28:13.825031  3327 net.cpp:454] relu1 <- conv1
I0204 16:28:13.825038  3327 net.cpp:397] relu1 -> conv1 (in-place)
I0204 16:28:13.825049  3327 net.cpp:150] Setting up relu1
I0204 16:28:13.825057  3327 net.cpp:157] Top shape: 100 32 55 55 (9680000)
I0204 16:28:13.825062  3327 net.cpp:165] Memory required for data: 98052800
I0204 16:28:13.825084  3327 layer_factory.hpp:77] Creating layer pool1
I0204 16:28:13.825099  3327 net.cpp:106] Creating Layer pool1
I0204 16:28:13.825108  3327 net.cpp:454] pool1 <- conv1
I0204 16:28:13.825115  3327 net.cpp:411] pool1 -> pool1
I0204 16:28:13.825132  3327 net.cpp:150] Setting up pool1
I0204 16:28:13.825140  3327 net.cpp:157] Top shape: 100 32 27 27 (2332800)
I0204 16:28:13.825146  3327 net.cpp:165] Memory required for data: 107384000
I0204 16:28:13.825152  3327 layer_factory.hpp:77] Creating layer norm1
I0204 16:28:13.825163  3327 net.cpp:106] Creating Layer norm1
I0204 16:28:13.825170  3327 net.cpp:454] norm1 <- pool1
I0204 16:28:13.825177  3327 net.cpp:411] norm1 -> norm1
I0204 16:28:13.825188  3327 net.cpp:150] Setting up norm1
I0204 16:28:13.825196  3327 net.cpp:157] Top shape: 100 32 27 27 (2332800)
I0204 16:28:13.825201  3327 net.cpp:165] Memory required for data: 116715200
I0204 16:28:13.825206  3327 layer_factory.hpp:77] Creating layer conv2
I0204 16:28:13.825218  3327 net.cpp:106] Creating Layer conv2
I0204 16:28:13.825224  3327 net.cpp:454] conv2 <- norm1
I0204 16:28:13.825233  3327 net.cpp:411] conv2 -> conv2
I0204 16:28:13.825364  3327 net.cpp:150] Setting up conv2
I0204 16:28:13.825376  3327 net.cpp:157] Top shape: 100 32 27 27 (2332800)
I0204 16:28:13.825382  3327 net.cpp:165] Memory required for data: 126046400
I0204 16:28:13.825394  3327 layer_factory.hpp:77] Creating layer relu2
I0204 16:28:13.825403  3327 net.cpp:106] Creating Layer relu2
I0204 16:28:13.825409  3327 net.cpp:454] relu2 <- conv2
I0204 16:28:13.825438  3327 net.cpp:397] relu2 -> conv2 (in-place)
I0204 16:28:13.825459  3327 net.cpp:150] Setting up relu2
I0204 16:28:13.825465  3327 net.cpp:157] Top shape: 100 32 27 27 (2332800)
I0204 16:28:13.825471  3327 net.cpp:165] Memory required for data: 135377600
I0204 16:28:13.825476  3327 layer_factory.hpp:77] Creating layer pool2
I0204 16:28:13.825487  3327 net.cpp:106] Creating Layer pool2
I0204 16:28:13.825492  3327 net.cpp:454] pool2 <- conv2
I0204 16:28:13.825503  3327 net.cpp:411] pool2 -> pool2
I0204 16:28:13.825516  3327 net.cpp:150] Setting up pool2
I0204 16:28:13.825525  3327 net.cpp:157] Top shape: 100 32 13 13 (540800)
I0204 16:28:13.825531  3327 net.cpp:165] Memory required for data: 137540800
I0204 16:28:13.825538  3327 layer_factory.hpp:77] Creating layer norm2
I0204 16:28:13.825548  3327 net.cpp:106] Creating Layer norm2
I0204 16:28:13.825556  3327 net.cpp:454] norm2 <- pool2
I0204 16:28:13.825563  3327 net.cpp:411] norm2 -> norm2
I0204 16:28:13.825573  3327 net.cpp:150] Setting up norm2
I0204 16:28:13.825580  3327 net.cpp:157] Top shape: 100 32 13 13 (540800)
I0204 16:28:13.825585  3327 net.cpp:165] Memory required for data: 139704000
I0204 16:28:13.825592  3327 layer_factory.hpp:77] Creating layer conv3
I0204 16:28:13.825603  3327 net.cpp:106] Creating Layer conv3
I0204 16:28:13.825609  3327 net.cpp:454] conv3 <- norm2
I0204 16:28:13.825618  3327 net.cpp:411] conv3 -> conv3
I0204 16:28:13.825716  3327 net.cpp:150] Setting up conv3
I0204 16:28:13.825723  3327 net.cpp:157] Top shape: 100 32 13 13 (540800)
I0204 16:28:13.825728  3327 net.cpp:165] Memory required for data: 141867200
I0204 16:28:13.825738  3327 layer_factory.hpp:77] Creating layer relu3
I0204 16:28:13.825750  3327 net.cpp:106] Creating Layer relu3
I0204 16:28:13.825757  3327 net.cpp:454] relu3 <- conv3
I0204 16:28:13.825764  3327 net.cpp:397] relu3 -> conv3 (in-place)
I0204 16:28:13.825774  3327 net.cpp:150] Setting up relu3
I0204 16:28:13.825781  3327 net.cpp:157] Top shape: 100 32 13 13 (540800)
I0204 16:28:13.825788  3327 net.cpp:165] Memory required for data: 144030400
I0204 16:28:13.825793  3327 layer_factory.hpp:77] Creating layer conv4
I0204 16:28:13.825804  3327 net.cpp:106] Creating Layer conv4
I0204 16:28:13.825810  3327 net.cpp:454] conv4 <- conv3
I0204 16:28:13.825819  3327 net.cpp:411] conv4 -> conv4
I0204 16:28:13.825878  3327 net.cpp:150] Setting up conv4
I0204 16:28:13.825886  3327 net.cpp:157] Top shape: 100 32 13 13 (540800)
I0204 16:28:13.825891  3327 net.cpp:165] Memory required for data: 146193600
I0204 16:28:13.825901  3327 layer_factory.hpp:77] Creating layer relu4
I0204 16:28:13.825908  3327 net.cpp:106] Creating Layer relu4
I0204 16:28:13.825914  3327 net.cpp:454] relu4 <- conv4
I0204 16:28:13.825923  3327 net.cpp:397] relu4 -> conv4 (in-place)
I0204 16:28:13.825932  3327 net.cpp:150] Setting up relu4
I0204 16:28:13.825939  3327 net.cpp:157] Top shape: 100 32 13 13 (540800)
I0204 16:28:13.825944  3327 net.cpp:165] Memory required for data: 148356800
I0204 16:28:13.825950  3327 layer_factory.hpp:77] Creating layer conv5
I0204 16:28:13.825960  3327 net.cpp:106] Creating Layer conv5
I0204 16:28:13.825966  3327 net.cpp:454] conv5 <- conv4
I0204 16:28:13.825975  3327 net.cpp:411] conv5 -> conv5
I0204 16:28:13.826014  3327 net.cpp:150] Setting up conv5
I0204 16:28:13.826022  3327 net.cpp:157] Top shape: 100 16 13 13 (270400)
I0204 16:28:13.826030  3327 net.cpp:165] Memory required for data: 149438400
I0204 16:28:13.826042  3327 layer_factory.hpp:77] Creating layer relu5
I0204 16:28:13.826053  3327 net.cpp:106] Creating Layer relu5
I0204 16:28:13.826059  3327 net.cpp:454] relu5 <- conv5
I0204 16:28:13.826067  3327 net.cpp:397] relu5 -> conv5 (in-place)
I0204 16:28:13.826082  3327 net.cpp:150] Setting up relu5
I0204 16:28:13.826092  3327 net.cpp:157] Top shape: 100 16 13 13 (270400)
I0204 16:28:13.826097  3327 net.cpp:165] Memory required for data: 150520000
I0204 16:28:13.826103  3327 layer_factory.hpp:77] Creating layer pool5
I0204 16:28:13.826114  3327 net.cpp:106] Creating Layer pool5
I0204 16:28:13.826120  3327 net.cpp:454] pool5 <- conv5
I0204 16:28:13.826143  3327 net.cpp:411] pool5 -> pool5
I0204 16:28:13.826154  3327 net.cpp:150] Setting up pool5
I0204 16:28:13.826162  3327 net.cpp:157] Top shape: 100 16 6 6 (57600)
I0204 16:28:13.826167  3327 net.cpp:165] Memory required for data: 150750400
I0204 16:28:13.826174  3327 layer_factory.hpp:77] Creating layer fc6
I0204 16:28:13.826186  3327 net.cpp:106] Creating Layer fc6
I0204 16:28:13.826192  3327 net.cpp:454] fc6 <- pool5
I0204 16:28:13.826201  3327 net.cpp:411] fc6 -> fc6
I0204 16:28:13.830449  3327 net.cpp:150] Setting up fc6
I0204 16:28:13.830507  3327 net.cpp:157] Top shape: 100 256 (25600)
I0204 16:28:13.830519  3327 net.cpp:165] Memory required for data: 150852800
I0204 16:28:13.830539  3327 layer_factory.hpp:77] Creating layer relu6
I0204 16:28:13.830562  3327 net.cpp:106] Creating Layer relu6
I0204 16:28:13.830576  3327 net.cpp:454] relu6 <- fc6
I0204 16:28:13.830593  3327 net.cpp:397] relu6 -> fc6 (in-place)
I0204 16:28:13.830617  3327 net.cpp:150] Setting up relu6
I0204 16:28:13.830631  3327 net.cpp:157] Top shape: 100 256 (25600)
I0204 16:28:13.830641  3327 net.cpp:165] Memory required for data: 150955200
I0204 16:28:13.830651  3327 layer_factory.hpp:77] Creating layer drop6
I0204 16:28:13.830669  3327 net.cpp:106] Creating Layer drop6
I0204 16:28:13.830680  3327 net.cpp:454] drop6 <- fc6
I0204 16:28:13.830695  3327 net.cpp:397] drop6 -> fc6 (in-place)
I0204 16:28:13.830715  3327 net.cpp:150] Setting up drop6
I0204 16:28:13.830729  3327 net.cpp:157] Top shape: 100 256 (25600)
I0204 16:28:13.830737  3327 net.cpp:165] Memory required for data: 151057600
I0204 16:28:13.830749  3327 layer_factory.hpp:77] Creating layer fc7
I0204 16:28:13.830767  3327 net.cpp:106] Creating Layer fc7
I0204 16:28:13.830778  3327 net.cpp:454] fc7 <- fc6
I0204 16:28:13.830795  3327 net.cpp:411] fc7 -> fc7
I0204 16:28:13.832391  3327 net.cpp:150] Setting up fc7
I0204 16:28:13.832437  3327 net.cpp:157] Top shape: 100 256 (25600)
I0204 16:28:13.832449  3327 net.cpp:165] Memory required for data: 151160000
I0204 16:28:13.832471  3327 layer_factory.hpp:77] Creating layer relu7
I0204 16:28:13.832494  3327 net.cpp:106] Creating Layer relu7
I0204 16:28:13.832505  3327 net.cpp:454] relu7 <- fc7
I0204 16:28:13.832522  3327 net.cpp:397] relu7 -> fc7 (in-place)
I0204 16:28:13.832543  3327 net.cpp:150] Setting up relu7
I0204 16:28:13.832557  3327 net.cpp:157] Top shape: 100 256 (25600)
I0204 16:28:13.832567  3327 net.cpp:165] Memory required for data: 151262400
I0204 16:28:13.832578  3327 layer_factory.hpp:77] Creating layer drop7
I0204 16:28:13.832594  3327 net.cpp:106] Creating Layer drop7
I0204 16:28:13.832607  3327 net.cpp:454] drop7 <- fc7
I0204 16:28:13.832639  3327 net.cpp:397] drop7 -> fc7 (in-place)
I0204 16:28:13.832662  3327 net.cpp:150] Setting up drop7
I0204 16:28:13.832675  3327 net.cpp:157] Top shape: 100 256 (25600)
I0204 16:28:13.832685  3327 net.cpp:165] Memory required for data: 151364800
I0204 16:28:13.832695  3327 layer_factory.hpp:77] Creating layer fc8
I0204 16:28:13.832715  3327 net.cpp:106] Creating Layer fc8
I0204 16:28:13.832727  3327 net.cpp:454] fc8 <- fc7
I0204 16:28:13.832746  3327 net.cpp:411] fc8 -> fc8
I0204 16:28:13.832804  3327 net.cpp:150] Setting up fc8
I0204 16:28:13.832820  3327 net.cpp:157] Top shape: 100 2 (200)
I0204 16:28:13.832829  3327 net.cpp:165] Memory required for data: 151365600
I0204 16:28:13.832846  3327 layer_factory.hpp:77] Creating layer fc8_fc8_0_split
I0204 16:28:13.832862  3327 net.cpp:106] Creating Layer fc8_fc8_0_split
I0204 16:28:13.832873  3327 net.cpp:454] fc8_fc8_0_split <- fc8
I0204 16:28:13.832892  3327 net.cpp:411] fc8_fc8_0_split -> fc8_fc8_0_split_0
I0204 16:28:13.832913  3327 net.cpp:411] fc8_fc8_0_split -> fc8_fc8_0_split_1
I0204 16:28:13.832931  3327 net.cpp:150] Setting up fc8_fc8_0_split
I0204 16:28:13.832944  3327 net.cpp:157] Top shape: 100 2 (200)
I0204 16:28:13.832957  3327 net.cpp:157] Top shape: 100 2 (200)
I0204 16:28:13.832967  3327 net.cpp:165] Memory required for data: 151367200
I0204 16:28:13.832976  3327 layer_factory.hpp:77] Creating layer accuracy
I0204 16:28:13.833034  3327 net.cpp:106] Creating Layer accuracy
I0204 16:28:13.833046  3327 net.cpp:454] accuracy <- fc8_fc8_0_split_0
I0204 16:28:13.833060  3327 net.cpp:454] accuracy <- label_data_1_split_0
I0204 16:28:13.833075  3327 net.cpp:411] accuracy -> accuracy
…
