…
I0204 20:55:44.269412  8452 net.cpp:322] The NetState phase (0) differed from the phase (1) specified by a rule in layer accuracy
I0204 20:55:44.269664  8452 net.cpp:49] Initializing net from parameters: 
name: "CaffeNet"
state {
  phase: TRAIN
}
layer {
  name: "data"
  type: "Data"
  top: "data"
  top: "label"
  include {
    phase: TRAIN
  }
  transform_param {
    mirror: true
    crop_size: 227
    mean_file: "/home/pearlstl/proj_cv/master/lmdb/synth1_train_lum_db/mean_file.binaryproto"
  }
  data_param {
    source: "/home/pearlstl/proj_cv/master/lmdb/synth1_train_lum_db"
    batch_size: 100
    backend: LMDB
  }
}
layer {
  name: "conv1"
  type: "Convolution"
  bottom: "data"
  top: "conv1"
  param {
    lr_mult: 1
    decay_mult: 1
  }
  param {
    lr_mult: 2
    decay_mult: 0
  }
  convolution_param {
    num_output: 32
    kernel_size: 11
    stride: 4
    weight_filler {
      type: "xavier"
    }
    bias_filler {
      type: "constant"
      value: 0
    }
  }
}
layer {
  name: "relu1"
  type: "ReLU"
  bottom: "conv1"
  top: "conv1"
}
layer {
  name: "pool1"
  type: "Pooling"
  bottom: "conv1"
  top: "pool1"
  pooling_param {
    pool: MAX
    kernel_size: 3
    stride: 2
  }
}
layer {
  name: "norm1"
  type: "LRN"
  bottom: "pool1"
  top: "norm1"
  lrn_param {
    local_size: 5
    alpha: 0.0001
    beta: 0.75
  }
}
layer {
  name: "conv2"
  type: "Convolution"
  bottom: "norm1"
  top: "conv2"
  param {
    lr_mult: 1
    decay_mult: 1
  }
  param {
    lr_mult: 2
    decay_mult: 0
  }
  convolution_param {
    num_output: 32
    pad: 2
    kernel_size: 5
    group: 2
    weight_filler {
      type: "xavier"
    }
    bias_filler {
      type: "constant"
      value: 1
    }
  }
}
layer {
  name: "relu2"
  type: "ReLU"
  bottom: "conv2"
  top: "conv2"
}
layer {
  name: "pool2"
  type: "Pooling"
  bottom: "conv2"
  top: "pool2"
  pooling_param {
    pool: MAX
    kernel_size: 3
    stride: 2
  }
}
layer {
  name: "norm2"
  type: "LRN"
  bottom: "pool2"
  top: "norm2"
  lrn_param {
    local_size: 5
    alpha: 0.0001
    beta: 0.75
  }
}
layer {
  name: "conv3"
  type: "Convolution"
  bottom: "norm2"
  top: "conv3"
  param {
    lr_mult: 1
    decay_mult: 1
  }
  param {
    lr_mult: 2
    decay_mult: 0
  }
  convolution_param {
    num_output: 32
    pad: 1
    kernel_size: 3
    weight_filler {
      type: "xavier"
    }
    bias_filler {
      type: "constant"
      value: 0
    }
  }
}
layer {
  name: "relu3"
  type: "ReLU"
  bottom: "conv3"
  top: "conv3"
}
layer {
  name: "conv4"
  type: "Convolution"
  bottom: "conv3"
  top: "conv4"
  param {
    lr_mult: 1
    decay_mult: 1
  }
  param {
    lr_mult: 2
    decay_mult: 0
  }
  convolution_param {
    num_output: 32
    pad: 1
    kernel_size: 3
    group: 2
    weight_filler {
      type: "xavier"
    }
    bias_filler {
      type: "constant"
      value: 1
    }
  }
}
layer {
  name: "relu4"
  type: "ReLU"
  bottom: "conv4"
  top: "conv4"
}
layer {
  name: "conv5"
  type: "Convolution"
  bottom: "conv4"
  top: "conv5"
  param {
    lr_mult: 1
    decay_mult: 1
  }
  param {
    lr_mult: 2
    decay_mult: 0
  }
  convolution_param {
    num_output: 16
    pad: 1
    kernel_size: 3
    group: 2
    weight_filler {
      type: "xavier"
    }
    bias_filler {
      type: "constant"
      value: 1
    }
  }
}
layer {
  name: "relu5"
  type: "ReLU"
  bottom: "conv5"
  top: "conv5"
}
layer {
  name: "pool5"
  type: "Pooling"
  bottom: "conv5"
  top: "pool5"
  pooling_param {
    pool: MAX
    kernel_size: 3
    stride: 2
  }
}
layer {
  name: "fc6"
  type: "InnerProduct"
  bottom: "pool5"
  top: "fc6"
  param {
    lr_mult: 1
    decay_mult: 1
  }
  param {
    lr_mult: 2
    decay_mult: 0
  }
  inner_product_param {
    num_output: 256
    weight_filler {
      type: "xavier"
    }
    bias_filler {
      type: "constant"
      value: 1
    }
  }
}
layer {
  name: "relu6"
  type: "ReLU"
  bottom: "fc6"
  top: "fc6"
}
layer {
  name: "drop6"
  type: "Dropout"
  bottom: "fc6"
  top: "fc6"
  dropout_param {
    dropout_ratio: 0.5
  }
}
layer {
  name: "fc7"
  type: "InnerProduct"
  bottom: "fc6"
  top: "fc7"
  param {
    lr_mult: 1
    decay_mult: 1
  }
  param {
    lr_mult: 2
    decay_mult: 0
  }
  inner_product_param {
    num_output: 256
    weight_filler {
      type: "xavier"
    }
    bias_filler {
      type: "constant"
      value: 1
    }
  }
}
layer {
  name: "relu7"
  type: "ReLU"
  bottom: "fc7"
  top: "fc7"
}
layer {
  name: "drop7"
  type: "Dropout"
  bottom: "fc7"
  top: "fc7"
  dropout_param {
    dropout_ratio: 0.5
  }
}
layer {
  name: "fc8"
  type: "InnerProduct"
  bottom: "fc7"
  top: "fc8"
  param {
    lr_mult: 1
    decay_mult: 1
  }
  param {
    lr_mult: 2
    decay_mult: 0
  }
  inner_product_param {
    num_output: 2
    weight_filler {
      type: "xavier"
    }
    bias_filler {
      type: "constant"
      value: 0
    }
  }
}
layer {
  name: "loss"
  type: "SoftmaxWithLoss"
  bottom: "fc8"
  bottom: "label"
  top: "loss"
}
I0204 20:55:44.269804  8452 layer_factory.hpp:77] Creating layer data
I0204 20:55:44.269996  8452 net.cpp:106] Creating Layer data
I0204 20:55:44.270015  8452 net.cpp:411] data -> data
I0204 20:55:44.270094  8452 net.cpp:411] data -> label
I0204 20:55:44.270119  8452 data_transformer.cpp:25] Loading mean file from: /home/pearlstl/proj_cv/master/lmdb/synth1_train_lum_db/mean_file.binaryproto
I0204 20:55:44.270273  8453 db_lmdb.cpp:38] Opened lmdb /home/pearlstl/proj_cv/master/lmdb/synth1_train_lum_db
I0204 20:55:44.271214  8452 data_layer.cpp:41] output data size: 100,1,227,227
I0204 20:55:44.304268  8452 net.cpp:150] Setting up data
I0204 20:55:44.304299  8452 net.cpp:157] Top shape: 100 1 227 227 (5152900)
I0204 20:55:44.304307  8452 net.cpp:157] Top shape: 100 (100)
I0204 20:55:44.304314  8452 net.cpp:165] Memory required for data: 20612000
I0204 20:55:44.304332  8452 layer_factory.hpp:77] Creating layer conv1
I0204 20:55:44.304376  8452 net.cpp:106] Creating Layer conv1
I0204 20:55:44.304388  8452 net.cpp:454] conv1 <- data
I0204 20:55:44.304407  8452 net.cpp:411] conv1 -> conv1
I0204 20:55:44.304535  8452 net.cpp:150] Setting up conv1
I0204 20:55:44.304548  8452 net.cpp:157] Top shape: 100 32 55 55 (9680000)
I0204 20:55:44.304553  8452 net.cpp:165] Memory required for data: 59332000
I0204 20:55:44.304570  8452 layer_factory.hpp:77] Creating layer relu1
I0204 20:55:44.304582  8452 net.cpp:106] Creating Layer relu1
I0204 20:55:44.304589  8452 net.cpp:454] relu1 <- conv1
I0204 20:55:44.304597  8452 net.cpp:397] relu1 -> conv1 (in-place)
I0204 20:55:44.304610  8452 net.cpp:150] Setting up relu1
I0204 20:55:44.304618  8452 net.cpp:157] Top shape: 100 32 55 55 (9680000)
I0204 20:55:44.304623  8452 net.cpp:165] Memory required for data: 98052000
I0204 20:55:44.304628  8452 layer_factory.hpp:77] Creating layer pool1
I0204 20:55:44.304641  8452 net.cpp:106] Creating Layer pool1
I0204 20:55:44.304646  8452 net.cpp:454] pool1 <- conv1
I0204 20:55:44.304656  8452 net.cpp:411] pool1 -> pool1
I0204 20:55:44.304680  8452 net.cpp:150] Setting up pool1
I0204 20:55:44.304689  8452 net.cpp:157] Top shape: 100 32 27 27 (2332800)
I0204 20:55:44.304694  8452 net.cpp:165] Memory required for data: 107383200
I0204 20:55:44.304700  8452 layer_factory.hpp:77] Creating layer norm1
I0204 20:55:44.304734  8452 net.cpp:106] Creating Layer norm1
I0204 20:55:44.304740  8452 net.cpp:454] norm1 <- pool1
I0204 20:55:44.304749  8452 net.cpp:411] norm1 -> norm1
I0204 20:55:44.304769  8452 net.cpp:150] Setting up norm1
I0204 20:55:44.304779  8452 net.cpp:157] Top shape: 100 32 27 27 (2332800)
I0204 20:55:44.304783  8452 net.cpp:165] Memory required for data: 116714400
I0204 20:55:44.304788  8452 layer_factory.hpp:77] Creating layer conv2
I0204 20:55:44.304800  8452 net.cpp:106] Creating Layer conv2
I0204 20:55:44.304805  8452 net.cpp:454] conv2 <- norm1
I0204 20:55:44.304814  8452 net.cpp:411] conv2 -> conv2
I0204 20:55:44.304946  8452 net.cpp:150] Setting up conv2
I0204 20:55:44.304955  8452 net.cpp:157] Top shape: 100 32 27 27 (2332800)
I0204 20:55:44.304960  8452 net.cpp:165] Memory required for data: 126045600
I0204 20:55:44.304978  8452 layer_factory.hpp:77] Creating layer relu2
I0204 20:55:44.304987  8452 net.cpp:106] Creating Layer relu2
I0204 20:55:44.304993  8452 net.cpp:454] relu2 <- conv2
I0204 20:55:44.305011  8452 net.cpp:397] relu2 -> conv2 (in-place)
I0204 20:55:44.305022  8452 net.cpp:150] Setting up relu2
I0204 20:55:44.305029  8452 net.cpp:157] Top shape: 100 32 27 27 (2332800)
I0204 20:55:44.305034  8452 net.cpp:165] Memory required for data: 135376800
I0204 20:55:44.305040  8452 layer_factory.hpp:77] Creating layer pool2
I0204 20:55:44.305052  8452 net.cpp:106] Creating Layer pool2
I0204 20:55:44.305058  8452 net.cpp:454] pool2 <- conv2
I0204 20:55:44.305065  8452 net.cpp:411] pool2 -> pool2
I0204 20:55:44.305076  8452 net.cpp:150] Setting up pool2
I0204 20:55:44.305084  8452 net.cpp:157] Top shape: 100 32 13 13 (540800)
I0204 20:55:44.305089  8452 net.cpp:165] Memory required for data: 137540000
I0204 20:55:44.305094  8452 layer_factory.hpp:77] Creating layer norm2
I0204 20:55:44.305104  8452 net.cpp:106] Creating Layer norm2
I0204 20:55:44.305110  8452 net.cpp:454] norm2 <- pool2
I0204 20:55:44.305120  8452 net.cpp:411] norm2 -> norm2
I0204 20:55:44.305130  8452 net.cpp:150] Setting up norm2
I0204 20:55:44.305137  8452 net.cpp:157] Top shape: 100 32 13 13 (540800)
I0204 20:55:44.305142  8452 net.cpp:165] Memory required for data: 139703200
I0204 20:55:44.305148  8452 layer_factory.hpp:77] Creating layer conv3
I0204 20:55:44.305160  8452 net.cpp:106] Creating Layer conv3
I0204 20:55:44.305165  8452 net.cpp:454] conv3 <- norm2
I0204 20:55:44.305174  8452 net.cpp:411] conv3 -> conv3
I0204 20:55:44.305285  8452 net.cpp:150] Setting up conv3
I0204 20:55:44.305295  8452 net.cpp:157] Top shape: 100 32 13 13 (540800)
I0204 20:55:44.305300  8452 net.cpp:165] Memory required for data: 141866400
I0204 20:55:44.305313  8452 layer_factory.hpp:77] Creating layer relu3
I0204 20:55:44.305322  8452 net.cpp:106] Creating Layer relu3
I0204 20:55:44.305327  8452 net.cpp:454] relu3 <- conv3
I0204 20:55:44.305338  8452 net.cpp:397] relu3 -> conv3 (in-place)
I0204 20:55:44.305347  8452 net.cpp:150] Setting up relu3
I0204 20:55:44.305354  8452 net.cpp:157] Top shape: 100 32 13 13 (540800)
I0204 20:55:44.305359  8452 net.cpp:165] Memory required for data: 144029600
I0204 20:55:44.305364  8452 layer_factory.hpp:77] Creating layer conv4
I0204 20:55:44.305374  8452 net.cpp:106] Creating Layer conv4
I0204 20:55:44.305380  8452 net.cpp:454] conv4 <- conv3
I0204 20:55:44.305390  8452 net.cpp:411] conv4 -> conv4
I0204 20:55:44.305475  8452 net.cpp:150] Setting up conv4
I0204 20:55:44.305485  8452 net.cpp:157] Top shape: 100 32 13 13 (540800)
I0204 20:55:44.305490  8452 net.cpp:165] Memory required for data: 146192800
I0204 20:55:44.305497  8452 layer_factory.hpp:77] Creating layer relu4
I0204 20:55:44.305505  8452 net.cpp:106] Creating Layer relu4
I0204 20:55:44.305511  8452 net.cpp:454] relu4 <- conv4
I0204 20:55:44.305518  8452 net.cpp:397] relu4 -> conv4 (in-place)
I0204 20:55:44.305527  8452 net.cpp:150] Setting up relu4
I0204 20:55:44.305533  8452 net.cpp:157] Top shape: 100 32 13 13 (540800)
I0204 20:55:44.305538  8452 net.cpp:165] Memory required for data: 148356000
I0204 20:55:44.305548  8452 layer_factory.hpp:77] Creating layer conv5
I0204 20:55:44.305567  8452 net.cpp:106] Creating Layer conv5
I0204 20:55:44.305573  8452 net.cpp:454] conv5 <- conv4
I0204 20:55:44.305583  8452 net.cpp:411] conv5 -> conv5
I0204 20:55:44.305630  8452 net.cpp:150] Setting up conv5
I0204 20:55:44.305639  8452 net.cpp:157] Top shape: 100 16 13 13 (270400)
I0204 20:55:44.305644  8452 net.cpp:165] Memory required for data: 149437600
I0204 20:55:44.305655  8452 layer_factory.hpp:77] Creating layer relu5
I0204 20:55:44.305665  8452 net.cpp:106] Creating Layer relu5
I0204 20:55:44.305670  8452 net.cpp:454] relu5 <- conv5
I0204 20:55:44.305678  8452 net.cpp:397] relu5 -> conv5 (in-place)
I0204 20:55:44.305686  8452 net.cpp:150] Setting up relu5
I0204 20:55:44.305693  8452 net.cpp:157] Top shape: 100 16 13 13 (270400)
I0204 20:55:44.305698  8452 net.cpp:165] Memory required for data: 150519200
I0204 20:55:44.305703  8452 layer_factory.hpp:77] Creating layer pool5
I0204 20:55:44.305711  8452 net.cpp:106] Creating Layer pool5
I0204 20:55:44.305719  8452 net.cpp:454] pool5 <- conv5
I0204 20:55:44.305730  8452 net.cpp:411] pool5 -> pool5
I0204 20:55:44.305742  8452 net.cpp:150] Setting up pool5
I0204 20:55:44.305748  8452 net.cpp:157] Top shape: 100 16 6 6 (57600)
I0204 20:55:44.305753  8452 net.cpp:165] Memory required for data: 150749600
I0204 20:55:44.305758  8452 layer_factory.hpp:77] Creating layer fc6
I0204 20:55:44.305778  8452 net.cpp:106] Creating Layer fc6
I0204 20:55:44.305784  8452 net.cpp:454] fc6 <- pool5
I0204 20:55:44.305793  8452 net.cpp:411] fc6 -> fc6
I0204 20:55:44.307417  8452 net.cpp:150] Setting up fc6
I0204 20:55:44.307430  8452 net.cpp:157] Top shape: 100 256 (25600)
I0204 20:55:44.307435  8452 net.cpp:165] Memory required for data: 150852000
I0204 20:55:44.307443  8452 layer_factory.hpp:77] Creating layer relu6
I0204 20:55:44.307456  8452 net.cpp:106] Creating Layer relu6
I0204 20:55:44.307461  8452 net.cpp:454] relu6 <- fc6
I0204 20:55:44.307468  8452 net.cpp:397] relu6 -> fc6 (in-place)
I0204 20:55:44.307478  8452 net.cpp:150] Setting up relu6
I0204 20:55:44.307485  8452 net.cpp:157] Top shape: 100 256 (25600)
I0204 20:55:44.307490  8452 net.cpp:165] Memory required for data: 150954400
I0204 20:55:44.307497  8452 layer_factory.hpp:77] Creating layer drop6
I0204 20:55:44.307507  8452 net.cpp:106] Creating Layer drop6
I0204 20:55:44.307513  8452 net.cpp:454] drop6 <- fc6
I0204 20:55:44.307520  8452 net.cpp:397] drop6 -> fc6 (in-place)
I0204 20:55:44.307539  8452 net.cpp:150] Setting up drop6
I0204 20:55:44.307546  8452 net.cpp:157] Top shape: 100 256 (25600)
I0204 20:55:44.307551  8452 net.cpp:165] Memory required for data: 151056800
I0204 20:55:44.307557  8452 layer_factory.hpp:77] Creating layer fc7
I0204 20:55:44.307566  8452 net.cpp:106] Creating Layer fc7
I0204 20:55:44.307571  8452 net.cpp:454] fc7 <- fc6
I0204 20:55:44.307582  8452 net.cpp:411] fc7 -> fc7
I0204 20:55:44.308277  8452 net.cpp:150] Setting up fc7
I0204 20:55:44.308290  8452 net.cpp:157] Top shape: 100 256 (25600)
I0204 20:55:44.308296  8452 net.cpp:165] Memory required for data: 151159200
I0204 20:55:44.308305  8452 layer_factory.hpp:77] Creating layer relu7
I0204 20:55:44.308313  8452 net.cpp:106] Creating Layer relu7
I0204 20:55:44.308320  8452 net.cpp:454] relu7 <- fc7
I0204 20:55:44.308329  8452 net.cpp:397] relu7 -> fc7 (in-place)
I0204 20:55:44.308338  8452 net.cpp:150] Setting up relu7
I0204 20:55:44.308346  8452 net.cpp:157] Top shape: 100 256 (25600)
I0204 20:55:44.308351  8452 net.cpp:165] Memory required for data: 151261600
I0204 20:55:44.308356  8452 layer_factory.hpp:77] Creating layer drop7
I0204 20:55:44.308363  8452 net.cpp:106] Creating Layer drop7
I0204 20:55:44.308369  8452 net.cpp:454] drop7 <- fc7
I0204 20:55:44.308378  8452 net.cpp:397] drop7 -> fc7 (in-place)
I0204 20:55:44.308389  8452 net.cpp:150] Setting up drop7
I0204 20:55:44.308395  8452 net.cpp:157] Top shape: 100 256 (25600)
I0204 20:55:44.308400  8452 net.cpp:165] Memory required for data: 151364000
I0204 20:55:44.308406  8452 layer_factory.hpp:77] Creating layer fc8
I0204 20:55:44.308420  8452 net.cpp:106] Creating Layer fc8
I0204 20:55:44.308434  8452 net.cpp:454] fc8 <- fc7
I0204 20:55:44.308445  8452 net.cpp:411] fc8 -> fc8
I0204 20:55:44.308470  8452 net.cpp:150] Setting up fc8
I0204 20:55:44.308476  8452 net.cpp:157] Top shape: 100 2 (200)
I0204 20:55:44.308481  8452 net.cpp:165] Memory required for data: 151364800
I0204 20:55:44.308490  8452 layer_factory.hpp:77] Creating layer loss
I0204 20:55:44.308501  8452 net.cpp:106] Creating Layer loss
I0204 20:55:44.308506  8452 net.cpp:454] loss <- fc8
I0204 20:55:44.308513  8452 net.cpp:454] loss <- label
I0204 20:55:44.308522  8452 net.cpp:411] loss -> loss
I0204 20:55:44.308537  8452 layer_factory.hpp:77] Creating layer loss
…
I0204 20:55:44.309602  8452 net.cpp:322] The NetState phase (1) differed from the phase (0) specified by a rule in layer data
I0204 20:55:44.309896  8452 net.cpp:49] Initializing net from parameters: 
name: "CaffeNet"
state {
  phase: TEST
}
layer {
  name: "data"
  type: "Data"
  top: "data"
  top: "label"
  include {
    phase: TEST
  }
  transform_param {
    mirror: false
    crop_size: 227
    mean_file: "/home/pearlstl/proj_cv/master/lmdb/synth1_test_lum_db/mean_file.binaryproto"
  }
  data_param {
    source: "/home/pearlstl/proj_cv/master/lmdb/synth1_test_lum_db"
    batch_size: 100
    backend: LMDB
  }
}
layer {
  name: "conv1"
  type: "Convolution"
  bottom: "data"
  top: "conv1"
  param {
    lr_mult: 1
    decay_mult: 1
  }
  param {
    lr_mult: 2
    decay_mult: 0
  }
  convolution_param {
    num_output: 32
    kernel_size: 11
    stride: 4
    weight_filler {
      type: "xavier"
    }
    bias_filler {
      type: "constant"
      value: 0
    }
  }
}
layer {
  name: "relu1"
  type: "ReLU"
  bottom: "conv1"
  top: "conv1"
}
layer {
  name: "pool1"
  type: "Pooling"
  bottom: "conv1"
  top: "pool1"
  pooling_param {
    pool: MAX
    kernel_size: 3
    stride: 2
  }
}
layer {
  name: "norm1"
  type: "LRN"
  bottom: "pool1"
  top: "norm1"
  lrn_param {
    local_size: 5
    alpha: 0.0001
    beta: 0.75
  }
}
layer {
  name: "conv2"
  type: "Convolution"
  bottom: "norm1"
  top: "conv2"
  param {
    lr_mult: 1
    decay_mult: 1
  }
  param {
    lr_mult: 2
    decay_mult: 0
  }
  convolution_param {
    num_output: 32
    pad: 2
    kernel_size: 5
    group: 2
    weight_filler {
      type: "xavier"
    }
    bias_filler {
      type: "constant"
      value: 1
    }
  }
}
layer {
  name: "relu2"
  type: "ReLU"
  bottom: "conv2"
  top: "conv2"
}
layer {
  name: "pool2"
  type: "Pooling"
  bottom: "conv2"
  top: "pool2"
  pooling_param {
    pool: MAX
    kernel_size: 3
    stride: 2
  }
}
layer {
  name: "norm2"
  type: "LRN"
  bottom: "pool2"
  top: "norm2"
  lrn_param {
    local_size: 5
    alpha: 0.0001
    beta: 0.75
  }
}
layer {
  name: "conv3"
  type: "Convolution"
  bottom: "norm2"
  top: "conv3"
  param {
    lr_mult: 1
    decay_mult: 1
  }
  param {
    lr_mult: 2
    decay_mult: 0
  }
  convolution_param {
    num_output: 32
    pad: 1
    kernel_size: 3
    weight_filler {
      type: "xavier"
    }
    bias_filler {
      type: "constant"
      value: 0
    }
  }
}
layer {
  name: "relu3"
  type: "ReLU"
  bottom: "conv3"
  top: "conv3"
}
layer {
  name: "conv4"
  type: "Convolution"
  bottom: "conv3"
  top: "conv4"
  param {
    lr_mult: 1
    decay_mult: 1
  }
  param {
    lr_mult: 2
    decay_mult: 0
  }
  convolution_param {
    num_output: 32
    pad: 1
    kernel_size: 3
    group: 2
    weight_filler {
      type: "xavier"
    }
    bias_filler {
      type: "constant"
      value: 1
    }
  }
}
layer {
  name: "relu4"
  type: "ReLU"
  bottom: "conv4"
  top: "conv4"
}
layer {
  name: "conv5"
  type: "Convolution"
  bottom: "conv4"
  top: "conv5"
  param {
    lr_mult: 1
    decay_mult: 1
  }
  param {
    lr_mult: 2
    decay_mult: 0
  }
  convolution_param {
    num_output: 16
    pad: 1
    kernel_size: 3
    group: 2
    weight_filler {
      type: "xavier"
    }
    bias_filler {
      type: "constant"
      value: 1
    }
  }
}
layer {
  name: "relu5"
  type: "ReLU"
  bottom: "conv5"
  top: "conv5"
}
layer {
  name: "pool5"
  type: "Pooling"
  bottom: "conv5"
  top: "pool5"
  pooling_param {
    pool: MAX
    kernel_size: 3
    stride: 2
  }
}
layer {
  name: "fc6"
  type: "InnerProduct"
  bottom: "pool5"
  top: "fc6"
  param {
    lr_mult: 1
    decay_mult: 1
  }
  param {
    lr_mult: 2
    decay_mult: 0
  }
  inner_product_param {
    num_output: 256
    weight_filler {
      type: "xavier"
    }
    bias_filler {
      type: "constant"
      value: 1
    }
  }
}
layer {
  name: "relu6"
  type: "ReLU"
  bottom: "fc6"
  top: "fc6"
}
layer {
  name: "drop6"
  type: "Dropout"
  bottom: "fc6"
  top: "fc6"
  dropout_param {
    dropout_ratio: 0.5
  }
}
layer {
  name: "fc7"
  type: "InnerProduct"
  bottom: "fc6"
  top: "fc7"
  param {
    lr_mult: 1
    decay_mult: 1
  }
  param {
    lr_mult: 2
    decay_mult: 0
  }
  inner_product_param {
    num_output: 256
    weight_filler {
      type: "xavier"
    }
    bias_filler {
      type: "constant"
      value: 1
    }
  }
}
layer {
  name: "relu7"
  type: "ReLU"
  bottom: "fc7"
  top: "fc7"
}
layer {
  name: "drop7"
  type: "Dropout"
  bottom: "fc7"
  top: "fc7"
  dropout_param {
    dropout_ratio: 0.5
  }
}
layer {
  name: "fc8"
  type: "InnerProduct"
  bottom: "fc7"
  top: "fc8"
  param {
    lr_mult: 1
    decay_mult: 1
  }
  param {
    lr_mult: 2
    decay_mult: 0
  }
  inner_product_param {
    num_output: 2
    weight_filler {
      type: "xavier"
    }
    bias_filler {
      type: "constant"
      value: 0
    }
  }
}
layer {
  name: "accuracy"
  type: "Accuracy"
  bottom: "fc8"
  bottom: "label"
  top: "accuracy"
  include {
    phase: TEST
  }
}
layer {
  name: "loss"
  type: "SoftmaxWithLoss"
  bottom: "fc8"
  bottom: "label"
  top: "loss"
}
I0204 20:55:44.310081  8452 layer_factory.hpp:77] Creating layer data
I0204 20:55:44.310243  8452 net.cpp:106] Creating Layer data
I0204 20:55:44.310272  8452 net.cpp:411] data -> data
I0204 20:55:44.310287  8452 net.cpp:411] data -> label
I0204 20:55:44.310300  8452 data_transformer.cpp:25] Loading mean file from: /home/pearlstl/proj_cv/master/lmdb/synth1_test_lum_db/mean_file.binaryproto
I0204 20:55:44.310467  8456 db_lmdb.cpp:38] Opened lmdb /home/pearlstl/proj_cv/master/lmdb/synth1_test_lum_db
I0204 20:55:44.311202  8452 data_layer.cpp:41] output data size: 100,1,227,227
I0204 20:55:44.344902  8452 net.cpp:150] Setting up data
I0204 20:55:44.344936  8452 net.cpp:157] Top shape: 100 1 227 227 (5152900)
I0204 20:55:44.344944  8452 net.cpp:157] Top shape: 100 (100)
I0204 20:55:44.344949  8452 net.cpp:165] Memory required for data: 20612000
I0204 20:55:44.344960  8452 layer_factory.hpp:77] Creating layer label_data_1_split
I0204 20:55:44.344995  8452 net.cpp:106] Creating Layer label_data_1_split
I0204 20:55:44.345001  8452 net.cpp:454] label_data_1_split <- label
I0204 20:55:44.345016  8452 net.cpp:411] label_data_1_split -> label_data_1_split_0
I0204 20:55:44.345032  8452 net.cpp:411] label_data_1_split -> label_data_1_split_1
I0204 20:55:44.345046  8452 net.cpp:150] Setting up label_data_1_split
I0204 20:55:44.345053  8452 net.cpp:157] Top shape: 100 (100)
I0204 20:55:44.345059  8452 net.cpp:157] Top shape: 100 (100)
I0204 20:55:44.345065  8452 net.cpp:165] Memory required for data: 20612800
I0204 20:55:44.345073  8452 layer_factory.hpp:77] Creating layer conv1
I0204 20:55:44.345088  8452 net.cpp:106] Creating Layer conv1
I0204 20:55:44.345095  8452 net.cpp:454] conv1 <- data
I0204 20:55:44.345105  8452 net.cpp:411] conv1 -> conv1
I0204 20:55:44.345180  8452 net.cpp:150] Setting up conv1
I0204 20:55:44.345191  8452 net.cpp:157] Top shape: 100 32 55 55 (9680000)
I0204 20:55:44.345196  8452 net.cpp:165] Memory required for data: 59332800
I0204 20:55:44.345211  8452 layer_factory.hpp:77] Creating layer relu1
I0204 20:55:44.345221  8452 net.cpp:106] Creating Layer relu1
I0204 20:55:44.345228  8452 net.cpp:454] relu1 <- conv1
I0204 20:55:44.345237  8452 net.cpp:397] relu1 -> conv1 (in-place)
I0204 20:55:44.345247  8452 net.cpp:150] Setting up relu1
I0204 20:55:44.345254  8452 net.cpp:157] Top shape: 100 32 55 55 (9680000)
I0204 20:55:44.345259  8452 net.cpp:165] Memory required for data: 98052800
I0204 20:55:44.345264  8452 layer_factory.hpp:77] Creating layer pool1
I0204 20:55:44.345275  8452 net.cpp:106] Creating Layer pool1
I0204 20:55:44.345280  8452 net.cpp:454] pool1 <- conv1
I0204 20:55:44.345289  8452 net.cpp:411] pool1 -> pool1
I0204 20:55:44.345304  8452 net.cpp:150] Setting up pool1
I0204 20:55:44.345310  8452 net.cpp:157] Top shape: 100 32 27 27 (2332800)
I0204 20:55:44.345315  8452 net.cpp:165] Memory required for data: 107384000
I0204 20:55:44.345321  8452 layer_factory.hpp:77] Creating layer norm1
I0204 20:55:44.345334  8452 net.cpp:106] Creating Layer norm1
I0204 20:55:44.345340  8452 net.cpp:454] norm1 <- pool1
I0204 20:55:44.345348  8452 net.cpp:411] norm1 -> norm1
I0204 20:55:44.345360  8452 net.cpp:150] Setting up norm1
I0204 20:55:44.345369  8452 net.cpp:157] Top shape: 100 32 27 27 (2332800)
I0204 20:55:44.345376  8452 net.cpp:165] Memory required for data: 116715200
I0204 20:55:44.345381  8452 layer_factory.hpp:77] Creating layer conv2
I0204 20:55:44.345391  8452 net.cpp:106] Creating Layer conv2
I0204 20:55:44.345397  8452 net.cpp:454] conv2 <- norm1
I0204 20:55:44.345407  8452 net.cpp:411] conv2 -> conv2
I0204 20:55:44.345540  8452 net.cpp:150] Setting up conv2
I0204 20:55:44.345548  8452 net.cpp:157] Top shape: 100 32 27 27 (2332800)
I0204 20:55:44.345553  8452 net.cpp:165] Memory required for data: 126046400
I0204 20:55:44.345566  8452 layer_factory.hpp:77] Creating layer relu2
I0204 20:55:44.345574  8452 net.cpp:106] Creating Layer relu2
I0204 20:55:44.345580  8452 net.cpp:454] relu2 <- conv2
I0204 20:55:44.345598  8452 net.cpp:397] relu2 -> conv2 (in-place)
I0204 20:55:44.345620  8452 net.cpp:150] Setting up relu2
I0204 20:55:44.345629  8452 net.cpp:157] Top shape: 100 32 27 27 (2332800)
I0204 20:55:44.345634  8452 net.cpp:165] Memory required for data: 135377600
I0204 20:55:44.345639  8452 layer_factory.hpp:77] Creating layer pool2
I0204 20:55:44.345651  8452 net.cpp:106] Creating Layer pool2
I0204 20:55:44.345657  8452 net.cpp:454] pool2 <- conv2
I0204 20:55:44.345665  8452 net.cpp:411] pool2 -> pool2
I0204 20:55:44.345679  8452 net.cpp:150] Setting up pool2
I0204 20:55:44.345686  8452 net.cpp:157] Top shape: 100 32 13 13 (540800)
I0204 20:55:44.345691  8452 net.cpp:165] Memory required for data: 137540800
I0204 20:55:44.345696  8452 layer_factory.hpp:77] Creating layer norm2
I0204 20:55:44.345705  8452 net.cpp:106] Creating Layer norm2
I0204 20:55:44.345711  8452 net.cpp:454] norm2 <- pool2
I0204 20:55:44.345718  8452 net.cpp:411] norm2 -> norm2
I0204 20:55:44.345728  8452 net.cpp:150] Setting up norm2
I0204 20:55:44.345734  8452 net.cpp:157] Top shape: 100 32 13 13 (540800)
I0204 20:55:44.345739  8452 net.cpp:165] Memory required for data: 139704000
I0204 20:55:44.345746  8452 layer_factory.hpp:77] Creating layer conv3
I0204 20:55:44.345757  8452 net.cpp:106] Creating Layer conv3
I0204 20:55:44.345762  8452 net.cpp:454] conv3 <- norm2
I0204 20:55:44.345773  8452 net.cpp:411] conv3 -> conv3
I0204 20:55:44.345873  8452 net.cpp:150] Setting up conv3
I0204 20:55:44.345882  8452 net.cpp:157] Top shape: 100 32 13 13 (540800)
I0204 20:55:44.345887  8452 net.cpp:165] Memory required for data: 141867200
I0204 20:55:44.345897  8452 layer_factory.hpp:77] Creating layer relu3
I0204 20:55:44.345906  8452 net.cpp:106] Creating Layer relu3
I0204 20:55:44.345911  8452 net.cpp:454] relu3 <- conv3
I0204 20:55:44.345919  8452 net.cpp:397] relu3 -> conv3 (in-place)
I0204 20:55:44.345931  8452 net.cpp:150] Setting up relu3
I0204 20:55:44.345940  8452 net.cpp:157] Top shape: 100 32 13 13 (540800)
I0204 20:55:44.345945  8452 net.cpp:165] Memory required for data: 144030400
I0204 20:55:44.345950  8452 layer_factory.hpp:77] Creating layer conv4
I0204 20:55:44.345963  8452 net.cpp:106] Creating Layer conv4
I0204 20:55:44.345974  8452 net.cpp:454] conv4 <- conv3
I0204 20:55:44.345983  8452 net.cpp:411] conv4 -> conv4
I0204 20:55:44.346045  8452 net.cpp:150] Setting up conv4
I0204 20:55:44.346052  8452 net.cpp:157] Top shape: 100 32 13 13 (540800)
I0204 20:55:44.346065  8452 net.cpp:165] Memory required for data: 146193600
I0204 20:55:44.346072  8452 layer_factory.hpp:77] Creating layer relu4
I0204 20:55:44.346081  8452 net.cpp:106] Creating Layer relu4
I0204 20:55:44.346086  8452 net.cpp:454] relu4 <- conv4
I0204 20:55:44.346094  8452 net.cpp:397] relu4 -> conv4 (in-place)
I0204 20:55:44.346107  8452 net.cpp:150] Setting up relu4
I0204 20:55:44.346113  8452 net.cpp:157] Top shape: 100 32 13 13 (540800)
I0204 20:55:44.346118  8452 net.cpp:165] Memory required for data: 148356800
I0204 20:55:44.346124  8452 layer_factory.hpp:77] Creating layer conv5
I0204 20:55:44.346135  8452 net.cpp:106] Creating Layer conv5
I0204 20:55:44.346143  8452 net.cpp:454] conv5 <- conv4
I0204 20:55:44.346153  8452 net.cpp:411] conv5 -> conv5
I0204 20:55:44.346192  8452 net.cpp:150] Setting up conv5
I0204 20:55:44.346200  8452 net.cpp:157] Top shape: 100 16 13 13 (270400)
I0204 20:55:44.346205  8452 net.cpp:165] Memory required for data: 149438400
I0204 20:55:44.346216  8452 layer_factory.hpp:77] Creating layer relu5
I0204 20:55:44.346225  8452 net.cpp:106] Creating Layer relu5
I0204 20:55:44.346231  8452 net.cpp:454] relu5 <- conv5
I0204 20:55:44.346238  8452 net.cpp:397] relu5 -> conv5 (in-place)
I0204 20:55:44.346247  8452 net.cpp:150] Setting up relu5
I0204 20:55:44.346253  8452 net.cpp:157] Top shape: 100 16 13 13 (270400)
I0204 20:55:44.346259  8452 net.cpp:165] Memory required for data: 150520000
I0204 20:55:44.346267  8452 layer_factory.hpp:77] Creating layer pool5
I0204 20:55:44.346278  8452 net.cpp:106] Creating Layer pool5
I0204 20:55:44.346288  8452 net.cpp:454] pool5 <- conv5
I0204 20:55:44.346307  8452 net.cpp:411] pool5 -> pool5
I0204 20:55:44.346321  8452 net.cpp:150] Setting up pool5
I0204 20:55:44.346328  8452 net.cpp:157] Top shape: 100 16 6 6 (57600)
I0204 20:55:44.346333  8452 net.cpp:165] Memory required for data: 150750400
I0204 20:55:44.346339  8452 layer_factory.hpp:77] Creating layer fc6
I0204 20:55:44.346351  8452 net.cpp:106] Creating Layer fc6
I0204 20:55:44.346356  8452 net.cpp:454] fc6 <- pool5
I0204 20:55:44.346366  8452 net.cpp:411] fc6 -> fc6
I0204 20:55:44.348028  8452 net.cpp:150] Setting up fc6
I0204 20:55:44.348042  8452 net.cpp:157] Top shape: 100 256 (25600)
I0204 20:55:44.348050  8452 net.cpp:165] Memory required for data: 150852800
I0204 20:55:44.348059  8452 layer_factory.hpp:77] Creating layer relu6
I0204 20:55:44.348068  8452 net.cpp:106] Creating Layer relu6
I0204 20:55:44.348074  8452 net.cpp:454] relu6 <- fc6
I0204 20:55:44.348083  8452 net.cpp:397] relu6 -> fc6 (in-place)
I0204 20:55:44.348093  8452 net.cpp:150] Setting up relu6
I0204 20:55:44.348098  8452 net.cpp:157] Top shape: 100 256 (25600)
I0204 20:55:44.348104  8452 net.cpp:165] Memory required for data: 150955200
I0204 20:55:44.348109  8452 layer_factory.hpp:77] Creating layer drop6
I0204 20:55:44.348119  8452 net.cpp:106] Creating Layer drop6
I0204 20:55:44.348125  8452 net.cpp:454] drop6 <- fc6
I0204 20:55:44.348134  8452 net.cpp:397] drop6 -> fc6 (in-place)
I0204 20:55:44.348145  8452 net.cpp:150] Setting up drop6
I0204 20:55:44.348155  8452 net.cpp:157] Top shape: 100 256 (25600)
I0204 20:55:44.348160  8452 net.cpp:165] Memory required for data: 151057600
I0204 20:55:44.348165  8452 layer_factory.hpp:77] Creating layer fc7
I0204 20:55:44.348176  8452 net.cpp:106] Creating Layer fc7
I0204 20:55:44.348181  8452 net.cpp:454] fc7 <- fc6
I0204 20:55:44.348189  8452 net.cpp:411] fc7 -> fc7
I0204 20:55:44.348881  8452 net.cpp:150] Setting up fc7
I0204 20:55:44.348891  8452 net.cpp:157] Top shape: 100 256 (25600)
I0204 20:55:44.348896  8452 net.cpp:165] Memory required for data: 151160000
I0204 20:55:44.348906  8452 layer_factory.hpp:77] Creating layer relu7
I0204 20:55:44.348914  8452 net.cpp:106] Creating Layer relu7
I0204 20:55:44.348920  8452 net.cpp:454] relu7 <- fc7
I0204 20:55:44.348930  8452 net.cpp:397] relu7 -> fc7 (in-place)
I0204 20:55:44.348939  8452 net.cpp:150] Setting up relu7
I0204 20:55:44.348947  8452 net.cpp:157] Top shape: 100 256 (25600)
I0204 20:55:44.348951  8452 net.cpp:165] Memory required for data: 151262400
I0204 20:55:44.348956  8452 layer_factory.hpp:77] Creating layer drop7
I0204 20:55:44.348970  8452 net.cpp:106] Creating Layer drop7
I0204 20:55:44.348979  8452 net.cpp:454] drop7 <- fc7
I0204 20:55:44.348990  8452 net.cpp:397] drop7 -> fc7 (in-place)
I0204 20:55:44.349000  8452 net.cpp:150] Setting up drop7
I0204 20:55:44.349007  8452 net.cpp:157] Top shape: 100 256 (25600)
I0204 20:55:44.349012  8452 net.cpp:165] Memory required for data: 151364800
I0204 20:55:44.349019  8452 layer_factory.hpp:77] Creating layer fc8
I0204 20:55:44.349028  8452 net.cpp:106] Creating Layer fc8
I0204 20:55:44.349035  8452 net.cpp:454] fc8 <- fc7
I0204 20:55:44.349041  8452 net.cpp:411] fc8 -> fc8
I0204 20:55:44.349077  8452 net.cpp:150] Setting up fc8
I0204 20:55:44.349087  8452 net.cpp:157] Top shape: 100 2 (200)
I0204 20:55:44.349093  8452 net.cpp:165] Memory required for data: 151365600
I0204 20:55:44.349102  8452 layer_factory.hpp:77] Creating layer fc8_fc8_0_split
I0204 20:55:44.349133  8452 net.cpp:106] Creating Layer fc8_fc8_0_split
I0204 20:55:44.349140  8452 net.cpp:454] fc8_fc8_0_split <- fc8
I0204 20:55:44.349148  8452 net.cpp:411] fc8_fc8_0_split -> fc8_fc8_0_split_0
I0204 20:55:44.349164  8452 net.cpp:411] fc8_fc8_0_split -> fc8_fc8_0_split_1
I0204 20:55:44.349174  8452 net.cpp:150] Setting up fc8_fc8_0_split
I0204 20:55:44.349180  8452 net.cpp:157] Top shape: 100 2 (200)
I0204 20:55:44.349186  8452 net.cpp:157] Top shape: 100 2 (200)
I0204 20:55:44.349190  8452 net.cpp:165] Memory required for data: 151367200
I0204 20:55:44.349196  8452 layer_factory.hpp:77] Creating layer accuracy
I0204 20:55:44.349220  8452 net.cpp:106] Creating Layer accuracy
I0204 20:55:44.349234  8452 net.cpp:454] accuracy <- fc8_fc8_0_split_0
I0204 20:55:44.349241  8452 net.cpp:454] accuracy <- label_data_1_split_0
I0204 20:55:44.349249  8452 net.cpp:411] accuracy -> accuracy
…
