…
I0204 22:32:44.435037 10207 net.cpp:322] The NetState phase (0) differed from the phase (1) specified by a rule in layer accuracy
I0204 22:32:44.435315 10207 net.cpp:49] Initializing net from parameters: 
name: "CaffeNet"
state {
  phase: TRAIN
}
layer {
  name: "data"
  type: "Data"
  top: "data"
  top: "label"
  include {
    phase: TRAIN
  }
  transform_param {
    mirror: true
    crop_size: 227
    mean_file: "/home/pearlstl/proj_cv/master/lmdb/synth1_train_lum_db/mean_file.binaryproto"
  }
  data_param {
    source: "/home/pearlstl/proj_cv/master/lmdb/synth1_train_lum_db"
    batch_size: 100
    backend: LMDB
  }
}
layer {
  name: "conv1"
  type: "Convolution"
  bottom: "data"
  top: "conv1"
  param {
    lr_mult: 1
    decay_mult: 1
  }
  param {
    lr_mult: 2
    decay_mult: 0
  }
  convolution_param {
    num_output: 32
    kernel_size: 11
    stride: 4
    weight_filler {
      type: "xavier"
    }
    bias_filler {
      type: "constant"
      value: 0
    }
  }
}
layer {
  name: "relu1"
  type: "ReLU"
  bottom: "conv1"
  top: "conv1"
}
layer {
  name: "pool1"
  type: "Pooling"
  bottom: "conv1"
  top: "pool1"
  pooling_param {
    pool: MAX
    kernel_size: 3
    stride: 2
  }
}
layer {
  name: "norm1"
  type: "LRN"
  bottom: "pool1"
  top: "norm1"
  lrn_param {
    local_size: 5
    alpha: 0.0001
    beta: 0.75
  }
}
layer {
  name: "conv2"
  type: "Convolution"
  bottom: "norm1"
  top: "conv2"
  param {
    lr_mult: 1
    decay_mult: 1
  }
  param {
    lr_mult: 2
    decay_mult: 0
  }
  convolution_param {
    num_output: 32
    pad: 2
    kernel_size: 5
    group: 2
    weight_filler {
      type: "xavier"
    }
    bias_filler {
      type: "constant"
      value: 1
    }
  }
}
layer {
  name: "relu2"
  type: "ReLU"
  bottom: "conv2"
  top: "conv2"
}
layer {
  name: "pool2"
  type: "Pooling"
  bottom: "conv2"
  top: "pool2"
  pooling_param {
    pool: MAX
    kernel_size: 3
    stride: 2
  }
}
layer {
  name: "norm2"
  type: "LRN"
  bottom: "pool2"
  top: "norm2"
  lrn_param {
    local_size: 5
    alpha: 0.0001
    beta: 0.75
  }
}
layer {
  name: "conv3"
  type: "Convolution"
  bottom: "norm2"
  top: "conv3"
  param {
    lr_mult: 1
    decay_mult: 1
  }
  param {
    lr_mult: 2
    decay_mult: 0
  }
  convolution_param {
    num_output: 32
    pad: 1
    kernel_size: 3
    weight_filler {
      type: "xavier"
    }
    bias_filler {
      type: "constant"
      value: 0
    }
  }
}
layer {
  name: "relu3"
  type: "ReLU"
  bottom: "conv3"
  top: "conv3"
}
layer {
  name: "conv4"
  type: "Convolution"
  bottom: "conv3"
  top: "conv4"
  param {
    lr_mult: 1
    decay_mult: 1
  }
  param {
    lr_mult: 2
    decay_mult: 0
  }
  convolution_param {
    num_output: 32
    pad: 1
    kernel_size: 3
    group: 2
    weight_filler {
      type: "xavier"
    }
    bias_filler {
      type: "constant"
      value: 1
    }
  }
}
layer {
  name: "relu4"
  type: "ReLU"
  bottom: "conv4"
  top: "conv4"
}
layer {
  name: "conv5"
  type: "Convolution"
  bottom: "conv4"
  top: "conv5"
  param {
    lr_mult: 1
    decay_mult: 1
  }
  param {
    lr_mult: 2
    decay_mult: 0
  }
  convolution_param {
    num_output: 16
    pad: 1
    kernel_size: 3
    group: 2
    weight_filler {
      type: "xavier"
    }
    bias_filler {
      type: "constant"
      value: 1
    }
  }
}
layer {
  name: "relu5"
  type: "ReLU"
  bottom: "conv5"
  top: "conv5"
}
layer {
  name: "pool5"
  type: "Pooling"
  bottom: "conv5"
  top: "pool5"
  pooling_param {
    pool: MAX
    kernel_size: 3
    stride: 2
  }
}
layer {
  name: "fc6"
  type: "InnerProduct"
  bottom: "pool5"
  top: "fc6"
  param {
    lr_mult: 1
    decay_mult: 1
  }
  param {
    lr_mult: 2
    decay_mult: 0
  }
  inner_product_param {
    num_output: 256
    weight_filler {
      type: "xavier"
    }
    bias_filler {
      type: "constant"
      value: 1
    }
  }
}
layer {
  name: "relu6"
  type: "ReLU"
  bottom: "fc6"
  top: "fc6"
}
layer {
  name: "drop6"
  type: "Dropout"
  bottom: "fc6"
  top: "fc6"
  dropout_param {
    dropout_ratio: 0.5
  }
}
layer {
  name: "fc7"
  type: "InnerProduct"
  bottom: "fc6"
  top: "fc7"
  param {
    lr_mult: 1
    decay_mult: 1
  }
  param {
    lr_mult: 2
    decay_mult: 0
  }
  inner_product_param {
    num_output: 256
    weight_filler {
      type: "xavier"
    }
    bias_filler {
      type: "constant"
      value: 1
    }
  }
}
layer {
  name: "relu7"
  type: "ReLU"
  bottom: "fc7"
  top: "fc7"
}
layer {
  name: "drop7"
  type: "Dropout"
  bottom: "fc7"
  top: "fc7"
  dropout_param {
    dropout_ratio: 0.5
  }
}
layer {
  name: "fc8"
  type: "InnerProduct"
  bottom: "fc7"
  top: "fc8"
  param {
    lr_mult: 1
    decay_mult: 1
  }
  param {
    lr_mult: 2
    decay_mult: 0
  }
  inner_product_param {
    num_output: 2
    weight_filler {
      type: "xavier"
    }
    bias_filler {
      type: "constant"
      value: 0
    }
  }
}
layer {
  name: "loss"
  type: "SoftmaxWithLoss"
  bottom: "fc8"
  bottom: "label"
  top: "loss"
}
I0204 22:32:44.435467 10207 layer_factory.hpp:77] Creating layer data
I0204 22:32:44.435673 10207 net.cpp:106] Creating Layer data
I0204 22:32:44.435693 10207 net.cpp:411] data -> data
I0204 22:32:44.435802 10207 net.cpp:411] data -> label
I0204 22:32:44.435832 10207 data_transformer.cpp:25] Loading mean file from: /home/pearlstl/proj_cv/master/lmdb/synth1_train_lum_db/mean_file.binaryproto
I0204 22:32:44.436022 10208 db_lmdb.cpp:38] Opened lmdb /home/pearlstl/proj_cv/master/lmdb/synth1_train_lum_db
I0204 22:32:44.436998 10207 data_layer.cpp:41] output data size: 100,1,227,227
I0204 22:32:44.467892 10207 net.cpp:150] Setting up data
I0204 22:32:44.467954 10207 net.cpp:157] Top shape: 100 1 227 227 (5152900)
I0204 22:32:44.467964 10207 net.cpp:157] Top shape: 100 (100)
I0204 22:32:44.467970 10207 net.cpp:165] Memory required for data: 20612000
I0204 22:32:44.467988 10207 layer_factory.hpp:77] Creating layer conv1
I0204 22:32:44.468035 10207 net.cpp:106] Creating Layer conv1
I0204 22:32:44.468046 10207 net.cpp:454] conv1 <- data
I0204 22:32:44.468076 10207 net.cpp:411] conv1 -> conv1
I0204 22:32:44.468217 10207 net.cpp:150] Setting up conv1
I0204 22:32:44.468230 10207 net.cpp:157] Top shape: 100 32 55 55 (9680000)
I0204 22:32:44.468235 10207 net.cpp:165] Memory required for data: 59332000
I0204 22:32:44.468253 10207 layer_factory.hpp:77] Creating layer relu1
I0204 22:32:44.468266 10207 net.cpp:106] Creating Layer relu1
I0204 22:32:44.468271 10207 net.cpp:454] relu1 <- conv1
I0204 22:32:44.468279 10207 net.cpp:397] relu1 -> conv1 (in-place)
I0204 22:32:44.468291 10207 net.cpp:150] Setting up relu1
I0204 22:32:44.468299 10207 net.cpp:157] Top shape: 100 32 55 55 (9680000)
I0204 22:32:44.468304 10207 net.cpp:165] Memory required for data: 98052000
I0204 22:32:44.468309 10207 layer_factory.hpp:77] Creating layer pool1
I0204 22:32:44.468319 10207 net.cpp:106] Creating Layer pool1
I0204 22:32:44.468325 10207 net.cpp:454] pool1 <- conv1
I0204 22:32:44.468334 10207 net.cpp:411] pool1 -> pool1
I0204 22:32:44.468361 10207 net.cpp:150] Setting up pool1
I0204 22:32:44.468369 10207 net.cpp:157] Top shape: 100 32 27 27 (2332800)
I0204 22:32:44.468374 10207 net.cpp:165] Memory required for data: 107383200
I0204 22:32:44.468380 10207 layer_factory.hpp:77] Creating layer norm1
I0204 22:32:44.468408 10207 net.cpp:106] Creating Layer norm1
I0204 22:32:44.468415 10207 net.cpp:454] norm1 <- pool1
I0204 22:32:44.468422 10207 net.cpp:411] norm1 -> norm1
I0204 22:32:44.468441 10207 net.cpp:150] Setting up norm1
I0204 22:32:44.468448 10207 net.cpp:157] Top shape: 100 32 27 27 (2332800)
I0204 22:32:44.468453 10207 net.cpp:165] Memory required for data: 116714400
I0204 22:32:44.468461 10207 layer_factory.hpp:77] Creating layer conv2
I0204 22:32:44.468472 10207 net.cpp:106] Creating Layer conv2
I0204 22:32:44.468477 10207 net.cpp:454] conv2 <- norm1
I0204 22:32:44.468487 10207 net.cpp:411] conv2 -> conv2
I0204 22:32:44.468617 10207 net.cpp:150] Setting up conv2
I0204 22:32:44.468626 10207 net.cpp:157] Top shape: 100 32 27 27 (2332800)
I0204 22:32:44.468631 10207 net.cpp:165] Memory required for data: 126045600
I0204 22:32:44.468642 10207 layer_factory.hpp:77] Creating layer relu2
I0204 22:32:44.468650 10207 net.cpp:106] Creating Layer relu2
I0204 22:32:44.468657 10207 net.cpp:454] relu2 <- conv2
I0204 22:32:44.468675 10207 net.cpp:397] relu2 -> conv2 (in-place)
I0204 22:32:44.468685 10207 net.cpp:150] Setting up relu2
I0204 22:32:44.468693 10207 net.cpp:157] Top shape: 100 32 27 27 (2332800)
I0204 22:32:44.468698 10207 net.cpp:165] Memory required for data: 135376800
I0204 22:32:44.468703 10207 layer_factory.hpp:77] Creating layer pool2
I0204 22:32:44.468710 10207 net.cpp:106] Creating Layer pool2
I0204 22:32:44.468716 10207 net.cpp:454] pool2 <- conv2
I0204 22:32:44.468724 10207 net.cpp:411] pool2 -> pool2
I0204 22:32:44.468736 10207 net.cpp:150] Setting up pool2
I0204 22:32:44.468744 10207 net.cpp:157] Top shape: 100 32 13 13 (540800)
I0204 22:32:44.468749 10207 net.cpp:165] Memory required for data: 137540000
I0204 22:32:44.468754 10207 layer_factory.hpp:77] Creating layer norm2
I0204 22:32:44.468763 10207 net.cpp:106] Creating Layer norm2
I0204 22:32:44.468768 10207 net.cpp:454] norm2 <- pool2
I0204 22:32:44.468778 10207 net.cpp:411] norm2 -> norm2
I0204 22:32:44.468787 10207 net.cpp:150] Setting up norm2
I0204 22:32:44.468794 10207 net.cpp:157] Top shape: 100 32 13 13 (540800)
I0204 22:32:44.468799 10207 net.cpp:165] Memory required for data: 139703200
I0204 22:32:44.468804 10207 layer_factory.hpp:77] Creating layer conv3
I0204 22:32:44.468813 10207 net.cpp:106] Creating Layer conv3
I0204 22:32:44.468819 10207 net.cpp:454] conv3 <- norm2
I0204 22:32:44.468827 10207 net.cpp:411] conv3 -> conv3
I0204 22:32:44.468935 10207 net.cpp:150] Setting up conv3
I0204 22:32:44.468945 10207 net.cpp:157] Top shape: 100 32 13 13 (540800)
I0204 22:32:44.468953 10207 net.cpp:165] Memory required for data: 141866400
I0204 22:32:44.468963 10207 layer_factory.hpp:77] Creating layer relu3
I0204 22:32:44.468974 10207 net.cpp:106] Creating Layer relu3
I0204 22:32:44.468981 10207 net.cpp:454] relu3 <- conv3
I0204 22:32:44.468988 10207 net.cpp:397] relu3 -> conv3 (in-place)
I0204 22:32:44.468997 10207 net.cpp:150] Setting up relu3
I0204 22:32:44.469002 10207 net.cpp:157] Top shape: 100 32 13 13 (540800)
I0204 22:32:44.469009 10207 net.cpp:165] Memory required for data: 144029600
I0204 22:32:44.469015 10207 layer_factory.hpp:77] Creating layer conv4
I0204 22:32:44.469027 10207 net.cpp:106] Creating Layer conv4
I0204 22:32:44.469033 10207 net.cpp:454] conv4 <- conv3
I0204 22:32:44.469043 10207 net.cpp:411] conv4 -> conv4
I0204 22:32:44.469122 10207 net.cpp:150] Setting up conv4
I0204 22:32:44.469131 10207 net.cpp:157] Top shape: 100 32 13 13 (540800)
I0204 22:32:44.469138 10207 net.cpp:165] Memory required for data: 146192800
I0204 22:32:44.469147 10207 layer_factory.hpp:77] Creating layer relu4
I0204 22:32:44.469154 10207 net.cpp:106] Creating Layer relu4
I0204 22:32:44.469161 10207 net.cpp:454] relu4 <- conv4
I0204 22:32:44.469168 10207 net.cpp:397] relu4 -> conv4 (in-place)
I0204 22:32:44.469177 10207 net.cpp:150] Setting up relu4
I0204 22:32:44.469183 10207 net.cpp:157] Top shape: 100 32 13 13 (540800)
I0204 22:32:44.469188 10207 net.cpp:165] Memory required for data: 148356000
I0204 22:32:44.469198 10207 layer_factory.hpp:77] Creating layer conv5
I0204 22:32:44.469221 10207 net.cpp:106] Creating Layer conv5
I0204 22:32:44.469228 10207 net.cpp:454] conv5 <- conv4
I0204 22:32:44.469235 10207 net.cpp:411] conv5 -> conv5
I0204 22:32:44.469285 10207 net.cpp:150] Setting up conv5
I0204 22:32:44.469292 10207 net.cpp:157] Top shape: 100 16 13 13 (270400)
I0204 22:32:44.469297 10207 net.cpp:165] Memory required for data: 149437600
I0204 22:32:44.469307 10207 layer_factory.hpp:77] Creating layer relu5
I0204 22:32:44.469316 10207 net.cpp:106] Creating Layer relu5
I0204 22:32:44.469321 10207 net.cpp:454] relu5 <- conv5
I0204 22:32:44.469331 10207 net.cpp:397] relu5 -> conv5 (in-place)
I0204 22:32:44.469338 10207 net.cpp:150] Setting up relu5
I0204 22:32:44.469346 10207 net.cpp:157] Top shape: 100 16 13 13 (270400)
I0204 22:32:44.469351 10207 net.cpp:165] Memory required for data: 150519200
I0204 22:32:44.469355 10207 layer_factory.hpp:77] Creating layer pool5
I0204 22:32:44.469363 10207 net.cpp:106] Creating Layer pool5
I0204 22:32:44.469369 10207 net.cpp:454] pool5 <- conv5
I0204 22:32:44.469379 10207 net.cpp:411] pool5 -> pool5
I0204 22:32:44.469389 10207 net.cpp:150] Setting up pool5
I0204 22:32:44.469398 10207 net.cpp:157] Top shape: 100 16 6 6 (57600)
I0204 22:32:44.469403 10207 net.cpp:165] Memory required for data: 150749600
I0204 22:32:44.469409 10207 layer_factory.hpp:77] Creating layer fc6
I0204 22:32:44.469424 10207 net.cpp:106] Creating Layer fc6
I0204 22:32:44.469431 10207 net.cpp:454] fc6 <- pool5
I0204 22:32:44.469441 10207 net.cpp:411] fc6 -> fc6
I0204 22:32:44.471056 10207 net.cpp:150] Setting up fc6
I0204 22:32:44.471071 10207 net.cpp:157] Top shape: 100 256 (25600)
I0204 22:32:44.471077 10207 net.cpp:165] Memory required for data: 150852000
I0204 22:32:44.471086 10207 layer_factory.hpp:77] Creating layer relu6
I0204 22:32:44.471101 10207 net.cpp:106] Creating Layer relu6
I0204 22:32:44.471108 10207 net.cpp:454] relu6 <- fc6
I0204 22:32:44.471115 10207 net.cpp:397] relu6 -> fc6 (in-place)
I0204 22:32:44.471124 10207 net.cpp:150] Setting up relu6
I0204 22:32:44.471132 10207 net.cpp:157] Top shape: 100 256 (25600)
I0204 22:32:44.471137 10207 net.cpp:165] Memory required for data: 150954400
I0204 22:32:44.471143 10207 layer_factory.hpp:77] Creating layer drop6
I0204 22:32:44.471151 10207 net.cpp:106] Creating Layer drop6
I0204 22:32:44.471158 10207 net.cpp:454] drop6 <- fc6
I0204 22:32:44.471165 10207 net.cpp:397] drop6 -> fc6 (in-place)
I0204 22:32:44.471184 10207 net.cpp:150] Setting up drop6
I0204 22:32:44.471191 10207 net.cpp:157] Top shape: 100 256 (25600)
I0204 22:32:44.471196 10207 net.cpp:165] Memory required for data: 151056800
I0204 22:32:44.471202 10207 layer_factory.hpp:77] Creating layer fc7
I0204 22:32:44.471210 10207 net.cpp:106] Creating Layer fc7
I0204 22:32:44.471216 10207 net.cpp:454] fc7 <- fc6
I0204 22:32:44.471226 10207 net.cpp:411] fc7 -> fc7
I0204 22:32:44.471947 10207 net.cpp:150] Setting up fc7
I0204 22:32:44.471962 10207 net.cpp:157] Top shape: 100 256 (25600)
I0204 22:32:44.471967 10207 net.cpp:165] Memory required for data: 151159200
I0204 22:32:44.471976 10207 layer_factory.hpp:77] Creating layer relu7
I0204 22:32:44.471983 10207 net.cpp:106] Creating Layer relu7
I0204 22:32:44.471989 10207 net.cpp:454] relu7 <- fc7
I0204 22:32:44.471999 10207 net.cpp:397] relu7 -> fc7 (in-place)
I0204 22:32:44.472008 10207 net.cpp:150] Setting up relu7
I0204 22:32:44.472014 10207 net.cpp:157] Top shape: 100 256 (25600)
I0204 22:32:44.472019 10207 net.cpp:165] Memory required for data: 151261600
I0204 22:32:44.472024 10207 layer_factory.hpp:77] Creating layer drop7
I0204 22:32:44.472034 10207 net.cpp:106] Creating Layer drop7
I0204 22:32:44.472040 10207 net.cpp:454] drop7 <- fc7
I0204 22:32:44.472050 10207 net.cpp:397] drop7 -> fc7 (in-place)
I0204 22:32:44.472059 10207 net.cpp:150] Setting up drop7
I0204 22:32:44.472066 10207 net.cpp:157] Top shape: 100 256 (25600)
I0204 22:32:44.472071 10207 net.cpp:165] Memory required for data: 151364000
I0204 22:32:44.472077 10207 layer_factory.hpp:77] Creating layer fc8
I0204 22:32:44.472101 10207 net.cpp:106] Creating Layer fc8
I0204 22:32:44.472113 10207 net.cpp:454] fc8 <- fc7
I0204 22:32:44.472123 10207 net.cpp:411] fc8 -> fc8
I0204 22:32:44.472146 10207 net.cpp:150] Setting up fc8
I0204 22:32:44.472154 10207 net.cpp:157] Top shape: 100 2 (200)
I0204 22:32:44.472162 10207 net.cpp:165] Memory required for data: 151364800
I0204 22:32:44.472170 10207 layer_factory.hpp:77] Creating layer loss
I0204 22:32:44.472180 10207 net.cpp:106] Creating Layer loss
I0204 22:32:44.472187 10207 net.cpp:454] loss <- fc8
I0204 22:32:44.472193 10207 net.cpp:454] loss <- label
I0204 22:32:44.472201 10207 net.cpp:411] loss -> loss
I0204 22:32:44.472216 10207 layer_factory.hpp:77] Creating layer loss
…
I0204 22:32:44.473248 10207 net.cpp:322] The NetState phase (1) differed from the phase (0) specified by a rule in layer data
I0204 22:32:44.473533 10207 net.cpp:49] Initializing net from parameters: 
name: "CaffeNet"
state {
  phase: TEST
}
layer {
  name: "data"
  type: "Data"
  top: "data"
  top: "label"
  include {
    phase: TEST
  }
  transform_param {
    mirror: false
    crop_size: 227
    mean_file: "/home/pearlstl/proj_cv/master/lmdb/synth1_test_lum_db/mean_file.binaryproto"
  }
  data_param {
    source: "/home/pearlstl/proj_cv/master/lmdb/synth1_test_lum_db"
    batch_size: 100
    backend: LMDB
  }
}
layer {
  name: "conv1"
  type: "Convolution"
  bottom: "data"
  top: "conv1"
  param {
    lr_mult: 1
    decay_mult: 1
  }
  param {
    lr_mult: 2
    decay_mult: 0
  }
  convolution_param {
    num_output: 32
    kernel_size: 11
    stride: 4
    weight_filler {
      type: "xavier"
    }
    bias_filler {
      type: "constant"
      value: 0
    }
  }
}
layer {
  name: "relu1"
  type: "ReLU"
  bottom: "conv1"
  top: "conv1"
}
layer {
  name: "pool1"
  type: "Pooling"
  bottom: "conv1"
  top: "pool1"
  pooling_param {
    pool: MAX
    kernel_size: 3
    stride: 2
  }
}
layer {
  name: "norm1"
  type: "LRN"
  bottom: "pool1"
  top: "norm1"
  lrn_param {
    local_size: 5
    alpha: 0.0001
    beta: 0.75
  }
}
layer {
  name: "conv2"
  type: "Convolution"
  bottom: "norm1"
  top: "conv2"
  param {
    lr_mult: 1
    decay_mult: 1
  }
  param {
    lr_mult: 2
    decay_mult: 0
  }
  convolution_param {
    num_output: 32
    pad: 2
    kernel_size: 5
    group: 2
    weight_filler {
      type: "xavier"
    }
    bias_filler {
      type: "constant"
      value: 1
    }
  }
}
layer {
  name: "relu2"
  type: "ReLU"
  bottom: "conv2"
  top: "conv2"
}
layer {
  name: "pool2"
  type: "Pooling"
  bottom: "conv2"
  top: "pool2"
  pooling_param {
    pool: MAX
    kernel_size: 3
    stride: 2
  }
}
layer {
  name: "norm2"
  type: "LRN"
  bottom: "pool2"
  top: "norm2"
  lrn_param {
    local_size: 5
    alpha: 0.0001
    beta: 0.75
  }
}
layer {
  name: "conv3"
  type: "Convolution"
  bottom: "norm2"
  top: "conv3"
  param {
    lr_mult: 1
    decay_mult: 1
  }
  param {
    lr_mult: 2
    decay_mult: 0
  }
  convolution_param {
    num_output: 32
    pad: 1
    kernel_size: 3
    weight_filler {
      type: "xavier"
    }
    bias_filler {
      type: "constant"
      value: 0
    }
  }
}
layer {
  name: "relu3"
  type: "ReLU"
  bottom: "conv3"
  top: "conv3"
}
layer {
  name: "conv4"
  type: "Convolution"
  bottom: "conv3"
  top: "conv4"
  param {
    lr_mult: 1
    decay_mult: 1
  }
  param {
    lr_mult: 2
    decay_mult: 0
  }
  convolution_param {
    num_output: 32
    pad: 1
    kernel_size: 3
    group: 2
    weight_filler {
      type: "xavier"
    }
    bias_filler {
      type: "constant"
      value: 1
    }
  }
}
layer {
  name: "relu4"
  type: "ReLU"
  bottom: "conv4"
  top: "conv4"
}
layer {
  name: "conv5"
  type: "Convolution"
  bottom: "conv4"
  top: "conv5"
  param {
    lr_mult: 1
    decay_mult: 1
  }
  param {
    lr_mult: 2
    decay_mult: 0
  }
  convolution_param {
    num_output: 16
    pad: 1
    kernel_size: 3
    group: 2
    weight_filler {
      type: "xavier"
    }
    bias_filler {
      type: "constant"
      value: 1
    }
  }
}
layer {
  name: "relu5"
  type: "ReLU"
  bottom: "conv5"
  top: "conv5"
}
layer {
  name: "pool5"
  type: "Pooling"
  bottom: "conv5"
  top: "pool5"
  pooling_param {
    pool: MAX
    kernel_size: 3
    stride: 2
  }
}
layer {
  name: "fc6"
  type: "InnerProduct"
  bottom: "pool5"
  top: "fc6"
  param {
    lr_mult: 1
    decay_mult: 1
  }
  param {
    lr_mult: 2
    decay_mult: 0
  }
  inner_product_param {
    num_output: 256
    weight_filler {
      type: "xavier"
    }
    bias_filler {
      type: "constant"
      value: 1
    }
  }
}
layer {
  name: "relu6"
  type: "ReLU"
  bottom: "fc6"
  top: "fc6"
}
layer {
  name: "drop6"
  type: "Dropout"
  bottom: "fc6"
  top: "fc6"
  dropout_param {
    dropout_ratio: 0.5
  }
}
layer {
  name: "fc7"
  type: "InnerProduct"
  bottom: "fc6"
  top: "fc7"
  param {
    lr_mult: 1
    decay_mult: 1
  }
  param {
    lr_mult: 2
    decay_mult: 0
  }
  inner_product_param {
    num_output: 256
    weight_filler {
      type: "xavier"
    }
    bias_filler {
      type: "constant"
      value: 1
    }
  }
}
layer {
  name: "relu7"
  type: "ReLU"
  bottom: "fc7"
  top: "fc7"
}
layer {
  name: "drop7"
  type: "Dropout"
  bottom: "fc7"
  top: "fc7"
  dropout_param {
    dropout_ratio: 0.5
  }
}
layer {
  name: "fc8"
  type: "InnerProduct"
  bottom: "fc7"
  top: "fc8"
  param {
    lr_mult: 1
    decay_mult: 1
  }
  param {
    lr_mult: 2
    decay_mult: 0
  }
  inner_product_param {
    num_output: 2
    weight_filler {
      type: "xavier"
    }
    bias_filler {
      type: "constant"
      value: 0
    }
  }
}
layer {
  name: "accuracy"
  type: "Accuracy"
  bottom: "fc8"
  bottom: "label"
  top: "accuracy"
  include {
    phase: TEST
  }
}
layer {
  name: "loss"
  type: "SoftmaxWithLoss"
  bottom: "fc8"
  bottom: "label"
  top: "loss"
}
I0204 22:32:44.473706 10207 layer_factory.hpp:77] Creating layer data
I0204 22:32:44.473857 10207 net.cpp:106] Creating Layer data
I0204 22:32:44.473875 10207 net.cpp:411] data -> data
I0204 22:32:44.473888 10207 net.cpp:411] data -> label
I0204 22:32:44.473899 10207 data_transformer.cpp:25] Loading mean file from: /home/pearlstl/proj_cv/master/lmdb/synth1_test_lum_db/mean_file.binaryproto
I0204 22:32:44.474156 10211 db_lmdb.cpp:38] Opened lmdb /home/pearlstl/proj_cv/master/lmdb/synth1_test_lum_db
I0204 22:32:44.474848 10207 data_layer.cpp:41] output data size: 100,1,227,227
I0204 22:32:44.503461 10207 net.cpp:150] Setting up data
I0204 22:32:44.503482 10207 net.cpp:157] Top shape: 100 1 227 227 (5152900)
I0204 22:32:44.503490 10207 net.cpp:157] Top shape: 100 (100)
I0204 22:32:44.503499 10207 net.cpp:165] Memory required for data: 20612000
I0204 22:32:44.503505 10207 layer_factory.hpp:77] Creating layer label_data_1_split
I0204 22:32:44.503518 10207 net.cpp:106] Creating Layer label_data_1_split
I0204 22:32:44.503525 10207 net.cpp:454] label_data_1_split <- label
I0204 22:32:44.503535 10207 net.cpp:411] label_data_1_split -> label_data_1_split_0
I0204 22:32:44.503547 10207 net.cpp:411] label_data_1_split -> label_data_1_split_1
I0204 22:32:44.503558 10207 net.cpp:150] Setting up label_data_1_split
I0204 22:32:44.503566 10207 net.cpp:157] Top shape: 100 (100)
I0204 22:32:44.503572 10207 net.cpp:157] Top shape: 100 (100)
I0204 22:32:44.503577 10207 net.cpp:165] Memory required for data: 20612800
I0204 22:32:44.503582 10207 layer_factory.hpp:77] Creating layer conv1
I0204 22:32:44.503594 10207 net.cpp:106] Creating Layer conv1
I0204 22:32:44.503602 10207 net.cpp:454] conv1 <- data
I0204 22:32:44.503610 10207 net.cpp:411] conv1 -> conv1
I0204 22:32:44.503671 10207 net.cpp:150] Setting up conv1
I0204 22:32:44.503681 10207 net.cpp:157] Top shape: 100 32 55 55 (9680000)
I0204 22:32:44.503686 10207 net.cpp:165] Memory required for data: 59332800
I0204 22:32:44.503700 10207 layer_factory.hpp:77] Creating layer relu1
I0204 22:32:44.503710 10207 net.cpp:106] Creating Layer relu1
I0204 22:32:44.503715 10207 net.cpp:454] relu1 <- conv1
I0204 22:32:44.503722 10207 net.cpp:397] relu1 -> conv1 (in-place)
I0204 22:32:44.503731 10207 net.cpp:150] Setting up relu1
I0204 22:32:44.503738 10207 net.cpp:157] Top shape: 100 32 55 55 (9680000)
I0204 22:32:44.503743 10207 net.cpp:165] Memory required for data: 98052800
I0204 22:32:44.503751 10207 layer_factory.hpp:77] Creating layer pool1
I0204 22:32:44.503762 10207 net.cpp:106] Creating Layer pool1
I0204 22:32:44.503767 10207 net.cpp:454] pool1 <- conv1
I0204 22:32:44.503773 10207 net.cpp:411] pool1 -> pool1
I0204 22:32:44.503785 10207 net.cpp:150] Setting up pool1
I0204 22:32:44.503793 10207 net.cpp:157] Top shape: 100 32 27 27 (2332800)
I0204 22:32:44.503798 10207 net.cpp:165] Memory required for data: 107384000
I0204 22:32:44.503803 10207 layer_factory.hpp:77] Creating layer norm1
I0204 22:32:44.503811 10207 net.cpp:106] Creating Layer norm1
I0204 22:32:44.503818 10207 net.cpp:454] norm1 <- pool1
I0204 22:32:44.503824 10207 net.cpp:411] norm1 -> norm1
I0204 22:32:44.503834 10207 net.cpp:150] Setting up norm1
I0204 22:32:44.503842 10207 net.cpp:157] Top shape: 100 32 27 27 (2332800)
I0204 22:32:44.503849 10207 net.cpp:165] Memory required for data: 116715200
I0204 22:32:44.503854 10207 layer_factory.hpp:77] Creating layer conv2
I0204 22:32:44.503864 10207 net.cpp:106] Creating Layer conv2
I0204 22:32:44.503868 10207 net.cpp:454] conv2 <- norm1
I0204 22:32:44.503876 10207 net.cpp:411] conv2 -> conv2
I0204 22:32:44.504004 10207 net.cpp:150] Setting up conv2
I0204 22:32:44.504014 10207 net.cpp:157] Top shape: 100 32 27 27 (2332800)
I0204 22:32:44.504020 10207 net.cpp:165] Memory required for data: 126046400
I0204 22:32:44.504031 10207 layer_factory.hpp:77] Creating layer relu2
I0204 22:32:44.504040 10207 net.cpp:106] Creating Layer relu2
I0204 22:32:44.504045 10207 net.cpp:454] relu2 <- conv2
I0204 22:32:44.504062 10207 net.cpp:397] relu2 -> conv2 (in-place)
I0204 22:32:44.504081 10207 net.cpp:150] Setting up relu2
I0204 22:32:44.504088 10207 net.cpp:157] Top shape: 100 32 27 27 (2332800)
I0204 22:32:44.504101 10207 net.cpp:165] Memory required for data: 135377600
I0204 22:32:44.504106 10207 layer_factory.hpp:77] Creating layer pool2
I0204 22:32:44.504115 10207 net.cpp:106] Creating Layer pool2
I0204 22:32:44.504122 10207 net.cpp:454] pool2 <- conv2
I0204 22:32:44.504129 10207 net.cpp:411] pool2 -> pool2
I0204 22:32:44.504140 10207 net.cpp:150] Setting up pool2
I0204 22:32:44.504148 10207 net.cpp:157] Top shape: 100 32 13 13 (540800)
I0204 22:32:44.504153 10207 net.cpp:165] Memory required for data: 137540800
I0204 22:32:44.504158 10207 layer_factory.hpp:77] Creating layer norm2
I0204 22:32:44.504166 10207 net.cpp:106] Creating Layer norm2
I0204 22:32:44.504171 10207 net.cpp:454] norm2 <- pool2
I0204 22:32:44.504180 10207 net.cpp:411] norm2 -> norm2
I0204 22:32:44.504189 10207 net.cpp:150] Setting up norm2
I0204 22:32:44.504196 10207 net.cpp:157] Top shape: 100 32 13 13 (540800)
I0204 22:32:44.504201 10207 net.cpp:165] Memory required for data: 139704000
I0204 22:32:44.504206 10207 layer_factory.hpp:77] Creating layer conv3
I0204 22:32:44.504216 10207 net.cpp:106] Creating Layer conv3
I0204 22:32:44.504223 10207 net.cpp:454] conv3 <- norm2
I0204 22:32:44.504231 10207 net.cpp:411] conv3 -> conv3
I0204 22:32:44.504325 10207 net.cpp:150] Setting up conv3
I0204 22:32:44.504336 10207 net.cpp:157] Top shape: 100 32 13 13 (540800)
I0204 22:32:44.504341 10207 net.cpp:165] Memory required for data: 141867200
I0204 22:32:44.504351 10207 layer_factory.hpp:77] Creating layer relu3
I0204 22:32:44.504359 10207 net.cpp:106] Creating Layer relu3
I0204 22:32:44.504365 10207 net.cpp:454] relu3 <- conv3
I0204 22:32:44.504372 10207 net.cpp:397] relu3 -> conv3 (in-place)
I0204 22:32:44.504384 10207 net.cpp:150] Setting up relu3
I0204 22:32:44.504390 10207 net.cpp:157] Top shape: 100 32 13 13 (540800)
I0204 22:32:44.504395 10207 net.cpp:165] Memory required for data: 144030400
I0204 22:32:44.504401 10207 layer_factory.hpp:77] Creating layer conv4
I0204 22:32:44.504410 10207 net.cpp:106] Creating Layer conv4
I0204 22:32:44.504415 10207 net.cpp:454] conv4 <- conv3
I0204 22:32:44.504422 10207 net.cpp:411] conv4 -> conv4
I0204 22:32:44.504477 10207 net.cpp:150] Setting up conv4
I0204 22:32:44.504487 10207 net.cpp:157] Top shape: 100 32 13 13 (540800)
I0204 22:32:44.504492 10207 net.cpp:165] Memory required for data: 146193600
I0204 22:32:44.504501 10207 layer_factory.hpp:77] Creating layer relu4
I0204 22:32:44.504508 10207 net.cpp:106] Creating Layer relu4
I0204 22:32:44.504513 10207 net.cpp:454] relu4 <- conv4
I0204 22:32:44.504520 10207 net.cpp:397] relu4 -> conv4 (in-place)
I0204 22:32:44.504530 10207 net.cpp:150] Setting up relu4
I0204 22:32:44.504539 10207 net.cpp:157] Top shape: 100 32 13 13 (540800)
I0204 22:32:44.504544 10207 net.cpp:165] Memory required for data: 148356800
I0204 22:32:44.504549 10207 layer_factory.hpp:77] Creating layer conv5
I0204 22:32:44.504557 10207 net.cpp:106] Creating Layer conv5
I0204 22:32:44.504562 10207 net.cpp:454] conv5 <- conv4
I0204 22:32:44.504570 10207 net.cpp:411] conv5 -> conv5
I0204 22:32:44.504607 10207 net.cpp:150] Setting up conv5
I0204 22:32:44.504616 10207 net.cpp:157] Top shape: 100 16 13 13 (270400)
I0204 22:32:44.504621 10207 net.cpp:165] Memory required for data: 149438400
I0204 22:32:44.504632 10207 layer_factory.hpp:77] Creating layer relu5
I0204 22:32:44.504640 10207 net.cpp:106] Creating Layer relu5
I0204 22:32:44.504647 10207 net.cpp:454] relu5 <- conv5
I0204 22:32:44.504653 10207 net.cpp:397] relu5 -> conv5 (in-place)
I0204 22:32:44.504662 10207 net.cpp:150] Setting up relu5
I0204 22:32:44.504668 10207 net.cpp:157] Top shape: 100 16 13 13 (270400)
I0204 22:32:44.504674 10207 net.cpp:165] Memory required for data: 150520000
I0204 22:32:44.504679 10207 layer_factory.hpp:77] Creating layer pool5
I0204 22:32:44.504690 10207 net.cpp:106] Creating Layer pool5
I0204 22:32:44.504700 10207 net.cpp:454] pool5 <- conv5
I0204 22:32:44.504715 10207 net.cpp:411] pool5 -> pool5
I0204 22:32:44.504725 10207 net.cpp:150] Setting up pool5
I0204 22:32:44.504734 10207 net.cpp:157] Top shape: 100 16 6 6 (57600)
I0204 22:32:44.504739 10207 net.cpp:165] Memory required for data: 150750400
I0204 22:32:44.504744 10207 layer_factory.hpp:77] Creating layer fc6
I0204 22:32:44.504752 10207 net.cpp:106] Creating Layer fc6
I0204 22:32:44.504758 10207 net.cpp:454] fc6 <- pool5
I0204 22:32:44.504765 10207 net.cpp:411] fc6 -> fc6
I0204 22:32:44.506469 10207 net.cpp:150] Setting up fc6
I0204 22:32:44.506484 10207 net.cpp:157] Top shape: 100 256 (25600)
I0204 22:32:44.506489 10207 net.cpp:165] Memory required for data: 150852800
I0204 22:32:44.506497 10207 layer_factory.hpp:77] Creating layer relu6
I0204 22:32:44.506505 10207 net.cpp:106] Creating Layer relu6
I0204 22:32:44.506511 10207 net.cpp:454] relu6 <- fc6
I0204 22:32:44.506518 10207 net.cpp:397] relu6 -> fc6 (in-place)
I0204 22:32:44.506527 10207 net.cpp:150] Setting up relu6
I0204 22:32:44.506533 10207 net.cpp:157] Top shape: 100 256 (25600)
I0204 22:32:44.506539 10207 net.cpp:165] Memory required for data: 150955200
I0204 22:32:44.506544 10207 layer_factory.hpp:77] Creating layer drop6
I0204 22:32:44.506553 10207 net.cpp:106] Creating Layer drop6
I0204 22:32:44.506558 10207 net.cpp:454] drop6 <- fc6
I0204 22:32:44.506566 10207 net.cpp:397] drop6 -> fc6 (in-place)
I0204 22:32:44.506575 10207 net.cpp:150] Setting up drop6
I0204 22:32:44.506582 10207 net.cpp:157] Top shape: 100 256 (25600)
I0204 22:32:44.506587 10207 net.cpp:165] Memory required for data: 151057600
I0204 22:32:44.506592 10207 layer_factory.hpp:77] Creating layer fc7
I0204 22:32:44.506603 10207 net.cpp:106] Creating Layer fc7
I0204 22:32:44.506608 10207 net.cpp:454] fc7 <- fc6
I0204 22:32:44.506618 10207 net.cpp:411] fc7 -> fc7
I0204 22:32:44.507344 10207 net.cpp:150] Setting up fc7
I0204 22:32:44.507355 10207 net.cpp:157] Top shape: 100 256 (25600)
I0204 22:32:44.507360 10207 net.cpp:165] Memory required for data: 151160000
I0204 22:32:44.507370 10207 layer_factory.hpp:77] Creating layer relu7
I0204 22:32:44.507378 10207 net.cpp:106] Creating Layer relu7
I0204 22:32:44.507385 10207 net.cpp:454] relu7 <- fc7
I0204 22:32:44.507393 10207 net.cpp:397] relu7 -> fc7 (in-place)
I0204 22:32:44.507402 10207 net.cpp:150] Setting up relu7
I0204 22:32:44.507411 10207 net.cpp:157] Top shape: 100 256 (25600)
I0204 22:32:44.507416 10207 net.cpp:165] Memory required for data: 151262400
I0204 22:32:44.507423 10207 layer_factory.hpp:77] Creating layer drop7
I0204 22:32:44.507431 10207 net.cpp:106] Creating Layer drop7
I0204 22:32:44.507436 10207 net.cpp:454] drop7 <- fc7
I0204 22:32:44.507443 10207 net.cpp:397] drop7 -> fc7 (in-place)
I0204 22:32:44.507455 10207 net.cpp:150] Setting up drop7
I0204 22:32:44.507462 10207 net.cpp:157] Top shape: 100 256 (25600)
I0204 22:32:44.507467 10207 net.cpp:165] Memory required for data: 151364800
I0204 22:32:44.507472 10207 layer_factory.hpp:77] Creating layer fc8
I0204 22:32:44.507480 10207 net.cpp:106] Creating Layer fc8
I0204 22:32:44.507485 10207 net.cpp:454] fc8 <- fc7
I0204 22:32:44.507493 10207 net.cpp:411] fc8 -> fc8
I0204 22:32:44.507519 10207 net.cpp:150] Setting up fc8
I0204 22:32:44.507527 10207 net.cpp:157] Top shape: 100 2 (200)
I0204 22:32:44.507532 10207 net.cpp:165] Memory required for data: 151365600
I0204 22:32:44.507539 10207 layer_factory.hpp:77] Creating layer fc8_fc8_0_split
I0204 22:32:44.507550 10207 net.cpp:106] Creating Layer fc8_fc8_0_split
I0204 22:32:44.507557 10207 net.cpp:454] fc8_fc8_0_split <- fc8
I0204 22:32:44.507565 10207 net.cpp:411] fc8_fc8_0_split -> fc8_fc8_0_split_0
I0204 22:32:44.507575 10207 net.cpp:411] fc8_fc8_0_split -> fc8_fc8_0_split_1
I0204 22:32:44.507588 10207 net.cpp:150] Setting up fc8_fc8_0_split
I0204 22:32:44.507596 10207 net.cpp:157] Top shape: 100 2 (200)
I0204 22:32:44.507601 10207 net.cpp:157] Top shape: 100 2 (200)
I0204 22:32:44.507606 10207 net.cpp:165] Memory required for data: 151367200
I0204 22:32:44.507611 10207 layer_factory.hpp:77] Creating layer accuracy
I0204 22:32:44.507634 10207 net.cpp:106] Creating Layer accuracy
I0204 22:32:44.507640 10207 net.cpp:454] accuracy <- fc8_fc8_0_split_0
I0204 22:32:44.507647 10207 net.cpp:454] accuracy <- label_data_1_split_0
I0204 22:32:44.507654 10207 net.cpp:411] accuracy -> accuracy
…
