…
I0205 00:37:43.735195 10845 net.cpp:322] The NetState phase (0) differed from the phase (1) specified by a rule in layer accuracy
I0205 00:37:43.735450 10845 net.cpp:49] Initializing net from parameters: 
name: "CaffeNet"
state {
  phase: TRAIN
}
layer {
  name: "data"
  type: "Data"
  top: "data"
  top: "label"
  include {
    phase: TRAIN
  }
  transform_param {
    mirror: true
    crop_size: 227
    mean_file: "/home/pearlstl/proj_cv/master/lmdb/synth1_train_lum_db/mean_file.binaryproto"
  }
  data_param {
    source: "/home/pearlstl/proj_cv/master/lmdb/synth1_train_lum_db"
    batch_size: 100
    backend: LMDB
  }
}
layer {
  name: "conv1"
  type: "Convolution"
  bottom: "data"
  top: "conv1"
  param {
    lr_mult: 1
    decay_mult: 1
  }
  param {
    lr_mult: 2
    decay_mult: 0
  }
  convolution_param {
    num_output: 8
    kernel_size: 11
    stride: 4
    weight_filler {
      type: "xavier"
    }
    bias_filler {
      type: "constant"
      value: 0
    }
  }
}
layer {
  name: "relu1"
  type: "ReLU"
  bottom: "conv1"
  top: "conv1"
}
layer {
  name: "pool1"
  type: "Pooling"
  bottom: "conv1"
  top: "pool1"
  pooling_param {
    pool: MAX
    kernel_size: 3
    stride: 2
  }
}
layer {
  name: "norm1"
  type: "LRN"
  bottom: "pool1"
  top: "norm1"
  lrn_param {
    local_size: 5
    alpha: 0.0001
    beta: 0.75
  }
}
layer {
  name: "conv2"
  type: "Convolution"
  bottom: "norm1"
  top: "conv2"
  param {
    lr_mult: 1
    decay_mult: 1
  }
  param {
    lr_mult: 2
    decay_mult: 0
  }
  convolution_param {
    num_output: 8
    pad: 2
    kernel_size: 5
    group: 2
    weight_filler {
      type: "xavier"
    }
    bias_filler {
      type: "constant"
      value: 1
    }
  }
}
layer {
  name: "relu2"
  type: "ReLU"
  bottom: "conv2"
  top: "conv2"
}
layer {
  name: "pool2"
  type: "Pooling"
  bottom: "conv2"
  top: "pool2"
  pooling_param {
    pool: MAX
    kernel_size: 3
    stride: 2
  }
}
layer {
  name: "norm2"
  type: "LRN"
  bottom: "pool2"
  top: "norm2"
  lrn_param {
    local_size: 5
    alpha: 0.0001
    beta: 0.75
  }
}
layer {
  name: "conv3"
  type: "Convolution"
  bottom: "norm2"
  top: "conv3"
  param {
    lr_mult: 1
    decay_mult: 1
  }
  param {
    lr_mult: 2
    decay_mult: 0
  }
  convolution_param {
    num_output: 8
    pad: 1
    kernel_size: 3
    weight_filler {
      type: "xavier"
    }
    bias_filler {
      type: "constant"
      value: 0
    }
  }
}
layer {
  name: "relu3"
  type: "ReLU"
  bottom: "conv3"
  top: "conv3"
}
layer {
  name: "conv4"
  type: "Convolution"
  bottom: "conv3"
  top: "conv4"
  param {
    lr_mult: 1
    decay_mult: 1
  }
  param {
    lr_mult: 2
    decay_mult: 0
  }
  convolution_param {
    num_output: 8
    pad: 1
    kernel_size: 3
    group: 2
    weight_filler {
      type: "xavier"
    }
    bias_filler {
      type: "constant"
      value: 1
    }
  }
}
layer {
  name: "relu4"
  type: "ReLU"
  bottom: "conv4"
  top: "conv4"
}
layer {
  name: "conv5"
  type: "Convolution"
  bottom: "conv4"
  top: "conv5"
  param {
    lr_mult: 1
    decay_mult: 1
  }
  param {
    lr_mult: 2
    decay_mult: 0
  }
  convolution_param {
    num_output: 8
    pad: 1
    kernel_size: 3
    group: 2
    weight_filler {
      type: "xavier"
    }
    bias_filler {
      type: "constant"
      value: 1
    }
  }
}
layer {
  name: "relu5"
  type: "ReLU"
  bottom: "conv5"
  top: "conv5"
}
layer {
  name: "pool5"
  type: "Pooling"
  bottom: "conv5"
  top: "pool5"
  pooling_param {
    pool: MAX
    kernel_size: 3
    stride: 2
  }
}
layer {
  name: "fc6"
  type: "InnerProduct"
  bottom: "pool5"
  top: "fc6"
  param {
    lr_mult: 1
    decay_mult: 1
  }
  param {
    lr_mult: 2
    decay_mult: 0
  }
  inner_product_param {
    num_output: 256
    weight_filler {
      type: "xavier"
    }
    bias_filler {
      type: "constant"
      value: 1
    }
  }
}
layer {
  name: "relu6"
  type: "ReLU"
  bottom: "fc6"
  top: "fc6"
}
layer {
  name: "drop6"
  type: "Dropout"
  bottom: "fc6"
  top: "fc6"
  dropout_param {
    dropout_ratio: 0.5
  }
}
layer {
  name: "fc7"
  type: "InnerProduct"
  bottom: "fc6"
  top: "fc7"
  param {
    lr_mult: 1
    decay_mult: 1
  }
  param {
    lr_mult: 2
    decay_mult: 0
  }
  inner_product_param {
    num_output: 256
    weight_filler {
      type: "xavier"
    }
    bias_filler {
      type: "constant"
      value: 1
    }
  }
}
layer {
  name: "relu7"
  type: "ReLU"
  bottom: "fc7"
  top: "fc7"
}
layer {
  name: "drop7"
  type: "Dropout"
  bottom: "fc7"
  top: "fc7"
  dropout_param {
    dropout_ratio: 0.5
  }
}
layer {
  name: "fc8"
  type: "InnerProduct"
  bottom: "fc7"
  top: "fc8"
  param {
    lr_mult: 1
    decay_mult: 1
  }
  param {
    lr_mult: 2
    decay_mult: 0
  }
  inner_product_param {
    num_output: 2
    weight_filler {
      type: "xavier"
    }
    bias_filler {
      type: "constant"
      value: 0
    }
  }
}
layer {
  name: "loss"
  type: "SoftmaxWithLoss"
  bottom: "fc8"
  bottom: "label"
  top: "loss"
}
I0205 00:37:43.735594 10845 layer_factory.hpp:77] Creating layer data
I0205 00:37:43.735782 10845 net.cpp:106] Creating Layer data
I0205 00:37:43.735801 10845 net.cpp:411] data -> data
I0205 00:37:43.735888 10845 net.cpp:411] data -> label
I0205 00:37:43.735913 10845 data_transformer.cpp:25] Loading mean file from: /home/pearlstl/proj_cv/master/lmdb/synth1_train_lum_db/mean_file.binaryproto
I0205 00:37:43.736089 10846 db_lmdb.cpp:38] Opened lmdb /home/pearlstl/proj_cv/master/lmdb/synth1_train_lum_db
I0205 00:37:43.736999 10845 data_layer.cpp:41] output data size: 100,1,227,227
I0205 00:37:43.768534 10845 net.cpp:150] Setting up data
I0205 00:37:43.768578 10845 net.cpp:157] Top shape: 100 1 227 227 (5152900)
I0205 00:37:43.768587 10845 net.cpp:157] Top shape: 100 (100)
I0205 00:37:43.768594 10845 net.cpp:165] Memory required for data: 20612000
I0205 00:37:43.768615 10845 layer_factory.hpp:77] Creating layer conv1
I0205 00:37:43.768661 10845 net.cpp:106] Creating Layer conv1
I0205 00:37:43.768671 10845 net.cpp:454] conv1 <- data
I0205 00:37:43.768697 10845 net.cpp:411] conv1 -> conv1
I0205 00:37:43.768813 10845 net.cpp:150] Setting up conv1
I0205 00:37:43.768826 10845 net.cpp:157] Top shape: 100 8 55 55 (2420000)
I0205 00:37:43.768831 10845 net.cpp:165] Memory required for data: 30292000
I0205 00:37:43.768851 10845 layer_factory.hpp:77] Creating layer relu1
I0205 00:37:43.768864 10845 net.cpp:106] Creating Layer relu1
I0205 00:37:43.768872 10845 net.cpp:454] relu1 <- conv1
I0205 00:37:43.768880 10845 net.cpp:397] relu1 -> conv1 (in-place)
I0205 00:37:43.768894 10845 net.cpp:150] Setting up relu1
I0205 00:37:43.768903 10845 net.cpp:157] Top shape: 100 8 55 55 (2420000)
I0205 00:37:43.768908 10845 net.cpp:165] Memory required for data: 39972000
I0205 00:37:43.768913 10845 layer_factory.hpp:77] Creating layer pool1
I0205 00:37:43.768925 10845 net.cpp:106] Creating Layer pool1
I0205 00:37:43.768934 10845 net.cpp:454] pool1 <- conv1
I0205 00:37:43.768942 10845 net.cpp:411] pool1 -> pool1
I0205 00:37:43.768972 10845 net.cpp:150] Setting up pool1
I0205 00:37:43.768982 10845 net.cpp:157] Top shape: 100 8 27 27 (583200)
I0205 00:37:43.768987 10845 net.cpp:165] Memory required for data: 42304800
I0205 00:37:43.768993 10845 layer_factory.hpp:77] Creating layer norm1
I0205 00:37:43.769016 10845 net.cpp:106] Creating Layer norm1
I0205 00:37:43.769032 10845 net.cpp:454] norm1 <- pool1
I0205 00:37:43.769042 10845 net.cpp:411] norm1 -> norm1
I0205 00:37:43.769060 10845 net.cpp:150] Setting up norm1
I0205 00:37:43.769069 10845 net.cpp:157] Top shape: 100 8 27 27 (583200)
I0205 00:37:43.769075 10845 net.cpp:165] Memory required for data: 44637600
I0205 00:37:43.769081 10845 layer_factory.hpp:77] Creating layer conv2
I0205 00:37:43.769099 10845 net.cpp:106] Creating Layer conv2
I0205 00:37:43.769109 10845 net.cpp:454] conv2 <- norm1
I0205 00:37:43.769119 10845 net.cpp:411] conv2 -> conv2
I0205 00:37:43.769151 10845 net.cpp:150] Setting up conv2
I0205 00:37:43.769160 10845 net.cpp:157] Top shape: 100 8 27 27 (583200)
I0205 00:37:43.769165 10845 net.cpp:165] Memory required for data: 46970400
I0205 00:37:43.769176 10845 layer_factory.hpp:77] Creating layer relu2
I0205 00:37:43.769186 10845 net.cpp:106] Creating Layer relu2
I0205 00:37:43.769191 10845 net.cpp:454] relu2 <- conv2
I0205 00:37:43.769199 10845 net.cpp:397] relu2 -> conv2 (in-place)
I0205 00:37:43.769208 10845 net.cpp:150] Setting up relu2
I0205 00:37:43.769215 10845 net.cpp:157] Top shape: 100 8 27 27 (583200)
I0205 00:37:43.769220 10845 net.cpp:165] Memory required for data: 49303200
I0205 00:37:43.769227 10845 layer_factory.hpp:77] Creating layer pool2
I0205 00:37:43.769234 10845 net.cpp:106] Creating Layer pool2
I0205 00:37:43.769240 10845 net.cpp:454] pool2 <- conv2
I0205 00:37:43.769253 10845 net.cpp:411] pool2 -> pool2
I0205 00:37:43.769263 10845 net.cpp:150] Setting up pool2
I0205 00:37:43.769271 10845 net.cpp:157] Top shape: 100 8 13 13 (135200)
I0205 00:37:43.769276 10845 net.cpp:165] Memory required for data: 49844000
I0205 00:37:43.769281 10845 layer_factory.hpp:77] Creating layer norm2
I0205 00:37:43.769292 10845 net.cpp:106] Creating Layer norm2
I0205 00:37:43.769299 10845 net.cpp:454] norm2 <- pool2
I0205 00:37:43.769307 10845 net.cpp:411] norm2 -> norm2
I0205 00:37:43.769317 10845 net.cpp:150] Setting up norm2
I0205 00:37:43.769325 10845 net.cpp:157] Top shape: 100 8 13 13 (135200)
I0205 00:37:43.769330 10845 net.cpp:165] Memory required for data: 50384800
I0205 00:37:43.769335 10845 layer_factory.hpp:77] Creating layer conv3
I0205 00:37:43.769346 10845 net.cpp:106] Creating Layer conv3
I0205 00:37:43.769352 10845 net.cpp:454] conv3 <- norm2
I0205 00:37:43.769361 10845 net.cpp:411] conv3 -> conv3
I0205 00:37:43.769392 10845 net.cpp:150] Setting up conv3
I0205 00:37:43.769402 10845 net.cpp:157] Top shape: 100 8 13 13 (135200)
I0205 00:37:43.769407 10845 net.cpp:165] Memory required for data: 50925600
I0205 00:37:43.769417 10845 layer_factory.hpp:77] Creating layer relu3
I0205 00:37:43.769425 10845 net.cpp:106] Creating Layer relu3
I0205 00:37:43.769431 10845 net.cpp:454] relu3 <- conv3
I0205 00:37:43.769439 10845 net.cpp:397] relu3 -> conv3 (in-place)
I0205 00:37:43.769448 10845 net.cpp:150] Setting up relu3
I0205 00:37:43.769454 10845 net.cpp:157] Top shape: 100 8 13 13 (135200)
I0205 00:37:43.769460 10845 net.cpp:165] Memory required for data: 51466400
I0205 00:37:43.769465 10845 layer_factory.hpp:77] Creating layer conv4
I0205 00:37:43.769476 10845 net.cpp:106] Creating Layer conv4
I0205 00:37:43.769482 10845 net.cpp:454] conv4 <- conv3
I0205 00:37:43.769490 10845 net.cpp:411] conv4 -> conv4
I0205 00:37:43.769516 10845 net.cpp:150] Setting up conv4
I0205 00:37:43.769526 10845 net.cpp:157] Top shape: 100 8 13 13 (135200)
I0205 00:37:43.769531 10845 net.cpp:165] Memory required for data: 52007200
I0205 00:37:43.769538 10845 layer_factory.hpp:77] Creating layer relu4
I0205 00:37:43.769547 10845 net.cpp:106] Creating Layer relu4
I0205 00:37:43.769552 10845 net.cpp:454] relu4 <- conv4
I0205 00:37:43.769562 10845 net.cpp:397] relu4 -> conv4 (in-place)
I0205 00:37:43.769569 10845 net.cpp:150] Setting up relu4
I0205 00:37:43.769577 10845 net.cpp:157] Top shape: 100 8 13 13 (135200)
I0205 00:37:43.769582 10845 net.cpp:165] Memory required for data: 52548000
I0205 00:37:43.769587 10845 layer_factory.hpp:77] Creating layer conv5
I0205 00:37:43.769603 10845 net.cpp:106] Creating Layer conv5
I0205 00:37:43.769615 10845 net.cpp:454] conv5 <- conv4
I0205 00:37:43.769625 10845 net.cpp:411] conv5 -> conv5
I0205 00:37:43.769649 10845 net.cpp:150] Setting up conv5
I0205 00:37:43.769657 10845 net.cpp:157] Top shape: 100 8 13 13 (135200)
I0205 00:37:43.769664 10845 net.cpp:165] Memory required for data: 53088800
I0205 00:37:43.769675 10845 layer_factory.hpp:77] Creating layer relu5
I0205 00:37:43.769685 10845 net.cpp:106] Creating Layer relu5
I0205 00:37:43.769690 10845 net.cpp:454] relu5 <- conv5
I0205 00:37:43.769697 10845 net.cpp:397] relu5 -> conv5 (in-place)
I0205 00:37:43.769706 10845 net.cpp:150] Setting up relu5
I0205 00:37:43.769713 10845 net.cpp:157] Top shape: 100 8 13 13 (135200)
I0205 00:37:43.769718 10845 net.cpp:165] Memory required for data: 53629600
I0205 00:37:43.769723 10845 layer_factory.hpp:77] Creating layer pool5
I0205 00:37:43.769732 10845 net.cpp:106] Creating Layer pool5
I0205 00:37:43.769738 10845 net.cpp:454] pool5 <- conv5
I0205 00:37:43.769747 10845 net.cpp:411] pool5 -> pool5
I0205 00:37:43.769757 10845 net.cpp:150] Setting up pool5
I0205 00:37:43.769767 10845 net.cpp:157] Top shape: 100 8 6 6 (28800)
I0205 00:37:43.769773 10845 net.cpp:165] Memory required for data: 53744800
I0205 00:37:43.769778 10845 layer_factory.hpp:77] Creating layer fc6
I0205 00:37:43.769794 10845 net.cpp:106] Creating Layer fc6
I0205 00:37:43.769801 10845 net.cpp:454] fc6 <- pool5
I0205 00:37:43.769810 10845 net.cpp:411] fc6 -> fc6
I0205 00:37:43.770623 10845 net.cpp:150] Setting up fc6
I0205 00:37:43.770638 10845 net.cpp:157] Top shape: 100 256 (25600)
I0205 00:37:43.770644 10845 net.cpp:165] Memory required for data: 53847200
I0205 00:37:43.770653 10845 layer_factory.hpp:77] Creating layer relu6
I0205 00:37:43.770663 10845 net.cpp:106] Creating Layer relu6
I0205 00:37:43.770668 10845 net.cpp:454] relu6 <- fc6
I0205 00:37:43.770678 10845 net.cpp:397] relu6 -> fc6 (in-place)
I0205 00:37:43.770687 10845 net.cpp:150] Setting up relu6
I0205 00:37:43.770694 10845 net.cpp:157] Top shape: 100 256 (25600)
I0205 00:37:43.770699 10845 net.cpp:165] Memory required for data: 53949600
I0205 00:37:43.770705 10845 layer_factory.hpp:77] Creating layer drop6
I0205 00:37:43.770719 10845 net.cpp:106] Creating Layer drop6
I0205 00:37:43.770725 10845 net.cpp:454] drop6 <- fc6
I0205 00:37:43.770732 10845 net.cpp:397] drop6 -> fc6 (in-place)
I0205 00:37:43.770751 10845 net.cpp:150] Setting up drop6
I0205 00:37:43.770759 10845 net.cpp:157] Top shape: 100 256 (25600)
I0205 00:37:43.770764 10845 net.cpp:165] Memory required for data: 54052000
I0205 00:37:43.770771 10845 layer_factory.hpp:77] Creating layer fc7
I0205 00:37:43.770783 10845 net.cpp:106] Creating Layer fc7
I0205 00:37:43.770789 10845 net.cpp:454] fc7 <- fc6
I0205 00:37:43.770798 10845 net.cpp:411] fc7 -> fc7
I0205 00:37:43.771494 10845 net.cpp:150] Setting up fc7
I0205 00:37:43.771509 10845 net.cpp:157] Top shape: 100 256 (25600)
I0205 00:37:43.771515 10845 net.cpp:165] Memory required for data: 54154400
I0205 00:37:43.771524 10845 layer_factory.hpp:77] Creating layer relu7
I0205 00:37:43.771533 10845 net.cpp:106] Creating Layer relu7
I0205 00:37:43.771538 10845 net.cpp:454] relu7 <- fc7
I0205 00:37:43.771545 10845 net.cpp:397] relu7 -> fc7 (in-place)
I0205 00:37:43.771555 10845 net.cpp:150] Setting up relu7
I0205 00:37:43.771561 10845 net.cpp:157] Top shape: 100 256 (25600)
I0205 00:37:43.771567 10845 net.cpp:165] Memory required for data: 54256800
I0205 00:37:43.771572 10845 layer_factory.hpp:77] Creating layer drop7
I0205 00:37:43.771584 10845 net.cpp:106] Creating Layer drop7
I0205 00:37:43.771589 10845 net.cpp:454] drop7 <- fc7
I0205 00:37:43.771596 10845 net.cpp:397] drop7 -> fc7 (in-place)
I0205 00:37:43.771606 10845 net.cpp:150] Setting up drop7
I0205 00:37:43.771613 10845 net.cpp:157] Top shape: 100 256 (25600)
I0205 00:37:43.771618 10845 net.cpp:165] Memory required for data: 54359200
I0205 00:37:43.771626 10845 layer_factory.hpp:77] Creating layer fc8
I0205 00:37:43.771639 10845 net.cpp:106] Creating Layer fc8
I0205 00:37:43.771651 10845 net.cpp:454] fc8 <- fc7
I0205 00:37:43.771666 10845 net.cpp:411] fc8 -> fc8
I0205 00:37:43.771692 10845 net.cpp:150] Setting up fc8
I0205 00:37:43.771699 10845 net.cpp:157] Top shape: 100 2 (200)
I0205 00:37:43.771704 10845 net.cpp:165] Memory required for data: 54360000
I0205 00:37:43.771713 10845 layer_factory.hpp:77] Creating layer loss
I0205 00:37:43.771721 10845 net.cpp:106] Creating Layer loss
I0205 00:37:43.771728 10845 net.cpp:454] loss <- fc8
I0205 00:37:43.771733 10845 net.cpp:454] loss <- label
I0205 00:37:43.771744 10845 net.cpp:411] loss -> loss
I0205 00:37:43.771764 10845 layer_factory.hpp:77] Creating layer loss
…
I0205 00:37:43.772856 10845 net.cpp:322] The NetState phase (1) differed from the phase (0) specified by a rule in layer data
I0205 00:37:43.773164 10845 net.cpp:49] Initializing net from parameters: 
name: "CaffeNet"
state {
  phase: TEST
}
layer {
  name: "data"
  type: "Data"
  top: "data"
  top: "label"
  include {
    phase: TEST
  }
  transform_param {
    mirror: false
    crop_size: 227
    mean_file: "/home/pearlstl/proj_cv/master/lmdb/synth1_test_lum_db/mean_file.binaryproto"
  }
  data_param {
    source: "/home/pearlstl/proj_cv/master/lmdb/synth1_test_lum_db"
    batch_size: 100
    backend: LMDB
  }
}
layer {
  name: "conv1"
  type: "Convolution"
  bottom: "data"
  top: "conv1"
  param {
    lr_mult: 1
    decay_mult: 1
  }
  param {
    lr_mult: 2
    decay_mult: 0
  }
  convolution_param {
    num_output: 8
    kernel_size: 11
    stride: 4
    weight_filler {
      type: "xavier"
    }
    bias_filler {
      type: "constant"
      value: 0
    }
  }
}
layer {
  name: "relu1"
  type: "ReLU"
  bottom: "conv1"
  top: "conv1"
}
layer {
  name: "pool1"
  type: "Pooling"
  bottom: "conv1"
  top: "pool1"
  pooling_param {
    pool: MAX
    kernel_size: 3
    stride: 2
  }
}
layer {
  name: "norm1"
  type: "LRN"
  bottom: "pool1"
  top: "norm1"
  lrn_param {
    local_size: 5
    alpha: 0.0001
    beta: 0.75
  }
}
layer {
  name: "conv2"
  type: "Convolution"
  bottom: "norm1"
  top: "conv2"
  param {
    lr_mult: 1
    decay_mult: 1
  }
  param {
    lr_mult: 2
    decay_mult: 0
  }
  convolution_param {
    num_output: 8
    pad: 2
    kernel_size: 5
    group: 2
    weight_filler {
      type: "xavier"
    }
    bias_filler {
      type: "constant"
      value: 1
    }
  }
}
layer {
  name: "relu2"
  type: "ReLU"
  bottom: "conv2"
  top: "conv2"
}
layer {
  name: "pool2"
  type: "Pooling"
  bottom: "conv2"
  top: "pool2"
  pooling_param {
    pool: MAX
    kernel_size: 3
    stride: 2
  }
}
layer {
  name: "norm2"
  type: "LRN"
  bottom: "pool2"
  top: "norm2"
  lrn_param {
    local_size: 5
    alpha: 0.0001
    beta: 0.75
  }
}
layer {
  name: "conv3"
  type: "Convolution"
  bottom: "norm2"
  top: "conv3"
  param {
    lr_mult: 1
    decay_mult: 1
  }
  param {
    lr_mult: 2
    decay_mult: 0
  }
  convolution_param {
    num_output: 8
    pad: 1
    kernel_size: 3
    weight_filler {
      type: "xavier"
    }
    bias_filler {
      type: "constant"
      value: 0
    }
  }
}
layer {
  name: "relu3"
  type: "ReLU"
  bottom: "conv3"
  top: "conv3"
}
layer {
  name: "conv4"
  type: "Convolution"
  bottom: "conv3"
  top: "conv4"
  param {
    lr_mult: 1
    decay_mult: 1
  }
  param {
    lr_mult: 2
    decay_mult: 0
  }
  convolution_param {
    num_output: 8
    pad: 1
    kernel_size: 3
    group: 2
    weight_filler {
      type: "xavier"
    }
    bias_filler {
      type: "constant"
      value: 1
    }
  }
}
layer {
  name: "relu4"
  type: "ReLU"
  bottom: "conv4"
  top: "conv4"
}
layer {
  name: "conv5"
  type: "Convolution"
  bottom: "conv4"
  top: "conv5"
  param {
    lr_mult: 1
    decay_mult: 1
  }
  param {
    lr_mult: 2
    decay_mult: 0
  }
  convolution_param {
    num_output: 8
    pad: 1
    kernel_size: 3
    group: 2
    weight_filler {
      type: "xavier"
    }
    bias_filler {
      type: "constant"
      value: 1
    }
  }
}
layer {
  name: "relu5"
  type: "ReLU"
  bottom: "conv5"
  top: "conv5"
}
layer {
  name: "pool5"
  type: "Pooling"
  bottom: "conv5"
  top: "pool5"
  pooling_param {
    pool: MAX
    kernel_size: 3
    stride: 2
  }
}
layer {
  name: "fc6"
  type: "InnerProduct"
  bottom: "pool5"
  top: "fc6"
  param {
    lr_mult: 1
    decay_mult: 1
  }
  param {
    lr_mult: 2
    decay_mult: 0
  }
  inner_product_param {
    num_output: 256
    weight_filler {
      type: "xavier"
    }
    bias_filler {
      type: "constant"
      value: 1
    }
  }
}
layer {
  name: "relu6"
  type: "ReLU"
  bottom: "fc6"
  top: "fc6"
}
layer {
  name: "drop6"
  type: "Dropout"
  bottom: "fc6"
  top: "fc6"
  dropout_param {
    dropout_ratio: 0.5
  }
}
layer {
  name: "fc7"
  type: "InnerProduct"
  bottom: "fc6"
  top: "fc7"
  param {
    lr_mult: 1
    decay_mult: 1
  }
  param {
    lr_mult: 2
    decay_mult: 0
  }
  inner_product_param {
    num_output: 256
    weight_filler {
      type: "xavier"
    }
    bias_filler {
      type: "constant"
      value: 1
    }
  }
}
layer {
  name: "relu7"
  type: "ReLU"
  bottom: "fc7"
  top: "fc7"
}
layer {
  name: "drop7"
  type: "Dropout"
  bottom: "fc7"
  top: "fc7"
  dropout_param {
    dropout_ratio: 0.5
  }
}
layer {
  name: "fc8"
  type: "InnerProduct"
  bottom: "fc7"
  top: "fc8"
  param {
    lr_mult: 1
    decay_mult: 1
  }
  param {
    lr_mult: 2
    decay_mult: 0
  }
  inner_product_param {
    num_output: 2
    weight_filler {
      type: "xavier"
    }
    bias_filler {
      type: "constant"
      value: 0
    }
  }
}
layer {
  name: "accuracy"
  type: "Accuracy"
  bottom: "fc8"
  bottom: "label"
  top: "accuracy"
  include {
    phase: TEST
  }
}
layer {
  name: "loss"
  type: "SoftmaxWithLoss"
  bottom: "fc8"
  bottom: "label"
  top: "loss"
}
I0205 00:37:43.773345 10845 layer_factory.hpp:77] Creating layer data
I0205 00:37:43.773505 10845 net.cpp:106] Creating Layer data
I0205 00:37:43.773519 10845 net.cpp:411] data -> data
I0205 00:37:43.773532 10845 net.cpp:411] data -> label
I0205 00:37:43.773545 10845 data_transformer.cpp:25] Loading mean file from: /home/pearlstl/proj_cv/master/lmdb/synth1_test_lum_db/mean_file.binaryproto
I0205 00:37:43.773766 10850 db_lmdb.cpp:38] Opened lmdb /home/pearlstl/proj_cv/master/lmdb/synth1_test_lum_db
I0205 00:37:43.774540 10845 data_layer.cpp:41] output data size: 100,1,227,227
I0205 00:37:43.804291 10845 net.cpp:150] Setting up data
I0205 00:37:43.804322 10845 net.cpp:157] Top shape: 100 1 227 227 (5152900)
I0205 00:37:43.804330 10845 net.cpp:157] Top shape: 100 (100)
I0205 00:37:43.804337 10845 net.cpp:165] Memory required for data: 20612000
I0205 00:37:43.804347 10845 layer_factory.hpp:77] Creating layer label_data_1_split
I0205 00:37:43.804363 10845 net.cpp:106] Creating Layer label_data_1_split
I0205 00:37:43.804371 10845 net.cpp:454] label_data_1_split <- label
I0205 00:37:43.804383 10845 net.cpp:411] label_data_1_split -> label_data_1_split_0
I0205 00:37:43.804399 10845 net.cpp:411] label_data_1_split -> label_data_1_split_1
I0205 00:37:43.804410 10845 net.cpp:150] Setting up label_data_1_split
I0205 00:37:43.804419 10845 net.cpp:157] Top shape: 100 (100)
I0205 00:37:43.804425 10845 net.cpp:157] Top shape: 100 (100)
I0205 00:37:43.804430 10845 net.cpp:165] Memory required for data: 20612800
I0205 00:37:43.804436 10845 layer_factory.hpp:77] Creating layer conv1
I0205 00:37:43.804452 10845 net.cpp:106] Creating Layer conv1
I0205 00:37:43.804458 10845 net.cpp:454] conv1 <- data
I0205 00:37:43.804469 10845 net.cpp:411] conv1 -> conv1
I0205 00:37:43.804522 10845 net.cpp:150] Setting up conv1
I0205 00:37:43.804532 10845 net.cpp:157] Top shape: 100 8 55 55 (2420000)
I0205 00:37:43.804536 10845 net.cpp:165] Memory required for data: 30292800
I0205 00:37:43.804551 10845 layer_factory.hpp:77] Creating layer relu1
I0205 00:37:43.804561 10845 net.cpp:106] Creating Layer relu1
I0205 00:37:43.804568 10845 net.cpp:454] relu1 <- conv1
I0205 00:37:43.804576 10845 net.cpp:397] relu1 -> conv1 (in-place)
I0205 00:37:43.804585 10845 net.cpp:150] Setting up relu1
I0205 00:37:43.804592 10845 net.cpp:157] Top shape: 100 8 55 55 (2420000)
I0205 00:37:43.804599 10845 net.cpp:165] Memory required for data: 39972800
I0205 00:37:43.804603 10845 layer_factory.hpp:77] Creating layer pool1
I0205 00:37:43.804615 10845 net.cpp:106] Creating Layer pool1
I0205 00:37:43.804621 10845 net.cpp:454] pool1 <- conv1
I0205 00:37:43.804630 10845 net.cpp:411] pool1 -> pool1
I0205 00:37:43.804643 10845 net.cpp:150] Setting up pool1
I0205 00:37:43.804651 10845 net.cpp:157] Top shape: 100 8 27 27 (583200)
I0205 00:37:43.804656 10845 net.cpp:165] Memory required for data: 42305600
I0205 00:37:43.804661 10845 layer_factory.hpp:77] Creating layer norm1
I0205 00:37:43.804674 10845 net.cpp:106] Creating Layer norm1
I0205 00:37:43.804680 10845 net.cpp:454] norm1 <- pool1
I0205 00:37:43.804687 10845 net.cpp:411] norm1 -> norm1
I0205 00:37:43.804700 10845 net.cpp:150] Setting up norm1
I0205 00:37:43.804708 10845 net.cpp:157] Top shape: 100 8 27 27 (583200)
I0205 00:37:43.804713 10845 net.cpp:165] Memory required for data: 44638400
I0205 00:37:43.804719 10845 layer_factory.hpp:77] Creating layer conv2
I0205 00:37:43.804730 10845 net.cpp:106] Creating Layer conv2
I0205 00:37:43.804736 10845 net.cpp:454] conv2 <- norm1
I0205 00:37:43.804744 10845 net.cpp:411] conv2 -> conv2
I0205 00:37:43.804774 10845 net.cpp:150] Setting up conv2
I0205 00:37:43.804781 10845 net.cpp:157] Top shape: 100 8 27 27 (583200)
I0205 00:37:43.804787 10845 net.cpp:165] Memory required for data: 46971200
I0205 00:37:43.804797 10845 layer_factory.hpp:77] Creating layer relu2
I0205 00:37:43.804806 10845 net.cpp:106] Creating Layer relu2
I0205 00:37:43.804812 10845 net.cpp:454] relu2 <- conv2
I0205 00:37:43.804822 10845 net.cpp:397] relu2 -> conv2 (in-place)
I0205 00:37:43.804841 10845 net.cpp:150] Setting up relu2
I0205 00:37:43.804858 10845 net.cpp:157] Top shape: 100 8 27 27 (583200)
I0205 00:37:43.804864 10845 net.cpp:165] Memory required for data: 49304000
I0205 00:37:43.804872 10845 layer_factory.hpp:77] Creating layer pool2
I0205 00:37:43.804882 10845 net.cpp:106] Creating Layer pool2
I0205 00:37:43.804888 10845 net.cpp:454] pool2 <- conv2
I0205 00:37:43.804896 10845 net.cpp:411] pool2 -> pool2
I0205 00:37:43.804908 10845 net.cpp:150] Setting up pool2
I0205 00:37:43.804914 10845 net.cpp:157] Top shape: 100 8 13 13 (135200)
I0205 00:37:43.804919 10845 net.cpp:165] Memory required for data: 49844800
I0205 00:37:43.804925 10845 layer_factory.hpp:77] Creating layer norm2
I0205 00:37:43.804934 10845 net.cpp:106] Creating Layer norm2
I0205 00:37:43.804939 10845 net.cpp:454] norm2 <- pool2
I0205 00:37:43.804947 10845 net.cpp:411] norm2 -> norm2
I0205 00:37:43.804956 10845 net.cpp:150] Setting up norm2
I0205 00:37:43.804963 10845 net.cpp:157] Top shape: 100 8 13 13 (135200)
I0205 00:37:43.804968 10845 net.cpp:165] Memory required for data: 50385600
I0205 00:37:43.804973 10845 layer_factory.hpp:77] Creating layer conv3
I0205 00:37:43.804986 10845 net.cpp:106] Creating Layer conv3
I0205 00:37:43.804992 10845 net.cpp:454] conv3 <- norm2
I0205 00:37:43.805003 10845 net.cpp:411] conv3 -> conv3
I0205 00:37:43.805029 10845 net.cpp:150] Setting up conv3
I0205 00:37:43.805039 10845 net.cpp:157] Top shape: 100 8 13 13 (135200)
I0205 00:37:43.805045 10845 net.cpp:165] Memory required for data: 50926400
I0205 00:37:43.805057 10845 layer_factory.hpp:77] Creating layer relu3
I0205 00:37:43.805064 10845 net.cpp:106] Creating Layer relu3
I0205 00:37:43.805071 10845 net.cpp:454] relu3 <- conv3
I0205 00:37:43.805078 10845 net.cpp:397] relu3 -> conv3 (in-place)
I0205 00:37:43.805088 10845 net.cpp:150] Setting up relu3
I0205 00:37:43.805109 10845 net.cpp:157] Top shape: 100 8 13 13 (135200)
I0205 00:37:43.805114 10845 net.cpp:165] Memory required for data: 51467200
I0205 00:37:43.805119 10845 layer_factory.hpp:77] Creating layer conv4
I0205 00:37:43.805130 10845 net.cpp:106] Creating Layer conv4
I0205 00:37:43.805136 10845 net.cpp:454] conv4 <- conv3
I0205 00:37:43.805147 10845 net.cpp:411] conv4 -> conv4
I0205 00:37:43.805172 10845 net.cpp:150] Setting up conv4
I0205 00:37:43.805181 10845 net.cpp:157] Top shape: 100 8 13 13 (135200)
I0205 00:37:43.805186 10845 net.cpp:165] Memory required for data: 52008000
I0205 00:37:43.805193 10845 layer_factory.hpp:77] Creating layer relu4
I0205 00:37:43.805204 10845 net.cpp:106] Creating Layer relu4
I0205 00:37:43.805209 10845 net.cpp:454] relu4 <- conv4
I0205 00:37:43.805217 10845 net.cpp:397] relu4 -> conv4 (in-place)
I0205 00:37:43.805227 10845 net.cpp:150] Setting up relu4
I0205 00:37:43.805233 10845 net.cpp:157] Top shape: 100 8 13 13 (135200)
I0205 00:37:43.805238 10845 net.cpp:165] Memory required for data: 52548800
I0205 00:37:43.805244 10845 layer_factory.hpp:77] Creating layer conv5
I0205 00:37:43.805255 10845 net.cpp:106] Creating Layer conv5
I0205 00:37:43.805261 10845 net.cpp:454] conv5 <- conv4
I0205 00:37:43.805269 10845 net.cpp:411] conv5 -> conv5
I0205 00:37:43.805291 10845 net.cpp:150] Setting up conv5
I0205 00:37:43.805300 10845 net.cpp:157] Top shape: 100 8 13 13 (135200)
I0205 00:37:43.805306 10845 net.cpp:165] Memory required for data: 53089600
I0205 00:37:43.805317 10845 layer_factory.hpp:77] Creating layer relu5
I0205 00:37:43.805325 10845 net.cpp:106] Creating Layer relu5
I0205 00:37:43.805331 10845 net.cpp:454] relu5 <- conv5
I0205 00:37:43.805338 10845 net.cpp:397] relu5 -> conv5 (in-place)
I0205 00:37:43.805348 10845 net.cpp:150] Setting up relu5
I0205 00:37:43.805356 10845 net.cpp:157] Top shape: 100 8 13 13 (135200)
I0205 00:37:43.805361 10845 net.cpp:165] Memory required for data: 53630400
I0205 00:37:43.805366 10845 layer_factory.hpp:77] Creating layer pool5
I0205 00:37:43.805377 10845 net.cpp:106] Creating Layer pool5
I0205 00:37:43.805382 10845 net.cpp:454] pool5 <- conv5
I0205 00:37:43.805390 10845 net.cpp:411] pool5 -> pool5
I0205 00:37:43.805408 10845 net.cpp:150] Setting up pool5
I0205 00:37:43.805424 10845 net.cpp:157] Top shape: 100 8 6 6 (28800)
I0205 00:37:43.805429 10845 net.cpp:165] Memory required for data: 53745600
I0205 00:37:43.805435 10845 layer_factory.hpp:77] Creating layer fc6
I0205 00:37:43.805449 10845 net.cpp:106] Creating Layer fc6
I0205 00:37:43.805456 10845 net.cpp:454] fc6 <- pool5
I0205 00:37:43.805464 10845 net.cpp:411] fc6 -> fc6
I0205 00:37:43.806203 10845 net.cpp:150] Setting up fc6
I0205 00:37:43.806217 10845 net.cpp:157] Top shape: 100 256 (25600)
I0205 00:37:43.806222 10845 net.cpp:165] Memory required for data: 53848000
I0205 00:37:43.806231 10845 layer_factory.hpp:77] Creating layer relu6
I0205 00:37:43.806244 10845 net.cpp:106] Creating Layer relu6
I0205 00:37:43.806251 10845 net.cpp:454] relu6 <- fc6
I0205 00:37:43.806258 10845 net.cpp:397] relu6 -> fc6 (in-place)
I0205 00:37:43.806267 10845 net.cpp:150] Setting up relu6
I0205 00:37:43.806274 10845 net.cpp:157] Top shape: 100 256 (25600)
I0205 00:37:43.806279 10845 net.cpp:165] Memory required for data: 53950400
I0205 00:37:43.806285 10845 layer_factory.hpp:77] Creating layer drop6
I0205 00:37:43.806303 10845 net.cpp:106] Creating Layer drop6
I0205 00:37:43.806309 10845 net.cpp:454] drop6 <- fc6
I0205 00:37:43.806323 10845 net.cpp:397] drop6 -> fc6 (in-place)
I0205 00:37:43.806334 10845 net.cpp:150] Setting up drop6
I0205 00:37:43.806341 10845 net.cpp:157] Top shape: 100 256 (25600)
I0205 00:37:43.806346 10845 net.cpp:165] Memory required for data: 54052800
I0205 00:37:43.806352 10845 layer_factory.hpp:77] Creating layer fc7
I0205 00:37:43.806363 10845 net.cpp:106] Creating Layer fc7
I0205 00:37:43.806370 10845 net.cpp:454] fc7 <- fc6
I0205 00:37:43.806380 10845 net.cpp:411] fc7 -> fc7
I0205 00:37:43.807132 10845 net.cpp:150] Setting up fc7
I0205 00:37:43.807147 10845 net.cpp:157] Top shape: 100 256 (25600)
I0205 00:37:43.807152 10845 net.cpp:165] Memory required for data: 54155200
I0205 00:37:43.807160 10845 layer_factory.hpp:77] Creating layer relu7
I0205 00:37:43.807173 10845 net.cpp:106] Creating Layer relu7
I0205 00:37:43.807180 10845 net.cpp:454] relu7 <- fc7
I0205 00:37:43.807188 10845 net.cpp:397] relu7 -> fc7 (in-place)
I0205 00:37:43.807196 10845 net.cpp:150] Setting up relu7
I0205 00:37:43.807202 10845 net.cpp:157] Top shape: 100 256 (25600)
I0205 00:37:43.807210 10845 net.cpp:165] Memory required for data: 54257600
I0205 00:37:43.807216 10845 layer_factory.hpp:77] Creating layer drop7
I0205 00:37:43.807224 10845 net.cpp:106] Creating Layer drop7
I0205 00:37:43.807230 10845 net.cpp:454] drop7 <- fc7
I0205 00:37:43.807237 10845 net.cpp:397] drop7 -> fc7 (in-place)
I0205 00:37:43.807246 10845 net.cpp:150] Setting up drop7
I0205 00:37:43.807253 10845 net.cpp:157] Top shape: 100 256 (25600)
I0205 00:37:43.807258 10845 net.cpp:165] Memory required for data: 54360000
I0205 00:37:43.807265 10845 layer_factory.hpp:77] Creating layer fc8
I0205 00:37:43.807276 10845 net.cpp:106] Creating Layer fc8
I0205 00:37:43.807282 10845 net.cpp:454] fc8 <- fc7
I0205 00:37:43.807296 10845 net.cpp:411] fc8 -> fc8
I0205 00:37:43.807323 10845 net.cpp:150] Setting up fc8
I0205 00:37:43.807332 10845 net.cpp:157] Top shape: 100 2 (200)
I0205 00:37:43.807337 10845 net.cpp:165] Memory required for data: 54360800
I0205 00:37:43.807345 10845 layer_factory.hpp:77] Creating layer fc8_fc8_0_split
I0205 00:37:43.807353 10845 net.cpp:106] Creating Layer fc8_fc8_0_split
I0205 00:37:43.807361 10845 net.cpp:454] fc8_fc8_0_split <- fc8
I0205 00:37:43.807368 10845 net.cpp:411] fc8_fc8_0_split -> fc8_fc8_0_split_0
I0205 00:37:43.807377 10845 net.cpp:411] fc8_fc8_0_split -> fc8_fc8_0_split_1
I0205 00:37:43.807389 10845 net.cpp:150] Setting up fc8_fc8_0_split
I0205 00:37:43.807396 10845 net.cpp:157] Top shape: 100 2 (200)
I0205 00:37:43.807402 10845 net.cpp:157] Top shape: 100 2 (200)
I0205 00:37:43.807407 10845 net.cpp:165] Memory required for data: 54362400
I0205 00:37:43.807413 10845 layer_factory.hpp:77] Creating layer accuracy
I0205 00:37:43.807426 10845 net.cpp:106] Creating Layer accuracy
I0205 00:37:43.807440 10845 net.cpp:454] accuracy <- fc8_fc8_0_split_0
I0205 00:37:43.807457 10845 net.cpp:454] accuracy <- label_data_1_split_0
I0205 00:37:43.807469 10845 net.cpp:411] accuracy -> accuracy
…
