…
I0205 07:15:44.030798 12957 net.cpp:322] The NetState phase (0) differed from the phase (1) specified by a rule in layer accuracy
I0205 07:15:44.031049 12957 net.cpp:49] Initializing net from parameters: 
name: "CaffeNet"
state {
  phase: TRAIN
}
layer {
  name: "data"
  type: "Data"
  top: "data"
  top: "label"
  include {
    phase: TRAIN
  }
  transform_param {
    mirror: true
    crop_size: 227
    mean_file: "/home/pearlstl/proj_cv/master/lmdb/synth1_train_lum_db/mean_file.binaryproto"
  }
  data_param {
    source: "/home/pearlstl/proj_cv/master/lmdb/synth1_train_lum_db"
    batch_size: 100
    backend: LMDB
  }
}
layer {
  name: "conv1"
  type: "Convolution"
  bottom: "data"
  top: "conv1"
  param {
    lr_mult: 1
    decay_mult: 1
  }
  param {
    lr_mult: 2
    decay_mult: 0
  }
  convolution_param {
    num_output: 8
    kernel_size: 11
    stride: 4
    weight_filler {
      type: "xavier"
    }
    bias_filler {
      type: "constant"
      value: 0
    }
  }
}
layer {
  name: "relu1"
  type: "ReLU"
  bottom: "conv1"
  top: "conv1"
}
layer {
  name: "pool1"
  type: "Pooling"
  bottom: "conv1"
  top: "pool1"
  pooling_param {
    pool: MAX
    kernel_size: 3
    stride: 2
  }
}
layer {
  name: "norm1"
  type: "LRN"
  bottom: "pool1"
  top: "norm1"
  lrn_param {
    local_size: 5
    alpha: 0.0001
    beta: 0.75
  }
}
layer {
  name: "conv2"
  type: "Convolution"
  bottom: "norm1"
  top: "conv2"
  param {
    lr_mult: 1
    decay_mult: 1
  }
  param {
    lr_mult: 2
    decay_mult: 0
  }
  convolution_param {
    num_output: 8
    pad: 2
    kernel_size: 5
    group: 2
    weight_filler {
      type: "xavier"
    }
    bias_filler {
      type: "constant"
      value: 1
    }
  }
}
layer {
  name: "relu2"
  type: "ReLU"
  bottom: "conv2"
  top: "conv2"
}
layer {
  name: "pool2"
  type: "Pooling"
  bottom: "conv2"
  top: "pool2"
  pooling_param {
    pool: MAX
    kernel_size: 3
    stride: 2
  }
}
layer {
  name: "norm2"
  type: "LRN"
  bottom: "pool2"
  top: "norm2"
  lrn_param {
    local_size: 5
    alpha: 0.0001
    beta: 0.75
  }
}
layer {
  name: "conv3"
  type: "Convolution"
  bottom: "norm2"
  top: "conv3"
  param {
    lr_mult: 1
    decay_mult: 1
  }
  param {
    lr_mult: 2
    decay_mult: 0
  }
  convolution_param {
    num_output: 8
    pad: 1
    kernel_size: 3
    weight_filler {
      type: "xavier"
    }
    bias_filler {
      type: "constant"
      value: 0
    }
  }
}
layer {
  name: "relu3"
  type: "ReLU"
  bottom: "conv3"
  top: "conv3"
}
layer {
  name: "conv4"
  type: "Convolution"
  bottom: "conv3"
  top: "conv4"
  param {
    lr_mult: 1
    decay_mult: 1
  }
  param {
    lr_mult: 2
    decay_mult: 0
  }
  convolution_param {
    num_output: 8
    pad: 1
    kernel_size: 3
    group: 2
    weight_filler {
      type: "xavier"
    }
    bias_filler {
      type: "constant"
      value: 1
    }
  }
}
layer {
  name: "relu4"
  type: "ReLU"
  bottom: "conv4"
  top: "conv4"
}
layer {
  name: "conv5"
  type: "Convolution"
  bottom: "conv4"
  top: "conv5"
  param {
    lr_mult: 1
    decay_mult: 1
  }
  param {
    lr_mult: 2
    decay_mult: 0
  }
  convolution_param {
    num_output: 8
    pad: 1
    kernel_size: 3
    group: 2
    weight_filler {
      type: "xavier"
    }
    bias_filler {
      type: "constant"
      value: 1
    }
  }
}
layer {
  name: "relu5"
  type: "ReLU"
  bottom: "conv5"
  top: "conv5"
}
layer {
  name: "pool5"
  type: "Pooling"
  bottom: "conv5"
  top: "pool5"
  pooling_param {
    pool: MAX
    kernel_size: 3
    stride: 2
  }
}
layer {
  name: "fc6"
  type: "InnerProduct"
  bottom: "pool5"
  top: "fc6"
  param {
    lr_mult: 1
    decay_mult: 1
  }
  param {
    lr_mult: 2
    decay_mult: 0
  }
  inner_product_param {
    num_output: 256
    weight_filler {
      type: "xavier"
    }
    bias_filler {
      type: "constant"
      value: 1
    }
  }
}
layer {
  name: "relu6"
  type: "ReLU"
  bottom: "fc6"
  top: "fc6"
}
layer {
  name: "drop6"
  type: "Dropout"
  bottom: "fc6"
  top: "fc6"
  dropout_param {
    dropout_ratio: 0.5
  }
}
layer {
  name: "fc7"
  type: "InnerProduct"
  bottom: "fc6"
  top: "fc7"
  param {
    lr_mult: 1
    decay_mult: 1
  }
  param {
    lr_mult: 2
    decay_mult: 0
  }
  inner_product_param {
    num_output: 256
    weight_filler {
      type: "xavier"
    }
    bias_filler {
      type: "constant"
      value: 1
    }
  }
}
layer {
  name: "relu7"
  type: "ReLU"
  bottom: "fc7"
  top: "fc7"
}
layer {
  name: "drop7"
  type: "Dropout"
  bottom: "fc7"
  top: "fc7"
  dropout_param {
    dropout_ratio: 0.5
  }
}
layer {
  name: "fc8"
  type: "InnerProduct"
  bottom: "fc7"
  top: "fc8"
  param {
    lr_mult: 1
    decay_mult: 1
  }
  param {
    lr_mult: 2
    decay_mult: 0
  }
  inner_product_param {
    num_output: 2
    weight_filler {
      type: "xavier"
    }
    bias_filler {
      type: "constant"
      value: 0
    }
  }
}
layer {
  name: "loss"
  type: "SoftmaxWithLoss"
  bottom: "fc8"
  bottom: "label"
  top: "loss"
}
I0205 07:15:44.031206 12957 layer_factory.hpp:77] Creating layer data
I0205 07:15:44.031395 12957 net.cpp:106] Creating Layer data
I0205 07:15:44.031414 12957 net.cpp:411] data -> data
I0205 07:15:44.031496 12957 net.cpp:411] data -> label
I0205 07:15:44.031519 12957 data_transformer.cpp:25] Loading mean file from: /home/pearlstl/proj_cv/master/lmdb/synth1_train_lum_db/mean_file.binaryproto
I0205 07:15:44.031674 12958 db_lmdb.cpp:38] Opened lmdb /home/pearlstl/proj_cv/master/lmdb/synth1_train_lum_db
I0205 07:15:44.032601 12957 data_layer.cpp:41] output data size: 100,1,227,227
I0205 07:15:44.063905 12957 net.cpp:150] Setting up data
I0205 07:15:44.063974 12957 net.cpp:157] Top shape: 100 1 227 227 (5152900)
I0205 07:15:44.063984 12957 net.cpp:157] Top shape: 100 (100)
I0205 07:15:44.063992 12957 net.cpp:165] Memory required for data: 20612000
I0205 07:15:44.064010 12957 layer_factory.hpp:77] Creating layer conv1
I0205 07:15:44.064046 12957 net.cpp:106] Creating Layer conv1
I0205 07:15:44.064056 12957 net.cpp:454] conv1 <- data
I0205 07:15:44.064080 12957 net.cpp:411] conv1 -> conv1
I0205 07:15:44.064204 12957 net.cpp:150] Setting up conv1
I0205 07:15:44.064218 12957 net.cpp:157] Top shape: 100 8 55 55 (2420000)
I0205 07:15:44.064224 12957 net.cpp:165] Memory required for data: 30292000
I0205 07:15:44.064242 12957 layer_factory.hpp:77] Creating layer relu1
I0205 07:15:44.064256 12957 net.cpp:106] Creating Layer relu1
I0205 07:15:44.064263 12957 net.cpp:454] relu1 <- conv1
I0205 07:15:44.064272 12957 net.cpp:397] relu1 -> conv1 (in-place)
I0205 07:15:44.064286 12957 net.cpp:150] Setting up relu1
I0205 07:15:44.064294 12957 net.cpp:157] Top shape: 100 8 55 55 (2420000)
I0205 07:15:44.064299 12957 net.cpp:165] Memory required for data: 39972000
I0205 07:15:44.064306 12957 layer_factory.hpp:77] Creating layer pool1
I0205 07:15:44.064317 12957 net.cpp:106] Creating Layer pool1
I0205 07:15:44.064323 12957 net.cpp:454] pool1 <- conv1
I0205 07:15:44.064332 12957 net.cpp:411] pool1 -> pool1
I0205 07:15:44.064358 12957 net.cpp:150] Setting up pool1
I0205 07:15:44.064368 12957 net.cpp:157] Top shape: 100 8 27 27 (583200)
I0205 07:15:44.064373 12957 net.cpp:165] Memory required for data: 42304800
I0205 07:15:44.064380 12957 layer_factory.hpp:77] Creating layer norm1
I0205 07:15:44.064404 12957 net.cpp:106] Creating Layer norm1
I0205 07:15:44.064419 12957 net.cpp:454] norm1 <- pool1
I0205 07:15:44.064429 12957 net.cpp:411] norm1 -> norm1
I0205 07:15:44.064447 12957 net.cpp:150] Setting up norm1
I0205 07:15:44.064455 12957 net.cpp:157] Top shape: 100 8 27 27 (583200)
I0205 07:15:44.064460 12957 net.cpp:165] Memory required for data: 44637600
I0205 07:15:44.064466 12957 layer_factory.hpp:77] Creating layer conv2
I0205 07:15:44.064478 12957 net.cpp:106] Creating Layer conv2
I0205 07:15:44.064484 12957 net.cpp:454] conv2 <- norm1
I0205 07:15:44.064492 12957 net.cpp:411] conv2 -> conv2
I0205 07:15:44.064527 12957 net.cpp:150] Setting up conv2
I0205 07:15:44.064535 12957 net.cpp:157] Top shape: 100 8 27 27 (583200)
I0205 07:15:44.064540 12957 net.cpp:165] Memory required for data: 46970400
I0205 07:15:44.064551 12957 layer_factory.hpp:77] Creating layer relu2
I0205 07:15:44.064559 12957 net.cpp:106] Creating Layer relu2
I0205 07:15:44.064565 12957 net.cpp:454] relu2 <- conv2
I0205 07:15:44.064573 12957 net.cpp:397] relu2 -> conv2 (in-place)
I0205 07:15:44.064581 12957 net.cpp:150] Setting up relu2
I0205 07:15:44.064589 12957 net.cpp:157] Top shape: 100 8 27 27 (583200)
I0205 07:15:44.064594 12957 net.cpp:165] Memory required for data: 49303200
I0205 07:15:44.064599 12957 layer_factory.hpp:77] Creating layer pool2
I0205 07:15:44.064606 12957 net.cpp:106] Creating Layer pool2
I0205 07:15:44.064612 12957 net.cpp:454] pool2 <- conv2
I0205 07:15:44.064620 12957 net.cpp:411] pool2 -> pool2
I0205 07:15:44.064630 12957 net.cpp:150] Setting up pool2
I0205 07:15:44.064636 12957 net.cpp:157] Top shape: 100 8 13 13 (135200)
I0205 07:15:44.064645 12957 net.cpp:165] Memory required for data: 49844000
I0205 07:15:44.064651 12957 layer_factory.hpp:77] Creating layer norm2
I0205 07:15:44.064661 12957 net.cpp:106] Creating Layer norm2
I0205 07:15:44.064666 12957 net.cpp:454] norm2 <- pool2
I0205 07:15:44.064676 12957 net.cpp:411] norm2 -> norm2
I0205 07:15:44.064684 12957 net.cpp:150] Setting up norm2
I0205 07:15:44.064692 12957 net.cpp:157] Top shape: 100 8 13 13 (135200)
I0205 07:15:44.064697 12957 net.cpp:165] Memory required for data: 50384800
I0205 07:15:44.064702 12957 layer_factory.hpp:77] Creating layer conv3
I0205 07:15:44.064713 12957 net.cpp:106] Creating Layer conv3
I0205 07:15:44.064718 12957 net.cpp:454] conv3 <- norm2
I0205 07:15:44.064726 12957 net.cpp:411] conv3 -> conv3
I0205 07:15:44.064754 12957 net.cpp:150] Setting up conv3
I0205 07:15:44.064761 12957 net.cpp:157] Top shape: 100 8 13 13 (135200)
I0205 07:15:44.064766 12957 net.cpp:165] Memory required for data: 50925600
I0205 07:15:44.064779 12957 layer_factory.hpp:77] Creating layer relu3
I0205 07:15:44.064788 12957 net.cpp:106] Creating Layer relu3
I0205 07:15:44.064795 12957 net.cpp:454] relu3 <- conv3
I0205 07:15:44.064802 12957 net.cpp:397] relu3 -> conv3 (in-place)
I0205 07:15:44.064810 12957 net.cpp:150] Setting up relu3
I0205 07:15:44.064816 12957 net.cpp:157] Top shape: 100 8 13 13 (135200)
I0205 07:15:44.064822 12957 net.cpp:165] Memory required for data: 51466400
I0205 07:15:44.064827 12957 layer_factory.hpp:77] Creating layer conv4
I0205 07:15:44.064838 12957 net.cpp:106] Creating Layer conv4
I0205 07:15:44.064844 12957 net.cpp:454] conv4 <- conv3
I0205 07:15:44.064851 12957 net.cpp:411] conv4 -> conv4
I0205 07:15:44.064874 12957 net.cpp:150] Setting up conv4
I0205 07:15:44.064882 12957 net.cpp:157] Top shape: 100 8 13 13 (135200)
I0205 07:15:44.064888 12957 net.cpp:165] Memory required for data: 52007200
I0205 07:15:44.064895 12957 layer_factory.hpp:77] Creating layer relu4
I0205 07:15:44.064905 12957 net.cpp:106] Creating Layer relu4
I0205 07:15:44.064911 12957 net.cpp:454] relu4 <- conv4
I0205 07:15:44.064919 12957 net.cpp:397] relu4 -> conv4 (in-place)
I0205 07:15:44.064927 12957 net.cpp:150] Setting up relu4
I0205 07:15:44.064935 12957 net.cpp:157] Top shape: 100 8 13 13 (135200)
I0205 07:15:44.064940 12957 net.cpp:165] Memory required for data: 52548000
I0205 07:15:44.064946 12957 layer_factory.hpp:77] Creating layer conv5
I0205 07:15:44.064961 12957 net.cpp:106] Creating Layer conv5
I0205 07:15:44.064975 12957 net.cpp:454] conv5 <- conv4
I0205 07:15:44.064982 12957 net.cpp:411] conv5 -> conv5
I0205 07:15:44.065003 12957 net.cpp:150] Setting up conv5
I0205 07:15:44.065011 12957 net.cpp:157] Top shape: 100 8 13 13 (135200)
I0205 07:15:44.065016 12957 net.cpp:165] Memory required for data: 53088800
I0205 07:15:44.065029 12957 layer_factory.hpp:77] Creating layer relu5
I0205 07:15:44.065038 12957 net.cpp:106] Creating Layer relu5
I0205 07:15:44.065044 12957 net.cpp:454] relu5 <- conv5
I0205 07:15:44.065052 12957 net.cpp:397] relu5 -> conv5 (in-place)
I0205 07:15:44.065059 12957 net.cpp:150] Setting up relu5
I0205 07:15:44.065067 12957 net.cpp:157] Top shape: 100 8 13 13 (135200)
I0205 07:15:44.065071 12957 net.cpp:165] Memory required for data: 53629600
I0205 07:15:44.065078 12957 layer_factory.hpp:77] Creating layer pool5
I0205 07:15:44.065084 12957 net.cpp:106] Creating Layer pool5
I0205 07:15:44.065105 12957 net.cpp:454] pool5 <- conv5
I0205 07:15:44.065114 12957 net.cpp:411] pool5 -> pool5
I0205 07:15:44.065125 12957 net.cpp:150] Setting up pool5
I0205 07:15:44.065134 12957 net.cpp:157] Top shape: 100 8 6 6 (28800)
I0205 07:15:44.065138 12957 net.cpp:165] Memory required for data: 53744800
I0205 07:15:44.065145 12957 layer_factory.hpp:77] Creating layer fc6
I0205 07:15:44.065161 12957 net.cpp:106] Creating Layer fc6
I0205 07:15:44.065167 12957 net.cpp:454] fc6 <- pool5
I0205 07:15:44.065176 12957 net.cpp:411] fc6 -> fc6
I0205 07:15:44.065980 12957 net.cpp:150] Setting up fc6
I0205 07:15:44.065995 12957 net.cpp:157] Top shape: 100 256 (25600)
I0205 07:15:44.066000 12957 net.cpp:165] Memory required for data: 53847200
I0205 07:15:44.066009 12957 layer_factory.hpp:77] Creating layer relu6
I0205 07:15:44.066018 12957 net.cpp:106] Creating Layer relu6
I0205 07:15:44.066025 12957 net.cpp:454] relu6 <- fc6
I0205 07:15:44.066033 12957 net.cpp:397] relu6 -> fc6 (in-place)
I0205 07:15:44.066041 12957 net.cpp:150] Setting up relu6
I0205 07:15:44.066048 12957 net.cpp:157] Top shape: 100 256 (25600)
I0205 07:15:44.066054 12957 net.cpp:165] Memory required for data: 53949600
I0205 07:15:44.066059 12957 layer_factory.hpp:77] Creating layer drop6
I0205 07:15:44.066071 12957 net.cpp:106] Creating Layer drop6
I0205 07:15:44.066076 12957 net.cpp:454] drop6 <- fc6
I0205 07:15:44.066083 12957 net.cpp:397] drop6 -> fc6 (in-place)
I0205 07:15:44.066108 12957 net.cpp:150] Setting up drop6
I0205 07:15:44.066117 12957 net.cpp:157] Top shape: 100 256 (25600)
I0205 07:15:44.066123 12957 net.cpp:165] Memory required for data: 54052000
I0205 07:15:44.066129 12957 layer_factory.hpp:77] Creating layer fc7
I0205 07:15:44.066139 12957 net.cpp:106] Creating Layer fc7
I0205 07:15:44.066145 12957 net.cpp:454] fc7 <- fc6
I0205 07:15:44.066154 12957 net.cpp:411] fc7 -> fc7
I0205 07:15:44.066853 12957 net.cpp:150] Setting up fc7
I0205 07:15:44.066864 12957 net.cpp:157] Top shape: 100 256 (25600)
I0205 07:15:44.066869 12957 net.cpp:165] Memory required for data: 54154400
I0205 07:15:44.066877 12957 layer_factory.hpp:77] Creating layer relu7
I0205 07:15:44.066885 12957 net.cpp:106] Creating Layer relu7
I0205 07:15:44.066891 12957 net.cpp:454] relu7 <- fc7
I0205 07:15:44.066900 12957 net.cpp:397] relu7 -> fc7 (in-place)
I0205 07:15:44.066907 12957 net.cpp:150] Setting up relu7
I0205 07:15:44.066915 12957 net.cpp:157] Top shape: 100 256 (25600)
I0205 07:15:44.066920 12957 net.cpp:165] Memory required for data: 54256800
I0205 07:15:44.066926 12957 layer_factory.hpp:77] Creating layer drop7
I0205 07:15:44.066937 12957 net.cpp:106] Creating Layer drop7
I0205 07:15:44.066946 12957 net.cpp:454] drop7 <- fc7
I0205 07:15:44.066953 12957 net.cpp:397] drop7 -> fc7 (in-place)
I0205 07:15:44.066963 12957 net.cpp:150] Setting up drop7
I0205 07:15:44.066970 12957 net.cpp:157] Top shape: 100 256 (25600)
I0205 07:15:44.066975 12957 net.cpp:165] Memory required for data: 54359200
I0205 07:15:44.066982 12957 layer_factory.hpp:77] Creating layer fc8
I0205 07:15:44.066993 12957 net.cpp:106] Creating Layer fc8
I0205 07:15:44.067003 12957 net.cpp:454] fc8 <- fc7
I0205 07:15:44.067018 12957 net.cpp:411] fc8 -> fc8
I0205 07:15:44.067042 12957 net.cpp:150] Setting up fc8
I0205 07:15:44.067050 12957 net.cpp:157] Top shape: 100 2 (200)
I0205 07:15:44.067055 12957 net.cpp:165] Memory required for data: 54360000
I0205 07:15:44.067064 12957 layer_factory.hpp:77] Creating layer loss
I0205 07:15:44.067075 12957 net.cpp:106] Creating Layer loss
I0205 07:15:44.067080 12957 net.cpp:454] loss <- fc8
I0205 07:15:44.067087 12957 net.cpp:454] loss <- label
I0205 07:15:44.067104 12957 net.cpp:411] loss -> loss
I0205 07:15:44.067121 12957 layer_factory.hpp:77] Creating layer loss
…
I0205 07:15:44.068203 12957 net.cpp:322] The NetState phase (1) differed from the phase (0) specified by a rule in layer data
I0205 07:15:44.068503 12957 net.cpp:49] Initializing net from parameters: 
name: "CaffeNet"
state {
  phase: TEST
}
layer {
  name: "data"
  type: "Data"
  top: "data"
  top: "label"
  include {
    phase: TEST
  }
  transform_param {
    mirror: false
    crop_size: 227
    mean_file: "/home/pearlstl/proj_cv/master/lmdb/synth1_test_lum_db/mean_file.binaryproto"
  }
  data_param {
    source: "/home/pearlstl/proj_cv/master/lmdb/synth1_test_lum_db"
    batch_size: 100
    backend: LMDB
  }
}
layer {
  name: "conv1"
  type: "Convolution"
  bottom: "data"
  top: "conv1"
  param {
    lr_mult: 1
    decay_mult: 1
  }
  param {
    lr_mult: 2
    decay_mult: 0
  }
  convolution_param {
    num_output: 8
    kernel_size: 11
    stride: 4
    weight_filler {
      type: "xavier"
    }
    bias_filler {
      type: "constant"
      value: 0
    }
  }
}
layer {
  name: "relu1"
  type: "ReLU"
  bottom: "conv1"
  top: "conv1"
}
layer {
  name: "pool1"
  type: "Pooling"
  bottom: "conv1"
  top: "pool1"
  pooling_param {
    pool: MAX
    kernel_size: 3
    stride: 2
  }
}
layer {
  name: "norm1"
  type: "LRN"
  bottom: "pool1"
  top: "norm1"
  lrn_param {
    local_size: 5
    alpha: 0.0001
    beta: 0.75
  }
}
layer {
  name: "conv2"
  type: "Convolution"
  bottom: "norm1"
  top: "conv2"
  param {
    lr_mult: 1
    decay_mult: 1
  }
  param {
    lr_mult: 2
    decay_mult: 0
  }
  convolution_param {
    num_output: 8
    pad: 2
    kernel_size: 5
    group: 2
    weight_filler {
      type: "xavier"
    }
    bias_filler {
      type: "constant"
      value: 1
    }
  }
}
layer {
  name: "relu2"
  type: "ReLU"
  bottom: "conv2"
  top: "conv2"
}
layer {
  name: "pool2"
  type: "Pooling"
  bottom: "conv2"
  top: "pool2"
  pooling_param {
    pool: MAX
    kernel_size: 3
    stride: 2
  }
}
layer {
  name: "norm2"
  type: "LRN"
  bottom: "pool2"
  top: "norm2"
  lrn_param {
    local_size: 5
    alpha: 0.0001
    beta: 0.75
  }
}
layer {
  name: "conv3"
  type: "Convolution"
  bottom: "norm2"
  top: "conv3"
  param {
    lr_mult: 1
    decay_mult: 1
  }
  param {
    lr_mult: 2
    decay_mult: 0
  }
  convolution_param {
    num_output: 8
    pad: 1
    kernel_size: 3
    weight_filler {
      type: "xavier"
    }
    bias_filler {
      type: "constant"
      value: 0
    }
  }
}
layer {
  name: "relu3"
  type: "ReLU"
  bottom: "conv3"
  top: "conv3"
}
layer {
  name: "conv4"
  type: "Convolution"
  bottom: "conv3"
  top: "conv4"
  param {
    lr_mult: 1
    decay_mult: 1
  }
  param {
    lr_mult: 2
    decay_mult: 0
  }
  convolution_param {
    num_output: 8
    pad: 1
    kernel_size: 3
    group: 2
    weight_filler {
      type: "xavier"
    }
    bias_filler {
      type: "constant"
      value: 1
    }
  }
}
layer {
  name: "relu4"
  type: "ReLU"
  bottom: "conv4"
  top: "conv4"
}
layer {
  name: "conv5"
  type: "Convolution"
  bottom: "conv4"
  top: "conv5"
  param {
    lr_mult: 1
    decay_mult: 1
  }
  param {
    lr_mult: 2
    decay_mult: 0
  }
  convolution_param {
    num_output: 8
    pad: 1
    kernel_size: 3
    group: 2
    weight_filler {
      type: "xavier"
    }
    bias_filler {
      type: "constant"
      value: 1
    }
  }
}
layer {
  name: "relu5"
  type: "ReLU"
  bottom: "conv5"
  top: "conv5"
}
layer {
  name: "pool5"
  type: "Pooling"
  bottom: "conv5"
  top: "pool5"
  pooling_param {
    pool: MAX
    kernel_size: 3
    stride: 2
  }
}
layer {
  name: "fc6"
  type: "InnerProduct"
  bottom: "pool5"
  top: "fc6"
  param {
    lr_mult: 1
    decay_mult: 1
  }
  param {
    lr_mult: 2
    decay_mult: 0
  }
  inner_product_param {
    num_output: 256
    weight_filler {
      type: "xavier"
    }
    bias_filler {
      type: "constant"
      value: 1
    }
  }
}
layer {
  name: "relu6"
  type: "ReLU"
  bottom: "fc6"
  top: "fc6"
}
layer {
  name: "drop6"
  type: "Dropout"
  bottom: "fc6"
  top: "fc6"
  dropout_param {
    dropout_ratio: 0.5
  }
}
layer {
  name: "fc7"
  type: "InnerProduct"
  bottom: "fc6"
  top: "fc7"
  param {
    lr_mult: 1
    decay_mult: 1
  }
  param {
    lr_mult: 2
    decay_mult: 0
  }
  inner_product_param {
    num_output: 256
    weight_filler {
      type: "xavier"
    }
    bias_filler {
      type: "constant"
      value: 1
    }
  }
}
layer {
  name: "relu7"
  type: "ReLU"
  bottom: "fc7"
  top: "fc7"
}
layer {
  name: "drop7"
  type: "Dropout"
  bottom: "fc7"
  top: "fc7"
  dropout_param {
    dropout_ratio: 0.5
  }
}
layer {
  name: "fc8"
  type: "InnerProduct"
  bottom: "fc7"
  top: "fc8"
  param {
    lr_mult: 1
    decay_mult: 1
  }
  param {
    lr_mult: 2
    decay_mult: 0
  }
  inner_product_param {
    num_output: 2
    weight_filler {
      type: "xavier"
    }
    bias_filler {
      type: "constant"
      value: 0
    }
  }
}
layer {
  name: "accuracy"
  type: "Accuracy"
  bottom: "fc8"
  bottom: "label"
  top: "accuracy"
  include {
    phase: TEST
  }
}
layer {
  name: "loss"
  type: "SoftmaxWithLoss"
  bottom: "fc8"
  bottom: "label"
  top: "loss"
}
I0205 07:15:44.068683 12957 layer_factory.hpp:77] Creating layer data
I0205 07:15:44.068850 12957 net.cpp:106] Creating Layer data
I0205 07:15:44.068864 12957 net.cpp:411] data -> data
I0205 07:15:44.068878 12957 net.cpp:411] data -> label
I0205 07:15:44.068889 12957 data_transformer.cpp:25] Loading mean file from: /home/pearlstl/proj_cv/master/lmdb/synth1_test_lum_db/mean_file.binaryproto
I0205 07:15:44.069118 12961 db_lmdb.cpp:38] Opened lmdb /home/pearlstl/proj_cv/master/lmdb/synth1_test_lum_db
I0205 07:15:44.069829 12957 data_layer.cpp:41] output data size: 100,1,227,227
I0205 07:15:44.099052 12957 net.cpp:150] Setting up data
I0205 07:15:44.099102 12957 net.cpp:157] Top shape: 100 1 227 227 (5152900)
I0205 07:15:44.099112 12957 net.cpp:157] Top shape: 100 (100)
I0205 07:15:44.099119 12957 net.cpp:165] Memory required for data: 20612000
I0205 07:15:44.099131 12957 layer_factory.hpp:77] Creating layer label_data_1_split
I0205 07:15:44.099153 12957 net.cpp:106] Creating Layer label_data_1_split
I0205 07:15:44.099161 12957 net.cpp:454] label_data_1_split <- label
I0205 07:15:44.099174 12957 net.cpp:411] label_data_1_split -> label_data_1_split_0
I0205 07:15:44.099190 12957 net.cpp:411] label_data_1_split -> label_data_1_split_1
I0205 07:15:44.099205 12957 net.cpp:150] Setting up label_data_1_split
I0205 07:15:44.099215 12957 net.cpp:157] Top shape: 100 (100)
I0205 07:15:44.099220 12957 net.cpp:157] Top shape: 100 (100)
I0205 07:15:44.099225 12957 net.cpp:165] Memory required for data: 20612800
I0205 07:15:44.099231 12957 layer_factory.hpp:77] Creating layer conv1
I0205 07:15:44.099248 12957 net.cpp:106] Creating Layer conv1
I0205 07:15:44.099254 12957 net.cpp:454] conv1 <- data
I0205 07:15:44.099264 12957 net.cpp:411] conv1 -> conv1
I0205 07:15:44.099319 12957 net.cpp:150] Setting up conv1
I0205 07:15:44.099329 12957 net.cpp:157] Top shape: 100 8 55 55 (2420000)
I0205 07:15:44.099335 12957 net.cpp:165] Memory required for data: 30292800
I0205 07:15:44.099349 12957 layer_factory.hpp:77] Creating layer relu1
I0205 07:15:44.099361 12957 net.cpp:106] Creating Layer relu1
I0205 07:15:44.099369 12957 net.cpp:454] relu1 <- conv1
I0205 07:15:44.099377 12957 net.cpp:397] relu1 -> conv1 (in-place)
I0205 07:15:44.099386 12957 net.cpp:150] Setting up relu1
I0205 07:15:44.099393 12957 net.cpp:157] Top shape: 100 8 55 55 (2420000)
I0205 07:15:44.099400 12957 net.cpp:165] Memory required for data: 39972800
I0205 07:15:44.099406 12957 layer_factory.hpp:77] Creating layer pool1
I0205 07:15:44.099416 12957 net.cpp:106] Creating Layer pool1
I0205 07:15:44.099422 12957 net.cpp:454] pool1 <- conv1
I0205 07:15:44.099431 12957 net.cpp:411] pool1 -> pool1
I0205 07:15:44.099445 12957 net.cpp:150] Setting up pool1
I0205 07:15:44.099452 12957 net.cpp:157] Top shape: 100 8 27 27 (583200)
I0205 07:15:44.099459 12957 net.cpp:165] Memory required for data: 42305600
I0205 07:15:44.099467 12957 layer_factory.hpp:77] Creating layer norm1
I0205 07:15:44.099478 12957 net.cpp:106] Creating Layer norm1
I0205 07:15:44.099483 12957 net.cpp:454] norm1 <- pool1
I0205 07:15:44.099491 12957 net.cpp:411] norm1 -> norm1
I0205 07:15:44.099504 12957 net.cpp:150] Setting up norm1
I0205 07:15:44.099512 12957 net.cpp:157] Top shape: 100 8 27 27 (583200)
I0205 07:15:44.099517 12957 net.cpp:165] Memory required for data: 44638400
I0205 07:15:44.099524 12957 layer_factory.hpp:77] Creating layer conv2
I0205 07:15:44.099534 12957 net.cpp:106] Creating Layer conv2
I0205 07:15:44.099539 12957 net.cpp:454] conv2 <- norm1
I0205 07:15:44.099550 12957 net.cpp:411] conv2 -> conv2
I0205 07:15:44.099580 12957 net.cpp:150] Setting up conv2
I0205 07:15:44.099587 12957 net.cpp:157] Top shape: 100 8 27 27 (583200)
I0205 07:15:44.099592 12957 net.cpp:165] Memory required for data: 46971200
I0205 07:15:44.099606 12957 layer_factory.hpp:77] Creating layer relu2
I0205 07:15:44.099616 12957 net.cpp:106] Creating Layer relu2
I0205 07:15:44.099622 12957 net.cpp:454] relu2 <- conv2
I0205 07:15:44.099629 12957 net.cpp:397] relu2 -> conv2 (in-place)
I0205 07:15:44.099649 12957 net.cpp:150] Setting up relu2
I0205 07:15:44.099668 12957 net.cpp:157] Top shape: 100 8 27 27 (583200)
I0205 07:15:44.099673 12957 net.cpp:165] Memory required for data: 49304000
I0205 07:15:44.099679 12957 layer_factory.hpp:77] Creating layer pool2
I0205 07:15:44.099689 12957 net.cpp:106] Creating Layer pool2
I0205 07:15:44.099695 12957 net.cpp:454] pool2 <- conv2
I0205 07:15:44.099704 12957 net.cpp:411] pool2 -> pool2
I0205 07:15:44.099716 12957 net.cpp:150] Setting up pool2
I0205 07:15:44.099723 12957 net.cpp:157] Top shape: 100 8 13 13 (135200)
I0205 07:15:44.099728 12957 net.cpp:165] Memory required for data: 49844800
I0205 07:15:44.099735 12957 layer_factory.hpp:77] Creating layer norm2
I0205 07:15:44.099743 12957 net.cpp:106] Creating Layer norm2
I0205 07:15:44.099751 12957 net.cpp:454] norm2 <- pool2
I0205 07:15:44.099761 12957 net.cpp:411] norm2 -> norm2
I0205 07:15:44.099771 12957 net.cpp:150] Setting up norm2
I0205 07:15:44.099777 12957 net.cpp:157] Top shape: 100 8 13 13 (135200)
I0205 07:15:44.099782 12957 net.cpp:165] Memory required for data: 50385600
I0205 07:15:44.099788 12957 layer_factory.hpp:77] Creating layer conv3
I0205 07:15:44.099802 12957 net.cpp:106] Creating Layer conv3
I0205 07:15:44.099807 12957 net.cpp:454] conv3 <- norm2
I0205 07:15:44.099817 12957 net.cpp:411] conv3 -> conv3
I0205 07:15:44.099843 12957 net.cpp:150] Setting up conv3
I0205 07:15:44.099851 12957 net.cpp:157] Top shape: 100 8 13 13 (135200)
I0205 07:15:44.099856 12957 net.cpp:165] Memory required for data: 50926400
I0205 07:15:44.099866 12957 layer_factory.hpp:77] Creating layer relu3
I0205 07:15:44.099875 12957 net.cpp:106] Creating Layer relu3
I0205 07:15:44.099881 12957 net.cpp:454] relu3 <- conv3
I0205 07:15:44.099889 12957 net.cpp:397] relu3 -> conv3 (in-place)
I0205 07:15:44.099900 12957 net.cpp:150] Setting up relu3
I0205 07:15:44.099906 12957 net.cpp:157] Top shape: 100 8 13 13 (135200)
I0205 07:15:44.099911 12957 net.cpp:165] Memory required for data: 51467200
I0205 07:15:44.099916 12957 layer_factory.hpp:77] Creating layer conv4
I0205 07:15:44.099927 12957 net.cpp:106] Creating Layer conv4
I0205 07:15:44.099932 12957 net.cpp:454] conv4 <- conv3
I0205 07:15:44.099941 12957 net.cpp:411] conv4 -> conv4
I0205 07:15:44.099964 12957 net.cpp:150] Setting up conv4
I0205 07:15:44.099974 12957 net.cpp:157] Top shape: 100 8 13 13 (135200)
I0205 07:15:44.099979 12957 net.cpp:165] Memory required for data: 52008000
I0205 07:15:44.099988 12957 layer_factory.hpp:77] Creating layer relu4
I0205 07:15:44.099997 12957 net.cpp:106] Creating Layer relu4
I0205 07:15:44.100003 12957 net.cpp:454] relu4 <- conv4
I0205 07:15:44.100009 12957 net.cpp:397] relu4 -> conv4 (in-place)
I0205 07:15:44.100018 12957 net.cpp:150] Setting up relu4
I0205 07:15:44.100025 12957 net.cpp:157] Top shape: 100 8 13 13 (135200)
I0205 07:15:44.100033 12957 net.cpp:165] Memory required for data: 52548800
I0205 07:15:44.100039 12957 layer_factory.hpp:77] Creating layer conv5
I0205 07:15:44.100051 12957 net.cpp:106] Creating Layer conv5
I0205 07:15:44.100057 12957 net.cpp:454] conv5 <- conv4
I0205 07:15:44.100066 12957 net.cpp:411] conv5 -> conv5
I0205 07:15:44.100087 12957 net.cpp:150] Setting up conv5
I0205 07:15:44.100100 12957 net.cpp:157] Top shape: 100 8 13 13 (135200)
I0205 07:15:44.100106 12957 net.cpp:165] Memory required for data: 53089600
I0205 07:15:44.100116 12957 layer_factory.hpp:77] Creating layer relu5
I0205 07:15:44.100124 12957 net.cpp:106] Creating Layer relu5
I0205 07:15:44.100132 12957 net.cpp:454] relu5 <- conv5
I0205 07:15:44.100142 12957 net.cpp:397] relu5 -> conv5 (in-place)
I0205 07:15:44.100149 12957 net.cpp:150] Setting up relu5
I0205 07:15:44.100157 12957 net.cpp:157] Top shape: 100 8 13 13 (135200)
I0205 07:15:44.100162 12957 net.cpp:165] Memory required for data: 53630400
I0205 07:15:44.100167 12957 layer_factory.hpp:77] Creating layer pool5
I0205 07:15:44.100178 12957 net.cpp:106] Creating Layer pool5
I0205 07:15:44.100183 12957 net.cpp:454] pool5 <- conv5
I0205 07:15:44.100193 12957 net.cpp:411] pool5 -> pool5
I0205 07:15:44.100210 12957 net.cpp:150] Setting up pool5
I0205 07:15:44.100227 12957 net.cpp:157] Top shape: 100 8 6 6 (28800)
I0205 07:15:44.100234 12957 net.cpp:165] Memory required for data: 53745600
I0205 07:15:44.100239 12957 layer_factory.hpp:77] Creating layer fc6
I0205 07:15:44.100250 12957 net.cpp:106] Creating Layer fc6
I0205 07:15:44.100256 12957 net.cpp:454] fc6 <- pool5
I0205 07:15:44.100265 12957 net.cpp:411] fc6 -> fc6
I0205 07:15:44.100991 12957 net.cpp:150] Setting up fc6
I0205 07:15:44.101002 12957 net.cpp:157] Top shape: 100 256 (25600)
I0205 07:15:44.101007 12957 net.cpp:165] Memory required for data: 53848000
I0205 07:15:44.101016 12957 layer_factory.hpp:77] Creating layer relu6
I0205 07:15:44.101027 12957 net.cpp:106] Creating Layer relu6
I0205 07:15:44.101033 12957 net.cpp:454] relu6 <- fc6
I0205 07:15:44.101040 12957 net.cpp:397] relu6 -> fc6 (in-place)
I0205 07:15:44.101052 12957 net.cpp:150] Setting up relu6
I0205 07:15:44.101060 12957 net.cpp:157] Top shape: 100 256 (25600)
I0205 07:15:44.101065 12957 net.cpp:165] Memory required for data: 53950400
I0205 07:15:44.101070 12957 layer_factory.hpp:77] Creating layer drop6
I0205 07:15:44.101080 12957 net.cpp:106] Creating Layer drop6
I0205 07:15:44.101086 12957 net.cpp:454] drop6 <- fc6
I0205 07:15:44.101115 12957 net.cpp:397] drop6 -> fc6 (in-place)
I0205 07:15:44.101130 12957 net.cpp:150] Setting up drop6
I0205 07:15:44.101135 12957 net.cpp:157] Top shape: 100 256 (25600)
I0205 07:15:44.101140 12957 net.cpp:165] Memory required for data: 54052800
I0205 07:15:44.101146 12957 layer_factory.hpp:77] Creating layer fc7
I0205 07:15:44.101156 12957 net.cpp:106] Creating Layer fc7
I0205 07:15:44.101161 12957 net.cpp:454] fc7 <- fc6
I0205 07:15:44.101172 12957 net.cpp:411] fc7 -> fc7
I0205 07:15:44.101910 12957 net.cpp:150] Setting up fc7
I0205 07:15:44.101922 12957 net.cpp:157] Top shape: 100 256 (25600)
I0205 07:15:44.101927 12957 net.cpp:165] Memory required for data: 54155200
I0205 07:15:44.101934 12957 layer_factory.hpp:77] Creating layer relu7
I0205 07:15:44.101945 12957 net.cpp:106] Creating Layer relu7
I0205 07:15:44.101951 12957 net.cpp:454] relu7 <- fc7
I0205 07:15:44.101958 12957 net.cpp:397] relu7 -> fc7 (in-place)
I0205 07:15:44.101968 12957 net.cpp:150] Setting up relu7
I0205 07:15:44.101974 12957 net.cpp:157] Top shape: 100 256 (25600)
I0205 07:15:44.101980 12957 net.cpp:165] Memory required for data: 54257600
I0205 07:15:44.101986 12957 layer_factory.hpp:77] Creating layer drop7
I0205 07:15:44.101994 12957 net.cpp:106] Creating Layer drop7
I0205 07:15:44.102000 12957 net.cpp:454] drop7 <- fc7
I0205 07:15:44.102008 12957 net.cpp:397] drop7 -> fc7 (in-place)
I0205 07:15:44.102020 12957 net.cpp:150] Setting up drop7
I0205 07:15:44.102026 12957 net.cpp:157] Top shape: 100 256 (25600)
I0205 07:15:44.102031 12957 net.cpp:165] Memory required for data: 54360000
I0205 07:15:44.102037 12957 layer_factory.hpp:77] Creating layer fc8
I0205 07:15:44.102051 12957 net.cpp:106] Creating Layer fc8
I0205 07:15:44.102057 12957 net.cpp:454] fc8 <- fc7
I0205 07:15:44.102068 12957 net.cpp:411] fc8 -> fc8
I0205 07:15:44.102099 12957 net.cpp:150] Setting up fc8
I0205 07:15:44.102108 12957 net.cpp:157] Top shape: 100 2 (200)
I0205 07:15:44.102113 12957 net.cpp:165] Memory required for data: 54360800
I0205 07:15:44.102121 12957 layer_factory.hpp:77] Creating layer fc8_fc8_0_split
I0205 07:15:44.102129 12957 net.cpp:106] Creating Layer fc8_fc8_0_split
I0205 07:15:44.102135 12957 net.cpp:454] fc8_fc8_0_split <- fc8
I0205 07:15:44.102143 12957 net.cpp:411] fc8_fc8_0_split -> fc8_fc8_0_split_0
I0205 07:15:44.102151 12957 net.cpp:411] fc8_fc8_0_split -> fc8_fc8_0_split_1
I0205 07:15:44.102164 12957 net.cpp:150] Setting up fc8_fc8_0_split
I0205 07:15:44.102172 12957 net.cpp:157] Top shape: 100 2 (200)
I0205 07:15:44.102179 12957 net.cpp:157] Top shape: 100 2 (200)
I0205 07:15:44.102185 12957 net.cpp:165] Memory required for data: 54362400
I0205 07:15:44.102190 12957 layer_factory.hpp:77] Creating layer accuracy
I0205 07:15:44.102219 12957 net.cpp:106] Creating Layer accuracy
I0205 07:15:44.102231 12957 net.cpp:454] accuracy <- fc8_fc8_0_split_0
I0205 07:15:44.102246 12957 net.cpp:454] accuracy <- label_data_1_split_0
I0205 07:15:44.102257 12957 net.cpp:411] accuracy -> accuracy
…
