…
I0205 04:37:44.410430 12230 net.cpp:322] The NetState phase (0) differed from the phase (1) specified by a rule in layer accuracy
I0205 04:37:44.410681 12230 net.cpp:49] Initializing net from parameters: 
name: "CaffeNet"
state {
  phase: TRAIN
}
layer {
  name: "data"
  type: "Data"
  top: "data"
  top: "label"
  include {
    phase: TRAIN
  }
  transform_param {
    mirror: true
    crop_size: 227
    mean_file: "/home/pearlstl/proj_cv/master/lmdb/synth1_train_lum_db/mean_file.binaryproto"
  }
  data_param {
    source: "/home/pearlstl/proj_cv/master/lmdb/synth1_train_lum_db"
    batch_size: 100
    backend: LMDB
  }
}
layer {
  name: "conv1"
  type: "Convolution"
  bottom: "data"
  top: "conv1"
  param {
    lr_mult: 1
    decay_mult: 1
  }
  param {
    lr_mult: 2
    decay_mult: 0
  }
  convolution_param {
    num_output: 32
    kernel_size: 11
    stride: 4
    weight_filler {
      type: "xavier"
    }
    bias_filler {
      type: "constant"
      value: 0
    }
  }
}
layer {
  name: "relu1"
  type: "ReLU"
  bottom: "conv1"
  top: "conv1"
}
layer {
  name: "pool1"
  type: "Pooling"
  bottom: "conv1"
  top: "pool1"
  pooling_param {
    pool: MAX
    kernel_size: 3
    stride: 2
  }
}
layer {
  name: "norm1"
  type: "LRN"
  bottom: "pool1"
  top: "norm1"
  lrn_param {
    local_size: 5
    alpha: 0.0001
    beta: 0.75
  }
}
layer {
  name: "conv2"
  type: "Convolution"
  bottom: "norm1"
  top: "conv2"
  param {
    lr_mult: 1
    decay_mult: 1
  }
  param {
    lr_mult: 2
    decay_mult: 0
  }
  convolution_param {
    num_output: 32
    pad: 2
    kernel_size: 5
    group: 2
    weight_filler {
      type: "xavier"
    }
    bias_filler {
      type: "constant"
      value: 1
    }
  }
}
layer {
  name: "relu2"
  type: "ReLU"
  bottom: "conv2"
  top: "conv2"
}
layer {
  name: "pool2"
  type: "Pooling"
  bottom: "conv2"
  top: "pool2"
  pooling_param {
    pool: MAX
    kernel_size: 3
    stride: 2
  }
}
layer {
  name: "norm2"
  type: "LRN"
  bottom: "pool2"
  top: "norm2"
  lrn_param {
    local_size: 5
    alpha: 0.0001
    beta: 0.75
  }
}
layer {
  name: "conv3"
  type: "Convolution"
  bottom: "norm2"
  top: "conv3"
  param {
    lr_mult: 1
    decay_mult: 1
  }
  param {
    lr_mult: 2
    decay_mult: 0
  }
  convolution_param {
    num_output: 32
    pad: 1
    kernel_size: 3
    weight_filler {
      type: "xavier"
    }
    bias_filler {
      type: "constant"
      value: 0
    }
  }
}
layer {
  name: "relu3"
  type: "ReLU"
  bottom: "conv3"
  top: "conv3"
}
layer {
  name: "conv4"
  type: "Convolution"
  bottom: "conv3"
  top: "conv4"
  param {
    lr_mult: 1
    decay_mult: 1
  }
  param {
    lr_mult: 2
    decay_mult: 0
  }
  convolution_param {
    num_output: 32
    pad: 1
    kernel_size: 3
    group: 2
    weight_filler {
      type: "xavier"
    }
    bias_filler {
      type: "constant"
      value: 1
    }
  }
}
layer {
  name: "relu4"
  type: "ReLU"
  bottom: "conv4"
  top: "conv4"
}
layer {
  name: "conv5"
  type: "Convolution"
  bottom: "conv4"
  top: "conv5"
  param {
    lr_mult: 1
    decay_mult: 1
  }
  param {
    lr_mult: 2
    decay_mult: 0
  }
  convolution_param {
    num_output: 16
    pad: 1
    kernel_size: 3
    group: 2
    weight_filler {
      type: "xavier"
    }
    bias_filler {
      type: "constant"
      value: 1
    }
  }
}
layer {
  name: "relu5"
  type: "ReLU"
  bottom: "conv5"
  top: "conv5"
}
layer {
  name: "pool5"
  type: "Pooling"
  bottom: "conv5"
  top: "pool5"
  pooling_param {
    pool: MAX
    kernel_size: 3
    stride: 2
  }
}
layer {
  name: "fc6"
  type: "InnerProduct"
  bottom: "pool5"
  top: "fc6"
  param {
    lr_mult: 1
    decay_mult: 1
  }
  param {
    lr_mult: 2
    decay_mult: 0
  }
  inner_product_param {
    num_output: 256
    weight_filler {
      type: "xavier"
    }
    bias_filler {
      type: "constant"
      value: 1
    }
  }
}
layer {
  name: "relu6"
  type: "ReLU"
  bottom: "fc6"
  top: "fc6"
}
layer {
  name: "drop6"
  type: "Dropout"
  bottom: "fc6"
  top: "fc6"
  dropout_param {
    dropout_ratio: 0.5
  }
}
layer {
  name: "fc7"
  type: "InnerProduct"
  bottom: "fc6"
  top: "fc7"
  param {
    lr_mult: 1
    decay_mult: 1
  }
  param {
    lr_mult: 2
    decay_mult: 0
  }
  inner_product_param {
    num_output: 256
    weight_filler {
      type: "xavier"
    }
    bias_filler {
      type: "constant"
      value: 1
    }
  }
}
layer {
  name: "relu7"
  type: "ReLU"
  bottom: "fc7"
  top: "fc7"
}
layer {
  name: "drop7"
  type: "Dropout"
  bottom: "fc7"
  top: "fc7"
  dropout_param {
    dropout_ratio: 0.5
  }
}
layer {
  name: "fc8"
  type: "InnerProduct"
  bottom: "fc7"
  top: "fc8"
  param {
    lr_mult: 1
    decay_mult: 1
  }
  param {
    lr_mult: 2
    decay_mult: 0
  }
  inner_product_param {
    num_output: 2
    weight_filler {
      type: "xavier"
    }
    bias_filler {
      type: "constant"
      value: 0
    }
  }
}
layer {
  name: "loss"
  type: "SoftmaxWithLoss"
  bottom: "fc8"
  bottom: "label"
  top: "loss"
}
I0205 04:37:44.410830 12230 layer_factory.hpp:77] Creating layer data
I0205 04:37:44.411034 12230 net.cpp:106] Creating Layer data
I0205 04:37:44.411056 12230 net.cpp:411] data -> data
I0205 04:37:44.411165 12230 net.cpp:411] data -> label
I0205 04:37:44.411193 12230 data_transformer.cpp:25] Loading mean file from: /home/pearlstl/proj_cv/master/lmdb/synth1_train_lum_db/mean_file.binaryproto
I0205 04:37:44.411326 12231 db_lmdb.cpp:38] Opened lmdb /home/pearlstl/proj_cv/master/lmdb/synth1_train_lum_db
I0205 04:37:44.412345 12230 data_layer.cpp:41] output data size: 100,1,227,227
I0205 04:37:44.443754 12230 net.cpp:150] Setting up data
I0205 04:37:44.443830 12230 net.cpp:157] Top shape: 100 1 227 227 (5152900)
I0205 04:37:44.443840 12230 net.cpp:157] Top shape: 100 (100)
I0205 04:37:44.443846 12230 net.cpp:165] Memory required for data: 20612000
I0205 04:37:44.443866 12230 layer_factory.hpp:77] Creating layer conv1
I0205 04:37:44.443892 12230 net.cpp:106] Creating Layer conv1
I0205 04:37:44.443902 12230 net.cpp:454] conv1 <- data
I0205 04:37:44.443922 12230 net.cpp:411] conv1 -> conv1
I0205 04:37:44.444053 12230 net.cpp:150] Setting up conv1
I0205 04:37:44.444084 12230 net.cpp:157] Top shape: 100 32 55 55 (9680000)
I0205 04:37:44.444097 12230 net.cpp:165] Memory required for data: 59332000
I0205 04:37:44.444115 12230 layer_factory.hpp:77] Creating layer relu1
I0205 04:37:44.444128 12230 net.cpp:106] Creating Layer relu1
I0205 04:37:44.444134 12230 net.cpp:454] relu1 <- conv1
I0205 04:37:44.444144 12230 net.cpp:397] relu1 -> conv1 (in-place)
I0205 04:37:44.444159 12230 net.cpp:150] Setting up relu1
I0205 04:37:44.444167 12230 net.cpp:157] Top shape: 100 32 55 55 (9680000)
I0205 04:37:44.444174 12230 net.cpp:165] Memory required for data: 98052000
I0205 04:37:44.444180 12230 layer_factory.hpp:77] Creating layer pool1
I0205 04:37:44.444195 12230 net.cpp:106] Creating Layer pool1
I0205 04:37:44.444201 12230 net.cpp:454] pool1 <- conv1
I0205 04:37:44.444210 12230 net.cpp:411] pool1 -> pool1
I0205 04:37:44.444242 12230 net.cpp:150] Setting up pool1
I0205 04:37:44.444250 12230 net.cpp:157] Top shape: 100 32 27 27 (2332800)
I0205 04:37:44.444255 12230 net.cpp:165] Memory required for data: 107383200
I0205 04:37:44.444262 12230 layer_factory.hpp:77] Creating layer norm1
I0205 04:37:44.444290 12230 net.cpp:106] Creating Layer norm1
I0205 04:37:44.444296 12230 net.cpp:454] norm1 <- pool1
I0205 04:37:44.444306 12230 net.cpp:411] norm1 -> norm1
I0205 04:37:44.444325 12230 net.cpp:150] Setting up norm1
I0205 04:37:44.444335 12230 net.cpp:157] Top shape: 100 32 27 27 (2332800)
I0205 04:37:44.444340 12230 net.cpp:165] Memory required for data: 116714400
I0205 04:37:44.444346 12230 layer_factory.hpp:77] Creating layer conv2
I0205 04:37:44.444360 12230 net.cpp:106] Creating Layer conv2
I0205 04:37:44.444367 12230 net.cpp:454] conv2 <- norm1
I0205 04:37:44.444377 12230 net.cpp:411] conv2 -> conv2
I0205 04:37:44.444506 12230 net.cpp:150] Setting up conv2
I0205 04:37:44.444515 12230 net.cpp:157] Top shape: 100 32 27 27 (2332800)
I0205 04:37:44.444522 12230 net.cpp:165] Memory required for data: 126045600
I0205 04:37:44.444533 12230 layer_factory.hpp:77] Creating layer relu2
I0205 04:37:44.444543 12230 net.cpp:106] Creating Layer relu2
I0205 04:37:44.444550 12230 net.cpp:454] relu2 <- conv2
I0205 04:37:44.444567 12230 net.cpp:397] relu2 -> conv2 (in-place)
I0205 04:37:44.444579 12230 net.cpp:150] Setting up relu2
I0205 04:37:44.444586 12230 net.cpp:157] Top shape: 100 32 27 27 (2332800)
I0205 04:37:44.444592 12230 net.cpp:165] Memory required for data: 135376800
I0205 04:37:44.444598 12230 layer_factory.hpp:77] Creating layer pool2
I0205 04:37:44.444607 12230 net.cpp:106] Creating Layer pool2
I0205 04:37:44.444612 12230 net.cpp:454] pool2 <- conv2
I0205 04:37:44.444622 12230 net.cpp:411] pool2 -> pool2
I0205 04:37:44.444635 12230 net.cpp:150] Setting up pool2
I0205 04:37:44.444643 12230 net.cpp:157] Top shape: 100 32 13 13 (540800)
I0205 04:37:44.444648 12230 net.cpp:165] Memory required for data: 137540000
I0205 04:37:44.444654 12230 layer_factory.hpp:77] Creating layer norm2
I0205 04:37:44.444664 12230 net.cpp:106] Creating Layer norm2
I0205 04:37:44.444670 12230 net.cpp:454] norm2 <- pool2
I0205 04:37:44.444680 12230 net.cpp:411] norm2 -> norm2
I0205 04:37:44.444691 12230 net.cpp:150] Setting up norm2
I0205 04:37:44.444699 12230 net.cpp:157] Top shape: 100 32 13 13 (540800)
I0205 04:37:44.444705 12230 net.cpp:165] Memory required for data: 139703200
I0205 04:37:44.444710 12230 layer_factory.hpp:77] Creating layer conv3
I0205 04:37:44.444718 12230 net.cpp:106] Creating Layer conv3
I0205 04:37:44.444725 12230 net.cpp:454] conv3 <- norm2
I0205 04:37:44.444732 12230 net.cpp:411] conv3 -> conv3
I0205 04:37:44.444861 12230 net.cpp:150] Setting up conv3
I0205 04:37:44.444874 12230 net.cpp:157] Top shape: 100 32 13 13 (540800)
I0205 04:37:44.444880 12230 net.cpp:165] Memory required for data: 141866400
I0205 04:37:44.444890 12230 layer_factory.hpp:77] Creating layer relu3
I0205 04:37:44.444905 12230 net.cpp:106] Creating Layer relu3
I0205 04:37:44.444913 12230 net.cpp:454] relu3 <- conv3
I0205 04:37:44.444921 12230 net.cpp:397] relu3 -> conv3 (in-place)
I0205 04:37:44.444931 12230 net.cpp:150] Setting up relu3
I0205 04:37:44.444937 12230 net.cpp:157] Top shape: 100 32 13 13 (540800)
I0205 04:37:44.444942 12230 net.cpp:165] Memory required for data: 144029600
I0205 04:37:44.444948 12230 layer_factory.hpp:77] Creating layer conv4
I0205 04:37:44.444962 12230 net.cpp:106] Creating Layer conv4
I0205 04:37:44.444968 12230 net.cpp:454] conv4 <- conv3
I0205 04:37:44.444978 12230 net.cpp:411] conv4 -> conv4
I0205 04:37:44.445051 12230 net.cpp:150] Setting up conv4
I0205 04:37:44.445060 12230 net.cpp:157] Top shape: 100 32 13 13 (540800)
I0205 04:37:44.445065 12230 net.cpp:165] Memory required for data: 146192800
I0205 04:37:44.445076 12230 layer_factory.hpp:77] Creating layer relu4
I0205 04:37:44.445085 12230 net.cpp:106] Creating Layer relu4
I0205 04:37:44.445106 12230 net.cpp:454] relu4 <- conv4
I0205 04:37:44.445113 12230 net.cpp:397] relu4 -> conv4 (in-place)
I0205 04:37:44.445123 12230 net.cpp:150] Setting up relu4
I0205 04:37:44.445130 12230 net.cpp:157] Top shape: 100 32 13 13 (540800)
I0205 04:37:44.445137 12230 net.cpp:165] Memory required for data: 148356000
I0205 04:37:44.445147 12230 layer_factory.hpp:77] Creating layer conv5
I0205 04:37:44.445168 12230 net.cpp:106] Creating Layer conv5
I0205 04:37:44.445173 12230 net.cpp:454] conv5 <- conv4
I0205 04:37:44.445181 12230 net.cpp:411] conv5 -> conv5
I0205 04:37:44.445235 12230 net.cpp:150] Setting up conv5
I0205 04:37:44.445243 12230 net.cpp:157] Top shape: 100 16 13 13 (270400)
I0205 04:37:44.445248 12230 net.cpp:165] Memory required for data: 149437600
I0205 04:37:44.445261 12230 layer_factory.hpp:77] Creating layer relu5
I0205 04:37:44.445268 12230 net.cpp:106] Creating Layer relu5
I0205 04:37:44.445273 12230 net.cpp:454] relu5 <- conv5
I0205 04:37:44.445284 12230 net.cpp:397] relu5 -> conv5 (in-place)
I0205 04:37:44.445292 12230 net.cpp:150] Setting up relu5
I0205 04:37:44.445299 12230 net.cpp:157] Top shape: 100 16 13 13 (270400)
I0205 04:37:44.445305 12230 net.cpp:165] Memory required for data: 150519200
I0205 04:37:44.445310 12230 layer_factory.hpp:77] Creating layer pool5
I0205 04:37:44.445318 12230 net.cpp:106] Creating Layer pool5
I0205 04:37:44.445324 12230 net.cpp:454] pool5 <- conv5
I0205 04:37:44.445335 12230 net.cpp:411] pool5 -> pool5
I0205 04:37:44.445348 12230 net.cpp:150] Setting up pool5
I0205 04:37:44.445358 12230 net.cpp:157] Top shape: 100 16 6 6 (57600)
I0205 04:37:44.445363 12230 net.cpp:165] Memory required for data: 150749600
I0205 04:37:44.445368 12230 layer_factory.hpp:77] Creating layer fc6
I0205 04:37:44.445384 12230 net.cpp:106] Creating Layer fc6
I0205 04:37:44.445389 12230 net.cpp:454] fc6 <- pool5
I0205 04:37:44.445401 12230 net.cpp:411] fc6 -> fc6
I0205 04:37:44.447013 12230 net.cpp:150] Setting up fc6
I0205 04:37:44.447028 12230 net.cpp:157] Top shape: 100 256 (25600)
I0205 04:37:44.447033 12230 net.cpp:165] Memory required for data: 150852000
I0205 04:37:44.447042 12230 layer_factory.hpp:77] Creating layer relu6
I0205 04:37:44.447053 12230 net.cpp:106] Creating Layer relu6
I0205 04:37:44.447060 12230 net.cpp:454] relu6 <- fc6
I0205 04:37:44.447067 12230 net.cpp:397] relu6 -> fc6 (in-place)
I0205 04:37:44.447078 12230 net.cpp:150] Setting up relu6
I0205 04:37:44.447085 12230 net.cpp:157] Top shape: 100 256 (25600)
I0205 04:37:44.447096 12230 net.cpp:165] Memory required for data: 150954400
I0205 04:37:44.447103 12230 layer_factory.hpp:77] Creating layer drop6
I0205 04:37:44.447113 12230 net.cpp:106] Creating Layer drop6
I0205 04:37:44.447119 12230 net.cpp:454] drop6 <- fc6
I0205 04:37:44.447126 12230 net.cpp:397] drop6 -> fc6 (in-place)
I0205 04:37:44.447146 12230 net.cpp:150] Setting up drop6
I0205 04:37:44.447154 12230 net.cpp:157] Top shape: 100 256 (25600)
I0205 04:37:44.447160 12230 net.cpp:165] Memory required for data: 151056800
I0205 04:37:44.447165 12230 layer_factory.hpp:77] Creating layer fc7
I0205 04:37:44.447175 12230 net.cpp:106] Creating Layer fc7
I0205 04:37:44.447181 12230 net.cpp:454] fc7 <- fc6
I0205 04:37:44.447192 12230 net.cpp:411] fc7 -> fc7
I0205 04:37:44.447908 12230 net.cpp:150] Setting up fc7
I0205 04:37:44.447921 12230 net.cpp:157] Top shape: 100 256 (25600)
I0205 04:37:44.447926 12230 net.cpp:165] Memory required for data: 151159200
I0205 04:37:44.447934 12230 layer_factory.hpp:77] Creating layer relu7
I0205 04:37:44.447942 12230 net.cpp:106] Creating Layer relu7
I0205 04:37:44.447953 12230 net.cpp:454] relu7 <- fc7
I0205 04:37:44.447963 12230 net.cpp:397] relu7 -> fc7 (in-place)
I0205 04:37:44.447973 12230 net.cpp:150] Setting up relu7
I0205 04:37:44.447980 12230 net.cpp:157] Top shape: 100 256 (25600)
I0205 04:37:44.447985 12230 net.cpp:165] Memory required for data: 151261600
I0205 04:37:44.447991 12230 layer_factory.hpp:77] Creating layer drop7
I0205 04:37:44.448001 12230 net.cpp:106] Creating Layer drop7
I0205 04:37:44.448009 12230 net.cpp:454] drop7 <- fc7
I0205 04:37:44.448019 12230 net.cpp:397] drop7 -> fc7 (in-place)
I0205 04:37:44.448029 12230 net.cpp:150] Setting up drop7
I0205 04:37:44.448036 12230 net.cpp:157] Top shape: 100 256 (25600)
I0205 04:37:44.448041 12230 net.cpp:165] Memory required for data: 151364000
I0205 04:37:44.448047 12230 layer_factory.hpp:77] Creating layer fc8
I0205 04:37:44.448060 12230 net.cpp:106] Creating Layer fc8
I0205 04:37:44.448073 12230 net.cpp:454] fc8 <- fc7
I0205 04:37:44.448084 12230 net.cpp:411] fc8 -> fc8
I0205 04:37:44.448115 12230 net.cpp:150] Setting up fc8
I0205 04:37:44.448124 12230 net.cpp:157] Top shape: 100 2 (200)
I0205 04:37:44.448129 12230 net.cpp:165] Memory required for data: 151364800
I0205 04:37:44.448143 12230 layer_factory.hpp:77] Creating layer loss
I0205 04:37:44.448153 12230 net.cpp:106] Creating Layer loss
I0205 04:37:44.448160 12230 net.cpp:454] loss <- fc8
I0205 04:37:44.448166 12230 net.cpp:454] loss <- label
I0205 04:37:44.448176 12230 net.cpp:411] loss -> loss
I0205 04:37:44.448192 12230 layer_factory.hpp:77] Creating layer loss
…
I0205 04:37:44.449246 12230 net.cpp:322] The NetState phase (1) differed from the phase (0) specified by a rule in layer data
I0205 04:37:44.449539 12230 net.cpp:49] Initializing net from parameters: 
name: "CaffeNet"
state {
  phase: TEST
}
layer {
  name: "data"
  type: "Data"
  top: "data"
  top: "label"
  include {
    phase: TEST
  }
  transform_param {
    mirror: false
    crop_size: 227
    mean_file: "/home/pearlstl/proj_cv/master/lmdb/synth1_test_lum_db/mean_file.binaryproto"
  }
  data_param {
    source: "/home/pearlstl/proj_cv/master/lmdb/synth1_test_lum_db"
    batch_size: 100
    backend: LMDB
  }
}
layer {
  name: "conv1"
  type: "Convolution"
  bottom: "data"
  top: "conv1"
  param {
    lr_mult: 1
    decay_mult: 1
  }
  param {
    lr_mult: 2
    decay_mult: 0
  }
  convolution_param {
    num_output: 32
    kernel_size: 11
    stride: 4
    weight_filler {
      type: "xavier"
    }
    bias_filler {
      type: "constant"
      value: 0
    }
  }
}
layer {
  name: "relu1"
  type: "ReLU"
  bottom: "conv1"
  top: "conv1"
}
layer {
  name: "pool1"
  type: "Pooling"
  bottom: "conv1"
  top: "pool1"
  pooling_param {
    pool: MAX
    kernel_size: 3
    stride: 2
  }
}
layer {
  name: "norm1"
  type: "LRN"
  bottom: "pool1"
  top: "norm1"
  lrn_param {
    local_size: 5
    alpha: 0.0001
    beta: 0.75
  }
}
layer {
  name: "conv2"
  type: "Convolution"
  bottom: "norm1"
  top: "conv2"
  param {
    lr_mult: 1
    decay_mult: 1
  }
  param {
    lr_mult: 2
    decay_mult: 0
  }
  convolution_param {
    num_output: 32
    pad: 2
    kernel_size: 5
    group: 2
    weight_filler {
      type: "xavier"
    }
    bias_filler {
      type: "constant"
      value: 1
    }
  }
}
layer {
  name: "relu2"
  type: "ReLU"
  bottom: "conv2"
  top: "conv2"
}
layer {
  name: "pool2"
  type: "Pooling"
  bottom: "conv2"
  top: "pool2"
  pooling_param {
    pool: MAX
    kernel_size: 3
    stride: 2
  }
}
layer {
  name: "norm2"
  type: "LRN"
  bottom: "pool2"
  top: "norm2"
  lrn_param {
    local_size: 5
    alpha: 0.0001
    beta: 0.75
  }
}
layer {
  name: "conv3"
  type: "Convolution"
  bottom: "norm2"
  top: "conv3"
  param {
    lr_mult: 1
    decay_mult: 1
  }
  param {
    lr_mult: 2
    decay_mult: 0
  }
  convolution_param {
    num_output: 32
    pad: 1
    kernel_size: 3
    weight_filler {
      type: "xavier"
    }
    bias_filler {
      type: "constant"
      value: 0
    }
  }
}
layer {
  name: "relu3"
  type: "ReLU"
  bottom: "conv3"
  top: "conv3"
}
layer {
  name: "conv4"
  type: "Convolution"
  bottom: "conv3"
  top: "conv4"
  param {
    lr_mult: 1
    decay_mult: 1
  }
  param {
    lr_mult: 2
    decay_mult: 0
  }
  convolution_param {
    num_output: 32
    pad: 1
    kernel_size: 3
    group: 2
    weight_filler {
      type: "xavier"
    }
    bias_filler {
      type: "constant"
      value: 1
    }
  }
}
layer {
  name: "relu4"
  type: "ReLU"
  bottom: "conv4"
  top: "conv4"
}
layer {
  name: "conv5"
  type: "Convolution"
  bottom: "conv4"
  top: "conv5"
  param {
    lr_mult: 1
    decay_mult: 1
  }
  param {
    lr_mult: 2
    decay_mult: 0
  }
  convolution_param {
    num_output: 16
    pad: 1
    kernel_size: 3
    group: 2
    weight_filler {
      type: "xavier"
    }
    bias_filler {
      type: "constant"
      value: 1
    }
  }
}
layer {
  name: "relu5"
  type: "ReLU"
  bottom: "conv5"
  top: "conv5"
}
layer {
  name: "pool5"
  type: "Pooling"
  bottom: "conv5"
  top: "pool5"
  pooling_param {
    pool: MAX
    kernel_size: 3
    stride: 2
  }
}
layer {
  name: "fc6"
  type: "InnerProduct"
  bottom: "pool5"
  top: "fc6"
  param {
    lr_mult: 1
    decay_mult: 1
  }
  param {
    lr_mult: 2
    decay_mult: 0
  }
  inner_product_param {
    num_output: 256
    weight_filler {
      type: "xavier"
    }
    bias_filler {
      type: "constant"
      value: 1
    }
  }
}
layer {
  name: "relu6"
  type: "ReLU"
  bottom: "fc6"
  top: "fc6"
}
layer {
  name: "drop6"
  type: "Dropout"
  bottom: "fc6"
  top: "fc6"
  dropout_param {
    dropout_ratio: 0.5
  }
}
layer {
  name: "fc7"
  type: "InnerProduct"
  bottom: "fc6"
  top: "fc7"
  param {
    lr_mult: 1
    decay_mult: 1
  }
  param {
    lr_mult: 2
    decay_mult: 0
  }
  inner_product_param {
    num_output: 256
    weight_filler {
      type: "xavier"
    }
    bias_filler {
      type: "constant"
      value: 1
    }
  }
}
layer {
  name: "relu7"
  type: "ReLU"
  bottom: "fc7"
  top: "fc7"
}
layer {
  name: "drop7"
  type: "Dropout"
  bottom: "fc7"
  top: "fc7"
  dropout_param {
    dropout_ratio: 0.5
  }
}
layer {
  name: "fc8"
  type: "InnerProduct"
  bottom: "fc7"
  top: "fc8"
  param {
    lr_mult: 1
    decay_mult: 1
  }
  param {
    lr_mult: 2
    decay_mult: 0
  }
  inner_product_param {
    num_output: 2
    weight_filler {
      type: "xavier"
    }
    bias_filler {
      type: "constant"
      value: 0
    }
  }
}
layer {
  name: "accuracy"
  type: "Accuracy"
  bottom: "fc8"
  bottom: "label"
  top: "accuracy"
  include {
    phase: TEST
  }
}
layer {
  name: "loss"
  type: "SoftmaxWithLoss"
  bottom: "fc8"
  bottom: "label"
  top: "loss"
}
I0205 04:37:44.449722 12230 layer_factory.hpp:77] Creating layer data
I0205 04:37:44.449892 12230 net.cpp:106] Creating Layer data
I0205 04:37:44.449911 12230 net.cpp:411] data -> data
I0205 04:37:44.449925 12230 net.cpp:411] data -> label
I0205 04:37:44.449937 12230 data_transformer.cpp:25] Loading mean file from: /home/pearlstl/proj_cv/master/lmdb/synth1_test_lum_db/mean_file.binaryproto
I0205 04:37:44.450160 12235 db_lmdb.cpp:38] Opened lmdb /home/pearlstl/proj_cv/master/lmdb/synth1_test_lum_db
I0205 04:37:44.450930 12230 data_layer.cpp:41] output data size: 100,1,227,227
I0205 04:37:44.480881 12230 net.cpp:150] Setting up data
I0205 04:37:44.480901 12230 net.cpp:157] Top shape: 100 1 227 227 (5152900)
I0205 04:37:44.480908 12230 net.cpp:157] Top shape: 100 (100)
I0205 04:37:44.480914 12230 net.cpp:165] Memory required for data: 20612000
I0205 04:37:44.480921 12230 layer_factory.hpp:77] Creating layer label_data_1_split
I0205 04:37:44.480936 12230 net.cpp:106] Creating Layer label_data_1_split
I0205 04:37:44.480942 12230 net.cpp:454] label_data_1_split <- label
I0205 04:37:44.480952 12230 net.cpp:411] label_data_1_split -> label_data_1_split_0
I0205 04:37:44.480963 12230 net.cpp:411] label_data_1_split -> label_data_1_split_1
I0205 04:37:44.480975 12230 net.cpp:150] Setting up label_data_1_split
I0205 04:37:44.480983 12230 net.cpp:157] Top shape: 100 (100)
I0205 04:37:44.480988 12230 net.cpp:157] Top shape: 100 (100)
I0205 04:37:44.480994 12230 net.cpp:165] Memory required for data: 20612800
I0205 04:37:44.480999 12230 layer_factory.hpp:77] Creating layer conv1
I0205 04:37:44.481012 12230 net.cpp:106] Creating Layer conv1
I0205 04:37:44.481019 12230 net.cpp:454] conv1 <- data
I0205 04:37:44.481027 12230 net.cpp:411] conv1 -> conv1
I0205 04:37:44.481099 12230 net.cpp:150] Setting up conv1
I0205 04:37:44.481112 12230 net.cpp:157] Top shape: 100 32 55 55 (9680000)
I0205 04:37:44.481117 12230 net.cpp:165] Memory required for data: 59332800
I0205 04:37:44.481132 12230 layer_factory.hpp:77] Creating layer relu1
I0205 04:37:44.481142 12230 net.cpp:106] Creating Layer relu1
I0205 04:37:44.481148 12230 net.cpp:454] relu1 <- conv1
I0205 04:37:44.481155 12230 net.cpp:397] relu1 -> conv1 (in-place)
I0205 04:37:44.481168 12230 net.cpp:150] Setting up relu1
I0205 04:37:44.481174 12230 net.cpp:157] Top shape: 100 32 55 55 (9680000)
I0205 04:37:44.481180 12230 net.cpp:165] Memory required for data: 98052800
I0205 04:37:44.481185 12230 layer_factory.hpp:77] Creating layer pool1
I0205 04:37:44.481195 12230 net.cpp:106] Creating Layer pool1
I0205 04:37:44.481201 12230 net.cpp:454] pool1 <- conv1
I0205 04:37:44.481209 12230 net.cpp:411] pool1 -> pool1
I0205 04:37:44.481221 12230 net.cpp:150] Setting up pool1
I0205 04:37:44.481230 12230 net.cpp:157] Top shape: 100 32 27 27 (2332800)
I0205 04:37:44.481235 12230 net.cpp:165] Memory required for data: 107384000
I0205 04:37:44.481240 12230 layer_factory.hpp:77] Creating layer norm1
I0205 04:37:44.481248 12230 net.cpp:106] Creating Layer norm1
I0205 04:37:44.481254 12230 net.cpp:454] norm1 <- pool1
I0205 04:37:44.481264 12230 net.cpp:411] norm1 -> norm1
I0205 04:37:44.481276 12230 net.cpp:150] Setting up norm1
I0205 04:37:44.481282 12230 net.cpp:157] Top shape: 100 32 27 27 (2332800)
I0205 04:37:44.481290 12230 net.cpp:165] Memory required for data: 116715200
I0205 04:37:44.481295 12230 layer_factory.hpp:77] Creating layer conv2
I0205 04:37:44.481305 12230 net.cpp:106] Creating Layer conv2
I0205 04:37:44.481312 12230 net.cpp:454] conv2 <- norm1
I0205 04:37:44.481318 12230 net.cpp:411] conv2 -> conv2
I0205 04:37:44.481447 12230 net.cpp:150] Setting up conv2
I0205 04:37:44.481456 12230 net.cpp:157] Top shape: 100 32 27 27 (2332800)
I0205 04:37:44.481462 12230 net.cpp:165] Memory required for data: 126046400
I0205 04:37:44.481472 12230 layer_factory.hpp:77] Creating layer relu2
I0205 04:37:44.481480 12230 net.cpp:106] Creating Layer relu2
I0205 04:37:44.481487 12230 net.cpp:454] relu2 <- conv2
I0205 04:37:44.481501 12230 net.cpp:397] relu2 -> conv2 (in-place)
I0205 04:37:44.481519 12230 net.cpp:150] Setting up relu2
I0205 04:37:44.481528 12230 net.cpp:157] Top shape: 100 32 27 27 (2332800)
I0205 04:37:44.481533 12230 net.cpp:165] Memory required for data: 135377600
I0205 04:37:44.481537 12230 layer_factory.hpp:77] Creating layer pool2
I0205 04:37:44.481547 12230 net.cpp:106] Creating Layer pool2
I0205 04:37:44.481554 12230 net.cpp:454] pool2 <- conv2
I0205 04:37:44.481564 12230 net.cpp:411] pool2 -> pool2
I0205 04:37:44.481575 12230 net.cpp:150] Setting up pool2
I0205 04:37:44.481583 12230 net.cpp:157] Top shape: 100 32 13 13 (540800)
I0205 04:37:44.481588 12230 net.cpp:165] Memory required for data: 137540800
I0205 04:37:44.481596 12230 layer_factory.hpp:77] Creating layer norm2
I0205 04:37:44.481606 12230 net.cpp:106] Creating Layer norm2
I0205 04:37:44.481611 12230 net.cpp:454] norm2 <- pool2
I0205 04:37:44.481618 12230 net.cpp:411] norm2 -> norm2
I0205 04:37:44.481628 12230 net.cpp:150] Setting up norm2
I0205 04:37:44.481636 12230 net.cpp:157] Top shape: 100 32 13 13 (540800)
I0205 04:37:44.481640 12230 net.cpp:165] Memory required for data: 139704000
I0205 04:37:44.481645 12230 layer_factory.hpp:77] Creating layer conv3
I0205 04:37:44.481655 12230 net.cpp:106] Creating Layer conv3
I0205 04:37:44.481662 12230 net.cpp:454] conv3 <- norm2
I0205 04:37:44.481668 12230 net.cpp:411] conv3 -> conv3
I0205 04:37:44.481766 12230 net.cpp:150] Setting up conv3
I0205 04:37:44.481775 12230 net.cpp:157] Top shape: 100 32 13 13 (540800)
I0205 04:37:44.481781 12230 net.cpp:165] Memory required for data: 141867200
I0205 04:37:44.481791 12230 layer_factory.hpp:77] Creating layer relu3
I0205 04:37:44.481799 12230 net.cpp:106] Creating Layer relu3
I0205 04:37:44.481806 12230 net.cpp:454] relu3 <- conv3
I0205 04:37:44.481812 12230 net.cpp:397] relu3 -> conv3 (in-place)
I0205 04:37:44.481822 12230 net.cpp:150] Setting up relu3
I0205 04:37:44.481828 12230 net.cpp:157] Top shape: 100 32 13 13 (540800)
I0205 04:37:44.481833 12230 net.cpp:165] Memory required for data: 144030400
I0205 04:37:44.481839 12230 layer_factory.hpp:77] Creating layer conv4
I0205 04:37:44.481848 12230 net.cpp:106] Creating Layer conv4
I0205 04:37:44.481855 12230 net.cpp:454] conv4 <- conv3
I0205 04:37:44.481864 12230 net.cpp:411] conv4 -> conv4
I0205 04:37:44.481923 12230 net.cpp:150] Setting up conv4
I0205 04:37:44.481931 12230 net.cpp:157] Top shape: 100 32 13 13 (540800)
I0205 04:37:44.481936 12230 net.cpp:165] Memory required for data: 146193600
I0205 04:37:44.481945 12230 layer_factory.hpp:77] Creating layer relu4
I0205 04:37:44.481952 12230 net.cpp:106] Creating Layer relu4
I0205 04:37:44.481958 12230 net.cpp:454] relu4 <- conv4
I0205 04:37:44.481966 12230 net.cpp:397] relu4 -> conv4 (in-place)
I0205 04:37:44.481973 12230 net.cpp:150] Setting up relu4
I0205 04:37:44.481981 12230 net.cpp:157] Top shape: 100 32 13 13 (540800)
I0205 04:37:44.481986 12230 net.cpp:165] Memory required for data: 148356800
I0205 04:37:44.481992 12230 layer_factory.hpp:77] Creating layer conv5
I0205 04:37:44.482002 12230 net.cpp:106] Creating Layer conv5
I0205 04:37:44.482007 12230 net.cpp:454] conv5 <- conv4
I0205 04:37:44.482017 12230 net.cpp:411] conv5 -> conv5
I0205 04:37:44.482056 12230 net.cpp:150] Setting up conv5
I0205 04:37:44.482064 12230 net.cpp:157] Top shape: 100 16 13 13 (270400)
I0205 04:37:44.482071 12230 net.cpp:165] Memory required for data: 149438400
I0205 04:37:44.482084 12230 layer_factory.hpp:77] Creating layer relu5
I0205 04:37:44.482098 12230 net.cpp:106] Creating Layer relu5
I0205 04:37:44.482105 12230 net.cpp:454] relu5 <- conv5
I0205 04:37:44.482112 12230 net.cpp:397] relu5 -> conv5 (in-place)
I0205 04:37:44.482121 12230 net.cpp:150] Setting up relu5
I0205 04:37:44.482128 12230 net.cpp:157] Top shape: 100 16 13 13 (270400)
I0205 04:37:44.482133 12230 net.cpp:165] Memory required for data: 150520000
I0205 04:37:44.482138 12230 layer_factory.hpp:77] Creating layer pool5
I0205 04:37:44.482148 12230 net.cpp:106] Creating Layer pool5
I0205 04:37:44.482158 12230 net.cpp:454] pool5 <- conv5
I0205 04:37:44.482178 12230 net.cpp:411] pool5 -> pool5
I0205 04:37:44.482189 12230 net.cpp:150] Setting up pool5
I0205 04:37:44.482197 12230 net.cpp:157] Top shape: 100 16 6 6 (57600)
I0205 04:37:44.482203 12230 net.cpp:165] Memory required for data: 150750400
I0205 04:37:44.482208 12230 layer_factory.hpp:77] Creating layer fc6
I0205 04:37:44.482218 12230 net.cpp:106] Creating Layer fc6
I0205 04:37:44.482224 12230 net.cpp:454] fc6 <- pool5
I0205 04:37:44.482234 12230 net.cpp:411] fc6 -> fc6
I0205 04:37:44.483878 12230 net.cpp:150] Setting up fc6
I0205 04:37:44.483891 12230 net.cpp:157] Top shape: 100 256 (25600)
I0205 04:37:44.483896 12230 net.cpp:165] Memory required for data: 150852800
I0205 04:37:44.483906 12230 layer_factory.hpp:77] Creating layer relu6
I0205 04:37:44.483913 12230 net.cpp:106] Creating Layer relu6
I0205 04:37:44.483919 12230 net.cpp:454] relu6 <- fc6
I0205 04:37:44.483927 12230 net.cpp:397] relu6 -> fc6 (in-place)
I0205 04:37:44.483937 12230 net.cpp:150] Setting up relu6
I0205 04:37:44.483943 12230 net.cpp:157] Top shape: 100 256 (25600)
I0205 04:37:44.483948 12230 net.cpp:165] Memory required for data: 150955200
I0205 04:37:44.483954 12230 layer_factory.hpp:77] Creating layer drop6
I0205 04:37:44.483963 12230 net.cpp:106] Creating Layer drop6
I0205 04:37:44.483971 12230 net.cpp:454] drop6 <- fc6
I0205 04:37:44.483979 12230 net.cpp:397] drop6 -> fc6 (in-place)
I0205 04:37:44.483990 12230 net.cpp:150] Setting up drop6
I0205 04:37:44.483999 12230 net.cpp:157] Top shape: 100 256 (25600)
I0205 04:37:44.484006 12230 net.cpp:165] Memory required for data: 151057600
I0205 04:37:44.484012 12230 layer_factory.hpp:77] Creating layer fc7
I0205 04:37:44.484021 12230 net.cpp:106] Creating Layer fc7
I0205 04:37:44.484026 12230 net.cpp:454] fc7 <- fc6
I0205 04:37:44.484035 12230 net.cpp:411] fc7 -> fc7
I0205 04:37:44.484796 12230 net.cpp:150] Setting up fc7
I0205 04:37:44.484807 12230 net.cpp:157] Top shape: 100 256 (25600)
I0205 04:37:44.484813 12230 net.cpp:165] Memory required for data: 151160000
I0205 04:37:44.484822 12230 layer_factory.hpp:77] Creating layer relu7
I0205 04:37:44.484830 12230 net.cpp:106] Creating Layer relu7
I0205 04:37:44.484836 12230 net.cpp:454] relu7 <- fc7
I0205 04:37:44.484846 12230 net.cpp:397] relu7 -> fc7 (in-place)
I0205 04:37:44.484855 12230 net.cpp:150] Setting up relu7
I0205 04:37:44.484863 12230 net.cpp:157] Top shape: 100 256 (25600)
I0205 04:37:44.484868 12230 net.cpp:165] Memory required for data: 151262400
I0205 04:37:44.484872 12230 layer_factory.hpp:77] Creating layer drop7
I0205 04:37:44.484880 12230 net.cpp:106] Creating Layer drop7
I0205 04:37:44.484886 12230 net.cpp:454] drop7 <- fc7
I0205 04:37:44.484894 12230 net.cpp:397] drop7 -> fc7 (in-place)
I0205 04:37:44.484905 12230 net.cpp:150] Setting up drop7
I0205 04:37:44.484912 12230 net.cpp:157] Top shape: 100 256 (25600)
I0205 04:37:44.484920 12230 net.cpp:165] Memory required for data: 151364800
I0205 04:37:44.484927 12230 layer_factory.hpp:77] Creating layer fc8
I0205 04:37:44.484936 12230 net.cpp:106] Creating Layer fc8
I0205 04:37:44.484942 12230 net.cpp:454] fc8 <- fc7
I0205 04:37:44.484951 12230 net.cpp:411] fc8 -> fc8
I0205 04:37:44.484979 12230 net.cpp:150] Setting up fc8
I0205 04:37:44.484988 12230 net.cpp:157] Top shape: 100 2 (200)
I0205 04:37:44.484993 12230 net.cpp:165] Memory required for data: 151365600
I0205 04:37:44.485002 12230 layer_factory.hpp:77] Creating layer fc8_fc8_0_split
I0205 04:37:44.485013 12230 net.cpp:106] Creating Layer fc8_fc8_0_split
I0205 04:37:44.485020 12230 net.cpp:454] fc8_fc8_0_split <- fc8
I0205 04:37:44.485028 12230 net.cpp:411] fc8_fc8_0_split -> fc8_fc8_0_split_0
I0205 04:37:44.485038 12230 net.cpp:411] fc8_fc8_0_split -> fc8_fc8_0_split_1
I0205 04:37:44.485047 12230 net.cpp:150] Setting up fc8_fc8_0_split
I0205 04:37:44.485057 12230 net.cpp:157] Top shape: 100 2 (200)
I0205 04:37:44.485064 12230 net.cpp:157] Top shape: 100 2 (200)
I0205 04:37:44.485069 12230 net.cpp:165] Memory required for data: 151367200
I0205 04:37:44.485077 12230 layer_factory.hpp:77] Creating layer accuracy
I0205 04:37:44.485121 12230 net.cpp:106] Creating Layer accuracy
I0205 04:37:44.485129 12230 net.cpp:454] accuracy <- fc8_fc8_0_split_0
I0205 04:37:44.485136 12230 net.cpp:454] accuracy <- label_data_1_split_0
I0205 04:37:44.485144 12230 net.cpp:411] accuracy -> accuracy
…
