…
I0204 16:30:49.019502  3516 net.cpp:322] The NetState phase (0) differed from the phase (1) specified by a rule in layer accuracy
I0204 16:30:49.019747  3516 net.cpp:49] Initializing net from parameters: 
name: "CaffeNet"
state {
  phase: TRAIN
}
layer {
  name: "data"
  type: "Data"
  top: "data"
  top: "label"
  include {
    phase: TRAIN
  }
  transform_param {
    mirror: true
    crop_size: 227
    mean_file: "/home/pearlstl/proj_cv/master/lmdb/synth1_train_lum_db/mean_file.binaryproto"
  }
  data_param {
    source: "/home/pearlstl/proj_cv/master/lmdb/synth1_train_lum_db"
    batch_size: 100
    backend: LMDB
  }
}
layer {
  name: "conv1"
  type: "Convolution"
  bottom: "data"
  top: "conv1"
  param {
    lr_mult: 1
    decay_mult: 1
  }
  param {
    lr_mult: 2
    decay_mult: 0
  }
  convolution_param {
    num_output: 8
    kernel_size: 11
    stride: 4
    weight_filler {
      type: "xavier"
    }
    bias_filler {
      type: "constant"
      value: 0
    }
  }
}
layer {
  name: "relu1"
  type: "ReLU"
  bottom: "conv1"
  top: "conv1"
}
layer {
  name: "pool1"
  type: "Pooling"
  bottom: "conv1"
  top: "pool1"
  pooling_param {
    pool: MAX
    kernel_size: 3
    stride: 2
  }
}
layer {
  name: "norm1"
  type: "LRN"
  bottom: "pool1"
  top: "norm1"
  lrn_param {
    local_size: 5
    alpha: 0.0001
    beta: 0.75
  }
}
layer {
  name: "conv2"
  type: "Convolution"
  bottom: "norm1"
  top: "conv2"
  param {
    lr_mult: 1
    decay_mult: 1
  }
  param {
    lr_mult: 2
    decay_mult: 0
  }
  convolution_param {
    num_output: 8
    pad: 2
    kernel_size: 5
    group: 2
    weight_filler {
      type: "xavier"
    }
    bias_filler {
      type: "constant"
      value: 1
    }
  }
}
layer {
  name: "relu2"
  type: "ReLU"
  bottom: "conv2"
  top: "conv2"
}
layer {
  name: "pool2"
  type: "Pooling"
  bottom: "conv2"
  top: "pool2"
  pooling_param {
    pool: MAX
    kernel_size: 3
    stride: 2
  }
}
layer {
  name: "norm2"
  type: "LRN"
  bottom: "pool2"
  top: "norm2"
  lrn_param {
    local_size: 5
    alpha: 0.0001
    beta: 0.75
  }
}
layer {
  name: "conv3"
  type: "Convolution"
  bottom: "norm2"
  top: "conv3"
  param {
    lr_mult: 1
    decay_mult: 1
  }
  param {
    lr_mult: 2
    decay_mult: 0
  }
  convolution_param {
    num_output: 8
    pad: 1
    kernel_size: 3
    weight_filler {
      type: "xavier"
    }
    bias_filler {
      type: "constant"
      value: 0
    }
  }
}
layer {
  name: "relu3"
  type: "ReLU"
  bottom: "conv3"
  top: "conv3"
}
layer {
  name: "conv4"
  type: "Convolution"
  bottom: "conv3"
  top: "conv4"
  param {
    lr_mult: 1
    decay_mult: 1
  }
  param {
    lr_mult: 2
    decay_mult: 0
  }
  convolution_param {
    num_output: 8
    pad: 1
    kernel_size: 3
    group: 2
    weight_filler {
      type: "xavier"
    }
    bias_filler {
      type: "constant"
      value: 1
    }
  }
}
layer {
  name: "relu4"
  type: "ReLU"
  bottom: "conv4"
  top: "conv4"
}
layer {
  name: "conv5"
  type: "Convolution"
  bottom: "conv4"
  top: "conv5"
  param {
    lr_mult: 1
    decay_mult: 1
  }
  param {
    lr_mult: 2
    decay_mult: 0
  }
  convolution_param {
    num_output: 8
    pad: 1
    kernel_size: 3
    group: 2
    weight_filler {
      type: "xavier"
    }
    bias_filler {
      type: "constant"
      value: 1
    }
  }
}
layer {
  name: "relu5"
  type: "ReLU"
  bottom: "conv5"
  top: "conv5"
}
layer {
  name: "pool5"
  type: "Pooling"
  bottom: "conv5"
  top: "pool5"
  pooling_param {
    pool: MAX
    kernel_size: 3
    stride: 2
  }
}
layer {
  name: "fc6"
  type: "InnerProduct"
  bottom: "pool5"
  top: "fc6"
  param {
    lr_mult: 1
    decay_mult: 1
  }
  param {
    lr_mult: 2
    decay_mult: 0
  }
  inner_product_param {
    num_output: 256
    weight_filler {
      type: "xavier"
    }
    bias_filler {
      type: "constant"
      value: 1
    }
  }
}
layer {
  name: "relu6"
  type: "ReLU"
  bottom: "fc6"
  top: "fc6"
}
layer {
  name: "drop6"
  type: "Dropout"
  bottom: "fc6"
  top: "fc6"
  dropout_param {
    dropout_ratio: 0.5
  }
}
layer {
  name: "fc7"
  type: "InnerProduct"
  bottom: "fc6"
  top: "fc7"
  param {
    lr_mult: 1
    decay_mult: 1
  }
  param {
    lr_mult: 2
    decay_mult: 0
  }
  inner_product_param {
    num_output: 256
    weight_filler {
      type: "xavier"
    }
    bias_filler {
      type: "constant"
      value: 1
    }
  }
}
layer {
  name: "relu7"
  type: "ReLU"
  bottom: "fc7"
  top: "fc7"
}
layer {
  name: "drop7"
  type: "Dropout"
  bottom: "fc7"
  top: "fc7"
  dropout_param {
    dropout_ratio: 0.5
  }
}
layer {
  name: "fc8"
  type: "InnerProduct"
  bottom: "fc7"
  top: "fc8"
  param {
    lr_mult: 1
    decay_mult: 1
  }
  param {
    lr_mult: 2
    decay_mult: 0
  }
  inner_product_param {
    num_output: 2
    weight_filler {
      type: "xavier"
    }
    bias_filler {
      type: "constant"
      value: 0
    }
  }
}
layer {
  name: "loss"
  type: "SoftmaxWithLoss"
  bottom: "fc8"
  bottom: "label"
  top: "loss"
}
I0204 16:30:49.019876  3516 layer_factory.hpp:77] Creating layer data
I0204 16:30:49.020058  3516 net.cpp:106] Creating Layer data
I0204 16:30:49.020074  3516 net.cpp:411] data -> data
I0204 16:30:49.020124  3516 net.cpp:411] data -> label
I0204 16:30:49.020145  3516 data_transformer.cpp:25] Loading mean file from: /home/pearlstl/proj_cv/master/lmdb/synth1_train_lum_db/mean_file.binaryproto
I0204 16:30:49.025238  3518 db_lmdb.cpp:38] Opened lmdb /home/pearlstl/proj_cv/master/lmdb/synth1_train_lum_db
I0204 16:30:49.025519  3516 data_layer.cpp:41] output data size: 100,1,227,227
I0204 16:30:49.075319  3516 net.cpp:150] Setting up data
I0204 16:30:49.075366  3516 net.cpp:157] Top shape: 100 1 227 227 (5152900)
I0204 16:30:49.075374  3516 net.cpp:157] Top shape: 100 (100)
I0204 16:30:49.075381  3516 net.cpp:165] Memory required for data: 20612000
I0204 16:30:49.075400  3516 layer_factory.hpp:77] Creating layer conv1
I0204 16:30:49.075424  3516 net.cpp:106] Creating Layer conv1
I0204 16:30:49.075433  3516 net.cpp:454] conv1 <- data
I0204 16:30:49.075453  3516 net.cpp:411] conv1 -> conv1
I0204 16:30:49.075547  3516 net.cpp:150] Setting up conv1
I0204 16:30:49.075559  3516 net.cpp:157] Top shape: 100 8 55 55 (2420000)
I0204 16:30:49.075565  3516 net.cpp:165] Memory required for data: 30292000
I0204 16:30:49.075582  3516 layer_factory.hpp:77] Creating layer relu1
I0204 16:30:49.075593  3516 net.cpp:106] Creating Layer relu1
I0204 16:30:49.075599  3516 net.cpp:454] relu1 <- conv1
I0204 16:30:49.075608  3516 net.cpp:397] relu1 -> conv1 (in-place)
I0204 16:30:49.075621  3516 net.cpp:150] Setting up relu1
I0204 16:30:49.075629  3516 net.cpp:157] Top shape: 100 8 55 55 (2420000)
I0204 16:30:49.075634  3516 net.cpp:165] Memory required for data: 39972000
I0204 16:30:49.075640  3516 layer_factory.hpp:77] Creating layer pool1
I0204 16:30:49.075650  3516 net.cpp:106] Creating Layer pool1
I0204 16:30:49.075656  3516 net.cpp:454] pool1 <- conv1
I0204 16:30:49.075665  3516 net.cpp:411] pool1 -> pool1
I0204 16:30:49.075688  3516 net.cpp:150] Setting up pool1
I0204 16:30:49.075698  3516 net.cpp:157] Top shape: 100 8 27 27 (583200)
I0204 16:30:49.075705  3516 net.cpp:165] Memory required for data: 42304800
I0204 16:30:49.075709  3516 layer_factory.hpp:77] Creating layer norm1
I0204 16:30:49.075729  3516 net.cpp:106] Creating Layer norm1
I0204 16:30:49.075745  3516 net.cpp:454] norm1 <- pool1
I0204 16:30:49.075753  3516 net.cpp:411] norm1 -> norm1
I0204 16:30:49.075770  3516 net.cpp:150] Setting up norm1
I0204 16:30:49.075779  3516 net.cpp:157] Top shape: 100 8 27 27 (583200)
I0204 16:30:49.075785  3516 net.cpp:165] Memory required for data: 44637600
I0204 16:30:49.075790  3516 layer_factory.hpp:77] Creating layer conv2
I0204 16:30:49.075800  3516 net.cpp:106] Creating Layer conv2
I0204 16:30:49.075806  3516 net.cpp:454] conv2 <- norm1
I0204 16:30:49.075815  3516 net.cpp:411] conv2 -> conv2
I0204 16:30:49.075845  3516 net.cpp:150] Setting up conv2
I0204 16:30:49.075855  3516 net.cpp:157] Top shape: 100 8 27 27 (583200)
I0204 16:30:49.075861  3516 net.cpp:165] Memory required for data: 46970400
I0204 16:30:49.075872  3516 layer_factory.hpp:77] Creating layer relu2
I0204 16:30:49.075881  3516 net.cpp:106] Creating Layer relu2
I0204 16:30:49.075886  3516 net.cpp:454] relu2 <- conv2
I0204 16:30:49.075894  3516 net.cpp:397] relu2 -> conv2 (in-place)
I0204 16:30:49.075903  3516 net.cpp:150] Setting up relu2
I0204 16:30:49.075911  3516 net.cpp:157] Top shape: 100 8 27 27 (583200)
I0204 16:30:49.075917  3516 net.cpp:165] Memory required for data: 49303200
I0204 16:30:49.075922  3516 layer_factory.hpp:77] Creating layer pool2
I0204 16:30:49.075930  3516 net.cpp:106] Creating Layer pool2
I0204 16:30:49.075937  3516 net.cpp:454] pool2 <- conv2
I0204 16:30:49.075943  3516 net.cpp:411] pool2 -> pool2
I0204 16:30:49.075955  3516 net.cpp:150] Setting up pool2
I0204 16:30:49.075963  3516 net.cpp:157] Top shape: 100 8 13 13 (135200)
I0204 16:30:49.075969  3516 net.cpp:165] Memory required for data: 49844000
I0204 16:30:49.075974  3516 layer_factory.hpp:77] Creating layer norm2
I0204 16:30:49.075984  3516 net.cpp:106] Creating Layer norm2
I0204 16:30:49.075990  3516 net.cpp:454] norm2 <- pool2
I0204 16:30:49.075999  3516 net.cpp:411] norm2 -> norm2
I0204 16:30:49.076009  3516 net.cpp:150] Setting up norm2
I0204 16:30:49.076016  3516 net.cpp:157] Top shape: 100 8 13 13 (135200)
I0204 16:30:49.076021  3516 net.cpp:165] Memory required for data: 50384800
I0204 16:30:49.076027  3516 layer_factory.hpp:77] Creating layer conv3
I0204 16:30:49.076036  3516 net.cpp:106] Creating Layer conv3
I0204 16:30:49.076042  3516 net.cpp:454] conv3 <- norm2
I0204 16:30:49.076050  3516 net.cpp:411] conv3 -> conv3
I0204 16:30:49.076078  3516 net.cpp:150] Setting up conv3
I0204 16:30:49.076087  3516 net.cpp:157] Top shape: 100 8 13 13 (135200)
I0204 16:30:49.076093  3516 net.cpp:165] Memory required for data: 50925600
I0204 16:30:49.076105  3516 layer_factory.hpp:77] Creating layer relu3
I0204 16:30:49.076127  3516 net.cpp:106] Creating Layer relu3
I0204 16:30:49.076133  3516 net.cpp:454] relu3 <- conv3
I0204 16:30:49.076141  3516 net.cpp:397] relu3 -> conv3 (in-place)
I0204 16:30:49.076150  3516 net.cpp:150] Setting up relu3
I0204 16:30:49.076159  3516 net.cpp:157] Top shape: 100 8 13 13 (135200)
I0204 16:30:49.076166  3516 net.cpp:165] Memory required for data: 51466400
I0204 16:30:49.076172  3516 layer_factory.hpp:77] Creating layer conv4
I0204 16:30:49.076182  3516 net.cpp:106] Creating Layer conv4
I0204 16:30:49.076189  3516 net.cpp:454] conv4 <- conv3
I0204 16:30:49.076196  3516 net.cpp:411] conv4 -> conv4
I0204 16:30:49.076221  3516 net.cpp:150] Setting up conv4
I0204 16:30:49.076231  3516 net.cpp:157] Top shape: 100 8 13 13 (135200)
I0204 16:30:49.076236  3516 net.cpp:165] Memory required for data: 52007200
I0204 16:30:49.076246  3516 layer_factory.hpp:77] Creating layer relu4
I0204 16:30:49.076253  3516 net.cpp:106] Creating Layer relu4
I0204 16:30:49.076259  3516 net.cpp:454] relu4 <- conv4
I0204 16:30:49.076267  3516 net.cpp:397] relu4 -> conv4 (in-place)
I0204 16:30:49.076275  3516 net.cpp:150] Setting up relu4
I0204 16:30:49.076282  3516 net.cpp:157] Top shape: 100 8 13 13 (135200)
I0204 16:30:49.076288  3516 net.cpp:165] Memory required for data: 52548000
I0204 16:30:49.076293  3516 layer_factory.hpp:77] Creating layer conv5
I0204 16:30:49.076308  3516 net.cpp:106] Creating Layer conv5
I0204 16:30:49.076324  3516 net.cpp:454] conv5 <- conv4
I0204 16:30:49.076333  3516 net.cpp:411] conv5 -> conv5
I0204 16:30:49.076356  3516 net.cpp:150] Setting up conv5
I0204 16:30:49.076365  3516 net.cpp:157] Top shape: 100 8 13 13 (135200)
I0204 16:30:49.076370  3516 net.cpp:165] Memory required for data: 53088800
I0204 16:30:49.076381  3516 layer_factory.hpp:77] Creating layer relu5
I0204 16:30:49.076390  3516 net.cpp:106] Creating Layer relu5
I0204 16:30:49.076395  3516 net.cpp:454] relu5 <- conv5
I0204 16:30:49.076403  3516 net.cpp:397] relu5 -> conv5 (in-place)
I0204 16:30:49.076412  3516 net.cpp:150] Setting up relu5
I0204 16:30:49.076419  3516 net.cpp:157] Top shape: 100 8 13 13 (135200)
I0204 16:30:49.076424  3516 net.cpp:165] Memory required for data: 53629600
I0204 16:30:49.076432  3516 layer_factory.hpp:77] Creating layer pool5
I0204 16:30:49.076441  3516 net.cpp:106] Creating Layer pool5
I0204 16:30:49.076447  3516 net.cpp:454] pool5 <- conv5
I0204 16:30:49.076454  3516 net.cpp:411] pool5 -> pool5
I0204 16:30:49.076465  3516 net.cpp:150] Setting up pool5
I0204 16:30:49.076473  3516 net.cpp:157] Top shape: 100 8 6 6 (28800)
I0204 16:30:49.076479  3516 net.cpp:165] Memory required for data: 53744800
I0204 16:30:49.076484  3516 layer_factory.hpp:77] Creating layer fc6
I0204 16:30:49.076500  3516 net.cpp:106] Creating Layer fc6
I0204 16:30:49.076508  3516 net.cpp:454] fc6 <- pool5
I0204 16:30:49.076516  3516 net.cpp:411] fc6 -> fc6
I0204 16:30:49.077291  3516 net.cpp:150] Setting up fc6
I0204 16:30:49.077304  3516 net.cpp:157] Top shape: 100 256 (25600)
I0204 16:30:49.077311  3516 net.cpp:165] Memory required for data: 53847200
I0204 16:30:49.077318  3516 layer_factory.hpp:77] Creating layer relu6
I0204 16:30:49.077327  3516 net.cpp:106] Creating Layer relu6
I0204 16:30:49.077333  3516 net.cpp:454] relu6 <- fc6
I0204 16:30:49.077342  3516 net.cpp:397] relu6 -> fc6 (in-place)
I0204 16:30:49.077352  3516 net.cpp:150] Setting up relu6
I0204 16:30:49.077360  3516 net.cpp:157] Top shape: 100 256 (25600)
I0204 16:30:49.077366  3516 net.cpp:165] Memory required for data: 53949600
I0204 16:30:49.077371  3516 layer_factory.hpp:77] Creating layer drop6
I0204 16:30:49.077381  3516 net.cpp:106] Creating Layer drop6
I0204 16:30:49.077388  3516 net.cpp:454] drop6 <- fc6
I0204 16:30:49.077394  3516 net.cpp:397] drop6 -> fc6 (in-place)
I0204 16:30:49.077412  3516 net.cpp:150] Setting up drop6
I0204 16:30:49.077419  3516 net.cpp:157] Top shape: 100 256 (25600)
I0204 16:30:49.077425  3516 net.cpp:165] Memory required for data: 54052000
I0204 16:30:49.077432  3516 layer_factory.hpp:77] Creating layer fc7
I0204 16:30:49.077441  3516 net.cpp:106] Creating Layer fc7
I0204 16:30:49.077447  3516 net.cpp:454] fc7 <- fc6
I0204 16:30:49.077455  3516 net.cpp:411] fc7 -> fc7
I0204 16:30:49.085759  3516 net.cpp:150] Setting up fc7
I0204 16:30:49.085795  3516 net.cpp:157] Top shape: 100 256 (25600)
I0204 16:30:49.085801  3516 net.cpp:165] Memory required for data: 54154400
I0204 16:30:49.085813  3516 layer_factory.hpp:77] Creating layer relu7
I0204 16:30:49.085829  3516 net.cpp:106] Creating Layer relu7
I0204 16:30:49.085836  3516 net.cpp:454] relu7 <- fc7
I0204 16:30:49.085849  3516 net.cpp:397] relu7 -> fc7 (in-place)
I0204 16:30:49.085862  3516 net.cpp:150] Setting up relu7
I0204 16:30:49.085870  3516 net.cpp:157] Top shape: 100 256 (25600)
I0204 16:30:49.085875  3516 net.cpp:165] Memory required for data: 54256800
I0204 16:30:49.085881  3516 layer_factory.hpp:77] Creating layer drop7
I0204 16:30:49.085898  3516 net.cpp:106] Creating Layer drop7
I0204 16:30:49.085904  3516 net.cpp:454] drop7 <- fc7
I0204 16:30:49.085911  3516 net.cpp:397] drop7 -> fc7 (in-place)
I0204 16:30:49.085923  3516 net.cpp:150] Setting up drop7
I0204 16:30:49.085930  3516 net.cpp:157] Top shape: 100 256 (25600)
I0204 16:30:49.085937  3516 net.cpp:165] Memory required for data: 54359200
I0204 16:30:49.085942  3516 layer_factory.hpp:77] Creating layer fc8
I0204 16:30:49.085953  3516 net.cpp:106] Creating Layer fc8
I0204 16:30:49.085968  3516 net.cpp:454] fc8 <- fc7
I0204 16:30:49.085989  3516 net.cpp:411] fc8 -> fc8
I0204 16:30:49.086017  3516 net.cpp:150] Setting up fc8
I0204 16:30:49.086025  3516 net.cpp:157] Top shape: 100 2 (200)
I0204 16:30:49.086031  3516 net.cpp:165] Memory required for data: 54360000
I0204 16:30:49.086040  3516 layer_factory.hpp:77] Creating layer loss
I0204 16:30:49.086047  3516 net.cpp:106] Creating Layer loss
I0204 16:30:49.086053  3516 net.cpp:454] loss <- fc8
I0204 16:30:49.086061  3516 net.cpp:454] loss <- label
I0204 16:30:49.086073  3516 net.cpp:411] loss -> loss
I0204 16:30:49.086089  3516 layer_factory.hpp:77] Creating layer loss
…
I0204 16:30:49.087143  3516 net.cpp:322] The NetState phase (1) differed from the phase (0) specified by a rule in layer data
I0204 16:30:49.087424  3516 net.cpp:49] Initializing net from parameters: 
name: "CaffeNet"
state {
  phase: TEST
}
layer {
  name: "data"
  type: "Data"
  top: "data"
  top: "label"
  include {
    phase: TEST
  }
  transform_param {
    mirror: false
    crop_size: 227
    mean_file: "/home/pearlstl/proj_cv/master/lmdb/synth1_test_lum_db/mean_file.binaryproto"
  }
  data_param {
    source: "/home/pearlstl/proj_cv/master/lmdb/synth1_test_lum_db"
    batch_size: 100
    backend: LMDB
  }
}
layer {
  name: "conv1"
  type: "Convolution"
  bottom: "data"
  top: "conv1"
  param {
    lr_mult: 1
    decay_mult: 1
  }
  param {
    lr_mult: 2
    decay_mult: 0
  }
  convolution_param {
    num_output: 8
    kernel_size: 11
    stride: 4
    weight_filler {
      type: "xavier"
    }
    bias_filler {
      type: "constant"
      value: 0
    }
  }
}
layer {
  name: "relu1"
  type: "ReLU"
  bottom: "conv1"
  top: "conv1"
}
layer {
  name: "pool1"
  type: "Pooling"
  bottom: "conv1"
  top: "pool1"
  pooling_param {
    pool: MAX
    kernel_size: 3
    stride: 2
  }
}
layer {
  name: "norm1"
  type: "LRN"
  bottom: "pool1"
  top: "norm1"
  lrn_param {
    local_size: 5
    alpha: 0.0001
    beta: 0.75
  }
}
layer {
  name: "conv2"
  type: "Convolution"
  bottom: "norm1"
  top: "conv2"
  param {
    lr_mult: 1
    decay_mult: 1
  }
  param {
    lr_mult: 2
    decay_mult: 0
  }
  convolution_param {
    num_output: 8
    pad: 2
    kernel_size: 5
    group: 2
    weight_filler {
      type: "xavier"
    }
    bias_filler {
      type: "constant"
      value: 1
    }
  }
}
layer {
  name: "relu2"
  type: "ReLU"
  bottom: "conv2"
  top: "conv2"
}
layer {
  name: "pool2"
  type: "Pooling"
  bottom: "conv2"
  top: "pool2"
  pooling_param {
    pool: MAX
    kernel_size: 3
    stride: 2
  }
}
layer {
  name: "norm2"
  type: "LRN"
  bottom: "pool2"
  top: "norm2"
  lrn_param {
    local_size: 5
    alpha: 0.0001
    beta: 0.75
  }
}
layer {
  name: "conv3"
  type: "Convolution"
  bottom: "norm2"
  top: "conv3"
  param {
    lr_mult: 1
    decay_mult: 1
  }
  param {
    lr_mult: 2
    decay_mult: 0
  }
  convolution_param {
    num_output: 8
    pad: 1
    kernel_size: 3
    weight_filler {
      type: "xavier"
    }
    bias_filler {
      type: "constant"
      value: 0
    }
  }
}
layer {
  name: "relu3"
  type: "ReLU"
  bottom: "conv3"
  top: "conv3"
}
layer {
  name: "conv4"
  type: "Convolution"
  bottom: "conv3"
  top: "conv4"
  param {
    lr_mult: 1
    decay_mult: 1
  }
  param {
    lr_mult: 2
    decay_mult: 0
  }
  convolution_param {
    num_output: 8
    pad: 1
    kernel_size: 3
    group: 2
    weight_filler {
      type: "xavier"
    }
    bias_filler {
      type: "constant"
      value: 1
    }
  }
}
layer {
  name: "relu4"
  type: "ReLU"
  bottom: "conv4"
  top: "conv4"
}
layer {
  name: "conv5"
  type: "Convolution"
  bottom: "conv4"
  top: "conv5"
  param {
    lr_mult: 1
    decay_mult: 1
  }
  param {
    lr_mult: 2
    decay_mult: 0
  }
  convolution_param {
    num_output: 8
    pad: 1
    kernel_size: 3
    group: 2
    weight_filler {
      type: "xavier"
    }
    bias_filler {
      type: "constant"
      value: 1
    }
  }
}
layer {
  name: "relu5"
  type: "ReLU"
  bottom: "conv5"
  top: "conv5"
}
layer {
  name: "pool5"
  type: "Pooling"
  bottom: "conv5"
  top: "pool5"
  pooling_param {
    pool: MAX
    kernel_size: 3
    stride: 2
  }
}
layer {
  name: "fc6"
  type: "InnerProduct"
  bottom: "pool5"
  top: "fc6"
  param {
    lr_mult: 1
    decay_mult: 1
  }
  param {
    lr_mult: 2
    decay_mult: 0
  }
  inner_product_param {
    num_output: 256
    weight_filler {
      type: "xavier"
    }
    bias_filler {
      type: "constant"
      value: 1
    }
  }
}
layer {
  name: "relu6"
  type: "ReLU"
  bottom: "fc6"
  top: "fc6"
}
layer {
  name: "drop6"
  type: "Dropout"
  bottom: "fc6"
  top: "fc6"
  dropout_param {
    dropout_ratio: 0.5
  }
}
layer {
  name: "fc7"
  type: "InnerProduct"
  bottom: "fc6"
  top: "fc7"
  param {
    lr_mult: 1
    decay_mult: 1
  }
  param {
    lr_mult: 2
    decay_mult: 0
  }
  inner_product_param {
    num_output: 256
    weight_filler {
      type: "xavier"
    }
    bias_filler {
      type: "constant"
      value: 1
    }
  }
}
layer {
  name: "relu7"
  type: "ReLU"
  bottom: "fc7"
  top: "fc7"
}
layer {
  name: "drop7"
  type: "Dropout"
  bottom: "fc7"
  top: "fc7"
  dropout_param {
    dropout_ratio: 0.5
  }
}
layer {
  name: "fc8"
  type: "InnerProduct"
  bottom: "fc7"
  top: "fc8"
  param {
    lr_mult: 1
    decay_mult: 1
  }
  param {
    lr_mult: 2
    decay_mult: 0
  }
  inner_product_param {
    num_output: 2
    weight_filler {
      type: "xavier"
    }
    bias_filler {
      type: "constant"
      value: 0
    }
  }
}
layer {
  name: "accuracy"
  type: "Accuracy"
  bottom: "fc8"
  bottom: "label"
  top: "accuracy"
  include {
    phase: TEST
  }
}
layer {
  name: "loss"
  type: "SoftmaxWithLoss"
  bottom: "fc8"
  bottom: "label"
  top: "loss"
}
I0204 16:30:49.087581  3516 layer_factory.hpp:77] Creating layer data
I0204 16:30:49.087725  3516 net.cpp:106] Creating Layer data
I0204 16:30:49.087738  3516 net.cpp:411] data -> data
I0204 16:30:49.087750  3516 net.cpp:411] data -> label
I0204 16:30:49.087764  3516 data_transformer.cpp:25] Loading mean file from: /home/pearlstl/proj_cv/master/lmdb/synth1_test_lum_db/mean_file.binaryproto
I0204 16:30:49.103982  3520 db_lmdb.cpp:38] Opened lmdb /home/pearlstl/proj_cv/master/lmdb/synth1_test_lum_db
I0204 16:30:49.104223  3516 data_layer.cpp:41] output data size: 100,1,227,227
I0204 16:30:49.142737  3516 net.cpp:150] Setting up data
I0204 16:30:49.142801  3516 net.cpp:157] Top shape: 100 1 227 227 (5152900)
I0204 16:30:49.142814  3516 net.cpp:157] Top shape: 100 (100)
I0204 16:30:49.142823  3516 net.cpp:165] Memory required for data: 20612000
I0204 16:30:49.142838  3516 layer_factory.hpp:77] Creating layer label_data_1_split
I0204 16:30:49.142868  3516 net.cpp:106] Creating Layer label_data_1_split
I0204 16:30:49.142879  3516 net.cpp:454] label_data_1_split <- label
I0204 16:30:49.142896  3516 net.cpp:411] label_data_1_split -> label_data_1_split_0
I0204 16:30:49.142922  3516 net.cpp:411] label_data_1_split -> label_data_1_split_1
I0204 16:30:49.142945  3516 net.cpp:150] Setting up label_data_1_split
I0204 16:30:49.142958  3516 net.cpp:157] Top shape: 100 (100)
I0204 16:30:49.142973  3516 net.cpp:157] Top shape: 100 (100)
I0204 16:30:49.142982  3516 net.cpp:165] Memory required for data: 20612800
I0204 16:30:49.142994  3516 layer_factory.hpp:77] Creating layer conv1
I0204 16:30:49.143018  3516 net.cpp:106] Creating Layer conv1
I0204 16:30:49.143028  3516 net.cpp:454] conv1 <- data
I0204 16:30:49.143054  3516 net.cpp:411] conv1 -> conv1
I0204 16:30:49.143134  3516 net.cpp:150] Setting up conv1
I0204 16:30:49.143153  3516 net.cpp:157] Top shape: 100 8 55 55 (2420000)
I0204 16:30:49.143163  3516 net.cpp:165] Memory required for data: 30292800
I0204 16:30:49.143184  3516 layer_factory.hpp:77] Creating layer relu1
I0204 16:30:49.143200  3516 net.cpp:106] Creating Layer relu1
I0204 16:30:49.143210  3516 net.cpp:454] relu1 <- conv1
I0204 16:30:49.143227  3516 net.cpp:397] relu1 -> conv1 (in-place)
I0204 16:30:49.143245  3516 net.cpp:150] Setting up relu1
I0204 16:30:49.143259  3516 net.cpp:157] Top shape: 100 8 55 55 (2420000)
I0204 16:30:49.143267  3516 net.cpp:165] Memory required for data: 39972800
I0204 16:30:49.143276  3516 layer_factory.hpp:77] Creating layer pool1
I0204 16:30:49.143296  3516 net.cpp:106] Creating Layer pool1
I0204 16:30:49.143307  3516 net.cpp:454] pool1 <- conv1
I0204 16:30:49.143321  3516 net.cpp:411] pool1 -> pool1
I0204 16:30:49.143344  3516 net.cpp:150] Setting up pool1
I0204 16:30:49.143362  3516 net.cpp:157] Top shape: 100 8 27 27 (583200)
I0204 16:30:49.143373  3516 net.cpp:165] Memory required for data: 42305600
I0204 16:30:49.143381  3516 layer_factory.hpp:77] Creating layer norm1
I0204 16:30:49.143396  3516 net.cpp:106] Creating Layer norm1
I0204 16:30:49.143405  3516 net.cpp:454] norm1 <- pool1
I0204 16:30:49.143419  3516 net.cpp:411] norm1 -> norm1
I0204 16:30:49.143437  3516 net.cpp:150] Setting up norm1
I0204 16:30:49.143450  3516 net.cpp:157] Top shape: 100 8 27 27 (583200)
I0204 16:30:49.143458  3516 net.cpp:165] Memory required for data: 44638400
I0204 16:30:49.143471  3516 layer_factory.hpp:77] Creating layer conv2
I0204 16:30:49.143487  3516 net.cpp:106] Creating Layer conv2
I0204 16:30:49.143497  3516 net.cpp:454] conv2 <- norm1
I0204 16:30:49.143512  3516 net.cpp:411] conv2 -> conv2
I0204 16:30:49.143569  3516 net.cpp:150] Setting up conv2
I0204 16:30:49.143585  3516 net.cpp:157] Top shape: 100 8 27 27 (583200)
I0204 16:30:49.143594  3516 net.cpp:165] Memory required for data: 46971200
I0204 16:30:49.143615  3516 layer_factory.hpp:77] Creating layer relu2
I0204 16:30:49.143630  3516 net.cpp:106] Creating Layer relu2
I0204 16:30:49.143640  3516 net.cpp:454] relu2 <- conv2
I0204 16:30:49.143652  3516 net.cpp:397] relu2 -> conv2 (in-place)
I0204 16:30:49.143682  3516 net.cpp:150] Setting up relu2
I0204 16:30:49.143707  3516 net.cpp:157] Top shape: 100 8 27 27 (583200)
I0204 16:30:49.143718  3516 net.cpp:165] Memory required for data: 49304000
I0204 16:30:49.143729  3516 layer_factory.hpp:77] Creating layer pool2
I0204 16:30:49.143744  3516 net.cpp:106] Creating Layer pool2
I0204 16:30:49.143754  3516 net.cpp:454] pool2 <- conv2
I0204 16:30:49.143769  3516 net.cpp:411] pool2 -> pool2
I0204 16:30:49.143793  3516 net.cpp:150] Setting up pool2
I0204 16:30:49.143810  3516 net.cpp:157] Top shape: 100 8 13 13 (135200)
I0204 16:30:49.143817  3516 net.cpp:165] Memory required for data: 49844800
I0204 16:30:49.143826  3516 layer_factory.hpp:77] Creating layer norm2
I0204 16:30:49.143841  3516 net.cpp:106] Creating Layer norm2
I0204 16:30:49.143849  3516 net.cpp:454] norm2 <- pool2
I0204 16:30:49.143868  3516 net.cpp:411] norm2 -> norm2
I0204 16:30:49.143885  3516 net.cpp:150] Setting up norm2
I0204 16:30:49.143898  3516 net.cpp:157] Top shape: 100 8 13 13 (135200)
I0204 16:30:49.143906  3516 net.cpp:165] Memory required for data: 50385600
I0204 16:30:49.143914  3516 layer_factory.hpp:77] Creating layer conv3
I0204 16:30:49.143929  3516 net.cpp:106] Creating Layer conv3
I0204 16:30:49.143939  3516 net.cpp:454] conv3 <- norm2
I0204 16:30:49.143954  3516 net.cpp:411] conv3 -> conv3
I0204 16:30:49.144004  3516 net.cpp:150] Setting up conv3
I0204 16:30:49.144021  3516 net.cpp:157] Top shape: 100 8 13 13 (135200)
I0204 16:30:49.144032  3516 net.cpp:165] Memory required for data: 50926400
I0204 16:30:49.144058  3516 layer_factory.hpp:77] Creating layer relu3
I0204 16:30:49.144071  3516 net.cpp:106] Creating Layer relu3
I0204 16:30:49.144081  3516 net.cpp:454] relu3 <- conv3
I0204 16:30:49.144096  3516 net.cpp:397] relu3 -> conv3 (in-place)
I0204 16:30:49.144115  3516 net.cpp:150] Setting up relu3
I0204 16:30:49.144126  3516 net.cpp:157] Top shape: 100 8 13 13 (135200)
I0204 16:30:49.144135  3516 net.cpp:165] Memory required for data: 51467200
I0204 16:30:49.144143  3516 layer_factory.hpp:77] Creating layer conv4
I0204 16:30:49.144160  3516 net.cpp:106] Creating Layer conv4
I0204 16:30:49.144168  3516 net.cpp:454] conv4 <- conv3
I0204 16:30:49.144181  3516 net.cpp:411] conv4 -> conv4
I0204 16:30:49.144225  3516 net.cpp:150] Setting up conv4
I0204 16:30:49.144242  3516 net.cpp:157] Top shape: 100 8 13 13 (135200)
I0204 16:30:49.144249  3516 net.cpp:165] Memory required for data: 52008000
I0204 16:30:49.144263  3516 layer_factory.hpp:77] Creating layer relu4
I0204 16:30:49.144275  3516 net.cpp:106] Creating Layer relu4
I0204 16:30:49.144289  3516 net.cpp:454] relu4 <- conv4
I0204 16:30:49.144302  3516 net.cpp:397] relu4 -> conv4 (in-place)
I0204 16:30:49.144317  3516 net.cpp:150] Setting up relu4
I0204 16:30:49.144330  3516 net.cpp:157] Top shape: 100 8 13 13 (135200)
I0204 16:30:49.144337  3516 net.cpp:165] Memory required for data: 52548800
I0204 16:30:49.144348  3516 layer_factory.hpp:77] Creating layer conv5
I0204 16:30:49.144366  3516 net.cpp:106] Creating Layer conv5
I0204 16:30:49.144376  3516 net.cpp:454] conv5 <- conv4
I0204 16:30:49.144390  3516 net.cpp:411] conv5 -> conv5
I0204 16:30:49.144430  3516 net.cpp:150] Setting up conv5
I0204 16:30:49.144445  3516 net.cpp:157] Top shape: 100 8 13 13 (135200)
I0204 16:30:49.144454  3516 net.cpp:165] Memory required for data: 53089600
I0204 16:30:49.144476  3516 layer_factory.hpp:77] Creating layer relu5
I0204 16:30:49.144490  3516 net.cpp:106] Creating Layer relu5
I0204 16:30:49.144498  3516 net.cpp:454] relu5 <- conv5
I0204 16:30:49.144510  3516 net.cpp:397] relu5 -> conv5 (in-place)
I0204 16:30:49.144528  3516 net.cpp:150] Setting up relu5
I0204 16:30:49.144541  3516 net.cpp:157] Top shape: 100 8 13 13 (135200)
I0204 16:30:49.144549  3516 net.cpp:165] Memory required for data: 53630400
I0204 16:30:49.144558  3516 layer_factory.hpp:77] Creating layer pool5
I0204 16:30:49.144572  3516 net.cpp:106] Creating Layer pool5
I0204 16:30:49.144582  3516 net.cpp:454] pool5 <- conv5
I0204 16:30:49.144598  3516 net.cpp:411] pool5 -> pool5
I0204 16:30:49.144628  3516 net.cpp:150] Setting up pool5
I0204 16:30:49.144651  3516 net.cpp:157] Top shape: 100 8 6 6 (28800)
I0204 16:30:49.144659  3516 net.cpp:165] Memory required for data: 53745600
I0204 16:30:49.144668  3516 layer_factory.hpp:77] Creating layer fc6
I0204 16:30:49.144685  3516 net.cpp:106] Creating Layer fc6
I0204 16:30:49.144695  3516 net.cpp:454] fc6 <- pool5
I0204 16:30:49.144712  3516 net.cpp:411] fc6 -> fc6
I0204 16:30:49.146056  3516 net.cpp:150] Setting up fc6
I0204 16:30:49.146087  3516 net.cpp:157] Top shape: 100 256 (25600)
I0204 16:30:49.146098  3516 net.cpp:165] Memory required for data: 53848000
I0204 16:30:49.146116  3516 layer_factory.hpp:77] Creating layer relu6
I0204 16:30:49.146131  3516 net.cpp:106] Creating Layer relu6
I0204 16:30:49.146142  3516 net.cpp:454] relu6 <- fc6
I0204 16:30:49.146163  3516 net.cpp:397] relu6 -> fc6 (in-place)
I0204 16:30:49.146183  3516 net.cpp:150] Setting up relu6
I0204 16:30:49.146196  3516 net.cpp:157] Top shape: 100 256 (25600)
I0204 16:30:49.146205  3516 net.cpp:165] Memory required for data: 53950400
I0204 16:30:49.146215  3516 layer_factory.hpp:77] Creating layer drop6
I0204 16:30:49.146235  3516 net.cpp:106] Creating Layer drop6
I0204 16:30:49.146245  3516 net.cpp:454] drop6 <- fc6
I0204 16:30:49.146265  3516 net.cpp:397] drop6 -> fc6 (in-place)
I0204 16:30:49.146288  3516 net.cpp:150] Setting up drop6
I0204 16:30:49.146301  3516 net.cpp:157] Top shape: 100 256 (25600)
I0204 16:30:49.146311  3516 net.cpp:165] Memory required for data: 54052800
I0204 16:30:49.146320  3516 layer_factory.hpp:77] Creating layer fc7
I0204 16:30:49.146347  3516 net.cpp:106] Creating Layer fc7
I0204 16:30:49.146356  3516 net.cpp:454] fc7 <- fc6
I0204 16:30:49.146373  3516 net.cpp:411] fc7 -> fc7
I0204 16:30:49.147682  3516 net.cpp:150] Setting up fc7
I0204 16:30:49.147708  3516 net.cpp:157] Top shape: 100 256 (25600)
I0204 16:30:49.147718  3516 net.cpp:165] Memory required for data: 54155200
I0204 16:30:49.147739  3516 layer_factory.hpp:77] Creating layer relu7
I0204 16:30:49.147758  3516 net.cpp:106] Creating Layer relu7
I0204 16:30:49.147769  3516 net.cpp:454] relu7 <- fc7
I0204 16:30:49.147783  3516 net.cpp:397] relu7 -> fc7 (in-place)
I0204 16:30:49.147806  3516 net.cpp:150] Setting up relu7
I0204 16:30:49.147821  3516 net.cpp:157] Top shape: 100 256 (25600)
I0204 16:30:49.147830  3516 net.cpp:165] Memory required for data: 54257600
I0204 16:30:49.147840  3516 layer_factory.hpp:77] Creating layer drop7
I0204 16:30:49.147855  3516 net.cpp:106] Creating Layer drop7
I0204 16:30:49.147871  3516 net.cpp:454] drop7 <- fc7
I0204 16:30:49.147889  3516 net.cpp:397] drop7 -> fc7 (in-place)
I0204 16:30:49.147912  3516 net.cpp:150] Setting up drop7
I0204 16:30:49.147925  3516 net.cpp:157] Top shape: 100 256 (25600)
I0204 16:30:49.147934  3516 net.cpp:165] Memory required for data: 54360000
I0204 16:30:49.147944  3516 layer_factory.hpp:77] Creating layer fc8
I0204 16:30:49.147961  3516 net.cpp:106] Creating Layer fc8
I0204 16:30:49.147971  3516 net.cpp:454] fc8 <- fc7
I0204 16:30:49.147997  3516 net.cpp:411] fc8 -> fc8
I0204 16:30:49.148062  3516 net.cpp:150] Setting up fc8
I0204 16:30:49.148082  3516 net.cpp:157] Top shape: 100 2 (200)
I0204 16:30:49.148092  3516 net.cpp:165] Memory required for data: 54360800
I0204 16:30:49.148108  3516 layer_factory.hpp:77] Creating layer fc8_fc8_0_split
I0204 16:30:49.148128  3516 net.cpp:106] Creating Layer fc8_fc8_0_split
I0204 16:30:49.148139  3516 net.cpp:454] fc8_fc8_0_split <- fc8
I0204 16:30:49.148157  3516 net.cpp:411] fc8_fc8_0_split -> fc8_fc8_0_split_0
I0204 16:30:49.148175  3516 net.cpp:411] fc8_fc8_0_split -> fc8_fc8_0_split_1
I0204 16:30:49.148195  3516 net.cpp:150] Setting up fc8_fc8_0_split
I0204 16:30:49.148210  3516 net.cpp:157] Top shape: 100 2 (200)
I0204 16:30:49.148221  3516 net.cpp:157] Top shape: 100 2 (200)
I0204 16:30:49.148236  3516 net.cpp:165] Memory required for data: 54362400
I0204 16:30:49.148247  3516 layer_factory.hpp:77] Creating layer accuracy
I0204 16:30:49.148267  3516 net.cpp:106] Creating Layer accuracy
I0204 16:30:49.148293  3516 net.cpp:454] accuracy <- fc8_fc8_0_split_0
I0204 16:30:49.148321  3516 net.cpp:454] accuracy <- label_data_1_split_0
I0204 16:30:49.148339  3516 net.cpp:411] accuracy -> accuracy
…
